checkpoints/ae.pt (torch, 914891 bytes, 16 tensors)

encoder.linear1.weight f4 [236, 358]
0	0xba6c31d4	-0.00090101105
1	0x3a6d343f	0.0009048618
2	0x3ad790cf	0.0016446355
3	0xba430316	-0.00074391195
4	0xba5715bb	-0.0008204837
5	0xba548401	-0.00081068283
6	0x3c87e7f5	0.016590098
7	0xbb126c79	-0.0022342487
8	0x3c8979f8	0.016781792
9	0xbada14b3	-0.0016638249
10	0xbafcf6a4	-0.0019299579
11	0xba56a5a0	-0.0008188132
12	0xbaddb0b5	-0.0016913625
13	0xbac78bbf	-0.0015224143
14	0xbb268847	-0.0025410817
15	0xbb979664	-0.0046260823
16	0xbafc46b2	-0.0019247143
17	0xbb5266a0	-0.0032104626
18	0xbba7824b	-0.0051119677
19	0xbb8543f5	-0.004066939
20	0xb8aee443	-8.3394836e-05
21	0xbb8e62b2	-0.0043452615
22	0xbafba49d	-0.0019198839
23	0xbaf87153	-0.0018954672
24	0x3a83f28c	0.0010066791
25	0xbb72ac93	-0.0037029132
26	0xb8f402d0	-0.000116353505
27	0xba7f1b98	-0.000973159
28	0xbb908072	-0.004409843
29	0xbb6ab0a4	-0.0035810852
30	0x3a7dd46f	0.0009682839
31	0x3aa10773	0.0012285545
32	0x3b2ee36e	0.0026685852
33	0x3b3ed51b	0.002911872
34	0xb969d58f	-0.00022300168
35	0x3b4c76bb	0.0031198699
36	0xbcaf8453	-0.021425402
37	0xbaa20280	-0.0012360364
38	0x3a8341b8	0.0010014093
39	0xbac9b15d	-0.0015387941
40	0x3b9127a2	0.0044297734
41	0xbadabf1d	-0.0016689036
42	0xba7e35fd	-0.0009697376
43	0xbb94e35d	-0.0045437054
44	0xbbbf9ac3	-0.0058473065
45	0xb9bb23b4	-0.0003569402
46	0xba8e04fb	-0.0010835225
47	0xbbe9965a	-0.007128519
48	0x39c022a6	0.0003664691
49	0xbb31b058	-0.0027113166
50	0x3b5b4c1f	0.003346212
51	0xbb75ec3b	-0.0037524838
52	0xbb8480ae	-0.00404366
53	0xbd00459d	-0.03131639
54	0xbba08d97	-0.0048996913
55	0xbb81b95f	-0.0039588655
56	0xbba212db	-0.0049460954
57	0xbbae44da	-0.0053182663
58	0xbbc23c61	-0.005927608
59	0xbb889126	-0.0041676937
60	0xbbb8f043	-0.005643876
61	0xbb51c083	-0.0032005615
62	0xbb14b7b1	-0.0022692496
63	0xba411b80	-0.00073664635
64	0xb9a1fbda	-0.00030895957
65	0xbbae2ee7	-0.00531565
66	0xbbae59c4	-0.0053207595
67	0xbb6f4410	-0.0036509074
68	0xbac156a7	-0.0014750556
69	0x39907400	0.00027552247
70	0x3af7bd00	0.0018900931
71	0x397fd009	0.00024396194
72	0x3919dfdf	0.00014674616
73	0xbb177789	-0.002311202
74	0xb8573992	-5.131361e-05
75	0xb8793b59	-5.9421498e-05
76	0xb882c4c6	-6.235535e-05
77	0xba3914cf	-0.00070602907
78	0x3af2c57b	0.0018521989
79	0x3af37780	0.0018575042
80	0x3a4e33bc	0.00078659854
81	0x3b373c5d	0.0027959563
82	0xbb004f83	-0.0019578643
83	0xbb102f2c	-0.0022000773
84	0xbafec676	-0.0019437808
85	0xbb0388a4	-0.0020070458
86	0xbb0f677d	-0.0021881752
87	0xbad937bf	-0.00165724
88	0xbae9e846	-0.0017845712
89	0xbac78594	-0.0015222305
90	0xba08c738	-0.0005217674
91	0x38824124	6.2110164e-05
92	0x3b6b880e	0.003593925
93	0xbb777ce0	-0.003776364
94	0x3ac017ea	0.0014655564
95	0xbd0a9804	-0.03383638
96	0xbbec11f6	-0.0072042895
97	0xbc0d6c15	-0.008631726
98	0xbc0d765a	-0.008634174
99	0x39d48b9a	0.00040539802
100	0xb9e172f6	-0.00043000997
101	0x3b0f73e6	0.002188915
102	0xba89bdeb	-0.001050887
103	0xbd4154b9	-0.04719994
104	0xbb18aad8	-0.002329519
105	0xbacb8db5	-0.0015529903
106	0xba867c9d	-0.0010260526
107	0x3c75bd80	0.014998794
108	0xbc5e3e80	-0.013564706
109	0x3c853d52	0.016264591
110	0xbc50c3d9	-0.012742006
111	0x3c8a3a75	0.016873578
112	0xb9665f59	-0.00021970029
113	0xbbccfebf	-0.006255954
114	0xbc03f906	-0.008054977
115	0x3baedf4a	0.0053366767
116	0xbbd0767b	-0.00636178
117	0xbb903080	-0.004400313
118	0xbc7cd184	-0.015430812
119	0xbbcda001	-0.0062751775
120	0x3ac0549c	0.0014673653
121	0xb9d17fee	-0.00039958901
122	0x3acfae00	0.0015844703
123	0xb9732363	-0.00023187468
124	0xba31043f	-0.0006752647
125	0xbd2af454	-0.041736916
126	0xbd2cf529	-0.04222599
127	0xbbdcea4f	-0.006741799
128	0xbb9cff5e	-0.0047911843
129	0xbaa086e4	-0.0012247232
130	0xbb36fbc8	-0.002792107
131	0xbb047ac9	-0.0020214787
132	0x3b0f4fa3	0.0021867536
133	0x36904394	4.2994016e-06
134	0xbb2c8ea4	-0.0026330138
135	0xbb6386f4	-0.003471789
136	0xbb92dfe4	-0.0044822562
137	0xba533353	-0.0008056659
138	0xbab40a17	-0.0013735917
139	0xbb00b8b6	-0.0019641346
140	0xbc207007	-0.009792334
141	0xbb79cef2	-0.0038117734
142	0xbb03ac46	-0.0020091697
143	0x3b1e4bb4	0.002415401
144	0x3b11557f	0.0022176204
145	0x3b027a3f	0.001990929
146	0x3c058ac2	0.008150758
147	0xbba7eee8	-0.0051249154
148	0xbb914c54	-0.004434148
149	0x3c172444	0.009224955
150	0xbb88ca1e	-0.004174485
151	0xbc0ef90a	-0.008726368
152	0xbc8865bd	-0.016650075
153	0xbacfd2cd	-0.001585567
154	0xbc6748a5	-0.014116441
155	0x3c08a1a9	0.008339324
156	0x3bcb2293	0.00619919
157	0xbc1d58eb	-0.009603719
158	0x3c07556a	0.00826011
159	0x3b18e297	0.0023328417
160	0xba3a8435	-0.00071150373
161	0x3a68e14d	0.000888367
162	0x3ac2b424	0.0014854711
163	0x3a59bc33	0.0008305937
164	0x397b0b12	0.0002394135
165	0x3a19cd62	0.0005867091
166	0x3a6cddf1	0.00090357574
167	0x3a79b05d	0.00095248764
168	0x3941a812	0.00018468525
169	0xb704f6e0	-7.925293e-06
170	0x3a61f58b	0.00086196576
171	0x39011fa6	0.00012314189
172	0x3ac99234	0.0015378655
173	0x3a9211ad	0.0011144184
174	0xb9dc5d72	-0.00042031292
175	0x38d147c1	9.979262e-05
176	0x383b9332	4.472136e-05
177	0x39705922	0.00022921388
178	0xb9818854	-0.0002470637
179	0x3b216d75	0.0024631892
180	0x3a9965ae	0.0011703277
181	0x3a05cae7	0.0005103782
182	0xb92654d4	-0.00015862595
183	0xb971dc17	-0.00023065541
184	0xbb53c570	-0.0032313727
185	0x3b903223	0.004400508
186	0x37f951af	2.972115e-05
187	0x37eccb60	2.8228096e-05
188	0xb813822e	-3.516877e-05
189	0xbc05c2e6	-0.008164143
190	0xbc89de92	-0.016829763
191	0x38395586	4.4187087e-05
192	0x37996d7d	1.8290006e-05
193	0xb6eb7081	-7.016643e-06
194	0xb64c0444	-3.0400852e-06
195	0xbc1a0898	-0.009401463
196	0xb783315e	-1.5639405e-05
197	0xb850cb90	-4.9780647e-05
198	0x37d9165e	2.5878831e-05
199	0xb85ff998	-5.3399795e-05
200	0x381d9f27	3.757994e-05
201	0xb9539c8d	-0.00020180848
202	0x3799cf02	1.8335417e-05
203	0xb86f15fa	-5.7002508e-05
204	0x39e59bab	0.00043794265
205	0x385178ae	4.9941875e-05
206	0xb6dffc38	-6.67528e-06
207	0x3859f150	5.196157e-05
208	0xb84ca808	-4.879388e-05
209	0x389480fc	7.081215e-05
210	0xb77ea0d5	-1.5177026e-05
211	0x35201ff4	5.965114e-07
212	0x37e7b903	2.7623499e-05
213	0xb81020cc	-3.436282e-05
214	0x3c9df6f6	0.0192828
215	0xbda4fef8	-0.08056444
216	0x3680781a	3.828679e-06
217	0x38bf79e3	9.130293e-05
218	0x39398e2f	0.00017695942
219	0xb84be3b1	-4.8611026e-05
220	0x38b02fde	8.40125e-05
221	0x3d01ea01	0.031717304
222	0x3a420d8c	0.00074025313
223	0x35f95f4c	1.8579681e-06
224	0xb789a616	-1.6409012e-05
225	0x3b60101c	0.003418929
226	0xb87e490c	-6.062635e-05
227	0xb79c3a5a	-1.8623821e-05
228	0xbc109b66	-0.008826112
229	0x3cc15be6	0.02360339
230	0x3d07a214	0.033113554
231	0xb8a249a2	-7.738477e-05
232	0x37aa9b98	2.0338033e-05
233	0xb8b30bf3	-8.537611e-05
234	0xb6634dc7	-3.3870908e-06
235	0x38e8db68	0.0001110349
236	0xb904e661	-0.00012674324
237	0xb820ebe1	-3.8366652e-05
238	0xb84d2fd2	-4.8920345e-05
239	0x364f06f0	3.0849442e-06
240	0xba5e220c	-0.00084737013
241	0xb7c54a5d	-2.3518858e-05
242	0xb9524405	-0.000200525
243	0xb838044b	-4.3873017e-05
244	0xb9e561f0	-0.00043751253
245	0x3a71f609	0.00092300825
246	0xba655c2b	-0.0008749391
247	0xb9dea648	-0.0004246703
248	0x3918afc8	0.00014561333
249	0xba4aecec	-0.00077409926
250	0x38bc48b1	8.9780784e-05
251	0x3a6c43fa	0.0009012815
252	0x3a82e6c8	0.0009986991
253	0xba94a1d3	-0.0011339731
254	0xbadcf27b	-0.0016856933
255	0x38f6c8c5	0.0001176759

encoder.linear1.bias f4 [236]
0	0x329eed1f	1.8501451e-08
1	0xb4103c07	-1.3432883e-07
2	0x001f862e	2.895035e-39
3	0x800a2eab	-9.35096e-40
4	0xb49abfbe	-2.8824246e-07
5	0xb45a5dc9	-2.0336951e-07
6	0x801e48ca	-2.781177e-39
7	0x802064f9	-2.974958e-39
8	0x35169962	5.6102556e-07
9	0x801de55d	-2.74551e-39
10	0xb3ba1910	-8.665859e-08
11	0x80040f3e	-3.7281e-40
12	0xb2adf9a0	-2.0253367e-08
13	0x0010a820	1.52968e-39
14	0xb251e6ab	-1.2217849e-08
15	0x0004fc54	4.5786e-40
16	0x34215d1a	1.5028164e-07
17	0xb4e13601	-4.194881e-07
18	0x34e69ac6	4.295345e-07
19	0x304da173	7.4808e-10
20	0x000970d7	8.66999e-40
21	0x3389553e	6.395065e-08
22	0x871f3244	-1.1976602e-34
23	0x353fe7b9	7.1490246e-07
24	0x31bd31e6	5.5062968e-09
25	0xb4be4fd9	-3.5448355e-07
26	0x80113556	-1.580337e-39
27	0xb3fc746a	-1.175584e-07
28	0x80188862	-2.252977e-39
29	0xb2d67556	-2.4966237e-08
30	0xb440ac3f	-1.7944056e-07
31	0x35aa88f1	1.2705842e-06
32	0x000550c1	4.88147e-40
33	0x00070822	6.45766e-40
34	0x8007c9dc	-7.15262e-40
35	0xb1ff60dc	-7.4324884e-09
36	0x800b1fd1	-1.021604e-39
37	0xb08e9933	-1.0375402e-09
38	0xb218b3fe	-8.88849e-09
39	0x000189a2	1.41209e-40
40	0xb02d7633	-6.3105005e-10
41	0xb4952d84	-2.778653e-07
42	0x345c85d9	2.053779e-07
43	0x801823b1	-2.216856e-39
44	0x33f97b48	1.1617391e-07
45	0x34c0c6fc	3.5907567e-07
46	0xb5f81c90	-1.8485753e-06
47	0x35038e15	4.900806e-07
48	0x8001c0e7	-1.61036e-40
49	0x8022a994	-3.18324e-39
50	0xb4a33f86	-3.0407335e-07
51	0xb4aeca44	-3.2557193e-07
52	0x801b5be2	-2.51252e-39
53	0x8010a299	-1.527697e-39
54	0x34256a79	1.5405557e-07
55	0xb58c9d8e	-1.0476667e-06
56	0x0003e9d1	3.59384e-40
57	0x80055291	-4.88797e-40
58	0x251e32f8	1.3721584e-16
59	0xb43bc44e	-1.7487147e-07
60	0xb41b27e8	-1.4450018e-07
61	0x35a2f572	1.2141375e-06
62	0x34207978	1.4945351e-07
63	0x800102c6	-9.283e-41
64	0x33f6d74a	1.14944285e-07
65	0x33881147	6.336136e-08
66	0x0020b38e	3.003148e-39
67	0xb270b91b	-1.4011927e-08
68	0x800cbcdc	-1.169776e-39
69	0x0023e630	3.296818e-39
70	0x346ba338	2.1945459e-07
71	0x8005ed25	-5.44249e-40
72	0x33877004	6.306803e-08
73	0xb5644f6e	-8.5052204e-07
74	0x04ed45af	5.5782427e-36
75	0xb4f7aa99	-4.613146e-07
76	0xb580b0b7	-9.588174e-07
77	0x000af6fb	1.006955e-39
78	0x350fc32e	5.3555675e-07
79	0x001de3e3	2.74498e-39
80	0x3375f314	5.7264586e-08
81	0x80069327	-6.03801e-40
82	0x32cb7efd	2.3690058e-08
83	0xa5f07040	-4.1709427e-16
84	0x000d7800	1.23691e-39
85	0xb3bb0f3d	-8.710638e-08
86	0x336e6fa3	5.5515226e-08
87	0xb5cf23a5	-1.5433076e-06
88	0x32b5c0c3	2.1158831e-08
89	0xb4568368	-1.9978108e-07
90	0x001c6ccf	2.610427e-39
91	0x2e8c6685	6.384674e-11
92	0x801e5e9b	-2.789003e-39
93	0x0019dc88	2.374999e-39
94	0xb3af8802	-8.173812e-08
95	0xb39dea40	-7.353492e-08
96	0xb4c0f028	-3.5937524e-07
97	0xb1c72d53	-5.796815e-09
98	0xb2caa47e	-2.3590697e-08
99	0x334a8fe0	4.7162644e-08
100	0x001d6817	2.70057e-39
101	0x80054bf4	-4.86424e-40
102	0xb3bd2778	-8.808178e-08
103	0x3436c5e4	1.7022063e-07
104	0x801a6652	-2.424429e-39
105	0x8024890d	-3.355242e-39
106	0xb304cbf8	-3.0919153e-08
107	0x8001838f	-1.3903e-40
108	0xb49db74c	-2.9376895e-07
109	0xb3733340	-5.6624458e-08
110	0x001d0e65	2.668393e-39
111	0xb45d27ee	-2.0596755e-07
112	0xb52ef6af	-6.5179023e-07
113	0xb30ed9b4	-3.325995e-08
114	0x34ab93ae	3.1958683e-07
115	0x3410bb9c	1.3479297e-07
116	0x0025c076	3.466955e-39
117	0x00117e31	1.606472e-39
118	0x800198ec	-1.46694e-40
119	0x2f7b84a3	2.2875439e-10
120	0xb49f78fb	-2.9704083e-07
121	0x3285e88a	1.5588984e-08
122	0x31394b97	2.696401e-09
123	0x3327ad57	3.904037e-08
124	0x800be5b8	-1.092598e-39
125	0xb4211a40	-1.5003843e-07
126	0x34dbb0ec	4.0920656e-07
127	0x801c8fb7	-2.622949e-39
128	0x00227960	3.165948e-39
129	0xb2b60dbd	-2.1193836e-08
130	0x34a9c42b	3.1621434e-07
131	0x801be305	-2.560998e-39
132	0x33e1a0e5	1.05066455e-07
133	0x3341a924	4.5090147e-08
134	0x2d89ec0c	1.5679923e-11
135	0xb531135e	-6.596582e-07
136	0xb4ca85cc	-3.7722782e-07
137	0x350c7a71	5.233224e-07
138	0x800de053	-1.274334e-39
139	0x2c3a7a09	2.6499933e-12
140	0xb423fc61	-1.5272373e-07
141	0xb4b67dd2	-3.3991688e-07
142	0xb21f75a9	-9.281771e-09
143	0x207d204a	2.1440617e-19
144	0xb42836fc	-1.5666222e-07
145	0x33291ece	3.9376395e-08
146	0x350fa8f0	5.351749e-07
147	0x34f3894f	4.5362182e-07
148	0x33dfd810	1.0423548e-07
149	0x00119607	1.615023e-39
150	0x00173e4e	2.134567e-39
151	0x34e518dd	4.2672664e-07
152	0x33b779e7	8.5437755e-08
153	0x3164a6c6	3.3273166e-09
154	0x0004821a	4.14014e-40
155	0x347025c0	2.2365475e-07
156	0xb49196be	-2.7118034e-07
157	0x321afd46	9.0215675e-09
158	0x33a1cb20	7.534095e-08
159	0x34640816	2.1237096e-07
160	0x33e8d53d	1.084213e-07
161	0xb1d5d32f	-6.2231247e-09
162	0x348e6dfa	2.652958e-07
163	0x33ea2c0b	1.09044855e-07
164	0x309d57db	1.1448223e-09
165	0x3212eabe	8.551693e-09
166	0xb5a484a1	-1.2257552e-06
167	0x324bdc44	1.1866238e-08
168	0x34575422	2.0054043e-07
169	0x001460ca	1.871431e-39
170	0x00119391	1.61414e-39
171	0x800944c4	-8.51188e-40
172	0xb4cde574	-3.8351175e-07
173	0x3585aa6c	9.958871e-07
174	0x34d1285c	3.895865e-07
175	0x0003eb8f	3.60009e-40
176	0x33938143	6.8687335e-08
177	0x0003710e	3.16063e-40
178	0xb104ea04	-1.934155e-09
179	0x9fc0eb5e	-8.1704545e-20
180	0xb34e15ee	-4.7983058e-08
181	0x0001f4c5	1.79642e-40
182	0xb3af20f2	-8.155065e-08
183	0x8000e0ac	-8.0597e-41
184	0xb4b17788	-3.305579e-07
185	0x34e80fc9	4.3224853e-07
186	0x00048a9f	4.1707e-40
187	0x000376be	3.18103e-40
188	0x34359083	1.6909512e-07
189	0x341ea530	1.4774992e-07
190	0x8024de42	-3.385809e-39
191	0x000d0922	1.197138e-39
192	0xb4b890a4	-3.437791e-07
193	0xb16ffa3c	-3.492132e-09
194	0x00051090	4.65119e-40
195	0x30894bb6	9.98958e-10
196	0xb1eb8f35	-6.855681e-09
197	0xb2322a08	-1.037052e-08
198	0x00000d68	4.809e-42
199	0x34ac4fc7	3.2095542e-07
200	0xb4d8b8b1	-4.0367516e-07
201	0xb1cf63a7	-6.035822e-09
202	0x00137e5a	1.790201e-39
203	0x8017969a	-2.166242e-39
204	0x321fdff1	9.3059365e-09
205	0xb4312698	-1.649845e-07
206	0xb3917f0b	-6.775198e-08
207	0x34297398	1.5781404e-07
208	0xb326c134	-3.8825604e-08
209	0x801580a5	-1.974694e-39
210	0x8017977b	-2.166557e-39
211	0x80190298	-2.296818e-39
212	0x34508fff	1.9423895e-07
213	0x8018dd97	-2.283543e-39
214	0x8011f324	-1.648426e-39
215	0xb5829248	-9.728328e-07
216	0x337be64a	5.864994e-08
217	0xb515a6ba	-5.5749445e-07
218	0x33c40cba	9.129276e-08
219	0x0022b0ce	3.185832e-39
220	0xb39be790	-7.259871e-08
221	0x80095fd0	-8.6089e-40
222	0x8023f33c	-3.301498e-39
223	0x0020a0a6	2.996366e-39
224	0x0012285a	1.667514e-39
225	0xb4aef478	-3.25879e-07
226	0x3222620a	9.451933e-09
227	0xb1a4e5f6	-4.7991717e-09
228	0x80047b46	-4.11564e-40
229	0x8006b90d	-6.17397e-40
230	0xaf23e295	-1.4905262e-10
231	0x00125f60	1.687253e-39
232	0xb2a2e258	-1.8962211e-08
233	0x35242e9a	6.1162575e-07
234	0x94aefdc9	-1.766961e-26
235	0x9cfc3176	-1.6688747e-21

encoder.linear2.weight f4 [118, 236]
0	0x3ca18402	0.019716267
1	0xbdcd3592	-0.10019983
2	0xbdfd922b	-0.12381395
3	0xbc8a9cf7	-0.01692055
4	0xbcdb6799	-0.026782798
5	0xbdb4c201	-0.08826066
6	0xbe481f09	-0.19543089
7	0x30a93a98	1.2313022e-09
8	0x3caee7ad	0.021350706
9	0xbc6b7baf	-0.01437275
10	0x3d3cf62c	0.046133205
11	0xbe3ae6db	-0.18252127
12	0x3b9fd73b	0.0048779524
13	0xbc8702e2	-0.016480867
14	0x3af75f1e	0.0018872952
15	0xba29887c	-0.0006467176
16	0xbe770304	-0.24122244
17	0xbe8fb7e1	-0.28069976
18	0xbd88e28c	-0.066838354
19	0xbcd25770	-0.02567646
20	0x2c9629ba	4.267889e-12
21	0x3bd6f942	0.0065604756
22	0xbb0b5392	-0.0021259529
23	0xbd2bdf0a	-0.041960754
24	0x3a9041ee	0.0011005977
25	0x3d937ed1	0.07201923
26	0xbe2169e0	-0.15763044
27	0xbd8dac79	-0.06917662
28	0xbcf44c2f	-0.029821483
29	0xbe10038d	-0.14063855
30	0x3cd2e3ee	0.025743451
31	0xbbfd02ad	-0.0077212662
32	0xbdff4e36	-0.124660894
33	0xbca88143	-0.02056945
34	0xbdb83366	-0.089941785
35	0x3c2606ea	0.010133484
36	0xbe50e430	-0.20399547
37	0xbcd89872	-0.02643988
38	0x3b0d1df1	0.002153274
39	0x3b59d7c0	0.003324017
40	0xbb368b80	-0.0027854145
41	0x3d096124	0.033539906
42	0xbd6b8224	-0.05749716
43	0x3a5fc141	0.0008535572
44	0x3ceabc22	0.028654162
45	0x3d70131f	0.058611985
46	0xbe1aac51	-0.15104796
47	0x3d3cb571	0.046071474
48	0xbdfd70d0	-0.12375033
49	0xbd160c59	-0.03663287
50	0xbe4c05cc	-0.19924086
51	0x3c7e2ca0	0.015513569
52	0x3b2106ca	0.0024570697
53	0xbd59f7cd	-0.053214837
54	0x3ce801f1	0.028321238
55	0x3d8107e7	0.063003354
56	0xbe093259	-0.13398112
57	0x3bf5e7ef	0.0075044553
58	0xbe2cdd9b	-0.16881411
59	0x3dc026af	0.09382378
60	0xbe0e4a97	-0.13895641
61	0x3dcee20a	0.10101707
62	0xbe122d64	-0.14275128
63	0x30b74422	1.3334367e-09
64	0xbbe19e4e	-0.0068853265
65	0xbb245cdd	-0.0025079765
66	0xbd19e1dd	-0.037568916
67	0xbe31601e	-0.17321822
68	0xbe1ab546	-0.15108213
69	0xbe23be3e	-0.1599054
70	0x3d7d8936	0.061898433
71	0x394abaf1	0.00019333862
72	0x3d8a8d8b	0.067652784
73	0x3e034ec0	0.1282301
74	0xbc9ebdad	-0.019377554
75	0xbdff1887	-0.1245585
76	0xbd13789f	-0.036003705
77	0xbe80cbb5	-0.25155416
78	0x3ca362ab	0.01994451
79	0xbdf845fd	-0.12122724
80	0xbe06018d	-0.13086529
81	0x39c129f0	0.00036843074
82	0xbb93eb61	-0.0045141433
83	0x3c8ac32f	0.016938774
84	0xb98165e3	-0.0002468071
85	0x3b092ea5	0.0020932343
86	0x3d1c77c4	0.038200155
87	0xbd1bf327	-0.038073685
88	0xbdc0fcef	-0.09423243
89	0x3cdec6d7	0.027194424
90	0x390cea93	0.00013438826
91	0xbda95882	-0.08268835
92	0xbccc56d0	-0.02494374
93	0xb95d20a2	-0.00021088359
94	0xbe1f0774	-0.15530187
95	0x3c6906e0	0.0142228305
96	0xbe0cba5c	-0.13742965
97	0xbd94389f	-0.07237362
98	0xbbf6b010	-0.0075283125
99	0xbc51d987	-0.01280821
100	0x3705f31c	7.984021e-06
101	0xbc6b9689	-0.014379152
102	0xbdca4bf6	-0.0987777
103	0x3b4d2ff1	0.0031309093
104	0xbc1ef56b	-0.009702067
105	0xbd55e51e	-0.052220456
106	0xbb8355eb	-0.004008045
107	0x382b59a0	4.0853047e-05
108	0x3a9b4b5e	0.0011848023
109	0xbe030f54	-0.12798816
110	0xbc92c52f	-0.01791629
111	0xbe3a37db	-0.1818537
112	0x3d1eb494	0.03874643
113	0xbc0fb7e7	-0.008771873
114	0xbbe48817	-0.006974231
115	0x3c9baad0	0.019002348
116	0xbc41416a	-0.011795381
117	0xbe28be92	-0.16478947
118	0xbdd42049	-0.103577204
119	0xbdcf09c7	-0.10109287
120	0xbdd63616	-0.10459535
121	0xbb9c66c9	-0.004772995
122	0xbcdbe8c7	-0.026844395
123	0xbdeb298a	-0.11482532
124	0xbd99efee	-0.07516466
125	0x3bc3e3f8	0.0059781037
126	0x3d55ec9b	0.052227598
127	0xbd77e120	-0.06051743
128	0x3a21cb34	0.0006171942
129	0xbdb027cd	-0.086013414
130	0x3bf65ef2	0.0075186426
131	0xbcc21481	-0.023691418
132	0x3bc8380e	0.006110198
133	0x3c3afc9f	0.011412769
134	0xbbdab81e	-0.0066747805
135	0xbdfd4d51	-0.123682626
136	0xbcfafff9	-0.030639635
137	0x3d896cde	0.06710218
138	0xbdd81a86	-0.10551934
139	0x3af0e839	0.0018379755
140	0xbe3bcc74	-0.18339711
141	0x3ce99cf2	0.02851722
142	0xbdf81718	-0.1211378
143	0xbe22438e	-0.15846083
144	0xbc6e0ef2	-0.01452993
145	0x3c56d13f	0.013111412
146	0xbd96f2d1	-0.07370532
147	0x3c984c70	0.018591136
148	0xbdadfe22	-0.084957376
149	0xafe01d7b	-4.076631e-10
150	0xbd0cc26c	-0.034365103
151	0x3cb060a6	0.02153046
152	0xbcca5d6d	-0.024702752
153	0x38f85801	0.000118419535
154	0x39664dae	0.00021963447
155	0x3c97b170	0.018517226
156	0xbd2a471c	-0.04157172
157	0xbc5bae57	-0.013408265
158	0xbd54eba6	-0.051982544
159	0x3d4358e9	0.047692213
160	0xbe3d0844	-0.18460184
161	0xbd189343	-0.037249815
162	0xbc5fafe8	-0.013652779
163	0x3c4335bb	0.011914666
164	0x3a601690	0.0008548284
165	0x3b0a2442	0.002107874
166	0x3d3e2c21	0.046428803
167	0xbb7af2db	-0.0038291726
168	0xbb68a57b	-0.0035499025
169	0xba112892	-0.00055373565
170	0xbe24227f	-0.16028784
171	0xbdf97d08	-0.12182051
172	0xbe60c601	-0.21950532
173	0xbe23f5b4	-0.16011697
174	0x3e0dc380	0.13844109
175	0xbbf45acc	-0.007457113
176	0xbdb7f5ea	-0.08982451
177	0x3c4bb16d	0.012432438
178	0x3bd873bd	0.006605594
179	0x36ecfb0c	7.062574e-06
180	0xbe031b02	-0.12803271
181	0xbcddf8d7	-0.027096195
182	0x3cb7176e	0.02235004
183	0xbc15a0a6	-0.00913254
184	0x3d6f5baf	0.058437046
185	0x3d151fb2	0.03640718
186	0x38b76c1d	8.746258e-05
187	0xbdce091f	-0.100603335
188	0xbe5db175	-0.21649726
189	0x3c56a0bc	0.0130998455
190	0xbdf467c4	-0.11933854
191	0xbe0a38cd	-0.1349823
192	0xbde22e06	-0.110439345
193	0x3bd47cb1	0.006484591
194	0x042dff36	2.045324e-36
195	0x3a992999	0.0011685371
196	0x3b10c8a3	0.0022092245
197	0xbde85c14	-0.113456875
198	0xbbf172f3	-0.0073684393
199	0x3a3706b9	0.0006981898
200	0xbdb8adad	-0.09017501
201	0x3c80c0d9	0.015716957
202	0xbe3562fa	-0.17713538
203	0xbe68811f	-0.22705506
204	0x3b80f352	0.003935256
205	0xbce8af4c	-0.0284039
206	0x3c99ed1d	0.018789822
207	0x3ba6353a	0.005072263
208	0xbd22212a	-0.03958241
209	0x3cde5fbe	0.027145263
210	0xbabd6cb9	-0.0014451958
211	0xbe195159	-0.14972438
212	0xbbd57d12	-0.0065151537
213	0xbdcb66ca	-0.09931715
214	0xbdb8d8f9	-0.09025759
215	0xbe51fd45	-0.20506771
216	0x3d0e7b5c	0.034785613
217	0xbc2711e9	-0.010197141
218	0x3c4b2b83	0.012400511
219	0x236da3a2	1.2882446e-17
220	0xbdf5e1c5	-0.12005953
221	0x3c279189	0.010227569
222	0xbe74b515	-0.23897202
223	0x3b8d6635	0.0043151625
224	0xbe5405a8	-0.20705283
225	0xbd9d1a8b	-0.07671078
226	0x3ac239f8	0.0014818301
227	0x3c3d15cb	0.01154084
228	0xbe8cbe94	-0.2748915
229	0xbc449107	-0.011997468
230	0xbc88d939	-0.016705142
231	0xbcb3a391	-0.02192858
232	0x3b804db2	0.003915512
233	0x3d336cfb	0.043805104
234	0xbe53d511	-0.20686747
235	0xbdd4ea19	-0.10396213
236	0xba3b738a	-0.00071507005
237	0x3cff042e	0.031129923
238	0xb09d2cde	-1.1436005e-09
239	0x37a93431	2.0170673e-05
240	0x3cb76eb2	0.02239165
241	0x3bcba550	0.006214775
242	0xbbd19555	-0.0063959756
243	0xb9d67edc	-0.00040911778
244	0xbb8afecc	-0.0042418
245	0xbb8700f9	-0.004119989
246	0x3c71f220	0.0147672
247	0xb928e9b4	-0.0001610879
248	0xbd1d24cb	-0.038365167
249	0xbce97d39	-0.028502094
250	0xb9775f09	-0.00023591159
251	0xb8f6d6b2	-0.00011770184
252	0xbc3e85c3	-0.011628571
253	0xbd19b271	-0.03752369
254	0xbcb00313	-0.02148584
255	0x3abced37	0.0014413957

encoder.linear2.bias f4 [118]
0	0x350ae466	5.174137e-07
1	0x34b8724f	3.435584e-07
2	0xb50bd2c4	-5.208824e-07
3	0x33c3a035	9.1095366e-08
4	0x351b19fa	5.77798e-07
5	0x35a6d72d	1.2430588e-06
6	0x35977874	1.1285433e-06
7	0x31956c60	4.3487915e-09
8	0xb55f0e71	-8.309499e-07
9	0x35a8e79e	1.2584385e-06
10	0x356f9112	8.9245543e-07
11	0x361f7a82	2.3764155e-06
12	0xb4403e46	-1.7904048e-07
13	0xb6177803	-2.257061e-06
14	0xb5bc7765	-1.404184e-06
15	0x34725f17	2.25726e-07
16	0x3565f9e8	8.567281e-07
17	0xb413f24c	-1.3778589e-07
18	0x357e95f1	9.4840567e-07
19	0xb5862938	-9.995774e-07
20	0x3555329a	7.942232e-07
21	0xb5f56b18	-1.8285091e-06
22	0x33b71638	8.525643e-08
23	0xb5fac850	-1.868475e-06
24	0xb6469997	-2.95937e-06
25	0xb4cc4752	-3.8049853e-07
26	0x3589814c	1.0244926e-06
27	0x36fcc5f5	7.5332305e-06
28	0x360a333b	2.0593423e-06
29	0xb300d4c4	-2.999583e-08
30	0x35978dca	1.1291643e-06
31	0xb502a502	-4.866889e-07
32	0x3631c773	2.649115e-06
33	0xb6493efc	-2.9987996e-06
34	0x358231ad	9.700212e-07
35	0x35b08b9d	1.3153655e-06
36	0xb39df40a	-7.355273e-08
37	0x350054b8	4.7807e-07
38	0x33e09e84	1.0459647e-07
39	0x35b2a7a5	1.3310824e-06
40	0xb62dcbe0	-2.589768e-06
41	0x360feebb	2.144762e-06
42	0xb5192c70	-5.7061607e-07
43	0xb41a0f80	-1.4348007e-07
44	0xb55f065b	-8.308322e-07
45	0xb4a0dd15	-2.996318e-07
46	0xb43f7525	-1.7830878e-07
47	0x345fc76f	2.0841047e-07
48	0x35b4a28b	1.3458351e-06
49	0x34aed3d4	3.256415e-07
50	0x35248416	6.128697e-07
51	0x35b1d502	1.3249521e-06
52	0xb519299a	-5.705748e-07
53	0xb62742d7	-2.4923845e-06
54	0xb4677f44	-2.155985e-07
55	0x3550e84c	7.7824075e-07
56	0xb1dbee00	-6.4007963e-09
57	0x35e3138c	1.6918507e-06
58	0xb5ab716d	-1.2773504e-06
59	0x3506ede4	5.0265066e-07
60	0x3618452e	2.2690033e-06
61	0xb5151182	-5.55323e-07
62	0x358ed843	1.0642765e-06
63	0x3639c6ae	2.7682795e-06
64	0xb40544d4	-1.241163e-07
65	0x348a0af7	2.571248e-07
66	0x3509584e	5.116498e-07
67	0xb55cec79	-8.23005e-07
68	0xb5357a60	-6.7605833e-07
69	0x344fd921	1.9357368e-07
70	0x3638dc11	2.7546232e-06
71	0x35b00fc8	1.3117615e-06
72	0xb232e98c	-1.0414066e-08
73	0x36a5bc33	4.9392925e-06
74	0xb5b061f6	-1.3141532e-06
75	0xb5fb3eb2	-1.8719204e-06
76	0x35b06be8	1.3144427e-06
77	0x35436162	7.278487e-07
78	0x35c8b031	1.495244e-06
79	0xb6443657	-2.9237906e-06
80	0x3398ec28	7.121008e-08
81	0xb54b039b	-7.562864e-07
82	0x350678a4	5.0094445e-07
83	0x359438d6	1.1043401e-06
84	0xb5fcd4e6	-1.8837425e-06
85	0x35445e2a	7.3152717e-07
86	0x35ab10bc	1.2745363e-06
87	0x343290ee	1.6630267e-07
88	0x3617b5bb	2.2606534e-06
89	0xb652f52c	-3.1435147e-06
90	0x352a4ca1	6.3441445e-07
91	0xb4487182	-1.8667745e-07
92	0xb4cf62be	-3.86286e-07
93	0xb5481814	-7.4540844e-07
94	0xb5d6b9cf	-1.599832e-06
95	0xb5ffffb0	-1.9073395e-06
96	0x32103490	8.3938545e-09
97	0xb46756d2	-2.1545137e-07
98	0x36233145	2.4317571e-06
99	0x354b3bc4	7.5710363e-07
100	0x348b8b25	2.5992009e-07
101	0x34cb20d8	3.7835594e-07
102	0x357ba921	9.37509e-07
103	0xb3b99100	-8.641109e-08
104	0xb5ca44c6	-1.5070189e-06
105	0x34d22765	3.9144211e-07
106	0xb59cfdf7	-1.1696819e-06
107	0xb6ab73fc	-5.1096995e-06
108	0xb5acee8c	-1.2884425e-06
109	0xb550b34d	-7.7746955e-07
110	0xb631f105	-2.6515347e-06
111	0xb641bdf4	-2.8869808e-06
112	0x355a188e	8.124706e-07
113	0x34c101d1	3.5950373e-07
114	0xb48267c8	-2.4289898e-07
115	0x359d2119	1.1707044e-06
116	0x33e64a70	1.072375e-07
117	0x360fda04	2.1435562e-06

encoder.norm.weight f4 [236]
0	0x3d9f98dd	0.07792828
1	0x3e99add4	0.30015433
2	0x3b612591	0.0034354667
3	0x3997702e	0.00028884545
4	0x3e34b214	0.17646056
5	0x3db739ea	0.08946593
6	0x3c4780fe	0.01217675
7	0xba91cf66	-0.0011124432
8	0x3e062e3f	0.13103579
9	0x3b93ec11	0.0045142253
10	0x3e4512bf	0.19245432
11	0xb9ac4853	-0.00032860282
12	0x3d7022dd	0.058627
13	0x3af6166b	0.0018774992
14	0x3d4ef1fa	0.050523736
15	0xbbceec75	-0.006314809
16	0x3df6dcde	0.12053846
17	0x3e46a8ff	0.19400404
18	0x3ea40397	0.3203399
19	0xbb9a4694	-0.0047081206
20	0x3b513543	0.0031922616
21	0x3d2745d4	0.040838078
22	0x3c345210	0.011005893
23	0x3e79bc17	0.24388157
24	0x3ce007c3	0.027347451
25	0x3e3292c1	0.17438795
26	0x3ca8384e	0.02053466
27	0x3eb3ebeb	0.3514093
28	0xbc0a8efe	-0.008456944
29	0x3d28604a	0.041107453
30	0x3ee7939e	0.4522981
31	0x3e058c86	0.13041887
32	0x3c40e9dd	0.011774507
33	0xb6a075ac	-4.7820704e-06
34	0x3d1a12a0	0.03761542
35	0x3d4c0097	0.04980525
36	0x3936ffb5	0.00017452131
37	0x3d518b17	0.051158037
38	0xbccdbed2	-0.025115404
39	0x38feee96	0.00012156104
40	0x3b53ef3e	0.0032338644
41	0x3e4e990f	0.20175575
42	0x3e34c6c5	0.1765395
43	0x354db30e	7.662901e-07
44	0x3e3dd5f6	0.18538651
45	0x3e3a4cc4	0.18193346
46	0x3e94ced4	0.29064047
47	0x3e2a7687	0.16646777
48	0x3c66c352	0.014084654
49	0x3d13f152	0.036118813
50	0x3e88f96f	0.26752803
51	0x3ddbc3eb	0.10730728
52	0x3b38579e	0.0028128396
53	0x3bc7e088	0.0060997643
54	0x3dd189bc	0.10231349
55	0x3e73be77	0.23803125
56	0x37c8441f	2.387358e-05
57	0x3bc41b21	0.0059846793
58	0x3c8d95d6	0.017283361
59	0x3e8f6d01	0.2801285
60	0x3e37947b	0.17927735
61	0x3ecb0183	0.3964959
62	0xbdcf25a2	-0.101146
63	0xbb09171e	-0.002091832
64	0x3d87346c	0.066017956
65	0x3dd16e66	0.10226135
66	0x3c8caee3	0.017173236
67	0x3e1b9500	0.15193558
68	0xbcb1b823	-0.021694249
69	0xb99c6d6a	-0.00029836159
70	0x3e91edc0	0.285017
71	0x385f41e1	5.3228698e-05
72	0x3e9db938	0.30805373
73	0x3edb8b26	0.428796
74	0x3ad7990a	0.0016448807
75	0x3e43dcab	0.19127147
76	0x3e34cddd	0.17656656
77	0xbaf3b78f	-0.0018594133
78	0x3e778dfa	0.24175254
79	0x3920db16	0.00015340405
80	0x3e5f51c1	0.2180853
81	0x3b11188d	0.0022139878
82	0x3d08519e	0.03328096
83	0x3d133ce6	0.03594675
84	0xb87d22d8	-6.035235e-05
85	0x3d2b5576	0.04182955
86	0x3dc3da5d	0.09563134
87	0x3e46e972	0.1942499
88	0x3acca1d0	0.0015612189
89	0x3e2edf42	0.17077354
90	0x33d2b09b	9.8110114e-08
91	0x3c22b8bc	0.009931739
92	0xbbcb72b1	-0.0062087406
93	0x3aa4ab6a	0.0012563292
94	0x3e20fc89	0.15721335
95	0x3d72a573	0.059239816
96	0x3dd2b5f2	0.102886096
97	0xbb117117	-0.002219265
98	0x3d3ec5c3	0.04657532
99	0x3d39177a	0.045188405
100	0x3a937a5c	0.0011251676
101	0x39c5107b	0.00037587047
102	0x3e42c4c5	0.19020374
103	0x3d550619	0.05200777
104	0x3cfa54b4	0.030557968
105	0xb991565e	-0.00027720904
106	0x3d5e8d39	0.0543339
107	0xb8b1f83c	-8.486255e-05
108	0x3de5a1a5	0.11212472
109	0x3e4115ba	0.18855944
110	0x3c06c20b	0.008224974
111	0x3dccdf67	0.10003548
112	0x3e71584d	0.2356884
113	0x3da34eaa	0.07973988
114	0x3e1d14af	0.15339921
115	0x3defa7aa	0.11701901
116	0xbb1b5766	-0.0023703217
117	0xbb69a4c4	-0.0035651186
118	0x3a4ae133	0.0007739246
119	0xba645b2c	-0.00087110954
120	0x3d9d48f6	0.07679932
121	0x3d4ad8f7	0.04952332
122	0x3d5a3a32	0.053278156
123	0x3b770e0a	0.0037697577
124	0x3a6f6e9f	0.00091336103
125	0x3d06a705	0.032874126
126	0x3e7657cb	0.24056928
127	0xbb1370f1	-0.0022497738
128	0x3becc4f1	0.0072256257
129	0xbb2e5af4	-0.0026604505
130	0x3df11cf2	0.11773099
131	0x3cb8802b	0.022522053
132	0x3d3e4086	0.046448253
133	0x3d92fe67	0.0717743
134	0x3b8a037c	0.004211841
135	0x3e08a575	0.13344367
136	0x3e82e84f	0.25567862
137	0x3e94c37b	0.2905539
138	0x3b08a2c5	0.0020848971
139	0x391ec8fe	0.0001514293
140	0x3e569b62	0.20957711
141	0x3e16270c	0.14663333
142	0xbd27f2d7	-0.041003074
143	0x3cbed749	0.023296015
144	0x3e2498f2	0.16073969
145	0x3d5f3f8b	0.05450396
146	0x3e57ee3f	0.21086977
147	0x3d90124c	0.0703474
148	0x3cae014a	0.021240849
149	0x3bb8c5c8	0.0056388117
150	0xbbb75386	-0.0055946736
151	0x3e512747	0.2042514
152	0xbe14e012	-0.14538601
153	0x3b31a730	0.0027107708
154	0x3bbbfee2	0.0057371715
155	0x3e12e82b	0.14346378
156	0x3ddb8d28	0.10720283
157	0x3c8bd4d4	0.017069258
158	0x3e3f4524	0.18678719
159	0x3de2f18e	0.11081229
160	0x3e19bb6e	0.15012905
161	0x3d1afaf4	0.037836984
162	0x3e7a323e	0.24433228
163	0x3dfa181b	0.12211629
164	0x3bb79ca8	0.0056033917
165	0x3cde03fb	0.027101507
166	0x3e633623	0.2218862
167	0x3cc4947c	0.023996584
168	0x3e15f592	0.14644459
169	0xb6ccb00b	-6.100168e-06
170	0xbb3ebe76	-0.0029105223
171	0xbb8bb002	-0.004262925
172	0x3eab527e	0.33461374
173	0x3e81a872	0.25323826
174	0x3ebdeab5	0.3709313
175	0xb6f4eb87	-7.2991857e-06
176	0x3e638e6b	0.22222297
177	0x3c945049	0.01810469
178	0x3ccab48a	0.02474429
179	0x392515b1	0.00015743707
180	0x3dbeeb81	0.093222626
181	0xb989ec73	-0.00026306845
182	0x3e396d15	0.18108018
183	0x3b8583ea	0.0040745633
184	0x3e01cba5	0.1267534
185	0x3def43df	0.11682867
186	0x3b48b41f	0.0030624939
187	0xba2e39cb	-0.0006646185
188	0x3e21458b	0.15749185
189	0x3dd74160	0.10510516
190	0x3cad1db8	0.021132335
191	0xbb6b7678	-0.0035928767
192	0x3e04ccb5	0.12968715
193	0x3cbbc35a	0.0229203
194	0x398e69ef	0.00027163277
195	0xbb38c0fa	-0.0028191195
196	0x3d6d119e	0.05787813
197	0x3b9b5e8b	0.004741495
198	0x34b82768	3.4301343e-07
199	0x3e39cede	0.1814532
200	0x3e4bda04	0.19907385
201	0x3d37a520	0.04483521
202	0xba8887f4	-0.0010416494
203	0x3c1d1e4e	0.009589745
204	0x3cc35537	0.023844345
205	0x3d9ba42f	0.07599675
206	0x3d45ebf4	0.048320726
207	0x3e11cecc	0.14239043
208	0x3e3cfae4	0.18455082
209	0xbb48a3d4	-0.0030615227
210	0x38b3327f	8.544791e-05
211	0x3b2ccc05	0.0026366722
212	0x3e21faad	0.15818281
213	0xb6db2c94	-6.531898e-06
214	0x3a50a364	0.00079589174
215	0x3e43c457	0.19117866
216	0x3e43c7ee	0.19119236
217	0x3e27ea06	0.16397867
218	0x3d5cbe77	0.05389258
219	0xb6ef28d5	-7.1275085e-06
220	0x3cf38765	0.029727647
221	0x3816cbf5	3.5952737e-05
222	0x394b7c04	0.00019405788
223	0x39d94597	0.00041441314
224	0x3a73d36d	0.0009301219
225	0x3e38901b	0.18023722
226	0x3d82838c	0.06372747
227	0x3d5896bf	0.052878138
228	0x3ccc9ccd	0.024977112
229	0x381a7a2d	3.6830246e-05
230	0x3c89ead3	0.016835606
231	0x3873ffef	5.817407e-05
232	0x3d3a58fc	0.04549502
233	0x3e827ba1	0.25484946
234	0x3cf5ef74	0.030021407
235	0x3cd95e0c	0.026534103

encoder.norm.bias f4 [236]
0	0xbdf863b9	-0.121283956
1	0x3de5d373	0.11221971
2	0xbcadb244	-0.021203168
3	0xba2f84ee	-0.0006695528
4	0xbc855527	-0.016275955
5	0x3e1faf97	0.15594326
6	0xbd4f3c90	-0.050594866
7	0xbb964ade	-0.0045865616
8	0x3dd1370c	0.102155775
9	0xbc9d44c9	-0.019197838
10	0x3ca1f335	0.01976929
11	0xbd87c813	-0.06629958
12	0x3cd8762d	0.026423538
13	0xbd975ce6	-0.07390766
14	0xbd82f951	-0.063952096
15	0xbd337526	-0.043812893
16	0xbe9cec73	-0.30649146
17	0x3e97dca6	0.2966053
18	0x3e501f6f	0.20324491
19	0x3d40d2f7	0.04707619
20	0xbcbc0a7b	-0.022954216
21	0x3aa47106	0.0012545891
22	0xbcbaa83f	-0.022785304
23	0x3dae137f	0.08499812
24	0xbc85ed0c	-0.016348384
25	0xbca511bf	-0.020150064
26	0xbdbcc5d6	-0.09217422
27	0x3cfa627c	0.03056454
28	0xbc8973b2	-0.0167788
29	0x3e002d31	0.12517239
30	0x3f1749b5	0.59096843
31	0x3deff001	0.11715699
32	0xbd4220a5	-0.047394414
33	0xbc871c49	-0.01649298
34	0xbe1fe85e	-0.15615985
35	0xbcf92b96	-0.030416291
36	0xbb380eba	-0.002808495
37	0xbd5e9435	-0.05434056
38	0x3ca36968	0.019947723
39	0xbb9208a9	-0.004456599
40	0x3d6161ca	0.0550249
41	0xbe2d0787	-0.16897403
42	0xbd39b323	-0.045336854
43	0xbd3c80d6	-0.046021305
44	0xbe0fc9ce	-0.14041826
45	0xbe19df7e	-0.15026662
46	0x3eda6b7c	0.4266013
47	0x3dc64623	0.09681346
48	0xbce6ed82	-0.028189424
49	0xbdd02129	-0.10162575
50	0x3e96c2dd	0.29445544
51	0xbdba0aad	-0.090840675
52	0xbcd85c73	-0.02641127
53	0xbc9a5239	-0.018838035
54	0xbdba5ee0	-0.09100127
55	0x3dda857c	0.106699914
56	0xbce62110	-0.028091937
57	0xbc9eb509	-0.019373434
58	0xbd1181c3	-0.03552414
59	0xbe3d5fbb	-0.1849355
60	0x3eaa4b03	0.33260354
61	0xbd5b765f	-0.053579684
62	0x3d8e38b6	0.069444105
63	0xbc1e84cc	-0.009675216
64	0xbcb29ba0	-0.021802723
65	0x3d5bfb5a	0.053706504
66	0xbd29e2e0	-0.04147613
67	0xbe5fdff9	-0.21862783
68	0xbd688ff8	-0.056777924
69	0xbaecb35d	-0.0018058826
70	0xbe17e820	-0.14834642
71	0xbd16235f	-0.036654826
72	0xbe19b24a	-0.15009418
73	0x3f399b9f	0.72503084
74	0xbb5b0f9d	-0.0033426054
75	0xbe394aef	-0.18094991
76	0x3eaa2fa8	0.33239484
77	0xbc3918d5	-0.011297424
78	0x3dd65d01	0.10466958
79	0xb950388b	-0.0001985749
80	0x3ed6e260	0.41969585
81	0xbc1cdec5	-0.009574597
82	0x3d35aa0f	0.044351634
83	0xbd8de944	-0.069292575
84	0xbb7ac49a	-0.0038264156
85	0xbd49959d	-0.049214948
86	0x3d86fcd0	0.06591189
87	0x3ef2e198	0.4743774
88	0x3d4643f3	0.048404645
89	0xbe0c3584	-0.1369229
90	0xba3381be	-0.0006847641
91	0xbc6db08e	-0.014507426
92	0xbcaec823	-0.021335667
93	0xbd1f75c1	-0.03893066
94	0x3e9ddfec	0.308349
95	0xbd633fec	-0.055480883
96	0x3e814573	0.25248298
97	0xbb828ec7	-0.0039843055
98	0x3c3779b9	0.011198455
99	0x3c7b6934	0.015344907
100	0xbc1c8cda	-0.009555066
101	0xbbc2e163	-0.0059472783
102	0x3ea3ff3d	0.3203067
103	0xbd22fc90	-0.039791644
104	0xbdefa95e	-0.11702226
105	0xbc5d1c4e	-0.013495518
106	0xbc742c84	-0.0149031915
107	0xbb2a8828	-0.0026021097
108	0x3d9221f0	0.07135379
109	0x3eb72c38	0.35775924
110	0xbd174ac3	-0.036936533
111	0x3e20ae45	0.15691479
112	0xbe11b232	-0.14228132
113	0x39680e70	0.00022130623
114	0x3d9ea2b1	0.07745875
115	0xbd6ac02c	-0.057312176
116	0xbc4ac96a	-0.012377122
117	0xbc9f9862	-0.019481841
118	0xbb0a878b	-0.0021137919
119	0x3d05019a	0.03247223
120	0x3e37823f	0.17920779
121	0xbcf8f5db	-0.03039067
122	0xbd94dc42	-0.07268573
123	0x3d780e2e	0.060560398
124	0xbb2b1647	-0.0026105808
125	0xbd8b5203	-0.06802752
126	0xbe87c011	-0.26513723
127	0xbbaccad9	-0.0052732048
128	0xbdfd825d	-0.123783804
129	0x3d0b2b10	0.033976614
130	0x3d392fd4	0.045211628
131	0xbdfb1f12	-0.122617856
132	0x3e12bf88	0.14330876
133	0xbd86f6da	-0.06590052
134	0xbbc9b39c	-0.0061554443
135	0x3e96ac8b	0.29428515
136	0x3daf0227	0.085453324
137	0x3e41e760	0.18935919
138	0xbba8b614	-0.0051486585
139	0x3d23aea0	0.039961457
140	0x3ed92af3	0.4241558
141	0x3debfb4f	0.11522543
142	0x3d795dfe	0.060880654
143	0xbdc36415	-0.095405735
144	0x3e7fe0b0	0.24988055
145	0xbcb64169	-0.022247987
146	0x3eb37747	0.3505194
147	0x3ddc8115	0.10766808
148	0x3db53726	0.08848409
149	0xbcf080ad	-0.029358232
150	0xbd40a33c	-0.047030672
151	0x3ccf7cec	0.025328122
152	0xbd71f966	-0.059075736
153	0xbb150051	-0.0022735784
154	0xbdccd35d	-0.10001252
155	0xbe004b27	-0.12528668
156	0x3ddc1faa	0.10748227
157	0x3d902e58	0.07040089
158	0x3dcd11f7	0.10013192
159	0xbdd0c0a7	-0.101929955
160	0x3e8fd6db	0.2809361
161	0xbd33663f	-0.04379868
162	0x3ec2d78c	0.38055074
163	0x3e259f0c	0.16173953
164	0x3d650bb3	0.05591936
165	0xbc85d34b	-0.016336104
166	0xbe3639e8	-0.17795527
167	0x3d8808b4	0.06642285
168	0x3e05a93c	0.13052839
169	0xb8aafa42	-8.152846e-05
170	0xbc021a19	-0.0079407925
171	0xbcaa9fcf	-0.020828156
172	0x3f339335	0.70146495
173	0x3d497a19	0.049188707
174	0x3f37fd95	0.7187131
175	0xb9337a52	-0.00017116338
176	0x3ec4d22b	0.38441595
177	0xbd5fa061	-0.05459631
178	0xbb585bfe	-0.0033013816
179	0xb982888b	-0.00024897265
180	0x3e3d7e5f	0.18505238
181	0xbd89ed93	-0.06734767
182	0x3e9f28a6	0.310857
183	0xbd2723c7	-0.040805604
184	0x3ddd2ef3	0.107999705
185	0xbde87ee2	-0.11352326
186	0xbc6d34f3	-0.014477956
187	0xbc46af89	-0.012126812
188	0x3ea356e6	0.31902236
189	0x3e898260	0.2685728
190	0xbe490fd2	-0.19634941
191	0xbc0a748b	-0.008450638
192	0x3e8f2223	0.27955732
193	0xbc9d2d43	-0.019186622
194	0xbd091a0a	-0.0334721
195	0x3c1bc7f4	0.009508122
196	0xbd17738b	-0.036975425
197	0x3d25bbbc	0.04046224
198	0xba0e4b85	-0.00054281234
199	0x3dd9e60b	0.1063958
200	0x3ee78365	0.45217434
201	0xbc183a91	-0.009291307
202	0xbc8aca19	-0.01694207
203	0xbd2e3612	-0.042532034
204	0x3d49209a	0.049103357
205	0x3e0b474e	0.1360142
206	0xbd27bf92	-0.04095418
207	0x3e5425b3	0.20717506
208	0xbcaba123	-0.02095086
209	0xbcabb005	-0.020957956
210	0xba17c13d	-0.00057889876
211	0xbcbe5086	-0.023231756
212	0x3e67d835	0.2264107
213	0xbc7fbea1	-0.015609414
214	0xbb023dd3	-0.0019873276
215	0x3da0df3a	0.07855077
216	0xbe1d1722	-0.15340856
217	0x3cfa4ccd	0.0305542
218	0x3d0edcbf	0.03487849
219	0xb94f49f9	-0.00019768615
220	0x3dd18186	0.10229783
221	0xb8b6b9e5	-8.713062e-05
222	0xbc900d64	-0.01758451
223	0xba1535dc	-0.00056919246
224	0xbcf321c9	-0.029679196
225	0x3ecafc8c	0.39645803
226	0xbd205319	-0.039141748
227	0xbc472a51	-0.012156085
228	0xbdd8d60f	-0.105877034
229	0xba18d35b	-0.0005829834
230	0xbce1953a	-0.027536977
231	0xbbd343a0	-0.0064472705
232	0xbdc2adf7	-0.095058374
233	0xbd7866e1	-0.060644988
234	0xbd5f26d5	-0.054480392
235	0xbdd133b9	-0.102149434

encoder.norm.running_mean f4 [236]
0	0xbfb6cf55	-1.4282023
1	0x40f0bffc	7.5234356
2	0xc11e8be1	-9.90915
3	0x40c17cef	6.0465007
4	0x3f85e4dd	1.0460469
5	0xc0da17eb	-6.8154197
6	0xbdb80ce1	-0.089868315
7	0x3f83e8d6	1.0305431
8	0x40a12419	5.0356565
9	0x411a3a82	9.639284
10	0xc0910d74	-4.532892
11	0xc09c284a	-4.879918
12	0x40b4793f	5.6398005
13	0x3e8b8f0b	0.2725757
14	0x4037683d	2.8657372
15	0x3aa0de14	0.0012273216
16	0xbff62386	-1.9229591
17	0x40165f55	2.3495686
18	0x4122c0b0	10.172043
19	0xc179513f	-15.582335
20	0xc0dcbf95	-6.8983865
21	0x3fdb4852	1.7131445
22	0x408452e6	4.1351194
23	0x40a4a1fa	5.1447725
24	0x3fb84164	1.4394956
25	0xc0b6ed85	-5.716494
26	0xc118faa8	-9.561195
27	0x408b1999	4.3468747
28	0xc1017619	-8.091332
29	0xc0cadfdf	-6.339828
30	0xbf43e496	-0.7652067
31	0xc003a318	-2.0568295
32	0xbe43946f	-0.19099592
33	0x3dc8b1d0	0.0979954
34	0x4005c55f	2.0901716
35	0x3c417c9d	0.011809495
36	0xbfc657fe	-1.5495603
37	0x4133192f	11.193648
38	0xc03a677f	-2.912567
39	0x3e8f8653	0.2803217
40	0x3f518f3f	0.818592
41	0x406a6f39	3.6630385
42	0xc19345d5	-18.409098
43	0xbdf8b7d3	-0.12144437
44	0x4071103c	3.7666159
45	0x402661c7	2.5997179
46	0x41106820	9.025421
47	0xc01a3b62	-2.4098744
48	0x40cd19f1	6.4094167
49	0x4069b1d5	3.651479
50	0x4104eea9	8.308267
51	0x3feec2c0	1.8653183
52	0xbff1cbed	-1.8890358
53	0x412fa9ac	10.978924
54	0x3fe8a509	1.8175365
55	0x40d92c58	6.786663
56	0xbf0ab3da	-0.5418068
57	0x3deca809	0.11555488
58	0x412789d6	10.471151
59	0xc0ee633f	-7.449615
60	0xc135d16c	-11.363628
61	0xc0dc4856	-6.88383
62	0xc0c333bf	-6.1000667
63	0x3b7f1b8f	0.0038926338
64	0xbf24269e	-0.64121425
65	0x3ffda45e	1.9815786
66	0x4120398c	10.01405
67	0x4092b1a0	4.5841827
68	0xbff0c320	-1.8809547
69	0x40c8a115	6.2696633
70	0xc0e88a0f	-7.266853
71	0xc0559558	-3.3372402
72	0xc08a0de2	-4.3141947
73	0xc1474c29	-12.456094
74	0x40cbb011	6.3652425
75	0x40066055	2.0996296
76	0x40c13d18	6.0387077
77	0xbf674880	-0.90345
78	0xc08ad22a	-4.338155
79	0x3a4503c7	0.00075155165
80	0x3ea7aa7e	0.32747263
81	0x3f87b733	1.0602783
82	0x3cc8c541	0.02450812
83	0x4082a4cd	4.0826173
84	0xbf0d9923	-0.55311793
85	0xbf0dcc1c	-0.5538957
86	0x407c7e8e	3.9452243
87	0x40fa640c	7.8247128
88	0xbfdf9799	-1.7468139
89	0x402e864a	2.7269464
90	0x3b6589cf	0.0035024767
91	0x4167c7a1	14.486238
92	0x37806220	1.5304482e-05
93	0x3e6fb4cf	0.23408817
94	0xc12977de	-10.591764
95	0x3f873621	1.0563394
96	0xc105127e	-8.317015
97	0xbe221633	-0.15828781
98	0x3f132c83	0.57489794
99	0x3f691e7b	0.91062135
100	0x3a33e6d8	0.00068627065
101	0xc038b601	-2.8861086
102	0xc13cb998	-11.795311
103	0x3fc3eca2	1.530659
104	0xc1325ba3	-11.147372
105	0x40d43b9f	6.632278
106	0x3f60520c	0.87625194
107	0xc0748304	-3.8204966
108	0x4018e2c5	2.388841
109	0xc11be914	-9.744404
110	0x416e9f0b	14.913829
111	0xc17b2626	-15.696814
112	0xc05407e0	-3.3129807
113	0x3cad5764	0.021159835
114	0x3f9fdff1	1.2490216
115	0xc005e62c	-2.0921736
116	0x3ea4e702	0.32207495
117	0xbf40ae82	-0.7526628
118	0x4173d4d5	15.239461
119	0xbfc8a2c4	-1.5674672
120	0xc0bc42ee	-5.88317
121	0xbf7a464a	-0.977635
122	0x40f42c63	7.6304183
123	0xc0377304	-2.866395
124	0x3e4549ec	0.1926648
125	0x3dfb6fe5	0.122772016
126	0xc073168a	-3.7982507
127	0xbd9ea4ca	-0.07746275
128	0x40a219f1	5.0656667
129	0xbffef2ed	-1.9917885
130	0x409c165b	4.877729
131	0x411a5549	9.645822
132	0xc11a4af4	-9.643299
133	0x3fb9387e	1.4470365
134	0x4139e23e	11.617735
135	0xc1084f88	-8.519417
136	0x40dab1c3	6.8341994
137	0x4113335c	9.200039
138	0x3c98c528	0.018648699
139	0xc114ecc0	-9.3078
140	0x40abb86e	5.3662634
141	0x40bd6354	5.918375
142	0xc15e01cb	-13.875438
143	0xbfd0128c	-1.625566
144	0xc111b56a	-9.106791
145	0x3daec910	0.085344434
146	0xbd926804	-0.07148746
147	0xc0b5129c	-5.6585217
148	0xc05098d9	-3.259329
149	0x3e7f6890	0.24942231
150	0x40c48e3e	6.1423635
151	0x40cd86a2	6.4226847
152	0xc0c1f7d3	-6.061502
153	0x3d74359c	0.05962144
154	0xc151de61	-13.116792
155	0x401c308d	2.4404633
156	0x401ea198	2.478613
157	0xc0a0065d	-5.000777
158	0x403933bb	2.8937824
159	0x3fc7f39f	1.5621222
160	0xc1179a28	-9.475136
161	0xc12fd3c2	-10.989199
162	0xc082ebca	-4.091283
163	0x3e63a2e1	0.22230102
164	0x40bb7fcb	5.8593497
165	0xbd8671fa	-0.06564708
166	0x407b0647	3.9222581
167	0xc114be4a	-9.296457
168	0xc01c08c9	-2.4380362
169	0x40d41cd6	6.62852
170	0xbbf464bb	-0.007458297
171	0x3f69e8ea	0.91371024
172	0x406eb386	3.7297072
173	0xc103493e	-8.205381
174	0xbdcea65c	-0.10090324
175	0xbffcd5c2	-1.9752734
176	0xbe1e40c5	-0.15454395
177	0x3c5027aa	0.012704769
178	0xbd195df7	-0.037443127
179	0x3d239000	0.03993225
180	0xc0a9aee8	-5.302601
181	0x41273260	10.449799
182	0x3f63f4f9	0.89045674
183	0x3c5829b7	0.013193539
184	0x409dc04a	4.929723
185	0x3ffd279b	1.9777712
186	0x3f889510	1.067049
187	0x3f944465	1.1583372
188	0xc12d55bd	-10.833432
189	0xc0b40784	-5.6259174
190	0xc1171c5e	-9.444426
191	0xbfb32bc1	-1.3997728
192	0xc114a60e	-9.290541
193	0x3e7e0efd	0.24810405
194	0xc09f7ce0	-4.9839935
195	0xc12cf08a	-10.808725
196	0x4156fb55	13.43636
197	0xc01120f4	-2.2676363
198	0x40ef4128	7.4767036
199	0x4054bdda	3.3240876
200	0x3fa27534	1.2692018
201	0xbe6c0d1f	-0.2305188
202	0x3bca6e13	0.0061776727
203	0x3fc608b4	1.5471406
204	0x3daedccc	0.085382074
205	0xbe4bfefb	-0.19921486
206	0x3f2156ca	0.63023055
207	0xbf296633	-0.6617157
208	0xc0a52fbb	-5.1620765
209	0x4004f18c	2.0772429
210	0xbe3ee946	-0.18643674
211	0xc03cd364	-2.9504023
212	0xc02d2ffb	-2.7060535
213	0x3d7fb1e7	0.06242552
214	0x3eb11f44	0.34594166
215	0x40aeaf8d	5.4589295
216	0x4067e18f	3.623142
217	0xc0dc286a	-6.8799334
218	0x401daff3	2.463864
219	0xbe95bf8a	-0.29247695
220	0xc0810f97	-4.033153
221	0xba988c47	-0.0011638486
222	0x3fa70af5	1.3050219
223	0xb9b4137f	-0.000343468
224	0xbfed780a	-1.8552258
225	0xc10031f2	-8.012194
226	0x41a43e4e	20.530422
227	0xbfff813d	-1.9961315
228	0xc052a981	-3.2915957
229	0xbc04b35c	-0.008099403
230	0x41307618	11.0288315
231	0xbfe8f9af	-1.8201197
232	0xc0cbad04	-6.36487
233	0xc0cb82a0	-6.3596954
234	0x410f5fd0	8.960892
235	0xc175fce8	-15.374245

encoder.norm.running_var f4 [236]
0	0x3e851c1e	0.25998014
1	0x407116cb	3.7670162
2	0x4077745b	3.8664768
3	0x3fad6d50	1.3548985
4	0x3e84d796	0.2594573
5	0x3fde5a04	1.737122
6	0x39a53d9f	0.00031517164
7	0x3d264d45	0.040601034
8	0x3f6dccd4	0.9289067
9	0x405be735	3.4359868
10	0x4024f9b7	2.5777414
11	0x3f6d1a4f	0.9261827
12	0x3f869245	1.0513388
13	0x3b3f3672	0.002917674
14	0x3ea5455a	0.32279474
15	0x3376e425	5.7483835e-08
16	0x3f13c1d0	0.5771761
17	0x40129eb9	2.2909377
18	0x40b3f9a1	5.6242223
19	0x411e5959	9.896813
20	0x3fd942c9	1.6973506
21	0x3e3e061c	0.18557018
22	0x3f24bd22	0.64351094
23	0x3f774f1e	0.966051
24	0x3da512a0	0.08060193
25	0x3ffe4404	1.9864507
26	0x4067f48a	3.6243005
27	0x3faa9fb3	1.3329986
28	0x40217fa0	2.5234146
29	0x3fcfc43d	1.6231762
30	0x40d238d3	6.5694366
31	0x3ee21c04	0.44162
32	0x3aca2b0e	0.0015424208
33	0x39ba2f50	0.00035511935
34	0x3e2e1dd5	0.17003568
35	0x3be6c8e6	0.007042992
36	0x3dbea75a	0.093092635
37	0x409bef18	4.8729362
38	0x3ea7a910	0.32746172
39	0x3b7ed10a	0.0038881921
40	0x3d92fa2d	0.071766235
41	0x3f338530	0.70125103
42	0x415786a8	13.470375
43	0x3cc03c93	0.023466384
44	0x3f35c7dc	0.71008086
45	0x3ed64f6c	0.4185747
46	0x40dde813	6.9345794
47	0x3f1a4699	0.60263973
48	0x3fc9f484	1.5777745
49	0x3efe445f	0.49661538
50	0x40aa4664	5.3210926
51	0x3e4c3b6a	0.1994454
52	0x3e159919	0.14609183
53	0x4091ca4f	4.555946
54	0x3e3affba	0.18261614
55	0x3fd9b469	1.7008182
56	0x3c8b0ec8	0.016974822
57	0x3a083e32	0.0005197256
58	0x4089f6a8	4.3113594
59	0x405e0d8f	3.4695776
60	0x40ab6567	5.356128
61	0x40481541	3.1262972
62	0x3fe614fa	1.7975152
63	0x37ac9912	2.0575277e-05
64	0x3d7c6bce	0.061626248
65	0x3d9b16ec	0.075727314
66	0x406fc252	3.7462354
67	0x3f4a705d	0.790777
68	0x3e0bc5f7	0.13649736
69	0x3fbe3951	1.4861242
70	0x4072aba4	3.791726
71	0x3ede318e	0.43397182
72	0x3fba1fb8	1.454093
73	0x416041d9	14.016076
74	0x3fc02560	1.5011406
75	0x3f5d90aa	0.86548865
76	0x3f82e57e	1.0226285
77	0x3d071757	0.032981243
78	0x3f82c323	1.0215801
79	0x32daf172	2.5488337e-08
80	0x3fa173ef	1.2613505
81	0x3d3015e1	0.042989615
82	0x3d8b8a2e	0.06813465
83	0x3f278a07	0.6544499
84	0x3c462478	0.012093656
85	0x3d1e5f39	0.03866503
86	0x3f0b24dc	0.5435312
87	0x3ff31ef0	1.8993816
88	0x3df82234	0.12115899
89	0x3eca77b3	0.39544448
90	0x35008330	4.787462e-07
91	0x4101d0ba	8.113459
92	0x2d310ade	1.0063698e-11
93	0x3b03d2e2	0.002011471
94	0x4096973e	4.705962
95	0x3d865560	0.06559253
96	0x403a2f66	2.909143
97	0x3a777b3b	0.0009440665
98	0x3c8b96a7	0.01703961
99	0x3c88e487	0.016710533
100	0x3636798b	2.719086e-06
101	0x3ea585e8	0.32328725
102	0x40a6c8f2	5.2120295
103	0x3dc3c08a	0.09558208
104	0x4098a4c8	4.770115
105	0x3fd551c5	1.6665579
106	0x3e354b96	0.17704615
107	0x3f10d9be	0.5658225
108	0x3db5a93c	0.088701695
109	0x407e46ec	3.9730787
110	0x4105ba5f	8.358001
111	0x4113fdb6	9.249441
112	0x3f9f8c4c	1.246469
113	0x3d9790a4	0.07400635
114	0x3e967ddb	0.29392895
115	0x3eabf67a	0.33586484
116	0x3ca866b6	0.020556789
117	0x3cb42693	0.02199105
118	0x410c671e	8.775175
119	0x3de49211	0.111606725
120	0x3fb7cbbf	1.4359053
121	0x3d6b3cc8	0.057431012
122	0x400ce2a6	2.2013335
123	0x3ec3fbf6	0.38278168
124	0x3ab9af28	0.001416658
125	0x3ae53ea7	0.0017489985
126	0x40105d5c	2.2556982
127	0x3974aa96	0.00023333202
128	0x3f777c53	0.9667408
129	0x3e24eb64	0.1610542
130	0x3f52b925	0.8231376
131	0x405e9bc9	3.4782584
132	0x405995f7	3.3997781
133	0x3dd4d84a	0.10392816
134	0x409b576f	4.854423
135	0x4043a5e4	3.0570002
136	0x401e6694	2.4750109
137	0x404bfb22	3.187203
138	0x378542ce	1.5885944e-05
139	0x404c7a3b	3.1949604
140	0x40788a96	3.8834586
141	0x3faf3874	1.3689103
142	0x40fd34d1	7.9126973
143	0x3ddebc1a	0.10875721
144	0x404bd22b	3.1847026
145	0x3ceda6fc	0.029010288
146	0x3f4f3137	0.8093447
147	0x3f96d806	1.1784675
148	0x3eedfac0	0.4648037
149	0x3b204d7b	0.0024460244
150	0x3fb68eb8	1.4262304
151	0x3fbe325b	1.4859117
152	0x3ffc3fbe	1.9706953
153	0x3912bbc1	0.00013993589
154	0x40d1708a	6.5449877
155	0x3ea3cab9	0.31990603
156	0x3e5945b5	0.21217997
157	0x3f69c4df	0.91316026
158	0x3fb4abff	1.4114989
159	0x3e200052	0.15625122
160	0x406b3a47	3.675432
161	0x40922f44	4.5682697
162	0x404702dc	3.1095495
163	0x3eed7d7c	0.463848
164	0x3f99040f	1.1954364
165	0x3b8bd915	0.0042678216
166	0x3f56466b	0.837012
167	0x404bc8ee	3.1841388
168	0x3f16d5d1	0.5892001
169	0x3fd06c60	1.6283073
170	0x3635c541	2.7085919e-06
171	0x3d0423c9	0.03226069
172	0x401eb13a	2.479567
173	0x4047420f	3.113407
174	0x401617bf	2.3451993
175	0x3e17e8bf	0.1483488
176	0x3f8ee1fc	1.1162715
177	0x36e5d890	6.849943e-06
178	0x3c0facc9	0.008769223
179	0x388c7a9d	6.698559e-05
180	0x3f9aad85	1.2084204
181	0x40831e3d	4.097441
182	0x3ee52570	0.44755125
183	0x36e3e6da	6.792002e-06
184	0x3f7b6f5f	0.98216814
185	0x3e79111d	0.24322934
186	0x3d26ff6d	0.040770937
187	0x3d56251e	0.05228149
188	0x409edfc7	4.9648166
189	0x40110875	2.2661412
190	0x405ccc28	3.4499607
191	0x3da29fe8	0.07940656
192	0x40658e63	3.5868156
193	0x3b6f9dea	0.003656263
194	0x3f760a21	0.96109205
195	0x408b5667	4.354297
196	0x40e06675	7.012507
197	0x3e6981d6	0.22803435
198	0x4004f5fb	2.0775135
199	0x3f12ea2f	0.57388586
200	0x3f885750	1.0651646
201	0x3d073fee	0.033019952
202	0x35c7e15e	1.4892246e-06
203	0x3db4ff80	0.08837795
204	0x3c83d86e	0.016094413
205	0x3e11ed11	0.1425059
206	0x3cd5617f	0.026047466
207	0x3e90e575	0.28300062
208	0x3fa312ac	1.2740073
209	0x3e3323c0	0.17494106
210	0x3bf517b8	0.007479634
211	0x3ead4786	0.3384363
212	0x3f81d75a	1.0143845
213	0x39294bcf	0.00016145337
214	0x3b9410a6	0.004518586
215	0x3f9f3ec7	1.2441033
216	0x3f213c14	0.62982297
217	0x3fe6fdc5	1.8046194
218	0x3e6dc712	0.2322047
219	0x3b58e0ba	0.0033092932
220	0x3f2d1ac1	0.6761895
221	0x34904c12	2.687744e-07
222	0x3d8755df	0.066081755
223	0x31a04b96	4.665206e-09
224	0x3e087845	0.13327129
225	0x4042240f	3.0334508
226	0x4186f141	16.8678
227	0x3e8013be	0.25015062
228	0x3ed2aeba	0.4114893
229	0x3918fc9f	0.00014589958
230	0x40900124	4.500139
231	0x3e03eb04	0.1288262
232	0x40019fc1	2.0253756
233	0x40331644	2.798234
234	0x4041716f	3.0225484
235	0x410fbdbd	8.983823
