checkpoints/ae_0%.pt (torch, 915143 bytes, 16 tensors)

encoder.linear1.weight f4 [236, 358]
-8.188351e-05 8.083593e-05 0.0005990449 0.00029145333 -0.00059855235 -0.0005876795 -0.0017722525 -0.00010048781
-0.0016810003 -0.0005980745 -0.00074696046 -0.0004621427 0.00037622068 3.7628615e-05 -0.00036596975 -0.00015644661
-0.00055523234 3.960564e-06 9.0219415e-05 -0.0002343366 0.000113835165 9.281385e-05 6.8362483e-06 7.5686376e-06
0.00036199167 -0.00041149269 1.401324e-06 0.00014350394 0.0005395279 -0.0055971523 0.0010529178 0.00026074288
-0.0003513289 -0.0005451508 5.67007e-05 0.003147463 -0.010519665 -0.00025664718 0.0003045765 6.673478e-05
0.00049734797 7.80076e-05 0.00034432192 -0.00039067984 -0.0011017955 0.00015174308 0.00020436103 -0.001776339
-0.00015250892 8.617247e-05 0.0010979078 -0.00019635604 -9.324995e-05 -0.016953902 -0.00065955997 -0.00024071858
-0.00025508594 -0.00028893934 -0.00046264677 -0.00014082041 -0.0010017457 0.00011199721 0.00013339875 3.9736227e-05
0.00038480113 -0.0003199538 -0.0003186404 7.426578e-05 0.00019682774 -0.00026847026 -0.0001839211 -1.4154805e-05
6.4985295e-05 0.00014799496 -4.9825598e-05 -4.9862752e-05 8.578546e-05 -3.771474e-05 -0.00017905967 -0.0002580421
-6.6885346e-05 -0.00020972492 0.00019278024 0.00018510033 0.00017563604 0.00017970594 0.00018604875 0.00015548439
0.0001703015 0.00022098706 5.704669e-05 -0.00013435428 0.00026936986 -0.0006666151 0.0004945516 -0.018935153
-0.0041349134 -0.001441662 -0.0014428038 3.1521202e-05 -9.7002354e-05 0.0066744364 -0.00023124777 -0.03289502
-0.0034929323 -0.0027297097 -0.013954295 0.010690337 -0.0071613733 0.009084036 -0.006459008 0.007967805
-1.596689e-06 -0.0016186001 -0.0024908956 0.007118244 -0.0016369347 -0.00025278493 0.0015666098 -0.00059909065
0.0022637611 0.0017645116 0.0035126922 0.001073367 0.00063066743 -0.012655319 -0.012753126 -0.000687397
-0.0007803873 0.00021970893 1.039741e-05 0.00024212194 -0.00021586152 8.080076e-07 0.00015115453 7.423819e-05
1.7251095e-05 -7.222316e-05 -0.00014152817 -0.00018953579 0.0013802465 -0.0002598358 -0.00019128861 -0.00032636884
-0.0006337545 -0.00095719285 0.0005340896 -0.00012906833 0.00024109066 0.00076242076 0.0001412389 -0.0007396329
0.0009999493 -0.0009510641 -0.00234874 0.0005463094 0.00032584422 -0.0010107118 -0.0068326774 0.001350763
-0.0005996292 0.0008275106 -3.4284494e-05 -0.00013761566 -9.742664e-05 -0.00012247312 -0.00015306844 -0.00014221575
-0.00012938467 -2.1361026e-05 -0.00011288593 1.1244385e-05 -0.0001537084 -0.000133993 0.00013057103 -8.0595235e-08
1.6820239e-06 6.213383e-05 -7.4784555e-05 1.8754217e-05 -0.00020007389 -6.973495e-05 1.18553535e-05 -4.905982e-05
-8.8938796e-05 0.00025390933 -1.2788569e-06 -3.458624e-07 4.590429e-07 -0.011035917 0.0017340651 1.156188e-06
-9.565578e-08 8.888622e-08 -2.8343266e-07 -0.0056742816 -2.4432e-08 -9.28018e-07 4.8415775e-08 5.540268e-07
1.4829641e-06 1.14232336e-07 -2.7581203e-07 2.7205382e-07 2.3071346e-08 -1.5513515e-06 1.2688977e-06 -2.5979332e-07
1.986524e-06 2.0526836e-07 8.6057995e-08 6.8073374e-09 -5.7511777e-08 6.1039117e-07 0.001715648 -0.02812916
3.777198e-07 2.0953536e-07 6.176057e-07 5.7191295e-07 -3.05702e-07 0.0114293415 -3.290084e-07 2.3140492e-08
-6.625049e-07 0.004707248 -1.6698773e-07 8.616341e-08 0.0034032771 -0.008195343 0.01676128 -2.591447e-07
1.242179e-06 2.1132026e-07 -1.6508284e-07 -6.715195e-08 9.093687e-08 -9.245411e-07 1.0344717e-06 1.5744785e-06
7.93653e-05 -2.1109383e-05 0.0001608172 -1.640257e-05 -5.6026358e-05 9.318885e-05 -0.00012448739 2.5686397e-05
-7.862127e-05 -3.900256e-05 8.126817e-05 4.095293e-05 9.203372e-05 -8.8920155e-05 -2.2108276e-05 0.00017077122
00000000: e0b8 abb8 7686 a938 3909 1d3a 34ce 9839
00000010: 2be8 1cba 810e 1aba ed4a e8ba fbbc d2b8
00000020: 0355 dcba 1ac8 1cba abcf 43ba be4b f2b9
00000030: 7c3f c539 6bd3 1d38 a1df bfb9 d10b 24b9
00000040: 038d 11ba fce4 8436 2e34 bd38 41b8 75b9
00000050: caba ee38 0ea5 c238 ed62 e536 1af6 fd36
00000060: b3c9 bd39 9dbd d7b9 2015 bc35 8c79 1639
00000070: 1b6f 0d3a 5168 b7bb 0f02 8a3a 51b4 8839
00000080: 9132 b8b9 73e8 0eba ead1 6d38 ab45 4e3b
00000090: ac5a 2cbc 9a8e 86b9 91af 9f39 f6f3 8b38
000000a0: 7560 023a 0398 a338 1b86 b439 29d4 ccb9
000000b0: 1f6a 90ba 391d 1f39 bf49 5639 0cd4 e8ba
000000c0: cdea 1fb9 7eb7 b438 ace7 8f3a ece4 4db9
000000d0: 308f c3b8 e9e2 8abc 52e6 2cba 6769 7cb9
000000e0: 0ebd 85b9 c87c 97b9 668f f2b9 31a9 13b9
000000f0: 024d 83ba 0be0 ea38 f4e0 0b39 73aa 2638
00000100: 22bf c939 79bf a7b9 310f a7b9 23bf 9b38
00000110: 8b63 4e39 78c1 8cb9 f2da 40b9 6d7a 6db7
00000120: b748 8838 182f 1b39 d4fb 50b8 b923 51b8
00000130: b8e7 b338 e52f 1eb8 f7c1 3bb9 d349 87b9
00000140: cc44 8cb8 9be9 5bb9 0d25 4a39 7e17 4239
00000150: f12a 3839 726f 3c39 1516 4339 8609 2339
00000160: f692 3239 c3b8 6739 6b45 6f38 74e1 0cb9
00000170: 363a 8d39 c8bf 2eba cca4 013a e51d 9bbc
00000180: 2b7e 87bb 26f6 bcba 761c bdba a235 0438
00000190: be6d cbb8 3bb5 da3b 1a7b 72b9 eebc 06bd
000001a0: aee9 64bb eee4 32bb 8ea0 64bc 8626 2f3c
000001b0: f4a9 eabb 35d5 143c 16a6 d3bb 658b 023c
000001c0: d14d d6b5 3527 d4ba 4b3e 23bb 2940 e93b
000001d0: 6a8e d6ba 3888 84b9 b456 cd3a 4b0c 1dba
000001e0: 9c5b 143b 2f47 e73a 3235 663b 38b0 8c3a
000001f0: 6053 253a 4158 4fbc 7df2 50bc 6f32 34ba
00000200: e892 4cba ab61 6639 8970 2e37 1de2 7d39
00000210: e358 62b9 dce5 5835 3c7f 1e39 53b0 9b38
00000220: 72b6 9037 8476 97b8 2e67 14b9 20be 46b9
00000230: 63e9 b43a 923a 88b9 a594 48b9 7c1c abb9
00000240: 8b22 26ba 20ec 7aba 2502 0c3a 8456 07b9
00000250: 48cd 7c39 31dd 473a 8719 1439 ece3 41ba
00000260: bb10 833a d550 79ba 51ed 19bb 3436 0f3a
00000270: 12d6 aa39 dc79 84ba a7e4 dfbb 160c b13a
00000280: 6f30 1dba 4ced 583a b2cc 0fb8 ec4c 10b9
00000290: 8751 ccb8 216c 00b9 ff80 20b9 c01f 15b9
000002a0: 6fab 07b9 7430 b3b7 2cbd ecb8 44a6 3c37
000002b0: c92c 21b9 7980 0cb9 e5e9 0839 b313 adb3
000002c0: e7c1 e135 d94d 8238 a7d5 9cb8 6052 9d37
000002d0: edca 51b9 ab3e 92b8 5be6 4637 95c5 4db8
000002e0: a784 bab8 221f 8539 30a5 abb5 f7ae b9b4
000002f0: 6072 f634 fecf 34bc 9249 e33a 512e 9b35
00000300: 526b cdb3 b7e1 be33 b02a 98b4 53ef b9bb
00000310: 89de d1b2 e91c 79b5 b5f1 4f33 6fb8 1435
00000320: 420a c735 e44f f533 5113 94b4 cb0e 9234
00000330: 6d2e c632 0838 d0b5 fe4e aa35 b979 8bb4
00000340: 3950 0536 bd67 5c34 e2ce b833 f9e5 e931
00000350: de02 77b3 c3d9 2335 98df e03a 206f e6bc
00000360: 6ac9 ca34 a4fc 6034 8ac9 2535 8f85 1935
00000370: 5d1f a4b4 2242 3b3c 92a2 b0b4 7bc6 c632
00000380: fdd6 31b5 423f 9a3b 3d4d 33b4 d608 b933
00000390: 8409 5f3b c345 06bc f44e 893c 9420 8bb4
000003a0: f2b8 a635 45e7 6234 a041 31b4 2d35 90b3
000003b0: 1349 c333 fb2d 78b5 2dd8 8a35 ab52 d335
000003c0: ec70 a638 0e14 b1b7 0aa1 2839 4098 89b7
000003d0: d8fd 6ab8 626e c338 d488 02b9 1e79 d737
000003e0: 79e1 a4b8 ae96 23b8 846e aa38 e0c4 2b38
000003f0: 3a02 c138 a57a bab8 2975 b9b7 0d11 3339

encoder.linear1.bias f4 [236]
-1.3505854e-12 -3.2927645e-07 -5.7896e-41 3.2450613e-12 -1.6127826e-09 2.3359145e-07 -2.8347e-41 -2.76873e-40
5.5423783e-07 -3.4586e-40 9.1417455e-08 -3.19937e-40 -3.4737806e-07 -1.95627e-40 -1.4992406e-09 -1.08207e-40
-4.9094977e-09 -2.2512493e-06 -6.3409175e-07 4.6487414e-10 -3.56548e-40 -1.2637055e-08 2.78027e-40 -2.1782416e-06
2.44263e-40 -1.1094248e-08 3.3137e-40 7.7832425e-08 -2.2337e-40 -2.81283e-40 2.477985e-07 1.6093968e-07
-1.92823e-40 -3.04398e-40 9.6227e-41 1.0751376e-06 -2.1923e-40 -1.7612102e-09 3.30344e-40 -2.90887e-40
3.5043296e-10 -1.068433e-08 -4.6539876e-07 -2.69677e-40 2.7566279e-07 -7.3055486e-07 8.1050894e-07 2.77247e-40
-2.80138e-40 3.46349e-40 4.4136388e-07 -8.093532e-09 -1.7497e-40 3.39203e-40 -1.60457e-40 -1.436369e-07
2.36688e-40 -1.009e-40 -1.81604e-40 1.6288772e-06 1.0520272e-06 1.7147037e-06 -6.04698e-39 3.385905e-08
9.240635e-08 6.460788e-08 -2.14952e-40 -9.313307e-08 2.79664e-40 7.087385e-32 -1.1415743e-06 3.67364e-40
2.2346822e-07 7.306329e-07 -3.38739e-40 1.7008354e-07 -4.4315374e-09 -2.8822e-40 3.0762312e-08 4.3594e-41
2.0104453e-07 3.01203e-40 1.1185371e-18 2.671207e-39 -1.9797357e-09 2.67558e-40 3.0266446e-07 1.8997493e-07
4.132124e-09 6.545416e-07 -3.12621e-40 5.1916315e-11 3.17935e-40 1.7734e-40 1.7521074e-07 -1.34361e-40
3.736782e-08 -3.260531e-14 -2.5309942e-07 3.0207807e-09 2.78651e-40 -3.40593e-40 -1.1894399e-06 -3.899446e-08
6.7823e-41 -1.0676e-40 6.267095e-08 -3.60958e-40 3.4678487e-07 5.6842475e-07 2.91471e-40 2.1746789e-07
-4.9542854e-07 -4.000691e-08 -7.382851e-08 4.6529152e-07 -9.8883774e-08 3.93347e-40 -1.37615e-40 -5.545188e-11
5.5881003e-08 -2.85456e-40 -1.6410034e-10 -5.1879653e-08 3.44066e-40 -1.8790846e-07 9.835534e-07 -3.51047e-39
-2.51522e-40 3.06016e-40 4.054141e-09 8.7508e-41 -3.563938e-08 -3.944942e-08 -1.9881908e-13 -2.2268544e-07
2.4314977e-07 1.2888286e-06 1.04778e-40 3.352993e-12 4.0299913e-08 -1.1004339e-07 -3.3363523e-07 3.41571e-40
-6.1724745e-07 2.1534348e-08 -2.802403e-07 1.0484753e-07 2.983489e-07 3.15593e-40 3.2563e-40 1.6232449e-06
-1.01350466e-07 3.62592e-40 2.69599e-40 -3.45316e-40 -2.8827586e-07 1.14856576e-10 1.6302354e-07 -2.33126e-40
-1.3605231e-07 3.59348e-40 4.6139354e-07 3.531923e-08 1.3845656e-11 -2.488143e-07 8.495896e-08 -2.0196464e-07
3.9571653e-08 -2.80358e-40 -3.07309e-40 1.93232e-40 -8.8159067e-07 8.4838604e-08 -2.1099656e-07 2.85939e-40
2.0247683e-07 -3.25247e-40 -1.02275e-40 3.01475e-40 4.730884e-07 -2.47509e-40 2.1103943e-07 -1.60653e-40
2.92103e-40 3.46423e-40 3.13115e-40 2.90261e-40 4.9557616e-07 5.523614e-08 -3.1102e-40 1.08887654e-07
-6.503827e-07 -3.593743e-08 2.99689e-40 -3.13559e-40 -5.629286e-09 4.339447e-08 -2.88421e-40 7.097265e-07
-6.997811e-07 3.8624e-41 3.39207e-40 2.91152e-40 3.7723963e-10 8.216448e-09 1.1647452e-08 3.492562e-07
2.7607334e-07 -3.1278512e-07 2.80488e-40 -3.2221e-40 4.7845714e-07 -3.15612e-40 -3.11238e-40 3.45534e-40
8.5859324e-07 -4.007255e-08 -8.39129e-08 2.27002e-40 -3.1389842e-08 3.18473e-40 2.76881e-40 -1.99368e-40
-4.6208e-41 -3.4256325e-07 2.66425e-40 -1.4306493e-09 -2.18e-40 -6.8809602e-09 9.490632e-13 -2.73484e-40
8.547878e-09 3.235607e-07 -1.65398e-40 -2.82378e-40
00000000: f813 beab 69c7 b0b4 64a1 0080 d459 642c
00000010: bea8 ddb0 21d1 7a34 054f 0080 cf03 0380
00000020: efc6 1435 1ec4 0380 4751 c433 db7b 0380
00000030: 477f bab4 5421 0280 d70d ceb0 a32d 0180
00000040: 66b0 a8b1 2b14 17b6 7436 2ab5 3891 ff2f
00000050: e9e1 0380 5b1a 59b2 0707 0300 e82d 12b6
00000060: e8a8 0200 0599 3eb2 ba9b 0300 d424 a733
00000070: aa6e 0280 1a10 0380 2b09 8534 c3ce 2c34
00000080: 8319 0280 8a50 0380 3e0c 0100 724d 9035
00000090: 2063 0280 130f f2b0 dd98 0300 e02a 0380
000000a0: 0ea7 c02f 2e8e 37b2 ebdb f9b4 c0ef 0280
000000b0: cefe 9334 591b 44b5 c091 5935 da04 0300
000000c0: e90c 0380 7bc5 0300 97f4 ec34 bb0b 0bb2
000000d0: bfe7 0180 8fb1 0300 4abf 0180 9c3a 1ab4
000000e0: ca93 0200 4519 0180 3dfa 0180 cb9f da35
000000f0: 6133 8d35 c524 e635 85d8 4180 6b6c 1133
00000100: ee70 c633 8fbe 8a33 3357 0280 7200 c8b3
00000110: 970b 0300 c1ff b70b 3238 99b5 1000 0400
00000120: 7af2 6f34 b620 4435 44b0 0380 35a0 3634
00000130: 3744 98b1 7123 0380 851f 0433 8679 0000
00000140: b3de 5734 a247 0300 2311 a521 3d16 1d00
00000150: e10b 08b1 d8e9 0200 e37d a234 e9fb 4b34
00000160: 8cfa 8d31 c2b3 2f35 7667 0380 9354 642e
00000170: 4676 0300 5aee 0100 9021 3c34 8b76 0180
00000180: 5a7e 2033 5dd7 12a9 b8e1 87b4 2396 4f31
00000190: c408 0300 6fb5 0380 d8a4 9fb5 dd7a 27b3
000001a0: 10bd 0000 9a29 0180 b895 8633 34ee 0380
000001b0: c02d ba34 da95 1835 812c 0300 1e81 6934
000001c0: 97fd 04b5 10d4 2bb3 a78b 9eb3 2ecd f934
000001d0: ee59 d4b3 7e48 0400 9d7f 0180 44e1 73ae
000001e0: d001 7033 bc1b 0380 246e 34af 48d2 5eb3
000001f0: 1ebf 0300 e2c3 49b4 a302 8435 c339 2680
00000200: 24bd 0280 0c55 0300 9a4c 8b31 f0f3 0000
00000210: ea11 19b3 196f 29b3 b3d9 5faa 4f1b 6fb4
00000220: 408a 8234 d0fb ac35 1424 0100 27f2 6b2c
00000230: 3916 2d33 fe50 ecb3 7a1e b3b4 29b8 0300
00000240: ecb0 25b5 88fa b832 ef73 96b4 8a28 e133
00000250: c32c a034 bf6f 0300 b98b 0300 45de d935
00000260: 02a6 d9b3 c2f2 0300 88ef 0200 9ac2 0380
00000270: 55c4 9ab4 8192 fc2e 920b 2f34 dc89 0280
00000280: c615 12b4 b7e9 0300 72b5 f734 e7b1 1733
00000290: 4b93 732d c794 85b4 af72 b633 9edb 58b4
000002a0: 7ef5 2933 860d 0380 a758 0380 a71a 0200
000002b0: 73a6 6cb5 8430 b633 4b8e 62b4 151d 0300
000002c0: 6868 5934 a88a 0380 1a1d 0180 6448 0300
000002d0: c6fc fd34 f4b1 0280 149a 6234 d6bf 0180
000002e0: 442e 0300 b0c5 0300 d668 0300 2129 0300
000002f0: bc07 0535 c73c 6d33 ff62 0380 9fd5 e933
00000300: f595 2eb5 9f59 1ab3 6943 0300 136a 0380
00000310: b96b c1b1 b960 3a33 0024 0380 0984 3e35
00000320: 97d8 3bb5 ab6b 0000 92b1 0300 9d2b 0300
00000330: c263 cf2f 5228 0d32 091a 4832 6881 bb34
00000340: 3b37 9434 dcec a7b4 e30d 0300 3182 0380
00000350: 536f 0035 cc6f 0380 9b63 0380 35c3 0300
00000360: 147a 6635 3c1c 2cb3 9b33 b4b3 ca78 0200
00000370: 7fd1 06b3 c677 0300 d503 0300 c22b 0280
00000380: cf80 0080 89e9 b7b4 afe6 0200 7fa0 c4b0
00000390: b25f 0280 916d ecb1 9b91 852b 5dfa 0280
000003a0: f7d9 1232 d8b5 ad34 10cd 0180 2813 0380

encoder.linear2.weight f4 [118, 236]
0.003371312 -0.081353925 -0.099635035 -0.009257486 0.00200845 -0.057764377 -0.16079713 1.0797103e-08
0.00782675 -0.008163619 0.014538351 -0.14998071 -0.039506424 -0.009176994 0.0007908187 -0.00020126582
-0.19564539 -0.19564581 -0.05522883 -0.0117269 2.8390862e-14 0.020517353 -0.00076266634 -0.023732236
8.623062e-05 0.0577651 -0.12989624 0.03191828 -0.018132895 -0.13217193 -0.1782949 0.038942553
-0.10326729 -0.011711492 -0.06912485 0.0005649306 -0.16604526 -0.016116763 7.956197e-06 0.0013578916
-0.0028377336 0.013238135 0.033023465 0.00025928425 0.015099868 0.02779574 -0.11798599 9.570056e-10
-0.10120298 -0.023187974 -0.15554202 0.005950334 0.0006872905 -0.03680972 0.0060152775 0.02759652
-0.104079366 0.0027726605 -0.14267007 0.06605345 -0.092605166 0.13867703 -0.12796673 0.0043253005
0.019913564 0.03637857 -0.02246071 -0.14456017 -0.122372866 -0.11570428 0.039760485 9.1355054e-05
0.07862921 0.09826198 -0.011567975 -0.09012876 -0.005023443 -0.22106785 -0.002837303 -0.09212185
0.0025323892 1.4705838e-06 -0.00032889377 0.009359738 -0.0005228416 -0.00039807177 0.017083433 -0.030407656
-0.06006136 0.010525169 3.1144235e-05 -0.05844108 -0.015365497 -5.4631884e-05 -0.1063456 0.005138035
-0.095942736 -0.041980185 0.02573141 0.0018521539 1.1194583e-06 -0.008060769 -0.06210715 0.0024410265
-0.003776186 -0.035663083 -0.017150724 -1.3758661e-07 0.0047240835 -0.08835744 -0.010344081 -0.14769866
0.010860024 -0.0009135971 -0.02181985 0.011544484 -0.01731463 -0.12849025 -0.07514756 -0.091264434
-0.06140956 -0.0024334984 -0.01647493 -0.08056938 -0.06077809 0.0011851052 0.010962466 -0.042992264
0.00019837766 -0.06933059 0.004284872 -0.014274739 0.0032755567 0.00013021154 -0.003251636 -0.08000812
-0.008172149 0.03789684 -0.08912916 -0.00028359858 -0.15528427 0.00068202335 -0.09271974 -0.13073188
0.007963252 0.007598474 0.014711509 0.018597204 -0.050203588 -9.1116776e-12 -0.021584423 0.0070604477
0.014752987 -1.3634099e-06 5.7533074e-05 0.0015096589 -0.019486988 -0.0050270073 -0.07325066 0.026950464
-0.1386688 -0.019856576 0.016022153 -0.010073471 -0.00010140685 0.03595223 0.022098357 0.008179425
0.019213753 -0.00014655245 -0.12417354 -0.09743384 -0.16159214 -0.12808049 0.0022868707 -0.0035005265
-0.014619931 0.006405185 0.00018868234 9.3207444e-07 -0.10247513 -0.01651441 -0.047955237 -0.004282821
0.023303298 0.020398216 1.8994127e-05 -0.07645077 -0.1575171 0.0038405713 -0.089785114 -0.07831452
-0.075530946 0.0012370683 8.9812e-41 2.4848694e-07 0.002226745 -0.08268103 -0.0035045783 0.02144322
-0.036259208 3.524122e-06 -0.1398173 -0.18655865 0.0061122696 0.009756276 0.0043622092 0.0050530853
0.022975447 0.019575063 -0.0005246036 -0.12805043 -0.0038916452 -0.068849094 -0.0645486 -0.17495945
0.0151988985 0.001046468 3.4239263e-05 3.662454e-14 -0.081560686 0.0054481584 -0.2019146 0.0012535717
-0.17434579 -0.07962519 -2.2124232e-07 0.0003752607 -0.23450105 -0.009113 -0.009143603 -0.012238316
0.009481484 0.04842999 -0.1801403 -0.08425214 0.0008065644 0.0034750965 -3.1696822e-11 -0.00014467625
0.002508586 0.0030305805 -0.0027732153 -0.000117250216 -0.0013856456 -0.0017985675 -0.0036813866 -7.766142e-05
-0.051129557 -0.01807305 -2.1929378e-05 -3.362811e-05 -0.014484295 0.0054382742 0.0073915366 0.0006993801
00000000: 3bf1 5c3b e39c a6bd 740d ccbd b6ac 17bc
00000010: 33a0 033b 579a 6cbd 01a8 24be 297e 3932
00000020: c53b 003c b3c0 05bc 4432 6e3c 8b94 19be
00000030: 7dd1 21bd 1a5b 16bc f24e 4f3a e20a 53b9
00000040: 4457 48be 6057 48be a037 62bd 2f22 40bc
00000050: dfb8 ff28 0214 a83c aced 47ba 1b6a c2bc
00000060: b6d6 b438 199b 6c3d 8503 05be bebc 023d
00000070: 708b 94bc 1458 07be f092 36be 3a82 1f3d
00000080: cd7d d3bd 8fe1 3fbc 5491 8dbd da17 143a
00000090: c507 2abe 4d07 84bc 9b7b 0537 48fb b13a
000000a0: 45f9 39bb c3e4 583c 9d43 073d 8bf0 8739
000000b0: 7065 773c e4b3 e33c a4a2 f1bd a487 8330
000000c0: 8243 cfbd b5f4 bdbc 6846 1fbe 05fb c23b
000000d0: 492b 343a cac5 16bd ce1b c53b 1912 e23c
000000e0: 9027 d5bd 86b5 353b 1a18 12be 0847 873d
000000f0: c7a7 bdbd 5a01 0e3e b609 03be 40bb 8d3b
00000100: c521 a33c b201 153d 86ff b7bc 9507 14be
00000110: a09e fabd 5ef6 ecbd e4db 223d df95 bf38
00000120: 5a08 a13d 943d c93d 9b87 3dbc 6d95 b8bd
00000130: b29b a4bb 9c5f 62be 0cf2 39bb 61aa bcbd
00000140: 71f6 253b e060 c535 606f acb9 9659 193c
00000150: 4e0f 09ba 4ab4 d0b9 8ef2 8b3c 7a19 f9bc
00000160: e702 76bd c271 2c3c dea0 0238 ea5f 6fbd
00000170: 91bf 7bbc 8a24 65b8 b9cb d9bd f65c a83b
00000180: a07d c4bd 6af3 2bbd aeca d23c f9c3 f23a
00000190: 4b40 9635 5111 04bc 1164 7ebd a1f9 1f3b
000001a0: e379 77bb 7413 12bd ad7f 8cbc 85bb 13b4
000001b0: 7ccc 9a3b bff4 b4bd 387a 29bc 513e 17be
000001c0: 3eee 313c 777e 6fba 8bbf b2bc 1325 3d3c
000001d0: 69d7 8dbc f392 03be f7e6 99bd d9e8 babd
000001e0: 9788 7bbd 547b 1fbb 6ff6 86bc 8f01 a5bd
000001f0: 72f2 78bd 8855 9b3a ea9b 333c a818 30bd
00000200: 9903 5039 32fd 8dbd 1d68 8c3b 98e0 69bc
00000210: b9aa 563b 6589 0839 6619 55bb 4cdb a3bd
00000220: 7ae4 05bc b839 1b3d 5989 b6bd f5af 94b9
00000230: d702 1fbe d0c9 323a d9e3 bdbd 94de 05be
00000240: 4d78 023c 9ffc f83b 8b08 713c 2a59 983c
00000250: 47a2 4dbd 594b 20ad d1d1 b0bc 545b e73b
00000260: 83b6 713c 68fe b6b5 ab4f 7138 bfdf c53a
00000270: 2da3 9fbc 98b9 a4bb 7104 96bd 38c7 dc3c
00000280: 32ff 0dbe 42aa a2bc e440 833c 330b 25bc
00000290: 63aa d4b8 a542 133d 9d07 b53c ff02 063c
000002a0: 2966 9d3c e0ab 19b9 b24e febd 658b c7bd
000002b0: 6978 25be 8827 03be 53df 153b 1769 65bb
000002c0: 6f88 6fbc 96e2 d13b 08d9 4539 ab33 7a35
000002d0: 7bde d1bd 3a49 87bc b66c 44bd e856 8cbb
000002e0: 8fe6 be3c 291a a73c 9455 9f37 3992 9cbd
000002f0: 2a4c 21be 18b2 7b3b 42e1 b7bd 5d63 a0bd
00000300: f8af 9abd 2025 a23a 5cfa 0000 c967 8534
00000310: 95ee 113b ac54 a9bd 11ad 65bb b1a9 af3c
00000320: 8984 14bd f47f 6c36 442c 0fbe 3b09 3fbe
00000330: 6f49 c83b cad8 1f3c ddf0 8e3b 5a94 a53b
00000340: 0137 bc3c e25b a03c 8d85 09ba a71f 03be
00000350: f90a 7fbb c100 8dbd 0e32 84bd 9228 33be
00000360: cd04 793c a429 893a 219c 0f38 38f1 2429
00000370: 4a09 a7bd 7786 b23b b3c2 4ebe e34e a43a
00000380: b487 32be 8812 a3bd a08e 6db4 a3be c439
00000390: 0b21 70be b14e 15bc 0dcf 15bc 3883 48bc
000003a0: 3a58 1b3c 865e 463d b376 38be 638c acbd
000003b0: 9f6f 533a 72be 633b 7367 0bae 3cb4 17b9
000003c0: 1767 243b b49c 463b d5be 35bb 3be4 f5b8
000003d0: 8d9e b5ba e9bd ebba 6b43 71bb 28de a2b8
000003e0: 3a6d 51bd ef0d 94bc fbf4 b7b7 e80b 0db8
000003f0: 894f 6dbc 8d33 b23b b434 f23b 9b56 373a

encoder.linear2.bias f4 [118]
-1.6996245e-06 -1.4262991e-06 2.7769127e-06 -1.5036427e-06 -2.1737328e-06 2.8270479e-06 2.7668364e-06 2.4457014e-08
-5.067916e-06 8.327923e-07 1.0124869e-06 -7.691658e-06 -1.0246474e-06 -4.665356e-06 1.4437571e-06 -8.60058e-07
-1.3104071e-06 1.1255577e-06 -1.0913839e-06 5.077583e-07 9.661662e-07 -1.365012e-06 5.3405696e-08 9.6106705e-06
-5.890953e-06 2.384342e-06 2.019727e-06 -2.3247119e-06 -2.9356047e-06 -3.868568e-07 -4.157232e-06 -4.5339016e-07
-1.1260506e-06 7.876873e-06 -1.3073015e-06 -4.3280024e-06 4.3136e-06 5.8711476e-07 -5.29968e-06 -5.447565e-06
-4.3885507e-06 2.2866845e-06 -9.002805e-07 3.0035449e-06 1.9279685e-06 1.9035879e-07 -1.1637927e-06 -1.1121782e-06
5.0975314e-06 3.9871617e-07 -1.0706016e-06 -1.0606967e-05 -4.2684962e-07 -3.1811535e-06 9.924206e-07 2.9950036e-07
-1.2971382e-06 5.7715783e-07 -2.4192339e-06 3.319803e-06 5.008997e-06 -6.118178e-07 2.151147e-06 7.393141e-07
-7.364391e-07 -3.3214312e-07 3.1488623e-06 -1.1364644e-06 1.2864695e-06 -9.792739e-07 9.790639e-06 2.710358e-06
-2.2563653e-07 4.9948003e-06 -6.196234e-06 -9.673836e-07 -1.1679998e-06 2.6828477e-06 3.6932974e-07 2.9075653e-07
-7.2973114e-07 -3.4318448e-06 1.9729753e-06 1.0768206e-06 2.609325e-06 -4.422186e-06 3.6495345e-07 -4.461454e-06
2.7232556e-06 -5.519092e-06 -8.9041583e-07 2.349278e-06 6.3382075e-08 -1.3956407e-06 -1.1727659e-06 -1.4142222e-06
2.286878e-07 -4.5957873e-07 -3.0453598e-06 -2.7245642e-07 5.5851876e-07 -1.3792112e-06 -8.17252e-06 3.8052901e-06
-5.047097e-07 -9.07891e-07 -6.1805974e-07 6.293147e-06 -1.5112745e-06 1.1483776e-06 -3.3729862e-06 4.661342e-06
4.62271e-06 2.8501645e-06 1.5278623e-06 3.1517132e-07 -3.6883862e-06 1.8423497e-06
00000000: a71e e4b5 446f bfb5 ff5a 3a36 c5d0 c9b5
00000010: 72e0 11b6 50b8 3d36 e3ad 3936 8b15 d232
00000020: 110d aab6 0d8d 5f35 c9e4 8735 6b0b 01b7
00000030: 9e86 89b5 1a8b 9cb6 1ec7 c135 bcde 66b5
00000040: 3fe1 afb5 de11 9735 aa7b 92b5 e24c 0835
00000050: 38ad 8135 7535 b7b5 2f60 6533 843d 2137
00000060: e7aa c5b6 af02 2036 a58a 0736 3f02 1cb6
00000070: 4e01 45b6 32b1 cfb4 5a7e 8bb6 7869 f3b4
00000080: ce22 97b5 e926 0437 8a76 afb5 4239 91b6
00000090: 8bbd 9036 389a 1d35 e8d3 b1b6 3aca b6b6
000000a0: 5d41 93b6 f174 1936 ceaa 71b5 8290 4936
000000b0: 3f62 0136 6d65 4c34 9d33 9cb5 2746 95b5
000000c0: 760b ab36 220f d634 97b1 8fb5 94f4 31b7
000000d0: c429 e5b4 cd7b 55b6 5033 8535 04cb a034
000000e0: 5419 aeb5 fced 1a35 1f5a 22b6 c8c9 5e36
000000f0: f512 a836 cd3b 24b5 6d5c 1036 4775 4635
00000100: b6af 45b5 6751 b2b4 0b51 5336 9f88 98b5
00000110: c1aa ac35 986f 83b5 7942 2437 99e3 3536
00000120: 7f46 72b4 0299 a736 3fe9 cfb6 0cd7 81b5
00000130: 2bc4 9cb5 f90a 3436 4b48 c634 4619 9c34
00000140: bee2 43b5 a54e 66b6 7567 0436 4687 9035
00000150: dd1b 2f36 4a62 94b6 d2ee c334 99b3 95b6
00000160: 2dc1 3636 a430 b9b6 e904 6fb5 4aa8 1d36
00000170: aa1c 8833 d951 bbb5 ee67 9db5 4ed0 bdb5
00000180: 398d 7534 05bc f6b4 e25e 4cb6 2046 92b4
00000190: 1eed 1535 561d b9b5 b51c 09b7 635e 7f36
000001a0: 637b 07b5 cbb5 73b5 bee8 25b5 b929 d336
000001b0: ffd6 cab5 f421 9a35 765b 62b6 9f68 9c36
000001c0: c71c 9b36 7445 3f36 f310 cd35 d134 a934
000001d0: fe85 77b6 a746 f735

encoder.norm.weight f4 [236]
0.03261087 0.24232112 -0.0019628904 0.0012384023 0.053644523 0.058739327 0.0070053455 -8.1260216e-05
0.11204639 0.0027174896 0.10301223 -0.022245206 0.12839161 0.000984315 0.035700683 -0.004088708
0.14394182 0.21411067 0.3274613 0.005549404 0.0013915249 0.050055824 0.00444736 0.21241634
3.128632e-05 0.32680893 0.015836677 0.19739608 -0.0052865664 0.00015696758 0.32661963 0.12895794
0.025966605 -2.7077851e-06 0.027977603 0.2318007 -0.0006773713 0.031221863 -0.00017521816 3.4670113e-05
0.004087819 0.13478363 0.24518326 1.830019e-07 0.15616252 0.12660897 0.19886908 0.00026575648
0.0066210576 0.028943077 0.12582968 0.07495238 0.00033761546 0.002792009 0.006567556 0.25257593
0.0020835153 0.006182633 0.010508465 0.29454383 0.15465009 0.49844027 0.012658831 -0.013887748
0.12652932 0.06421725 0.012318766 0.15045838 -0.012287245 0.013232844 0.29648942 6.8099807e-06
0.1927546 0.4475669 0.0004159371 0.15136185 0.23462845 2.67548e-05 0.25626996 0.0004179604
0.055905137 0.00055134366 0.0013978167 0.02426669 0.014118975 0.0056758192 0.060126644 0.161247
0.0010899567 0.12502743 8.023828e-09 0.0052680527 -0.0035096796 0.0007206938 0.1251368 -0.00082725496
0.10433713 -0.0074481876 0.09758991 0.020477394 0.0007463975 0.00010741288 0.17429686 0.039383885
0.025545727 -0.00027006218 0.05035211 1.9740502e-07 0.066971205 0.18967539 0.003915699 0.2385653
0.20128495 0.008857465 0.11624144 0.08698832 0.08435002 0.0022704534 9.0274625e-06 0.0084254835
0.03765717 6.9276924e-05 0.036666155 0.0056483885 9.647314e-05 0.027347984 0.1997134 0.0008788964
0.004347668 -0.0010883154 0.07342908 0.017236354 0.03942798 0.0151477875 0.0017109775 0.111493945
0.17954609 0.29647604 0.0011862315 -0.000100425066 0.31648448 0.11548168 0.21911605 -0.017251426
0.15630926 0.026236968 0.25879177 0.03470324 0.056302525 0.0032171078 -0.0036972626 0.17367588
0.1484599 4.661579e-05 0.0019570175 0.020715695 0.06973706 0.00291614 0.13383321 0.006394659
0.113869734 0.013620435 0.1727674 0.32396176 0.0002960191 0.12722778 0.16552894 0.060254414
0.14032519 5.1123043e-06 -0.0018962933 -0.0022483806 0.25401014 0.17789668 0.12988856 -0.0017079124
0.08416193 0.0047770175 2.9348676e-06 1.15268e-05 0.1042551 7.4716656e-05 0.2878437 0.0021650197
0.0069478555 0.0041197697 0.0014825686 -0.00010540562 0.11045484 0.08187132 0.014398179 0.07804632
0.10823871 0.026844861 7.228412e-05 4.3302545e-05 0.025290191 0.0045282277 2.8459858e-06 0.13880052
0.3536371 0.0021870316 -0.0005491315 0.006816755 0.025770469 0.017563889 0.01658673 0.115135714
0.18968667 0.15587075 1.2030215e-05 0.0017302536 0.07717601 0.00079666596 0.00081772736 5.996921e-05
0.13600782 0.10944337 0.025930336 5.1113177e-05 0.022846282 -2.6996004e-05 5.0598846e-05 0.0005526149
-0.0005205849 0.22169828 0.0004347082 0.0121652065 0.02022214 0.029987438 0.009596089 1.766512e-05
0.09720887 0.27981976 0.013969905 0.018289644
00000000: fa92 053d 0723 783e d6a3 00bb e351 a23a
00000010: 5cba 5b3d a698 703d 198d e53b 3f6a aab8
00000020: 9478 e53d e917 323b 13f8 d23d 943b b6bc
00000030: 1779 033e 2104 813a e13a 123d 92fa 85bb
00000040: 7c65 133e d43f 5b3e 02a9 a73e c6d7 b53b
00000050: d463 b63a 5607 4d3d 29bb 913b ab83 593e
00000060: 6e39 0338 8053 a73e ebbb 813c 3322 4a3e
00000070: ef3a adbb aa97 2439 b03a a73e 8d0d 043e
00000080: ebb7 d43c 65b7 35b6 4931 e53c 2a5d 6d3e
00000090: 9e91 31ba fec4 ff3c c4ba 37b9 c06a 1138
000000a0: 1cf3 853b b804 0a3e 5211 7b3e 2e7f 4434
000000b0: 11e9 1f3e c8a5 013e 56a4 4b3e 3b55 8b39
000000c0: 75f5 d83b 081a ed3c 7fd9 003e a280 993d
000000d0: fb01 b139 23fa 363b a734 d73b a251 813e
000000e0: 968b 083b af97 ca3b b22b 2c3c 73ce 963e
000000f0: 985c 1e3e 9033 ff3e fc66 4f3c 7089 63bc
00000100: e790 013e 5584 833d a6d4 493c c311 1a3e
00000110: 7150 49bc 92ce 583c 76cd 973e 4a81 e436
00000120: 7661 453e 7d27 e53e 2212 da39 9afe 1a3e
00000130: 7142 703e 7f6f e037 d135 833e b221 db39
00000140: c9fc 643d 0c88 103a f236 b73a f0ca c63c
00000150: 4653 673c 39fc b93b 5b47 763d ef1d 253e
00000160: e1dc 8e3a 3107 003e 2bd9 0932 a19f ac3b
00000170: a702 66bb f1ec 3c3a dc23 003e 24dc 58ba
00000180: b5ae d53d ed0f f4bb 38dd c73d 35c0 a73c
00000190: e3a9 433a da42 e138 e07a 323e ff50 213d
000001a0: 4645 d13c 2297 8db9 043e 4e3d 47f6 5334
000001b0: 3328 893d 443a 423e 444f 803b 764a 743e
000001c0: a41d 4e3e e71e 113c fe0f ee3d ef26 b23d
000001d0: b4bf ac3d e3cb 143b a874 1737 0a0b 0a3c
000001e0: 683e 1a3d c448 9138 402f 163d 1e16 b93b
000001f0: 9f51 ca38 e108 e03c ab81 4c3e bd65 663a
00000200: e276 8e3b cea5 8eba fc61 963d 4133 8d3c
00000210: 3c7f 213d 6d2e 783c e142 e03a f056 e43d
00000220: eeda 373e b5cb 973e 537b 9b3a 4c9b d2b8
00000230: 410a a23e a981 ec3d f55f 603e dd52 8dbc
00000240: 890f 203e e9ee d63c 5b80 843e fc24 0e3d
00000250: 7a9d 663d 1dd6 523b c64d 72bb 17d8 313e
00000260: df05 183e 5385 4338 4e41 003b f6b3 a93c
00000270: 4ed2 8e3d b61c 3f3b 930b 093e 4a8a d13b
00000280: 8934 e93d 3f28 5f3c f0e9 303e 51de a53e
00000290: 0333 9b39 0048 023e 6b80 293e 55cd 763d
000002a0: 68b1 0f3e 5c8a ab36 0b8d f8ba 9159 13bb
000002b0: 9e0d 823e 8c2a 363e 8201 053e 08dc dfba
000002c0: 175d ac3d 8788 9c3b a4f4 4436 3b63 4137
000002d0: b383 d53d 33b1 9c38 4060 933e 01e3 0d3b
000002e0: d6aa e33b 22ff 863b bf52 c23a 360d ddb8
000002f0: 2636 e23d 27ac a73d 57e6 6b3c c0d6 9f3d
00000300: 42ac dd3d c1e9 db3c 3e97 9738 c19f 3538
00000310: 602d cf3c 8761 943b aafd 3e36 b921 0e3e
00000320: ec0f b53e 4d54 0f3b 97f3 0fba 165f df3b
00000330: 971c d33c 25e2 8f3c e5e0 873c 46cc eb3d
00000340: 393d 423e 959c 1f3e 61d5 4937 adc9 e23a
00000350: 750e 9e3d 59d7 503a c15c 563a 7387 7b38
00000360: a245 0b3e d823 e03d db6b d43c 5b62 5638
00000370: 2028 bb3c 7a75 e2b7 193a 5438 5cdd 103a
00000380: dc77 08ba e004 633e 8ce9 e339 9350 473c
00000390: e7a8 a53c 37a8 f53c ea38 1d3c 8e2f 9437
000003a0: 7215 c73d 8944 8f3e 07e2 643c 2ad4 953c

encoder.norm.bias f4 [236]
-0.08190912 0.22756462 -0.010026222 -0.0016848634 -0.040536653 0.11806199 -0.031314135 -0.0016750966
0.11141367 -0.010284415 0.21680334 -0.048704125 0.3251073 -0.04597355 -0.04271739 -0.027373316
-0.4069197 0.012113021 0.5141721 0.02362342 -0.012149846 0.058414727 -0.016262464 0.27278817
-0.00036700207 0.38184434 -0.060563304 0.30672866 -0.011259873 -0.0017204629 0.91846704 0.16047074
-0.04845368 -0.008188627 -0.11335122 0.29704148 -0.0013070863 -0.039022557 -0.0012212594 -0.0016815738
0.0688553 -0.10753154 0.2594625 -0.029540079 -0.12763815 -0.08405643 0.5828629 -0.0019319678
-0.015926594 -0.06798269 0.40244192 -0.061989095 -0.0020655212 -0.010167024 -0.041984476 0.04695327
-0.012625098 -0.012126031 -0.020851944 -0.1364664 0.30626228 0.5974811 -0.024613384 0.038176227
-0.041465517 0.0912061 -0.029101526 -0.18220991 -0.021148322 -0.02662851 -0.09076746 -0.02247686
0.290372 0.8132901 -0.0011276366 0.088358305 0.2712185 -0.0009085052 0.1277788 -0.0014586156
-0.107212305 -0.001264278 -0.005834657 -0.0464576 -0.011003584 -0.022032354 0.026650876 0.3468968
0.032113615 -0.07765719 -0.00019981049 -0.0071095387 -0.010301388 -0.023639813 0.2573077 -0.010900788
0.24754293 -0.013808721 0.11663415 -0.0063330755 -0.004941901 -0.0026111943 0.3235738 -0.030395579
-0.10365326 -0.0063322927 0.11298428 -0.000110699526 -0.048024338 0.3584059 -0.020865321 0.010824934
-0.30939016 0.022879364 0.32115832 -0.0833237 0.1850513 -0.008784256 -0.00023442712 -0.01667581
0.13439775 -0.0027165385 -0.048047144 0.052540064 -0.0003270874 -0.027577303 -0.24530952 -0.001161862
-0.093527436 -0.0018975583 0.044540968 -0.085526116 0.13823034 -0.0051757754 -0.0024536564 0.2524167
0.26842865 0.21657878 -0.0036147828 0.025615783 0.25259057 -0.0021339948 0.42120805 -0.062101386
0.2892005 -0.022230921 0.3342405 0.06379339 0.0017293285 -0.01884733 -0.026523817 -0.01356067
0.08005242 -0.0009836704 -0.06806566 -0.0813345 0.16203436 0.025143879 0.22046946 -0.01613427
0.24802072 -0.058210533 0.32679522 0.49166307 0.09240997 0.0037499163 -0.12758802 0.12815794
0.20124471 -4.1700758e-05 -0.003013511 -0.010302983 0.4668963 0.32599702 0.16916825 -0.0035356074
0.06687434 -0.04353276 -8.068651e-06 -2.3717535e-05 0.21393943 -0.04489095 0.20488998 -0.024124827
-0.035185747 -0.015910944 -0.007905327 -0.0019094645 0.26521373 0.22491337 -0.13851364 0.16384888
0.25806743 -0.0011927105 -0.017366929 -0.00081486325 -0.016894912 0.035520308 -0.0033739624 -0.10149417
0.5299601 -0.009226044 -0.007831379 -0.025910504 -0.0057005542 0.022515627 -0.012519171 -0.08158545
0.29596564 -0.1270255 -0.00013672952 -0.013099269 0.11212566 -0.0042609614 -0.002987117 -0.0005283128
-0.11056518 0.015555839 0.004329335 -0.0002349447 0.06743028 -1.9570794e-05 -0.009950083 -0.0015040225
-0.014204305 0.42923373 -0.005478928 0.034082416 -0.07624926 -0.005551808 -0.014359313 -0.0024947631
-0.095521554 -0.07724341 -0.03737311 -0.07255157
00000000: f8bf a7bd b306 693e 0645 24bc a2d6 dcba
00000010: c309 26bd 7cca f13d 4043 00bd ea8e dbba
00000020: da2c e43d f77f 28bc b201 5e3e fa7d 47bd
00000030: 7774 a63e c34e 3cbd 6ef8 2ebd 013e e0bc
00000040: c757 d0be b175 463c c8a0 033f e785 c13c
00000050: 2610 47bc 4844 6f3d dc38 85bc e4aa 8b3e
00000060: 2f6a c0b9 1a81 c33e 3a11 78bd 8a0b 9d3e
00000070: 557b 38bc 2881 e1ba a820 6b3f 7152 243e
00000080: 5e77 46bd 9729 06bc af24 e8bd d215 983e
00000090: 8a52 abba 1ed6 1fbd aa12 a0ba 4168 dcba
000000a0: 0204 8d3d 7f39 dcbd 45d8 843e 09fe f1bc
000000b0: 93b3 02be c725 acbd 8136 153f 153a fdba
000000c0: 7d78 82bc 823a 8bbd de0c ce3e 47e8 7dbd
000000d0: b25d 07bb 9793 26bc eaf7 2bbd 1252 403d
000000e0: 80d9 4ebc 43ac 46bc b2d1 aabc d9bd 0bbe
000000f0: 69ce 9c3e 85f4 183f 02a2 c9bc ad5e 1c3d
00000100: bfd7 29bd 44ca ba3d 5366 eebc 3c95 3abe
00000110: 3f3f adbc 0824 dabc 4ae4 b9bd 6421 b8bc
00000120: a4ab 943e c833 503f 35cd 93ba 33f5 b43d
00000130: 27dd 8a3e c028 6eba 72d8 023e 052f bfba
00000140: 2092 dbbd 21b6 a5ba a630 bfbb 534a 3ebd
00000150: 6048 34bc 327d b4bc f052 da3c 759c b13e
00000160: 9189 033d bc0a 9fbd 3884 51b9 22f7 e8bb
00000170: 27c7 28bc 48a8 c1bc d6bd 833e 3899 32bc
00000180: e57b 7d3e f93d 62bc e3dd ee3d b085 cfbb
00000190: acef a1bb 9220 2bbb 77ab a53e 2600 f9bc
000001a0: 2948 d4bd 1f7f cfbb 4d64 e73d 5b27 e8b8
000001b0: 2bb5 44bd fa80 b73e c0ed aabc 105b 313c
000001c0: 6368 9ebe 816d bb3c dd6e a43e 9ea5 aabd
000001d0: 177e 3d3e d7eb 0fbc 8dd0 75b9 b59b 88bc
000001e0: 909f 093e f407 32bb 15cd 44bd 4034 573d
000001f0: ed7c abb9 cce9 e1bc 6b32 7bbe 9f49 98ba
00000200: 508b bfbd 7eb7 f8ba 9770 363d 5128 afbd
00000210: 418c 0d3e 8d99 a9bb 86cd 20bb c33c 813e
00000220: 7b6f 893e d4c6 5d3e fee5 6cbb 31d8 d13c
00000230: 8d53 813e 7eda 0bbb 95a8 d73e 065e 7ebd
00000240: 1712 943e 9f1d b6bc 9221 ab3e 1ca6 823d
00000250: a3aa e23a b765 9abc 7a48 d9bc 932d 5ebc
00000260: 86f2 a33d 80ee 80ba 0266 8bbd b492 a6bd
00000270: 56ec 253e 89fa cd3c bfc2 613e 042c 84bc
00000280: 25f9 7d3e 2b6e 6ebd b451 a73e 43bb fb3e
00000290: 7041 bd3d 28c1 753b 6fa6 02be d63b 033e
000002a0: 1813 4e3e d9e7 2eb8 537e 45bb d8cd 28bc
000002b0: 080d ef3e 15e9 a63e 713a 2d3e a6b5 67bb
000002c0: 6af5 883d 684f 32bd 985e 07b7 05f5 c6b7
000002d0: f012 5b3e 93df 37bd aece 513e 6ea1 c5bc
000002e0: ee1e 10bd ab57 82bc 5885 01bc ff46 faba
000002f0: 18ca 873e b14f 663e 85d6 0dbe 00c8 273e
00000300: 6a21 843e b954 9cba 1745 8ebc 8c9c 55ba
00000310: 3367 8abc be7d 113d b21d 5dbb 2ddc cfbd
00000320: 77ab 073f d528 17bc 2f4f 00bc 4442 d4bc
00000330: b7cb babb b172 b83c 361d 4dbc 4616 a7bd
00000340: cf88 973e f912 02be 0d5f 0fb9 519e 56bc
00000350: 23a2 e53d 899f 8bbb 82c3 43bb 797e 0aba
00000360: ff6f e2bd ebdd 7e3c 18dd 8d3b 7d5b 76b9
00000370: e318 8a3d f62b a4b7 ac05 23bc 9f22 c5ba
00000380: 2cb9 68bc 86c4 db3e 9488 b3bb 019a 0b3d
00000390: 9228 9cbd f1eb b5bb 5343 6bbc 2e7f 23bb
000003a0: cea0 c3bd cb31 9ebd 8c14 19bd eb95 94bd

encoder.norm.running_mean f4 [236]
-0.02532379 10.55677 -8.018992 4.8755355 -0.6971134 -5.339334 -0.03269744 0.5806719
4.337573 8.319863 -5.918123 -3.5874708 1.0904202 0.13082452 2.0721707 0.00021454754
-0.050752852 -9.366533 10.223319 -13.767498 -5.5363855 -1.7074109 2.9438665 3.7440841
1.0088549 -1.5613033 -8.190179 -0.83599305 -6.5074306 -4.779403 2.9128797 -1.1250094
0.047654197 0.0488196 1.3899981 0.9509068 -1.1149474 10.027722 -2.1756012 0.19253239
0.19401804 2.3577452 -5.9736986 -0.1014714 3.253927 1.8390601 10.125434 -0.109845206
5.3736734 2.6199136 7.568275 1.8153877 -0.83482087 9.321498 0.23944418 6.7518826
-0.33590353 0.08818655 9.293098 -4.625013 -11.769669 -4.235619 0.94643 -0.41284344
-0.3382197 -0.161633 8.274034 2.9911554 -1.1725338 5.269334 -4.7384615 -2.6688344
-2.1657798 -17.517056 5.1891074 10.315446 10.042895 -0.09853637 -0.51976514 0.0051520998
-1.4133308 0.6033392 -0.2797937 3.1357067 0.31081763 -0.564473 2.609388 4.9202547
-1.1122752 2.3230436 0.0007837613 13.228137 1.4288285e-06 0.10239724 -9.791935 0.1620539
-9.737768 -0.26927915 -0.859823 0.118295796 7.624418e-05 -2.0269275 -12.240157 0.87060404
-9.480471 5.207796 -1.0364617 -2.9800467 1.0538476 -10.85062 13.437874 -13.396671
-3.2561586 0.11927498 -0.17566599 -0.9496402 -0.29190707 -0.4210398 13.762629 0.3691691
-3.884195 -1.2617325 6.4372873 -2.2652829 0.03499896 0.7369948 -3.072216 0.02468789
3.9484723 -1.134508 3.2729099 8.060925 -6.962386 -0.44975194 10.333202 -8.649906
0.21932387 9.521849 0.09674833 -7.4728036 13.898067 3.6561267 -11.349593 -0.7582334
-10.93313 -0.46334276 -0.5784566 -4.7931213 -2.5529609 0.10944189 4.695094 3.8633955
6.4760556 0.0046852464 -10.805686 0.11304071 2.3217335 -4.455809 1.3034073 0.077271216
-9.203107 -10.381469 -1.3715843 -2.48568 4.3287516 3.3971224 2.8690653 -7.04963
0.597276 5.407726 -0.0017390084 0.5788452 1.2754711 -11.401716 -3.0162559 -1.2688487
-1.6263942 4.4847793e-06 -0.0011409994 0.0078799045 -6.91144 8.774378 -0.09869586 0.0035522506
-1.3318396 0.0123767 0.6197322 0.71227455 -9.739274 -5.30116 -7.5659027 -6.7554865
-9.313494 0.43019617 -3.737039 -8.952154 12.422876 -1.7202125 6.2398276 2.0654633
-2.719483 1.0627387 0.0016419291 0.97895753 -0.014608015 -0.02819108 0.4214195 2.8644948
-6.491595 2.9499655 -0.09120125 -2.1235144 -2.4541728 -0.007847519 0.18353537 0.6125338
2.6511297 -7.409127 1.4429506 -0.14201733 -3.0081851 -0.00096169027 0.9004664 -0.0065707103
-1.1783563 -12.69447 19.031301 -0.81249046 -2.333621 -0.17731456 9.309861 -1.1987209
-2.7344632 -5.574427 7.604639 -13.41289
00000000: d673 cfbc 88e8 2841 cb4d 00c1 6304 9c40
00000010: 0676 32bf d3db aac0 c0ed 05bd eaa6 143f
00000020: 66cd 8a40 291e 0541 4361 bdc0 1f99 65c0
00000030: e492 8b3f ddf6 053e 729e 0440 2bf8 6039
00000040: 39e2 4fbd 52dd 15c1 b792 2341 ac47 5cc1
00000050: 122a b1c0 718c dabf 4f68 3c40 139f 6f40
00000060: 2822 813f c9d8 c7bf f90a 03c1 a403 56bf
00000070: df3c d0c0 dff0 98c0 9f6c 3a40 4f00 90bf
00000080: 0c31 433d 10f7 473d 75eb b13f a16e 733f
00000090: 99b6 8ebf 8d71 2041 0d3d 0bc0 3627 453e
000000a0: aaac 463e 4ce5 1640 8a28 bfc0 3dd0 cfbd
000000b0: 5740 5040 5266 eb3f c701 2241 86f6 e0bd
000000c0: 22f5 ab40 aaac 2740 4f2f f240 a05e e83f
000000d0: d2b6 55bf db24 1541 db30 753e 6c0f d840
000000e0: 8cfb abbe 269b b43d 88b0 1441 1b00 94c0
000000f0: 9050 3cc1 318a 87c0 3d49 723f 3760 d3be
00000100: 222b adbe 1f83 25be 7162 0441 176f 3f40
00000110: 9615 96bf 629e a840 7aa1 97c0 2fce 2ac0
00000120: 239c 0ac0 ee22 8cc1 2b0d a640 110c 2541
00000130: b3af 2041 70cd c9bd 540f 05bf f2d2 a83b
00000140: 06e8 b4bf 7074 1a3f 1f41 8fbe 6baf 4840
00000150: 7d23 9f3e 4d81 10bf 3700 2740 ba72 9d40
00000160: 095f 8ebf bfac 1440 5575 4d3a 73a6 5341
00000170: 2cc6 bf35 a5b5 d13d c4ab 1cc1 75f1 253e
00000180: e6cd 1bc1 f5de 89be 5c1d 5cbf 1145 f23d
00000190: 48e5 9f38 2eb9 01c0 afd7 43c1 e8df 5e3f
000001a0: 02b0 17c1 44a6 a640 c7aa 84bf 16b9 3ec0
000001b0: 7ae4 863f 249c 2dc1 8801 5741 c458 56c1
000001c0: e764 50c0 7146 f43d c9e1 33be 9f1b 73bf
000001d0: d874 95be 8792 d7be ba33 5c41 bb03 bd3e
000001e0: a796 78c0 7380 a1bf 42fe cd40 65fa 10c0
000001f0: 125b 0f3d b1ab 3c3f 309f 44c0 423e ca3c
00000200: c5b3 7c40 8f37 91bf 5b77 5140 8cf9 0041
00000210: decb dec0 e345 e6be cc54 2541 0466 0ac1
00000220: 7096 603e 7e59 1841 fd23 c63d 3521 efc0
00000230: 7c5e 5e41 fbfd 6940 ef97 35c1 961b 42bf
00000240: 1aee 2ec1 433b edbe bb15 14bf 4061 99c0
00000250: b663 23c0 1223 e03d 363e 9640 df41 7740
00000260: d93b cf40 b286 993b 17e4 2cc1 e381 e73d
00000270: 4897 1440 fd95 8ec0 0dd6 a63f 5f40 9e3d
00000280: ed3f 13c1 7f1a 26c1 1390 afbf 6215 1fc0
00000290: 2285 8a40 746a 5940 c49e 3740 9296 e1c0
000002a0: 14e7 183f 170c ad40 70ef e3ba 332f 143f
000002b0: a342 a33f 6e6d 36c1 560a 41c0 a269 a2bf
000002c0: af2d d0bf f67b 9636 968d 95ba b71a 013c
000002d0: 842a ddc0 da63 0c41 0e21 cabd e0cc 683b
000002e0: b879 aabf a4c7 4a3c c5a6 1e3f a057 363f
000002f0: 11d4 1bc1 1aa3 a9c0 e01b f2c0 f22c d8c0
00000300: 1204 15c1 ac42 dc3e a62b 6fc0 063c 0fc1
00000310: 1ac4 4641 ec2f dcbf abac c740 8d30 0440
00000320: 020c 2ec0 d207 883f 0036 d73a f69c 7a3f
00000330: 7556 6fbc fbf0 e6bc 4cc4 d73e e253 3740
00000340: 25bb cfc0 3ccc 3c40 b9c7 babd a9e7 07c0
00000350: 2b11 1dc0 e192 00bc b2f0 3b3e 04cf 1c3f
00000360: 1cac 2940 9217 edc0 9bb2 b83f fe6c 11be
00000370: 1b86 40c0 f119 7cba f784 663f 1d4f d7bb
00000380: 61d4 96bf 8d1c 4bc1 1b40 9841 60ff 4fbf
00000390: 0c5a 15c0 f391 35be 31f5 1441 b06f 99bf
000003a0: 7201 2fc0 b561 b2c0 3459 f340 339b 56c1

encoder.norm.running_var f4 [236]
0.018527808 5.5973406 2.1185105 0.718058 0.07721587 0.78094256 3.5075456e-05 0.010778323
0.5814729 2.0606937 2.9096699 0.42037952 0.71360314 0.0005633026 0.1407314 1.4714735e-09
0.39410296 2.719173 7.4627285 6.347743 0.87713706 0.23696399 0.27022249 1.0243016
0.033341408 2.8547494 2.2037785 1.3340334 1.3662695 0.73628986 4.3685365 0.5604134
7.6616365e-05 7.339963e-05 0.06323949 1.2498442 0.040571626 3.220174 0.14851826 0.0014593876
0.16178913 0.25657168 1.9618555 0.007641622 0.4635396 0.14658529 7.99513 0.0003969998
0.9172505 0.21597385 3.9754198 0.12541915 0.022978263 2.7079542 0.0017144704 1.2740519
0.0046531386 0.00025440703 2.757569 2.0614061 3.8901732 5.2176905 0.028136853 0.013045835
0.20924555 0.19486167 2.11105 0.7390201 0.044390734 0.8094207 1.9247509 0.23263568
1.0609425 23.673325 0.81345934 4.6886983 1.7101084 0.0003170198 1.2399772 9.3018446e-07
0.1522167 0.011696546 0.0030510754 0.3270994 0.0032711292 0.016957166 0.19158621 1.1212889
0.03768667 0.21090662 2.01558e-08 5.4535265 8.5835764e-14 0.00031140982 2.7097366 0.0008507697
2.5380514 0.002351656 0.26628903 0.005178012 2.5092126e-07 0.13420254 3.914533 0.027554348
2.8643746 0.85853004 0.21542795 0.28978154 0.044659574 2.9751403 5.430584 4.9187503
1.2572867 0.010128508 0.8459967 0.21102555 0.50635546 0.005786819 5.636765 0.0050376803
0.46213907 0.052802697 1.2948233 0.16170084 3.990522e-05 0.021732131 1.2482332 1.9833886e-05
0.49324575 0.041645713 0.32083163 2.0119405 1.3003354 0.015253437 3.09913 1.966448
0.6173675 2.79534 0.00030828454 1.7163473 9.75032 0.40515342 3.694211 0.020141182
3.316742 0.01805185 1.7095138 0.6330247 0.2521345 0.0003969499 0.69434094 0.53813463
0.95585835 1.0579376e-05 3.671393 0.0004034672 0.20575692 0.600644 1.0079244 0.00023840304
2.206796 3.3491058 1.1350539 4.1674714 0.5287487 0.594516 0.35840243 1.3244845
0.6771 0.8893133 1.1060082e-07 0.010865232 2.1795554 3.5203557 0.47863764 0.051448714
0.371912 6.5622036e-11 1.5983042e-05 2.5283407e-06 1.2462125 2.3877473 1.1946731 4.1398798e-07
0.07223939 0.00017503122 0.010662109 0.016681105 2.6078439 1.8947228 1.8397539 1.2739719
2.2977035 0.009017235 0.4548762 2.4710836 4.8505297 0.09432169 1.1909337 0.19285618
3.216383 0.051436815 8.8451706e-08 0.029053459 0.01122776 0.01791308 0.0063663027 0.29744402
1.9987816 0.36398548 0.0028010427 0.14732592 0.29037803 1.6540986e-06 0.0010550388 0.010523136
0.3107952 1.529805 0.057256136 0.0006552754 0.2639357 5.4249984e-08 0.026429389 1.4453667e-06
0.045227688 4.416994 11.1944 0.04805983 0.17257048 0.018424762 2.6361191 0.04703151
0.6938506 2.4852815 1.7331885 5.6164894
00000000: a1c7 973c 6a1d b340 ad95 0740 a6d2 373f
00000010: 5b23 9e3d daeb 473f fc1d 1338 9097 303c
00000020: 68db 143f 68e2 0340 0838 3a40 fc3b d73e
00000030: b2ae 363f 99aa 133a e41b 103e df3c ca30
00000040: ddc7 c93e ee06 2e40 acce ee40 b620 cb40
00000050: 0e8c 603f b0a6 723e 9a5a 8a3e 511c 833f
00000060: 0091 083d 37b4 3640 b50a 0d40 9bc1 aa3f
00000070: ebe1 ae3f 7e7d 3c3f 0dcb 8b40 4177 0f3f
00000080: 19ad a038 20ee 9938 b583 813d e5fa 9f3f
00000090: 6f2e 263d 5517 4e40 2c15 183e ec48 bf3a
000000a0: 0dac 253e 5d5d 833e 151e fb3f 9266 fa3b
000000b0: 1055 ed3e 741a 163e 1bd8 ff40 6924 d039
000000c0: eed0 6a3f 4028 5d3e 476d 7e40 e16d 003e
000000d0: e93c bc3c 1f4f 2d40 15b8 e03a 2214 a33f
000000e0: 5b79 983b ef61 8539 037c 3040 14ee 0340
000000f0: 99f8 7840 52f7 a640 427f e63c 33be 553c
00000100: 7744 563e d189 473e 711b 0740 6c30 3d3f
00000110: 0fd3 353d 3236 4f3f 3d5e f63f 0c38 6e3e
00000120: f7cc 873f f862 bd41 df3e 503f d109 9640
00000130: d5e4 da3f ad35 a639 93b7 9e3f cab1 7935
00000140: b2de 1b3e dfa2 3f3c 8df4 473b 9379 a73e
00000150: 7160 563b c1e9 8a3c 2d2f 443e 6586 8f3f
00000160: 565d 1a3d e8f7 573e 1323 ad32 4a83 ae40
00000170: f348 c129 b844 a339 536c 2d40 3006 5f3a
00000180: 6f6f 2240 3e1e 1a3b 0957 883e 50ac a93b
00000190: 5bb6 8634 646c 093e b587 7a40 a8b9 e13c
000001a0: ea51 3740 a0c8 5b3f 2599 5c3e 3f5e 943e
000001b0: f5ec 363d b368 3e40 58c7 ad40 6766 9d40
000001c0: c5ee a03f 0bf2 253c 3d93 583f 1517 583e
000001d0: 83a0 013f 5b9f bd3b 6160 b440 2013 a53b
000001e0: 7e9d ec3e a447 583d c5bc a53f e894 253e
000001f0: e75f 2738 9507 b23c 1bc6 9f3f f260 a637
00000200: b58a fc3e b294 2a3d 0b44 a43e a2c3 0040
00000210: 6471 a63f 8de9 793c 2558 4640 91b4 fb3f
00000220: cc0b 1e3f dae6 3240 40a1 a139 45b1 db3f
00000230: 5001 1c41 4570 cf3e f46d 6c40 1fff a43c
00000240: 8045 5440 79e1 933c 59d1 da3f e80d 223f
00000250: c617 813e b71d d039 54c0 313f 31c3 093f
00000260: 22b3 743f 137e 3137 1af8 6a40 7388 d339
00000270: f1b1 523e cec3 193f ab03 813f d4fb 7939
00000280: 253c 0d40 c057 5640 7249 913f ed5b 8540
00000290: 135c 073f 3332 183f 8680 b73e b588 a93f
000002a0: 6d56 2d3f 09aa 633f 7283 ed33 1604 323c
000002b0: d67d 0b40 824d 6140 fe0f f53e e3bb 523d
000002c0: 406b be3e ec4d 902e 5213 8637 90ac 2936
000002d0: e483 9f3f dad0 1840 0ceb 983f 1342 de34
000002e0: 3ff2 933d 9688 3739 20b0 2e3c d0a6 883c
000002f0: eae6 2640 4786 f23f 0e7d eb3f 8311 a33f
00000300: 930d 1340 06bd 133c 89e5 e83e 3c26 1e40
00000310: 8a37 9b40 bb2b c13d 8470 983f 177c 453e
00000320: 38d9 4d40 69af 523d d7f2 bd33 8501 ee3c
00000330: a4f4 373c 74be 923c 6b9c d03b 954a 983e
00000340: 13d8 ff3f 4e5c ba3e b391 373b 9bdc 163e
00000350: 6eac 943e 6502 de35 3a49 8a3a 3b69 2c3c
00000360: 8c20 9f3e a6d0 c33f 6985 6a3d cac6 2b3a
00000370: 9422 873e 7d00 6933 7282 d83c 6cfe c135
00000380: ab40 393d 0458 8d40 431c 3341 62da 443d
00000390: 51b6 303e 87ef 963c 2db6 2840 1da4 403d
000003a0: 31a0 313f da0e 1f40 1fd9 dd3f 48ba b340
