checkpoints/ae_0%.pt (torch, 915143 bytes, 16 tensors)

encoder.linear1.weight f4 [236, 358]
00000000: 2440 afba 5231 b83a 11be 8f3c fb1a 983c
00000010: 66ac b4bc 7f46 b3bc 4466 9f3c f463 f2bc
00000020: 91e9 9a3c 87ab 8ebc 350e 99bc 2d5c dbbc
00000030: 4935 1cb9 b6ab bbba f019 1abc 425a 253b
00000040: 5a17 bfbc fb98 4a3b bb7d 693c 3d26 643b
00000050: 35c0 c23b 20c4 0e3c 7027 bc3a 5a5b c33a
00000060: 1532 9cba d01e 353c 173b de3b 37ce d33b
00000070: 63aa d53c 36f8 eb3d 5f04 32bd 8f7a a33c
00000080: 1789 09bd c48d aebc a167 393b 2db9 b9bc
00000090: c8f6 b43d 2f74 a3bc 0c34 5ebc bc90 f93c
000000a0: 0b9b 66bd efb0 553c 120d 4c3c 2aab 4fbb
000000b0: a3e9 183c c17d a23b ca56 ed3b 7d14 a73c
000000c0: 4ebd 99bb cb66 853c ccd5 6bbd 57a4 2ebb
000000d0: d32d 613b ff52 093d 6a0d 4b3c ac53 8a3b
000000e0: 8f9e 623c f41a 903c fc59 7b3c 9ede c33b
000000f0: 2b20 683c 1af6 cb3b 1dd3 d13b a993 583b
00000100: bb81 c23c 212d 973c 9f34 973c 2766 563c
00000110: 726a e43c 3e72 36bc b93c 83bc bc20 c1ba
00000120: 1404 13bb a467 de3c 3adf 2f3b 8fcc 313b
00000130: acb1 e53b d9cb 3f3c 92e4 92bc f839 80bc
00000140: 365f 3fba eccd adbc 2c25 793c 31bc bf3c
00000150: ca0e a73c 02de ab3c b665 bd3c 2c77 353c
00000160: 8a9f 503c d34b 6e3c 45e0 dc3b 2d44 f13b
00000170: 1338 2abd 049b 583d 2cb5 fabb 806d 4c3d
00000180: 40ca 043d 999b 653d 9181 653d a9a6 e73b
00000190: ff41 dc3b 2747 8cbc 9518 fcbb d2c6 983d
000001a0: f5b7 af3b 4e70 29ba a6f3 b5bd 9b82 96bb
000001b0: 793c 0c3c 4283 14bd d4db 033c be21 d5bc
000001c0: bd39 9b3b 49ac ad3c 18e5 b93c 17ee 993c
000001d0: e0a7 ae3c 74bb d33c e887 fe3d 87d5 093d
000001e0: c0fc 12bd d018 ddbc 5cb7 90bc cd39 79bc
000001f0: 8612 08bc 642e 6b3e f568 6d3e d941 e83d
00000200: 3965 ab3d 8ed2 bd3c 6fdb 2c3d 1d80 143d
00000210: 43e0 16bc c697 5c39 f292 1a3d 6ac3 353d
00000220: 2cf8 553d 18c2 47bb 9be1 8ebb a10f 8ebb
00000230: 56d1 bb3b d0c3 2abb 156b 8dbb e889 97bd
00000240: dd9d 8bbd 1562 83bd 9b50 3abd b18b 473d
00000250: ecc0 ad3b 7348 65bd 53ba 393d 3705 553d
00000260: 5596 423d 0558 40bd d556 0cbd 361e 58bd
00000270: b214 46bd be19 3a3d 4320 5e3d 7e78 1e3d
00000280: b10c 77bd 2ae2 4d3d 3623 bbbc c411 53bc
00000290: 4381 d1bb 812c 1abc e667 4cbc 32ef 73bc
000002a0: b6f8 6ebb 3d75 aeba cfc0 b5bc 5913 243a
000002b0: 6857 93bc 9537 86bc 5441 913c 9bb3 b038
000002c0: 9073 8e3a 3783 89bb 7519 863b 01e9 1ebd
000002d0: 0d12 cfbc 1838 2abc d06c 50ba ae00 a2bc
000002e0: 3bcf da3c 09f2 d3bc bc5f 1e38 e6d1 f3b8
000002f0: 9730 deb9 8a10 433e 60b9 82bc 7e06 0638
00000300: df99 913b be0a ba37 93d5 8a3a 3267 11be
00000310: 5688 053a 520c 2d39 b5ea c2b8 1c50 2cbb
00000320: 6932 07b9 8658 ccbc b25f 08ba 9aee 19ba
00000330: 4dc7 b4bb f92f f7b9 bec8 3db9 ded2 423b
00000340: 4057 c5b9 5149 a939 1c1f dfb9 5292 8cb8
00000350: 35fe dab8 d870 d7b8 a1d7 fc3c 763c d33e
00000360: 353d 1039 48e4 80b9 af40 9cbb ffc6 1cb8
00000370: 87f7 17b9 e7b4 82bc e25c 0539 42be cfb8
00000380: 0376 d639 4109 93bd 1504 b7ba 9ab4 f138
00000390: 245a 7cbe a176 e53c f687 043d bd35 b7bb
000003a0: 4172 4eb9 a9b7 98ba c589 cbb9 a457 7e38
000003b0: c299 1639 65c1 b2ba 5bdb 29b8 e4c8 0bb8
000003c0: d950 dbba faf2 27b8 6916 ea3a cb34 e139
000003d0: bd3e 5e3b a8bd ea3b eaad 93bb 594f c43a
000003e0: 7b14 823b f236 e3b9 711b 73ba e5fe 8dba
000003f0: c077 3d3b 9b8a 24bc b814 33bb 4f90 07bb
-0.0013370556 0.0014052785 0.017546685 0.018567553 -0.022054862 -0.021884201 0.019457944 -0.029588677
0.018910201 -0.017415775 -0.018683532 -0.026777351 -0.0001489717 -0.0014318142 -0.009405598 0.00252308
-0.023326565 0.0030913937 0.014251168 0.003481283 0.005943323 0.008713752 0.0014355015 0.0014904544
-0.0011916781 0.01105471 0.0067819464 0.0064637917 0.026082223 0.11521952 -0.0434612 0.019955901
-0.033578005 -0.021307833 0.0028290527 -0.022671307 0.08836132 -0.019952862 -0.013562214 0.030464523
-0.056300204 0.013042673 0.012454288 -0.0031687715 0.009333047 0.0049588387 0.007243012 0.020395512
-0.0046917563 0.016284367 -0.05757694 -0.0026648247 0.0034359589 0.033526417 0.012393335 0.0042214002
0.013831749 0.017590977 0.015341278 0.005977466 0.014167826 0.006224406 0.0064033405 0.0033046997
0.023743501 0.018454136 0.018457709 0.013085878 0.027882788 -0.011135636 -0.016020166 -0.0014734487
-0.002243285 0.02714903 0.0026835934 0.0027129983 0.0070097055 0.011706316 -0.017931256 -0.015652642
-0.00073002593 -0.021216355 0.015206616 0.023405166 0.020392794 0.020979885 0.023119789 0.011075776
0.01273335 0.014544445 0.006740602 0.0073628635 -0.041557383 0.05288221 -0.007650992 0.049909115
0.032419443 0.056056593 0.056031767 0.007069428 0.0067217345 -0.017123772 -0.00769336 0.07459797
0.0053625056 -0.0006463573 -0.08884363 -0.004593206 0.00855934 -0.03625799 0.008048017 -0.026017066
0.0047371075 0.021200316 0.022692248 0.018790288 0.021320283 0.02584622 0.12428266 0.0336509
-0.035885572 -0.02698937 -0.017665558 -0.015211535 -0.008305198 0.22966915 0.23184569 0.113406844
0.08368916 0.02317169 0.042201456 0.03625499 -0.009208742 0.00021037375 0.037737794 0.044375814
0.05223863 -0.003048068 -0.0043603904 -0.004335359 0.005731742 -0.0026056655 -0.0043157437 -0.073993504
-0.068172194 -0.06415192 -0.045487028 0.048717204 0.005302539 -0.055977296 0.04534371 0.052006926
0.04750665 -0.046958942 -0.034262497 -0.052763186 -0.04835958 0.045434706 0.054229986 0.03868913
-0.060314838 0.050264515 -0.022843938 -0.012882654 -0.006393583 -0.009410025 -0.012475943 -0.014888572
-0.0036464161 -0.0013310086 -0.022186665 0.00062589865 -0.017986014 -0.016383925 0.017731346 8.425788e-05
0.001086818 -0.00419655 0.00409239 -0.03879643 -0.025277162 -0.01038935 -0.00079507846 -0.019775715
0.026710143 -0.025872247 3.7759295e-05 -0.000116262396 -0.00042379342 0.19049278 -0.015957534 3.1954136e-05
0.0044433917 2.217793e-05 0.0010592215 -0.14199522 0.0005093863 0.00016503155 -9.2943585e-05 -0.0026292866
-0.00012893383 -0.024944555 -0.0005202248 -0.0005872041 -0.0055169226 -0.00047147254 -0.00018099227 0.0029727737
-0.00037639774 0.00032288817 -0.00042557053 -6.7029745e-05 -0.000104424 -0.00010273018 0.030864539 0.41257066
0.00013755712 -0.00024584145 -0.004768453 -3.7378628e-05 -0.00014492693 -0.015955402 0.0001271847 -9.9059675e-05
0.00040905186 -0.071794994 -0.0013963009 0.00011525415 -0.24643761 0.028010668 0.032356225 -0.005591123
-0.00019688254 -0.0011651415 -0.00038821824 6.063994e-05 0.00014362394 -0.0013637958 -4.049703e-05 -3.3327276e-05
-0.0016732469 -4.0042192e-05 0.0017859462 0.00042954678 0.0033911907 0.007163722 -0.004506816 0.0014977261
0.0039697266 -0.0004333775 -0.00092738034 -0.0010833411 0.0028910488 -0.010042812 -0.0027325582 -0.002068538

encoder.linear1.bias f4 [236]
00000000: 427f 8432 6e4c 0380 675b 0280 c644 0200
00000010: 4225 0200 1790 48b3 e01f 0280 7251 a4b2
00000020: fbd2 b42e 82de fa34 5e02 0635 ee07 0400
00000030: b637 0300 2b82 2935 2129 7335 7e95 8b35
00000040: 5e4d d533 b20e 0380 4f6d 2135 a6aa efb3
00000050: 8762 2235 a92f 0480 fc48 deaf 2372 e7b5
00000060: a509 d8b4 d128 f5b4 6300 c430 f32a 3633
00000070: 8d55 b58e 9aa5 0380 966d 21b4 f6fc 0300
00000080: 4828 0380 2189 b7b2 c75e 40b4 21a7 0380
00000090: 1465 4fb3 e984 0300 64a3 b033 5e83 0300
000000a0: 2914 aab5 862e 25b3 6039 0100 7a0a d9b4
000000b0: 6e97 5817 ac45 77b3 bd71 3ab4 908e 0200
000000c0: 3f13 0200 e6a4 05b4 75b9 4033 f489 0300
000000d0: da23 0400 35d8 0200 cf7d ae33 588c dcb4
000000e0: e423 9dad 805b 0200 31d7 0280 20b2 8b34
000000f0: 0756 0200 9152 0200 2da3 3635 f584 0f36
00000100: 2508 4cb5 4c2d 9435 3439 1435 e0e2 1835
00000110: 720f 12b4 5006 0300 1b45 0200 dab8 0380
00000120: dc2b 0300 b3a8 0100 b1b5 0300 214b 0280
00000130: 12e8 0200 77ba 0300 9165 9335 08f2 85b5
00000140: e53b 84b3 49aa 0080 a2c1 0280 e5b9 69b4
00000150: a2f0 fbb3 6111 0280 e4c7 0ab4 5080 d1b5
00000160: 6c91 36b1 0eb9 72b4 d40b 07b5 aabd 6fb5
00000170: 87be 4636 f18c 4f30 fb62 0300 2998 0200
00000180: c5e2 0200 acaf e2b3 aead 9033 959b 6b33
00000190: ab78 d634 d6c4 3cb5 df54 05b4 e610 3336
000001a0: a050 5434 88cd 20b1 461c 0400 2ccf 0280
000001b0: e8ec 40b1 f398 2c34 4207 0380 2979 9934
000001c0: 4352 75b3 8f46 3b00 8cf9 0280 e027 7e33
000001d0: b532 bfb4 7e38 0280 0ba2 8535 ddfd c9b1
000001e0: cc3d 96b4 a566 30b3 c561 fdb3 ebce 4cb2
000001f0: d6c9 0200 45c7 e6b2 641e 0300 2d72 be33
00000200: 13f9 06b2 f009 0400 1fec 0280 70fe 02b5
00000210: db58 03b5 6579 0035 6dfc 8fb3 90be 0200
00000220: e47e 4b34 586a 4cb3 2121 1eb3 a18f 7e01
00000230: 95f5 b536 c6e4 0300 fd03 5134 855a e8b2
00000240: a437 44b4 a213 ad33 02ff f2ae b479 d733
00000250: ca29 c7b4 3076 86b4 5f94 0000 ac33 0200
00000260: d2ce d3b4 f88e 36b3 c328 5134 ad3c 6035
00000270: c654 0280 0aac 34b5 58ce df33 ef7d 0200
00000280: 808c aa35 cf5a a5b4 19de 21b5 9c68 0280
00000290: 08c5 0380 b34e 0200 1b86 8233 7574 4926
000002a0: 6182 00b2 0616 f232 0827 0400 7bc9 4035
000002b0: e7eb 5992 5318 41b4 1aa5 1935 9353 c7b3
000002c0: 0eed 0200 f6b3 d533 d422 0380 0e01 0380
000002d0: 7b71 42b4 1c8b 0000 c032 9933 35ef b028
000002e0: a190 a3b3 1d32 2c32 84d3 5533 0632 0300
000002f0: 1201 99a1 6520 0180 33c7 4136 2c9a 38b4
00000300: 940b 5eb3 0eac 0280 be83 0280 b108 0180
00000310: 16b4 f2b6 013a e734 7811 6935 177f 0300
00000320: 1ea8 e7b3 c0d4 0135 b950 9234 5de7 0200
00000330: 9034 9cb5 7b8c 33b5 4286 b9b4 7220 0380
00000340: 281c 0380 9401 0280 e4e1 9cb6 6b8e aeb2
00000350: 3fac 6733 6658 a931 d969 d3b4 ee88 a2b4
00000360: ebe6 0080 3717 0180 50cd f833 e1a4 2cb3
00000370: f194 beb2 ea5b e834 39de 67b5 4966 23b4
00000380: 02bd 3cb4 b3fc 9cb5 8868 9782 b7ce 9736
00000390: 61dd 1b35 6813 0300 0c87 0080 444f b0b2
000003a0: 5eb1 0380 b921 f732 203b 92b4 766c a530
1.5424693e-08 -3.02924e-40 -2.1646e-40 2.08342e-40 1.97037e-40 -4.6697178e-08 -1.95106e-40 -1.912915e-08
8.22293e-11 4.6728024e-07 4.9922335e-07 3.70187e-40 2.95492e-40 6.3146825e-07 9.0584405e-07 1.0399815e-06
9.9326584e-08 -2.80778e-40 6.013624e-07 -1.11603455e-07 6.049308e-07 -3.84439e-40 -4.0433423e-10 -1.7244059e-06
-4.0240153e-07 -4.5664504e-07 1.4260987e-09 4.241424e-08 -4.4702327e-30 -3.34913e-40 -1.503416e-07 3.66252e-40
-2.89957e-40 -2.1366363e-08 -1.7915873e-07 -3.35461e-40 -4.8287873e-08 3.23186e-40 8.225359e-08 3.22632e-40
-1.2671854e-06 -3.845937e-08 1.12418e-40 -4.0427022e-07 6.9984495e-25 -5.7572535e-08 -1.7363978e-07 2.34813e-40
1.90575e-40 -1.244658e-07 4.4872156e-08 3.24995e-40 3.80203e-40 2.61231e-40 8.125391e-08 -4.1080307e-07
-1.7864772e-11 2.16495e-40 -2.60867e-40 2.602037e-07 2.14532e-40 2.1329e-40 6.8037735e-07 2.1386052e-06
-7.6007774e-07 1.1040042e-06 5.521754e-07 5.695456e-07 -1.3602929e-07 2.77771e-40 2.08461e-40 -3.41819e-40
2.9124e-40 1.52353e-40 3.40685e-40 -2.10622e-40 2.66922e-40 3.42397e-40 1.0981913e-06 -9.979713e-07
-6.157624e-08 -6.1087e-41 -2.53133e-40 -2.1767444e-07 -1.1731869e-07 -1.89905e-40 -1.2924971e-07 -1.5609057e-06
-2.6567148e-09 -2.2605329e-07 -5.030863e-07 -8.9310436e-07 2.96152e-06 7.550645e-10 3.11014e-40 2.38256e-40
2.6502e-40 -1.05558996e-07 6.737115e-08 5.4856702e-08 3.9948404e-07 -7.032189e-07 -1.2417466e-07 2.6682915e-06
1.977337e-07 -2.3399895e-09 3.77485e-40 -2.5799e-40 -2.8074343e-09 1.6074391e-07 -2.7811e-40 2.8586626e-07
-5.7118324e-08 5.443606e-39 -2.73192e-40 5.917525e-08 -3.5613417e-07 -2.03937e-40 9.956433e-07 -5.878731e-09
-2.798464e-07 -4.1071548e-08 -1.1799015e-07 -1.19214105e-08 2.56076e-40 -2.6866141e-08 2.86409e-40 8.868333e-08
-7.8564595e-09 3.70907e-40 -2.68375e-40 -4.879903e-07 -4.8930605e-07 4.786037e-07 -6.7048724e-08 2.52032e-40
1.8952011e-07 -4.759417e-08 -3.6817372e-08 4.675548e-38 5.42281e-06 3.57575e-40 1.9466093e-07 -2.7049518e-08
-1.8274164e-07 8.0595115e-08 -1.10501844e-10 1.0033855e-07 -3.7097044e-07 -2.5045438e-07 5.3226e-41 2.02207e-40
-3.9452294e-07 -4.2505206e-08 1.9479471e-07 8.35348e-07 -2.14082e-40 -6.7305575e-07 1.04217804e-07 2.28847e-40
1.2706878e-06 -3.0799717e-07 -6.030037e-07 -2.21198e-40 -3.46188e-40 2.11903e-40 6.0779904e-08 6.989371e-16
-7.480225e-09 2.8182523e-08 3.81344e-40 7.1818766e-07 -6.87639e-28 -1.7983375e-07 5.7237196e-07 -9.281862e-08
2.6871e-40 9.95132e-08 -2.88e-40 -2.75885e-40 -1.8108942e-07 4.9903e-41 7.133849e-08 1.9643665e-14
-7.616587e-08 1.0023112e-08 4.97853e-08 2.93452e-40 -1.0367967e-18 -1.03456e-40 2.887519e-06 -1.7192423e-07
-5.1698933e-08 -2.45393e-40 -2.30931e-40 -9.4953e-41 -7.233127e-06 4.3069306e-07 8.6824684e-07 3.21098e-40
-1.0787356e-07 4.8365837e-07 2.7253353e-07 2.66668e-40 -1.1638203e-06 -6.688712e-07 -3.455662e-07 -2.87146e-40
-2.85607e-40 -1.84237e-40 -4.6754594e-06 -2.032103e-08 5.3940536e-08 4.928597e-09 -3.9378827e-07 -3.027448e-07
-8.2838e-41 -1.00163e-40 1.1585746e-07 -4.0196827e-08 -2.2186642e-08 4.3280244e-07 -8.637758e-07 -1.5217769e-07
-1.7577625e-07 -1.1696451e-06 -2.2247454e-37 4.5242155e-06 5.806415e-07 2.82468e-40 -4.8446e-41 -2.0525142e-08
-3.39134e-40 2.876992e-08 -2.7237638e-07 1.2036157e-09

encoder.linear2.weight f4 [118, 236]
00000000: b924 b4bc d062 913e ed0b 52bb 61ec 0ebd
00000010: 3a09 27bd 8c71 4fbc 3e75 3dbd c77b 213e
00000020: 5205 983e 671c 11bd 7881 8dbd 9bd9 713e
00000030: a5aa f1b5 6d93 fdbd 726f 373b 327d 33be
00000040: aa83 123e a11c abbc 09ed 70ba 4ff8 383e
00000050: 90d7 4ebd 33fb b0bd b2dd e03d 782c 07be
00000060: b1ef 92bd eb31 1abe 1557 5cbc eaa9 243e
00000070: 943f 913e 23e7 f3bd e9ff 39bd 545d 653e
00000080: 53e5 0fba bb5d 7a3d a309 87bc 52b5 61bd
00000090: 60e5 82bd a287 5e3e e860 4a3e 591a 9ba4
000000a0: 239d 803c c086 07bd bcc3 3a3e 2c8d c8bd
000000b0: ad81 453e a184 9cbd 0ad5 84be 5869 0000
000000c0: f259 a3ba eba0 64bd cc2f a73e 29d3 adba
000000d0: 1894 34bd b04e 0aba 3112 40bd 0b96 db3c
000000e0: c5d6 80bc 7408 2c3e e405 693a 7934 8b3e
000000f0: 6e8a c33d 9dd8 c33d aa78 0b3d ebf2 13be
00000100: c7c4 0b3e 995f 49be bdf9 b1bd 4835 283e
00000110: 6e6d e8bc 5fc4 173e e2c4 84bd 9727 093e
00000120: 58c3 d1b7 5975 4d3e 8ef8 311e 468c b83d
00000130: 3e65 4e3d 4c2c 3dbd bf40 083e 76cf 34be
00000140: f504 41bc 7408 d3bd 015a 8d3d 5849 b8bd
00000150: ba25 1e3e cb9e 993d c07e d5bb 7412 0cbb
00000160: f919 acbd e7c1 33bd eb40 793e e89d 613e
00000170: 3be6 373d ed18 aa3d ecc4 963e fac1 dcbc
00000180: 50d3 523e 2372 8f3b 5d0e 04bc e528 223e
00000190: 74f5 5b3e 91b0 373d b0e9 2f3e ca36 9fbe
000001a0: 9c86 26be e9aa 153e 073c 86bc 3c07 6a3e
000001b0: cc82 943d 81ae 9dbc 9071 2ebd 1c1e 8abd
000001c0: 1df1 36bd c345 bbbd b26d 913e ed24 033e
000001d0: 84f1 33be de01 bebb c274 253e 6fcd e63a
000001e0: c93a ebbd 5260 863d f949 69bc d6ab a43d
000001f0: 6691 283e 2b56 d4bc 79cd ce3d 0959 873d
00000200: a956 823e 70ab 023e fec6 3d3e 16c1 133e
00000210: d8ad e3bd 33d0 8fbe 7b63 79bd fe7d 583e
00000220: 0450 9b3d 2854 99bd 0011 bb39 e8f0 6c3e
00000230: 4d4e 16be 655a d3a9 7b3e ecbc db8e ecbb
00000240: 04f9 8cbd edce be3c fcd0 fc3d 5844 4b3e
00000250: 9640 22be e587 35be 5592 9dbd 7bfa 89bd
00000260: ac7f 293d 04d7 073e 3ca4 80bd 9d50 86bd
00000270: 327c 25b4 472b 4bbc 40a6 30be 5697 8c3e
00000280: 4718 3d3e 3131 093c 87c6 79bd 25dd ebbb
00000290: ae13 8739 7544 233e 29f9 383c 892f 493e
000002a0: cf64 3b3e 7fb9 6fb8 155a 46bb 2bf6 4c3c
000002b0: 5c75 493e a217 adbd d241 5f3c a231 0b3e
000002c0: a2d4 0dbd b0da 01bd 2428 4cb9 4981 5c3e
000002d0: 793e fcbd 4e82 b83d ab80 6abc e224 8f3e
000002e0: 0bf3 f2bc 456f 0f3e dc8d a1bd dcef 80b9
000002f0: 57a7 0b3e abd3 c0bd 9330 623e 38c5 3e3e
00000300: 1e50 96bc e9af c63b 3228 0e3e be1d 27bd
00000310: 3e7b 8a3e b523 14bc 6e84 07bb 9ef1 083e
00000320: 6e9a b33d 52ea 813d 1ace 973c 970c dc3d
00000330: 4557 703c cb54 5a3c be10 f2bd 4f96 19b0
00000340: b89c e8bd 6d0f 483e 0b63 0fbe ff93 9ebd
00000350: 884f eeba 4e70 efbc 8ac6 c33a b764 9e3d
00000360: 7e9b 933e beb7 1f3e 816b 393e cadd 2e3e
00000370: 556a 9d3e b00d 5b3c f65c e43d ab52 873e
00000380: c368 243e 371c 293e 4c3f 9f3e e550 9f3c
00000390: 32ea 623a 9805 2a3e 3406 9f3d adaa 103e
000003a0: 5997 203e 7047 5d3e 2546 c83b f25d 1d3e
000003b0: 313e 33bd 81a3 b0bd add5 183c ae96 883c
000003c0: cd87 183d c366 063c c57a 09bb fe2d babd
000003d0: 5e65 01be 001c 4bbd b443 8e3b 4d3b 3fbd
000003e0: 171b 813b f9d3 413d c38f b03c 9473 cbbb
000003f0: fcb3 39bd 144e ca3c 6c7c 0b3c 6b7e d1bd
-0.021990167 0.283957 -0.0032050565 -0.034893397 -0.040780284 -0.012661349 -0.04625439 0.15769874
0.2969156 -0.035427477 -0.0690946 0.23618166 -1.8005563e-06 -0.12381635 0.002799001 -0.17528227
0.14308038 -0.020887675 -0.00091905944 0.18063472 -0.050498545 -0.086416624 0.10979785 -0.13200557
-0.07174624 -0.15058105 -0.013448496 0.16080442 0.2836882 -0.1190932 -0.04541007 0.22398883
-0.0005489189 0.061124545 -0.016484087 -0.05510456 -0.06391406 0.21731427 0.1976353 -6.726517e-17
0.015699929 -0.033087492 0.18238729 -0.097925514 0.19287749 -0.076424845 -0.25943786 3.779e-41
-0.0012462719 -0.055817526 0.32653654 -0.0013261783 -0.044086546 -0.00052760076 -0.04689235 0.026804945
-0.01572741 0.168001 0.00088891224 0.2718847 0.09547888 0.095628 0.03405062 -0.14448135
0.13649283 -0.19665374 -0.08690212 0.16426575 -0.028372493 0.14821003 -0.06482865 0.13394009
-2.5005706e-05 0.20064296 9.421702e-21 0.0901113 0.05038952 -0.046184823 0.13305949 -0.17657265
-0.011780967 -0.10304347 0.069019325 -0.08998364 0.15444079 0.075009905 -0.006515354 -0.0021373304
-0.084033914 -0.04388609 0.2434117 0.22032893 0.0448973 0.083055355 0.29447114 -0.026947964
0.20588422 0.00437762 -0.008060065 0.15835913 0.21480352 0.04484612 0.17178988 -0.31096488
-0.16262287 0.14615978 -0.016386045 0.22854322 0.0725151 -0.019248249 -0.04258877 -0.06744024
-0.044663537 -0.09144165 0.28404003 0.12807055 -0.175726 -0.0057985624 0.16157821 0.0017608831
-0.11485822 0.065613404 -0.014238828 0.080405876 0.16461715 -0.025919994 0.100977845 0.06608779
0.2545674 0.1276071 0.18532941 0.14429125 -0.111171424 -0.2808853 -0.060885888 0.21141812
0.07583621 -0.07486755 0.00035680085 0.23138773 -0.14678307 -9.385963e-14 -0.028838387 -0.007219178
-0.068834335 0.02329203 0.12344548 0.1985029 -0.1584495 -0.17727621 -0.07693926 -0.067372285
0.041381523 0.13265616 -0.06281325 -0.065583445 -1.5412004e-07 -0.012400455 -0.1725092 0.2745921
0.18466292 0.008373545 -0.060980346 -0.0071979933 0.0002576387 0.15944083 0.011289873 0.1964704
0.18300174 -5.7154797e-05 -0.0030266095 0.012509863 0.19673675 -0.08451773 0.013626533 0.13593152
-0.03462661 -0.031702697 -0.0001946991 0.21533693 -0.12316603 0.09009229 -0.014312903 0.27957827
-0.029656908 0.1400729 -0.07888386 -0.00024592772 0.13638054 -0.094153725 0.22088842 0.1862992
-0.01834875 0.0060634506 0.13882521 -0.04079985 0.2704715 -0.009041716 -0.00206783 0.1337342
0.087696895 0.06343521 0.018530894 0.10744589 0.014669244 0.01332588 -0.118195996 -5.5874677e-10
-0.11358017 0.19537134 -0.14002626 -0.07743072 -0.0018181661 -0.029228356 0.0014936489 0.077340536
0.2882957 0.15597436 0.18107416 0.17076793 0.30745187 0.013369963 0.111505434 0.26430258
0.16055588 0.1651467 0.3110298 0.019447753 0.00086561136 0.16603696 0.07764855 0.14127608
0.15682735 0.21609282 0.0061118775 0.15367869 -0.043760482 -0.08624936 0.009328288 0.016673412
0.037238885 0.008203211 -0.0020977717 -0.090908036 -0.12636325 -0.04958725 0.004341567 -0.046687413
0.003939997 0.047321294 0.021552926 -0.0062088463 -0.045337662 0.024695434 0.008513551 -0.102291904

encoder.linear2.bias f4 [118]
00000000: e792 36b7 a20b 04b6 38ab 6836 ae50 a4b6
00000010: ad99 1237 1c20 88b3 aa95 1235 c78c 2db4
00000020: b06c 6eb6 7500 9cb5 ead1 7cb6 ca5b 9a36
00000030: 3fce 49b4 35f7 a035 6577 9bb5 8e4d d434
00000040: a205 83b4 da4d 5435 0482 a434 4e03 bfb6
00000050: a3fc d136 2728 2ab6 681e 29b5 9b98 9435
00000060: bc9a 5836 b9b0 98b5 614b ecb5 8788 cbb5
00000070: 0997 9c34 9a49 ddb4 19b6 1234 3185 2ab6
00000080: 44e0 24b6 9dc5 7a35 0c20 4bb5 3bd0 74b6
00000090: f77c aeb6 6c03 2036 4090 52b6 82c4 75b6
000000a0: a295 8235 0df9 89b6 405d 4c36 7de2 cfb6
000000b0: 5d21 e4b6 ec0e d6b5 9a9f 4736 849d 2335
000000c0: 0c59 5cb4 23a1 b8b4 755e f834 5d64 7b35
000000d0: 0536 14b6 b45d c335 3fd6 deb6 a8ce 5535
000000e0: 54dd d936 051a abb6 5117 d3b5 6264 bc32
000000f0: 3dc8 b7b6 5fcd c7b5 c34f 85b6 24bd 7f37
00000100: 9c98 4135 703d 1db3 e08b 1336 b197 3436
00000110: 342e 13b6 d32d 81b4 418d 8034 c044 69b6
00000120: 60af 4cb6 5f24 afb6 e4ca 14b5 fb87 4531
00000130: fdd2 59b6 5287 d836 409c 2bb6 30a6 3034
00000140: 4cd9 6bb6 9bf3 54b5 d028 fd35 b207 f334
00000150: 97be 8c36 4b9c 4e36 35d2 2435 b57d b8b6
00000160: 4b89 5632 8c2b 6335 473d 40b6 b8b4 3cb6
00000170: 5128 84b4 5b38 f4b3 29d5 9b36 a658 1036
00000180: 8986 ac36 2530 21b5 8a5c 32b6 341f 2336
00000190: 713e ffb5 c4cb 82b6 0407 2e36 4133 1836
000001a0: 2b5b 2836 bc9c beb5 bddd 4a35 2b1f 82b6
000001b0: c685 b234 e772 02b7 6833 6036 7416 c535
000001c0: 578b e835 d885 8a35 fe00 9335 a600 f135
000001d0: a54f cc34 7a61 edb6
-1.0882249e-05 -1.9676304e-06 3.4670356e-06 -4.896973e-06 8.738059e-06 -6.338834e-08 5.460703e-07 -1.6163095e-07
-3.5528028e-06 -1.1623039e-06 -3.7673112e-06 4.6002433e-06 -1.8794616e-07 1.1992876e-06 -1.1583148e-06 3.9544506e-07
-2.440475e-07 7.9089443e-07 3.064198e-07 -5.6926283e-06 6.258096e-06 -2.5355346e-06 -6.3001653e-07 1.1071273e-06
3.2276575e-06 -1.1376316e-06 -1.7605308e-06 -1.5164413e-06 2.9167157e-07 -4.121801e-07 1.3663556e-07 -2.5409502e-06
-2.4568444e-06 9.341982e-07 -7.567003e-07 -3.648004e-06 -5.200152e-06 2.384385e-06 -3.1376403e-06 -3.6622228e-06
9.729304e-07 -4.1119115e-06 3.0452647e-06 -6.1954474e-06 -6.7988135e-06 -1.5948585e-06 2.974621e-06 6.095145e-07
-2.0521492e-07 -3.4389913e-07 4.6262326e-07 9.3650834e-07 -2.2085162e-06 1.4555903e-06 -6.641057e-06 7.964941e-07
6.49287e-06 -5.099226e-06 -1.5727511e-06 2.193173e-08 -5.477136e-06 -1.4886426e-06 -3.9729944e-06 1.5243222e-05
7.212018e-07 -3.6610288e-08 2.1986125e-06 2.6910386e-06 -2.19316e-06 -2.4061464e-07 2.3944634e-07 -3.4759723e-06
-3.050045e-06 -5.2196406e-06 -5.542954e-07 2.874457e-09 -3.245833e-06 6.453055e-06 -2.5571935e-06 1.6451736e-07
-3.5144212e-06 -7.9330647e-07 1.8861847e-06 4.5267876e-07 4.1945127e-06 3.0787367e-06 6.140065e-07 -5.4982615e-06
1.2487656e-08 8.462746e-07 -2.8645898e-06 -2.8119375e-06 -2.461625e-07 -1.13723864e-07 4.644175e-06 2.1509272e-06
5.1416614e-06 -6.0047233e-07 -2.6577932e-06 2.4307055e-06 -1.9017153e-06 -3.8980234e-06 2.5932104e-06 2.2679599e-06
2.5087018e-06 -1.4201719e-06 7.5573536e-07 -3.8779303e-06 3.3252417e-07 -7.775357e-06 3.3408523e-06 1.4684178e-06
1.73259e-06 1.0320755e-06 1.0952642e-06 1.7956088e-06 3.805591e-07 -7.074498e-06

encoder.norm.weight f4 [236]
00000000: 8d76 f83e 8b39 423d 1dd3 643c 45be da3b
00000010: aec1 8533 6d2c 473c 04a1 1abb a272 203e
00000020: 2c94 183c f54c 5a3e 56bf 4a3e 9899 f336
00000030: cf7f b9b9 f1f3 cb3d f70d 5c3e 9927 b53e
00000040: ea00 d83d 1adb 0c3a 5d6e 543e 3dd3 923d
00000050: 1fda dc3d 6a71 943b df31 65bc 6cb2 3a3e
00000060: 0994 d63e db9f e93d f09d 3f3c 953e bb3d
00000070: 5163 0e3d 8e2d de39 9216 1b3d c45f 003d
00000080: fd15 cc3a adeb d83e 65ca db3d 6de3 d63a
00000090: 000c 403d a139 d43a fa16 7a3e 6d53 bf37
000000a0: 05c9 863e 3b65 ce3a 3644 4b3b 9ca8 923d
000000b0: ac16 753d a216 f13d 98b8 c73e 4a7a fa22
000000c0: b996 9fb8 f595 683d 1d78 133e 5ee9 a03c
000000d0: 8415 593a 5d8d a336 5375 653d e10e 313e
000000e0: 948e 633a e78e 803b 106b 9bb8 8f99 8e3e
000000f0: 1fea 1fbb b0e8 763a 2b2c 6a3e 729f a63e
00000100: 0cf1 a33d b898 853e 90b7 b83e a7da 823e
00000110: 5ef8 1f3e f5ec e8ba 4fe0 0c3b d4d5 4f3d
00000120: a6d8 0539 521b 213c e760 eb3b 6f26 f938
00000130: 14c7 6239 90b5 0b3c 4556 1b3e be4c 0d3e
00000140: b2a9 2d3e 1cc9 3bbb a5b3 d53c e0a0 163e
00000150: 5a0f 483d db0a 6e3b d8c1 393d 11d1 b13e
00000160: d6d6 bb3c 0659 3d3e f428 173e 921f 133e
00000170: 495a af3e 61a0 483c 7916 953b 8ac2 b134
00000180: dce1 e83b 5304 b13d 6edc a43c 69d8 413d
00000190: 2ef0 f63d 455d c53e cf76 093d 06f7 003f
000001a0: d7c6 993e 6068 1e3c ed18 3d3c 4d91 0d39
000001b0: 08d2 843d ef16 633e e872 31b7 fdff 613d
000001c0: c702 483d 013e 3c3d 4f65 adba f665 0e3d
000001d0: ead3 5c3e 7966 d838 d4ab 6b3e b1d2 303d
000001e0: af49 743e ec6b 523d 1b2b 663e 6f10 623d
000001f0: 7327 0a3b a147 de3c 4930 153c 80d8 123e
00000200: 98b9 20bc 5070 603a aa01 39bc 6388 213e
00000210: e7a8 d13e 44e3 e63e 7df9 133d 99a2 94bb
00000220: 4437 f73d 0be4 953e 2239 0d3e d528 7d3d
00000230: 60bb 8f3e 555d 163b bd69 123e b380 263d
00000240: 1c75 693e 7ffd c13e a805 1fbc 4103 183e
00000250: 3f5a 323e 42c5 4b3e a6d5 0f3b fcce c4b6
00000260: a4ec a23e 38da b83d d8e5 a83d 2e1e 583e
00000270: 45ae 793c c26d c93c 93df e53e bdba 3c3a
00000280: d535 803d 7c01 6e3d 1cc5 953e 1003 71b9
00000290: 850e cd34 943c 653c 3a85 dc3c a148 abbc
000002a0: 4262 c33c 3651 6b3e 88fe 9738 09af c03d
000002b0: 87cf 2d3c 956f ee3d 87d0 0b3e 579a 933d
000002c0: 3ed1 683c 2239 fc3d 0546 063a 8c4d 853c
000002d0: ea8c 123e c3e7 c83b b800 593d 7cee 3fbc
000002e0: 18e7 ec3d c737 3e3d cc74 573d 0514 4439
000002f0: 136c f23b df60 abba e7ca aebd 0f7a a13d
00000300: 3d9f f33c 8ea9 9a37 ba64 013c 1d11 4ebb
00000310: 0897 e23e fe13 a63e 452a 74be 15cc 07bc
00000320: ebf2 193e 6a1b 973e 74b5 f63d cdd2 2c3a
00000330: f797 993e 855d b63d 5815 fa3d 8f7a aeb8
00000340: 69b0 b336 21b1 7136 5ee5 a73e 643b 4e3c
00000350: ebaf cd3d 04d6 843d 6927 783d 23bd 823d
00000360: dffb 363a 2f3f a23a 16ba 5b3e 2cbf e13c
00000370: 44cb cc3d 1d4e 443e 802d b53e 9436 b13d
00000380: 44f0 073d b833 4b3e 36bc 3b3d cce1 973e
00000390: 27b3 163d 6561 a73b 69e6 433a 5d45 983d
000003a0: c828 4c3b 1e92 323d 1269 253e 6509 ec3c
0.48527947 0.04741816 0.013966349 0.006675514 6.228525e-08 0.012156588 -0.0023594508 0.15668729
0.009312671 0.2131842 0.19799551 7.259845e-06 -0.00035381175 0.099586375 0.21489702 0.35381773
0.10547049 0.0005373225 0.20745225 0.07169197 0.10783791 0.0045301216 -0.013988941 0.18232125
0.41909817 0.11407443 0.01169537 0.09142796 0.034762684 0.0004237708 0.03786332 0.03134133
0.0015570518 0.42367306 0.10731963 0.0016394682 0.046886444 0.0016191491 0.24422827 2.2807822e-05
0.2632524 0.0015746722 0.0031015999 0.07161066 0.059836075 0.11771895 0.3900802 6.7892114e-18
-7.609785e-05 0.056783635 0.14401288 0.019642528 0.0008281099 4.8742354e-06 0.056020092 0.17290832
0.00086806086 0.0039232853 -7.410918e-05 0.2785153 -0.0024401022 0.00094188284 0.22868411 0.32543522
0.080049604 0.26093078 0.36077547 0.25557443 0.15622088 -0.0017770814 0.0021496003 0.05074103
0.00012764576 0.009833174 0.0071831825 0.00011880404 0.00021627202 0.008527175 0.15169628 0.13798806
0.16959265 -0.0028653806 0.026086638 0.14709806 0.048842765 0.0036322388 0.04535088 0.34729818
0.02292959 0.18490991 0.14761716 0.14367512 0.3424857 0.012245269 0.004549798 3.3110365e-07
0.0071070027 0.08643403 0.02012464 0.047325525 0.120575294 0.38547722 0.03356057 0.5037693
0.30034515 0.00966844 0.011541587 0.00013500937 0.06485373 0.22176717 -1.0576776e-05 0.05517577
0.048830774 0.04595757 -0.0013229045 0.034765206 0.21565214 0.0001031877 0.23014766 0.04316968
0.23856233 0.051372454 0.22477381 0.055191454 0.0021080642 0.027133765 0.00910575 0.143404
-0.009809874 0.0008561658 -0.011291901 0.15774684 0.40949175 0.45095265 0.036126602 -0.0045359847
0.12071088 0.29275545 0.13791326 0.06180652 0.28072643 0.0022943814 0.14298148 0.04065008
0.2279858 0.37888715 -0.009705938 0.14844991 0.17417239 0.19899467 0.0021947413 -5.8653513e-06
0.31821167 0.09025997 0.08246964 0.21105263 0.015239303 0.02458847 0.44897136 0.0007199457
0.06260268 0.058106884 0.29251945 -0.00022984692 3.819479e-07 0.013991494 0.026918996 -0.020908656
0.023850564 0.22980198 7.247651e-05 0.09408385 0.01060856 0.11642376 0.13653766 0.07207172
0.0142100435 0.12315585 0.0005122128 0.016272329 0.14311567 0.006131144 0.0529792 -0.011714574
0.11567515 0.046439912 0.05260162 0.00018699474 0.0073981374 -0.0013075134 -0.08534794 0.07884609
0.029739017 1.8437186e-05 0.00789755 -0.0031443306 0.44255853 0.32437128 -0.2384425 -0.008288403
0.15034072 0.29513103 0.12046328 0.0006592691 0.29998752 0.08904556 0.12211102 -8.319795e-05
5.3551526e-06 3.60149e-06 0.3279218 0.012587402 0.10043319 0.06486133 0.06058446 0.06383731
0.0006980281 0.0012378449 0.21457705 0.027556978 0.09999707 0.19170423 0.35386276 0.08652988
0.03318812 0.19843948 0.04583379 0.29664457 0.036791947 0.005108046 0.00074729935 0.07435105
0.0031152237 0.04359638 0.16153362 0.028813073

encoder.norm.bias f4 [236]
00000000: 51db 1e3e 4f58 fcbd a35b 1cbe d114 f5bc
00000010: aed3 04b9 23a7 2dbc 91fd dfbb 1bbb efbd
00000020: 4bf7 b8bc 8d7b b93e cce4 aa3e e936 2eb9
00000030: 1e58 7fbb 9465 49bd ea8d 4e3e a0e0 e63e
00000040: a129 fcbd 13dd 9bba 378c 1dbe 60ff 373e
00000050: abca 52bd d67c cfbc 0be4 9bbc 045e 793d
00000060: 9cb2 103f cde4 b9bd 062d 66bc e95e f4bd
00000070: b987 05be 6819 9fba 3934 e4bc 2a6a 03be
00000080: 5871 0abc ee7e 063f 78fe 273e 7e5f 28bc
00000090: 4cce 9d3d 64c0 0abc 165d a93e 3509 00ba
000000a0: daf0 75bd 0a5e 083a 48d5 acbc 4d19 97bd
000000b0: 8ff0 e7bd 4f5d 0e3e 823a f53e 0cd4 07bc
000000c0: 39ba b4bb 0695 ae3d a98a af3e fdd4 80bd
000000d0: f439 1cbc 2bf3 44ba 67ce dcbd 1c5d 13be
000000e0: 5527 8db8 5ddf b2bc 22c5 c7ba 36cf 013f
000000f0: 604b d8bb 7367 45bc a82e 65be d107 993c
00000100: b542 7dbd 4af5 f83d 6ca0 e43e 8b59 fa3e
00000110: d974 18be ca9f b4bb 87c2 3cbc 3fb9 92bd
00000120: 359d 07bc ede6 23bd 954f 64bd 4d47 a2bd
00000130: b1be 5bba 8f6a 0fbd cd9f 013f 94b6 cdbd
00000140: 7df6 b03e 6746 0bbc 9966 ccbd c8c4 b5bd
00000150: a5d5 e63c 063e 1cbc cd04 0abd 7597 1cbb
00000160: da11 8dbd b670 07be a838 c13e fec8 923e
00000170: 0023 183f 4cc1 adbc 3fdc fabc 9c51 b8bb
00000180: 5066 8fbc b5a8 75bb 863f cd3c 45fe 81bd
00000190: 3b5e 8c3e dcbf e93e c27d 5e3e b525 493f
000001a0: 0f62 473e 5447 8dbc b210 a3bd f4ef 18bc
000001b0: 3a83 b4bd 0448 c93d 95d7 afb9 725f 903c
000001c0: 3a55 aebc ae9f b7bd 9bfb debc 7c82 52bd
000001d0: 1d1d 44be 6377 33ba cef1 f13e 0051 afbc
000001e0: 01c6 ac3e b062 32bd 1651 963e a42f a0bd
000001f0: 36ee 4fbc 38ea 5ebd 1a80 90bc 0011 1d3d
00000200: 908b 84bc 0b05 64bc 1db1 9bbc 15fa ad3e
00000210: ba87 ffbd 34e9 283f 3c71 1e3d 3d3c 3dbc
00000220: bd6b 6ebe 0eb5 c63e d1fd 8fbd 3d9a 3abe
00000230: 8c5e be3e 8184 09bd 4e70 113e 66c4 43bd
00000240: efc4 8f3e 584c 43be 1dd1 8ebc c9b2 4ebe
00000250: 1bdb b8bd b9dc 2f3e 8c25 05bd 50df e4ba
00000260: 9b03 58bd 5808 f6bd 74f5 16bd 07a9 abbd
00000270: f343 09bd bf87 f6bc ae6b 043f 93c0 3bbb
00000280: 4257 5b3e 7368 053e bfb4 ff3e fcd1 7dbb
00000290: 6681 37b7 6cc9 8dbd ded3 a0bc 651a 28bd
000002a0: 53d6 49bd e2d2 603e 62a9 47ba 10e5 233e
000002b0: fd5a 2cbd 4cf6 dbbd 2248 6cbe e63b ec3d
000002c0: e0d1 42bd 1693 5abe 4474 a9bb 2500 46bd
000002d0: 1743 7d3e 32a1 d4bc 24b6 15bd 4c36 debc
000002e0: cbd9 dd3b 6981 3ebd dfb7 e83c 8327 d2bc
000002f0: a286 8cbc 85a3 c1bb a4ca 3c3e 7c15 fc3d
00000300: 794c 463c 7146 b9ba e4ff 4fbd b817 7abc
00000310: 9be2 fb3d db7c 913e 9f8c 65be 6306 59bc
00000320: 6fc9 a53d 7bfe 0d3f b6cc 2fbd f806 35bc
00000330: 8d21 e0bd 2a12 1cbc 1f50 063e cf01 94bc
00000340: 684c ecb9 3b67 16bc 6ba1 d83e c5e0 913c
00000350: b0d2 8bbd 6734 a03c b61b ee3d 4b36 7b3d
00000360: 0b26 64bb 2741 2cbd 1ce3 713e dc81 27bd
00000370: 1c32 2abe bb21 e2bd ffcc bebd 541d fcbd
00000380: 75c5 51bd 31b8 8d3e 2e6b d1bd 6a40 d8be
00000390: e54f dfbc cb42 bcbc 60d5 3abb d65d 233e
000003a0: d113 68bd b21c 7abd 7a96 c7bd 1a43 68bd
0.1551335 -0.12321531 -0.15269332 -0.029917153 -0.00012667358 -0.0105989305 -0.0068356474 -0.117056094
-0.022578856 0.36227074 0.33377683 -0.00016614389 -0.0038962434 -0.049169138 0.20171323 0.4509325
-0.123126276 -0.0011891447 -0.15385519 0.17968512 -0.05146281 -0.025328081 -0.019029638 0.060880676
0.56522536 -0.090768434 -0.01404882 -0.11932165 -0.13040055 -0.0012138309 -0.027856933 -0.12833467
-0.008449875 0.5253743 0.16405666 -0.010276673 0.07705364 -0.008468721 0.3307883 -0.00048841845
-0.060044147 0.0005202001 -0.021097794 -0.073778726 -0.1132518 0.13902782 0.478962 -0.008290302
-0.0055153635 0.08524518 0.34285477 -0.06290624 -0.0095353015 -0.00075130415 -0.107815556 -0.14390987
-6.73073e-05 -0.021835024 -0.0015241245 0.50706804 -0.0066007823 -0.01204859 -0.22381079 0.018680485
-0.061831195 0.1215616 0.44653642 0.4889644 -0.14888324 -0.0055122124 -0.011520988 -0.07164239
-0.008277227 -0.04001515 -0.055739958 -0.07923756 -0.0008382602 -0.03501373 0.5063446 -0.1004459
0.34563056 -0.008500672 -0.099805064 -0.08875424 0.028178046 -0.009536272 -0.033695985 -0.0023893986
-0.068881705 -0.1322659 0.37738538 0.2866897 0.59428406 -0.021210335 -0.0306226 -0.005624963
-0.017504841 -0.003748459 0.025054704 -0.06347326 0.27415642 0.4565419 0.2172766 0.7857316
0.19471 -0.017245926 -0.07962169 -0.009334553 -0.08814092 0.09828189 -0.00033539222 0.017623637
-0.021280874 -0.08966003 -0.027219584 -0.05139397 -0.19151731 -0.0006846098 0.47254795 -0.021400928
0.33744815 -0.043551147 0.2935874 -0.07821587 -0.012691071 -0.054422587 -0.017639209 0.03834629
-0.01617983 -0.013917218 -0.019005353 0.3397986 -0.1247706 0.6598084 0.038682207 -0.011550006
-0.23283286 0.3881001 -0.070308335 -0.182229 0.3718151 -0.03357363 0.14202997 -0.047794722
0.28079936 -0.19072092 -0.017433697 -0.20185389 -0.09026166 0.17174043 -0.03250651 -0.0017461572
-0.052737813 -0.1201331 -0.036855176 -0.08381849 -0.033512067 -0.030094026 0.51726806 -0.0028648719
0.21420005 0.13028125 0.49942586 -0.0038729897 -1.0937778e-05 -0.06923184 -0.019632276 -0.041040797
-0.04927666 0.21955445 -0.00076164876 0.16005349 -0.04207896 -0.10740337 -0.23074391 0.11534862
-0.047563434 -0.21345171 -0.0051713306 -0.04833998 0.24732624 -0.02595577 -0.036550656 -0.0271255
0.0067703477 -0.046510134 0.02840799 -0.025653606 -0.017154042 -0.0059093856 0.18436676 0.12308785
0.012103193 -0.0014135373 -0.050781146 -0.015264444 0.12299081 0.2841557 -0.22416924 -0.013246152
0.08095061 0.5546643 -0.042919837 -0.011049025 -0.10943899 -0.009525815 0.13116501 -0.018067269
-0.00045070355 -0.0091798855 0.42310652 0.017807374 -0.06827295 0.019556237 0.11626379 0.061331075
-0.0034812714 -0.04205432 0.23621792 -0.040895328 -0.16620678 -0.1104159 -0.09316444 -0.123102814
-0.0512137 0.2767959 -0.10225521 -0.42236644 -0.027259776 -0.022981068 -0.002850853 0.15953764
-0.056659523 -0.061062522 -0.09745498 -0.056704618

encoder.norm.running_mean f4 [236]
00000000: 4385 3941 43c6 cd3e 5842 cd3d 11e9 fcbc
00000010: 18f1 5e3d 0c57 263e a6f6 a9be 8d4a 03c1
00000020: 1a4e 7a3e 71a4 2541 a20f d3c0 17ef b23f
00000030: ae3e debe 12f9 ee3f 5079 e8c0 8f2f 08c0
00000040: 1e18 e840 0050 b440 234f c9c0 67ba 94c0
00000050: 11ab 013f 2e98 65be 1501 30c1 85b1 e540
00000060: 1fc1 c4bf 1026 edbf 1254 3140 656e cc40
00000070: fb40 8cbf 0a5c 943c 8edd 333f b921 84be
00000080: 4aed e3bc f5cc 16bd caeb 2ebf dcf4 94bd
00000090: 2876 09bf 588a a0be 3440 8bbf 393b 8c3c
000000a0: c23f 3bc1 75d2 8c3e 880f 74be fb55 dabf
000000b0: 6bfc 983e 05a0 bebf d59b 0740 2327 4dbf
000000c0: f95c 9abd 371a fdbc fe06 5c3f 4ed5 4740
000000d0: e213 103d a03e 663c eb9a c4bf 7441 0341
000000e0: 9cb2 6341 60bd a4bc 9afc ae40 3e9c 37c0
000000f0: c9cd abbe ee22 0e3f 6318 1fc1 be15 0a41
00000100: e273 943f 9918 2541 81f4 74c0 a4b2 96bf
00000110: 8f62 a9bc abed 4fc1 a3c8 c1be 11bb b13c
00000120: fc2f 1041 3238 4240 2af6 61be 0d2d 16c1
00000130: 12aa c340 4c29 37be 3bee 4141 f2a6 d0bf
00000140: 539c c2c0 2f40 24be 8f36 1fbf 59e1 51bf
00000150: f5be e140 4f0b a240 6bc8 1a3f 4a35 42bf
00000160: dfe7 aac1 3a97 53bf f76c c040 d703 a8c0
00000170: 0285 dcc0 3449 e240 51b5 63c0 8e06 5541
00000180: 8061 b33d 7ac9 2e40 f050 2d40 0244 2640
00000190: 3042 9e3f ac3a 1f41 a75f 163f 0354 9a41
000001a0: a23e 2941 821f cb40 0307 1cbf bea2 833e
000001b0: 19dd 9841 c512 4340 0537 ad3c cf90 063f
000001c0: b64e ad3f db99 083f c3b6 f2bd 0f9f 673f
000001d0: c49c 7fc0 62da 233f 3fbb 71c0 1cbe 803f
000001e0: 75de 0ac0 a33c 413f 1852 c53f 9124 9c40
000001f0: 14aa c4be 6fa6 abbe adca 563f daa0 ac3f
00000200: 53f5 abbf ddeb 60bc 263c 10bd 20f6 a93f
00000210: 9c4c e7c0 8e7e 8fbf 43b2 bebe 443b 52c0
00000220: 981d 3ec0 6f35 d6be f0ff 2f40 a0fd 4bbe
00000230: 0a35 2dc0 dab8 8f40 76c0 88be ba9f 8bbe
00000240: 01e5 633f 8573 66c1 546e 88c1 b1d3 7140
00000250: 6f78 9bbf ffbc 13c0 276c fc3a 0443 0cbb
00000260: 2fe6 3740 d3aa ba40 0ece 2dbf dfb9 b840
00000270: a0c4 4741 bd26 a13e 0b41 e1bf 3df5 88be
00000280: 3eed b840 dc67 ba40 ca71 a1c0 6c4a cabf
00000290: 9238 2541 ba3c aabe 8aa5 6d40 27d9 03bf
000002a0: b7d7 183f 246f 983e 4382 1840 505c b3c0
000002b0: 6c7b 1bbf c833 0bbe f7ad a3c0 b957 a23e
000002c0: e2bf e639 2c04 84c0 8d61 9c3b 074d 813f
000002d0: caca dac0 d743 6ec1 3670 85bf 343d 0cbf
000002e0: 566f 2241 1877 b540 e180 f8be 13ba 9a40
000002f0: 45b0 7f3f 9c9e a13f 0037 f7bf 297b f13e
00000300: 4674 723f 2f4f 6a41 afaa bebd 0479 a3be
00000310: 9604 8ac1 bf90 c73f dc3f 2c41 fe6c 24bb
00000320: 5a7e 4b41 02ab 15c1 eca3 8d40 2c5d 753e
00000330: 1337 cf3f dd23 3bc0 0efd ee3f 5f73 e6c0
00000340: fcc8 eb3e d866 ce40 9ce2 2fc1 3b7c 4dbe
00000350: 3e72 e23f 1792 1841 3ef8 82c0 803a e03e
00000360: 8810 aebe 3de8 44c0 de05 7c41 dd40 d03f
00000370: da12 79be dece a73f d740 b6c0 ec40 4e40
00000380: cc69 953f 1a55 3841 c547 e93e 4de3 44c1
00000390: da54 d53e c123 dabf 9bde 8540 8b8b 5640
000003a0: ebc0 04c0 1832 8340 71d7 a340 ee4b b73f
11.595035 0.40190324 0.1002242 -0.030872853 0.054429144 0.16244143 -0.3319599 -8.205701
0.24443856 10.352647 -6.5956583 1.3979214 -0.43407196 1.866976 -7.2648087 -2.1279027
7.252944 5.6347656 -6.2909102 -4.647754 0.5065165 -0.22421333 -11.000264 7.17792
-1.5371436 -1.8527241 2.7707562 6.388476 -1.095733 0.018110294 0.7025994 -0.25806978
-0.02782311 -0.036816556 -0.68328536 -0.07273266 -0.5369592 -0.31355548 -1.0878968 0.017118083
-11.703066 0.27504316 -0.2383405 -1.7057489 0.2988008 -1.4892584 2.1188862 -0.8013784
-0.075372644 -0.03089629 0.8594817 3.122394 0.03517521 0.014053017 -1.5359777 8.20348
14.231106 -0.020109832 5.468335 -2.8689113 -0.3355544 0.5552205 -9.943454 8.630308
1.1597865 10.318505 -3.8274233 -1.1773267 -0.02067688 -12.995524 -0.37848386 0.021695646
9.011715 3.03468 -0.2206656 -9.385999 6.1145105 -0.17886847 12.120662 -1.6300948
-6.0815825 -0.16040109 -0.62192625 -0.8198448 7.05456 5.0638804 0.60462064 -0.7586256
-21.363218 -0.8265263 6.0133014 -5.2504687 -6.8912363 7.071436 -3.5579417 13.3141
0.08758831 2.7310472 2.708065 2.5979009 1.2363949 9.951824 0.58739704 19.291021
10.577791 6.347596 -0.609482 0.257101 19.107958 3.0480206 0.0211444 0.5256471
1.3539646 0.53359765 -0.11851265 0.9047708 -3.9939432 0.640051 -3.7770536 1.0058017
-2.1698277 0.7548315 1.5415678 4.8794637 -0.3841101 -0.33525416 0.8390301 1.3486588
-1.3434242 -0.013728109 -0.035213612 1.3278236 -7.2281017 -1.1210496 -0.37245378 -3.2848673
-2.9705563 -0.41837642 2.7499962 -0.19920969 -2.7063622 4.491315 -0.26709336 -0.272703
0.8902131 -14.403203 -17.053871 3.7785456 -1.2146128 -2.3084104 0.0019258306 -0.002140225
2.8734243 5.8333526 -0.6789254 5.7726893 12.485504 0.31474867 -1.7597975 -0.26749602
5.77896 5.825178 -5.0451403 -1.5803962 10.326311 -0.33249456 3.7132287 -0.51503223
0.59704155 0.29772294 2.3829505 -5.6050186 -0.607352 -0.13593972 -5.114986 0.31707552
0.00044011982 -4.1255093 0.004772371 1.0101632 -6.8372545 -14.891562 -1.0424869 -0.5478089
10.152182 5.670788 -0.48535827 4.835214 0.9987834 1.2626529 -1.931366 0.47164276
0.9470867 14.644332 -0.09309899 -0.31928265 -17.25224 1.5591048 10.765591 -0.0025089378
12.718348 -9.35425 4.42626 0.23961323 1.6188682 -2.924064 1.8670976 -7.2015834
0.46051776 6.450054 -10.992825 -0.20066921 1.7691114 9.535666 -4.092803 0.43794632
-0.33996987 -3.0766747 15.751432 1.6269795 -0.24323598 1.3110006 -5.695415 3.2227125
1.1672912 11.520777 0.45562568 -12.305493 0.416663 -1.7042161 4.1834235 3.352267
-2.0742748 4.099865 5.120049 1.4320047

encoder.norm.running_var f4 [236]
00000000: 213e 0a41 6675 393c a775 1d3a 4ac7 193a
00000010: 739b b839 34a8 b73a 9d37 893b b186 9740
00000020: 83d2 4f3b 3f30 bc40 62ca 4040 4d37 963d
00000030: 58dc 063c 0f04 0d3e 4412 0240 1bde c63f
00000040: c97a 1240 803c 983f e579 903f ecf8 f13f
00000050: 522b df3d 4128 fc3a ee31 9940 d07e bc3f
00000060: 978a 5b40 ab36 a23e a724 a03e eb30 d13f
00000070: cdbd 2f3d b66a 5437 ef67 053d 721d 353b
00000080: 1d19 0138 774b 0e40 ced6 713e b551 6d39
00000090: c135 dd3d 7327 593b aa9c 8b3f fdc9 bc38
000000a0: fdbd 8c40 ea43 5a3b 9225 b73b 6107 743e
000000b0: fbaf 503b 9179 913e 38e9 4440 311c e63c
000000c0: 8af3 c039 3e3c 5c3d 0b85 393f 6e59 ba3e
000000d0: e0ef 8038 17f5 9337 c983 4a3e ecc3 9040
000000e0: 1ad2 0141 7cbd 7237 145a 923f d653 ca3f
000000f0: 5aad 8b3b 6535 bb3c 54df 7940 436e 1340
00000100: de7e 4f3d bdb2 7940 ce78 1d40 71de 1040
00000110: b4ee 0d3e d322 cd40 d9e8 bc3b 2c89 9937
00000120: 81c6 3e40 3ca6 af3e 23bf 1e3b 9f95 5c40
00000130: 068b b23f 1c7b 1e3b 5bb2 b840 978c c63e
00000140: 7ffb d63f ee43 0e3b 37a2 803c 0570 973e
00000150: 7f3e da3f 7049 813f 2302 a53c e9b5 2a3f
00000160: 0b5f 9d41 9983 293f 9a9e 6a40 cafb 733f
00000170: c679 8440 2ee1 0740 987d ef3e 59cb e340
00000180: 11f3 9139 831a 8b3e d47b a83e 5b91 7f3e
00000190: b3ed b73e 667e 0341 3184 b23d ec05 2341
000001a0: ecd2 1640 01e3 d13f 10a9 8c3c 7e4d 213b
000001b0: 56e6 8e41 a7f4 ec3e 71b7 9037 c1b5 843d
000001c0: 9fff 8d3d f066 343c b5d1 fa39 df98 133d
000001d0: 6f77 fb3f dc3e 9e3c 809a b83f 3906 423d
000001e0: 6d04 753f d924 a43c 7c1e be3f c11f 623f
000001f0: 9a2d c83b f3d4 4b3c 9daa df3c 765d 6d3e
00000200: a770 923d 3da7 1037 48d6 3838 ed10 8c3f
00000210: 995a 7540 f420 6040 0a76 1a3d 5a7b e03e
00000220: e184 da3e 8e90 f03f 1f45 c93e 6e01 633c
00000230: 99fe 833f 593b 443f e0ca 943e 4520 673d
00000240: 43a9 6b3f 4b46 0741 7b7c 5941 f8f1 093f
00000250: 708e 803e 4598 1c3f 380f 2f37 96c0 9f37
00000260: 4118 893f 8c67 a23f d76d 053e 0417 6b3f
00000270: da0c ba40 70e0 a23b 8aaf 9a3f bf5f 383b
00000280: 1542 873f e6b2 af3f 25fb 9340 c074 043e
00000290: e4f2 8240 b978 863b 815c 0a3f c6e3 243c
000002a0: c877 983c 2550 763f d9df 5a3e ef6e 593f
000002b0: 4724 683c 3af5 7c3d 58f9 5d3f f22f 003e
000002c0: a7af 8933 cd34 373f 1529 6837 2c36 5e3d
000002d0: d620 4140 50fa 2441 b386 a23d 1ed2 753c
000002e0: cb09 7b40 4482 a43f fdb5 2b3d 8a29 623f
000002f0: 1e93 3f3d a5b7 8c3d 0f8c 823e ddb1 283e
00000300: 2fdc c63c 0181 0b41 5125 cc39 9f02 e73b
00000310: 5eb3 0b41 c4f5 0740 6ea7 8c40 2e74 c936
00000320: 6fca c840 5a5b 2d41 ba69 443f ba0a 113b
00000330: 4c7c 113f 9ccc 5b3e fb7b a93e 9d85 0040
00000340: b983 033c 6127 fb3f 3a71 4940 b533 d53b
00000350: b152 4c3e f81a 5340 c31b 003f 7f68 4d3d
00000360: 8bb9 8a3b 4fbc b73e fe02 0f41 5763 d03d
00000370: e272 0b3e 8888 863e 06b5 8440 46f3 d53e
00000380: ab45 503d 4d1f a440 de61 1a3c 4fab a540
00000390: cf45 603c 727f d93d f5a3 273f f9c4 303f
000003a0: 5afa 263e f161 1e3f 6500 a43f 6b65 9d3d
8.640168 0.011319494 0.0006006606 0.0005866183 0.00035211034 0.001401192 0.004187538 4.735192
0.0031711168 5.8808894 3.0123525 0.073347665 0.008231245 0.1377108 2.0323648 1.5536531
2.2887442 1.1893463 1.1287199 1.890409 0.108969346 0.0019238071 4.787345 1.47262
3.4303339 0.31682333 0.31277964 1.6343054 0.042905618 1.266103e-05 0.032569822 0.002763596
3.0779385e-05 2.223356 0.23617098 0.0002263252 0.10801268 0.0033135086 1.0907185 9.002162e-05
4.398192 0.003330464 0.0055891955 0.2383094 0.0031843174 0.2841306 3.0767345 0.028089615
0.00036802544 0.05376839 0.7246863 0.36396354 6.148196e-05 1.7637894e-05 0.19776835 4.5239162
8.113794 1.4468442e-05 1.143374 1.5806835 0.0042626085 0.022852609 3.9042559 2.3036048
0.0506581 3.9015343 2.4604983 2.2635767 0.1386059 6.410501 0.0057650623 1.8302897e-05
2.9808657 0.34306514 0.0024222813 3.4466321 1.3948677 0.0024182266 5.771772 0.38779137
1.67955 0.002170797 0.01570235 0.29577652 1.7050322 1.0100536 0.02014262 0.6668382
19.671408 0.6621643 3.6659303 0.95306075 4.139865 2.1231189 0.46775508 7.1185727
0.00027837654 0.27168664 0.32906973 0.24957792 0.35923538 8.218359 0.0871662 10.188946
2.3566236 1.6397401 0.017170459 0.002461284 17.862469 0.46280405 1.725156e-05 0.06479979
0.069335215 0.01101087 0.0004783996 0.03603446 1.9645823 0.019317083 1.442215 0.047369216
0.9570988 0.020037102 1.4853053 0.883297 0.0061089518 0.012440908 0.027303034 0.23180184
0.07150393 8.622007e-06 4.4068584e-05 1.0942665 3.8336546 3.5020113 0.037710227 0.4384411
0.42679504 1.8794115 0.39310548 0.013855321 1.0312072 0.7665306 0.2906103 0.05642726
0.9205515 8.454661 13.592891 0.5388484 0.2510867 0.61169845 1.0434356e-05 1.9043957e-05
1.0710527 1.268785 0.13030182 0.91831994 5.814069 0.0049706027 1.208482 0.002813324
1.0567042 1.372647 4.6244073 0.12935162 4.0921497 0.0041037467 0.540474 0.010064071
0.018611804 0.9621604 0.21374454 0.84934896 0.014168805 0.061757304 0.86708593 0.1251829
6.4115106e-08 0.7156494 1.3837843e-05 0.05425088 3.0176291 10.311111 0.07935848 0.015003709
3.9224727 1.2852254 0.041921604 0.88344634 0.04677116 0.06870965 0.2549748 0.164741
0.024274914 8.718995 0.00038937715 0.007049873 8.731291 2.1243753 4.395438 6.003792e-06
6.274711 10.834803 0.76723826 0.0022131638 0.56830287 0.21464771 0.33102402 2.008155
0.008027011 1.9621392 3.1475358 0.006506408 0.1995342 3.298521 0.5004236 0.050148483
0.004233544 0.35885856 8.9382305 0.101751976 0.13618043 0.2627604 4.1470976 0.41787165
0.05084769 5.128821 0.009422747 5.1771617 0.013688519 0.106200114 0.65484554 0.69050556
0.16306439 0.61868197 1.281262 0.076853596
