checkpoints/ae_0%.pt (torch, 915143 bytes, 16 tensors)

encoder.linear1.weight f4 [236, 358]
00000000: 6da8 0000 c3cd 0080 a916 0100 c4c9 0000
00000010: 5935 0180 732d 0100 d30b 06b2 5d3b 0000
00000020: 6792 eab1 9951 0180 cbb8 0000 cece 0000
00000030: 903e 0080 ca47 0180 1f96 0080 9db7 0080
00000040: 981c 0080 0e6d 0000 1427 0080 8ed1 0080
00000050: 7b13 0100 a205 0080 645b 0080 4e18 0100
00000060: e534 0180 4d25 0080 aa53 0100 9006 0100
00000070: 10c9 0080 41a7 9b2b 6bc0 e19e ad54 491b
00000080: 86a9 0000 1257 0180 d54e 0100 8670 4307
00000090: bf10 0180 bb9d 4f9b 481d 0100 eb54 0100
000000a0: 92ff 1a93 1941 0000 4116 0180 faa3 0080
000000b0: 67dc 0080 b91b 0100 79b4 0080 786c 0000
000000c0: 675c 0180 a636 0100 5456 b304 406c 0080
000000d0: c6e7 0000 4836 ab29 4170 0080 aea7 0000
000000e0: d5c2 0080 8f60 0080 ec32 0000 8343 0100
000000f0: 7974 0080 6b02 0100 535d 0000 15b2 0000
00000100: 7845 1280 3822 0080 4235 0080 f4f8 0000
00000110: a7b3 0080 cba0 0000 d45b 0100 3456 0080
00000120: a32f 0080 075a 0100 68d0 0080 8515 0080
00000130: 7963 0000 ef44 0180 621b 0080 6ad6 0000
00000140: 3f3a 0100 2108 0080 120b 0100 2f5b 0180
00000150: fb05 0080 e0ff 0080 0865 0080 1692 0080
00000160: a820 0080 732f 0080 bb36 0180 0160 0080
00000170: 77a3 0000 e0ba 508d 445f 0080 eb79 002d
00000180: 7034 4195 6155 1480 b94e 1880 e953 0000
00000190: e487 0000 0c31 0000 9162 0000 4b30 4b32
000001a0: 16c8 0080 2547 0000 e5e7 2b38 4fda b1ae
000001b0: 5e54 98a5 b2f9 0f2a 1127 55a3 e663 4d27
000001c0: b176 0080 873d 0100 f058 0b80 aebc 202a
000001d0: c110 0080 8713 0180 c12a 8caf 0d94 0000
000001e0: 7eaa aa99 5d39 4a92 1b61 64a9 1c23 1295
000001f0: a536 1594 650a 9bae 8c6a 97ae abbc beb0
00000200: 66e6 15a7 d99b 8487 a533 6b95 ce2e 0000
00000210: 1461 0080 53a1 0080 df69 0000 9fa2 0000
00000220: 891f 0080 1824 0000 2c1d 0100 2549 0080
00000230: a71d daa8 1525 0100 8d64 0080 1b82 6709
00000240: c805 b510 43b8 8d97 79e7 8825 23e9 a5a2
00000250: a8eb 189a 3f89 2928 fca4 e79f 2e74 98a7
00000260: ffbb a0a8 36f6 0000 00ef 04a0 838b 8826
00000270: a0b7 1d24 48fa d1a7 390b 9a2a a3e9 0080
00000280: e239 0180 0617 0000 a920 0080 6414 0000
00000290: 3448 0180 a9c5 0080 e32e 0100 d95f 0000
000002a0: 5754 0080 abe3 0000 831a 0180 8021 0080
000002b0: 8d0c 0080 e401 0100 683b 0000 3648 0080
000002c0: a162 0180 4615 0180 0f36 0180 7b72 0080
000002d0: dfb4 0080 2537 0100 d7f7 0080 75f7 0000
000002e0: 901a 0180 0556 0100 658e 0080 4bb4 0100
000002f0: f888 0180 2b45 3731 3f5c af31 fafb 0080
00000300: 68c1 0080 5388 0100 c931 0000 2e1a 5636
00000310: 8951 0080 c0ee 0080 83e9 0000 d2a0 0100
00000320: de99 0000 df4f 0000 e58a 0080 bd3b 0180
00000330: 4e74 0080 056c 0180 8b30 0180 7044 0000
00000340: 9d07 0080 515e 0000 1a96 0000 61e9 0000
00000350: 538e 0000 470b 0080 fc39 1f2a 33cd 70bc
00000360: c420 0100 a544 0180 935c 0100 864f 0180
00000370: 7ed9 0000 acfa 54b5 11cf 0080 e35c 0080
00000380: 157c 0080 4808 e8a9 6c11 0080 f002 0100
00000390: e903 9634 3afd 1105 0558 b333 3481 0100
000003a0: a9bd 0000 bf44 0100 d923 0100 747f 0080
000003b0: 9f24 0180 279c 0080 4f0a 0180 a22d 0180
000003c0: 8b49 0080 5e3f 0180 a117 0000 7bd4 0080
000003d0: 3521 0100 eff5 0000 3353 0100 4350 0180
000003e0: d2b7 0000 88cc 0080 cb1a 0100 5ffc 0080
000003f0: 0802 0100 9c61 0000 3b20 0100 d0c5 0080
6.042e-41 -7.3813e-41 9.9964e-41 7.238e-41 -1.10973e-40 1.0814e-40 -7.802515e-09 2.1296e-41
-6.8269403e-09 -1.21107e-40 6.6291e-41 7.4188e-41 -2.2443e-41 -1.17589e-40 -5.3853e-41 -6.5868e-41
-1.0258e-41 3.9121e-41 -1.4019e-41 -7.5174e-41 9.8824e-41 -2.02e-42 -3.2785e-41 1.00554e-40
-1.1081e-40 -1.3381e-41 1.21849e-40 9.419e-41 -7.2128e-41 1.1059835e-12 -2.3902384e-20 1.665369e-22
6.0814e-41 -1.2307e-40 1.20115e-40 1.4703237e-34 -9.7843e-41 -1.7173604e-22 1.0234e-40 1.22298e-40
-1.9563539e-27 2.3353e-41 -9.9819e-41 -5.8824e-41 -7.9065e-41 1.0178e-40 -6.4741e-41 3.8911e-41
-1.24983e-40 1.1144e-40 4.2161978e-36 -3.8833e-41 8.3145e-41 7.603342e-14 -4.0269e-41 6.0152e-41
-6.9893e-41 -3.4639e-41 1.8267e-41 1.16054e-40 -4.1783e-41 9.2703e-41 3.3478e-41 6.3884e-41
-1.67796e-39 -1.2275e-41 -1.9105e-41 8.9308e-41 -6.4447e-41 5.7682e-41 1.24777e-40 -3.0924e-41
-1.7089e-41 1.24131e-40 -7.4762e-41 -7.72e-42 3.5684e-41 -1.16564e-40 -9.823e-42 7.6917e-41
1.1273e-40 -2.916e-42 9.5807e-41 -1.24546e-40 -2.145e-42 -9.179e-41 -3.6243e-41 -5.2406e-41
-1.1715e-41 -1.7022e-41 -1.11469e-40 -3.444e-41 5.864e-41 -6.431989e-31 -3.4175e-41 7.303029e-12
-3.9017405e-26 -1.867338e-39 -2.232292e-39 3.0101e-41 4.8748e-41 1.7595e-41 3.5359e-41 1.1827136e-08
-7.1777e-41 2.5522e-41 4.0985546e-05 -8.0878075e-11 -2.6424966e-16 1.2787582e-13 -1.1555026e-17 2.850362e-15
-4.2578e-41 1.13907e-40 -1.042095e-39 1.4276316e-13 -6.01e-42 -9.884e-41 -2.549623e-10 5.311e-41
-1.764645e-23 -6.3810667e-28 -5.0710395e-14 -2.9512162e-26 -7.533354e-27 -7.0504304e-11 -6.8856115e-11 -1.3877942e-09
-2.0802803e-15 -1.9952752e-34 -4.7498612e-26 1.679e-41 -3.4825e-41 -5.7872e-41 3.798e-41 5.8337e-41
-1.1313e-41 1.2948e-41 1.023e-40 -2.624e-41 -2.4215722e-14 1.05138e-40 -3.6071e-41 2.7866789e-33
7.140082e-29 -9.158426e-25 2.374909e-16 -4.4970183e-18 -3.1623225e-23 9.411145e-15 -9.810525e-20 -4.2314437e-15
-1.7845099e-14 8.8324e-41 -1.1259913e-19 9.47471e-16 3.4199485e-17 -5.828051e-15 2.7363683e-13 -8.3813e-41
-1.126e-40 8.259e-42 -1.1716e-41 7.315e-42 -1.17737e-40 -7.0907e-41 1.08655e-40 3.4384e-41
-3.0255e-41 8.1672e-41 -1.01346e-40 -1.2018e-41 -4.502e-42 9.2514e-41 2.1311e-41 -2.5904e-41
-1.27217e-40 -9.9467e-41 -1.11228e-40 -4.1068e-41 -6.4884e-41 1.11618e-40 -8.8908e-41 8.8771e-41
-1.01364e-40 1.22693e-40 -5.1082e-41 1.56512e-40 -1.4097e-40 2.6669322e-09 5.1036575e-09 -9.0392e-41
-6.9381e-41 1.4074e-40 1.786e-41 3.1903724e-06 -2.925e-41 -8.5647e-41 8.3768e-41 1.49527e-40
5.5197e-41 2.8652e-41 -4.9826e-41 -1.13266e-40 -4.1722e-41 -1.30586e-40 -1.0925e-40 2.4551e-41
-2.731e-42 3.3834e-41 5.3846e-41 8.372e-41 5.1056e-41 -4.046e-42 1.4142154e-13 -0.014697361
1.0359e-40 -1.1646e-40 1.25045e-40 -1.20363e-40 7.8021e-41 -7.934093e-07 -7.4281e-41 -3.3321e-41
-4.4512e-41 -1.0304306e-13 -6.25e-42 9.2889e-41 2.7942522e-07 6.8643776e-36 8.351348e-08 1.38185e-40
6.8037e-41 1.16497e-40 1.04695e-40 -4.5722e-41 -1.04973e-40 -5.6017e-41 -9.5534e-41 -1.08205e-40
-2.6382e-41 -1.14567e-40 8.476e-42 -7.6224e-41 1.03748e-40 8.8224e-41 1.21682e-40 -1.20628e-40
6.5942e-41 -7.3372e-41 1.01447e-40 -9.0534e-41 9.2564e-41 3.5016e-41 1.03398e-40 -7.0962e-41

encoder.linear1.bias f4 [236]
00000000: e0a6 0000 1e4d 8e33 3744 67b4 2dc8 0000
00000010: 15a2 0080 e1d7 0080 9c4f 06b2 488e 0180
00000020: 7076 0000 9537 15b4 9ccf 0080 6787 0000
00000030: 8034 0000 227b 0080 a531 e2b2 4bc7 f4b1
00000040: e5c8 0080 3fbc 0000 71f8 0080 bd38 04b3
00000050: e919 0100 4489 0000 bb02 88b4 bc3a 0080
00000060: 5e1b 0080 d4e2 0080 8117 e8b0 42d4 0100
00000070: 9a2e 649d f450 0eb1 7ded 0000 08c1 8133
00000080: 4f40 0100 fc9e 9eb5 e553 0180 acd1 0000
00000090: 86d8 0000 9720 0180 b18f 3eb4 fe39 1334
000000a0: 6417 0d35 705e 0000 69c6 0080 be35 0000
000000b0: 731c 21b0 b016 0180 84b9 0000 c5cf 0180
000000c0: d092 0180 1437 d3b2 8752 cfb4 2e72 0080
000000d0: 9c94 0100 7a23 9b33 a920 0080 c857 9032
000000e0: bcbb 0100 3cf1 9032 bc9a 0080 bd75 0000
000000f0: 8fd6 01ad a92a 0000 d249 14b5 0350 0180
00000100: b0cd 0000 25e9 6333 f557 94b3 d074 0180
00000110: 680d 4a34 a55c 0080 1865 0000 9336 9634
00000120: 5015 df33 0677 0100 6a14 68b2 d7a3 eab2
00000130: 6d0b 0100 16d5 27b4 84f3 e1b4 f595 9535
00000140: 05e2 0000 ab92 acad da80 1932 c80a 1d35
00000150: 76c2 2ab2 f5f4 0080 af40 0100 7223 0100
00000160: 53d4 a3b2 f26f 0080 bb1d 0080 4a3b 0100
00000170: 2244 0180 0899 0134 a685 94b5 a656 9d33
00000180: e0db 0080 bbc0 b9b5 0baa 3534 3f00 9433
00000190: 175b 0100 0851 06b4 c84e 0000 6e3d 0080
000001a0: 1575 af33 0570 a8b0 4287 e135 a239 0100
000001b0: 7c3b 0180 447c c8b1 9025 0080 500b 0180
000001c0: d104 0100 bc31 0080 2edc 0080 683d 24b4
000001d0: 0344 1030 0e74 3b30 d43b 0180 acc2 0100
000001e0: 836b 1335 647e b5b3 5176 0000 7021 0000
000001f0: ee7a 0100 699d 0080 be3a 0000 5e10 0000
00000200: bfbe 0100 3d41 0180 f767 acb5 19c3 0080
00000210: d864 5023 85b3 f434 d88c 0080 7017 0180
00000220: 5cb2 63b3 defa 3235 4bc6 0180 3832 0080
00000230: dec4 48b3 4044 02b3 5423 0080 a1c9 0100
00000240: 1803 6b33 597d 0100 f4b1 0000 87a9 0000
00000250: 2527 0180 e276 0180 9d21 0000 2599 0080
00000260: 65c2 0180 2295 afb2 cf1b 0000 b82d 0000
00000270: 1193 0100 fc5f d82f c1e2 0000 53f1 0000
00000280: 3fd7 0000 393a 50b4 5bf7 9634 022b 0100
00000290: 0c22 0180 059d 0080 69a7 0000 8bef 0000
000002a0: 9ba7 0000 1027 0100 735f 5b34 1914 0100
000002b0: 2721 e832 2659 92b4 34b6 0100 74bc 0080
000002c0: 362b 0000 c2ae e8b2 6303 3933 b5fc 44b4
000002d0: 8f2e 0100 34a9 f831 d6a8 0100 4970 3234
000002e0: a6e3 1332 da80 bcaf c298 68b5 15c3 5833
000002f0: cd4c b533 2274 b2b5 fe62 7432 6c45 2684
00000300: 4e58 17b5 2060 0080 7e40 ceb0 1bdc 0080
00000310: 14af 0100 cb39 2231 319d d0b1 0fb1 4034
00000320: e82b 9932 de9d 3435 3edb a033 beea 30b4
00000330: 1ab5 77b2 45e2 0000 e6df 0080 d756 0000
00000340: b637 5f33 ea9c 82b4 0c24 a435 4e83 0180
00000350: c287 4533 da59 4932 7527 0080 e50c 0d33
00000360: b4a8 bd33 ea6e 0180 8e25 0180 8f21 0080
00000370: d41a 0100 5848 9230 e9a3 0000 b976 0000
00000380: c576 3e33 5ffc 0000 55bb 0180 a4ab 82af
00000390: 24d9 0100 85d4 1934 70c1 d8b0 f141 0180
000003a0: 4ba1 3ab1 741e 0934 3fee 6fb2 5966 a1b3
5.9863e-41 6.626418e-08 -2.1538368e-07 7.181e-41 -5.8144e-41 -7.7443e-41 -7.817928e-09 -1.42876e-40
4.2487e-41 -1.3896927e-07 -7.4476e-41 4.8573e-41 1.8833e-41 -4.4172e-41 -2.6332438e-08 -7.1239916e-09
-7.2067e-41 6.753e-41 -8.9124e-41 -3.0785248e-08 1.0113e-40 4.9242e-41 -2.533396e-07 -2.107e-41
-9.817e-42 -8.137e-41 -1.6886902e-09 1.67979e-40 -3.0199641e-21 -2.0709736e-09 8.5195e-41 6.042143e-08
1.14905e-40 -1.1818188e-06 -1.21931e-40 7.5216e-41 7.7674e-41 -1.03527e-40 -1.7747404e-07 1.3711539e-07
5.256063e-07 3.3878e-41 -7.1176e-41 1.9279e-41 -5.861189e-10 -9.9974e-41 6.655e-41 -1.66369e-40
-1.44502e-40 -2.458868e-08 -3.86168e-07 -4.096e-41 1.45146e-40 7.224203e-08 -1.1716e-41 1.6803725e-08
1.59182e-40 1.6873507e-08 -5.5508e-41 4.2237e-41 -7.380443e-12 1.5304e-41 -5.524172e-07 -1.20538e-40
7.3787e-41 5.30646e-08 -6.907786e-08 -1.3374e-40 1.8817593e-07 -3.3235e-41 3.6266e-41 2.7979385e-07
1.03881234e-07 1.34533e-40 -1.3508819e-08 -2.7315691e-08 9.5934e-41 -1.5630607e-07 -4.2086697e-07 1.1145008e-06
8.108e-41 -1.961927e-11 8.93507e-09 5.8502746e-07 -9.939518e-09 -8.7874e-41 1.1504e-40 1.04551e-40
-1.9072251e-08 -4.0158e-41 -1.0665e-41 1.13104e-40 -1.16277e-40 1.2069734e-07 -1.1065756e-06 7.3266435e-08
-7.8876e-41 -1.3839666e-06 1.69188e-07 6.891832e-08 1.24512e-40 -1.2509201e-07 2.8261e-41 -2.2037e-41
8.1703696e-08 -1.2255447e-09 1.6803172e-06 1.1251e-40 -1.13174e-40 -5.8348935e-09 -1.3475e-41 -9.5894e-41
9.3563e-41 -1.7841e-41 -7.8986e-41 -1.529603e-07 5.2483545e-10 6.819513e-10 -1.13298e-40 1.6167e-40
5.491822e-07 -8.4514596e-08 4.2444e-41 1.1995e-41 1.35934e-40 -5.6468e-41 2.1073e-41 5.871e-42
1.60262e-40 -1.15239e-40 -1.2845256e-06 -6.9988e-41 1.1297057e-17 4.557916e-07 -5.0525e-41 -1.00243e-40
-5.3014773e-08 6.6675227e-07 -1.6297e-40 -1.8015e-41 -4.674518e-08 -3.0330057e-08 -1.2673e-41 1.64166e-40
5.4718015e-08 1.36802e-40 6.3838e-41 6.0815e-41 -1.05878e-40 -1.34483e-40 1.2058e-41 -5.4938e-41
-1.61571e-40 -2.0440499e-08 9.976e-42 1.6401e-41 1.44593e-40 3.9358372e-10 8.1344e-41 8.6571e-41
7.7216e-41 -1.9392691e-07 2.8119652e-07 1.07264e-40 -1.04049e-40 -5.6328e-41 6.0055e-41 8.5932e-41
6.0126e-41 1.05848e-40 2.0430689e-07 9.9045e-41 2.702343e-08 -2.7259483e-07 1.57198e-40 -6.7604e-41
1.5501e-41 -2.7087825e-08 4.307675e-08 -1.8345857e-07 1.08538e-40 7.236986e-09 1.52402e-40 1.6618391e-07
8.608287e-09 -3.4288555e-10 -8.6649027e-07 5.0468845e-08 8.442439e-08 -1.3295833e-06 1.42251775e-08 -1.9545083e-36
-5.6380384e-07 -3.4483e-41 -1.5006802e-09 -7.8959e-41 1.54642e-40 2.3606954e-09 -6.0714673e-09 1.7945807e-07
1.783151e-08 6.728495e-07 7.4904605e-08 -1.6476676e-07 -1.441847e-08 8.117e-41 -8.032e-41 3.1152e-41
5.1971902e-08 -2.4328557e-07 1.2229443e-06 -1.38939e-40 4.5991108e-08 1.172017e-08 -1.4155e-41 3.284085e-08
8.831685e-08 -1.31624e-40 -1.05308e-40 -1.2039e-41 1.0146e-40 1.064346e-09 5.88e-41 4.259e-41
4.4345843e-08 9.0534e-41 -1.59038e-40 -2.376882e-10 1.69731e-40 1.432655e-07 -1.5771047e-09 -1.15491e-40
-2.7158247e-09 1.2770198e-07 -1.3965802e-08 -7.515764e-08

encoder.linear2.weight f4 [118, 236]
00000000: d727 cf2a 793e df39 973d 3939 5436 c5af
00000010: b970 17b8 7033 9824 6abc 99b6 1cb2 57a5
00000020: 7f74 bcaa deb8 8ab9 b8f0 26b0 e819 0100
00000030: f37e 0119 53c9 5b32 01d6 6f34 d15d 1db6
00000040: ebe8 6ab2 4092 a32f a928 b534 47e3 2539
00000050: 35b1 3c36 4f18 d734 7df9 1eb9 31cf 1d2e
00000060: d40d cbb3 c71e bbb0 382b f037 39c8 bc1f
00000070: 0bd4 7ab0 e2a2 7cb7 7911 4c2b 040b bbb8
00000080: cdce 6633 a46c c439 b79d d027 81a2 7634
00000090: 6ec0 df9a 5cca 522c 7193 773a ca44 ebb8
000000a0: e045 ffb9 6ddc 0138 fd87 fb2f 8aba 72a6
000000b0: 3bd5 0338 c749 b510 1686 3caa ef8f 0000
000000c0: c4ff 17aa 92f5 d437 2d4c 53ba 57cd 7a31
000000d0: 7d72 e834 2d44 173a bb4d e1b2 75e7 0eb8
000000e0: 9f89 81b0 5403 d238 b048 0100 0929 3eb1
000000f0: 0761 462d e04d 1930 6071 0539 2d25 3738
00000100: 6669 d117 57fe 0bb8 cef6 383a 21f6 372d
00000110: 741a a83a 67a6 0134 fbe7 04a3 2322 d6b8
00000120: 759a 7839 81d3 6433 0bd1 21b7 e1b1 2ab9
00000130: 878a a0af d037 02ba 552f 32b9 4af8 a739
00000140: d7fc 3bb1 900b acb4 cb00 7838 6d4c 113b
00000150: f8f1 ddb8 fdf6 1fa4 544a d3b3 a0a4 1235
00000160: 4025 1738 2520 3523 dbfe a7b3 7aee 6233
00000170: 2358 25b6 d02c 92b8 7240 853a e523 3cb9
00000180: 486c 3a32 47d3 27ba 539c ca39 c38a e838
00000190: 1480 4e2b cdf3 2838 4d42 bc35 7559 2937
000001a0: c5b6 a739 eeac 4839 6cee cbba 6226 6ab7
000001b0: 2699 c4b3 aa30 d339 dca4 a42f 35c2 7030
000001c0: 7f37 c109 1ee7 b0a7 4c0f 0100 872e 85b8
000001d0: 970c 8335 1221 29b8 bfed a525 167a 1f30
000001e0: 1736 91b9 8b60 2a39 6023 0100 19c0 0d0f
000001f0: 9ff7 ceaf 9189 3f16 da5e 3085 870a 4729
00000200: 6d07 f234 04ba eb1e 234d dfb9 e578 4d36
00000210: 2d4a f6b1 3caa 33b8 d402 c8af 55c1 e681
00000220: d84a 5839 ecfc 97b8 8ac2 0000 ca9b ee9f
00000230: df77 7737 bcd6 9eb7 1191 6d86 dc39 42ab
00000240: a0e3 e537 55d7 0cb6 b20f 6d31 ce0c a62b
00000250: b7bc 1ab7 bb78 af34 fa5e ffa4 7d3e 089c
00000260: 7b37 39a5 9245 20b9 27d6 6521 6c7e eca7
00000270: 2de8 f6a5 7eda 3737 91b4 9b37 8aef 2b30
00000280: 25be 0ba8 cd3e 8a38 18e3 01ba 375b 2138
00000290: a099 d120 6520 e0af 2a82 0000 b833 9034
000002a0: c1e8 a3ae 0b01 0000 849b b739 816c 0080
000002b0: e41a 96b8 a6e9 98b9 258b 3b32 77f1 8fb6
000002c0: b567 07ab 15cc 00b8 2f54 3a3a 53ef 84b9
000002d0: dfeb 349b 7dc2 44b9 0148 5425 e7a3 99b8
000002e0: 94df c3b9 b51a 89b6 3ac5 23ba 7795 7bb9
000002f0: fe05 183a 0856 e0b9 6c03 e8b8 a5d4 0a33
00000300: 77f7 42ba 8d1e 9b2c 7d49 c1b4 6699 7932
00000310: ba06 8917 4e28 92b6 df27 6ab8 0770 26b9
00000320: 0dbe 0839 4191 eb3a b0b6 abb8 bd49 bc3a
00000330: a61d 3d37 ec90 0ea2 92a0 ba83 7ad0 4dac
00000340: 65ad 76b6 f000 a4b9 4f1e 8d3a 402c 7ea5
00000350: 0eef 04b7 eef9 0e37 b9f0 a1b4 5f6a 00b8
00000360: 7b10 31ba e8e3 ee1e 126f 7baf d8d3 fb37
00000370: c0ac d335 fe68 dd36 669c 6e32 4b3e 0100
00000380: 8136 cdb8 1c44 9829 4319 0080 cb79 cd34
00000390: f5c8 e633 9e22 70b9 788f 5035 b91b 05b6
000003a0: 0b42 93b6 5500 eab9 0614 d3b7 3058 c5b9
000003b0: 0bc2 0fb7 c1b7 8abb 3db4 0bbb 338e 88bc
000003c0: f82d 8e32 5083 b8bb ab0b 313c e74f 08a2
000003d0: 0e8b b034 1ff0 933c 8d52 f9b0 6244 04b2
000003e0: a8ab 13ba bf88 81b8 2d58 3038 04e5 92b8
000003f0: 7256 8cb9 52ca 98bb b45b d03a a831 363c
3.679823e-13 0.0004258042 0.00017665919 -3.5872694e-10 -3.6106187e-05 6.600663e-17 -4.5816896e-06 -1.8708623e-16
-3.3476344e-13 -0.00026459148 -6.073253e-10 1.01129e-40 6.694781e-24 1.2793254e-08 2.2336464e-07 -2.3449431e-06
-1.3673552e-08 2.9753444e-10 3.374346e-07 0.00015820294 2.811733e-06 4.0064558e-07 -0.00015160996 3.588169e-11
-9.4554395e-08 -1.3614788e-09 2.8630355e-05 7.995234e-20 -9.12508e-10 -1.5058295e-05 7.2499607e-13 -8.918907e-05
5.3739132e-08 0.00037464977 5.790259e-15 2.2969654e-07 -9.2541525e-23 2.9955127e-12 0.0009444273 -0.00011218486
-0.0004868945 3.0961284e-05 4.575326e-10 -8.4213424e-16 3.143142e-05 7.1505584e-29 -1.6744275e-13 5.1634e-41
-1.350023e-13 2.5386722e-05 -0.00080603623 3.649651e-09 4.329667e-07 0.0005770352 -2.6228795e-08 -3.4071e-05
-9.4251e-10 0.000100142 1.17911e-40 -2.7671965e-09 1.1276541e-11 5.5771743e-10 0.00012726104 4.3665223e-05
1.3532915e-24 -3.3377055e-05 0.000705582 1.0456997e-11 0.0012825266 1.2074598e-07 -7.204858e-18 -0.00010210674
0.00023708663 5.327775e-08 -9.645019e-06 -0.00016278728 -2.920226e-10 -0.0004967423 -0.00016993035 0.00032037712
-2.7355804e-09 -3.204591e-07 5.9128546e-05 0.0022170797 -0.000105831714 -3.4686836e-17 -9.8389734e-08 5.46288e-07
3.6035897e-05 9.8188365e-18 -7.8229014e-08 5.283662e-08 -2.4638218e-06 -6.9701695e-05 0.0010166301 -0.00017942449
1.0851245e-08 -0.0006402027 0.00038644913 0.000110884685 7.3363646e-13 4.028138e-05 1.4026388e-06 1.0094013e-05
0.00031988896 0.00019137908 -0.0015558726 -1.3956424e-05 -9.154819e-08 0.00040281314 2.9948566e-10 8.7587476e-10
4.651525e-33 -4.910039e-15 9.7323e-41 -6.3506006e-05 9.763925e-07 -4.032354e-05 2.878404e-16 5.801736e-10
-0.00027696855 0.00016248428 1.04526e-40 6.9888334e-30 -3.7647127e-10 1.5472265e-25 -8.292902e-36 4.4196007e-14
4.5081416e-07 2.4958527e-20 -0.00042591346 3.061775e-06 -7.167975e-09 -4.283547e-05 -3.6381798e-10 -8.4766074e-38
0.00020627247 -7.2473515e-05 6.9787e-41 -1.0105465e-19 1.4750257e-05 -1.8935061e-05 -4.4681324e-35 -6.900294e-13
2.7404923e-05 -2.0986965e-06 3.449696e-09 1.1798563e-12 -9.223054e-06 3.2684133e-07 -1.1074952e-16 -4.507939e-22
-1.606499e-16 -0.00015284706 7.7871646e-19 -6.5640225e-15 -4.2831526e-16 1.0958522e-05 1.8561523e-05 6.2549843e-10
-7.757281e-15 6.59205e-05 -0.0004954799 3.847034e-05 3.5507638e-19 -4.076838e-10 4.6694e-41 2.685972e-07
-7.453727e-11 3.74e-43 0.00035020348 -3.8924e-41 -7.157566e-05 -0.0002916578 1.091647e-08 -4.2898423e-06
-4.8105557e-13 -3.0707644e-05 0.0007107881 -0.00025355312 -1.4965465e-22 -0.00018764469 1.8412465e-16 -7.326138e-05
-0.00037359877 -4.0860273e-06 -0.00062473456 -0.00023992905 0.0005799233 -0.00042788708 -0.000110632594 3.2324028e-08
-0.0007437388 4.4087568e-12 -3.600252e-07 1.4528586e-08 8.855116e-25 -4.355831e-06 -5.582708e-05 -0.00015872727
0.0001304077 0.0017972366 -8.1879436e-05 0.0014365237 1.1272181e-05 -1.932131e-18 -1.0968963e-36 -2.924798e-12
-3.6757785e-06 -0.00031281216 0.0010766479 -2.204598e-16 -7.923472e-06 8.522051e-06 -3.0163736e-07 -3.0616644e-05
-0.000675447 2.529349e-20 -2.2867777e-10 3.002018e-05 1.5771002e-06 6.598536e-06 1.3888984e-08 1.14182e-40
-9.785314e-05 6.761971e-14 -9.062e-42 3.8272842e-07 1.07467635e-07 -0.0002290108 7.769481e-07 -1.983468e-06
-4.38863e-06 -0.00044632205 -2.5162484e-05 -0.00037640473 -8.568643e-06 -0.004233331 -0.0021317147 -0.016669368
1.655188e-08 -0.005630888 0.0108060045 -1.8473737e-18 3.288373e-07 0.018058835 -1.8140597e-09 -7.69896e-09
-0.0005633184 -6.17667e-05 4.204379e-05 -7.00448e-05 -0.00026767288 -0.0046627903 0.001589647 0.011120237

encoder.linear2.bias f4 [118]
00000000: d1d2 a132 2126 3634 a267 6435 fd72 a233
00000010: e9e9 c1b4 32c6 0cb5 cb92 70b4 ec65 b035
00000020: 9bbf 2636 0e92 77b4 99b7 39b4 e3d0 1935
00000030: 2f39 a034 106a e434 d0a7 0134 b7e0 6636
00000040: a672 5ab5 407a 05b4 c662 1631 8eb5 15b5
00000050: 6e02 9d33 681e 3fb5 f57c 23b4 8ee2 36b2
00000060: 2e1a 1a33 15dd 3435 798c 1536 7fad 9b34
00000070: 787a 53b5 bbdb c035 f0ba 04b3 ea64 8132
00000080: 43ec 7e36 bc45 2b33 5f08 a9b5 2ffc 09b6
00000090: 5b9d 0f35 7993 0436 1da4 e6b4 dc10 0936
000000a0: cffe d234 fa63 bcb3 7be4 c1b3 cd8b 02b5
000000b0: a0e4 08b5 3abd 2335 d99e 1033 3b69 d334
000000c0: cf0d 0833 f18a afb4 7ff3 94b5 374e a236
000000d0: ee1b c7b5 f108 bbb4 a07c 0935 38dc 6db3
000000e0: 2e87 72b0 d9c4 61b5 0b1f 06b3 624f 9ab4
000000f0: ac6f e033 381c 3535 7018 04b3 5136 d236
00000100: 8ebb 84b4 438d 1c35 f5a3 29b4 551f 6d33
00000110: b5fc 6a34 7a1a 9535 806a 90b4 06db 17b3
00000120: ccd0 d3b2 02c9 6d34 c196 f2b3 2ac6 51b4
00000130: 0f47 1135 ad10 1034 7bc6 0436 83ba a134
00000140: 7486 d6b5 4f4d 7634 b4c2 3ab5 b6dd 14b5
00000150: 29e9 b2b6 9627 2d34 06fe 9ab3 79ba d333
00000160: bd03 1934 6a8b cbb3 352a 3a34 1b8d 8bb4
00000170: b9e4 e233 ebe8 8934 decd 97b3 ba69 f2b4
00000180: ecd6 3f33 c99a 41b4 5a64 f0b1 a97a 5135
00000190: af7a 0eb6 b184 0734 0d12 2734 2d00 f3b1
000001a0: 97b7 6bb4 2778 1334 10d3 d7b4 c100 6c34
000001b0: 8ae0 8333 fbe1 de31 de47 38b5 5413 91b4
000001c0: 2d11 0bb2 44f1 9bb4 a0f1 7bb5 604d 2435
000001d0: 0c3d f5b3 550e 3cb4
1.8838735e-08 1.6963942e-07 8.5087424e-07 7.564629e-08 -3.6119243e-07 -5.2442476e-07 -2.2405145e-07 1.3142685e-06
2.4847457e-06 -2.3056802e-07 -1.729626e-07 5.730091e-07 2.984393e-07 4.254548e-07 1.2075111e-07 3.4403472e-06
-8.1378164e-07 -1.2431065e-07 2.188402e-09 -5.577102e-07 7.311324e-08 -7.119729e-07 -1.5226017e-07 -1.0645307e-08
3.587973e-08 6.737694e-07 2.2284496e-06 2.8997235e-07 -7.878184e-07 1.4369065e-06 -3.0903664e-08 1.5063467e-08
3.7986472e-06 3.9877463e-08 -1.2593918e-06 -2.056138e-06 5.3500634e-07 1.9755373e-06 -4.2960247e-07 2.0424404e-06
3.9300946e-07 -8.772618e-08 -9.028823e-08 -4.863221e-07 -5.099664e-07 6.099759e-07 3.3672084e-08 3.9378378e-07
3.1677526e-08 -3.2697383e-07 -1.1097726e-06 4.8370816e-06 -1.4834784e-06 -3.483797e-07 5.121783e-07 -5.538115e-08
-8.823119e-10 -8.410548e-07 -3.122754e-08 -2.8742494e-07 1.0451126e-07 6.746882e-07 -3.075587e-08 6.264811e-06
-2.472338e-07 5.832009e-07 -1.5798999e-07 5.520936e-08 2.1884883e-07 1.1109071e-06 -2.689958e-07 -3.5356628e-08
-2.4658583e-08 2.2145471e-07 -1.1296425e-07 -1.9536733e-07 5.4120113e-07 1.3417112e-07 1.9785064e-06 3.0124292e-07
-1.5983373e-06 2.293866e-07 -6.957373e-07 -5.545693e-07 -5.331957e-06 1.6126282e-07 -7.2173904e-08 9.859372e-08
1.4250595e-07 -9.4782834e-08 1.7337955e-07 -2.5993435e-07 1.05655495e-07 2.568771e-07 -7.0689325e-08 -4.515294e-07
4.4666123e-08 -1.8030836e-07 -6.996328e-09 7.803706e-07 -2.123106e-06 1.2621128e-07 1.5559654e-07 -7.072251e-09
-2.195287e-07 1.3734153e-07 -4.020044e-07 2.1979487e-07 6.141006e-08 6.4867414e-09 -6.864992e-07 -2.7022418e-07
-8.09477e-09 -2.9046544e-07 -9.3856397e-07 6.1207356e-07 -1.1419806e-07 -1.7514078e-07

encoder.norm.weight f4 [236]
00000000: a572 d139 9396 523e ce54 703d 8d25 603a
00000010: 55c3 77b9 ffb4 a035 fc79 12bd bce6 4a36
00000020: 087e 38b7 f062 e63d b237 14b7 ac0f a333
00000030: 61b1 fe37 518d ce34 824e a03c 42dd 463c
00000040: 21db 11b9 4de1 2536 85c1 c139 aeb8 1abe
00000050: c8e6 b636 069e 3f2c 21fd b93d 0569 fdb6
00000060: 6f5a 6ab9 58f8 27b1 8fef 3d3d d4e4 5d38
00000070: 6edb 6db9 67c3 143d 4e8e 8790 3de8 b93d
00000080: 4601 2239 c41a 303e 5b7c cb39 49b6 6236
00000090: 27ee 713b 1f93 0236 30c4 e73e 0a94 753d
000000a0: 1dd8 b93e b5a6 533a eebf 8c33 aef6 ab32
000000b0: dd6e e13d 0360 af39 20d1 5d3a 9aaa 6b39
000000c0: cb20 7138 cae6 973c 7d8d 863e 5d4b 25ae
000000d0: de98 12b8 c849 603e ec01 2d39 724a c93c
000000e0: a55c 4e3b 54e4 a03c ae9b 0aab 34f5 01ad
000000f0: f5f6 c4b8 fe04 9132 84f7 d33e f54d b4b8
00000100: 76c0 0e3a 56e2 0c3e 3a59 0b3e fbef e638
00000110: 6f8c e73e dbce c831 b76c 983b feb6 b23d
00000120: 08e2 b13d 2c26 8035 4900 443c 6689 6d3d
00000130: 98c4 17b2 e8cc 7a3e 04df e23e cf55 323e
00000140: f17c b2ba f530 313c 3e66 673d feab cb3e
00000150: 86bf d43c 7d0a b83a ac3d 053a 8120 a7b5
00000160: b5a7 a43b 2715 9d35 d023 4130 0301 d8b9
00000170: b423 ffb7 55c3 1b3e 6a18 b73e 5f12 cdbd
00000180: 9ade fdba 855b 8fbe a0a7 f73e 2841 343e
00000190: af45 8c35 6abb 953e 751d cd38 4208 ca2e
000001a0: e1e2 a43d 9342 063d c119 3f3e 7210 d33a
000001b0: ad60 1439 a359 f93d 1145 c838 2bdc ac39
000001c0: d56a ec39 2fe1 222d 6ffd f635 bd90 b63d
000001d0: 4754 863c 5692 213e 34ab 02b3 1f4e 853b
000001e0: e92e 1c3e b0c8 9e3d 5d24 a132 2aa9 4239
000001f0: 31fe 87b6 629c 5832 fd07 6b39 2e45 8a37
00000200: 3fd4 1839 9589 c0b3 0246 ad3e c36b 89b1
00000210: 0922 11b9 2723 4e3e b54b 8519 1a23 c837
00000220: 1f76 3a3d 0114 303e cbe0 85b7 79a1 38b4
00000230: 5132 403d 2728 de3c 8446 1db8 5128 9a38
00000240: 5514 d73d c51f a53b fbaa 683a 7aa0 0336
00000250: 3498 b82d f073 57b9 f83f a523 8321 1c32
00000260: e755 2f3b b242 d73d 85e2 1b2f 040e e13b
00000270: 014a 8e34 6ced b6bb eb45 acb4 9bfe 0bba
00000280: c15d 7338 8aa2 223e 953d 453e cef3 972b
00000290: cdfe 093b a5fb da38 cd11 9735 dfe9 1538
000002a0: c96b b138 4131 1830 88e7 0f3e ba2b 1fb2
000002b0: 0c7a 913d 9fb4 c23d 17dd 9039 24c3 7d2d
000002c0: cd9a 63b8 75e5 513c 03a4 5a3e 52a6 cb3d
000002d0: 2d20 263a bc17 e33d 9148 9a33 a2f8 1a3d
000002e0: cb4a b83e a586 db3a 8baa 5d3e 5052 f93d
000002f0: b774 963d 5e85 993e f146 5d3e 1263 3e3b
00000300: 9508 723e a2ba 0326 0b6b c6bb a945 9a38
00000310: 71ff 63ba d49c e53b e906 af3c 0e00 3d3e
00000320: d3d6 243e 1a59 d33e 39a5 c73d 8b9b 673e
00000330: 77ac 153c c76b 14b5 441f 0639 369b 00b6
00000340: dbad a53c eb01 dc3e 11b3 023f 21b3 2e38
00000350: 33a3 8e3c fc31 ba3d 0f56 3a39 6a28 433d
00000360: 5fb3 bc3e 8715 5e3a 2699 43b8 e5d4 0936
00000370: abb1 5a38 98fe e63b 2eb2 073a 47b7 feaf
00000380: a03f e33d 29b8 8831 1c80 943b b12f fc3a
00000390: 2210 3439 7967 323e ac4a 773b 0d10 ef39
000003a0: a16e 203b 86e5 db3e 7fbe d03b cd51 803e
0.00039949003 0.20565252 0.058674626 0.00085505174 -0.00023628522 1.1973606e-06 -0.035760865 3.023465e-06
-1.0996599e-05 0.112493396 -8.834455e-06 7.59313e-08 3.0361758e-05 3.847331e-07 0.019568685 0.012137713
-0.0001390991 2.4718058e-06 0.00036956012 -0.15109512 5.450889e-06 2.7230453e-12 0.09081484 -7.5522134e-06
-0.00022349668 -2.4442866e-09 0.04637104 5.290362e-05 -0.00022683825 0.036319163 -5.3467366e-29 0.09077499
0.00015449998 0.1719771 0.0003881183 3.3782728e-06 0.0036915631 1.9457145e-06 0.45266867 0.059955634
0.36297694 0.00080738525 6.55417e-08 2.0019197e-08 0.110074736 0.00033450135 0.0008461643 0.000224749
5.748942e-05 0.018542666 0.26279822 -3.7583592e-11 -3.495148e-05 0.21903145 0.00016499282 0.024571631
0.0031488326 0.019640125 -4.92435e-13 -7.387247e-12 -9.3920076e-05 1.6882492e-08 0.41399777 -8.5975895e-05
0.0005445549 0.13758215 0.13608256 0.000110119545 0.4522433 5.844283e-09 0.0046516317 0.08726309
0.0868569 9.547853e-07 0.011962959 0.05799236 -8.834057e-09 0.24492228 0.44310772 0.17415546
-0.0013617558 0.010814895 0.05649399 0.39779657 0.025970232 0.0014041212 0.0005082737 -1.245193e-06
0.005024875 1.1703568e-06 7.0263884e-10 -0.00041199484 -3.0414994e-05 0.15211232 0.35760814 -0.1001327
-0.0019368709 -0.2799951 0.48370075 0.1760298 1.0451093e-06 0.29244548 9.7806485e-05 9.1873634e-11
0.08051086 0.032778334 0.18662168 0.0016102924 0.00014150394 0.121753 9.549608e-05 0.00032970434
0.00045093024 9.258635e-12 1.8402187e-06 0.089143254 0.016397608 0.15778479 -3.0423692e-08 0.0040681507
0.1525227 0.07753122 1.8759403e-08 0.000185643 -4.0529053e-06 1.2608412e-08 0.00022414322 1.6483096e-05
0.00014574917 -8.965723e-08 0.33842474 -3.999476e-09 -0.00013840957 0.20130597 1.3782456e-23 2.3858203e-05
0.045522805 0.17195131 -1.5959513e-05 -1.7195079e-07 0.046922985 0.027118756 -3.749739e-05 7.350802e-05
0.10501925 0.0050391876 0.0008875576 1.961393e-06 2.098597e-11 -0.00020547188 1.7916428e-17 9.088015e-09
0.0026754083 0.10510768 1.4177644e-10 0.006868126 2.6503406e-07 -0.005582502 -3.208837e-07 -0.00053403684
5.802303e-05 0.15882316 0.19261773 1.0796865e-12 0.0021056414 0.000104419225 1.1255557e-06 3.5742178e-05
8.460094e-05 5.536727e-10 0.14053166 -9.26496e-09 0.07103357 0.09507107 0.00027630545 1.4424715e-11
-5.4265187e-05 0.0128110545 0.21351628 0.099438325 0.0006337192 0.11088511 7.1843836e-08 0.03783477
0.35994563 0.0016748501 0.21647088 0.12173903 0.0734648 0.29984564 0.21609093 0.002905075
0.23636086 4.570269e-16 -0.006055241 7.3562675e-05 -0.00086974265 0.0070072208 0.0213656 0.18457052
0.16097574 0.41278917 0.097483106 0.22617929 0.009135357 -5.5291133e-07 0.00012790883 -1.916383e-06
0.020224502 0.42970213 0.51054484 4.165166e-05 0.017411804 0.09091565 0.00017770402 0.047645964
0.368556 0.0008471836 -4.6634254e-05 2.0538512e-06 5.2140716e-05 0.007049393 0.0005176392 -4.6332557e-10
0.1109612 3.9790575e-09 0.0045318734 0.0019240287 0.00017172148 0.17422284 0.0037733717 0.0004559759
0.0024480002 0.4294855 0.006370365 0.2506241

encoder.norm.bias f4 [236]
00000000: be8a 65bb 680e a73e 4b0d 443c b6bd 12bc
00000010: 3c68 27ba fd15 0bb6 a862 86ba 1c4a efb7
00000020: 9a30 39b9 adeb 223e e1b6 f4b7 a018 98b9
00000030: d50c 2ab9 5b5d 9fbc a46a eabb 348f 08bc
00000040: 0559 72ba eba7 4eb7 f1af aaba 174f ae3d
00000050: eef8 29bb 4d40 05b7 8854 643e 3d20 ccb8
00000060: e864 bbba 9f15 3fb1 f27d febc 4939 70ba
00000070: 0a9e c1b9 7a3a 07bd 06a1 4ca5 47f6 103d
00000080: a3f0 b3bb 9150 ea3e 15ea 27bc 55fe 97ba
00000090: f813 7fbc 0fd2 7cb8 1dcc 2c3f 2432 30bd
000000a0: 46e4 373f 0393 6cbb 002d 9ab5 0413 f0b3
000000b0: b5a7 b1bc ae40 b0ba 3c88 55bb 5e0d 90bb
000000c0: 4ea3 97b9 3618 a73d 7afe 08be 95d0 eeb7
000000d0: 4aca f7b8 0d73 833c 9e59 b1b9 e7de 2abd
000000e0: b074 edba 26ed 513d 807b c6ae 0de9 1fb4
000000f0: 826a bcb9 93b7 38b7 5a91 9d3f 83c5 17b9
00000100: 2233 96bb 7301 163e cd22 473e 2d34 babc
00000110: 6b2d 2e3f 8a5e 06b6 8dcb 90bc 68fa 9cbd
00000120: f64c fc3d cad3 f9b8 f453 b6bc 7242 9bbd
00000130: 90c2 c7b8 0fd4 633e a56b 8ebc ad5f e03e
00000140: dc46 55bb 4774 89bc 1ac0 59bd cbd0 f03e
00000150: 3b77 b83d d066 18bc 6a7d 01bb 17eb 98b7
00000160: 8287 b13c 46c9 deb7 3845 f8b8 e8b6 44ba
00000170: 5fca 30ba 1725 f9bd 216e 0d3f be33 2e3e
00000180: 6ca8 6abb 2a36 d83e 3019 203f 9e67 febd
00000190: f8b2 2bb8 bbd9 fc3d 222a 44b9 4d61 8cb9
000001a0: b747 0f3e 614f 843d abef 703e 899f 84bc
000001b0: a5aa 8eba c90d 2c3c 89aa a7ba b3d7 cfba
000001c0: 247f bbbb 70cd ddad cc2e 99b6 3c60 823d
000001d0: d7d3 2cbd 913d 153e 7a0c 21b9 e31c 98bc
000001e0: c98d cf3d ba2f 073b 82da b8b3 3a54 1bbb
000001f0: b274 b7b7 bfca 81b3 d222 50ba 069e 7fb8
00000200: 116d 50bb c8c4 8db9 abc7 13be f778 cbb5
00000210: d34e cbb9 984c 12be 5668 2da4 c3dd 6cbc
00000220: df1a 4d3d c859 3f3e f53c 87b8 3569 84b7
00000230: 505d 213c e652 12bd 877b 84ba 2372 a6b9
00000240: ec41 cdbb 27c9 a4bc e74e 98ba 262a 9fbb
00000250: 5fbf 23b9 3d4c 51ba 2e87 50bb c354 7dbb
00000260: c681 45bd 9dfc d4bd e3cf 0cb9 a56f 2bbd
00000270: 2051 73ba ead3 053b f5ce 9bba cf1b bfba
00000280: 7037 27bb a90a 3e3e b700 293d 95de bdac
00000290: 4f84 75bc 111e 73ba dc23 08b8 a486 82ba
000002a0: 0622 00b8 6e15 84ba 2676 4c3d 457a 26b7
000002b0: 40ad fd3b a938 f0bd c076 9dba 0f32 9eb9
000002c0: 59ca 82b9 6b76 a3bc 1204 f83e 54e2 983e
000002d0: d02c 8ebc 2a3c 8f3d 80df b8ba 60c6 4dbd
000002e0: e826 01be ee1b 0d3a b540 49bd e094 993d
000002f0: 7c54 9b3d c05b 203f 5706 01be b61e f9bb
00000300: 88f5 213f c06f 34b6 b2c7 a7bb d3cc 02b9
00000310: 453a b0bb dc83 503c b463 44bb bcb6 b43e
00000320: abb7 833e 097f 173f f6b4 95bd 700d 8e3e
00000330: f238 853c c1e4 53bc 022a 4aba ae89 76b6
00000340: b54c 82bc ab93 ff3d 8ab0 293f 0ff3 5ab8
00000350: b966 ce3b 6135 34bd 892a c5ba 7fb1 24bd
00000360: 3050 8ebe 1623 05bc c74d 73ba 27eb 85b6
00000370: 4536 3ebb ed31 c43b 8075 a2ba 75dc 58b4
00000380: eb78 a63e a5d3 04b6 4d2c e0bb d9d6 2bbb
00000390: 7c8c 54ba b470 a33d 619c 9fbb 286b 0abb
000003a0: 9c09 043c b7a8 bfbc 5124 c43c b28c 893e
-0.0035025324 0.3262818 0.01196606 -0.008956363 -0.00063860766 -2.0725413e-06 -0.001025279 -2.852553e-05
-0.0001766108 0.15910216 -2.9172226e-05 -0.00029010046 -0.00016217244 -0.019453695 -0.007153826 -0.008334924
-0.00092448323 -1.2317653e-05 -0.0013022405 0.08511179 -0.0025935727 -7.942389e-06 0.22297871 -9.733483e-05
-0.001429704 -2.7806448e-09 -0.031065915 -0.00091638096 -0.00036929577 -0.033014752 -1.7748736e-16 0.03539112
-0.0054913326 0.45764592 -0.010248681 -0.0011596183 -0.015568726 -6.0277114e-05 0.6749895 -0.043016568
0.7183269 -0.0036098368 -1.1486991e-06 -1.117933e-07 -0.021686414 -0.001344701 -0.0032582423 -0.0043961247
-0.00028922636 0.08158915 -0.13378325 -2.846894e-05 -0.00011815557 0.016046071 -0.0003382684 -0.041716482
-0.0018116441 0.051251553 -9.0259356e-11 -1.4892812e-07 -0.0003593751 -1.1009996e-05 1.2309983 -0.00014474061
-0.004583732 0.1464899 0.19446869 -0.022729957 0.6803805 -2.0022585e-06 -0.017675186 -0.07664949
0.12319367 -0.00011912694 -0.022256829 -0.07581033 -9.5252995e-05 0.22248863 -0.017385313 0.43822995
-0.0032543456 -0.016779078 -0.053161718 0.47034296 0.090071164 -0.009301856 -0.001975859 -1.8229284e-05
0.02167106 -2.6558188e-05 -0.000118384545 -0.0007504062 -0.0006744023 -0.121652775 0.5524617 0.17011926
-0.0035805954 0.42228824 0.62538433 -0.12422107 -4.0936255e-05 0.12346216 -0.00018707712 -0.00026775376
0.13992201 0.06460453 0.23528926 -0.016189354 -0.0010884596 0.0105013335 -0.0012791912 -0.001585713
-0.0057219435 -2.5216024e-11 -4.565203e-06 0.063660115 -0.042194214 0.14574267 -0.00015358804 -0.018568462
0.10134465 0.0020627812 -8.607914e-08 -0.0023701326 -2.186964e-05 -6.04391e-08 -0.0007939759 -6.094391e-05
-0.003180329 -0.0002704023 -0.14431636 -1.5159884e-06 -0.00038777906 -0.1428703 -3.760177e-17 -0.014457169
0.050074454 0.18686593 -6.448656e-05 -1.5784617e-05 0.009848908 -0.03572359 -0.0010107615 -0.00031747026
-0.006263962 -0.020115448 -0.0011620194 -0.0048573194 -0.00015616183 -0.00079840777 -0.0031818855 -0.0038655258
-0.048219465 -0.10399745 -0.00013428884 -0.04185452 -0.0009281803 0.00204205 -0.001188724 -0.0014580431
-0.002551522 0.18558754 0.041260447 -5.3964147e-12 -0.014985158 -0.00092741946 -3.2458323e-05 -0.0009958339
-3.0549265e-05 -0.0010077187 0.049917363 -9.922839e-06 0.0077416003 -0.11729557 -0.001201354 -0.00030173405
-0.00024946293 -0.019953927 0.48440605 0.29860175 -0.017355353 0.06993897 -0.0014104694 -0.050238013
-0.12612498 0.0005382885 -0.049133975 0.07499099 0.075844735 0.6264 -0.12600075 -0.007602538
0.63265276 -2.6887137e-06 -0.005120241 -0.00012474069 -0.00537804 0.01272675 -0.0029966654 0.35295665
0.25726065 0.59178215 -0.07309906 0.27744627 0.016262505 -0.012932957 -0.0007711948 -3.6736997e-06
-0.015905717 0.12479337 0.66285 -5.2201616e-05 0.0062988666 -0.04399622 -0.0015042584 -0.040208336
-0.27795553 -0.008126041 -0.0009281304 -3.991084e-06 -0.0029024046 0.005987397 -0.0012394637 -2.019677e-07
0.32514128 -1.9792726e-06 -0.0068412186 -0.0026220588 -0.0008108092 0.07980481 -0.0048709367 -0.0021121
0.008058932 -0.02339588 0.023943098 0.26865155

encoder.norm.running_mean f4 [236]
00000000: a9c5 c9be b1b2 37c0 6820 3b3f 0514 9f39
00000010: b453 e7be df0a af3a 12cb 21be ff24 6c3f
00000020: 4aab 0f3e d766 153f f66b 53bc 42c9 41bd
00000030: 76ae e2bd 9b93 643d b745 8f3e b78f fc3c
00000040: 1962 083d 8029 0cbd 057c 253c cae6 c8c0
00000050: ac57 acbc fbbf 023e 2ffa 0fc1 6323 c43d
00000060: 5d8a 363c 39d5 d43a 289a 933f 0082 d7be
00000070: 04f4 14c0 375b 223f b39b 933e 82c4 8b40
00000080: 47cd ba3d ce2d 0741 721d 62be d6b1 97bd
00000090: cb5a c23b 388f c3bc a6bf 5fbf 787a 593f
000000a0: 3518 e9c1 898a c3bd e528 a7bd 7b15 103e
000000b0: cae9 6040 fb4f 70ba 71b3 aebd 6cd9 c5be
000000c0: 2c37 d63a 83fe 3140 eb33 e4c0 2339 ed3f
000000d0: bd5d 44bc 2bf9 32bc b259 25bb a51a cdbe
000000e0: 0532 5ab6 3250 1bc0 61b0 a6b9 03f4 e8be
000000f0: d359 713e a2d2 8437 1d01 8041 21d3 4cbf
00000100: 46d0 4639 2f7e 0fc0 029b 943e 92e3 a338
00000110: 15ef a3be 9f6e 753c 49b2 08bc bcb0 5fbf
00000120: 44ac 38bf 9b40 bebc cc96 21bd 4e08 29c0
00000130: 7655 c73b 9c8f 363f da68 cb40 5ed1 3041
00000140: 823c fabc a1ed e73d b46c ad3f bda3 d7bf
00000150: 5fe3 efbf d00d 21c0 8673 babe f5f4 e13f
00000160: 2567 493f fa71 983f 70db c33d 4de6 5fbc
00000170: b5fb e53c 7666 2040 d75e c7c0 2d91 8b40
00000180: 9fca 3a3c be50 8640 7987 743e aae3 6440
00000190: 29e9 bdbe 2b68 1841 4b9e 813c 7116 76be
000001a0: 4c02 0bbe 71d3 0e40 603c 3ac0 869e a43d
000001b0: b5c2 0f3d e59d 483e 37f2 6dbf a224 b7b9
000001c0: 0dde d43e c752 2b3c 0e5b 293a 1766 c840
000001d0: b214 683e 3147 b13f b8f2 dd3d 7ab8 10bc
000001e0: fe76 49c0 7412 97be 82cc 9e3b 99d7 013b
000001f0: 0407 7abe 8522 cabc 488c 613c e92f 2ebd
00000200: 312c 073d c1ed 66bc 0e3b 86c0 183a 823e
00000210: be87 903d 95f8 8d40 c116 3536 25ee ab3a
00000220: ed14 7c3e fcb1 18c0 1bc0 baba 3329 22bd
00000230: de16 c5bd 21f2 3abe 59e0 09bb 0176 be36
00000240: d24d 58bf 41d6 a0c0 6368 8c39 1102 e2bd
00000250: f722 013b 15c0 76be 92fb f4be ef55 9d3d
00000260: ff68 d7bd 2bba 09c0 6e2f 08be 9ee7 ddbf
00000270: a940 54ba f294 c33b a9e6 9abe 3185 99bd
00000280: 8e51 03bc d6d8 b03f 228e aec0 4971 803f
00000290: d319 f4b4 0284 8e3f f897 cc3c 2ce3 68c0
000002a0: 2032 883a 5de0 ccbe 77df b340 966c 2abc
000002b0: 5605 2140 f2a0 17c0 a8d7 30bb 801e e93f
000002c0: 6bc4 d63d 297e cdbe eb58 bec0 059d d3c0
000002d0: 36d9 2cbf edc0 323f 4fe5 4a3c c419 12bf
000002e0: 475b 70c1 5ae3 89bc 63bd f4c0 8a2d 71c0
000002f0: 7024 653f 058a b6c1 788a 0f41 17a0 83bc
00000300: d9b9 36c1 bf9e 1740 3767 bc3d 519d 513d
00000310: 17a8 093c fde0 b4bf 3834 523e c15d 51c1
00000320: 3d40 51c0 32b4 23c0 fb07 a4bf 0fee a040
00000330: 61fd 3a3f 713d 90c0 0f18 64be c4f7 97bf
00000340: 9848 a93e 0587 f840 b1ef 34c0 4011 c736
00000350: e83a 9dbe 6823 a83f d6bd 12bd a564 563f
00000360: a281 9dbf 3b9d 393d 8d99 04c0 b29d b53f
00000370: a82d 7cbc 3160 0d3d 7831 ab3d cbbf 573d
00000380: dbae 0ec1 4278 19bb cfc0 1fbb 9cd8 043e
00000390: 757d 64bd cd9d 0241 3c1a a13d 38cd 813c
000003a0: d607 05bf 1443 abc0 4b6f 2cbf a267 5641
-0.39408615 -2.8702815 0.73096323 0.0003034176 -0.45181048 0.001335468 -0.15800121 0.9224395
0.14030185 0.58360046 -0.012904158 -0.047311075 -0.11068432 0.05580483 0.27982876 0.030830247
0.03329668 -0.034219265 0.010100369 -6.2781725 -0.021037899 0.12768547 -8.99858 0.09577062
0.011141387 0.0016237862 1.153142 -0.4209137 -2.3273935 0.6342043 0.28829727 4.367738
0.09121185 8.448683 -0.22081545 -0.074069664 0.0059312335 -0.023872003 -0.8740181 0.849525
-29.13682 -0.09547908 -0.08162097 0.14070694 3.5142694 -0.00091671915 -0.085303195 -0.38642442
0.0016343347 2.7811592 -7.1313376 1.8533062 -0.01198524 -0.010923664 -0.0025230465 -0.4005939
-3.2513647e-06 -2.4267697 -0.000317934 -0.45498666 0.23569421 1.583371e-05 16.000544 -0.8000966
0.0001896034 -2.2420766 0.29024512 7.814834e-05 -0.32018343 0.014979987 -0.008343288 -0.8737905
-0.72137856 -0.023224166 -0.03945045 -2.6411319 0.006083186 0.7131288 6.3565493 11.051115
-0.03054643 0.11324621 1.3548799 -1.6846844 -1.8741263 -2.516468 -0.36416262 1.765288
0.7867301 1.1909783 0.09563339 -0.013665748 0.028074125 2.5062537 -6.230327 4.3614717
0.011400848 4.197356 0.23879804 3.5763955 -0.3709195 9.525432 0.01582255 -0.24031998
-0.13575095 2.2316554 -2.909935 0.080380484 0.035097796 0.19591482 -0.92947716 -0.00034931774
0.4157566 0.010456747 0.00064604066 6.262462 0.22664145 1.3849851 0.108373106 -0.008833045
-3.1478877 -0.29506266 0.0048461566 0.0019812344 -0.24416739 -0.024674663 0.013766356 -0.04252616
0.03300113 -0.014094771 -4.194709 0.25434947 0.07057141 4.4365945 2.6984346e-06 0.0013117237
0.24617358 -2.3858633 -0.0014247926 -0.039590072 -0.09623502 -0.18256427 -0.0021038263 5.6761787e-06
-0.84493744 -5.026154 0.00026780655 -0.110355504 0.0019704679 -0.24096711 -0.47848183 0.07682406
-0.10518073 -2.1519878 -0.13299343 -1.7336309 -0.00080967933 0.0059686834 -0.30254105 -0.07496107
-0.00801505 1.3816173 -5.45485 1.0034572 -4.546733e-07 1.1134036 0.024974808 -3.6388655
0.0010390915 -0.40014926 5.6210284 -0.0104018655 2.5159507 -2.3691983 -0.002698401 1.8212433
0.104866825 -0.40135315 -5.9483542 -6.6129174 -0.6751894 0.6982563 0.012383773 -0.57070565
-15.0222845 -0.016832042 -7.6481185 -3.7684045 0.89508724 -22.817392 8.971306 -0.016067548
-11.420373 2.369064 0.09199374 0.05117542 0.008401892 -1.4131161 0.20527732 -13.085389
-3.2695458 -2.5578732 -1.2814935 5.02906 0.73042876 -4.5075 -0.22274803 -1.1872487
0.33063197 7.766482 -2.8271296 5.9326703e-06 -0.30709004 1.3135805 -0.035825573 0.8374732
-1.2305186 0.045315962 -2.071872 1.418875 -0.015391745 0.034515563 0.08359045 0.052673142
-8.917689 -0.0023417627 -0.0024376397 0.12973255 -0.055783708 8.163526 0.07866332 0.015844926
-0.5196508 -5.3519382 -0.6735732 13.400301

encoder.norm.running_var f4 [236]
00000000: f781 e53b 52ce 953f 97aa 953c fef5 8e31
00000010: b248 813d d9ea bb33 6c04 143c b900 303d
00000020: add3 e43b 96a5 a63e bce7 0537 3f51 dd38
00000030: 39e8 103a b7e3 6d3c ca05 fa3b e078 c93a
00000040: b2b8 013d 9e3d 053c 09d3 b73a 845e a03f
00000050: e317 453a 8fc3 3f3a 231f 2a40 ef5a 043b
00000060: 7d6d e236 06b4 fd33 a873 303d c7eb 023c
00000070: 9925 7a3e 38e1 9d3c 9684 773b 503f bc3f
00000080: df1c b23b cda4 4540 78ee 103b f4d6 7939
00000090: b801 e138 b97e d837 406b 1040 16fe 373d
000000a0: 13f9 fa41 79da eb39 e1a6 ad39 1983 6c3c
000000b0: 8373 393f 8f4b 1b33 97ba ae39 4471 5e3c
000000c0: 46cd 0234 2047 8f3e 785c c83f 0018 1f3e
000000d0: f094 d536 813b e03e 2f28 a134 708f 633c
000000e0: ea45 dc2d 4ecb 113f db15 1b35 2407 173c
000000f0: 5669 133b 6a95 472d 3519 2442 55ae f23c
00000100: 0a1d 1734 438e fc3e c3c4 a23e f939 a032
00000110: 3f48 4b40 2c37 2439 21e7 ad37 8624 653d
00000120: 40bf 943e bb51 cf37 a477 a439 ac81 a43e
00000130: be89 0736 0e7b f33e 7abd 6e40 b85f 8040
00000140: c654 e03c 1b4e 223a da58 043e f7bd e63f
00000150: e433 df3e d0b3 933e 632a c13b 3186 663e
00000160: eb39 b13c 4edd fd3d 289c d239 544d f23a
00000170: 5c6f bb38 a466 a53e 509d 1a40 7cae 583f
00000180: c5fb f63a dabc ce3f 1de0 3041 5689 253f
00000190: bb9e de3b 6970 4940 6451 4637 237c df3c
000001a0: a206 353e a613 0d3e 9ba1 253f 9dc7 ab39
000001b0: 2226 bb39 d40a fe3d 954f 233d c24b bd31
000001c0: b157 ff3b 8cae 8a37 7328 1a33 f1ab bc3f
000001d0: f138 d03c a628 e53e 13db 0a3a 0f52 2139
000001e0: 89c9 f83e 44f2 4f3d 067f 2338 5c08 d037
000001f0: 3025 303b 2f77 e838 0d60 c53a 6214 ab38
00000200: 8044 2c38 a7b3 1537 65cf ae3f 6c1e 773b
00000210: 2d76 ed39 346e 653f aa5a a32d c3b8 ed35
00000220: d490 373d 3ec8 ba3e 1dd7 b533 cc44 9438
00000230: e614 4e3c 826d 263c 1577 5f34 3c69 742e
00000240: 6823 803e 2783 923f 6b30 5d31 0f07 323a
00000250: a94a 6c38 b91f 3c3b ba10 133c 47ca 0a3a
00000260: f890 043a 42e4 a53e 36d2 933a c469 203e
00000270: 397c 3737 6cbd a739 1c78 a83b 073a 7f39
00000280: 1fac 3d37 780b cc3e 360e 2b40 aca6 9c3d
00000290: adfb 2728 fce6 723d 1944 eb37 5666 193f
000002a0: bccc 9433 ec38 f33b efe7 783f 46e3 a736
000002b0: 4dd1 873e 7d31 6b3e 9255 b034 cf69 3b3e
000002c0: 6b41 043a 68f9 e83b 416b df40 4319 8840
000002d0: 0184 d63c 30ad 0e3e 0df9 f739 4888 a63c
000002e0: 174d 0241 8b1c 5b37 cff3 e93f 3835 383f
000002f0: 8044 003e b069 8941 cb77 5840 c743 3938
00000300: f9c9 9a41 d8a7 013f 80df 033b 434c fb38
00000310: fae5 7936 b57f 353e 076b 1c3b c5ed bb40
00000320: b495 d33f 6d1e 5140 413a 1c3e 7f80 f63e
00000330: 65c6 8f3c ad40 6e3f ff6b 203b 4955 823d
00000340: 61ee cc3b 3540 d540 ad6c 7d40 4b8e d231
00000350: 6b2c a63b bcd4 ef3d 2bc1 7138 73fb 063d
00000360: 6967 0740 b289 9639 6735 4340 37df c63d
00000370: 5b0e 5837 b875 233a b6f2 233c 0462 a43a
00000380: 6095 0441 0756 8a34 eaab 1f37 5731 803a
00000390: 17f6 7c39 072b 2940 8fe9 483a 91ef 3937
000003a0: 853b 2d3c 4325 3840 0a67 053d b852 db40
0.0070040184 1.1703589 0.01826982 4.16071e-09 0.06312694 8.7505846e-08 0.009034257 0.04296944
0.0069832415 0.32548207 7.981373e-06 0.000105532345 0.0005527768 0.0145196235 0.0076300846 0.0015371107
0.03167028 0.008132366 0.0014024685 1.2528844 0.0007518513 0.0007315212 2.6581504 0.0020195802
6.748071e-06 1.18139766e-07 0.04307905 0.007990784 0.24428405 0.019272432 0.0037768236 1.4706821
0.0054355706 3.0881836 0.0022114795 0.00023826567 0.00010729156 2.5808216e-05 2.256546 0.04492005
31.371618 0.00044985468 0.00033121466 0.014435553 0.7244188 3.615747e-08 0.00033326886 0.013576809
1.2181872e-07 0.27983952 1.5653219 0.15536499 6.3652333e-06 0.43795398 3.0017824e-07 0.013889179
2.5042152e-11 0.56950843 5.7773804e-07 0.009218011 0.0022493205 1.1345017e-11 41.024616 0.029624144
1.4073535e-07 0.49327287 0.31790742 1.8652814e-08 3.1762846 0.00015660812 2.0730835e-05 0.055943035
0.29052162 2.4714382e-05 0.00031369657 0.32130182 2.0196744e-06 0.4755482 3.7303147 4.0116844
0.027384173 0.0006191448 0.12924519 1.8026723 0.43594277 0.28848124 0.0058949455 0.22512127
0.021634063 0.12395726 0.00040170667 0.001848618 8.937597e-05 0.3230487 2.4158516 0.8464124
0.0018843344 1.6151383 11.054715 0.64662683 0.0067938245 3.147486 1.182067e-05 0.027280873
0.17678311 0.13777027 0.64699715 0.00032764385 0.0003569583 0.12404409 0.039870817 5.5092366e-09
0.007792436 1.6532162e-05 3.5892707e-08 1.4739972 0.025417777 0.44757575 0.0005296927 0.00015384726
0.4859126 0.050768152 3.898053e-05 2.4799425e-05 0.0026877634 0.00011084822 0.0015058533 8.157712e-05
4.107179e-05 8.922921e-06 1.3657042 0.0037707342 0.0004529221 0.8962128 1.8571217e-11 1.7711649e-06
0.044815853 0.36480898 8.467598e-08 7.070004e-05 0.012578225 0.010157945 2.0811815e-07 5.5572644e-11
0.25027013 1.1446275 3.2187255e-09 0.0006791213 5.6336317e-05 0.0028705432 0.008976156 0.0005294424
0.00050570024 0.3240071 0.0011277858 0.15665346 1.0936573e-05 0.00031993852 0.0051412713 0.00024340312
1.1305353e-05 0.398525 2.6727424 0.07648978 9.324936e-15 0.059302315 2.8045893e-05 0.5992178
6.929028e-08 0.007422557 0.972289 5.003446e-06 0.2652687 0.22968097 3.2844815e-07 0.18302082
0.00050451484 0.0071098097 6.9818425 4.2530837 0.026185991 0.13933253 0.00047297069 0.020328656
8.143821 1.3060063e-05 1.827753 0.71956205 0.1252613 17.176605 3.3823116 4.417056e-05
19.34862 0.50646734 0.002012223 0.000119828175 3.7237755e-06 0.17724498 0.0023867504 5.8727746
1.6530061 3.267482 0.15256597 0.4814491 0.017550657 0.9306744 0.0024478433 0.06363923
0.006254003 6.664088 3.959758 6.1279812e-09 0.005071213 0.11710498 5.763878e-05 0.032954644
2.1156867 0.0002871282 3.0501344 0.097105436 1.2877946e-05 0.0006235498 0.010006597 0.0012541418
8.2864685 2.5767096e-07 9.517165e-06 0.000978033 0.00024124268 2.6432512 0.00076641975 1.1082638e-05
0.010573273 2.8772743 0.03256897 6.8538475
