checkpoints/ae_10%.pt (torch, 915163 bytes, 16 tensors)

encoder.linear1.weight f4 [236, 358]
000000 1b 1f 01 00 90 7a 00 00 8e c2 00 80 3f eb 00 80
       1.02994e-40 4.3967e-41 -6.9793e-41 -8.439e-41
000010 40 03 01 00 20 19 00 80 d3 9a 30 b1 98 09 01 80
       9.3001e-41 -9.013e-42 -2.5699378e-09 -9.5277e-41
000020 5f 1c 57 b1 18 88 00 80 49 4a 00 80 a1 d5 00 80
       -3.1302745e-09 -4.8821e-41 -2.6648e-41 -7.6636e-41
000030 1a 4b 01 00 58 55 01 00 55 3b 00 80 f4 51 00 00
       1.18777e-40 1.22451e-40 -2.1284e-41 2.9399e-41
000040 d3 99 00 80 90 41 01 80 b8 48 01 00 27 36 01 80
       -5.5182e-41 -1.15355e-40 1.17922e-40 -1.11262e-40
000050 40 34 00 00 dc 33 00 00 0a 36 00 80 a2 c9 00 00
       1.8744e-41 1.8604e-41 -1.9386e-41 7.2332e-41
000060 08 54 01 00 9e 9e 00 00 5d 62 00 00 b1 87 00 80
       1.2198e-40 5.6901e-41 3.5286e-41 -4.8677e-41
000070 64 22 00 00 4e 8d 0b 07 38 db 00 00 a4 42 00 00
       1.2337e-41 1.0498723e-34 7.8641e-41 2.3906e-41
000080 10 dc 00 80 a1 c0 00 80 3b 68 00 80 61 d9 19 88
       -7.8944e-41 -6.9102e-41 -3.7391e-41 -4.629729e-34
000090 35 7a 02 28 77 3a 00 80 78 46 01 00 0d 32 00 00
       7.242949e-15 -2.0973e-41 1.17115e-40 1.7955e-41
0000a0 8e 37 00 00 2e 98 00 80 7d 3f 01 80 c3 f2 00 00
       1.9929e-41 -5.4592e-41 -1.14611e-40 8.7086e-41
0000b0 28 e3 15 00 f4 3e 00 80 ca ee 00 00 f3 09 77 02
       2.010034e-39 -2.2583e-41 8.5661e-41 1.8149549e-37
0000c0 a7 dc 00 80 46 1a 01 80 d4 5d 00 80 55 2c 00 80
       -7.9155e-41 -1.0126e-40 -3.3659e-41 -1.5903e-41
0000d0 3f 0e 01 00 bd bf 32 31 85 48 01 00 5e 21 00 80
       9.6946e-41 2.60114e-09 1.1785e-40 -1.197e-41
0000e0 43 34 01 80 db cf 00 80 b1 41 00 80 82 77 00 00
       -1.10583e-40 -7.4564e-41 -2.3566e-41 4.2871e-41
0000f0 fa 52 01 00 77 1b 00 80 52 4e 01 80 c9 82 00 00
       1.21602e-40 -9.853e-42 -1.19932e-40 4.6917e-41
000100 6d d3 00 00 70 ef 00 80 f3 ca 00 80 ca 00 01 80
       7.5845e-41 -8.5894e-41 -7.2804e-41 -9.2119e-41
000110 ca 52 01 80 b9 7e 00 00 5b 0b 01 80 e5 7e 00 00
       -1.21535e-40 4.546e-41 -9.5909e-41 4.5521e-41
000120 35 bc 00 00 e7 05 01 00 77 2d 01 80 c1 e9 00 80
       6.7516e-41 9.3953e-41 -1.08145e-40 -8.3855e-41
000130 3c 18 00 80 b7 7a 00 80 8f f2 00 00 17 4c 01 00
       -8.694e-42 -4.4022e-41 8.7014e-41 1.19131e-40
000140 ca d2 00 80 fb 17 00 80 8a 09 01 00 17 87 00 00
       -7.5617e-41 -8.603e-42 9.5257e-41 4.8461e-41
000150 88 c7 00 00 df 5a 00 00 f8 f0 00 00 2b 98 00 00
       7.1578e-41 3.2598e-41 8.6443e-41 5.4588e-41
000160 53 e6 00 80 45 e1 00 00 82 4d 01 80 4d 61 01 00
       -8.2625e-41 8.0811e-41 -1.1964e-40 1.2674e-40
000170 50 ab 00 80 85 0a 00 80 99 28 01 00 10 93 15 33
       -6.1455e-41 -3.774e-42 1.06399e-40 3.482552e-08
000180 2d 5a b5 9b 76 10 00 80 e5 66 00 80 0b c1 00 80
       -3.0002213e-22 -5.905e-42 -3.6912e-41 -6.9251e-41
000190 51 5a 01 80 23 ae bb 2b 79 0b 00 80 13 73 0a 39
       -1.24235e-40 1.3335482e-12 -4.116e-42 0.00013203574
0001a0 a2 e0 5f 8f 35 cc f8 87 be 56 03 39 5f b1 87 ae
       -1.10380116e-29 -3.7434915e-34 0.00012525448 -6.170597e-11
0001b0 b8 68 9e 24 97 94 c1 aa a0 3f f5 21 c0 dd 92 a7
       6.869898e-17 -3.4386792e-13 1.6618687e-18 -4.0763562e-15
0001c0 33 e9 01 80 4e 80 00 80 72 17 02 0a a7 5c f4 a3
       -1.75492e-40 -4.6027e-41 6.263682e-33 -2.6493773e-17
0001d0 ce bc 01 00 41 e5 00 00 cf b3 71 a2 91 32 01 00
       1.59566e-40 8.2241e-41 -3.275678e-18 1.09975e-40
0001e0 e1 92 ba a1 eb bd 59 9e 3a f8 cb ae d8 6e 5f 9d
       -1.2642729e-18 -1.15271585e-20 -9.275465e-11 -2.957111e-21
0001f0 14 f8 8e 9b bd c2 35 9e df e1 9c 9e b1 f0 7f b5
       -2.3652246e-22 -9.622331e-21 -1.661056e-20 -9.5345155e-07
000200 3d 92 c8 b1 60 1a 0e 1e 2c c2 ee 28 12 14 c8 18
       -5.8373915e-09 7.522872e-21 2.6507517e-14 5.1719054e-24
000210 83 69 00 80 65 5c 01 80 a5 75 aa 22 fe d1 9e 21
       -3.785e-41 -1.2498e-40 4.6203153e-18 1.0762081e-18
000220 ce 11 f8 1d 0f 38 00 80 f3 f5 00 00 75 fb 00 00
       6.5663463e-21 -2.011e-41 8.823e-41 9.0206e-41
000230 8b ca 2f 95 a6 2d 00 80 e9 44 00 80 c2 32 92 2f
       -3.5500747e-26 -1.6376e-41 -2.472e-41 2.659331e-10
000240 b0 aa 82 2f 96 22 1d 2f 06 28 01 a7 58 54 a3 25
       2.3768143e-10 1.4291354e-10 -1.7924043e-15 2.8333146e-16
000250 67 90 00 00 5c 68 17 a9 c8 43 57 26 5f dd f7 9e
       5.1802e-41 -3.3619253e-14 7.468497e-16 -2.6243699e-20
000260 ea e5 6c 88 96 75 39 aa 36 73 0a ac 24 93 88 a6
       -7.128893e-34 -1.6472097e-13 -1.9674934e-12 -9.476778e-16
000270 34 9f 3b a4 06 eb f8 9d bf 7e ad 32 f1 76 45 2b
       -4.068401e-17 -6.588806e-21 2.0197488e-08 7.0153524e-13
000280 ad a5 9f a8 ad db 14 2a 94 02 00 80 db 0c 01 00
       -1.7724397e-14 1.3221256e-13 -9.25e-43 9.6447e-41
000290 f3 fc 00 00 31 30 00 00 58 70 00 00 c8 f3 00 80
       9.0741e-41 1.7288e-41 4.0301e-41 -8.7452e-41
0002a0 0d 90 00 80 ac b6 00 80 fe fb 00 00 fc 15 01 00
       -5.1676e-41 -6.553e-41 9.0398e-41 9.9722e-41
0002b0 bc 41 00 00 98 02 00 80 d5 5d 00 00 83 e9 01 00
       2.3581e-41 -9.3e-43 3.366e-41 1.75604e-40
0002c0 f4 97 00 80 bc 26 01 00 bb 5e 00 80 4f c4 00 80
       -5.451e-41 1.05731e-40 -3.3983e-41 -7.0422e-41
0002d0 f0 aa 00 00 57 46 00 80 a7 12 00 00 16 82 00 00
       6.1321e-41 -2.5233e-41 6.691e-42 4.6666e-41
0002e0 09 a0 00 80 43 f8 00 80 21 85 01 00 36 2d 02 80
       -5.741e-41 -8.906e-41 1.39593e-40 -1.9989e-40
0002f0 07 04 00 80 ff 4e 8e 34 93 36 79 31 db f9 01 00
       -1.445e-42 2.6507038e-07 3.626529e-09 1.81467e-40
000300 a3 72 00 80 be 7d 01 00 9a 34 00 00 a4 68 cd 30
       -4.1124e-41 1.36943e-40 1.887e-41 1.4945454e-09
000310 24 0a 00 00 2e 5b 01 00 f8 49 00 00 85 85 01 80
       3.638e-42 1.24545e-40 2.6535e-41 -1.39733e-40
000320 72 47 03 80 1a a7 01 00 e0 ec 01 00 20 c7 01 80
       -3.01136e-40 1.5178e-40 1.7681e-40 -1.63268e-40
000330 24 f9 00 00 4c 4c 01 80 e9 fb 00 80 87 47 02 00
       8.9375e-41 -1.19206e-40 -9.0368e-41 2.0933e-40
000340 71 60 02 80 4b 7e 00 80 61 c3 00 80 a6 ee 01 80
       -2.18268e-40 -4.5305e-41 -7.0089e-41 -1.77446e-40
000350 ef e6 00 80 ed df 00 80 78 dc 2a a7 6a 19 81 bc
       -8.2843e-41 -8.033e-41 -2.3711756e-15 -0.015759189
000360 48 6b 00 00 40 26 02 80 59 94 00 00 d0 85 00 80
       3.8485e-41 -1.97393e-40 5.3217e-41 -4.8003e-41
000370 21 e4 01 80 e7 4d 8d ba f8 92 00 00 a9 b1 01 80
       -1.73673e-40 -0.0010780663 5.2722e-41 -1.55568e-40
000380 b8 1f 00 00 26 73 2f 9e 58 d4 01 80 1f 3f 00 80
       1.1379e-41 -9.288235e-21 -1.6801e-40 -2.2644e-41
000390 b7 56 56 3b 30 c6 73 32 8e 05 36 af 30 e9 01 80
       0.0032705495 1.4189524e-08 -1.6554777e-10 -1.75487e-40
0003a0 6f 6a 00 80 c3 b1 01 80 ae 03 02 00 f0 94 00 80
       -3.8181e-41 -1.55604e-40 1.84991e-40 -5.3429e-41
0003b0 1a f6 00 80 c6 80 01 00 a1 10 02 80 b3 2a 02 80
       -8.8285e-41 1.38031e-40 -1.89636e-40 -1.98989e-40
0003c0 f2 41 01 00 e9 8f 00 80 7c 0c 01 00 de bf 00 00
       1.15492e-40 -5.1625e-41 9.6314e-41 6.8829e-41
0003d0 50 73 00 80 2f 1b 01 80 09 b0 00 00 b8 83 00 80
       -4.1366e-41 -1.01587e-40 6.315e-41 -4.7252e-41
0003e0 3f 63 00 80 90 10 00 80 6c 95 00 00 a2 ca 00 80
       -3.5603e-41 -5.942e-42 5.3602e-41 -7.2691e-41
0003f0 01 5f 01 00 77 8f 00 00 8f 94 00 00 c5 66 00 00
       1.25916e-40 5.1465e-41 5.3293e-41 3.6867e-41

encoder.linear1.bias f4 [236]
000000 17 8b 03 00 d9 71 42 b1 9e 0d 03 80 d0 d1 ee 31
       3.25403e-40 -2.829543e-09 -2.80391e-40 6.9505646e-09
000010 19 b5 7c b2 0a 74 00 00 d2 5a 00 00 86 75 8b 31
       -1.4709507e-08 4.1627e-41 3.258e-41 4.0587933e-09
000020 ed 82 d2 b3 ed 13 14 b4 56 aa 47 b5 55 5e 00 00
       -9.802702e-08 -1.3790823e-07 -7.438115e-07 3.384e-41
000030 74 b9 01 00 55 81 8f b3 c3 b5 02 00 d2 9d 03 80
       1.58364e-40 -6.682482e-08 2.48875e-40 -3.32122e-40
000040 c2 4a 03 80 bf a0 39 35 6f 90 0e 34 dd ff 03 80
       -3.02325e-40 6.9151787e-07 1.3277325e-07 -3.67293e-40
000050 c4 83 3c 34 66 25 02 80 7c 3a 03 80 67 f0 8d 34
       1.75568e-07 -1.97087e-40 -2.96487e-40 2.6438212e-07
000060 6a c7 8f 30 03 31 c4 b5 ee 47 03 80 a5 1f 4b 35
       1.0461296e-09 -1.4617402e-06 -3.0131e-40 7.566944e-07
000070 38 83 0e 34 65 cb 02 80 f8 92 ce 2e 79 98 cd 32
       1.3272518e-07 -2.56635e-40 9.393902e-11 2.3934478e-08
000080 2c ea 2d 34 6c 81 00 80 91 fa 03 00 cb 4a 83 35
       1.6197072e-07 -4.6428e-41 3.65393e-40 9.782028e-07
000090 10 d6 21 35 04 b1 93 34 ca 43 12 b5 ee 4d 02 00
       6.0288676e-07 2.750968e-07 -5.4487884e-07 2.11627e-40
0000a0 8d 7b 02 80 b1 7e 0f b5 67 22 02 80 9b 46 03 00
       -2.27993e-40 -5.345601e-07 -1.96012e-40 3.00835e-40
0000b0 3d 3c 00 00 6d 0a a9 b3 6f ff 03 00 4d a5 00 80
       2.161e-41 -7.871572e-08 3.67139e-40 -5.9299e-41
0000c0 94 4d c9 b3 d3 a2 00 80 c9 21 01 80 9f ac ae b4
       -9.373903e-08 -5.841e-41 -1.03955e-40 -3.2535624e-07
0000d0 1a 73 65 33 d5 53 c6 33 df 0d 02 00 d3 0f 26 24
       5.34229e-08 9.2353424e-08 1.88647e-40 3.6008916e-17
0000e0 a4 d7 02 80 5b c6 30 31 75 8e 02 00 44 e3 1a 35
       -2.61028e-40 2.5724123e-09 2.34775e-40 5.7700186e-07
0000f0 b9 08 03 80 7b b9 03 00 d9 85 29 2f a0 ab 9a b3
       -2.78636e-40 3.42044e-40 1.5418013e-10 -7.202402e-08
000100 c7 ef 59 31 98 5f e1 33 63 09 28 34 ba f3 02 80
       3.1713954e-09 1.04947674e-07 1.5649634e-07 -2.71104e-40
000110 7c 54 43 35 8d 74 b5 32 e6 f6 74 b4 ed 98 01 00
       7.27661e-07 2.1124174e-08 -2.2814092e-07 1.46695e-40
000120 76 7b 32 36 a3 e4 af 33 72 6e 03 00 ad f5 02 80
       2.659593e-06 8.190661e-08 3.15127e-40 -2.71803e-40
000130 ad 3d 90 34 9d 21 93 b4 d2 9f c6 2d 94 d5 02 80
       2.6866965e-07 -2.740534e-07 2.2580968e-11 -2.60288e-40
000140 ac 62 77 33 b5 2b f3 b4 72 00 54 31 b6 02 03 00
       5.759891e-08 -4.5294078e-07 3.0850313e-09 2.76479e-40
000150 05 87 9b 34 47 ed 02 80 d8 74 17 34 d6 53 ac 33
       2.896924e-07 -2.6879e-40 1.4105478e-07 8.024624e-08
000160 09 06 43 b3 d9 61 3e 1f 31 43 00 80 75 2c 04 34
       -4.5407464e-08 4.0315003e-20 -2.4104e-41 1.2309631e-07
000170 37 dd 8c b2 39 63 97 33 fd a6 91 b3 b3 b3 d2 34
       -1.6398742e-08 7.049534e-08 -6.782464e-08 3.9246297e-07
000180 db ce e4 b2 fb 71 02 33 f3 14 e2 35 f5 06 03 80
       -2.663676e-08 3.037165e-08 1.6844409e-06 -2.78002e-40
000190 a6 6a 00 80 3d 49 03 00 70 a2 02 00 90 aa 03 00
       -3.8258e-41 3.0178e-40 2.41943e-40 3.36693e-40
0001a0 7d c4 00 00 46 d7 02 80 18 be ac 34 b8 17 75 33
       7.0487e-41 -2.60897e-40 3.2175808e-07 5.706508e-08
0001b0 71 72 02 00 c4 c1 db 30 0b ee 61 34 0d d7 77 b3
       2.24725e-40 1.5989419e-09 2.1041357e-07 -5.7704757e-08
0001c0 4f 7b f5 9a a3 97 c4 35 e7 27 ac 34 f1 dc 91 b4
       -1.0152884e-22 1.464727e-06 3.206653e-07 -2.716911e-07
0001d0 a2 50 03 80 ea d2 78 b4 ad c3 01 80 75 10 87 b4
       -3.04432e-40 -2.317353e-07 -1.62031e-40 -2.5157684e-07
0001e0 f6 32 be b1 11 35 01 00 c1 cd 4a 32 dd ed 1e b5
       -5.5355214e-09 1.10872e-40 1.18047305e-08 -5.9205723e-07
0001f0 32 27 c2 b4 51 e8 01 80 69 5f 9b b1 9f 46 e0 35
       -3.6163834e-07 -1.75175e-40 -4.5219406e-09 1.6709854e-06
000200 e2 0b 03 00 97 91 87 b3 e3 62 02 00 d9 73 07 33
       2.79769e-40 -6.31291e-08 2.19145e-40 3.15375e-08
000210 44 2e 01 80 fa b2 03 00 bc 80 01 80 0a dd 67 b6
       -1.08432e-40 3.39711e-40 -1.38017e-40 -3.4550344e-06
000220 fc c6 86 35 bf f7 63 b3 8f bb 56 b3 8a 7f bd b4
       1.004169e-06 -5.307788e-08 -4.999634e-08 -3.529679e-07
000230 f5 5e 00 80 69 28 18 a5 ac b1 02 00 e0 24 00 00
       -3.4064e-41 -1.319759e-16 2.47408e-40 1.3228e-41
000240 22 3c 3f 32 b1 17 9a 31 90 1e 03 80 c6 70 95 b3
       1.1131336e-08 4.4846833e-09 -2.8647e-40 -6.9588665e-08
000250 cd 1d 03 80 9e 6c 33 33 34 c4 03 80 fc 55 96 b3
       -2.86197e-40 4.1775472e-08 -3.45891e-40 -7.00056e-08
000260 54 e1 03 80 7a f0 00 80 2f 6b 03 00 3c a9 fa 32
       -3.56339e-40 -8.6267e-41 3.13957e-40 2.918079e-08
000270 1f 7a 00 00 3d 47 8f 32 06 b6 d3 34 ce 2f a9 b1
       4.3809e-41 1.6679786e-08 3.9434252e-07 -4.923982e-09
000280 8d 30 01 80 64 5f 02 80 63 85 01 80 76 64 00 00
       -1.09252e-40 -2.17891e-40 -1.39686e-40 3.6039e-41
000290 5f a0 2f 30 a8 de e8 34 b7 9a 4c 35 9e b5 aa 32
       6.389253e-10 4.337537e-07 7.622106e-07 1.9873195e-08
0002a0 db a0 85 b4 c2 f4 29 34 c1 fa 9c 34 80 ae 9a b4
       -2.4890218e-07 1.5828394e-07 2.9239712e-07 -2.88117e-07
0002b0 67 f6 01 80 a7 9b 0d 36 dc f0 4c 35 82 ab af b2
       -1.80228e-40 2.110124e-06 7.634642e-07 -2.0450674e-08
0002c0 67 84 c8 35 ed 9c 5e 34 79 f7 6a 34 6c 3c 03 80
       1.4939695e-06 2.073245e-07 2.1882978e-07 -2.97182e-40
0002d0 46 86 03 00 9f ad 00 00 c3 8f ca 33 00 d0 00 00
       3.23675e-40 6.2284e-41 9.432508e-08 7.4616e-41
0002e0 0f 26 8d b3 26 9c 01 00 50 cc 64 34 85 6a 87 b1
       -6.572747e-08 1.47851e-40 2.1308483e-07 -3.941127e-09
0002f0 2c a1 02 00 c9 b7 17 af 19 97 03 80 2b 5b 02 00
       2.41489e-40 -1.3798664e-10 -3.2971e-40 2.16376e-40
000300 39 6a 02 80 2b d1 03 80 ac ca 02 80 4d df a4 34
       -2.21777e-40 -3.50542e-40 -2.56376e-40 3.0709853e-07
000310 fa 6d 7c b3 87 f4 00 80 32 7f 03 80 c2 07 03 00
       -5.8773345e-08 -8.772e-41 -3.21136e-40 2.7829e-40
000320 da 23 71 1e 01 d3 94 29 2a 6d 03 00 93 ac 57 b4
       1.2765848e-20 6.6091236e-14 3.14667e-40 -2.0086217e-07
000330 a3 7d 03 00 0e f0 42 34 75 a4 03 00 be 3b 03 80
       3.20576e-40 1.815499e-07 3.34503e-40 -2.96938e-40
000340 30 9b 91 34 e4 2d bc b4 59 97 03 80 6f f1 9d 31
       2.7121268e-07 -3.505112e-07 -3.298e-40 4.596749e-09
000350 07 d3 03 00 ee 0e aa 32 2c ec 00 00 56 06 04 00
       3.51209e-40 1.9797394e-08 8.4723e-41 3.69615e-40
000360 4d 04 03 00 af bb 03 80 d5 7f f9 35 e3 f3 13 aa
       2.7705e-40 -3.42835e-40 1.858915e-06 -1.3140838e-13
000370 cd 5c 03 00 53 8a 00 80 d0 f5 de 33 0d d7 01 80
       3.08797e-40 -4.9621e-41 1.03823936e-07 -1.68981e-40
000380 0c da 02 80 ea e9 95 b4 39 75 ed 35 b6 83 02 00
       -2.61891e-40 -2.7923608e-07 1.7691992e-06 2.3092e-40
000390 52 1b 42 31 a5 5d 01 00 8a f3 02 00 be cd 02 33
       2.8246245e-09 1.25429e-40 2.71036e-40 3.0455105e-08
0003a0 75 ee ab 8f 6c 26 08 b3 ca c7 d5 b3 66 31 aa 35
       -1.6953752e-29 -3.1699912e-08 -9.954927e-08 1.2680364e-06

encoder.linear2.weight f4 [118, 236]
000000 2d 9e 13 9c 57 c9 4c b8 f5 a8 be b2 b1 86 59 b8
       -4.8842657e-22 -4.8824902e-05 -2.2195744e-08 -5.1862273e-05
000010 9d 5b 23 b9 18 44 87 ab 32 48 82 b8 4f e8 2d b8
       -0.0001557902 -9.611227e-13 -6.2123305e-05 -4.146277e-05
000020 9e 4d f5 39 c3 fc 63 ba 14 db ec 39 ae 6d 66 b7
       0.0004678787 -0.0008697027 0.00045176654 -1.3734605e-05
000030 06 45 62 a6 ff 5e 91 ba 1c 29 6d 30 fc 98 e1 b4
       -7.8503045e-16 -0.0011090933 8.627852e-10 -4.2020827e-07
000040 27 13 e2 ba b1 e0 b5 ba 96 27 21 b9 b0 98 28 b7
       -0.001724814 -0.0013876167 -0.00015368903 -1.0049131e-05
000050 e1 fb 96 ba 0a c1 9e b5 e1 86 f1 b5 a2 81 4d ba
       -0.0011519158 -1.1828099e-06 -1.7995154e-06 -0.0007839446
000060 8f 5c 4f ba ce 75 91 ba 18 96 3f bb f8 55 0e bb
       -0.00079102156 -0.0011097731 -0.002923375 -0.0021718722
000070 72 01 42 bc 11 1d 0f ba e7 37 b5 b8 5c 16 b2 ba
       -0.011841165 -0.00054593483 -8.641165e-05 -0.0013586986
000080 a7 67 98 ba 69 e1 89 a5 05 ad 33 ba cf 15 5c bc
       -0.001162757 -2.3918455e-16 -0.000685409 -0.013432934
000090 a8 c6 ea 38 44 e0 3a ba 41 3f 2a bd 68 c7 89 ba
       0.00011194992 -0.0007128755 -0.04156423 -0.0010511698
0000a0 1f 1f 4c 34 1a e7 38 38 7c 6b 03 b3 cd a7 e7 b5
       1.9010302e-07 4.408425e-05 -3.059857e-08 -1.7259678e-06
0000b0 0c a8 13 a3 ff 83 ba b8 6e 1e 89 b5 2f 92 ae a1
       -8.004471e-18 -8.893757e-05 -1.0216152e-06 -1.1829393e-18
0000c0 14 77 88 ba a0 a9 3a b1 d4 e3 76 b6 74 a0 c4 b9
       -0.0010411465 -2.7162983e-09 -3.678947e-06 -0.0003750358
0000d0 2d ea 8f b7 df f8 30 bb e3 3f 30 ad d1 fa 17 b7
       -1.7155975e-05 -0.0027003807 -1.0018627e-11 -9.058699e-06
0000e0 91 22 28 b4 87 51 a2 38 fc a5 85 a5 7b 90 61 bb
       -1.5658794e-07 7.7399476e-05 -2.3184298e-16 -0.0034418392
0000f0 11 26 22 b7 ff ee 71 20 f5 2a 9e 35 67 fb e4 b9
       -9.6648155e-06 2.0492571e-19 1.178442e-06 -0.00043674858
000100 70 32 e5 37 71 76 b8 b8 13 84 21 ba a2 f3 3f ba
       2.7322414e-05 -8.795865e-05 -0.0006161343 -0.0007322376
000110 54 e5 ab ba 54 5f 8a bb c6 ac 3e 3a c6 f3 7c af
       -0.001311461 -0.00422279 0.000727367 -2.3005872e-10
000120 6a e1 51 bc f6 d1 4e ba e0 17 b6 28 1b ea da b9
       -0.012810091 -0.0007889563 2.0216413e-14 -0.00041754622
000130 a9 1e 23 b9 12 4e 19 ba 5a b1 3b 39 9d da 00 80
       -0.00015556313 -0.000584812 0.00017899778 -7.8424e-41
000140 f0 ee 1c 39 97 43 55 bc 68 62 9f b7 2e 08 ce b7
       0.0001496633 -0.013016603 -1.9000101e-05 -2.4560923e-05
000150 29 36 f2 38 9c 49 3d b9 ac 84 67 bb 0f 34 1b ba
       0.00011549547 -0.00018051866 -0.0035326881 -0.0005920538
000160 a4 92 5f 37 45 49 84 b6 6a 22 52 31 77 cf 00 ba
       1.3325978e-05 -3.9424363e-06 3.0578584e-09 -0.0004913727
000170 5d 45 ef 39 2a 67 2f 38 bc ef cd b9 f2 1b 07 ba
       0.00045637312 4.181933e-05 -0.00039279263 -0.00051540055
000180 f0 1d 26 ba 82 59 d9 39 fb 57 e5 ba 3a 12 3f 36
       -0.00063368585 0.00041456154 -0.0017497534 2.8471827e-06
000190 78 19 36 b8 a2 8d 3a bb c5 2a d4 b7 03 c9 20 ba
       -4.34159e-05 -0.0028465767 -2.5292285e-05 -0.00061334687
0001a0 38 2e 25 38 a4 dd 3d b8 68 b8 1d bb 33 df 09 ba
       3.938211e-05 -4.526753e-05 -0.0024066214 -0.00052593945
0001b0 27 61 d2 ad 71 9d 5b ba 65 10 e7 39 f3 01 5e b9
       -2.391738e-11 -0.00083776476 0.00044071968 -0.00021172296
0001c0 bd 08 36 b7 c0 99 f2 b9 4b 74 a2 b9 cf ab 63 ba
       -1.085008e-05 -0.0004627239 -0.00030985693 -0.0008684964
0001d0 98 a8 85 b6 8d 81 04 ba e2 2b 35 bc fe d8 a1 3a
       -3.983336e-06 -0.0005054705 -0.011057826 0.0012347994
0001e0 b5 02 31 39 74 16 37 ba a3 a6 4a b9 9f 23 15 3a
       0.00016881044 -0.0006984242 -0.00019326298 0.0005689207
0001f0 6b 06 96 ba 66 90 22 b6 e7 74 3c ba 84 01 f9 ba
       -0.0011446005 -2.4223932e-06 -0.00071890507 -0.0018997644
000200 c0 4d 4b b8 c9 a9 8a b9 09 f3 d7 2b a7 d4 86 bb
       -4.8471382e-05 -0.0002644791 1.5344125e-12 -0.0041147056
000210 7d d6 99 b8 6d 3e 07 b8 40 62 2f b6 96 ea 30 bc
       -7.33556e-05 -3.2244647e-05 -2.613422e-06 -0.010798117
000220 b9 1c c3 3a dd 1e bd 3b 71 fd 7b 3a 70 11 20 ba
       0.0014885879 0.0057715015 0.0009612656 -0.0006106114
000230 6a 66 14 bb fd d1 0f 32 fc de 90 b4 73 84 93 ba
       -0.0022644051 8.371441e-09 -2.6984333e-07 -0.0011254683
000240 90 8e d0 b9 b2 f4 c4 ba 94 59 bb ae 7d 26 98 3b
       -0.0003977907 -0.0015026538 -8.519688e-11 0.00464326
000250 0b 42 a2 b7 45 bc 1d bc 12 99 7d b7 38 66 00 b9
       -1.9342659e-05 -0.0096274065 -1.5115615e-05 -0.0001224511
000260 a0 9e 13 b5 b3 c7 b4 b6 f5 00 fb b0 3f 6a 0e 39
       -5.4992597e-07 -5.387666e-06 -1.8262926e-09 0.00013581755
000270 f8 25 00 b6 3e 42 0f b9 f2 78 eb ba c2 c6 41 bc
       -1.9095587e-06 -0.0001366222 -0.0017965122 -0.011827173
000280 cc e1 2d b6 42 5d 1e ba 84 6c ab b5 61 0a 96 37
       -2.591044e-06 -0.0006041118 -1.2772075e-06 1.7886226e-05
000290 52 64 53 b8 d8 00 ce 3c fb 70 9a bb 4b 3a da ba
       -5.039975e-05 0.025146887 -0.0047131754 -0.0016649453
0002a0 28 c5 13 39 98 0e 58 3a bb fc 54 3a 3f d0 95 ba
       0.00014092459 0.0008241921 0.0008124818 -0.001142986
0002b0 c9 56 2f ba 29 10 b3 ba 7d d7 a5 3c 90 ca 6f b9
       -0.0006688652 -0.0013661432 0.020244354 -0.00022868277
0002c0 97 40 0a 3d d7 6a a7 b9 56 4f a2 ba 5f 91 5b 80
       0.033753004 -0.00031932324 -0.0012383263 -8.40918e-39
0002d0 58 46 11 ba 20 2e 02 ba 41 8c c3 38 e2 69 28 af
       -0.0005541793 -0.00049659796 9.324449e-05 -1.5317128e-10
0002e0 a8 fe ae b8 f1 0b d6 b4 b1 d9 c4 bb 4d 5c d1 b6
       -8.3444e-05 -3.9869295e-07 -0.006007396 -6.2394306e-06
0002f0 f6 72 76 b1 c7 44 2d ba bd c5 83 3a 55 31 6f 32
       -3.586306e-09 -0.0006609675 0.0010053437 1.3922848e-08
000300 b1 1b 11 37 d8 06 8a b4 82 c5 e5 b1 7c 88 c1 ba
       8.649121e-06 -2.5709483e-07 -6.687231e-09 -0.0014765407
000310 d2 1d 44 b9 4d 5e 67 ba 1b b6 cf b4 23 e5 cf b2
       -0.00018703126 -0.00088260026 -3.8689254e-07 -2.4202171e-08
000320 9a 28 69 b4 3c ad 3a ba 8c 39 13 ba 44 74 99 b9
       -2.1714587e-07 -0.0007121151 -0.000561618 -0.0002926906
000330 94 ca bd ba 7f 87 d4 b9 e8 dc 91 b3 2f 12 7d b6
       -0.0014479929 -0.00040536743 -6.792271e-08 -3.7710522e-06
000340 85 11 a1 b9 c2 db f4 3a f0 39 19 b4 d7 fb 3e 38
       -0.00030721366 0.0018681216 -1.4270313e-07 4.5534074e-05
000350 2a 62 c7 37 11 d6 81 b8 86 a0 11 b8 0f 7d 46 36
       2.376836e-05 -6.191072e-05 -3.4720193e-05 2.9577093e-06
000360 d5 66 d5 9a 01 b0 b1 bb f4 35 df ba d3 c4 d9 b8
       -8.826087e-23 -0.0054225926 -0.0017029629 -0.00010384028
000370 4f f5 21 b8 64 35 5b b3 73 00 05 bb 2b 0a 78 bb
       -3.8613853e-05 -5.103847e-08 -0.0020294457 -0.0037847857
000380 3e 40 d7 ba 50 71 19 bb 89 bd 77 b7 86 e2 1e b8
       -0.0016422344 -0.0023413487 -1.4766477e-05 -3.7881102e-05
000390 26 a2 9a ba 2d ec d3 b4 04 cf a6 b6 34 dd a2 b9
       -0.0011797592 -3.9473653e-07 -4.9712853e-06 -0.00031063857
0003a0 63 66 1d b1 6d bc 74 b9 b6 04 9d bb 59 8f 81 3b
       -2.2904707e-09 -0.00023339847 -0.0047918214 0.003953856
0003b0 a9 82 95 36 fb 3b aa 39 14 38 a2 ba 9a 7c 0d ba
       4.455757e-06 0.00032469616 -0.0012376332 -0.000539729
0003c0 b8 4f 02 bb 84 17 50 39 ed 11 72 b3 da 45 7d b9
       -0.0019883942 0.00019845186 -5.636132e-08 -0.00024153982
0003d0 bd b7 33 bb 15 0e 04 bb e3 6f 1a bc d2 85 04 b1
       -0.002742275 -0.0020149995 -0.00942609 -1.9284596e-09
0003e0 34 d4 fe af 27 00 91 ba a5 f1 26 29 d8 ae fd b8
       -4.635311e-10 -0.0011062667 3.7068998e-14 -0.00012096547
0003f0 58 42 0b bc 64 c6 48 bb cb b7 78 bb 74 59 18 b5
       -0.008499704 -0.0030635828 -0.0037951346 -5.6754584e-07

encoder.linear2.bias f4 [118]
000000 a7 80 0a b5 de 7f 1a 36 0a 39 ac b4 f1 82 a4 34
       -5.159622e-07 2.3022217e-06 -3.2078998e-07 3.0642653e-07
000010 2b ca 94 34 13 49 e9 b6 1f 29 b9 b5 32 d8 37 b5
       2.7714245e-07 -6.952448e-06 -1.3795542e-06 -6.848742e-07
000020 fb 04 61 35 ce 78 87 b5 d3 52 bd b5 c3 5c dc b6
       8.382628e-07 -1.0093443e-06 -1.4105702e-06 -6.56731e-06
000030 d5 84 24 35 ae fb 8c b4 be 73 1e 36 71 df f3 35
       6.1288057e-07 -2.6260153e-07 2.3611206e-06 1.8169941e-06
000040 7b e2 e5 35 b2 86 a5 b6 9a f0 a9 35 55 8e f4 b3
       1.7127744e-06 -4.933064e-06 1.2661505e-06 -1.13880255e-07
000050 78 39 e9 b5 5f ac 1c 37 49 6d da b4 71 86 2c b6
       -1.7376578e-06 9.338458e-06 -4.068518e-07 -2.5708252e-06
000060 b0 09 85 b6 bd 77 5e 37 3e 75 2b b6 e7 27 8c b6
       -3.9648367e-06 1.326011e-05 -2.554923e-06 -4.1769704e-06
000070 34 88 8e 36 34 43 03 35 f4 a0 99 35 e4 1a a4 b6
       4.247786e-06 4.8899096e-07 1.1446232e-06 -4.8907114e-06
000080 00 ff 3d b4 cc ad 2b b7 27 96 38 32 86 8b 6d b4
       -1.7694765e-07 -1.02328595e-05 1.074435e-08 -2.2123103e-07
000090 2e 41 20 b6 9b a5 6f 36 76 8d 31 34 92 25 63 b5
       -2.3879797e-06 3.571017e-06 1.6535873e-07 -8.461876e-07
0000a0 a4 11 7f 35 5b fd b5 36 3f a7 a7 34 9d 80 03 36
       9.5020573e-07 5.423715e-06 3.1227862e-07 1.9595384e-06
0000b0 f4 6f b6 35 f8 5c 11 36 a5 df f2 b5 69 75 78 35
       1.3592639e-06 2.1660799e-06 -1.8095494e-06 9.2558054e-07
0000c0 ad ce 85 36 d8 c4 3b 36 e7 d7 24 b7 96 7b 93 b6
       3.987769e-06 2.797975e-06 -9.82543e-06 -4.3953287e-06
0000d0 72 fc f3 b5 f0 a4 11 b3 cc 8e 1d b7 78 5c d4 34
       -1.8178382e-06 -3.3910453e-08 -9.391177e-06 3.9555357e-07
0000e0 4a 80 ba b4 b0 9b 2f 37 91 60 b9 36 9d 86 15 b5
       -3.4738542e-07 1.0467062e-05 5.5246715e-06 -5.5702714e-07
0000f0 84 6d 8c 36 d4 6a 52 36 5e a8 45 b5 59 74 a1 36
       4.1850744e-06 3.135462e-06 -7.3633225e-07 4.8117186e-06
000100 49 ec 16 36 b5 82 16 36 42 da d7 b5 58 ca 6e 36
       2.2489278e-06 2.2427823e-06 -1.608227e-06 3.5582543e-06
000110 21 be 49 b6 3e e7 01 36 79 78 9f b4 58 aa 00 b6
       -3.0062004e-06 1.9357099e-06 -2.9703713e-07 -1.917264e-06
000120 cb b4 f3 35 a0 ae b2 b5 35 60 58 36 e3 04 57 35
       1.8157529e-06 -1.3312856e-06 3.2242508e-06 8.010085e-07
000130 a9 0e 8c 34 9e d7 b4 34 5d a3 5f b6 37 7d 09 35
       2.60877e-07 3.3684495e-07 -3.332468e-06 5.121869e-07
000140 ba ef 5c 35 2d 27 cb 35 cd 17 3b b6 51 c8 02 34
       8.2305235e-07 1.513608e-06 -2.7879025e-06 1.2180068e-07
000150 bb 59 2f b5 bd cf 9e b5 23 da 0f b6 6a 95 70 b5
       -6.5323155e-07 -1.1832377e-06 -2.1435633e-06 -8.9624393e-07
000160 e9 5c 26 b5 79 5f bb 36 b3 76 46 31 15 55 3d b5
       -6.197502e-07 5.5841488e-06 2.8880265e-09 -7.05318e-07
000170 ee 66 09 36 5e f0 81 35 81 80 71 36 dd 3e cb b6
       2.0474504e-06 9.681205e-07 3.5986598e-06 -6.0571897e-06
000180 30 b6 c1 32 ad 88 9d 37 a3 e3 8b 34 33 72 4b b5
       2.2551006e-08 1.8779503e-05 2.6056395e-07 -7.5789575e-07
000190 1c 5a 41 34 25 59 83 35 2c aa 9b b5 9f 09 64 36
       1.8007307e-07 9.786205e-07 -1.1597926e-06 3.3980248e-06
0001a0 e3 6e 1c b5 b4 0d 9d 36 8e 87 5e b6 b4 08 06 36
       -5.827589e-07 4.68056e-06 -3.315948e-06 1.9972622e-06
0001b0 74 a4 a2 b5 27 36 06 b5 4e 40 5b b5 98 ff 90 b5
       -1.2117803e-06 -4.999769e-07 -8.1677433e-07 -1.0803224e-06
0001c0 72 e0 c1 36 c9 a4 ba 35 fc 41 51 36 8a 74 c8 b6
       5.777977e-06 1.3906039e-06 3.1181835e-06 -5.9740314e-06
0001d0 c3 e8 18 36 d8 fc d5 b6
       2.278525e-06 -6.3773296e-06

encoder.norm.weight f4 [236]
000000 06 c2 86 37 3a 39 3f bb b9 ad 15 3a 14 da 82 3c
       1.6064394e-05 -0.0029178397 0.00057097856 0.015973128
000010 8a 91 08 3e 17 5d 45 b1 40 a6 61 3b af 1e 15 3c
       0.13336769 -2.8720188e-09 0.0034431368 0.009101554
000020 87 d9 81 3d e8 6e b3 3d 3c 1b 38 3e 9c eb c8 3a
       0.06340318 0.08761388 0.17979139 0.0015329006
000030 c0 89 bd b2 12 da 29 3d 7a 76 63 3a 71 29 a5 39
       -2.2065137e-08 0.041467734 0.0008677017 0.0003150213
000040 8d 67 52 3b 00 fb b1 3e ce f8 8d 3d a8 aa 37 bb
       0.0032105178 0.3476181 0.06932221 -0.0028025303
000050 8a 63 e2 3c 13 8d fd b6 97 0d 19 3c 3c 12 38 3e
       0.027635355 -7.5564108e-06 0.009341619 0.17975706
000060 d3 58 9b 3c 15 50 22 3e 3a a3 eb 37 39 bc 3e 3e
       0.018963253 0.15850861 2.8090191e-05 0.18626489
000070 65 bd d9 3e a7 48 ee 3a 88 79 3b ba 3e e9 2c 3d
       0.4252731 0.0018179611 -0.00071515935 0.042214625
000080 ed 41 29 3e 8d a3 9e 3b d8 90 95 3a 89 61 4c 3e
       0.16529055 0.004841274 0.0011410965 0.19959082
000090 67 53 c2 3e 16 5b 32 3e 14 a8 eb 3e ed 46 12 3c
       0.37954256 0.17417559 0.4602667 0.008928043
0000a0 a3 5f 0a 39 b0 ce 70 3e f2 65 9b 3a e3 71 c5 3a
       0.00013196333 0.23516345 0.0011855944 0.0015063848
0000b0 7b 99 cb 2e 91 61 e0 bc d3 31 11 37 33 18 7a 39
       9.258635e-11 -0.027390273 8.654274e-06 0.00023850873
0000c0 4c 5d 25 3d de 2e 08 3a b1 ab 19 3a 6e 82 8e bd
       0.040372178 0.0005194972 0.0005862071 -0.06958471
0000d0 19 ee 7b 3d 4d 66 c5 3c 95 de 0e b6 da a7 d8 3a
       0.061506364 0.024096632 -2.1289209e-06 0.0016529516
0000e0 d7 76 51 32 9b ff 0e 3c 06 14 93 33 5e 18 d1 3e
       1.2192422e-08 0.008727933 6.848863e-08 0.40838903
0000f0 2a 00 ac b7 63 c5 3e b6 8d bb ec b9 4e 4a a0 3d
       -2.0504074e-05 -2.84271e-06 -0.00045153164 0.078266725
000100 b4 6c c1 3b d4 12 73 3e 0a fa 39 3e b8 7d 3b 37
       0.005902851 0.23737651 0.18161789 1.117534e-05
000110 77 e9 ae 3e 48 43 31 3d d3 62 2c 3e 8b 50 6b 37
       0.34162495 0.043277055 0.16834573 1.4025844e-05
000120 a3 ab 5e 3e 44 5c 1e 3d f8 91 54 b8 69 8d b8 b9
       0.21745162 0.03866221 -5.0680683e-05 -0.00035200574
000130 e3 a5 37 3d e0 83 65 3d 1c 96 4d 3b 1e 01 ca 3a
       0.044835936 0.05603397 0.003136999 0.001541171
000140 f0 ef 9a 3d 47 da be 3e d5 e5 f6 bb 41 7a 0b 3b
       0.07565296 0.37275907 -0.0075347223 0.0021282586
000150 cd 5e b0 3d a2 29 11 3a ee 09 1d 3e 48 36 45 3e
       0.08611832 0.0005537515 0.15335819 0.19258988
000160 ef e4 05 3d 27 79 10 bc a8 b6 ce 37 58 3d 87 3c
       0.03268903 -0.0088179475 2.464217e-05 0.016508743
000170 24 aa 06 3d ba 68 94 3c a7 0a d3 3d d5 a9 f0 3d
       0.032877102 0.018116344 0.10304766 0.11751143
000180 f0 4c 20 3d ed e7 50 3d 29 f1 9f 3e 25 d8 24 b8
       0.039135873 0.05100243 0.31238678 -3.9301947e-05
000190 fe 82 8a b9 6f 08 85 b9 b7 9d 3f 37 03 38 8c 3a
       -0.00026419008 -0.0002537402 1.1421208e-05 0.0010697845
0001a0 70 0a e7 3b 57 19 8b 30 bf ce 4c 3e bd 78 29 3d
       0.007050805 1.0120783e-09 0.20000742 0.04137491
0001b0 2e 45 b9 37 49 6d 96 3b 0c 8e 25 3e 06 58 05 3e
       2.2085933e-05 0.0045906645 0.16167468 0.1302186
0001c0 36 8b 60 ba 35 a8 b6 3d 86 48 4f 3e 38 1b 51 3e
       -0.0008565666 0.08918802 0.20242509 0.2042054
0001d0 8a 69 a2 3a 68 60 56 3e 15 8d a1 ba 9c 02 c8 3e
       0.0012391072 0.20935214 -0.0012325371 0.3906449
0001e0 c7 db e5 3c 7f 9d 58 3b 16 89 c1 3c a3 52 f2 3d
       0.0280589 0.003305286 0.023624938 0.11832168
0001f0 55 7d 9e 3e e2 c2 12 3b 72 72 a6 3c cd df 0f 3e
       0.30954996 0.0022393991 0.020318244 0.14050217
000200 68 8b 10 3b b9 27 61 3d 99 9d 11 37 11 f3 e2 3d
       0.002205575 0.054969523 8.679367e-06 0.110815175
000210 31 dd 9d 2f 56 e2 89 36 18 98 8d 39 9d 94 46 3e
       2.87153e-10 4.109267e-06 0.00027006934 0.19392629
000220 9e b4 db 3d 2f 55 1d 3e e4 b8 02 be 1c 0f cb 3d
       0.10727809 0.15364526 -0.12765843 0.09914991
000230 70 a0 36 3b 8b ab c4 38 fe 2f 1a 3b c6 f2 5c bb
       0.0027866624 9.377961e-05 0.002352714 -0.003371404
000240 07 23 d7 3d ff 4a 4b 3b 58 a6 10 35 90 dc df 3e
       0.10504728 0.0031020043 5.388624e-07 0.43722963
000250 59 bb 8c bb 16 57 73 3e d3 fd 67 37 47 4a 89 bd
       -0.0042947945 0.2376369 1.3827771e-05 -0.067036204
000260 51 b3 40 3a 35 35 66 b8 69 e4 06 bb fb bb ef 3c
       0.0007350939 -5.4885826e-05 -0.002058292 0.02926444
000270 1b b8 56 b8 93 8d 3f bb 35 12 77 3e d6 d8 5b 3d
       -5.1193038e-05 -0.0029228672 0.24128039 0.053673588
000280 0d 87 3c 3b 19 8c 88 3a ba d5 50 3a 53 be ba b8
       0.002876702 0.0010417729 0.0007966418 -8.904622e-05
000290 24 85 2b 3c 97 4e b2 3e 66 c9 16 3e 9a 7e 66 3d
       0.010468755 0.34825584 0.14725265 0.05627308
0002a0 09 05 4f 3d 85 60 b0 3e 9b e7 d9 3d 3c a4 e2 3d
       0.05054191 0.3444864 0.10639878 0.110664815
0002b0 8e 33 c4 35 94 6d 16 3e bc 1d 9a 3e 29 c0 05 3b
       1.4618142e-06 0.14690238 0.3010081 0.0020408726
0002c0 9b ce 09 3f 85 f2 5d 3d 13 2b 28 3e 8a cf 16 32
       0.5383088 0.054186363 0.16422682 8.778338e-09
0002d0 e6 d8 2b bb 70 c1 16 b7 22 65 4d 3d 30 99 d6 36
       -0.002622181 -8.985735e-06 0.050145276 6.3955304e-06
0002e0 53 ba 24 3d 8e ba 51 b9 51 a9 11 3e 33 49 24 3d
       0.040216755 -0.0002000129 0.14224745 0.04010887
0002f0 01 ab 97 3b c0 f2 a3 bc b5 1d 79 3a dc 55 82 3b
       0.0046285396 -0.020013213 0.0009503023 0.0039775204
000300 94 fe 84 3b 98 95 96 34 cf 21 06 3a 0d 13 ec 3e
       0.0040586684 2.804852e-07 0.0005116732 0.46108285
000310 6a bd bf 3d 36 8f 3c 3b 94 86 42 1e 2c ed b4 39
       0.093623 0.0028771884 1.02981046e-20 0.00034508982
000320 44 23 18 3a 35 14 04 3c 66 67 16 39 eb 4e 41 3e
       0.0005803595 0.008061458 0.00014343634 0.18877761
000330 e3 60 55 3b e1 5a a7 3d 38 61 af 35 29 86 e1 3b
       0.003255897 0.08171631 1.306681e-06 0.006882448
000340 a6 97 bf 3d a5 4f 6c 3e 59 b4 c2 39 ca 2d 43 3c
       0.093550965 0.23077257 0.00037136933 0.011912772
000350 b3 db 8a 39 2b 55 02 3d 17 34 f2 38 fa 60 8b 3a
       0.000264851 0.031819504 0.00011549162 0.001063376
000360 f5 20 7d 3a 13 09 b6 ba ea 13 e9 3e 8a 7e 2b 39
       0.0009656095 -0.0013888202 0.45523006 0.0001635497
000370 a5 43 63 3b 03 da 8b 39 4f 64 7a 3d 84 3d 82 37
       0.003467777 0.00026674577 0.061130818 1.5525853e-05
000380 7b 83 a2 b9 da e4 e1 3b 5a 40 1a 3f 96 52 f2 38
       -0.00030997008 0.0068937363 0.6025444 0.00011554842
000390 29 26 a6 3d 5a 1d b5 38 56 99 5f 38 3a 0e 33 3d
       0.08112747 8.63622e-05 5.331015e-05 0.04371474
0003a0 77 7d 42 39 45 bb 3f 3d f3 76 53 3e 72 a9 cc 3e
       0.00018548021 0.046809454 0.20650844 0.39973027

encoder.norm.bias f4 [236]
000000 1e 32 99 bb 16 9d 59 3c e3 e2 56 bb 56 5f b0 bc
       -0.004675164 0.013282081 -0.0032789044 -0.021529835
000010 68 fc 1c bd d9 e7 7f b6 2e ee 51 bc 40 3d 6e bc
       -0.03832665 -3.8132914e-06 -0.012813134 -0.01454097
000020 12 cd 41 3e f7 36 7f bd 27 91 b2 3e a3 ba ae bc
       0.18925884 -0.062308278 0.34876367 -0.02132923
000030 e1 3e 04 b9 ea c8 65 bd 67 09 31 bc 17 eb 86 ba
       -0.00012611925 -0.05609981 -0.010805464 -0.0010293451
000040 61 18 c0 bb ca 6f a1 bc 24 8f 0b 3e fc 1d ed bb
       -0.005862281 -0.019706625 0.13628823 -0.0072362404
000050 62 9c 72 3d d5 c4 da b8 52 00 25 bd ba 5c 60 be
       0.05923117 -0.00010431713 -0.04028351 -0.21910372
000060 ad 41 12 bd 3b 8f bb 3e 17 57 b0 b9 07 16 14 3c
       -0.035707165 0.36632714 -0.00033634223 0.009038455
000070 be 2e 11 3d b6 b5 d2 bc 18 4b f9 3c 12 f5 60 bb
       0.035444967 -0.025721412 0.030431315 -0.003432576
000080 6b 56 cd 3d b4 41 50 bc 73 4a 00 bc 5d ca 82 3e
       0.100262485 -0.012710977 -0.00783025 0.25545016
000090 06 4b ea bb eb b5 64 3d 93 99 24 3f 79 65 4b bd
       -0.007150057 0.055837553 0.64296836 -0.04965732
0000a0 df b2 15 bb 22 86 ef 3e 25 c3 85 bc 3e 52 c7 bb
       -0.0022842211 0.46782023 -0.016328404 -0.006082802
0000b0 cb e2 9e b6 e5 5f a4 3c 88 80 24 b9 00 25 42 bb
       -4.735169e-06 0.020065257 -0.0001568814 -0.0029624104
0000c0 77 9d 00 bd e1 03 87 ba e9 9d 06 bb 54 2a ce 3c
       -0.03140017 -0.0010300839 -0.00205409 0.025166668
0000d0 c8 e1 77 bd 79 0f 4a 3d 82 eb e7 b8 ad a7 58 bb
       -0.060518056 0.049331162 -0.00011058805 -0.0033058927
0000e0 30 47 73 bb 84 87 ec bb ed 61 89 b8 c2 69 d2 3e
       -0.0037121288 -0.007218303 -6.550909e-05 0.41096312
0000f0 e3 b5 05 b9 d1 e2 c3 b4 34 a6 db 39 37 da f8 3d
       -0.00012751626 -3.648661e-07 0.00041894766 0.12150996
000100 0e dc 8e 3d c2 1b 82 3d a0 e4 7d be be 87 ac b8
       0.06975566 0.06352951 -0.24794245 -8.226883e-05
000110 0a 5a 33 bd b2 5a c5 bc db 7c b0 3e be 32 89 b9
       -0.04378704 -0.024091098 0.34470257 -0.00026168482
000120 cd 0f c2 3e 91 ee ef bc 99 04 20 b8 7f 3f 74 bc
       0.3790268 -0.029288562 -3.8151255e-05 -0.014907717
000130 be c3 80 bd 5d 66 b2 bd 76 7c 39 bb 1c d1 1a bb
       -0.06287335 -0.087109305 -0.0028302944 -0.0023623174
000140 bd 5c 34 3e 28 ed 02 be 9c c7 0c bd e4 14 34 bc
       0.17613502 -0.1278578 -0.03437005 -0.010991309
000150 3a b4 3a 3e ff 98 b2 ba 7f 11 6f 3d af 8b 2a be
       0.18232813 -0.0013625919 0.058366295 -0.16654848
000160 90 a4 f9 3d 2d e5 ad bc 8e 60 a8 ba 64 d4 1a 3d
       0.12189591 -0.021227444 -0.0012846158 0.037800208
000170 de 45 df bc 2f 49 80 3d d6 92 d7 3c 2d 66 0e be
       -0.027254995 0.06263959 0.026315134 -0.13906164
000180 02 e4 ea bc 0e 27 f6 3d 5d f4 0f 3f fd 7b 1d bb
       -0.028673176 0.12019168 0.56232244 -0.0024030202
000190 cb 18 bd bb d5 ea 66 bb 06 5e 11 b8 c0 32 65 bb
       -0.005770778 -0.0035235186 -3.465826e-05 -0.0034972876
0001a0 a4 d1 8c bc 70 13 44 b5 d3 41 20 be f2 94 86 3d
       -0.017189808 -7.3043975e-07 -0.1565011 0.06571378
0001b0 0f c0 ea bb 25 04 85 bb 6e ff b8 3c 48 22 27 3c
       -0.0071640084 -0.004059332 0.022582736 0.010201044
0001c0 bc 7c 0b bb 8b b2 ab bd b7 cd 99 3e a2 0d 9e 3e
       -0.0021284064 -0.08383664 0.3003976 0.30869776
0001d0 c6 af 0a bc 1f 17 3c be 68 be 7d bc fd 42 43 3f
       -0.008464759 -0.18368195 -0.015487291 0.7627409
0001e0 47 26 72 3d 47 57 23 bd df 90 ba 3c ad ad 92 bd
       0.059118535 -0.039878156 0.022774158 -0.07162032
0001f0 56 c1 28 3e 50 1f c5 bc 40 66 0d bc 03 59 1e 3e
       0.16480002 -0.024062783 -0.008630335 0.15463643
000200 71 bd 34 bc c0 cb ff bc ec 0e 46 bb 53 25 c2 bc
       -0.0110314945 -0.031225085 -0.0030221296 -0.023699438
000210 0d 3b 07 b4 0a 81 ee b7 21 1a 95 ba 83 5e 8e 3e
       -1.2594337e-07 -2.84319e-05 -0.0011375585 0.27806482
000220 92 ce 0f 3e 04 65 38 3e 21 ee 93 3e 01 74 87 3e
       0.14043644 0.18007284 0.28892615 0.2645569
000230 d6 52 74 bc 77 45 5f b9 69 c8 a4 bd 27 6f 3a bc
       -0.014912328 -0.00021292815 -0.08046038 -0.01137904
000240 28 64 9c 3d 52 47 d3 3c bd f1 61 bb 37 9d 5e 3e
       0.07636291 0.025790844 -0.0034476363 0.2173966
000250 35 3c a1 bc d1 cb 13 bd ed b5 20 b8 66 40 a2 3c
       -0.01968203 -0.036083046 -3.8316404e-05 0.019806098
000260 26 2c b7 bb 04 49 33 ba 24 3a 26 bc ef ff a4 3d
       -0.0055899797 -0.0006839188 -0.010145698 0.08056628
000270 44 41 4f b9 4c 94 ea 3c 55 e6 2d 3d db 72 aa 3d
       -0.00019765372 0.028635167 0.04245599 0.08322688
000280 34 86 77 bc 20 fe 02 bc 73 03 53 bb f1 a6 b1 b9
       -0.01510768 -0.007995158 -0.00321981 -0.00033884452
000290 ac 3e fa bb 42 d7 2e 3f eb d5 ef bd db ce 09 3d
       -0.0076368656 0.6829721 -0.117107235 0.03364454
0002a0 63 73 c0 3d ff c1 32 3f 8c a2 84 3e 85 b9 f6 3d
       0.09397008 0.69827265 0.25905263 0.12047104
0002b0 00 e6 d0 b9 7c aa 80 be 8f 56 9d 3d 97 5b 89 3b
       -0.00039844215 -0.2513007 0.07682525 0.0041918266
0002c0 f2 12 57 3f 92 f3 99 bd 0d a8 5a 3d 64 7c 08 b1
       0.84013283 -0.075171605 0.053382922 -1.9861313e-09
0002d0 23 1c 14 bd 76 d0 ec b7 bc 74 be bc 8e 11 3e b9
       -0.036159646 -2.8230465e-05 -0.023249023 -0.00018126352
0002e0 2a 82 e5 bc 2a 59 cd bb 36 31 06 3e 3b b1 d5 3d
       -0.028016169 -0.0062667327 0.1310471 0.10434195
0002f0 df 1f cc bc 5e 41 b0 bd 94 ba 0a bc 0b 66 54 ba
       -0.024917541 -0.08606218 -0.008467335 -0.0008102364
000300 95 77 97 bc 53 68 0c ba 80 03 5b bb af 37 5f be
       -0.018489638 -0.00053561217 -0.0033418834 -0.21798585
000310 97 69 f6 bd ad ea 65 bc 13 b9 3d a1 67 aa 43 ba
       -0.120318584 -0.014033002 -6.4280635e-19 -0.00074640516
000320 04 e9 ad ba 69 ef 74 bc cd 5e 23 bb af 53 74 be
       -0.0013268297 -0.014949658 -0.0024928332 -0.23860048
000330 75 e0 98 bc b7 d4 17 3d 48 7f dc b7 79 f4 9a bc
       -0.018661717 0.037068095 -2.6285314e-05 -0.018915402
000340 c9 92 bc bd 51 1a e6 3e 93 bd c1 bb 2c 7c a2 3c
       -0.092076845 0.44941953 -0.0059124916 0.0198346
000350 a4 59 db ba 1d 48 00 3b 2f 9a d6 b9 2b 79 15 bc
       -0.0016735089 0.0019574233 -0.00040932136 -0.009123127
000360 db 5d b3 bb 4d ff a7 bb 1c a9 1e 3f 35 23 83 b9
       -0.005473835 -0.00512687 0.6197679 -0.00025012498
000370 8d 1f 3d bc 43 88 95 ba 60 41 9d 3d a7 34 dc ba
       -0.011543167 -0.0011408407 0.07678485 -0.001680036
000380 31 01 22 bc 3d ce 04 3d 7d a8 00 bd 7d 60 82 ba
       -0.009887979 0.032423247 -0.031410683 -0.0009946969
000390 87 a3 29 3d 04 75 0f ba 09 35 2f ba 93 ee e7 bc
       0.041415717 -0.0005472454 -0.0006683623 -0.028312003
0003a0 ce 45 cf b9 19 af 29 bd 80 99 fa 3e f7 67 6d 3f
       -0.00039534125 -0.04142675 0.48945236 0.9273676

encoder.norm.running_mean f4 [236]
000000 49 a8 da be 04 32 41 bf 70 25 bf bd 14 21 a6 be
       -0.42706516 -0.7546694 -0.093333125 -0.32447112
000010 8b b6 2a 40 4f 08 0e 3d b8 c8 a4 40 b9 0c 1a be
       2.6673915 0.034675892 5.149502 -0.15043916
000020 3f 8f 6b c0 17 0f 0a 40 66 90 35 c1 89 ec 65 bd
       -3.680618 2.157171 -11.347754 -0.05613378
000030 82 9f cc 3f 57 d8 87 bf 36 2d 78 37 78 2d 37 af
       1.5986178 -1.0612897 1.4792478e-05 -1.6659907e-10
000040 d8 99 ea 3a 36 f1 07 41 4f 20 ee c0 99 6f c4 be
       0.0017898632 8.496389 -7.441444 -0.38366392
000050 d9 4f 67 bf 79 e5 ad bd 8f 23 de 3e 9e 56 02 c0
       -0.9035621 -0.08491034 0.43386504 -2.0365367
000060 ba a8 53 3f be 2e 2a c1 b8 83 aa bf b1 bf ff 40
       0.8267933 -10.636412 -1.3321447 7.99215
000070 24 bc 38 c1 fd 25 06 be cb 5f 48 c0 bf 7c 33 be
       -11.545933 -0.13100429 -3.1308467 -0.17528056
000080 ef a8 b4 40 b8 ef 17 3f f4 9b d2 3d 4f 5b 02 c0
       5.645622 0.59350157 0.10283652 -2.036823
000090 94 c5 d6 40 e1 2d b7 3f b7 47 8b c0 4b 30 cc bb
       6.7116184 1.4310876 -4.3525043 -0.006231343
0000a0 21 ab 94 3e ec 67 67 c1 d0 42 1b c0 4a 4e f3 bb
       0.2903681 -14.462872 -2.425953 -0.0074251043
0000b0 38 79 52 b5 e6 de 4d bf 50 76 cf 3e 08 a5 90 3b
       -7.840749e-07 -0.8041824 0.40519953 0.0044142045
0000c0 da d9 29 3f c1 fa 65 3c ef 97 24 3d 62 4c 7b 40
       0.6634804 0.014036835 0.040183958 3.926537
0000d0 87 a0 1f c0 75 dc 1e bf b7 75 92 be d1 de e2 3d
       -2.4941728 -0.6205514 -0.28605434 0.11077655
0000e0 96 f7 e9 bf 94 9b db bf d7 44 33 be 92 2b 81 41
       -1.8278682 -1.7156854 -0.17506729 16.146275
0000f0 6b 5b 42 bb 68 4e f1 36 4a 7f 50 ba ec 5d 72 40
       -0.002965654 7.1914874e-06 -0.0007953538 3.7869825
000100 78 cb ed bf 7f 37 35 c1 29 a1 97 bf f5 39 9b c0
       -1.8577719 -11.326049 -1.1846057 -4.850825
000110 84 f7 fc 40 29 c4 2e 41 ad 9c 33 c1 8a e7 63 39
       7.9052143 10.922891 -11.225751 0.00021734662
000120 1c 16 e6 c0 6d c6 73 3f 57 b7 7d 3a 2c 41 9d bb
       -7.190199 0.9522465 0.0009678504 -0.004799029
000130 40 4d 37 bf 3f f6 23 bf 29 25 55 41 2f 52 f2 39
       -0.7160225 -0.64047617 13.321572 0.00046219068
000140 87 2c cc c0 67 24 e0 3e a1 8b a9 40 a4 52 a5 bb
       -6.3804355 0.43777773 5.2982945 -0.005045252
000150 27 fe dd c0 a9 d1 89 3d 26 2d 20 41 94 69 b5 c0
       -6.9372745 0.067294426 10.011023 -5.669138
000160 81 e3 66 c0 a7 5a c6 be 80 32 c5 be c2 65 d2 bf
       -3.6076357 -0.38741037 -0.3851509 -1.6437304
000170 0d 73 33 3d 49 9b e2 bf be 46 90 c0 50 8a 54 bf
       0.043810893 -1.7703639 -4.5086355 -0.8302355
000180 c0 92 59 40 c5 a1 98 c0 da ca af c1 97 72 72 bc
       3.399582 -4.7697473 -21.974049 -0.014797828
000190 8a 8d 12 40 6d 37 1a 41 46 75 43 3f 83 f9 01 40
       2.2898889 9.638532 0.7635082 2.030854
0001a0 d1 57 0a 3e 9f 16 63 3f 48 b0 9c 40 e5 d4 72 40
       0.13510062 0.8870639 4.8965187 3.794244
0001b0 eb 3b 02 c1 37 d1 cc 40 1a 44 0a 41 63 7b 40 41
       -8.139628 6.400539 8.641626 12.030124
0001c0 6b ad 35 be 86 bf 03 40 6a 09 82 c0 a3 9b 0a 41
       -0.17741935 2.0585647 -4.063649 8.662997
0001d0 72 06 9f be 39 47 e3 c0 75 6a 9b c0 9e 57 1e 3f
       -0.31059605 -7.102444 -4.8567452 0.61852443
0001e0 4b 34 17 c0 27 cc 66 bf d1 7d b6 3f 0c e4 0c c0
       -2.3625667 -0.9015526 1.4257146 -2.2014189
0001f0 ad 80 37 41 90 20 e5 bc 24 fb 96 3c 25 d2 a7 40
       11.468915 -0.027969629 0.0184303 5.2444024
000200 70 33 84 bf 8f 55 14 40 ed 4f b9 3c 82 4d bd be
       -1.0328197 2.317722 0.02262112 -0.36973196
000210 79 ca f6 40 d8 d1 98 38 52 79 e3 35 7e fe a6 c0
       7.712216 7.287011e-05 1.6948127e-06 -5.218566
000220 74 3d 06 c0 69 30 f3 3f c2 e8 07 41 f5 54 eb c0
       -2.0975008 1.8999149 8.494326 -7.3541207
000230 8d fc bb bf b3 da 26 41 72 2e f8 3e 93 e1 be be
       -1.4686447 10.428393 0.48472935 -0.37281474
000240 c9 da 67 40 ae 52 73 bf bf 05 74 3f 5e 2b 74 41
       3.6227286 -0.95048034 0.9532127 15.260588
000250 60 f3 84 be 8c 95 0b bf 1d ab f2 3c f9 da 42 40
       -0.2596693 -0.54525065 0.029622609 3.044615
000260 b4 c2 00 bc df c9 a1 be c8 eb 18 c0 8e 59 0c c0
       -0.007858921 -0.31599328 -2.389391 -2.192966
000270 cb 7a 9b 3b e8 6e e3 bf eb 9f 58 41 0e 10 ba bf
       0.0047448627 -1.7768221 13.539042 -1.453615
000280 1f 03 08 c0 2d cf 13 41 b7 8e 72 3c 4e 9d b7 be
       -2.1251905 9.23808 0.014804534 -0.358622
000290 a9 a4 93 40 9e c9 8e bf 0b cc 4b 40 ad 4b be 3d
       4.61385 -1.1155279 3.1843288 0.09291778
0002a0 97 e7 81 c0 f2 6f b0 c1 4f 0e b5 c0 64 b8 82 40
       -4.0595202 -22.05466 -5.6579967 4.0850086
0002b0 c7 32 ff bd e0 de 8b bf af 53 a9 40 63 5c a5 bd
       -0.12460857 -1.0927391 5.2914653 -0.08074262
0002c0 1a 99 85 c0 9e 73 7d bf c1 1d 2a 41 92 6d 2d 33
       -4.174939 -0.9900454 10.632264 4.0379355e-08
0002d0 d1 5c 61 bd 17 fd 4a bd 93 52 80 3f c6 88 ae 37
       -0.055020157 -0.04955777 1.00252 2.0806106e-05
0002e0 35 f6 f0 3d 68 f8 5d 3d 94 a0 0a bf 14 79 5c c0
       0.1176571 0.054191977 -0.5415127 -3.44489
0002f0 4e 20 33 be 82 fe 51 40 2c c5 02 41 a8 7e e0 39
       -0.17492792 3.281159 8.173138 0.00042818976
000300 c8 54 0f 40 8b 20 ae b8 6c f5 83 36 72 43 50 c1
       2.2395496 -8.303028e-05 3.932675e-06 -13.016466
000310 06 e7 26 c0 b6 7f 2a c1 10 00 5a 39 22 7e 86 bb
       -2.6078506 -10.656179 0.00020790123 -0.0041043917
000320 cf cb 3d 41 31 27 0e 41 16 53 84 40 5b 12 55 bf
       11.862258 8.884568 4.1351423 -0.83231133
000330 8d 79 32 41 42 47 e5 3f 5a 6d 8e be 52 1d 66 3c
       11.1546755 1.7912371 -0.27817804 0.014045076
000340 8b 48 55 3f 7d c9 37 c1 6c 1a 2b bf 99 67 a6 bf
       0.83313817 -11.486691 -0.6683719 -1.3000365
000350 b2 fa 14 bd 3b 8e db bc dc 9a 22 3d 8d 60 11 bf
       -0.036371894 -0.02680122 0.039698467 -0.5678795
000360 e4 83 59 bb c3 ad 38 c0 c7 74 9e 41 ab 63 3b 3f
       -0.0033190185 -2.8856056 19.80702 0.73198956
000370 57 78 ce 3e 20 21 3a be 10 d9 3a 40 9f 17 68 3e
       0.40326187 -0.18176699 2.9194984 0.2266526
000380 90 99 28 bd ed c8 22 40 60 21 8f c1 64 40 60 35
       -0.041162074 2.5435135 -17.891296 8.3540203e-07
000390 70 e3 5b 3f 13 4c ae bf 23 3d 04 3c 04 52 c3 40
       0.8589392 -1.3616966 0.008071217 6.1037617
0003a0 bb f7 67 3f 1a 54 81 c0 e8 fb 37 c1 cf e2 8b c1
       0.9061238 -4.0415163 -11.499001 -17.485746
