checkpoints/ae_20%.pt (torch, 915163 bytes, 16 tensors)

encoder.linear1.weight f4 [236, 358]
00000000: be50 2a3c 6342 2abc 82a4 e0bb 2f1e 1aba
00000010: 1d01 743b c961 743b 4fe3 34bc 700a ef3a
00000020: cd99 2dbc 9c26 e63b 2331 d33b d5de 653b
00000030: 98be 803b d26f 293c 8e3e 383c b8ec 913c
00000040: 3672 cd3b da86 443c 23c9 8e3c 54c2 593c
00000050: 2c94 28b9 51c9 943c 1720 6c3c 983f 6c3c
00000060: fefa 7a3b def1 6c3c b87e e43b fcd2 bd3b
00000070: c1e9 2a3c 2496 86bb 5dcf c4bb 5d85 3a3b
00000080: 1303 acbb 1293 52bc 399d 9ebb 222b 2abb
00000090: 59f2 34ba 8c54 3abb 25f5 aa3a ee56 233b
000000a0: e6a0 4dbc 8824 283c 46c6 d23b 5849 9b3c
000000b0: 963c 443c 3558 833b c349 683a 4cd2 ed3c
000000c0: 392c 83bb c789 13bb be6b a23c b274 e43c
000000d0: 8c12 693c 92ac 563d 53ac 5c3c 1802 3f3c
000000e0: af1e 8a3c c4c5 8b3c e27a 1e3d 65ea 853c
000000f0: 9eee 983c 8a57 843b 7533 623b ffa2 8f3a
00000100: bd1a 7bba fbca 853c be37 853c 5bc3 133b
00000110: 63c0 ca39 0e32 413b a245 abbb 3f9c 6bbb
00000120: 778d 8bbb 0e3d 2d3b 1ec9 6fba ebc9 8aba
00000130: 7b95 013a a688 b7ba 9365 8fba 0644 6539
00000140: 703c 13bd 8a29 83bb 6d81 77bc 8600 a43a
00000150: 0720 ad3a a413 b03a 7fcf 973a 39dd 5c3a
00000160: 3295 843a 3784 a2bb 5c6c 2c3b 4539 fb3b
00000170: fd9a ca3a 6807 84bc 7acf 483c ea69 223d
00000180: 1285 5abc efa1 463c 186c 463c 3db0 583b
00000190: 3cd9 d53b d6f2 453d 448c ba3a a6f1 82bd
000001a0: 89e5 073c 2960 fe3b a1c6 be3d f017 43bc
000001b0: 414d 6a3b 84bc 453b 1df3 a73b aaee 693a
000001c0: 2fad b739 9028 e2bb 8923 f3bb 105c a7bc
000001d0: ad89 e1bb f409 45bc 0f0d 9dbd eaff 82bc
000001e0: 0016 973b a227 3e3c d8bf be3b d152 e53b
000001f0: 73ce d23b f2ec 03be f6da febd eef8 27bd
00000200: 8d49 afbc 069c e0bb 8ba0 32bc 22ea 86bb
00000210: 874b 02bb 37c4 a8b9 29b7 d3bb d7f8 97bb
00000220: c126 faba a854 ad3b db2f 243c 3235 483c
00000230: ba87 a83c 0c92 7b3c 7e04 4a3c cba4 d13b
00000240: 0fce c73b 861c e93b 5122 013c 4e7c 51bc
00000250: c456 c63b fa96 273c d06a 53bc 7f7c 90bc
00000260: 0427 12bd 26cf 3539 1155 a6bc e6a9 0d3c
00000270: 0337 2a3c b4f3 42bc 0c04 5a3c 5217 cc3a
00000280: 502e d63a 0b55 b5b9 bcf5 263b c13e 413b
00000290: 5052 333b c6a2 3d3b 51b1 1c3b 3fe3 1f3b
000002a0: 5d29 0fbb c199 beb8 e61b b83b 927b 7e3a
000002b0: 9c8c 113b 0e9f 853b fc83 7ebb 66da 66bb
000002c0: d2b8 ea39 10fc 843b 3073 8dbb 1950 3ebb
000002d0: 7fe7 7d3a c5e7 a2bb 5699 043b 61de 833b
000002e0: f615 5cbc a706 453c f374 543a e9d8 9eb7
000002f0: c378 c039 6c1e 13bc bc50 2f3c a4ff 3038
00000300: e0cf 95ba 237d a0b9 6218 0e3a 54c8 c93c
00000310: 79b6 9bb8 1dfd cd38 f2cc 5239 e923 58b8
00000320: fc2e 67b8 911c e038 9f8c 9ab9 0862 2d39
00000330: 65ca 043b 5c13 4f3a e563 6a39 226c 54b9
00000340: bc5b bbb9 f8d7 5f39 e01b 4db9 6b10 ddb9
00000350: 14c1 30ba bc4a 6038 09d9 63bd db72 a6be
00000360: 2dcc 9739 11c1 6cb9 47a2 aab9 70b2 7239
00000370: 65d1 ae38 63c2 773c b545 10b9 1063 23b7
00000380: cf0a a139 5835 233d f89c 8db8 28b4 03b9
00000390: bdc9 7e3d 2e3d 753d 13cc 7c3d ea0e 59bb
000003a0: 624f d0b9 4634 0eb9 3ebc cbb9 1bac 033a
000003b0: 3d81 603b eeaa cf38 9458 a539 2230 9bba
000003c0: 1ecd 90b9 209c 01bc d977 49bb 815d 6a3b
000003d0: a9ad f93b 5009 bf3b 955a 653c a22b 31bc
000003e0: 8596 1a3b 3bba 823b 1484 303c 0993 7dbb
000003f0: f142 f439 f6ad e039 85ba 3f3c 1554 993b
0.010395227 -0.010391804 -0.0068555484 -0.00058791315 0.003723211 0.003728973 -0.011040523 0.0018237364
-0.010595751 0.0070236456 0.0064450665 0.0035075445 0.0039289705 0.010341601 0.011245383 0.017813072
0.0062697185 0.011995042 0.017429894 0.01329096 -0.00016076927 0.018162401 0.014411948 0.014419459
0.0038296576 0.0144619625 0.006973114 0.0057929736 0.010431708 -0.0041072536 -0.006006165 0.0028460838
-0.00524939 -0.012852447 -0.0048405197 -0.002596565 -0.00069025677 -0.0028431742 0.001304303 0.002492364
-0.012550568 0.010262616 0.0064323274 0.018955871 0.011977335 0.004008318 0.0008861089 0.029030941
-0.0040030745 -0.0022512542 0.019826766 0.027887676 0.014225613 0.05241067 0.01346882 0.011658214
0.016860334 0.017062075 0.03869141 0.01634712 0.018668469 0.004038756 0.0034515534 0.0010958611
-0.00095788745 0.01633214 0.016261932 0.002254686 0.00038671782 0.0029479298 -0.0052268067 -0.0035951284
-0.0042588073 0.0026434097 -0.0009147095 -0.0010588741 0.0004943234 -0.0014002516 -0.0010940306 0.00021864483
-0.03594631 -0.0040027546 -0.015106541 0.0012512363 0.0013208397 0.0013433588 0.0011582224 0.0008425299
0.0010115264 -0.004959609 0.0026309704 0.007666739 0.0015457567 -0.016116813 0.0122564975 0.03965179
-0.0133373905 0.012123569 0.0121107325 0.003306403 0.0065261405 0.04832729 0.0014232476 -0.06393747
0.008294472 0.007762928 0.09315229 -0.011907563 0.0035751613 0.0030172179 0.005125417 0.00089238083
0.00035033512 -0.006901808 -0.0074200076 -0.020429641 -0.0068828673 -0.012026299 -0.07668506 -0.01599117
0.004610777 0.011606129 0.0058212094 0.006998398 0.006433302 -0.12883356 -0.12444107 -0.041008882
-0.021397376 -0.006854537 -0.010902534 -0.0041172663 -0.0019881444 -0.00032189648 -0.0064610434 -0.0046378183
-0.0019085036 0.005289633 0.010021175 0.012219714 0.020572532 0.0153546445 0.012330173 0.0063978187
0.006097562 0.007113996 0.007881717 -0.012785984 0.0060528237 0.010228867 -0.012903884 -0.01763749
-0.03568174 0.00017338674 -0.020304235 0.008646464 0.010389092 -0.011898924 0.013306629 0.0015570915
0.0016340706 -0.00034586372 0.002547606 0.0029486867 0.0027362294 0.0028936132 0.00239094 0.0024396924
-0.0021844723 -9.088545e-05 0.00561856 0.00097077445 0.0022209054 0.0040777987 -0.0038835993 -0.003522539
0.0004476966 0.0040583685 -0.00431671 -0.002903944 0.00096856797 -0.0049714767 0.0020232997 0.0040243124
-0.01343297 0.012025512 0.0008104585 -1.8936074e-05 0.00036711068 -0.008979421 0.010700401 4.2199754e-05
-0.001142975 -0.00030610812 0.00054205034 0.024631657 -7.424964e-05 9.822308e-05 0.00020103509 -5.1531857e-05
-5.511845e-05 0.00010686473 -0.0002947794 0.00016535085 0.0020262238 0.0007899308 0.00022353193 -0.00020258178
-0.00035735767 0.00021347392 -0.00019560708 -0.00042164637 -0.0006742638 5.3475364e-05 -0.055626903 -0.32509503
0.00028953087 -0.00022578637 -0.00032545833 0.00023145392 8.335969e-05 0.015122029 -0.00013758878 -9.738622e-06
0.00030716366 0.039845794 -6.752642e-05 -0.00012560247 0.06220411 0.0598728 0.061718058 -0.0033120462
-0.00039731996 -0.00013561649 -0.0003885943 0.0005022899 0.003425672 9.902367e-05 0.00031537248 -0.0011839906
-0.00027618645 -0.007910758 -0.00307416 0.00357613 0.007619579 0.0058299676 0.013998647 -0.0108136255
0.0023588252 0.0039894856 0.010773677 -0.0038692376 0.00046589182 0.0004285422 0.011702185 0.004679213

encoder.linear1.bias f4 [236]
00000000: 4a30 4135 61ee 2a80 353c d6b4 cfc8 7aaf
00000010: 7db8 21b3 3e03 35b4 961f 0780 53aa 8f2f
00000020: d006 3235 2317 1b24 410c 9f37 10c4 540c
00000030: d97f 1436 a7a4 0380 aec8 cd9d 32fb 0700
00000040: 6abf b70e 453a 0580 59c1 0200 ff65 0700
00000050: 251d 0600 19d7 c231 34d2 d933 2a71 0880
00000060: 1a1b 0600 76cc 0780 180c 0700 3522 17b7
00000070: 2e31 0600 51e1 0600 07c2 0500 8c8f 0100
00000080: ff22 0600 4e3d 78ae 0dbd eb33 b3de bab4
00000090: 204f 0700 d8ed 0100 dade 8f33 f238 0200
000000a0: c639 f3b1 a8a2 0600 63e0 0680 ce9d aab2
000000b0: 7f92 2835 7d8e 0700 a011 0200 83d4 0300
000000c0: c159 eb35 7e97 3435 b2c8 1036 4147 0a35
000000d0: 8013 0400 d389 1931 a496 1620 30f0 b5b4
000000e0: bd1c 0580 7245 0380 580c ed34 d96c 752d
000000f0: 92c5 0400 2ee1 a5b3 ee30 0000 2fcc 0180
00000100: 3007 0700 a14c 7d34 b441 0a00 86e9 1d9b
00000110: 4a46 a5b4 6b3a 0880 4a57 0600 2408 0280
00000120: fcd5 0500 3e2c b2b2 380f 4d32 883b 1a33
00000130: 3728 0600 5a91 53b3 9393 b9b4 4f7d 3135
00000140: cc44 0200 e779 0780 3cd1 0000 79bc 0680
00000150: 64a4 0680 0938 8eb3 ba1d 0580 7d53 8a14
00000160: 4036 0480 7834 0980 01f1 bab1 661f 0500
00000170: 8a7d 0033 8f9e 0600 c22c 0800 d992 a533
00000180: 5a61 0780 e269 0080 d3c3 102e 603a 8f36
00000190: f459 621b b6c2 5c1b 2fd1 0480 82df 0680
000001a0: bfeb ceb4 83bf 0780 8298 c934 25c2 b0b5
000001b0: 89c2 52b4 71da b1b5 f8dd 0400 c8d6 0480
000001c0: 200e 9ab5 148b 8334 f14b a734 7e3c e82a
000001d0: c29c 0300 1060 0480 2a65 0580 96d7 2836
000001e0: 42c4 0880 a2c5 011d ca75 0580 23af 0100
000001f0: 456d 9934 35b9 0e36 553e 1535 2b5f adb4
00000200: ff32 a433 69ef 0300 0be6 0180 f49f 0780
00000210: 42cc 8234 9f60 c534 8b99 22b4 65bd d5b4
00000220: 74d1 7635 d415 36b4 7aeb 0500 7421 0380
00000230: db69 dc35 8c79 0880 0da6 0300 2fb2 0680
00000240: dc61 0700 5248 e132 e53d caab a2df 0780
00000250: 8784 0280 dfcc 99b2 4474 08b3 1a46 0600
00000260: 927a a433 4ba2 52b5 4604 0500 d24d 0080
00000270: a7f3 0080 9f80 3e36 8671 0500 9dcd 0800
00000280: 2cbe 0080 0920 0180 fe0d bdb5 234d 0180
00000290: 42a8 0580 0c3c 0580 2ec4 0400 ba80 da9c
000002a0: 9b85 0880 0782 0680 0797 c931 68d1 0800
000002b0: d6c0 c9b3 7cab 94a0 9596 ad2e 72e6 0780
000002c0: 99c1 0680 cd27 0700 23ab 02ad 0f76 0580
000002d0: 40ea 1534 d85b 0580 b939 0000 ff71 0500
000002e0: 1c6a 0200 48ba c5af 98fd 99b5 0a3b 1bb4
000002f0: 0128 86b2 fd19 1ab4 e99e 0780 600c 57b4
00000300: 05bd 31b6 fe7f 3fb5 8942 0200 ff8c 0800
00000310: 4fd3 0b35 fe1c 0680 b7f5 7133 832f 0200
00000320: b599 0080 40e1 0580 8bdd 0200 1b35 0400
00000330: 4b7a bab5 042a 0700 e363 0500 063b 3735
00000340: fc73 b6b4 01ac 9335 2c15 02b2 a356 0200
00000350: a3a7 4ab3 f703 92b2 d9d3 0600 45e8 adb4
00000360: e1a4 0600 8c42 0080 dc19 0234 8dd6 1c35
00000370: a239 f7b4 c935 1d37 1147 0780 c954 6fb3
00000380: 0dc9 0580 808b 1b33 acdd 8135 0380 1135
00000390: 5447 0380 7e02 feb5 495e 0380 609b beb3
000003a0: c008 0780 3d57 0480 c8eb d835 342e 0080
7.196837e-07 -3.942605e-39 -3.9904413e-07 -2.2808709e-10 -3.7653525e-08 -1.6858118e-07 -6.5418e-40 2.613257e-10
6.632008e-07 3.3629865e-17 1.8959983e-05 1.6390886e-31 2.2128136e-06 -3.34573e-40 -5.4470546e-21 7.3296e-40
4.5297308e-30 -4.8008e-40 2.53031e-40 6.79438e-40 5.61468e-40 5.670597e-09 1.0143086e-07 -7.7528e-40
5.60735e-40 -7.16195e-40 6.47187e-40 -9.008266e-06 5.68655e-40 6.31841e-40 5.28781e-40 1.4333e-40
5.63567e-40 -5.644312e-11 1.09774284e-07 -3.4807235e-07 6.71233e-40 1.77158e-40 6.699493e-08 2.04099e-40
-7.078799e-09 6.09363e-40 -6.31508e-40 -1.9862366e-08 6.2798057e-07 6.93964e-40 1.89994e-40 3.51741e-40
1.7534986e-06 6.7275676e-07 2.1574492e-06 5.1512694e-07 3.74337e-40 2.2342774e-09 1.2755337e-19 -3.3888637e-07
-4.69487e-40 -3.00419e-40 4.415367e-07 1.3950807e-11 4.38217e-40 -7.724371e-08 1.7553e-41 -1.65083e-40
6.45427e-40 2.3590339e-07 9.41925e-40 -1.3062191e-22 -3.0784787e-07 -7.5564e-40 5.82326e-40 -1.86591e-40
5.3594e-40 -2.0742046e-08 1.1936031e-08 3.5910062e-08 5.6544e-40 -4.9259462e-08 -3.456631e-07 6.6119986e-07
2.0835e-40 -6.86579e-40 7.5059e-41 -6.18624e-40 -6.09985e-40 -6.622583e-08 -4.69841e-40 1.396737e-26
-3.86803e-40 -8.45342e-40 -5.4407114e-09 4.70441e-40 2.99165e-08 6.07893e-40 7.5074e-40 7.710123e-08
-6.77772e-40 -3.7984e-41 3.2915736e-11 4.268528e-06 1.8723347e-22 1.8260888e-22 -4.42383e-40 -6.31192e-40
-3.8542018e-07 -7.1155e-40 3.7550132e-07 -1.3169525e-06 -1.9628546e-07 -1.3251102e-06 4.4697e-40 -4.44391e-40
-1.1478005e-06 2.4501844e-07 3.116143e-07 4.1253454e-13 3.3174e-40 -4.01803e-40 -4.95468e-40 2.5159438e-06
-8.05088e-40 1.7175182e-21 -5.01432e-40 1.54663e-40 2.8577975e-07 2.1267454e-06 5.559753e-07 -3.2293005e-07
7.646121e-08 3.6139e-40 -1.7436e-40 -7.00229e-40 2.4363004e-07 3.676441e-07 -1.5143284e-07 -3.9812144e-07
9.1946936e-07 -1.6958012e-07 5.4365e-40 -2.87507e-40 1.6422085e-06 -7.78287e-40 3.35074e-40 -6.14933e-40
6.77954e-40 2.6226335e-08 -1.4370142e-12 -7.23073e-40 -2.31213e-40 -1.7904709e-08 -3.177071e-08 5.7616e-40
7.6591405e-08 -7.8467264e-07 4.6071e-40 -2.7917e-41 -8.7406e-41 2.8387074e-06 4.99902e-40 8.08444e-40
-6.8221e-41 -1.03328e-40 -1.408567e-06 -1.19507e-40 -5.19537e-40 -4.80718e-40 4.37718e-40 -1.4459305e-21
-7.82613e-40 -5.97658e-40 5.8670397e-09 8.09805e-40 -9.3948685e-08 -2.5185654e-19 7.893878e-11 -7.25517e-40
-6.20463e-40 6.57126e-40 -7.4276444e-12 -5.01529e-40 1.3961926e-07 -4.92125e-40 2.0707e-41 5.00072e-40
2.21736e-40 -3.5966452e-10 -1.1473194e-06 -1.4456978e-07 -1.5617845e-08 -1.4351822e-07 -6.99855e-40 -2.0027937e-07
-2.648508e-06 -7.13393e-07 2.0754e-40 7.85264e-40 5.208903e-07 -5.61413e-40 5.633566e-08 2.00715e-40
-5.514e-41 -5.39982e-40 2.63146e-40 3.86393e-40 -1.3893672e-06 6.57921e-40 4.9501e-40 6.8258703e-07
-3.3984531e-07 1.1002413e-06 -7.57181e-09 2.1475e-40 -4.7184255e-08 -1.699844e-08 6.2701e-40 -3.239276e-07
6.1016e-40 -2.3873e-41 1.2116601e-07 5.842674e-07 -4.6049269e-07 9.370452e-06 -6.68342e-40 -5.5723635e-08
-5.31301e-40 3.6215624e-08 9.675764e-07 5.420299e-07 -3.01094e-40 -1.89252e-06 -3.0933e-40 -8.875827e-08
-6.45987e-40 -3.98637e-40 1.6161875e-06 -1.6575e-41

encoder.linear2.weight f4 [118, 236]
00000000: ec7a 483d 127a b1bd d268 00be 8976 d0bc
00000010: 2a0a f33a 6935 78bb e10b 0abe a24c bf36
00000020: db05 133d 52a9 ecbd e79a 633d c2f9 33be
00000030: 5aef f5bd 4fe1 c6bd 27e2 98bd 69e9 0b34
00000040: ae1b 72be f937 d9bd b66e 42be 033d 34be
00000050: a962 cabd 55a4 1cbe 5927 d53b 5417 84bd
00000060: d3bf 36bd 9d32 ba3a b477 833a 12d2 cbbd
00000070: eb23 2ebe b7c3 72be f864 df39 8e71 f1bd
00000080: e81e c134 067d daba 5607 22be 5c2b 4dbe
00000090: b385 25be 7175 efbd a4ff 393a 1042 16be
000000a0: f0ae 863a ae6d e5ba 77d0 63b7 6bd8 9a39
000000b0: 276f ae3b d37d 1c3c ad0d 1e3d 600d 0bbe
000000c0: abc3 c5bd 4524 4aba baff 38be 5aed d3bd
000000d0: 22e8 03be ec7d 5bbc 370d 6d3b fa1a bb3c
000000e0: eb1e 9abd 833d f7bd 156d 293d 147c 223b
000000f0: 08f5 febd ae54 ff3a 5aeb 51be a7d6 fcbc
00000100: b57d 0bbe 785c 893c ef47 6abe 3434 d6bb
00000110: e1f5 e1bc 71b6 08be 53bd a821 7af6 2fbe
00000120: 0da2 66be 27c8 533b 66da d63a 94f1 08bc
00000130: 6bbc 18bd ca98 013b c9a1 503c 6d5e f0bd
00000140: 8d8b 14be 0aec 82bb c480 d83a d10d f8bd
00000150: 6c95 3f3c 4512 46bb 5193 06be 900d e2b7
00000160: 767d f0bd 9959 a0bc 7225 0d3b 8121 f5bd
00000170: f4d1 e93a 15fa 37be a4a4 12be a6af 863a
00000180: 115b 23be 877b 99bc b7a6 23bb d247 d3bc
00000190: 2de9 8fbc 4d82 42bc f14a 4bbe 84d0 1939
000001a0: 16a4 af3d 80b7 89bb 69fd e7bc c2d5 9bbd
000001b0: 8c29 25be 2fa9 a53c fcae f839 cc64 5abe
000001c0: 2d32 cd3c e5a3 063b 6c0d bf3b 52da d0b6
000001d0: c091 ec36 168c 20be e59e 063b d2d9 23be
000001e0: 1f3d 133c ef53 08be a8da 383a a420 04ba
000001f0: a36f 9d3b 5cc7 923c 147f 0eba c3a1 c1bd
00000200: 21e3 593d d738 27be 3323 13be 4900 35b2
00000210: 33f7 6c3a afe9 253d 4e0c 803b be3b bfbd
00000220: 27fb 04be 57f6 393c 324d 03be b9b1 6fbc
00000230: 5ad6 b8bd 9af8 9837 791a 36be f8f3 6bbe
00000240: a9e7 c6bb cbe9 bcbb 6603 f5b8 bae3 5cbb
00000250: f729 2ebe f3c3 7e3b 15a9 1639 036d 3abb
00000260: 9423 e1ba 3f9c 52ba ee16 e9bd 6a46 14be
00000270: 7935 82ba 761f 0abe e8c6 63ba 0c36 c0bb
00000280: 6273 39be a5a8 f237 64c5 963c 9c89 d3b7
00000290: 4944 1ebe 681a fb39 3147 9ebb 2581 25be
000002a0: 7605 3838 f1c7 03be 8cd3 adb8 fa6e 03bd
000002b0: a39b 9d3b 9199 96bd 3b1b 19be da57 6a34
000002c0: 3820 b7bd f344 c6b9 165f 07be 1508 0ebe
000002d0: 022b b23a 3552 0ebc 688b b2bc b47c ca37
000002e0: b54a 593b ea83 97bc 55b5 3ebe 2eb8 c3bd
000002f0: b1ea f9bd 75d6 a73b abd2 63be 2a35 22bc
00000300: 0d26 9e3b f4cf 71bc 1b54 953c 33f2 0abe
00000310: 7047 4e3b c5da 083a 01bc 1cbd 01ff e6b6
00000320: 3238 8232 228b 65ac a810 5db8 f904 12be
00000330: 5a21 82bd a1d8 0d39 3c5f 2bbe 0857 c33c
00000340: 2dcb bc3c 1bd6 1bbe 0832 1ebe fe10 ecbd
00000350: 2b16 fdbc fbe8 7f3b 907c d2bd cb3c b5bd
00000360: 0cd7 693b 8b25 f7ba e1e8 fc3c 0b54 ebbd
00000370: 103a 23bc 70f2 503b c1fa 07be 9084 7b3d
00000380: 7371 a2bd 518b 9f3c 7004 043d 9d1d e8bb
00000390: 5043 08b2 74f2 d3bd 696e 8135 c59c b83c
000003a0: 620e 75b4 cd69 083c 7b17 5bbe 0f93 23b9
000003b0: a2cc 4c3d cd02 e8bd 1d49 1fbe fbd7 92bb
000003c0: 8fe0 0f3b e9f6 28bc fd5e 1abe e32a 7836
000003d0: 26b4 8f3d ce9e 17be 3fef 0c3d db7b 37be
000003e0: 9ca4 b1bd ae96 debd 867d a0bd 67ea b133
000003f0: 5e0c 0cbe e34b 00be a5b6 2cbe e48a 1abe
0.048945352 -0.08665861 -0.12539986 -0.025447147 0.0018542458 -0.0037873632 -0.13481094 5.701165e-06
0.035894256 -0.11555733 0.05556765 -0.17575744 -0.12008543 -0.09710943 -0.0746501 1.3030298e-07
-0.23643371 -0.10606379 -0.18987545 -0.17601399 -0.09882099 -0.15297063 0.0065049347 -0.06449762
-0.04461653 0.0014205758 0.0010030181 -0.09952177 -0.17005889 -0.23707472 0.00042609102 -0.11789237
3.597154e-07 -0.001666934 -0.15823111 -0.20036072 -0.16164283 -0.11692322 0.00070952834 -0.14673638
0.0010275524 -0.0017504 -1.3578791e-05 0.00029534413 0.005323309 0.009551483 0.03858726 -0.13579321
-0.09656461 -0.0007711093 -0.18066302 -0.103480056 -0.1288152 -0.013396721 0.0036171207 0.022840012
-0.075254284 -0.12072279 0.041363794 0.0024793195 -0.1244908 0.0019480193 -0.20499936 -0.030864073
-0.13622172 0.016767725 -0.22879003 -0.006536985 -0.027583065 -0.13350846 1.1434237e-18 -0.17183867
-0.22522755 0.0032315345 0.0016391992 -0.008358378 -0.037289064 0.0019774907 0.012733885 -0.1173676
-0.1450636 -0.003995423 0.0016517867 -0.1211201 0.01169334 -0.0030223292 -0.13142134 -2.6947615e-05
-0.1174268 -0.019573973 0.0021537212 -0.11969281 0.001783906 -0.17966492 -0.14320618 0.0010275736
-0.15952708 -0.01873566 -0.0024971196 -0.025791083 -0.017567242 -0.011871886 -0.19852807 0.00014668895
0.08576219 -0.004202783 -0.028319078 -0.076091304 -0.1612913 0.020222275 0.0004743262 -0.21327513
0.02504834 0.0020544466 0.0058304574 -6.224299e-06 7.0503156e-06 -0.15678439 0.0020541486 -0.1600106
0.00898674 -0.13313268 0.0007051625 -0.0005040264 0.004804568 0.017917328 -0.0005435806 -0.09454682
0.053195123 -0.16330276 -0.14368896 -1.05356515e-08 0.0009039521 0.04050606 0.003907717 -0.09337567
-0.12986432 0.011350236 -0.12822416 -0.014629775 -0.09025259 1.8235576e-05 -0.17783536 -0.23042285
-0.0060700965 -0.005765175 -0.000116831434 -0.0033705072 -0.17008196 0.003887412 0.00014368103 -0.0028446324
-0.0017176741 -0.0008034147 -0.113813266 -0.14479986 -0.0009934149 -0.13488564 -0.0008689002 -0.005865818
-0.18110421 2.892718e-05 0.01840467 -2.521724e-05 -0.15455736 0.00047894125 -0.004830264 -0.16162546
4.3874104e-05 -0.1286924 -8.2886865e-05 -0.032088257 0.004809813 -0.07353509 -0.14951794 2.1824908e-07
-0.08941692 -0.00037816874 -0.13219866 -0.1387027 0.001359314 -0.008686592 -0.02179499 2.4138346e-05
0.00331561 -0.018495519 -0.1862386 -0.09556614 -0.12202967 0.005122001 -0.22248332 -0.009900371
0.0048263134 -0.014759053 0.018228581 -0.13568954 0.0031475686 0.00052205875 -0.038265232 -6.8842205e-06
1.5159547e-08 -3.2620092e-12 -5.270602e-05 -0.1425971 -0.063540176 0.00013527508 -0.16735548 0.02384521
0.0230461 -0.15218394 -0.15448773 -0.115266785 -0.03089436 0.003904878 -0.10277665 -0.08849486
0.0035681156 -0.0018855793 0.030872764 -0.11490639 -0.009962574 0.0031882785 -0.13279249 0.06140572
-0.07931795 0.01947561 0.032230794 -0.0070836083 -7.931547e-09 -0.10348979 9.643383e-07 0.022535691
-2.2822636e-07 0.008326006 -0.21395676 -0.00015599675 0.04999984 -0.11328659 -0.15555234 -0.0044813133
0.0021953916 -0.010312774 -0.15075298 3.6979843e-06 0.070167825 -0.14806673 0.03440785 -0.17918341
-0.08673975 -0.108685836 -0.07836442 8.284842e-08 -0.13676593 -0.12528948 -0.16866548 -0.15092045

encoder.linear2.bias f4 [118]
00000000: 4335 c1b6 6416 68b7 e1fd 7db5 2e41 58b6
00000010: 955b 5636 65cf 63b5 eb65 efb6 476d 89b3
00000020: d327 e636 62bb 7837 a000 5c33 1538 bc36
00000030: 840a f0b5 8ee4 2cb5 e62b fe32 20a4 ff36
00000040: c5ac 98b6 7753 86b6 5dd0 5db6 9f36 8337
00000050: 3fd3 0835 9024 04b7 4c55 cd34 de54 d937
00000060: 0908 52b6 443e a8b7 fc5f e8b7 d79b 6fb6
00000070: 5429 df36 031d 80b4 f75e 93b6 eda8 3fb3
00000080: a304 6937 1a1e 0fb7 cd76 2ab7 66e0 18b6
00000090: 5af2 e632 916a e9b6 e7ae 0c37 e28d 4eb6
000000a0: b13e ddb6 04ad bd34 869f d236 fa00 81b6
000000b0: 236a 5035 ca25 d237 8cec 3fb5 8ed3 4f35
000000c0: 0fc6 efb6 1fc0 b136 06e7 39b5 3e02 9b37
000000d0: a424 15b6 ba11 0938 67b3 c237 fe70 2a33
000000e0: fdd4 9236 8fee 1eb6 7fce 0bb7 bb21 87b7
000000f0: 607b 3836 77c0 28b7 97bd 3137 f8e6 72b6
00000100: 97e8 50b6 012f 6eb5 679c cb37 22b9 7bb7
00000110: 1d11 bfb7 1db1 acb5 3d87 98b6 53f9 81b6
00000120: 9c0d a9b5 d54e f8b6 38b3 fdb5 dc98 a135
00000130: f378 2bb6 fb68 6e37 75f3 00b6 14c0 fd36
00000140: 58c2 22b5 15fc a1b7 a51a 0538 7431 b331
00000150: ad4c 5a36 87b7 3b36 0de3 cdb4 8c6f 34b4
00000160: 00fe 3335 4028 24b5 64e3 c936 b979 00b6
00000170: 18e5 b432 df13 d137 a034 d5b5 c91e 9a37
00000180: 25f7 d836 a3c5 0436 bbbb 2e35 f5bc 3436
00000190: 809d 0034 810a 0536 039b 2637 4533 68b7
000001a0: 7ec4 0ab6 1935 11b7 e0b7 b3b5 00c8 0fb7
000001b0: b599 8433 69de e934 2b38 a8b6 689b 4934
000001c0: d511 c4b7 99da a535 25f5 0cb7 0856 2336
000001d0: b44c 5cb7 dd09 8336
-5.7580487e-06 -1.3833491e-05 -9.4619287e-07 -3.2224448e-06 3.1941793e-06 -8.486589e-07 -7.13462e-06 -6.399437e-08
6.8591703e-06 1.482558e-05 5.122331e-08 5.6093654e-06 -1.7884454e-06 -6.4407584e-07 2.9589454e-08 7.618699e-06
-4.550066e-06 -4.003228e-06 -3.305285e-06 1.5641852e-05 5.097135e-07 -7.876326e-06 3.8246287e-07 2.5907935e-05
-3.1297116e-06 -2.0056155e-05 -2.7701251e-05 -3.5704486e-06 6.650729e-06 -2.3862967e-07 -4.3919968e-06 -4.462429e-08
1.3888962e-05 -8.530473e-06 -1.016045e-05 -2.2780382e-06 2.6885733e-08 -6.956347e-06 8.385373e-06 -3.0778979e-06
-6.5936115e-06 3.532988e-07 6.2770587e-06 -3.8446133e-06 7.764049e-07 2.5051548e-05 -7.1497266e-07 7.742136e-07
-7.145812e-06 5.297377e-06 -6.9254054e-07 1.8478484e-05 -2.2224058e-06 3.2679854e-05 2.3210143e-05 3.9683975e-08
4.375934e-06 -2.3682694e-06 -8.333124e-06 -1.6108961e-05 2.748995e-06 -1.0058392e-05 1.0594164e-05 -3.6195252e-06
-3.11298e-06 -8.873031e-07 2.4272316e-05 -1.500387e-05 -2.2776943e-05 -1.2866545e-06 -4.545697e-06 -3.8735247e-06
-1.2595442e-06 -7.400153e-06 -1.8902128e-06 1.2039923e-06 -2.5551387e-06 1.4210348e-05 -1.9215197e-06 7.5623484e-06
-6.063251e-07 -1.931008e-05 3.1734486e-05 5.215208e-09 3.2529163e-06 2.7971998e-06 -3.8349427e-07 -1.6804387e-07
6.7052315e-07 -6.115333e-07 6.0167386e-06 -1.9144338e-06 2.1058938e-08 2.4923995e-05 -1.5885053e-06 1.8372566e-05
6.466073e-06 1.9784572e-06 6.5093235e-07 2.6932078e-06 1.1978227e-07 1.9824658e-06 9.9304625e-06 -1.3840215e-05
-2.0677976e-06 -8.655036e-06 -1.3390054e-06 -8.57003e-06 6.174688e-08 4.3561457e-07 -5.013329e-06 1.877612e-07
-2.3373324e-05 1.2357078e-06 -8.401727e-06 2.433897e-06 -1.3130881e-05 3.9052525e-06

encoder.norm.weight f4 [236]
00000000: f21b a33e 1b7c 27ba 8d6a 063e 59d1 0d3b
00000010: af99 b13c a53e d63d 77fc 1b3c e24a 863b
00000020: 7b97 863e d3de 893d ea61 153f 1041 803a
00000030: ccfe 883e 59e9 933c cff0 bf3b f641 c53a
00000040: 0ab1 e739 bfa9 8936 9eae b9b9 b3b4 52ba
00000050: db1a c22e 21b8 a83e 1551 003e c077 82b9
00000060: 1904 fdb8 c2db b92a a41c ad3a f575 003f
00000070: 45ff 1bbc 80b2 b638 6ebb 043a 7f43 05bb
00000080: 4537 d6b2 9a38 8cba 4d97 803b f08b 09be
00000090: 9e0c f839 23b8 cc35 5236 153d 0178 a73c
000000a0: ede6 5e3c bdb2 c73c 7e39 f93a 3017 803b
000000b0: dd3f 1d3e 98b5 fc3c 2d66 c8b8 c62c 8a36
000000c0: ad88 9f3e e5ee 6d3d 615f 383e 5090 2e3d
000000d0: 46e6 e0b6 2168 f1ba 9cbc b93d c8cd 883e
000000e0: 859b 5f3b acfa d636 fc4d 083f 7291 ec3b
000000f0: 598d c03c 6e6e 8a3d 15f4 853b 935a c03a
00000100: a105 02bb d40e a43e 8ed6 95bc 9dce 18b9
00000110: 882b 8c3e dadd 8b36 86ba 0e35 73a1 90b5
00000120: c299 b33c aa94 5a3d 709c cd3d 5510 073f
00000130: 6762 89b3 a2bd 5d3d 62eb 393e d6da 17be
00000140: 24de ee39 9191 c33a 5aee c03b 7c4c b43a
00000150: 4873 553c ed28 443e dacc 8eb9 6a84 e1ba
00000160: 33ab 0fbc c2e9 8fb6 b718 bd3b 830c ca3c
00000170: 20c7 4b3c 66b9 2939 63f3 a6b8 2da8 bb3d
00000180: 3d60 ab39 d4ea cb32 d151 f3ba a09f a63e
00000190: 2b4f 7fbb 79f7 ee3a 77f4 223c d212 9639
000001a0: e44d f23e f2bc e43a 6ca8 df3d 01fc 953e
000001b0: bbe6 2d3e 1e1e b93e 73d7 4338 ac9f 373c
000001c0: 3e55 ca3e 4a08 183e a250 aa3d bd76 7f39
000001d0: 5e42 f838 6fa0 6539 b5e4 afb6 be37 cf3e
000001e0: 4bed d83a c535 8a3a 9d93 bab1 2a07 4435
000001f0: f163 d13d 6769 1f3f c177 453d 3965 133e
00000200: 60d3 e73e 0d8e a63d 67d4 39b7 6fee 8238
00000210: 0361 773d db6c 1c3f 9346 67be 80e4 da3e
00000220: 9c32 293f 32fc cf3d d09d dfba 5a48 b2bb
00000230: 7be8 c23e 5949 0337 7329 ebba d805 01b8
00000240: 33cd d336 13b2 573c afe5 e93a 60e9 d0ba
00000250: ffa8 043c 7a00 223d 146e a53c 04fd b73c
00000260: dce4 973d 910f d23e c091 973c 0875 2dba
00000270: f5d9 1b39 3660 9e3e d35d f139 aa38 a038
00000280: 6c84 703b 6458 9039 d6c6 2f3e 446e 8b32
00000290: b2b1 283b 1766 c638 a51f 213d ab3d bc3b
000002a0: 3199 b32f b304 053a 6a79 df3a b71f 61af
000002b0: 42d7 623d f369 643d 9f32 303c fac5 3e36
000002c0: 624d 0dba 6eb5 abbb 2e5a 563d c925 e5b9
000002d0: 8eb8 433d 515c 653a 51bc 4fba ab4c 1036
000002e0: 251a a53b fe1f 823b ea19 683e cd03 213c
000002f0: 812a 2f3e 239a 5b3d 9448 d039 aa51 b43d
00000300: 7d48 193f 5196 223e 3a9a b93a 4e29 d739
00000310: d4e8 c93d a4fc 2831 6eda 9d3d 01d3 f035
00000320: 0031 3837 33d5 b033 8131 f938 e7b9 483c
00000330: a751 453e 0557 b7b8 1a83 913b 750b a93e
00000340: a61c 8e3e b4af a73e 869d fdbc ebeb 593c
00000350: 6707 cabc 8c01 4d3e 2320 803b e2c3 503e
00000360: 1a84 55b7 0048 233c c5bc 8f3e 2950 023f
00000370: d3e6 5e3e a607 c43e ead7 0236 b460 043d
00000380: d6f6 9db9 db11 e93e f584 ac3e 733a 7dbd
00000390: 8e69 52b5 9103 bb3e 98ce 7c3a d05a 763e
000003a0: aca2 06b6 1da6 1cb8 5bd8 b73e effa ce38
0.31857258 -0.00063890376 0.13126583 0.0021639674 0.021679727 0.10461167 0.0095206415 0.004098282
0.26287445 0.067319535 0.5835253 0.0009785015 0.26756895 0.018055605 0.005857564 0.0015049565
0.00044191658 4.102679e-06 -0.0003541605 -0.00080377905 8.826869e-11 0.3295298 0.1253093 -0.00024884753
-0.00012064743 3.301509e-13 0.0013207388 0.5017999 -0.00952131 8.7116845e-05 0.00050633296 -0.002033442
-2.4938013e-08 -0.0010698021 0.0039242865 -0.13432288 0.00047311647 1.5252775e-06 0.036428757 0.020442965
0.013604862 0.024377221 0.0019014326 0.003909014 0.15356393 0.03084831 -9.555775e-05 4.117933e-06
0.31158963 0.058089156 0.18005134 0.042618096 -6.7025276e-06 -0.0018417874 0.090691775 0.267195
0.0034119796 6.406879e-06 0.53243995 0.007219487 0.0235049 0.06759344 0.0040879347 0.0014675431
-0.001983978 0.32042563 -0.018290784 -0.00014572819 0.27376962 4.1683497e-06 5.317055e-07 -1.0775824e-06
0.021923903 0.053364433 0.10039604 0.52759296 -6.397459e-08 0.054135926 0.18156198 -0.14829573
0.00045560405 0.0014920702 0.0058877887 0.0013755704 0.0130279735 0.19156237 -0.00027236977 -0.00172056
-0.008768844 -4.288945e-06 0.0057707685 0.02466417 0.012437612 0.00016186162 -7.960831e-05 0.09162936
0.00032687365 2.3739098e-08 -0.0018563812 0.3254366 -0.00389571 0.0018231712 0.00994598 0.00028624252
0.4732505 0.001745133 0.10920796 0.29293826 0.16982548 0.3615579 4.6692276e-05 0.011207502
0.3951816 0.14846912 0.08316161 0.00024362929 0.000118379234 0.00021898908 -5.2420314e-06 0.40472215
0.0016550211 0.0010544589 -5.430094e-09 7.3026115e-07 0.102241404 0.62270206 0.04820991 0.14394082
0.45278454 0.08132563 -1.1076313e-05 6.243295e-05 0.060395252 0.611036 -0.22585516 0.42752457
0.6609285 0.10155524 -0.0017060582 -0.005440754 0.38067994 7.825286e-06 -0.001794143 -3.076144e-05
6.3121784e-06 0.013165015 0.001784494 -0.0015938692 0.008096932 0.039551236 0.02019409 0.022459514
0.07416698 0.410275 0.018502116 -0.0006616865 0.00014863147 0.30932778 0.00046037007 7.639949e-05
0.0036700023 0.00027531676 0.17165694 1.6231873e-08 0.002574068 9.4603914e-05 0.03933682 0.005744656
3.266876e-10 0.00050742476 0.0017049734 -2.0474898e-10 0.055381067 0.055765104 0.0107542565 2.8427444e-06
-0.0005390254 -0.005240134 0.052332096 -0.00043706436 0.047783427 0.0008749413 -0.00079244847 2.1502299e-06
0.005038517 0.003971099 0.22666135 0.009827566 0.17106058 0.053613793 0.00039726926 0.08804639
0.59876233 0.15877654 0.0014160343 0.0004103877 0.098588616 2.4590827e-09 0.07707678 1.7942804e-06
1.0978663e-05 8.2344194e-08 0.00011882466 0.012251354 0.19269429 -8.742329e-05 0.0044406774 0.33016554
0.27756232 0.32751238 -0.030958902 0.013300876 -0.024661733 0.20020121 0.003910081 0.20387223
-1.2726547e-05 0.009965897 0.28073707 0.50903565 0.2176774 0.38287085 1.9497188e-06 0.032318786
-0.0003012928 0.45521435 0.33695188 -0.06182332 -7.83847e-07 0.36526158 0.0009643822 0.2405808
-2.0062243e-06 -3.7348003e-05 0.35907254 9.8695855e-05

encoder.norm.bias f4 [236]
00000000: 565b 0bbd b329 47bb 0c96 b93e ade3 b9bb
00000010: 6be6 703d 958f 29be 4386 a2bd 4f19 3dbb
00000020: 1d2a 813d 9572 05be 201e 2f3f 0864 bdbc
00000030: 10ce 8abe e1e1 25bd c2bd 4cbc 98e3 c4bb
00000040: 5521 f3bb 0ab6 80b8 2298 55ba a9e2 a9bb
00000050: e9ad 77b4 8b2e 9ebe 1fb5 94bc fc56 fdba
00000060: c2e4 8bba 065f a7bc 1d8f 49bc ea27 3c3f
00000070: 7207 6cbd de2e afbb 4160 c0bb 9984 74bc
00000080: 4937 23b9 d093 143d 7acb d73d 3041 8a3e
00000090: e14c fdbb 953f 6ab9 4f68 aebc 4447 5ebd
000000a0: a2f6 9cbb 6a72 dcbd a63c 13bc d4b0 12bb
000000b0: c359 1fbe d437 e2bd 0d30 f7ba 2d09 8bba
000000c0: 9222 243f 85c2 cfbd 88ba 0d3f 9476 8cbd
000000d0: d034 4bb8 5ac9 683d 7e59 5bbe d320 a53e
000000e0: 08b1 0ebd 6126 75b4 0690 a6be 1f6d 72bc
000000f0: 5c9b 5dbd 241a 283e 17a4 5dbc e60e f7bc
00000100: 58f2 b8bb 2493 dfbc 9232 fabd 2739 4dba
00000110: df1f 3e3e 78f6 23b9 7699 0fba 6d05 28bb
00000120: 706b 16be 9641 68bc 6392 5b3e 3a73 763d
00000130: d335 4ab7 2416 883b a0ac 6abd 52cb 913e
00000140: b295 c9ba f1a2 3ebb c9b9 48bd e3e7 1abb
00000150: de69 1fbd 8032 423d f4e4 04bc 275c c7bb
00000160: e53a 99bd 879f d9b8 0ef3 e1bb 647c 25be
00000170: 7495 8c3c e6b5 52ba a460 0bbc b5d6 e1bd
00000180: f916 cbbd b4a0 d9b9 6312 ba3c dc03 063f
00000190: 7d9d 09bc 9462 99bb 839b aebd e536 98bb
000001a0: 4319 1fbd ead6 b3bb fa33 ab3e 7fac f7bd
000001b0: 04b9 47be 2568 2dbe 918d 72bb 020e 44be
000001c0: 964f 6dbe 607a 2e3c f86a 1dbc 7c49 d4b9
000001d0: 1ea4 b3ba 4166 4ebb 4d81 b2b7 1700 a33d
000001e0: a17a 05bd b8e8 55bb fea1 92b3 6b21 8fb8
000001f0: cd24 3c3e 0e25 c33e 9f04 8a3d 074d 193d
00000200: 8316 e03c d02e 64be e879 9eb8 1f96 7ab9
00000210: 5e12 a0bd 2293 a1bc 6550 c03d 5f5b 383f
00000220: 56ad 7c3f fb14 23be 7bdf 14bb 25af 56bc
00000230: cefb 9c3e 6ae2 49bc 29df a7bb b234 84bc
00000240: dea8 e7b8 5fc4 0d3d 6c78 1bbb d16f c1bb
00000250: 49b6 a3bd a919 4cbc 8b83 f3bc cbfe c1bd
00000260: cf63 8b3c cd2b c73d f728 a4bd 8edd 12bb
00000270: c854 cdb9 c764 863e c510 7cba 44c4 97ba
00000280: c085 0fbc dc1f b0ba 59e5 4a3e 8d69 e3b8
00000290: 21f9 92bc 0836 c6bb a2c8 1fbe 64cd 3cbc
000002a0: 645c 9db5 afd7 38bb 9e07 313e 6c50 8ab4
000002b0: 0ddf acbc ee23 f8bd 7b01 41bd 6d04 b0b8
000002c0: 6c86 f4ba b391 46bc d19a 07be ea97 24bd
000002d0: 3003 fabc c4ab c5bb 3115 24bb 5972 3fbc
000002e0: c282 93bc fccc 71bb c569 033f 6ca3 9ebc
000002f0: 1d84 c43e 41af 593e 3f0b edba 6cd4 1b3e
00000300: ff70 6f3f 6c11 73be 2405 acbb f6b5 3abc
00000310: 1721 163e b189 6bbc 434b 163e f324 31b6
00000320: bf6b a1b7 5f46 e8b4 a5c3 83ba b51f 2ebd
00000330: c834 c83e f66d 97bc aa00 9abc 5bd3 ce3b
00000340: f957 3dbd 9076 fb3e 3d4d 5fbd bb2a 55bd
00000350: 9c27 b63d 2b47 4f3c dbcd 0abc 215a b73e
00000360: f8e8 d6bb 4d41 0fbe 4767 a23d 2caa cfbc
00000370: 855c 7f3c e1c4 153f 54c9 01bc d127 6cbd
00000380: e44c cdba a567 f5bd 844c 673d 76de 003d
00000390: 554e bcb7 6a6b 2d3e 76bc 4fbd b4f2 7b3d
000003a0: 6560 e6b6 fcde 0cbb 3da6 1f3f 0a40 c8ba
-0.03402265 -0.0030389845 0.3624729 -0.005672893 0.058813494 -0.16558678 -0.07935765 -0.0028854196
0.063068606 -0.13031991 0.6840534 -0.023118988 -0.27110338 -0.040498618 -0.012496414 -0.0060085766
-0.007419745 -6.137423e-05 -0.0008147975 -0.0051844907 -2.3066936e-07 -0.30894884 -0.018152772 -0.0019328292
-0.0010673034 -0.020431053 -0.012302187 0.73498404 -0.057624288 -0.005346163 -0.0058708494 -0.014924192
-0.00015565487 0.036273777 0.10536857 0.2700286 -0.007730112 -0.00022339665 -0.021289973 -0.054267183
-0.004790143 -0.1076401 -0.008986628 -0.002238323 -0.15561585 -0.110458046 -0.0018858925 -0.0010607593
0.6411525 -0.101445235 0.5536275 -0.068585545 -4.8448157e-05 0.05683265 -0.21420857 0.32251605
-0.0348368 -2.2831365e-07 -0.32531756 -0.014796524 -0.05410324 0.16416222 -0.013527892 -0.030158471
-0.005644124 -0.027291842 -0.12216677 -0.0007828646 0.18566845 -0.00015636708 -0.00054778846 -0.0025638
-0.14689422 -0.014175793 0.21442561 0.060168482 -1.205267e-05 0.00415303 -0.057293534 0.28475434
-0.0015379696 -0.002908882 -0.049005304 -0.002363675 -0.038919322 0.04741144 -0.008111227 -0.0060839835
-0.07481936 -0.000103770806 -0.0068954295 -0.16160733 0.017161109 -0.0008037969 -0.008506928 -0.1102728
-0.09916491 -0.00041509198 0.022713846 0.5234964 -0.008399365 -0.004680941 -0.08525755 -0.004645216
-0.03884245 -0.0054882662 0.33438092 -0.12093448 -0.19504172 -0.16934259 -0.003701065 -0.19145969
-0.23174891 0.010649294 -0.009608023 -0.0004049054 -0.0013705527 -0.0031494054 -2.1279464e-05 0.079590015
-0.03258765 -0.0032639932 -6.828121e-08 -6.824996e-05 0.18373413 0.38114208 0.06739163 0.037426975
0.027354484 -0.22283483 -7.556734e-05 -0.00023897782 -0.07816003 -0.019723479 0.09390334 0.7201442
0.9870199 -0.15925972 -0.0022716213 -0.013103281 0.30660862 -0.012322048 -0.0051230383 -0.016138408
-0.00011046392 0.034611102 -0.00237229 -0.005903222 -0.079937525 -0.01245729 -0.02972581 -0.09472426
0.017015366 0.09725151 -0.08015626 -0.002240989 -0.00039163814 0.26248762 -0.0009615536 -0.0011578877
-0.008759916 -0.0013437229 0.19814052 -0.00010843864 -0.01794106 -0.0060489215 -0.15603879 -0.011523578
-1.1724301e-06 -0.002820473 0.17288062 -2.5763018e-07 -0.021102453 -0.12116228 -0.047120553 -8.393158e-05
-0.0018655783 -0.012119698 -0.13242652 -0.04018394 -0.030519098 -0.006032439 -0.0025037045 -0.011684977
-0.018006686 -0.0036895862 0.51333266 -0.019365035 0.38382044 0.2125826 -0.0018085017 0.15217751
0.93531793 -0.23737115 -0.0052496362 -0.011395922 0.1466106 -0.01437609 0.14677148 -2.6396563e-06
-1.9242869e-05 -4.326457e-07 -0.0010052813 -0.042510707 0.3910277 -0.01848505 -0.018799145 0.0063118166
-0.046226475 0.49113894 -0.05451702 -0.052042704 0.08894274 0.012651245 -0.008471931 0.3581095
-0.0065585338 -0.13989754 0.07929855 -0.025349699 0.015586023 0.5850354 -0.0079215355 -0.05765516
-0.0015663174 -0.11982659 0.056469455 0.031462155 -2.2447823e-05 0.16935506 -0.05071684 0.061510757
-6.865756e-06 -0.0021495214 0.62363034 -0.0015277874

encoder.norm.running_mean f4 [236]
00000000: b173 20c1 87da 84be 905c 40c1 c9b4 e93e
00000010: 3f5c 0bc0 101b ffbf 49d4 5b3e 3c3f 853f
00000020: 1bfa 0141 ed8f a43f 017b 2ac0 0c19 6ebf
00000030: a850 7240 a66a 683f dbe9 823f 9199 e4bf
00000040: e60a ecbe 77e6 9136 33bc 93ba e3d8 14bf
00000050: 6659 0bc0 9957 d040 e9b3 57be 44f4 a8c0
00000060: fa3b b040 bb0f 56be bfa4 193f 96fd 36c1
00000070: e377 39bf 275e 84bb 8bd3 263d 3f2d 39c1
00000080: 9b6c 8c3c 320f 423f cf84 92c0 f671 3f41
00000090: 8435 4bbf bede 21c0 014f c13f ab22 da3d
000000a0: 7fbc b13d d534 37bf b00e 29c0 3031 78bd
000000b0: 4291 42c0 4d85 3940 39d4 81be a46f 05bf
000000c0: 99bc a4c1 a9ae 71bf 7a13 7a41 53ff 603f
000000d0: cf85 1640 43f2 3341 0e0b 273f 07d2 4a41
000000e0: 8dee 4abd 035a f534 0e6b 2fc1 90eb 7740
000000f0: e64b 2140 1585 93c0 530b f540 5ae2 08c0
00000100: 3b54 41be aa04 443e 2d48 85bd f6a6 163f
00000110: 5193 bbbe af26 85bf 4754 b0b9 30c0 05be
00000120: 1b00 70bf 8cc7 e53f 2281 a2c0 9b63 7541
00000130: 5800 5dbf 7ddf f33f 57aa 9240 cde6 4b41
00000140: b5e2 08bb e16e 953e de74 ef35 3456 213d
00000150: 5f70 2f3d 6e2c c340 b237 bdbf 10ab 01be
00000160: 3962 c43d 06be c43c e930 9cbe 1aa6 10bf
00000170: 3796 d83f c628 2341 0011 a4bf 0956 17c0
00000180: 2145 2d3d f605 ad3f 89a8 d2c1 a48f c2c0
00000190: 45b2 55c1 dd55 5e40 1724 c8bf 7cc5 f4be
000001a0: 6b80 81c1 4656 953e f590 f540 9351 4ec1
000001b0: b4d7 4c40 949d 17c1 0c8e 62be b185 1640
000001c0: d272 25c1 c1cf 4e3f 30a3 1240 1752 1d3d
000001d0: 25f7 81bd bcde 82c1 3bfc 48be 267e 8cc1
000001e0: a42f 79c0 5f3e 9f3f 5dc7 793d ebad aabf
000001f0: 111f ecc0 ef40 9841 4672 fa3f 0bf9 3b41
00000200: 14b6 3ac1 fd15 413f cac4 2ebf 7f8f 1abd
00000210: dd60 8fbf 4a43 4d41 2adb 37c1 c2d7 6841
00000220: faf5 58bf 7fd0 59c0 053b c9bc b243 18bf
00000230: dba6 8f41 acc5 023d 7fa1 0bbe 436d 663e
00000240: c7bc 2f41 a715 0fc0 9beb 1b3b d2c9 2cbf
00000250: 9d5e 86c0 15e2 5ec0 3fc8 083f faee 41c0
00000260: 7049 2a40 157b 3141 4c65 b7bf ea01 1fbf
00000270: bdd2 9341 532d 8141 bdb4 bc40 f5d0 13bf
00000280: 7cc7 f03e 03ec 0140 0f70 2ebf baec f6bb
00000290: e97e 013c e677 4cba 5e5e edbf a9e4 2640
000002a0: 5d9c 8abc 7f3f 5ac0 99e7 83bf 7108 73c0
000002b0: 7032 823f f79b 393f 60dd 2a3f f7e3 823b
000002c0: 8c04 d5bb fb5e 10bf 1bf4 983e 7d98 28be
000002d0: ae9c a3bf 9e06 713f b7bc 02c0 15a3 cbbc
000002e0: e323 d43e 95b9 6a41 6720 7fc1 fd91 be3f
000002f0: 6f2f 65c1 8dca 80c0 7a9b a63b d900 e3c0
00000300: 6dda bcc1 d3e8 a9bf ada5 243e 3e4a 693f
00000310: 26d0 7d40 98ef d3be a0e2 1dc1 fb54 8f3a
00000320: 6ffb 983b c216 9d3b 667a c13e 927c 933f
00000330: f5f4 84c1 1325 b4ba dde5 0641 b6b4 14c1
00000340: 0ae9 08c1 0448 88c0 1e2c 37bf 09d0 d4bc
00000350: d741 fb40 cba0 6f3e 0494 8640 667d 5c41
00000360: 0e00 e6bf 3266 6fc0 0ed5 0ec1 453d 69c1
00000370: 8d95 10c1 8e47 46c1 a322 a7bd e9f2 0140
00000380: 4de2 8fbd 22bc 2f41 c8c0 2f41 1a3b 303f
00000390: e480 0940 70a5 4e41 5af7 1dbe 5c29 f640
000003a0: 4dcd c03a a06a 983b 6a67 cbc1 8816 53bf
-10.028245 -0.25947973 -12.022598 0.4564574 -2.1775053 -1.9930134 0.21467699 1.0409923
8.123561 1.2856423 -2.6637576 -0.9300697 3.7861729 0.9078773 1.0227617 -1.7859365
-0.46102065 4.3481664e-06 -0.0011271298 -0.5814344 -2.1773314 6.510693 -0.21064724 -5.2798176
5.5073214 -0.20904438 0.6001701 -11.436911 -0.7244856 -0.004039544 0.040729087 -11.573546
0.01714163 0.75804436 -4.578712 11.9653225 -0.79378533 -2.52922 1.5102235 0.10651144
0.08678531 -0.7156499 -2.6415215 -0.060593784 -3.0401158 2.898761 -0.25357226 -0.52123475
-20.592089 -0.94407135 15.629755 0.87889594 2.351917 11.246646 0.65251243 12.676276
-0.049543906 4.5700298e-07 -10.963636 3.8737526 2.5202575 -4.6099954 7.6576324 -2.1388154
-0.18879788 0.19142404 -0.06507907 0.5884851 -0.3663583 -1.040243 -0.00033632127 -0.13061595
-0.9375016 1.7951522 -5.0782633 15.336818 -0.8632865 1.9052578 4.5832934 12.743848
-0.002088708 0.29186156 1.78409e-06 0.03938885 0.042831775 6.0991735 -1.4782622 -0.12662911
0.09589047 0.024016391 -0.30506065 -0.5650345 1.6920842 10.197454 -1.2817688 -2.3646262
0.042302255 1.3517444 -26.332293 -6.0800343 -13.356023 3.4739907 -1.5636014 -0.4780692
-16.187704 0.29167384 7.673945 -12.894916 3.2006655 -9.475971 -0.22124499 2.3519099
-10.340532 0.8078576 2.2912102 0.038408365 -0.06345967 -16.358757 -0.19627468 -17.561596
-3.8935328 1.2440909 0.060981143 -1.3334326 -7.3787923 19.031706 1.9566123 11.7483015
-11.669453 0.75424176 -0.68269026 -0.037734505 -1.1201435 12.828928 -11.491007 14.552675
-0.8475033 -3.4033506 -0.024564276 -0.59478295 17.956472 0.031926796 -0.13635825 0.22502618
10.983588 -2.2356966 0.0023791555 -0.67495453 -4.1990495 -3.482549 0.5343055 -3.030211
2.6607323 11.092549 -1.4327788 -0.62112296 18.4779 16.147131 5.897063 -0.5774072
0.47027194 2.03003 -0.6813974 -0.007535544 0.007903793 -0.00077998487 -1.8544424 2.6077063
-0.016920263 -3.4101255 -1.0305053 -3.7973902 1.0171642 0.7250361 0.6674404 0.0039944607
-0.006500786 -0.5639493 0.29873738 -0.1646442 -1.278219 0.9415072 -2.0427682 -0.024858037
0.4143363 14.670308 -15.945411 1.4888302 -14.32408 -4.0247254 0.005084452 -7.0938535
-23.606653 -1.3274177 0.16078825 0.9112891 3.9658294 -0.41393733 -9.867828 0.001093536
0.004668645 0.0047939727 0.37788695 1.1522391 -16.619608 -0.0013743959 8.431119 -9.294119
-8.556894 -4.258791 -0.7155169 -0.025978105 7.851787 0.23401181 4.2055683 13.780615
-1.7968767 -3.7406125 -8.927015 -14.577458 -9.036511 -12.392469 -0.08160903 2.030451
-0.07025585 10.983431 10.984566 0.6884018 2.1484919 12.91539 -0.15426388 7.6925488
0.0014709622 0.0046513826 -25.425495 -0.82456255

encoder.norm.running_var f4 [236]
00000000: 8aa5 df40 992c 6a3b 3f51 fb40 5f41 793c
00000010: 763a 9f3e e5d2 b83e 1195 543b 3c27 6c3d
00000020: 1077 4c40 267b aa3d d7e2 9640 f685 693d
00000030: f8ac 0140 c7dd 2c3d c137 613d 2769 823e
00000040: aa8a 363c 9ec5 9b2b 13eb 8e33 5ba5 8a3c
00000050: 5b0d 7d3e 09bc 9240 cd47 073e 41bd b83f
00000060: f36f c93f 19c0 ed3b 7a65 ad3c d78c f740
00000070: 3e3e f63c 9cdf 6335 4a22 bc39 2301 de40
00000080: 9da9 713a bf9e 203d d369 983f 7880 0a41
00000090: 2181 073d 2b41 ab3e 8b23 443e cd41 2c3a
000000a0: f167 c13a 7702 a03d d177 bb3e d2ef 003a
000000b0: 2ae6 583f d1b4 173f da36 7a3b 47d9 653c
000000c0: b123 b141 65c1 b83d 895b a441 ff03 353e
000000d0: 6c80 903e 90e1 d040 8ecb b83c a65d 0641
000000e0: b994 1039 2cd3 4028 500c 4041 c073 763f
000000f0: f7b2 b23e 1a5c bb3f efb0 4340 3137 833e
00000100: 5467 f43a 11d6 533f 43ab 7739 09ce 983c
00000110: b066 313f 083e 6c3d 3b73 ce31 5822 623a
00000120: 369f 873d 497c 623e c817 2840 595e 6f41
00000130: 4cb8 1f3d 946e 683e c87b a03f c94d 0f41
00000140: 7182 be34 1105 8f3b 2f14 e32c 26f0 a238
00000150: 25fd c938 6d51 1d40 b3da eb3d 6421 ed3a
00000160: 981a 0d3a 4d6c ea37 aac9 cb3b c87e f53c
00000170: 3ac2 463e e32e ac40 ad6a af3d 6a33 033f
00000180: cd70 e239 879a bf3d 1ce6 1e42 a6c9 2240
00000190: dc86 1141 c383 203f 2149 033e 486d 463c
000001a0: ce55 9941 9072 903b b0ba a240 f569 1f41
000001b0: 1118 993f a3ec fe40 0ea5 2c3b 9859 c63e
000001c0: 096b 0e41 4027 993e bf73 953e 5c27 9b38
000001d0: f43b ee3a 4b25 6641 8a52 453b 6aab 9641
000001e0: 44fd 6a3f dcb3 a53d 11d8 4c39 adc5 ae3d
000001f0: 2449 7b40 0cdf 9e41 d35e 873e 5aff 0a41
00000200: fa92 3541 b983 003d 87ef c23c c5b7 f738
00000210: 3abf 163e 7932 1841 efae e640 c46e b941
00000220: eb8e 5541 6e20 583f 45d5 0438 af60 9e3c
00000230: 9932 bb41 9a7c 4039 aae2 7f3a 8f87 2e3b
00000240: 4d78 c440 3177 833e c378 9935 8710 bc3c
00000250: 69e7 653f 5104 8c3f 4920 143d b7d1 033f
00000260: d141 d93e f21f cf40 47e1 d03d dc76 a53c
00000270: 2147 9341 09b9 8341 9253 e43f 9759 8f3c
00000280: 1811 3d3c 160e 7e3e 1797 ef3e 3507 4337
00000290: 6b67 6d36 a95e 0533 c38f 683e 39bb b23e
000002a0: bdb1 db38 94ac 1d3f b912 a13d 9e3c 403f
000002b0: ba7c 953d b102 e63c 22f3 483d 24be 6535
000002c0: 43d5 1636 708e 8a3c 3400 d13b 4b1f ba3a
000002d0: af1a f43d 9244 453d 2678 5e3e 2639 8839
000002e0: c7fb 153c 1bc9 3241 cbfc 5e41 9811 f83d
000002f0: fa33 3641 a4e0 903f 021f b635 9367 2640
00000300: 5027 4542 ae3e a23e 0fb6 b13a 31d6 373d
00000310: 701d 913f 3963 ff3c 9019 a240 3ebe 8936
00000320: d37f 9935 0c50 1036 eea7 ef3b 59c4 903d
00000330: f70e 6c41 1b32 b436 fc3f 8640 2f02 fc40
00000340: 20b3 b140 2f5e 6b40 c534 313d 6de7 743b
00000350: 89a8 4640 a54c f03e a634 693f 47f8 8041
00000360: 8504 323e 1b53 853f 1456 b940 1adc 4a41
00000370: e519 9240 1340 dd40 918c 0e3a d450 5c3e
00000380: a342 7639 ba45 fc40 0e97 d740 12a5 843d
00000390: d340 743e 0465 6941 268a dd3b 52ce 6a40
000003a0: ffb9 8a36 90fb e635 3505 1142 9844 263d
6.9889574 0.0035732149 7.8536677 0.01521334 0.3109929 0.360984 0.0032437483 0.057654604
3.194767 0.0832427 4.7151904 0.05701252 2.0261822 0.04220369 0.05498481 0.2547085
0.0111414585 1.1068262e-12 6.65515e-08 0.01692455 0.24712126 4.5854535 0.13210984 1.4432756
1.5737289 0.007255566 0.021166552 7.7359424 0.030058976 8.4889484e-07 0.00035883702 6.9376388
0.0009218695 0.039213892 1.1907295 8.656364 0.03308213 0.33448157 0.19154184 0.00065710844
0.0014755708 0.0781297 0.3661485 0.00049185485 0.847262 0.5926028 0.0038179667 0.014028854
22.142427 0.09021262 20.544695 0.17677306 0.28222978 6.5275345 0.022558 8.397863
0.00013788314 1.0703932e-14 12.003006 0.9627037 0.34902164 1.4637482 3.0576742 0.25628045
0.0018646517 0.82748514 0.00023619556 0.018652933 0.69297314 0.057676345 6.0084893e-09 0.00086263334
0.06622164 0.22117724 2.6264515 14.960534 0.03899412 0.22698432 1.2537775 8.9564905
3.5485166e-07 0.0043646176 6.453969e-12 7.769493e-05 9.631579e-05 2.4580948 0.11516323 0.0018091616
0.0005382686 2.7945405e-05 0.0062191086 0.02996768 0.19410029 5.3807235 0.08565269 0.51250327
0.00043190122 0.093556456 39.724716 2.5435576 9.095425 0.6270105 0.12820865 0.012111016
19.166897 0.004408188 5.085289 9.963368 1.196047 7.9663863 0.0026343497 0.3874023
8.901132 0.29912758 0.2918987 7.398307e-05 0.0018175826 14.384105 0.0030109012 18.833698
0.917927 0.08090946 0.00019535447 0.085337974 3.9263391 19.85891 0.26439533 8.687342
11.348383 0.03137562 0.023795856 0.000118121076 0.14721385 9.512322 7.208854 23.179085
13.347392 0.84424484 3.1669875e-05 0.019333212 23.399706 0.00018356965 0.00097612536 0.0026631092
6.139685 0.25676873 1.1434535e-06 0.0229571 0.8980623 1.0938817 0.036163602 0.51491874
0.42433026 6.4726496 0.10199218 0.020198278 18.40973 16.46535 1.7838004 0.017498774
0.01153972 0.24810061 0.4679496 1.1624584e-05 3.537595e-06 3.105257e-08 0.2271109 0.34908465
0.0001047584 0.6159146 0.07864899 0.75092494 0.0729918 0.028077455 0.049059995 8.558584e-07
2.2475876e-06 0.016913623 0.006378198 0.00142 0.11919152 0.048161097 0.2172552 0.0002598252
0.009154267 11.174098 13.936717 0.12112731 11.38769 1.1318555 1.3569081e-06 2.6000717
49.28839 0.31688446 0.0013558286 0.044882003 1.1337109 0.031175243 5.0656204 4.1050653e-06
1.143659e-06 2.1504266e-06 0.00731372 0.070687 14.753654 5.370251e-06 4.1953106 7.8752666
5.553116 3.6776235 0.043263216 0.0037369386 3.1040366 0.46933475 0.9109596 16.12123
0.17384537 1.0415987 5.7917576 12.678736 4.565661 6.9140716 0.0005437816 0.21515208
0.00023485212 7.8835115 6.7371893 0.06476797 0.23852853 14.587162 0.0067608533 3.6688428
4.1343733e-06 1.720955e-06 36.255085 0.04059276
