checkpoints/ae_20%.pt (torch, 915163 bytes, 16 tensors)

encoder.linear1.weight f4 [236, 358]
000000 8e 48 2f bb 12 8e 30 3b 9f 6c 9a 3b a7 35 26 3b
       -0.0026746127 0.002694015 0.0047126557 0.002536157
000010 44 96 e9 ba bf 78 ea ba 4b 85 1f 3e 0f 9b c8 bc
       -0.0017821272 -0.0017888768 0.15578191 -0.024488
000020 5a 79 27 3e 8b 2a 9d bb 4a 0d b7 bb 94 3a f9 b9
       0.16354886 -0.0047963313 -0.005586301 -0.00047536625
000030 b0 b6 a3 3b 54 e6 24 ba 73 57 ff bb 3d aa 6b bb
       0.0049961433 -0.0006290425 -0.007792407 -0.0035959624
000040 72 e7 41 3b 97 02 85 3a 42 9e f2 ba d2 db 32 bb
       0.0029587415 0.0010147867 -0.0018510299 -0.0027291668
000050 3e 12 20 ba a7 18 ed 3b a8 5e e7 ba ba cc e5 ba
       -0.0006106234 0.007235605 -0.0017652111 -0.0017532327
000060 a0 b8 d9 bb d4 88 a4 bb 10 a6 c8 b9 f9 da d8 3b
       -0.0066443235 -0.005021194 -0.000382707 0.0066179004
000070 70 84 8c 3a 17 3b 14 3c b2 4f b5 3b dc 31 ca bb
       0.0010720622 0.009047291 0.005533182 -0.0061704945
000080 c1 e5 c1 3a a8 e7 e1 3a 83 2f 8d 39 be 96 5c bc
       0.0014793203 0.0017235177 0.00026929015 -0.013463674
000090 b9 d7 e8 3b a8 fa c9 3b f1 a4 51 3a dd 60 97 bb
       0.0071057943 0.0061639138 0.00079972955 -0.0046197013
0000a0 83 ad 54 3b a1 4f f9 ba 15 0c 9c ba 65 fb 82 3b
       0.0032452054 -0.0019020924 -0.0011905456 0.0039972537
0000b0 ec 42 99 ba e1 c4 94 3a c1 ea 6f 3a e4 b5 da 3a
       -0.0011692918 0.0011350178 0.00091521075 0.0016686288
0000c0 98 67 92 ba 81 67 00 3c 5a 27 ee bb f0 cf 62 3b
       -0.0011169789 0.007837177 -0.0072678747 0.0034608804
0000d0 a5 9d 56 ba 67 ba 80 3c ae a9 d4 38 a7 86 6f 3a
       -0.0008186943 0.015713884 0.00010140553 0.0009137191
0000e0 fd 61 21 bb 9e db 78 bb 6c 46 d5 ba 55 28 b6 bb
       -0.0024625056 -0.00379727 -0.0016271598 -0.005559007
0000f0 91 b8 17 3c cc 16 c6 3b e8 f3 a6 3b 51 41 a0 b9
       0.009260313 0.006045198 0.005094994 -0.00030566243
000100 c5 90 98 bb cd d7 5e bb a0 76 5d bb f9 72 af 3b
       -0.0046559297 -0.003400314 -0.003379263 0.005354282
000110 82 5d 5e ba 6a 23 0a bc 2e 9e 6d bb 9c 63 44 bb
       -0.00084825617 -0.008431295 -0.0036257613 -0.0029966598
000120 9e 63 94 3a ba b9 21 bb b8 43 22 bb e8 3c 20 bb
       0.0011321192 -0.0024677352 -0.0024759602 -0.0024450365
000130 fd eb 43 ba 25 bc b3 bb e7 65 81 39 2c c6 54 bb
       -0.00074738247 -0.005485075 0.0002468072 -0.0032466752
000140 86 1a fc ba ce 5c 10 ba 40 24 70 ba 7d 3c 5f ba
       -0.0019233979 -0.0005506993 -0.0009160675 -0.00085157884
000150 69 8a 30 ba 3a 63 31 ba 83 49 3c ba 71 e3 1e ba
       -0.0006734492 -0.00067668 -0.0007182585 -0.0006061113
000160 ed 46 4b ba 98 97 21 3b 4a 27 c9 b9 14 f8 a8 b9
       -0.0007754404 0.0024657007 -0.0003836698 -0.0003222829
000170 cf 0a e4 b9 c0 56 fd 3b 5e a0 2b bb e9 92 d2 3c
       -0.00043495602 0.0077312887 -0.0026188116 0.025704818
000180 a8 df 3c 3c 29 a4 04 bb 19 fb 02 bb 81 fa 9c 3a
       0.011527933 -0.0020239449 -0.0019986092 0.0011976511
000190 6b e0 04 bb 6d 91 77 3c 06 96 b8 bb dc db b1 3d
       -0.0020275365 0.015110356 -0.0056331186 0.08684513
0001a0 85 0d 34 3c 1d de 33 3c e4 3f 0f 3d d5 86 3f bb
       0.010989551 0.010978249 0.03497304 -0.0029224653
0001b0 37 20 45 38 0d 9f 15 bb 75 d7 36 b8 e3 e6 06 3b
       4.6998462e-05 -0.0022830397 -4.359284e-05 0.0020584397
0001c0 61 44 bb b8 a9 9f 53 bb 07 46 43 bb 6e 61 83 ba
       -8.9295914e-05 -0.003229121 -0.0029796378 -0.0010023543
0001d0 ba 88 63 bb 88 5a e6 3a 1c 38 1e 3c c2 99 15 3b
       -0.0034718947 0.0017574588 0.009656932 0.0022827243
0001e0 75 c5 9c 3b 44 6b 0a 3c 7d 17 ad 3c 72 72 1b 3c
       0.004784281 0.008448426 0.021129364 0.009487735
0001f0 f1 17 33 3c 52 20 6c 3c 52 8c 13 3c e9 13 ba 3c
       0.010931001 0.014412003 0.009005623 0.022714572
000200 9c 5f 13 3c 63 4a 06 3c 59 43 3e 3c e3 f3 69 3b
       0.008994963 0.008196446 0.011612737 0.0035698346
000210 3d f3 8f bb d8 d9 01 37 49 a5 21 3c 92 a8 05 3c
       -0.00439301 7.73972e-06 0.009866067 0.008157866
000220 7a 4d da 3b a7 36 17 bb b2 fc 80 bb b7 13 ac bb
       0.006662068 -0.0023073347 -0.0039363736 -0.0052513736
000230 85 c8 52 bc 0a 45 04 bc 4d 63 af bb 68 8a a9 bb
       -0.01286519 -0.008073101 -0.0053524137 -0.00517397
000240 e3 24 35 bb 76 7c cb 3a f7 10 fd bb 7f 96 01 3c
       -0.0027640394 0.0015524763 -0.0077229696 0.007909416
000250 77 83 e5 3b ff 8e c6 bb 48 15 09 3c a2 d2 4f 3c
       0.007004197 -0.006059527 0.00836689 0.012684496
000260 54 5f a1 3c f9 80 c7 3a 17 c2 a8 3c f0 92 84 bb
       0.019698776 0.0015220932 0.020600362 -0.0040458366
000270 81 1e 9d bb 79 81 66 3c 09 27 1f 3c 8f f4 8b 39
       -0.004794896 0.014068955 0.009713897 0.00026694356
000280 82 56 d0 ba ec ec d7 ba 96 15 c4 bb 17 87 e4 ba
       -0.0015894922 -0.0016473806 -0.0059840186 -0.001743528
000290 c1 f3 ef b9 e7 a3 91 ba ae 26 0d bb 9b 05 3b bb
       -0.00045767243 -0.0011111469 -0.0021537947 -0.0028537277
0002a0 8a c1 12 3a 77 9e b6 39 c5 0f 6a bb 49 cd 45 39
       0.00055982976 0.0003483181 -0.0035714966 0.00018863859
0002b0 9d a2 ce 3a 4f 35 fc ba 48 8d 36 3a 6b 92 b5 b9
       0.0015765015 -0.0019241961 0.00069638016 -0.000346321
0002c0 07 d9 dd 39 40 63 8a b9 de 7a be 39 b1 64 4a 3a
       0.00042314103 -0.00026395358 0.00036331167 0.00077206927
0002d0 ef 55 d8 3a 60 f3 1d 3b bc 41 a6 39 aa 7b cc bb
       0.0016505102 0.0024101362 0.00031710963 -0.006240328
0002e0 a7 f3 5a bb 75 a4 e5 ba 04 8e de b7 02 db 1e b8
       -0.0033409388 -0.0017520325 -2.6530593e-05 -3.7874102e-05
0002f0 de c2 7e 36 a0 aa 5b 3e cb 0c 25 be a9 77 9e 37
       3.7962377e-06 0.21451807 -0.16118161 1.8890789e-05
000300 2a 77 0e 3b 21 8c 34 36 5c c8 e1 37 51 9a a4 bc
       0.0021738508 2.6903656e-06 2.691539e-05 -0.020093115
000310 2c 9d 55 37 17 6e 1d 37 95 22 ff b7 8c cf f1 b8
       1.2732384e-05 9.3835615e-06 -3.0414472e-05 -0.00011530434
000320 9b e7 0a b7 40 89 b5 ba 82 5c 1f b8 e5 93 a6 b7
       -8.279366e-06 -0.0013850108 -3.799471e-05 -1.985761e-05
000330 cf e8 f1 ba 57 39 92 b8 34 e1 e9 b6 85 9c 8a ba
       -0.0018456223 -6.972503e-05 -6.970158e-06 -0.0010575211
000340 bf e8 a5 b7 e4 9d b0 b7 5d c9 5b 37 79 21 d5 37
       -1.9777914e-05 -2.1054359e-05 1.3100301e-05 2.5407166e-05
000350 37 19 9f 36 e3 fe cf 36 d9 3a 83 bd 1f 8e a3 bd
       4.7415047e-06 6.1987535e-06 -0.06407709 -0.07986092
000360 01 8b 25 b8 65 3f ae 36 27 91 f2 38 81 eb 28 37
       -3.9468523e-05 5.192984e-06 0.00011566496 1.0068413e-05
000370 eb 3d 6e 37 22 d2 a2 3d 38 d5 28 b8 a2 d4 3f b8
       1.4200322e-05 0.07950236 -4.0252897e-05 -4.573598e-05
000380 fc 04 11 38 23 0d b4 bc f5 19 80 39 bc ba 63 38
       3.4575336e-05 -0.02197892 0.00024433402 5.4294927e-05
000390 29 2a 02 3d 81 0c ce bc 63 04 0d bd d4 9a fa 37
       0.03177849 -0.025152447 -0.03442801 2.987442e-05
0003a0 c7 4a 09 b8 6c dd c0 b8 4c 1d 22 ba e1 dd 21 38
       -3.2732987e-05 -9.1965165e-05 -0.0006184175 3.8592032e-05
0003b0 93 7c b6 39 39 d9 c5 b9 f4 45 6d b8 0d 81 d7 37
       0.0003480656 -0.00037736612 -5.6570352e-05 2.5690091e-05
0003c0 e4 09 ce 39 8c 4b 17 bb cf c2 b6 3a 35 96 f6 ba
       0.0003929875 -0.00230858 0.0013943556 -0.0018813076
0003d0 e4 de 41 3a f1 f7 df ba 39 e2 8e ba ed 87 92 ba
       0.0007395579 -0.0017087442 -0.001090116 -0.0011179425
0003e0 b5 d3 37 39 8b 75 37 ba eb e6 e2 39 5a 53 11 ba
       0.00017531107 -0.0006998411 0.00043278126 -0.00055437314
0003f0 bd 1a 84 ba 1a 03 d0 ba bd c9 2f ba 36 fb b9 39
       -0.0010078769 -0.0015870065 -0.00067057816 0.00035473116

encoder.linear1.bias f4 [236]
000000 10 8f 1f b3 d8 b2 4a b4 12 80 00 00 b3 34 01 80
       -3.7150187e-08 -1.8877779e-07 4.5943e-41 -1.1074e-40
000010 69 1c 96 b3 da 86 00 00 45 10 90 33 fd e9 27 b5
       -6.990087e-08 4.8376e-41 6.708482e-08 -6.2552846e-07
000020 fb db 00 80 79 4a 48 b3 e2 28 01 00 77 79 00 80
       -7.8914e-41 -4.663386e-08 1.06501e-40 -4.3573e-41
000030 2a ca 00 00 7a e9 0b b1 d3 ce 00 00 4d a1 00 80
       7.2523e-41 -2.0359878e-09 7.4195e-41 -5.7864e-41
000040 6b 68 00 80 e2 f0 24 b2 5b 45 d6 32 19 39 00 00
       -3.7458e-41 -9.600827e-09 2.4944418e-08 2.0483e-41
000050 c5 c8 00 80 8a e1 00 00 7f d0 44 b1 6b b7 07 34
       -7.2023e-41 8.0908e-41 -2.864027e-09 1.2639582e-07
000060 c2 d2 93 af f1 02 00 80 ca bf 00 00 48 a9 00 80
       -2.6888897e-10 -1.055e-42 6.8801e-41 -6.0727e-41
000070 20 72 00 00 39 a2 1a 31 af b4 00 00 42 10 01 80
       4.094e-41 2.2502162e-09 6.4817e-41 -9.7668e-41
000080 8a 31 01 80 be 19 00 00 3d e0 82 30 9f 7d 00 00
       -1.09607e-40 9.235e-42 9.522477e-10 4.5064e-41
000090 6e 4a 14 b1 58 ef 00 00 00 70 04 b5 23 f6 14 b2
       -2.1579143e-09 8.586e-41 -4.9336813e-07 -8.670699e-09
0000a0 e1 ca 09 33 09 fd 1f af c7 5f 01 00 7f 6e 2f b3
       3.2082315e-08 -1.4550862e-10 1.26194e-40 -4.084586e-08
0000b0 2a dc 00 80 c0 e8 8a 31 f2 10 fd ae 70 b3 a4 30
       -7.898e-41 4.042789e-09 -1.1508118e-10 1.198357e-09
0000c0 ce 58 64 b2 8d a7 ed b2 3f 40 00 80 c3 20 00 00
       -1.32915385e-08 -2.7666625e-08 -2.3047e-41 1.1753e-41
0000d0 1b 18 c8 b2 d3 2b 00 00 1a 49 00 80 24 02 1e b1
       -2.3294026e-08 1.5721e-41 -2.6224e-41 -2.2993243e-09
0000e0 d8 1a 34 b3 4a 6b 5d b3 bf 36 c7 30 30 27 9f b3
       -4.193393e-08 -5.155315e-08 1.4494715e-09 -7.4111426e-08
0000f0 a8 f5 00 00 26 ac 78 34 59 09 26 33 2c 8d 5f 34
       8.8125e-41 2.3159427e-07 3.865839e-08 2.0819851e-07
000100 a5 0d 00 80 5d c5 00 80 33 0d 4d b3 20 70 db 33
       -4.895e-42 -7.08e-41 -4.7742287e-08 1.02183776e-07
000110 bc d2 00 00 0a 87 00 00 37 83 b0 32 40 5c 01 00
       7.5597e-41 4.8443e-41 2.0548766e-08 1.24929e-40
000120 af 08 ab 32 fe 2f 8a 2f 47 4e 67 b3 b7 0f 35 33
       1.9910969e-08 2.5136154e-10 -5.385507e-08 4.215664e-08
000130 b4 ed 00 00 39 a8 fc b1 c9 d4 e1 24 fa 76 a4 2f
       8.5272e-41 -7.35329e-09 9.793867e-17 2.9915964e-10
000140 69 f0 83 30 a6 8c e5 31 ea 62 01 00 0f 13 00 00
       9.599833e-10 6.680767e-09 1.27319e-40 6.837e-42
000150 70 c2 00 80 b7 6c c1 b4 5a f5 4d 30 b7 95 00 80
       -6.9751e-41 -3.6028152e-07 7.492723e-10 -5.3708e-41
000160 95 aa 8e b4 10 81 00 00 00 cf 00 00 3a b0 ef b4
       -2.6573676e-07 4.6299e-41 7.4258e-41 -4.464544e-07
000170 51 0c 01 80 6f ca e6 b1 14 be 00 00 d8 2d 01 80
       -9.6254e-41 -6.716895e-09 6.8187e-41 -1.08281e-40
000180 a2 40 01 80 2b 4c dc 34 ae e2 a8 31 a0 e9 22 b4
       -1.15021e-40 4.1033613e-07 4.915214e-09 -1.5172418e-07
000190 d1 e2 00 80 72 7f 75 b0 21 fe f4 b3 82 c5 0c 31
       -8.1366e-41 -8.931159e-10 -1.1408361e-07 2.0484952e-09
0001a0 10 ce d4 2f 40 1f 2a b3 4b 9e 89 32 9a 69 00 80
       3.8708992e-10 -3.960963e-08 1.6020882e-08 -3.7883e-41
0001b0 07 9f fb 30 ea 47 a9 b1 c8 3b 01 80 05 eb 1f 34
       1.8307852e-09 -4.926723e-09 -1.13281e-40 1.4893529e-07
0001c0 0a 2d 00 80 1d fe 00 00 f1 21 00 00 57 0a 00 00
       -1.6157e-41 9.1159e-41 1.2176e-41 3.709e-42
0001d0 3b bf 00 00 45 b4 77 b4 d8 91 36 b4 71 70 46 b4
       6.86e-41 -2.3069249e-07 -1.7003129e-07 -1.8481093e-07
0001e0 7b bd 6e 33 69 5b 02 33 42 c4 9f 34 15 82 00 80
       5.5586025e-08 3.035112e-08 2.9758854e-07 -4.6665e-41
0001f0 10 26 01 80 20 39 00 00 2f 59 19 32 b4 f1 8c b2
       -1.0549e-40 2.0493e-41 8.92605e-09 -1.6408059e-08
000200 9e 33 01 00 7f 82 1e b2 6f b2 a7 b3 4d ec 0b b5
       1.10352e-40 -9.226482e-09 -7.8090004e-08 -5.21254e-07
000210 87 1b 01 80 c0 52 00 00 fe d2 af 32 5b be 00 00
       -1.0171e-40 2.9685e-41 2.046863e-08 6.8287e-41
000220 17 60 b5 b2 41 26 01 00 10 7f a8 b1 ab 53 00 00
       -2.111487e-08 1.05558e-40 -4.903889e-09 3.0014e-41
000230 64 0d 7a 33 c6 db f8 31 ae 25 00 00 6f 1e 15 31
       5.821984e-08 7.2427353e-09 1.3517e-41 2.1699653e-09
000240 d1 2c cb 32 bc d3 00 00 db 02 a4 32 1b 3a 01 80
       2.365269e-08 7.5956e-41 1.9093411e-08 -1.1268e-40
000250 e1 d1 30 b4 71 9f ae b3 c8 96 00 00 da 0d 01 00
       -1.6467631e-07 -8.1315086e-08 5.409e-41 9.6805e-41
000260 f4 1e 01 80 59 42 01 80 8b 27 ef b2 1c 12 01 00
       -1.0294e-40 -1.15637e-40 -2.7841244e-08 9.8332e-41
000270 7b 10 01 00 9e 9b b8 ae 3b de 96 b3 64 20 b4 32
       9.7748e-41 -8.3949944e-11 -7.025343e-08 2.0969487e-08
000280 59 99 00 80 d9 08 65 33 df 0b 00 00 75 d3 86 b2
       -5.5011e-41 5.3326264e-08 4.259e-42 -1.5695813e-08
000290 fb 48 60 b2 93 13 01 80 a9 45 01 80 24 5b 01 00
       -1.305511e-08 -9.8857e-41 -1.16825e-40 1.2453e-40
0002a0 d8 ef 00 00 bb 66 07 34 f7 7d 00 80 3f 24 00 80
       8.604e-41 1.2610228e-07 -4.5188e-41 -1.3003e-41
0002b0 9c 35 03 b3 b4 a4 00 00 0e ae 58 b3 86 da c3 b2
       -3.054957e-08 5.9084e-41 -5.044972e-08 -2.280036e-08
0002c0 69 3d 10 33 35 df 00 00 da 9f 00 00 8b 1b 01 00
       3.3583465e-08 8.0072e-41 5.7344e-41 1.01716e-40
0002d0 4f 07 17 33 67 b3 55 ad 4d f6 96 32 4f 90 00 00
       3.5164074e-08 -1.21474835e-11 1.7574303e-08 5.1768e-41
0002e0 c4 93 ec 33 ed 62 69 b4 39 ae 00 00 71 22 bf 33
       1.1016485e-07 -2.1735805e-07 6.25e-41 8.9003954e-08
0002f0 7f 89 00 b2 c5 3b 00 00 85 b2 3e b3 fd 1b f5 b2
       -7.481844e-09 2.1441e-41 -4.4400185e-08 -2.8534481e-08
000300 08 05 3b b1 aa 1d 0e b3 c0 b5 ed 2c 52 30 5c 31
       -2.7214941e-09 -3.308893e-08 6.7561234e-12 3.204168e-09
000310 85 54 4f 30 a8 62 c5 b0 14 d1 d7 b2 85 de 00 80
       7.542627e-10 -1.4361676e-09 -2.5124372e-08 -7.9825e-41
000320 99 c0 86 33 8c 67 9b 33 8d 85 1b 33 64 7f 63 32
       6.2748946e-08 7.236585e-08 3.6210213e-08 1.3242104e-08
000330 77 b8 00 00 a9 23 00 80 84 af 8b 32 58 f5 00 80
       6.6174e-41 -1.2792e-41 1.6261545e-08 -8.8013e-41
000340 eb ca 00 80 ff 90 d8 31 60 10 c0 33 35 83 80 b2
       -7.2793e-41 6.3029115e-09 8.943675e-08 -1.4960827e-08
000350 07 04 00 00 be 10 a2 b2 ae 7b 00 80 55 94 b9 b3
       1.445e-42 -1.8866896e-08 -4.4368e-41 -8.641715e-08
000360 9f 21 01 00 fc af 7d 30 33 b8 00 80 7c 39 01 00
       1.03896e-40 9.229095e-10 -6.6078e-41 1.12457e-40
000370 21 02 00 00 d6 76 8b b3 64 17 00 80 44 99 c3 34
       7.64e-43 -6.494308e-08 -8.391e-42 3.6433096e-07
000380 cf f0 e7 b2 1b ef 39 10 27 43 01 00 54 aa 13 b4
       -2.7001446e-08 3.6669017e-29 1.15925e-40 -1.3752407e-07
000390 ff 48 00 80 58 e9 00 80 a5 01 9d 33 a0 5e aa b1
       -2.6186e-41 -8.3708e-41 7.311181e-08 -4.958409e-09
0003a0 43 13 19 b2 ca 34 a3 b0 46 2d 91 af 0e eb 00 80
       -8.910152e-09 -1.1874814e-09 -2.6407515e-10 -8.4322e-41

encoder.linear2.weight f4 [118, 236]
000000 20 d1 f1 3c d0 4a 90 bd 91 13 95 33 4c 7a 91 2d
       0.029518664 -0.07045519 6.941912e-08 1.6538902e-11
000010 23 4b 6a 3d 2e 25 bd a8 2d ee 19 3c bf 7e 22 3c
       0.057200562 -2.099934e-14 0.009395164 0.009917914
000020 3a 7c e4 38 9e e0 9c bc f1 b4 32 3c 1d a8 7a b8
       0.00010895026 -0.019150075 0.010907398 -5.9761212e-05
000030 e7 4c 28 3d 7f de 3e ba 16 e2 74 ba 4a f3 17 3b
       0.041088965 -0.00072810793 -0.0009341551 0.0023185783
000040 10 c9 af 32 63 43 76 bc ea b0 72 3d 7f de bb 3c
       2.0464114e-08 -0.015030715 0.05925075 0.022933243
000050 8a b0 96 b9 1b 22 bd 29 03 82 31 ba 51 c3 5b bd
       -0.0002874176 8.3992024e-14 -0.00067713874 -0.053653065
000060 12 6c ee 3b 3f cb 45 2a 6a d3 97 25 c6 c5 2d b9
       0.0072760666 1.756763e-13 2.6337584e-16 -0.00016572242
000070 6c a9 9d 3c 6a 60 23 bc 99 55 18 39 0b 09 db 3c
       0.019245826 -0.009971717 0.00014527737 0.02673771
000080 28 77 1d 2c 63 d1 ba 34 42 50 30 3a 36 a0 ef a2
       2.2377187e-12 3.479755e-07 0.00067258265 -6.495071e-18
000090 8b 84 06 bc 0e 9e 92 3c a3 64 30 3c 88 08 06 bb
       -0.008210312 0.017897632 0.010766181 -0.0020451862
0000a0 d5 3a 34 3b 39 dd bb 36 aa 54 94 3c f9 96 6b 3c
       0.0027500887 5.598788e-06 0.018106777 0.014379256
0000b0 46 23 dc 3c 74 3e 2b 3b 0f cc e7 3c b6 85 06 3d
       0.026872288 0.0026129754 0.028295545 0.03284236
0000c0 b2 b2 ec bb b5 4b 99 3c c1 a9 ec 3c 7b fa be 3c
       -0.0072234506 0.018712858 0.028889539 0.023312798
0000d0 84 58 aa 3b 07 e9 83 36 21 e9 97 3c 0f 69 df 3a
       0.00519854 3.931232e-06 0.018543782 0.001704486
0000e0 ec 64 56 bd 4e 0f 28 3c 68 e3 f1 ba c2 db b3 3c
       -0.05234234 0.010257555 -0.0018454613 0.021955375
0000f0 c5 94 82 3b 45 3a 45 3c 77 b0 d6 b9 3b bf 93 3b
       0.00398502 0.012037818 -0.00040948737 0.0045088804
000100 57 f1 ba 38 24 c7 b1 3a 1d ad 2c bc 9d 61 9f 3c
       8.914124e-05 0.0013563377 -0.01053932 0.019455725
000110 34 1d a5 b8 bc 49 d1 3a 3b 57 01 bb 0a 21 f5 3c
       -7.8732526e-05 0.0015967409 -0.0019735831 0.02992298
000120 6f 55 40 bc 2b 7b 70 3d a5 28 be 3c 13 75 74 bb
       -0.011739119 0.058711212 0.02321274 -0.0037301227
000130 97 84 18 3c 4a a1 ad 39 2d 9e d6 3b 03 cd d3 3c
       0.009308956 0.000331173 0.0065496177 0.025854593
000140 23 04 98 bb 43 d4 4d 3a 4b ba 9c 3c 81 dd 6b ab
       -0.004639165 0.0007851759 0.0191318 -8.379617e-13
000150 10 ca b3 39 39 3d 61 bd 9f b0 ba b8 6d 5b 2c 3a
       0.0003429209 -0.054990027 -8.9020694e-05 0.0006574903
000160 13 9a e8 3c fb 9d a6 35 09 cc b8 3b c3 12 8a 3d
       0.02839378 1.2413942e-06 0.0056395573 0.0674186
000170 08 7a bd 3b 68 80 5f bb 0f 73 62 3d a0 d6 0a 3d
       0.0057823695 -0.0034103636 0.05528551 0.03389609
000180 01 2c 70 3d b2 35 96 bb 46 51 9c b9 81 b8 1a 3d
       0.058635715 -0.0045840377 -0.00029815192 0.037773613
000190 9a 40 6e 3b fc 4e 16 3b 33 dd b2 3c 47 b4 60 bd
       0.0036354424 0.0022935262 0.021833992 -0.054859426
0001a0 68 3f 71 bb ea e3 c8 39 de 6f 1b bb a3 b1 f1 39
       -0.0036811475 0.00038316782 -0.00237178 0.00046099452
0001b0 c2 29 dc bc 09 61 d5 b9 8c 8d 51 9d fc 60 94 bd
       -0.02687538 -0.00040698823 -2.7734098e-21 -0.07245061
0001c0 59 d7 83 b9 7d ce 05 b6 bc 66 1d 3d b9 d7 06 3c
       -0.00025146714 -1.9938736e-06 0.038428053 0.008230143
0001d0 51 d5 36 35 2b ea a0 bc a2 0d f0 3c 3e 74 be bd
       6.81107e-07 -0.01964291 0.029303376 -0.09299515
0001e0 fd 05 33 3c 21 77 0b 3d 26 57 bd 3c 76 6c 06 3d
       0.010926721 0.034049157 0.023112845 0.03281828
0001f0 a2 8b 62 23 17 27 56 b7 e5 8a 95 39 3e 73 99 3c
       1.2281053e-17 -1.2764495e-05 0.0002852298 0.01873171
000200 2b b4 13 37 f5 2e 2c bb 40 0c 18 3c 07 6e 55 3d
       8.803831e-06 -0.0026273106 0.009280264 0.052106883
000210 d0 3a 07 3b df 8c 3b 3c 98 72 cd 3b 0b c6 0a 3d
       0.002063442 0.0114471605 0.006269764 0.033880275
000220 61 aa 85 3b a4 cc 0d ad fa 46 4c 3c d1 99 9c 3c
       0.0040791486 -8.060361e-12 0.012468094 0.019116314
000230 13 54 d0 bb 7b 52 d1 3a 50 92 47 35 be e0 a4 ba
       -0.0063576787 0.0015970016 7.434619e-07 -0.0012579185
000240 7e 27 06 3c d5 3f 05 bb 44 1d 99 bb 17 49 f6 3c
       0.008188127 -0.0020332236 -0.004672678 0.030064149
000250 46 0f 31 bc ec 71 0f bd 87 38 01 3c 9e fb 68 1c
       -0.010806864 -0.035020754 0.007887012 7.708757e-22
000260 ad 3d 67 33 2a 1c 8e 38 2e 77 1b 3b 8c 13 44 a3
       5.3839972e-08 6.7763336e-05 0.002372216 -1.06293205e-17
000270 dd 82 0e 3b 98 b9 86 37 0d 64 28 38 b7 d9 b8 b9
       0.002174548 1.6060469e-05 4.01475e-05 -0.00035257425
000280 c1 f5 37 3c 3a 2c 18 be 0d c0 ef 3c 32 49 41 ba
       0.011228026 -0.14860621 0.029266382 -0.00073732727
000290 62 67 5a bb b5 5e 32 3c ad a6 a3 a8 93 13 43 3c
       -0.003332578 0.010886838 -1.816892e-14 0.011906522
0002a0 29 ec f8 aa df e7 dc bd b3 af c6 b6 65 f7 a9 b8
       -4.4217519e-13 -0.107864134 -5.921314e-06 -8.104629e-05
0002b0 a8 d4 1c bb 18 a7 a2 3c 56 3e 0d bc 62 e6 6d 3b
       -0.0023930464 0.019855067 -0.008620819 0.003630065
0002c0 8c b6 69 bb 22 0a 82 b9 1d 8b 0f 3d d3 d2 aa 3c
       -0.0035661785 -0.00024803082 0.03504478 0.020852482
0002d0 6c ce b4 bc 1e fe 2f 35 e7 ed e0 3c f0 08 93 3a
       -0.022071086 6.556237e-07 0.02745719 0.0011217874
0002e0 e8 ee a3 3b 7f 68 2c bc 66 d6 e6 34 c0 4d 28 bd
       0.005002845 -0.010522961 4.2996834e-07 -0.041089773
0002f0 27 ed 13 bc 7b 8f 34 2e a7 37 1a 3c 4f 26 bc 3c
       -0.0090287095 4.1054698e-11 0.009412683 0.022967486
000300 f5 d9 17 bc df 27 33 39 ab 80 ea 3b 55 44 b2 ba
       -0.009268274 0.00017085623 0.0071564517 -0.0013600687
000310 b4 09 6b bc c0 ac 9d bb a7 b4 2d bd c1 57 2d 3c
       -0.014345575 -0.004811853 -0.04240861 0.010580004
000320 d9 a4 29 3d a4 85 90 3c 67 e3 14 bc 62 b4 8f 3a
       0.041416977 0.01764185 -0.00908742 0.0010963792
000330 55 ae 83 3b 64 e3 18 aa 95 d2 24 ba 9b b0 b5 b7
       0.0040185847 -1.3579204e-13 -0.00062874827 -2.165912e-05
000340 b2 28 4e 35 90 19 d6 bb 93 6e 3e bc ef 87 ac 3b
       7.68002e-07 -0.006533809 -0.011623043 0.005265228
000350 7f 21 6d 39 5d 65 00 3d a9 a8 48 3b fc 72 fd bc
       0.0002261456 0.031346668 0.0030618107 -0.030938618
000360 b0 f2 82 3d 2c da 81 3c 93 fd 3c 3d 27 f9 82 3c
       0.06393945 0.015851103 0.046140265 0.015987946
000370 b1 3a 2b 3d 6a a5 da 3b 74 cf 25 3d 0c b9 27 bd
       0.04180402 0.006672551 0.040481046 -0.04094796
000380 e9 e3 10 3d 02 fe 1e 3d c3 f0 e7 3c 2e fb 4b 3e
       0.035373602 0.03881646 0.028313046 0.19920036
000390 c6 3e 44 3c cd 6e 47 3c 42 50 0f 3c 0d 02 f0 bb
       0.011977857 0.012172413 0.008747162 -0.007324463
0003a0 fb e8 4a bc bb 51 80 3d 09 41 4a bd 3d 6b bd 3c
       -0.012384648 0.06265589 -0.04937843 0.023122424
0003b0 2d 52 b6 3d 3a 49 0b 3e 65 03 59 3b 8c 96 0a 3d
       0.089023925 0.13602152 0.0033113596 0.03383498
0003c0 23 47 46 be 60 4c 03 3b 36 4b 86 3c 29 09 d1 bd
       -0.19363074 0.0020034537 0.016393285 -0.10206825
0003d0 fa 0f 01 bc 23 e5 3a 3d 1d 1f c5 bd 30 4a 84 3c
       -0.007877344 0.045628678 -0.09625075 0.016148657
0003e0 33 7b aa bd d4 01 9d bc 96 29 c7 3d d2 88 14 bd
       -0.0832428 -0.01916591 0.09724729 -0.036263295
0003f0 1e 5c 77 3b 4e 4e 2e bc 5d 1d 21 be 03 da bb bd
       0.0037744115 -0.0106387865 -0.15733857 -0.09172442

encoder.linear2.bias f4 [118]
000000 df a5 11 33 48 6e b7 34 4f c7 e6 33 fa f5 17 35
       3.3911302e-08 3.4166646e-07 1.07464636e-07 5.6609827e-07
000010 8b fd 7a 34 c9 66 e4 33 e9 ff 94 33 9d fd 41 b3
       2.3375303e-07 1.0635774e-07 6.938337e-08 -4.5166974e-08
000020 3d 7a b7 b4 f2 40 58 b4 1f 7d 4e 34 42 95 1c b3
       -3.4175346e-07 -2.0140195e-07 1.9230764e-07 -3.645733e-08
000030 e8 11 27 b5 98 a2 48 b4 a6 8f 8d b4 d4 37 e9 b2
       -6.2238405e-07 -1.8685603e-07 -2.6367815e-07 -2.7150158e-08
000040 8a 92 94 33 34 af 83 34 17 5a 01 b4 3a 1f 12 b4
       6.918442e-08 2.4528129e-07 -1.2046836e-07 -1.360867e-07
000050 6a 11 b3 32 f7 f9 81 b4 de 74 89 34 07 03 18 35
       2.0846262e-08 -2.4209996e-07 2.560327e-07 5.662882e-07
000060 30 92 a8 34 df 26 74 34 68 a0 31 b4 be 84 ec 33
       3.1398804e-07 2.2738412e-07 -1.6542765e-07 1.1013752e-07
000070 51 88 c0 b3 2a 93 a0 b4 00 a0 b4 b4 51 b0 a6 34
       -8.9654925e-08 -2.9909398e-07 -3.3644028e-07 3.1048197e-07
000080 4b f6 13 b5 03 f6 dd b1 f1 ad 88 b4 53 8b dd b4
       -5.512017e-07 -6.459915e-09 -2.5458533e-07 -4.126583e-07
000090 b3 9d b3 33 64 52 c8 b3 79 69 29 b4 31 1c e7 b4
       8.3640224e-08 -9.3282125e-08 -1.5777722e-07 -4.3047615e-07
0000a0 12 68 bb b4 1b 91 29 b4 53 3e c6 b3 7e da be b2
       -3.4907185e-07 -1.579214e-07 -9.23143e-08 -2.221827e-08
0000b0 94 4e 38 b4 46 3f c1 34 ba 32 2b b5 f8 15 88 32
       -1.7164922e-07 3.599509e-07 -6.377628e-07 1.5842474e-08
0000c0 a2 c5 9a 33 a7 57 1d b4 4c 03 d3 b4 61 3e 3d 34
       7.207133e-08 -1.4653652e-07 -3.9304211e-07 1.762469e-07
0000d0 bf b6 1a 33 5f 3a c4 34 db 59 eb b4 78 a5 12 35
       3.6022126e-08 3.6550315e-07 -4.383754e-07 5.4630027e-07
0000e0 51 e1 34 b4 7e 2d 18 34 a1 c8 6c b3 f4 bc 55 34
       -1.6845776e-07 1.4172653e-07 -5.5130503e-08 1.9905912e-07
0000f0 26 7d f7 34 48 d4 1e b5 94 a6 9b b2 79 05 0a b5
       4.6098393e-07 -5.9168497e-07 -1.8120126e-08 -5.141697e-07
000100 59 4b 68 b2 0d 8e ef 33 03 a5 70 34 25 e7 11 35
       -1.3521309e-08 1.1155144e-07 2.2411773e-07 5.435307e-07
000110 b4 b6 29 b3 4e 12 6e 35 19 87 fd b2 76 17 90 34
       -3.9514546e-08 8.8688546e-07 -2.9514512e-08 2.683916e-07
000120 99 36 d9 b3 21 b0 5c 34 54 ce 8c 34 e2 69 1f 35
       -1.0114781e-07 2.0553172e-07 2.6227156e-07 5.9386196e-07
000130 52 a6 ca 34 27 f9 81 34 a1 0e e7 33 89 73 4a b2
       3.7746446e-07 2.4209405e-07 1.0759437e-07 -1.1784217e-08
000140 ae 62 3f b3 d3 a2 5f b3 25 d9 2f b4 ae 40 69 b5
       -4.45604e-08 -5.206932e-08 -1.6377142e-07 -8.6893385e-07
000150 15 40 f1 34 dc 01 11 b5 21 14 50 b4 cb 66 dc 33
       4.4936374e-07 -5.4019415e-07 -1.9378832e-07 1.0263246e-07
000160 50 36 8d b4 ce 80 52 b3 7b 2d b6 34 2c df 9e 33
       -2.6302814e-07 -4.9011582e-08 3.3933233e-07 7.398043e-08
000170 65 29 8d 34 f0 5a 52 33 1a 67 2d 34 c3 78 52 35
       2.6293415e-07 4.8977142e-08 1.6149389e-07 7.840683e-07
000180 ea 19 b6 34 54 07 7b b5 f7 59 a4 34 5d a1 21 34
       3.3918997e-07 -9.351545e-07 3.0612838e-07 1.5052997e-07
000190 2d 05 ce 33 88 d6 3b 34 82 39 b2 b3 33 80 05 34
       9.593564e-08 1.7493778e-07 -8.2992315e-08 1.2433229e-07
0001a0 24 4d 7e 34 0b c1 68 34 d0 60 86 b4 b2 34 3c b4
       2.3683657e-07 2.1676912e-07 -2.5029885e-07 -1.7528035e-07
0001b0 ec 87 2e b4 ef 53 ae b4 be 63 54 34 e2 ba 1f b4
       -1.6254461e-07 -3.2471095e-07 1.9780325e-07 -1.4876017e-07
0001c0 f5 6f 27 b4 de 07 e4 b4 ca e9 25 33 ae f7 29 b4
       -1.5593817e-07 -4.2474034e-07 3.8629686e-08 -1.5829457e-07
0001d0 02 ea 2b b5 cc 33 97 b4
       -6.404299e-07 -2.816363e-07

encoder.norm.weight f4 [236]
000000 b4 64 f4 3d 35 98 10 3f f4 f5 ee b8 26 ab bc 38
       0.1193327 0.5648225 -0.00011394537 8.9964175e-05
000010 71 26 db 3d c2 52 56 39 45 81 81 3e 93 d0 18 3f
       0.107006915 0.0002043946 0.25293937 0.5969326
000020 e3 8b 00 37 73 d1 64 3e a2 c0 0f bb c5 91 38 3b
       7.661964e-06 0.22345524 -0.0021934886 0.0028163057
000030 99 0f d1 3c aa 04 23 3d 9f e6 f8 38 d6 ac 4e 3a
       0.025520133 0.03979937 0.00011868518 0.0007884031
000040 f4 79 1f b6 1b ba 52 3e fe 54 ca 3e 98 4c 7d bb
       -2.3763832e-06 0.20578806 0.3951797 -0.003865039
000050 bd b3 63 3b 94 e6 34 b1 c4 3e c3 3d a5 56 e5 3e
       0.0034744584 -2.6324516e-09 0.09533456 0.44792667
000060 95 3e 02 3e fb ff 1e b5 37 41 37 38 d7 c3 16 39
       0.12719186 -5.923209e-07 4.3691336e-05 0.00014378071
000070 de b1 93 bb af 92 63 3e 8a ce 23 3c 5b 0b b1 3a
       -0.0045072874 0.22223924 0.009997973 0.0013507413
000080 3a ef 00 3b ba 22 60 38 a9 a4 d1 3b 53 71 c6 3a
       0.001967384 5.3438103e-05 0.006397803 0.0015139974
000090 cd ba 00 3e 88 ff 0a bb 3a ef ce 3e 00 23 8e 3c
       0.12571259 -0.0021209437 0.4041689 0.017350674
0000a0 48 c7 ae 3d 75 71 2c 3b 19 9a d6 3a 71 c3 92 3e
       0.08534104 0.0026312743 0.0016372829 0.28664735
0000b0 bd 7c 3d 3c 95 bc 69 3d b3 9b 10 3d d5 27 1c 3e
       0.011565384 0.05706461 0.035304736 0.1524957
0000c0 83 45 87 3d a8 25 44 3e 4f 82 5b 3c 96 f7 9f 3a
       0.06605055 0.1915499 0.013397767 0.0012204524
0000d0 70 e0 9a 3d a9 fe 0b b9 4c cd 1e 3b 44 71 e1 bc
       0.07562339 -0.00013350941 0.0024231253 -0.02751983
0000e0 8d a9 32 3e 1d bd 8e 3c 29 05 09 3d 1f f3 8a 3e
       0.17447491 0.01742416 0.033452187 0.27138612
0000f0 21 c4 87 3b 52 fa dc 3e b2 97 b8 3d 81 14 8a 3e
       0.0041432534 0.4315973 0.090133086 0.26968768
000100 2d e1 05 3b a6 d0 9d b7 7e b9 27 3d 08 6d ee bd
       0.0020428405 -1.8813018e-05 0.040948384 -0.1164189
000110 dd 34 1a 3c de e8 32 3c b9 b9 c8 3d 0f a4 b5 3c
       0.009412018 0.010919778 0.09801049 0.022172956
000120 7b ef 6c 3e 2d 2f 3f 3d b8 bf d1 3d c6 7f 4f 3e
       0.2313823 0.04667585 0.102416456 0.20263585
000130 c8 65 8e b9 fb ed 93 3d 33 37 60 3c e7 ef 89 3b
       -0.00027160184 0.072231255 0.0136850355 0.004209507
000140 b7 a5 80 3d 86 8a 32 3c f8 37 25 ba 19 54 00 39
       0.062816076 0.010897284 -0.00063025905 0.0001223836
000150 41 2f da ba 65 b4 0f 3f 89 22 b3 3b 10 0e 9d 39
       -0.0016646163 0.56134635 0.0054667634 0.0002995585
000160 06 00 78 3d 11 72 18 3a 5b 80 09 b9 d3 93 10 3f
       0.060546897 0.0005815337 -0.00013113154 0.5647556
000170 0c 32 8b 3c 6c 3a f5 3c 4f 69 5e 3d 87 a7 d8 2e
       0.016991638 0.029935084 0.05429965 9.8523016e-11
000180 7d 34 18 3d 49 94 e5 3e 30 0c 9a 3d b5 a4 f8 3d
       0.03715943 0.44839695 0.07521856 0.121407904
000190 9e c5 3a 3a 2c 62 7d 3d df 8a 04 3e 9f e1 95 3e
       0.0007124784 0.061861202 0.129436 0.29273698
0001a0 76 55 53 3e c7 2d 86 3c 82 52 4a 3e 70 f3 95 3a
       0.2063807 0.01637925 0.19758037 0.0011440348
0001b0 a3 66 b4 3e e7 da 1e 3d f7 ff c3 3b 4d 43 cb 3e
       0.35234556 0.03878298 0.005981441 0.39699784
0001c0 db 87 6d 3a 10 5c 07 3c c5 27 77 3a 5d 8c f6 b9
       0.00090610766 0.0082616955 0.00094282284 -0.00047025355
0001d0 10 2b 36 3a eb 39 de 3e a8 f0 a7 3e 9e 8b 81 3e
       0.0006949166 0.43403563 0.32800794 0.25301832
0001e0 fb b1 f3 3d df 84 5c 3e 18 d6 35 3e f7 30 d6 39
       0.118991815 0.21535061 0.17757452 0.00040853742
0001f0 b0 8d 86 39 1d 96 4d 36 b4 d0 09 3d e9 94 dd 3d
       0.00025664037 3.0634758e-06 0.0336463 0.10819418
000200 d5 05 ab 38 53 a0 a4 3d 62 ea 94 3d 63 22 1e 3e
       8.155002e-05 0.08038392 0.072712675 0.15442805
000210 5b a6 00 3c d1 46 89 38 0a 4d 58 3e 3c b1 09 3b
       0.007852162 6.54586e-05 0.21123138 0.002101018
000220 66 70 88 3e cb 56 09 3a b0 64 2e 3e a0 c3 0d 3d
       0.26648253 0.00052390684 0.17030597 0.03461039
000230 f6 b1 fd 3d 1b ea 96 3d 82 a7 12 3a bd 0a 39 3d
       0.12387459 0.07368871 0.00055944186 0.045176256
000240 2e 6c 7c 3d e0 b4 2a b8 c1 aa 3a 3d 5f 22 d7 3b
       0.061626606 -4.069961e-05 0.045573 0.0065653767
000250 a3 55 b4 3e 7b fe c9 3e 9a 11 19 3b 50 08 d1 39
       0.35221586 0.39451966 0.0023356439 0.0003986978
000260 a9 da 6b 38 f6 2d cd 3a 53 df 9a 3d 99 28 a8 3a
       5.623201e-05 0.0015653956 0.07562127 0.0012829482
000270 3c 2c ca ba 4d 35 c0 3b 4f fa b9 3d 8f 70 a2 3d
       -0.001542456 0.005865729 0.09080946 0.07931625
000280 77 d9 d8 3a 56 b5 cd 3e 28 6c 60 3d ba ec 9b 3d
       0.0016544302 0.4017741 0.054790646 0.076135114
000290 2b 83 fc 3c 72 ef 0e bb 15 06 16 3b 7b dc 09 3c
       0.030824265 -0.00218102 0.0022891809 0.008414383
0002a0 12 b5 15 bb 3a 70 ee 3e e4 53 49 38 3d d5 1e 39
       -0.0022843522 0.46569997 4.8000264e-05 0.00015147492
0002b0 f1 b3 6f 3e 7d ee dc ba 53 fd e6 3e 76 86 32 3e
       0.23408486 -0.0016855743 0.45115146 0.17434105
0002c0 ca e1 b7 3d 97 ce 27 ba b5 0e 57 bc d5 b5 34 b7
       0.08978613 -0.0006401329 -0.013126065 -1.0771172e-05
0002d0 6e f3 d7 3e 95 fe 4d 3a 3a 63 20 3e d7 5b 33 36
       0.4217791 0.0007858065 0.15662852 2.6726536e-06
0002e0 e4 a2 9e 3d 4d 65 5f 3e 21 05 b3 b5 0b 3c ae 3e
       0.07745913 0.21815987 -1.3338032e-06 0.34030184
0002f0 1d bb b0 3d ea b1 8e ba 26 84 5b 3e fb a8 67 3d
       0.08629439 -0.0010886763 0.2143713 0.056557637
000300 30 8f 86 3d 33 a9 d4 3c 9f fe 0e 3d 47 24 4e 3c
       0.065702796 0.025959587 0.034910794 0.012581891
000310 5a cc bf 3c 6b ef 70 3c 6a fb 19 3e cf f8 75 bb
       0.023412872 0.014705519 0.15037313 -0.0037532335
000320 d7 1d 42 3e 36 01 1f 3e 85 25 30 3e 5b 51 5c 3c
       0.18956695 0.15527806 0.17201813 0.013447131
000330 3b 6c 7f 3a ef 1d 0b 38 8d 93 1b 3d b0 5b 39 3b
       0.00097436056 3.316806e-05 0.037982512 0.002828341
000340 68 e2 78 b9 22 e6 15 3e 21 23 85 3e 4f 1d 05 3e
       -0.00023735466 0.1463857 0.26003364 0.12999462
000350 de a8 a6 3a 1a 22 a4 3c 33 2e 88 ba 90 74 26 3e
       0.0012715121 0.020035792 -0.0010389745 0.16255403
000360 27 cb c1 35 7b 14 e6 3c 9d fe 24 3a 2c 9d b7 3c
       1.4438746e-06 0.028085938 0.0006294044 0.022413813
000370 2d f7 6a bb b7 28 7a 3d e3 b1 7d 3c a5 4e 13 3f
       -0.0035852895 0.061073985 0.015484306 0.5754188
000380 71 72 b6 3d bb 92 88 3c 90 c2 b6 3a a3 1d a9 3e
       0.08908547 0.016671529 0.0013943482 0.33030424
000390 d5 cf 70 3c d4 45 12 3c 3c df 83 3e bc 81 58 3d
       0.0146979885 0.008927781 0.25756252 0.0528581
0003a0 4f 87 de 3d ed 63 86 3c fe e9 cb 3e 2c 57 d9 3a
       0.10865652 0.01640507 0.3982696 0.0016581765

encoder.norm.bias f4 [236]
000000 f4 9e 35 3e 85 ca 8e be 8f b2 06 ba c2 04 43 ba
       0.17736417 -0.27888885 -0.00051383016 -0.00074393686
000010 33 5f 90 3e 64 c6 d9 bd 69 6c ab 3e ae d0 c8 3d
       0.2819763 -0.10633543 0.33481148 0.098054275
000020 7f bb a5 bb 24 ec 32 3e 05 5e fa bb c4 bf 07 bd
       -0.0050577517 0.17472893 -0.0076406025 -0.033141866
000030 93 b2 07 be 10 99 d9 bc 1f 6c 49 bc d8 55 3b bb
       -0.13251714 -0.026562244 -0.0122938445 -0.0028585102
000040 2f 28 13 ba 2a 0e ce 3e 81 f8 e3 3e 88 d6 98 bc
       -0.0005613593 0.4024518 0.4452553 -0.018656984
000050 63 4f 46 bc a8 5a 3a bb 09 49 a5 3d c7 42 07 3f
       -0.012103888 -0.0028435383 0.08070571 0.5283627
000060 c0 10 4e 3d 5a 4b e5 b5 9c 09 aa bb c7 8f 46 bb
       0.050308943 -1.708376e-06 -0.005189134 -0.00302981
000070 5b 49 70 bc d4 b0 bb bd d8 2a 46 bd 3f 16 2b bc
       -0.014665927 -0.09164587 -0.048380703 -0.010442316
000080 89 44 a7 bc 71 de 08 bc ab da a8 39 05 af bd bc
       -0.020418422 -0.008353815 0.00032206377 -0.023154745
000090 9e 4d c1 bc a7 d1 65 bc 06 b4 ae bd 64 58 d2 3b
       -0.023596581 -0.014027036 -0.085304305 0.0064192284
0000a0 7d fc 32 3e c6 86 bc bb 01 b4 01 bc 4b 48 9f 3e
       0.17479129 -0.005753371 -0.007916451 0.31109843
0000b0 f3 78 9a bd fa 2e f6 3d af 0f 8d bd af 16 bb 3c
       -0.075426005 0.12020679 -0.06887757 0.022837965
0000c0 b7 c7 df bb 72 ce 1a 3e 83 98 28 be 53 0d e3 bc
       -0.006829228 0.15117815 -0.16464429 -0.027716314
0000d0 06 4f 9a bd d3 b0 a5 bb 01 f3 9f bc 93 ca 63 3c
       -0.07534604 -0.0050564795 -0.019525053 0.013903278
0000e0 c5 1c 83 3e bf 88 dd 3d c4 a0 bd bb aa 98 8c 3e
       0.25607887 0.10817098 -0.005786987 0.27460223
0000f0 90 c7 15 bd ee 66 2e be 99 32 bd 3e e5 7b 9f be
       -0.03656727 -0.17031452 0.36952665 -0.31149212
000100 bf d9 93 bc 28 b1 45 b9 a8 7d 88 3e 2c 5b ac 3d
       -0.018048165 -0.0001885338 0.26658368 0.08415827
000110 3a 42 26 bd f6 3a af bd aa 97 08 3e 4b 68 b5 bd
       -0.040590502 -0.08556168 0.13339105 -0.08857783
000120 94 9d 93 3e 16 a8 ba bd 1b 75 fc 3d a2 d0 04 3e
       0.2883116 -0.09114091 0.123270236 0.12970212
000130 aa 4d 0c bb a3 d1 8a bd 65 97 0e bd 08 ef 25 bc
       -0.0021408596 -0.06778266 -0.03481235 -0.01012779
000140 8c 4b bf 3d 5a 7f af 3d 2e d6 1f bb 8d 89 14 bd
       0.09340581 0.08569212 -0.0024389136 -0.03626399
000150 26 fc 1b bc 15 88 75 3e c7 c8 43 ba fc 92 f3 bb
       -0.009520566 0.23977692 -0.0007468578 -0.0074332934
000160 4d 9a 0e 3e 0c df 3c bb 59 4a d8 b9 e3 ca 9a 3d
       0.13926049 -0.002881947 -0.00041254124 0.07558229
000170 33 39 88 bd 5a c1 16 3c 62 b3 29 be 0f 24 3b b3
       -0.06651535 0.009201372 -0.16572335 -4.3572125e-08
000180 c9 b0 0d be 1f bb ce be a1 36 9f 3c 34 12 73 3e
       -0.1383697 -0.40377137 0.019435229 0.23737413
000190 c3 99 45 bd d7 22 82 3d f6 71 09 bd 62 5e 0e 3f
       -0.04824234 0.063543014 -0.033555947 0.55612767
0001a0 32 ea 9b 3e 80 74 30 3e fa fd 3c be ed c5 0e bc
       0.30452114 0.17231941 -0.1845626 -0.008714181
0001b0 e3 6d dc bd 6d c1 03 bd 0e fc 92 bd 4b e1 87 bd
       -0.10763147 -0.032166887 -0.07176982 -0.06634768
0001c0 97 02 b9 bc db 56 53 bd ea f1 8a bc 46 5d 98 bb
       -0.022584243 -0.051596504 -0.016961057 -0.004649791
0001d0 10 ee 37 bb e1 96 a5 bc 5b 6c 36 3f 42 46 86 3e
       -0.002806548 -0.020213546 0.7125909 0.26225477
0001e0 66 1a 6e 3e 35 e8 d8 3e 29 05 b7 3e d5 0d 80 bc
       0.23252258 0.4236466 0.35746124 -0.015631596
0001f0 f7 0d d5 ba 1c 1e 17 bb e8 ad 01 3c 3d 31 1b 3c
       -0.0016254772 -0.0023058718 0.007914998 0.009472189
000200 bf c7 ad ba 26 dc 89 bd 57 f9 1d 3e 72 2c 6e 3e
       -0.0013258382 -0.06731443 0.15427147 0.23259142
000210 08 20 dd bc 44 36 43 ba d4 ff 7b 3e 8b 65 d2 bb
       -0.026992813 -0.0007446746 0.2460931 -0.0064207963
000220 40 4b b9 bd a8 58 84 bb 0d c1 98 3b 29 b2 dd bd
       -0.09047556 -0.004038889 0.0046616853 -0.10824997
000230 c7 b7 d5 3d c9 8b cf 3d c6 54 bc ba d3 ee 2f bd
       0.10435443 0.10134084 -0.0014368526 -0.04295237
000240 af ad c2 3d 37 0f c6 bb f0 4d 87 3b 7a 28 38 bd
       0.09505784 -0.006044294 0.004129164 -0.044960476
000250 bc 62 c7 be 5f ca f3 bd 05 b8 e1 bb a8 22 fc bb
       -0.38942516 -0.119038336 -0.006888392 -0.007694561
000260 0f c0 dc bb d8 ea a1 bb e2 ac 01 be 04 cc 6e bc
       -0.0067367624 -0.0049413256 -0.12663606 -0.014575008
000270 69 58 00 bd 50 b0 45 bc 08 20 0a be 70 d7 8d bd
       -0.031334314 -0.012065962 -0.13488781 -0.06925857
000280 bf 3d 08 bc a6 c8 04 3f c2 66 00 be 03 6a 7b bd
       -0.008315503 0.51868665 -0.12539199 -0.061380398
000290 ab 2c 0c 3d a8 40 17 be 58 f7 8e bc ea ca 0a bc
       0.034222286 -0.14770758 -0.017451927 -0.00847123
0002a0 77 1f 11 bc d1 49 05 3f 70 22 f8 b9 de 2f aa bb
       -0.008857599 0.5206576 -0.00047327904 -0.0051936945
0002b0 dd fe 8f 3e 0d 3d e3 bb b0 1e 10 3f f6 f6 a0 3e
       0.28124133 -0.006934768 0.56296825 0.31438416
0002c0 3d 49 8a bd 82 05 b1 bc 91 02 f9 bc f2 c9 d1 ba
       -0.0675225 -0.021609072 -0.030396732 -0.0016005619
0002d0 5f 11 0f bf e0 68 c4 ba 25 29 56 3e e9 d0 b2 ba
       -0.5588588 -0.0014984868 0.20914133 -0.0013642582
0002e0 91 37 37 3d af 07 52 3e e0 8d 0d b7 ab 42 d6 3e
       0.044730727 0.20510744 -8.437288e-06 0.4184774
0002f0 af ba 07 bb 21 48 b5 bc b5 f3 31 be 7e ab 4f 3e
       -0.0020710637 -0.02212912 -0.17378123 0.20280263
000300 89 02 d8 3c 7f 2d 8b bd d2 a3 a8 bd be 4e e1 3b
       0.026368396 -0.06795787 -0.08234371 0.006875842
000310 b4 c8 bf bc ef db 2b bc cc dd bd 3e a6 13 78 bc
       -0.023411132 -0.010489448 0.3708328 -0.015141403
000320 3e 2f ad 3e 1c 09 a1 3e a0 7f 65 3e b0 81 f8 bc
       0.33825105 0.31452262 0.22411966 -0.030335277
000330 0d 13 fa bb f4 60 18 bb 49 4d 7f 3d 9f ec dc bb
       -0.0076316656 -0.0023251148 0.062329564 -0.0067420746
000340 3d 05 b0 bb 0f 49 ea bd ee 25 b2 3e 47 ea 42 3e
       -0.005371718 -0.11439716 0.34794563 0.19034682
000350 f7 ab bf bd 44 b1 29 bd b3 57 65 bb 97 38 2f bd
       -0.093589716 -0.04142882 -0.00349949 -0.042778578
000360 81 76 be ba 09 f8 74 bd a8 a1 2e bc c6 86 a7 bd
       -0.0014531167 -0.059806857 -0.010658659 -0.08180003
000370 97 24 da bc d0 7c f1 3d 22 19 72 bd df e2 12 3c
       -0.026628776 0.11791384 -0.059106 0.008965223
000380 29 55 2d 3e d0 4f 1b bd 22 8b 7a bc a0 a8 12 3e
       0.16927017 -0.037917912 -0.015291961 0.14322138
000390 0b 70 36 bd e3 79 67 bd dd 66 d9 3e e9 4b 5b bb
       -0.044540446 -0.056512725 0.4246129 -0.0033461994
0003a0 7c 57 a6 3d 5c 01 71 bd 1a 14 0d 3f 03 64 d6 bb
       0.08122155 -0.058839187 0.551088 -0.006542684

encoder.norm.running_mean f4 [236]
000000 3c ea 6c c0 89 9d cc c0 ca b1 0d 3e 25 b7 e2 3e
       -3.7017965 -6.3942304 0.13837352 0.44280353
000010 02 86 86 c1 69 96 a2 3b 7f 8f eb c0 55 fb 95 41
       -16.815434 0.004961778 -7.3612666 18.74772
000020 43 29 3d 41 0c e4 06 41 b5 bb 1c c1 06 16 9d c1
       11.822574 8.4306755 -9.795827 -19.635754
000030 8f e3 05 bf 01 7d 32 41 bd 1f 9c 3d 85 b0 7e bc
       -0.5230035 11.155519 0.07623241 -0.015545015
000040 d0 3f 15 b8 42 6a 27 3f 09 33 c3 bc 3b aa 0c bc
       -3.55838e-05 0.6539651 -0.023828046 -0.008585508
000050 c6 0b 1c 3a 97 ec 8e 41 0b 0f 7b 40 d6 1a 76 bf
       0.0005952682 17.865522 3.9227931 -0.961347
000060 85 c9 c7 bd 15 65 b1 bd 44 c9 16 bc ca 5f 4f bb
       -0.09755234 -0.08661858 -0.009203259 -0.0031642788
000070 6b 4b 52 be f6 b6 5a 41 1e 1d 3c be fc 50 9f bf
       -0.20536582 13.669668 -0.18370482 -1.244659
000080 7c ec 31 ba 32 67 a5 3e ba a6 9b 3b 71 1a 66 40
       -0.0006787253 0.32305294 0.0047501 3.5953639
000090 80 67 2e 41 99 6e 4b 3e 25 57 59 c1 45 41 cd 3d
       10.900269 0.19866408 -13.5837755 0.10022215
0000a0 0f a9 13 3f ce be 27 41 8f de 15 bf 08 6a 4b 41
       0.5767984 10.484083 -0.5854272 12.713387
0000b0 05 29 45 38 25 f6 94 c0 e6 06 ab 40 47 d2 67 be
       4.7006662e-05 -4.655047 5.344592 -0.22638808
0000c0 69 ed 20 40 70 62 9c 3e 4e 44 e0 be 97 9f 11 41
       2.5144904 0.30543852 -0.43802112 9.101462
0000d0 1f 38 68 bf c9 33 de bd 8d 58 22 bf 9c fa 85 3f
       -0.90710634 -0.10849721 -0.6341637 1.0467105
0000e0 50 83 24 3e 08 7c 81 c0 54 19 94 40 42 18 4a 41
       0.16065717 -4.0463905 4.628092 12.630922
0000f0 c5 87 70 41 c7 31 10 c1 d5 e6 1e 40 78 e6 7f c1
       15.033147 -9.012153 2.4828389 -15.993767
000100 89 b7 24 c0 bc 8c a7 bd 4e aa af 40 03 f9 08 c1
       -2.573702 -0.0818114 5.489539 -8.560794
000110 83 d6 fd 3a 9d 4b 2a bf 27 d8 a0 40 d9 82 86 bf
       0.0019366298 -0.66521627 5.026386 -1.0508682
000120 fd cd 6e c0 d8 2f ce 40 e0 92 57 bf 7d f5 28 41
       -3.7313225 6.4433403 -0.8420849 10.559934
000130 1e d2 94 bd 3a 54 46 c0 ea 17 65 40 7f 4a 14 41
       -0.07266639 -3.0988908 3.5795846 9.2681875
000140 c8 50 38 3f 4a 9b 8d 3f 67 14 d6 c0 ef b3 49 3d
       0.7199826 1.1063015 -6.6899905 0.049243864
000150 4f c7 96 40 cc a2 4b 41 99 f8 76 3e 78 06 6a 3e
       4.7118297 12.727245 0.2411827 0.2285403
000160 60 1c 1d c0 d6 51 01 3f 8c 71 40 be ff 77 8c c1
       -2.4548569 0.50515497 -0.18793315 -17.558592
000170 80 98 06 be d5 07 a0 40 13 3e e7 bc cb 3e 63 41
       -0.13144112 5.000956 -0.028227841 14.20283
000180 ac d8 f1 bd cb f9 cf 40 4d 15 6c 3f 1f 10 ff c0
       -0.11808905 6.4992423 0.9222 -7.970718
000190 96 a3 ea 3f 81 6a b4 3e bd 7a fc c0 68 4f 3e c1
       1.8331172 0.35237506 -7.8899827 -11.894386
0001a0 76 27 46 3e bf 41 81 40 19 9b 38 c0 d3 25 c4 3d
       0.1935099 4.0392756 -2.8844664 0.09577527
0001b0 5f 55 fc 40 25 88 6f 3f 59 04 a5 36 b4 97 09 41
       7.8854213 0.93567115 4.9178893e-06 8.599537
0001c0 66 d7 22 3b ca 10 81 3d 74 45 62 bf 69 96 92 be
       0.0024847626 0.063020304 -0.8838723 -0.2863038
0001d0 58 20 55 bd 98 b9 1b c1 47 27 11 41 45 2c 80 3f
       -0.0520328 -9.732811 9.072089 1.001351
0001e0 be 8f 56 bf 56 4a 65 40 6e 58 84 c0 e8 b1 22 3e
       -0.83813083 3.582662 -4.1357946 0.15888178
0001f0 69 2b 81 3f 4c e2 28 3b 09 a4 c5 3f 99 c2 bf 40
       1.0091373 0.002576965 1.5440685 5.9925046
000200 6c 28 7a c1 6b cf c2 3f ba 33 18 c0 13 59 b8 c0
       -15.634869 1.5219549 -2.3781571 -5.7608733
000210 fc 83 ab 40 ab 25 1b c1 b4 4a 26 bf c5 60 8c 3f
       5.3598614 -9.696696 -0.6495774 1.0967032
000220 3d 55 1d c1 8e 43 8f 3c b8 83 37 3e d2 cb 41 40
       -9.83331 0.017488267 0.1792134 3.0280652
000230 38 e3 01 41 e3 50 2f 3e d0 3a 09 3d 94 42 1b 3f
       8.117973 0.171207 0.033503354 0.60648465
000240 1d c1 1e bf d8 d9 fa bd df 53 72 3f 00 77 72 be
       -0.6201342 -0.12248582 0.9465923 -0.23678207
000250 1c 97 26 3e 97 4b e6 c0 a4 9e 39 3f a0 56 9e ba
       0.16268581 -7.1967273 0.7250769 -0.001208026
000260 6c 38 57 bc 0e 2c 77 40 10 83 3c bf 65 1d 57 3d
       -0.013136011 3.862064 -0.73637486 0.052518267
000270 df 54 a7 3f 7e 0a 8b 3e ca 02 8a bf c1 d3 90 3f
       1.3072776 0.27156442 -1.0782101 1.1314622
000280 d4 99 bf bd 6e 8f d5 3f 42 99 d3 3e 21 0f 9a 3f
       -0.09355512 1.6684396 0.41327864 1.2035867
000290 1b 92 19 40 91 e6 8a be ab cf be 40 39 97 e4 3a
       2.3995426 -0.27129033 5.96285 0.0017440087
0002a0 58 d3 d1 41 85 d6 b8 bf 5b 6c e6 bc 7f 6f a8 c1
       26.228195 -1.4440466 -0.02812784 -21.054441
0002b0 23 9c d9 40 6f d6 95 3d a3 92 b5 bf 04 1f e7 3f
       6.8003097 0.073162906 -1.4185375 1.805634
0002c0 11 2f c1 3f 2f 6f 87 bf f7 7d b7 be e7 18 10 be
       1.5092489 -1.0580806 -0.3583829 -0.14072
0002d0 b3 ed 66 bf 3b 8c c9 40 74 8f 50 bf c4 48 6f bd
       -0.9020645 6.298368 -0.8146889 -0.058419004
0002e0 dd 9b c0 bf e3 4b 2c 41 c8 5a dd 3d 40 ab b9 bf
       -1.5047566 10.768527 0.10808331 -1.4505386
0002f0 51 1c ab 40 fb 23 16 be 6a 30 6a 40 86 1e b7 c0
       5.3472066 -0.14662163 3.659205 -5.722476
000300 6b d4 11 40 ea cd a3 bf 18 e6 5c 3e 90 01 21 3f
       2.27859 -1.2797215 0.21572149 0.6289301
000310 ad 1c 27 c1 c4 e8 d5 3e 14 0d 44 bf fc c7 6b be
       -10.444501 0.4177915 -0.76582456 -0.23025507
000320 c1 a4 6a bf 70 fe 1c c1 d3 fd b5 bf 66 9c 89 3f
       -0.91657645 -9.812119 -1.4218086 1.0750854
000330 fa d1 25 c1 f2 b5 86 3d 1f 23 3e 40 66 49 c1 37
       -10.363764 0.06577672 2.9708936 2.3041572e-05
000340 fd 1f 36 bd e7 22 2d 40 38 cd 4e c0 b1 33 e5 bf
       -0.0444641 2.7052553 -3.2312756 -1.79064
000350 64 a7 4e 3f 21 13 1f 40 e8 4a 41 c1 14 cf 8c 40
       0.8072417 2.4855425 -12.080788 4.400278
000360 d6 6e 3b bb ac bb 62 3f 7f 5c c1 3e 4b a1 1a 3f
       -0.00286 0.88567615 0.3776588 0.60402364
000370 88 a5 df 3c e7 e7 f3 40 2b 88 a3 bf 8c 6d 44 41
       0.027300611 7.6220584 -1.277593 12.276745
000380 b1 f3 d0 c0 f0 71 75 41 15 c4 8e be 62 8b e6 3e
       -6.5297475 15.340317 -0.27883974 0.45028216
000390 c3 4d 79 3e 5d fd 33 be 32 eb 32 bf de 4f a9 40
       0.2434607 -0.17577119 -0.6989013 5.2909994
0003a0 ed 41 1d 40 94 f4 a2 bf f1 5d 2b 3e 93 7d 84 3a
       2.4571488 -1.2730889 0.16735055 0.0010108225
