checkpoints/ae_50%.pt (torch, 915163 bytes, 16 tensors)

encoder.linear1.weight f4 [236, 358]
000000 3a cd 00 80 76 c1 00 00 b9 d3 00 00 8f 8e 00 00
       -7.3621e-41 6.9401e-41 7.5952e-41 5.114e-41
000010 54 c4 00 80 e2 2f 00 80 48 6f fd 34 9f 11 ed 97
       -7.0429e-41 -1.7177e-41 4.720589e-07 -1.5320214e-24
000020 96 04 1f 35 fd 14 01 80 b4 71 00 00 be 17 01 00
       5.923879e-07 -9.9365e-41 4.0789e-41 1.00353e-40
000030 8f d1 00 80 df fb 00 00 ed 2e 00 00 d0 8a 00 00
       -7.5175e-41 9.0354e-41 1.6834e-41 4.9797e-41
000040 35 78 00 00 6c 0a 01 80 1b 27 00 00 f5 76 00 80
       4.3122e-41 -9.5574e-41 1.4028e-41 -4.2674e-41
000050 15 c9 00 80 52 79 00 00 16 ae 00 80 44 8e 00 00
       -7.2135e-41 4.3522e-41 -6.245e-41 5.1035e-41
000060 e9 a5 00 00 68 62 01 80 0e 5b 00 80 59 1f 00 00
       5.9517e-41 -1.27137e-40 -3.2664e-41 1.1245e-41
000070 e5 bf 00 80 f6 52 f6 97 ea a0 00 00 72 28 01 00
       -6.8839e-41 -1.591832e-24 5.7725e-41 1.06345e-40
000080 f5 8f 00 80 8c ee 00 00 a0 fc 00 80 33 e9 00 84
       -5.1642e-41 8.5574e-41 -9.0625e-41 -1.5153408e-36
000090 15 14 c0 b0 7b 23 01 80 cd 0b 00 00 b7 c5 00 80
       -1.3975546e-09 -1.04563e-40 4.233e-42 -7.0927e-41
0000a0 2f 5a 01 00 49 97 00 80 e3 18 01 00 6a 2e 00 00
       1.24187e-40 -5.4271e-41 1.00763e-40 1.665e-41
0000b0 a2 ce 00 80 40 61 01 80 3e 09 01 80 53 63 00 80
       -7.4126e-41 -1.26722e-40 -9.5151e-41 -3.5631e-41
0000c0 f8 60 00 80 75 55 00 00 cf b5 00 80 77 09 01 80
       -3.4786e-41 3.0656e-41 -6.522e-41 -9.5231e-41
0000d0 da 1f 00 80 63 41 62 a8 3a 04 01 00 7e 14 01 00
       -1.1426e-41 -1.2559699e-14 9.3352e-41 9.9187e-41
0000e0 32 ab 00 80 74 fb 00 00 e0 3f 01 00 ca 57 01 00
       -6.1413e-41 9.0204e-41 1.1475e-40 1.23328e-40
0000f0 c8 40 00 00 92 2e 01 00 f6 51 01 80 7d 57 01 80
       2.3239e-41 1.08542e-40 -1.21238e-40 -1.2322e-40
000100 d3 35 01 00 d9 53 00 00 00 aa 00 00 94 16 01 80
       1.11144e-40 3.0079e-41 6.0985e-41 -9.9935e-41
000110 68 36 01 00 3e 44 00 00 2f 4a 00 80 23 6a 00 00
       1.11353e-40 2.448e-41 -2.6612e-41 3.8075e-41
000120 9e 55 01 80 cb 52 00 80 6d 43 00 00 3d ab 00 00
       -1.22549e-40 -2.97e-41 2.4188e-41 6.1429e-41
000130 d3 b0 00 80 3e ac 01 80 a3 d0 00 00 9f 64 00 00
       -6.3433e-41 -1.53624e-40 7.4845e-41 3.6096e-41
000140 34 dc 00 00 36 f9 00 00 aa fc 00 80 eb 0e 00 80
       7.8994e-41 8.94e-41 -9.0639e-41 -5.352e-42
000150 ab 1d 00 80 12 05 00 00 b5 38 00 80 dd 66 00 80
       -1.0643e-41 1.819e-42 -2.0343e-41 -3.69e-41
000160 08 45 00 00 e5 6b 01 00 96 63 01 00 e6 db 00 80
       2.4764e-41 1.30541e-40 1.2756e-40 -7.8885e-41
000170 1b de 00 00 84 33 00 80 d4 98 00 00 04 c6 d8 a2
       7.9676e-41 -1.848e-41 5.4824e-41 -5.8756575e-18
000180 cf 43 01 80 59 2c 01 80 81 7d 00 80 51 f6 00 00
       -1.1616e-40 -1.07744e-40 -4.5022e-41 8.8362e-41
000190 37 44 01 00 c5 e8 00 80 f1 7f 00 80 37 e4 10 96
       1.16306e-40 -8.3502e-41 -4.5897e-41 -1.1704239e-25
0001a0 ee 36 01 00 a4 d6 00 00 b2 3f af b5 f5 dc 70 1f
       1.1154e-40 7.6999e-41 -1.3057054e-06 5.1004748e-20
0001b0 6d 54 01 80 88 85 00 80 26 0f 00 80 37 4f 00 00
       -1.22122e-40 -4.7902e-41 -5.434e-42 2.8417e-41
0001c0 28 10 04 00 7a 2b 00 80 7d 42 00 80 b5 71 23 28
       3.73138e-40 -1.5596e-41 -2.3852e-41 9.072974e-15
0001d0 53 55 00 80 fd 76 89 16 09 da c9 36 7c fc 11 1f
       -3.0609e-41 2.2208636e-25 6.0156494e-06 3.0913795e-20
0001e0 f5 22 7e 9e 8e 9e 85 a0 d0 8b 0c b0 ef 5f 34 9e
       -1.3453877e-20 -2.2636e-19 -5.113039e-10 -9.548959e-21
0001f0 63 88 fe 9c 41 26 44 35 da 69 a7 34 a4 2c 00 80
       -1.6843565e-21 7.3071357e-07 3.118319e-07 -1.6014e-41
000200 0f f0 03 0f 7f 33 00 80 da 07 00 00 85 6a 00 80
       6.505032e-30 -1.8473e-41 2.817e-42 -3.8212e-41
000210 8f 4c 00 80 cc 63 03 00 f2 a0 00 00 49 a7 00 00
       -2.7464e-41 3.11307e-40 5.7736e-41 6.001e-41
000220 5b 5b 00 00 c0 18 00 00 6d 15 01 80 15 07 00 80
       3.2772e-41 8.879e-42 -9.9522e-41 -2.54e-42
000230 cd 09 ab b1 43 31 13 92 39 02 00 80 ac 34 00 80
       -4.9778692e-09 -4.644574e-28 -7.97e-43 -1.8895e-41
000240 fc c0 00 80 b5 f0 00 00 d8 14 01 80 92 2e 00 00
       -6.923e-41 8.635e-41 -9.9313e-41 1.6706e-41
000250 75 92 ed 82 f5 e6 00 00 38 c3 00 00 a1 50 01 00
       -3.4908082e-37 8.2852e-41 7.0031e-41 1.2076e-40
000260 24 27 36 ab 4a 18 00 80 a3 8a 00 80 9e 0d 01 80
       -6.471371e-13 -8.713e-42 -4.9733e-41 -9.672e-41
000270 52 02 00 00 b8 00 00 00 4c b9 e5 37 f5 24 00 80
       8.32e-43 2.58e-43 2.7385213e-05 -1.3258e-41
000280 a6 18 00 00 31 04 01 80 6f 0c 01 80 84 72 00 80
       8.842e-42 -9.3339e-41 -9.6296e-41 -4.108e-41
000290 1a 2b 01 80 3b 19 00 80 e5 ae 00 80 5c 27 00 80
       -1.07297e-40 -9.051e-42 -6.274e-41 -1.412e-41
0002a0 10 9c 00 00 7a 0f 00 00 5c 9e 00 80 9d 99 01 80
       5.5985e-41 5.552e-42 -5.6809e-41 -1.46942e-40
0002b0 f6 16 01 00 e1 1e 00 00 19 06 01 00 2b 4e 03 80
       1.00072e-40 1.1077e-41 9.4023e-41 -3.03548e-40
0002c0 26 d0 00 80 68 4c 01 00 ed d2 00 80 17 54 01 80
       -7.467e-41 1.19245e-40 -7.5666e-41 -1.22001e-40
0002d0 8d 30 01 00 7b f1 00 80 77 81 02 00 33 f2 00 80
       1.09252e-40 -8.6627e-41 2.30114e-40 -8.6885e-41
0002e0 3e f5 06 14 6c 74 8d 96 8d 33 03 80 96 9c 01 00
       6.813637e-27 -2.285325e-25 -2.94e-40 1.48008e-40
0002f0 02 31 02 80 c1 65 e9 ad a4 ad 0e b5 05 a8 00 00
       -2.01252e-40 -2.6534221e-11 -5.31518e-07 6.0274e-41
000300 9c 55 04 00 b5 c3 02 00 74 cd 03 00 00 cb 9e a5
       3.98053e-40 2.53877e-40 3.49209e-40 -2.754619e-16
000310 37 ba 00 80 db bf 02 80 ab 2e 03 80 ee 3d 00 80
       -6.6801e-41 -2.52496e-40 -2.92248e-40 -2.2216e-41
000320 72 f4 00 00 f7 fb 01 80 e2 4c 03 80 6e e9 02 00
       8.769e-41 -1.82223e-40 -3.03087e-40 2.6741e-40
000330 3b 10 00 80 b3 14 04 80 a5 59 04 80 ec a2 05 00
       -5.822e-42 -3.74767e-40 -3.995e-40 5.17623e-40
000340 85 f6 00 80 f4 52 03 00 f7 85 00 00 32 92 02 00
       -8.8435e-41 3.05264e-40 4.8058e-41 2.36116e-40
000350 6f 86 03 80 da 51 00 00 31 1f 01 80 c5 75 1f 3c
       -3.23732e-40 2.9363e-41 -1.03025e-40 0.009732668
000360 e1 63 04 00 91 0a 04 80 6b c9 01 80 8a 6d 01 80
       4.03172e-40 -3.71132e-40 -1.6409e-40 -1.31131e-40
000370 0d 77 01 00 58 fc bc bb 67 94 03 80 88 77 01 80
       1.34543e-40 -0.0057673864 -3.28743e-40 -1.34715e-40
000380 5e 20 02 00 e3 5b d5 b7 c1 53 00 80 38 d7 00 80
       1.95282e-40 -2.5434367e-05 -3.0045e-41 -7.7206e-41
000390 c7 ad e0 32 eb 4d fa 39 e1 3d 33 b4 98 71 03 00
       2.6156057e-08 0.0004774177 -1.6693186e-07 3.16256e-40
0003a0 e4 52 01 80 78 3c 00 00 0c d2 00 00 69 95 00 80
       -1.21571e-40 2.1692e-41 7.535e-41 -5.3598e-41
0003b0 e8 bf 02 00 25 ae 00 80 c9 9e 05 00 b3 56 05 80
       2.52514e-40 -6.2471e-41 5.16139e-40 -4.9028e-40
0003c0 a4 e6 00 00 95 dd 00 00 d5 69 01 00 ce 94 00 80
       8.2738e-41 7.9489e-41 1.29801e-40 -5.3381e-41
0003d0 39 36 00 00 03 2c 00 80 ef f6 00 80 e1 62 01 80
       1.9451e-41 -1.5788e-41 -8.8583e-41 -1.27307e-40
0003e0 63 7b 00 00 fe 79 01 00 ed 52 01 00 04 f3 00 00
       4.4263e-41 1.35598e-40 1.21584e-40 8.7178e-41
0003f0 41 84 00 00 98 d7 00 00 0d 3b 00 00 57 77 00 00
       4.7444e-41 7.734e-41 2.1183e-41 4.2811e-41

encoder.linear1.bias f4 [236]
000000 0f 11 06 80 fd ed 1a b3 64 42 7e b5 13 25 e2 2e
       -5.57132e-40 -3.6072368e-08 -9.4718985e-07 1.0283876e-10
000010 f9 3c 9c 94 0e c9 00 37 57 2a 34 28 fc 95 89 80
       -1.5776024e-26 7.676206e-06 1.0001188e-14 -1.2635267e-38
000020 ea c8 09 80 5c 61 ea 15 c5 ff e1 b4 59 b9 96 b6
       -8.98594e-40 9.4665453e-26 -4.2095613e-07 -4.4919257e-06
000030 74 94 39 b2 8e 3a 90 b5 58 a2 06 80 2e bf 07 00
       -1.0802172e-08 -1.0745878e-06 -6.09251e-40 7.11431e-40
000040 eb 57 05 b6 7e 43 03 80 28 84 b9 1e 11 a9 59 34
       -1.986972e-06 -2.99718e-40 1.9642295e-20 2.0271206e-07
000050 54 43 00 80 61 a1 83 32 01 66 14 b4 ed cc fa 32
       -2.4153e-41 1.5323794e-08 -1.3820683e-07 2.919702e-08
000060 b1 3d 8f b5 77 a6 0c 36 da da 1e 13 81 c9 cb 34
       -1.0672285e-06 2.095852e-06 2.0050306e-27 3.795831e-07
000070 12 69 46 b5 a5 49 41 37 7b ca 20 90 1c 66 17 93
       -7.3913645e-07 1.1520843e-05 -3.171042e-29 -1.9109223e-27
000080 f0 47 88 34 c9 cb 8d b3 fa ff 4e 93 06 c9 08 00
       2.5384315e-07 -6.6028925e-08 -2.6127062e-27 8.06798e-40
000090 3c 17 1a b7 ba 56 02 80 28 6b 07 80 f8 74 05 80
       -9.184525e-06 -2.14783e-40 -6.81289e-40 -5.01138e-40
0000a0 5f 41 cc b2 17 53 a0 b5 3d 03 07 80 2b 39 ed b3
       -2.3778453e-08 -1.1945111e-06 -6.4401e-40 -1.1046571e-07
0000b0 91 0b 00 00 b4 ce 58 b5 ea 1b 02 80 61 e0 d1 34
       4.149e-42 -8.0767063e-07 -1.93685e-40 3.909254e-07
0000c0 fc a3 05 00 f3 4c de b5 3e 71 50 a0 d9 75 f0 14
       5.18004e-40 -1.6562684e-06 -1.7655754e-19 2.428029e-26
0000d0 15 3d 94 34 10 b1 b6 b5 c3 14 9b 34 e8 37 2c b5
       2.761159e-07 -1.3611589e-06 2.8886106e-07 -6.415635e-07
0000e0 3f eb 06 80 a0 4f db ae f6 d7 33 2e 0f 49 05 80
       -6.35403e-40 -9.973111e-11 4.08917e-11 -4.85386e-40
0000f0 76 9a 02 80 4f d1 23 b0 dd 85 34 2f aa fd 06 00
       -2.39081e-40 -5.95965e-10 1.6418462e-10 6.4201e-40
000100 c0 d5 33 32 2f 53 f0 b3 a8 f1 0a 92 4b b8 f8 b0
       1.0467772e-08 -1.1191002e-07 -4.3842986e-28 -1.8096754e-09
000110 8b 00 05 80 7c b1 06 80 f9 a4 48 b2 e7 b5 c9 35
       -4.59372e-40 -6.14682e-40 -1.1679043e-08 1.5028608e-06
000120 1e 57 06 36 66 2b 03 80 a8 ab 32 34 54 6f 36 b5
       2.0018265e-06 -2.91075e-40 1.663999e-07 -6.796229e-07
000130 c9 fa e0 b4 db 6f 2a a2 1b 94 04 00 99 51 bb b1
       -4.1905722e-07 -2.3098512e-18 4.20472e-40 -5.451693e-09
000140 35 cb 0e b2 35 fd f1 32 64 ba c0 31 59 2c 38 b5
       -8.311692e-09 2.8171238e-08 5.6091256e-09 -6.8609876e-07
000150 3f 65 03 b4 c8 81 0c 32 87 87 fa 20 bd b8 01 00
       -1.2237159e-07 8.178581e-09 4.2441332e-19 1.58107e-40
000160 ee b1 08 80 3f 7c 0c 36 e2 71 98 af 6d 4f 12 02
       -7.98513e-40 2.0933946e-06 -2.7729558e-10 1.074918e-37
000170 78 f2 05 00 6c 44 fa 33 68 ec e1 af b0 05 f0 32
       5.46159e-40 1.1653978e-07 -4.1095238e-10 2.7942264e-08
000180 8d 4d 06 80 cf a9 02 80 ab 3e f9 35 84 07 68 b5
       -5.78833e-40 -2.44587e-40 1.8570184e-06 -8.643767e-07
000190 12 6a 2c b4 ed 24 d4 34 a7 51 02 00 88 ce 2a 33
       -1.6057336e-07 3.9514944e-07 2.12962e-40 3.976905e-08
0001a0 f6 1a cb b3 cf 74 07 80 a3 0f 02 00 9c aa 01 80
       -9.457828e-08 -6.84752e-40 1.8928e-40 -1.53039e-40
0001b0 5e 6d 01 80 37 32 2a 9d 33 a0 07 00 9a 52 56 00
       -1.31069e-40 -2.2525273e-21 7.00317e-40 7.927485e-39
0001c0 76 97 08 00 93 be 06 00 1b e7 06 80 0e 81 b0 32
       7.89018e-40 6.19378e-40 -6.33918e-40 2.0547784e-08
0001d0 0c f2 9f b4 38 3c cd ab 14 9e 6c 35 1a c3 07 80
       -2.979217e-07 -1.458284e-12 8.8146885e-07 -7.12838e-40
0001e0 27 26 d8 98 cd e2 0e 1a d7 5b 6c 2d 36 85 68 b2
       -5.5873215e-24 2.954812e-23 1.3435439e-11 -1.3534466e-08
0001f0 bc 5d 05 00 c1 e0 05 80 e8 bc 08 00 4f 5e 49 b6
       4.92803e-40 -5.39804e-40 8.02451e-40 -3.0006229e-06
000200 e8 a7 1b 01 d3 2b 00 00 7e 37 02 00 6e d4 02 b1
       2.858947e-38 1.5721e-41 2.03578e-40 -1.9038242e-09
000210 1a 73 22 b6 c5 c2 06 80 1a a3 a5 34 f7 18 05 00
       -2.420688e-06 -6.20883e-40 3.0852317e-07 4.68133e-40
000220 60 e2 06 00 78 97 02 80 ec c0 11 b7 af 61 b3 35
       6.32221e-40 -2.38008e-40 -8.687592e-06 1.3364969e-06
000230 b3 b8 a7 99 57 2f f1 b2 b7 ac fb 96 70 09 02 00
       -1.7341995e-23 -2.807762e-08 -4.0660235e-25 1.87057e-40
000240 35 cc bc b1 66 1e c4 33 5e e5 bb 9a fc 57 6e 33
       -5.4947358e-09 9.132491e-08 -7.771195e-23 5.5493715e-08
000250 a3 bd ba 35 db c2 64 b3 66 43 85 b1 fc db b4 b1
       1.3913271e-06 -5.3262607e-08 -3.8784718e-09 -5.263699e-09
000260 a0 12 7c b2 3b 6e 87 34 66 1c c7 36 ae dd b0 36
       -1.4672565e-08 2.5225913e-07 5.933968e-06 5.2710157e-06
000270 f8 81 05 80 a5 ae 9d a0 e2 48 05 33 f1 c1 02 00
       -5.05801e-40 -2.6712405e-19 3.1032762e-08 2.53244e-40
000280 c7 e2 83 0c fb 2c e2 0d db 9c 37 34 1c 95 c0 33
       2.0320232e-31 1.3939154e-30 1.7100267e-07 8.9678196e-08
000290 27 b6 60 17 58 f4 06 00 28 00 61 35 ff 4c 85 b5
       7.260821e-25 6.38667e-40 8.381926e-07 -9.931681e-07
0002a0 f4 07 07 00 38 0e 1a b4 8c a4 db 34 b7 98 01 80
       6.45702e-40 -1.434754e-07 4.0911652e-07 -1.46619e-40
0002b0 5c 85 51 30 88 3e a4 ad 03 47 ce b3 2c 8b d9 2a
       7.622327e-10 -1.867241e-11 -9.6055395e-08 3.8643513e-13
0002c0 10 7c b9 35 10 63 5c b6 1f 35 7b 8b ab 7e 06 80
       1.3819681e-06 -3.2840217e-06 -4.8380805e-32 -5.96453e-40
0002d0 d9 54 78 34 5c 93 7a 8e bb fd 00 00 02 e6 08 00
       2.3127667e-07 -3.088583e-30 9.1021e-41 8.17195e-40
0002e0 b5 2b 01 80 8f e4 08 35 75 b6 11 b5 0e 7f 06 80
       -1.07515e-40 5.0996545e-07 -5.428222e-07 -5.96592e-40
0002f0 65 00 15 ad 56 9c 7d 2e 4a a8 a5 b5 1f 41 87 b4
       -8.469757e-12 5.7664394e-11 -1.2342437e-06 -2.519309e-07
000300 5c e5 06 00 57 56 4d b5 93 81 ae 10 3a 12 00 00
       6.33292e-40 -7.649409e-07 6.883054e-29 6.538e-42
000310 c8 1a 05 80 03 96 06 00 05 a1 06 00 d4 c6 19 35
       -4.68785e-40 6.04827e-40 6.08776e-40 5.7286275e-07
000320 48 ee 06 00 d5 3a 9d ac a8 e3 03 80 a2 04 aa b6
       6.36492e-40 -4.46874e-12 -3.57174e-40 -5.066934e-06
000330 88 37 64 ae c9 99 5c 35 f7 62 5f b2 6c 05 20 9c
       -5.189052e-11 8.2180173e-07 -1.300281e-08 -5.2946567e-22
000340 e6 cd 58 35 d6 d5 a8 33 43 da c5 33 16 43 00 80
       8.076589e-07 7.862006e-08 9.213229e-08 -2.4066e-41
000350 b9 03 df b2 a0 cf 8b 2f c2 6e 07 80 b0 27 46 33
       -2.596231e-08 2.543148e-10 -6.82581e-40 4.6136563e-08
000360 d5 4f 02 00 bc 9f 04 00 88 40 60 35 a3 f4 7b 35
       2.1231e-40 4.24644e-40 8.354041e-07 9.386078e-07
000370 d3 ff d0 b6 7a 2f 9c b5 a7 54 7c 33 a1 5c 28 34
       -6.228665e-06 -1.1636723e-06 5.8750313e-08 1.5679917e-07
000380 01 b1 1f 00 93 60 81 19 b5 27 12 00 2d 58 03 80
       2.910397e-39 1.3377293e-23 1.667283e-39 -3.07138e-40
000390 6f 7f a8 35 d1 6d 05 00 cb c1 00 00 5c e0 36 b4
       1.2554063e-06 4.98572e-40 6.952e-41 -1.7031692e-07
0003a0 0b b6 c4 a1 92 db 42 1a c3 9a aa b6 fd 92 7e 37
       -1.3329663e-18 4.0295627e-23 -5.0844114e-06 1.5173803e-05

encoder.linear2.weight f4 [118, 236]
000000 b7 47 87 39 a0 40 fc bb ee 5d 90 3c af c2 15 b9
       0.00025802638 -0.0076981336 0.017622914 -0.00014282273
000010 a7 09 22 ba 26 60 c6 3b ba e2 60 bd bb 32 06 39
       -0.0006181248 0.0060539423 -0.054903723 0.00012798134
000020 2f 73 05 be 55 5c c7 bd bb d5 93 bc 97 af 2d bd
       -0.1303222 -0.09734408 -0.01804625 -0.042403784
000030 a2 5a 8a bd 9f c8 a3 3d 01 9c 1f 37 15 3b db 3a
       -0.06755568 0.0799725 9.513461e-06 0.0016725982
000040 ce 01 66 3d 20 9f 51 bd 7f d6 71 bd 41 5c 69 bd
       0.056154065 -0.051177144 -0.05904245 -0.056972746
000050 06 2e bc bd 6c d8 a5 bd 93 f3 13 bd a3 99 43 bc
       -0.09188466 -0.0809792 -0.036120962 -0.011938485
000060 19 d9 96 3d b2 35 b1 bd 40 7d a8 bd 40 93 a6 bc
       0.07365627 -0.0865282 -0.082270145 -0.020333886
000070 68 2f 2c bc 54 18 cd 3b 41 ab cd 35 d4 8b 80 3c
       -0.010509349 0.0062590037 1.5323532e-06 0.015691675
000080 37 17 73 3a 91 ad 7e 3b 34 da 87 bd 17 9c 73 b9
       0.00092731736 0.0038860778 -0.06633416 -0.00023232434
000090 6a b6 4d bd d5 61 a6 bd 24 91 a6 bc 27 45 84 bd
       -0.05022279 -0.08124129 -0.02033288 -0.06458502
0000a0 0c c5 6f ba f1 bc 4a bd 35 fe 29 ba 74 f1 77 3f
       -0.0009146489 -0.049496595 -0.0006484718 0.96852803
0000b0 81 13 a9 bd 6b 65 c2 3b af 02 e5 bd 79 f4 15 3e
       -0.08255673 0.0059325 -0.111821525 0.1464404
0000c0 53 9f a3 bd 2c af 5b 3e e8 2f b8 bd 8e 46 a2 bd
       -0.07989373 0.21453542 -0.089935124 -0.079236135
0000d0 d7 c1 df bd b5 e1 09 bc 29 32 b7 bb 05 07 bb 3c
       -0.10925644 -0.008415629 -0.0055906964 0.022830496
0000e0 e9 30 84 3a d1 7e 49 bc bc ff a9 bd 0c d7 c9 9e
       0.0010085377 -0.012298302 -0.083007306 -2.1370644e-20
0000f0 8a c6 a5 bd 51 a8 e5 b8 5f ab de bb 6c 13 5a bd
       -0.08094509 -0.00010950922 -0.0067953314 -0.05324118
000100 fc 17 12 bb a1 69 c4 bc 42 f8 85 bd 93 2b 0d be
       -0.0022292128 -0.023976149 -0.06541492 -0.13786153
000110 52 26 f5 bc bf 16 b2 bd f9 03 81 bd 90 07 87 3b
       -0.0299255 -0.08695745 -0.06299586 0.0041207746
000120 17 29 08 3d cd cf c1 bd 53 b8 9f 3d b0 5c a2 bd
       0.03324231 -0.09463463 0.07798829 -0.07927835
000130 db 8b c3 bd 2d f1 00 be df 79 bc bd d5 b0 ea ba
       -0.0954816 -0.12592001 -0.092029326 -0.0017905483
000140 b3 dd a5 bd 1e 4b 0f ba e5 8b 53 3b 0a 87 c3 3d
       -0.080989264 -0.00054662104 0.0032279429 0.09547241
000150 ae eb ca bc e8 7f 9f bd e9 95 8d bd ca 7a 2e 39
       -0.024770584 -0.07788068 -0.06913359 0.00016639676
000160 b2 f8 82 bd 89 54 ba 3d 62 f8 a2 ba 93 0e f7 bd
       -0.06395091 0.09098155 -0.0012433643 -0.12063327
000170 b7 fe 9c bd cf 50 6e bc f8 8a 7b bd 2e d0 3d bd
       -0.076657705 -0.014545633 -0.061411828 -0.046341114
000180 6a ae 94 bd 9b 12 48 38 e0 cf d9 bd 76 5f 4b bd
       -0.07259829 4.7701044e-05 -0.10635352 -0.049651586
000190 e0 61 49 3c ee 01 a8 bd 02 24 41 35 2a 0b f9 3b
       0.012291402 -0.08203493 7.19505e-07 0.007600208
0001a0 83 14 be 3c 5d 68 b8 33 ea 07 92 a2 f8 70 7d bd
       0.02320314 8.587151e-08 -3.958176e-18 -0.061875314
0001b0 45 c0 1d be 14 d7 e5 bd f6 6b fd 22 20 35 cb 38
       -0.15405376 -0.112226635 6.8690095e-18 9.6896896e-05
0001c0 cd f6 00 bc 63 ff 01 23 76 13 08 be ca 04 d4 3b
       -0.007871342 7.047184e-18 -0.13288674 0.0064702975
0001d0 7f 3a 46 3a 88 21 ac bd 2a a3 f9 3b 28 32 e2 39
       0.0007561817 -0.08404833 0.0076183276 0.00043143448
0001e0 9a 42 8e bd 53 9e 1e b8 f5 f0 72 bd 27 c8 cd bd
       -0.06946297 -3.7817586e-05 -0.059311826 -0.10047942
0001f0 a4 de e8 b3 61 bb 07 bd c8 a2 c4 b2 22 e1 22 bd
       -1.084384e-07 -0.033137683 -2.2891427e-08 -0.039765485
000200 9d 6f f1 b1 31 88 41 bd 73 64 c7 bd ab 14 16 bb
       -7.026712e-09 -0.047249023 -0.09735956 -0.0022900503
000210 99 31 1b 3d 10 25 8d bd 03 83 10 bc 33 d6 81 bd
       0.037889097 -0.06891835 -0.008820298 -0.063396834
000220 d9 bb 2f bc 65 c8 8f 39 6d e1 37 bd fa 96 30 bd
       -0.010725939 0.0002742439 -0.044892717 -0.043112732
000230 5f b8 0e be 56 c5 d8 3b 06 f1 86 bc 74 cf 04 be
       -0.1393752 0.006615321 -0.01647235 -0.12969762
000240 96 40 b4 3c 17 ef 03 3c f4 ab 68 3b 0d 79 a3 bd
       0.022003453 0.008052609 0.0035502883 -0.07982073
000250 fc 99 b4 bb c2 bf 92 bd 15 90 44 3b c9 cc 9d bc
       -0.0055115204 -0.07165481 0.0029993106 -0.019262688
000260 2e e3 00 3c 66 8f eb bd 16 d3 6f 3d 73 b7 c0 3c
       0.007866664 -0.115019605 0.058550917 0.023524975
000270 22 1b 11 bd ec 81 26 bc 1e 09 fc 3b 14 cb 18 3b
       -0.035426266 -0.010162812 0.0076915165 0.0023314403
000280 f3 08 7f bd 30 78 0d 3c ff 45 d3 bb 47 34 4e 3b
       -0.062264394 0.008634612 -0.006447553 0.0031464265
000290 69 0a fe 31 64 b7 60 b9 b3 34 13 be 3e 77 cf bb
       7.3935564e-09 -0.00021430623 -0.14375572 -0.0063313534
0002a0 89 c8 77 39 b5 4a 35 bc fc f7 1d 3d b3 a5 ad bc
       0.00023630461 -0.011065175 0.038566574 -0.021197176
0002b0 a7 d4 f8 bd e0 66 9f bd 03 a8 15 3c 47 22 44 bd
       -0.12149935 -0.07783294 0.009134295 -0.047884252
0002c0 99 ea cb bc 3d 87 e9 bc 05 7b a1 bd 5c 21 05 b8
       -0.024892138 -0.02850687 -0.07884792 -3.174074e-05
0002d0 76 26 7e bd ef f5 cf bc 8f ba 92 bd 4b aa 8c 35
       -0.062048398 -0.025385825 -0.071644895 1.0480375e-06
0002e0 96 ae 17 37 35 5e 2d 3b 91 b4 af bd 6f 7d 65 bd
       9.04095e-06 0.0026453857 -0.08579362 -0.056027826
0002f0 9f 92 d6 bd 00 6c 8d b7 8a bc ea bd 85 65 52 3a
       -0.104771845 -1.6858801e-05 -0.11461742 0.0008025992
000300 b0 97 47 35 45 bc 53 bc 77 34 ea bc b4 de bd bd
       7.435401e-07 -0.012923305 -0.02858947 -0.09270993
000310 a9 31 db 39 db be 01 be 81 03 9b bc de 9a 48 3c
       0.00041807935 -0.12670462 -0.01892257 0.012243954
000320 06 2e 33 37 80 54 6a bb 6b e0 94 37 71 5e d3 3d
       1.0679947e-05 -0.0035755932 1.7747478e-05 0.10320748
000330 48 e1 b5 bd 5f 2d 3b ba c2 91 a8 3c 6f f6 2f 39
       -0.088808596 -0.00071402447 0.020577315 0.00016781104
000340 75 03 5d b9 8c f2 bc bd b1 96 c7 bd 54 14 67 bd
       -0.0002107749 -0.0922595 -0.09745539 -0.05641587
000350 76 dc 08 3c 91 d9 21 3b 13 a1 57 bd e4 35 d0 ba
       0.008353343 0.002469633 -0.052643847 -0.0015885201
000360 e9 09 10 37 9a 1c 81 bd a4 37 74 be a0 0c af bc
       8.585376e-06 -0.063042834 -0.2384935 -0.021368325
000370 9a 49 e3 bd c2 b1 c1 bc 56 b7 77 3d 7c 79 bb 3d
       -0.11098023 -0.023644332 0.060477577 0.09154031
000380 16 d5 bf bd 37 5f 8b bd 5e 22 f7 bd 06 ca 66 bd
       -0.09366815 -0.0680527 -0.12067102 -0.05634501
000390 f3 42 51 bc 2a 8a be bd dc 2e 61 37 e2 66 0b bd
       -0.01277231 -0.093036965 1.3421955e-05 -0.034033664
0003a0 a6 b5 93 bd 18 23 ad 38 b2 0c 26 be 0f 83 54 bd
       -0.07212381 8.2558196e-05 -0.1621578 -0.0518828
0003b0 b9 ee 86 3b b3 0f 26 3d 60 2c 3a be 7b 07 c6 39
       0.0041178134 0.040542316 -0.1818099 0.00037771076
0003c0 2c 80 56 3c e5 ec 84 3d c7 13 54 be de 23 0c 3c
       0.013092082 0.064904965 -0.2071067 0.008553473
0003d0 97 c6 dc bd 9a 48 16 be e7 27 84 bd c6 61 e1 bd
       -0.107800655 -0.14676133 -0.06452923 -0.11004977
0003e0 38 3d cc bd f5 6a 15 be 51 24 b4 3b 7e 8c 10 b1
       -0.09972614 -0.14591582 0.0054974933 -2.1034618e-09
0003f0 79 8e 6b 3e af 76 f8 bd d6 4f 05 be 29 d1 55 be
       0.23003568 -0.12132012 -0.13018736 -0.2088057

encoder.linear2.bias f4 [118]
000000 05 d5 88 36 96 97 48 36 56 bb 12 b5 41 57 65 36
       4.0779146e-06 2.9890557e-06 -5.466185e-07 3.4174448e-06
000010 c2 64 56 b4 a4 14 47 35 3e 2f 84 b5 41 6c a1 b6
       -1.9966959e-07 7.4163313e-07 -9.848516e-07 -4.8107763e-06
000020 4a ae a3 32 d6 a2 99 b5 66 57 8c b5 26 d9 1e 34
       1.9054955e-08 -1.144678e-06 -1.0456249e-06 1.4793895e-07
000030 be 91 1c b5 4f 2c 98 b5 1d 3b b7 32 de 0e 27 36
       -5.832661e-07 -1.1337778e-06 2.1330886e-08 2.4893593e-06
000040 f0 53 e8 34 5f f4 b7 b4 0f 73 fd b4 34 b4 30 33
       4.327444e-07 -3.426421e-07 -4.7208638e-07 4.1142087e-08
000050 81 6b 15 b1 7a d2 fd 36 2e e9 87 35 d9 11 2c 37
       -2.1743463e-09 7.5644903e-06 1.0126148e-06 1.0256154e-05
000060 07 94 83 b6 12 4d c3 35 d6 67 42 37 38 2b 3f 35
       -3.921337e-06 1.4551063e-06 1.1587477e-05 7.1215936e-07
000070 37 ac 26 b5 d0 51 41 35 02 f5 be 34 c4 49 06 35
       -6.2090425e-07 7.2017156e-07 3.5568524e-07 5.0026233e-07
000080 1e 7a c2 35 02 e0 4b 35 38 e9 9c b5 19 04 3c b0
       1.4489667e-06 7.594937e-07 -1.1690781e-06 -6.8399825e-10
000090 80 20 a7 34 6f b6 17 b7 cd 94 52 34 46 10 a5 35
       3.112982e-07 -9.0427775e-06 1.9611907e-07 1.2298194e-06
0000a0 08 36 af 33 16 ad c8 32 93 21 2a 34 9b d9 9f b3
       8.158901e-08 2.3361775e-08 1.5844698e-07 -7.443597e-08
0000b0 3a 51 1f 35 e9 c2 22 35 aa 45 84 b5 59 c3 e0 b5
       5.9350316e-07 6.0633334e-07 -9.855041e-07 -1.6746154e-06
0000c0 ba 04 b7 35 7a a1 90 b4 d7 f8 2f 34 cb 33 32 b6
       1.3635938e-06 -2.693958e-07 1.6388672e-07 -2.6554214e-06
0000d0 f2 b6 8d b4 e4 70 e3 35 18 f6 30 35 35 d7 9e b4
       -2.6396407e-07 1.6945673e-06 6.592322e-07 -2.9586377e-07
0000e0 43 2a 90 b7 5c 22 e0 b6 df c0 06 b5 49 f7 f3 b3
       -1.7185817e-05 -6.67972e-06 -5.0199554e-07 -1.136055e-07
0000f0 c6 f8 6d b5 e5 fa 0d b4 1e 5b 09 b6 d2 95 43 36
       -8.8651393e-07 -1.3222923e-07 -2.0467628e-06 2.9144471e-06
000100 ae ed 98 b5 1e 7c 23 2f 41 1c 7f b4 5b e3 71 b6
       -1.1394056e-06 1.4868859e-10 -2.3759004e-07 -3.6044137e-06
000110 c2 76 8f 33 61 c1 f8 b3 01 d3 af b6 d7 36 06 b6
       6.680558e-08 -1.1583575e-07 -5.2399705e-06 -1.9999477e-06
000120 2a 49 08 b5 b7 68 5f b2 99 ee e9 35 6a 7d 39 36
       -5.0770416e-07 -1.3004118e-08 1.7429294e-06 2.7640149e-06
000130 b7 e3 d8 b5 a8 06 32 b4 7b cd a7 b2 f1 ad d6 b3
       -1.6159528e-06 -1.6579963e-07 -1.95348e-08 -9.996791e-08
000140 c6 76 45 b7 cc 90 0f 36 0f d7 a7 b3 44 a7 be 32
       -1.1769769e-05 2.1392943e-06 -7.8156624e-08 2.2194975e-08
000150 ef a4 3b 35 95 f1 00 b5 b8 60 27 b5 6f 34 18 36
       6.990294e-07 -4.8035264e-07 -6.235309e-07 2.2680285e-06
000160 a6 03 2b b5 39 44 3d 35 e3 af 20 33 09 27 d2 35
       -6.3707773e-07 7.0507264e-07 3.741287e-08 1.565758e-06
000170 1e 39 80 35 fc d4 30 36 6b 4d d0 b3 fc dc af b6
       9.553366e-07 2.6350017e-06 -9.699837e-08 -5.2411324e-06
000180 b6 ca 4a 35 11 e9 8f b6 63 8b 87 35 6e b6 e8 b3
       7.554585e-07 -4.2888646e-06 1.0098851e-06 -1.08365256e-07
000190 fd 4a 1e b5 3f 75 70 b5 20 55 ef b4 fc 3e 8b b5
       -5.896871e-07 -8.957758e-07 -4.4579156e-07 -1.0374638e-06
0001a0 1c 68 f7 36 16 52 3e 36 b5 d8 74 34 42 6f c1 b5
       7.3732936e-06 2.8359987e-06 2.2803108e-07 -1.4412001e-06
0001b0 1f 28 ab b5 a1 35 6a b3 f8 02 9e 33 ab 74 1b 35
       -1.275217e-06 -5.4531146e-08 7.357988e-08 5.7911774e-07
0001c0 4d cc 84 b6 4d 92 10 b5 52 a9 5e 37 f1 bf 56 33
       -3.9576903e-06 -5.3857076e-07 1.3271654e-05 5.0000327e-08
0001d0 0f 45 1e 36 70 d8 2a b6
       2.3584032e-06 -2.5457957e-06

encoder.norm.weight f4 [236]
000000 5b 7b 48 af 0d 5f c1 3d 7f c7 c5 3e 9f 7d 53 3b
       -1.8233719e-10 0.094419576 0.38628766 0.003227092
000010 91 54 b4 3a 1a 4d 81 3e 07 27 8d 3b 55 ef 45 3b
       0.0013758113 0.25254136 0.004307631 0.0030202467
000020 95 d5 90 3b df 96 aa ba e0 72 94 3d 9a 6c 81 3e
       0.004419992 -0.0013014934 0.07248473 0.2527817
000030 46 85 c5 3d 12 a2 a5 3e 6b 9f 87 3b 64 28 39 36
       0.096445605 0.32350212 0.004138877 2.7590659e-06
000040 27 03 fa 3e ac ec 67 3b 16 2d 8b 3b e1 26 d9 3d
       0.4883053 0.003538887 0.004247318 0.10603119
000050 16 c4 d4 ba 35 06 11 3e ba e6 fc 3c a6 eb 7a 3c
       -0.0016232755 0.14162524 0.030871738 0.015314972
000060 44 45 57 3e f5 de 96 3e 49 b1 ae bb ca a1 12 be
       0.21022516 0.29466978 -0.0053311926 -0.1431953
000070 1a e3 8c 3d 88 28 13 3e a3 f2 34 39 f0 33 a5 bc
       0.06879254 0.1437093 0.00017256527 -0.020166367
000080 44 5c a2 3d f2 5d f9 3c ad 45 dc bb e5 b0 cb 35
       0.079277545 0.030440304 -0.006722173 1.5176162e-06
000090 e7 15 d6 3e 9f 21 84 3a b1 cf 88 3b 02 1b df 3a
       0.41813585 0.0010080821 0.0041751494 0.0017021599
0000a0 21 9e bb 3c cb 1f 6e 3e 48 a0 d2 37 d7 52 28 3f
       0.02290255 0.23254316 2.5108588e-05 0.65751404
0000b0 3a f8 54 ba b3 f2 70 3e cb a2 37 3c 18 9d 73 3e
       -0.0008124147 0.23530082 0.011208246 0.23790395
0000c0 07 dd ac 38 3c a7 8e 3e f0 0e 85 3b 1a be b7 39
       8.242769e-05 0.27861965 0.0040606186 0.00035046117
0000d0 4b 17 2f 3e ef c9 17 3f 15 02 8b 3e 5f 1d 81 3e
       0.1709873 0.592925 0.27150026 0.2521772
0000e0 d6 f8 36 3a 6d 4e 3e 3b b4 d6 3d 3d ae e6 7d 34
       0.00069798285 0.0029038445 0.046347335 2.3646382e-07
0000f0 33 6c ee 3a 68 64 1c 3c d7 1a 66 3c de 46 68 3b
       0.0018190205 0.009545423 0.014044485 0.003544263
000100 85 22 85 3d 58 5d d9 bc 2c e1 db 3c a0 95 81 3d
       0.06500725 -0.026533768 0.026840769 0.06327367
000110 36 f1 4d 35 88 21 7b 39 eb 2e 1f 3d 18 cb 1d 3e
       7.671946e-07 0.00023949717 0.038863104 0.15409505
000120 cf 98 b2 3e fa 0e 19 bb 5d 01 19 3e 54 18 be 3d
       0.3488221 -0.0023354874 0.14941926 0.09281984
000130 d6 bd aa 3e 28 4d 29 3c 04 c6 13 bb ae 15 9c 3c
       0.33347958 0.010333337 -0.0022548446 0.019053306
000140 35 f9 8a 3d 20 60 aa 3c bf 56 b4 3c ba c1 dd 3d
       0.06785814 0.02079779 0.02201402 0.10827966
000150 54 1d 3c 3e ff 71 6e 3c 7f 96 0b 3c be 3b 86 32
       0.18370563 0.014553546 0.008519768 1.562682e-08
000160 e9 4e 87 3b 01 fb 16 3e d3 1c 77 b8 26 2c 84 3a
       0.00412928 0.14744188 -5.8916234e-05 0.0010083958
000170 c8 ca 74 3c 9f 23 0f 3e 72 15 1f 3d 24 7f 35 bc
       0.014940925 0.13978432 0.03883881 -0.011077676
000180 db a2 da bb 54 5d 32 2a 4f 99 f5 3d 5c a8 c4 3e
       -0.006672246 1.5841956e-13 0.11992132 0.38409698
000190 2e 1f d9 3d 41 c5 42 bf a9 34 85 35 e4 8a 27 3d
       0.1060165 -0.76082236 9.924598e-07 0.04090394
0001a0 da 22 55 3e 2d 41 ed ab e8 a7 ee 37 3b 04 26 38
       0.20814076 -1.6857953e-12 2.8449998e-05 3.9581424e-05
0001b0 46 2e 62 b8 15 ef 4e 3c b2 b1 02 30 66 fa fb 37
       -5.3925694e-05 0.012630244 4.7546245e-10 3.0038133e-05
0001c0 b4 b7 f6 3b c1 dc 47 3b 74 34 6f 3c 22 f9 38 3c
       0.0075292233 0.003049657 0.014599908 0.011289867
0001d0 39 25 80 3e 36 e3 0b 3a 12 a5 11 3e 96 f9 3a 3c
       0.250284 0.0005336286 0.14223126 0.011412045
0001e0 58 1a 41 3b 27 0a 8f 3a 77 64 87 3c ca 6c cf bd
       0.0029465165 0.001091306 0.016527398 -0.10128172
0001f0 c8 12 66 3a 3b 8d 65 3c de 11 25 39 19 1d 5c 3e
       0.00087766023 0.014010723 0.00015742282 0.21495475
000200 b6 d9 17 38 49 95 7b bb de 33 c1 2f 09 3e 08 3d
       3.6203965e-05 -0.0038388541 3.514335e-10 0.033262286
000210 a3 b5 f0 3e 53 05 dc 37 1e 58 c2 3d 03 0f 2d bb
       0.47013578 2.6228523e-05 0.09489463 -0.0026406653
000220 a3 f7 8b b7 f7 81 08 3c 0d c5 10 3e 1f 65 b0 3e
       -1.6685406e-05 0.008331767 0.14137669 0.3445215
000230 f0 8f 48 b9 31 d0 45 3d c7 04 03 3c 35 07 4e 39
       -0.00019127107 0.04829425 0.0079967445 0.00019648376
000240 b3 ee 14 3e b0 fb 6c bd 7c 55 81 ba ed 01 88 3e
       0.14544182 -0.057857215 -0.0009867395 0.2656397
000250 04 69 be 3e d1 41 9b 3d 40 92 82 3c 66 62 5b bc
       0.37189496 0.07580913 0.015938878 -0.013390159
000260 2c 6d 61 3c d9 b3 24 3e 5e 01 3b 3e 64 1b 3b 3e
       0.013758939 0.16084231 0.1826224 0.18272167
000270 5c 81 db 39 49 bc 0c 3e 61 da ce 3c 0b d0 53 3c
       0.00041867315 0.137437 0.025250616 0.012928019
000280 8f e2 c6 bb 8a 0d a8 3b c8 ea a0 3d 59 c8 08 3d
       -0.0060694884 0.005128567 0.07857281 0.03339419
000290 91 9a 1f b8 a1 0d 42 3b b8 e7 1d 3f b7 73 87 3e
       -3.8052505e-05 0.0029610174 0.616817 0.2645547
0002a0 7a d0 b4 35 0f 32 5c 3e 7f 2d 51 3e f3 a7 3a 3b
       1.347172e-06 0.21503471 0.20427512 0.0028481453
0002b0 95 50 e8 3b 12 63 4d 3d 8c 91 c3 3d da ee 9f bb
       0.0070896843 0.05014331 0.09549245 -0.0048807682
0002c0 c4 1d 6b 3e 03 ea 81 3e 4f 16 ed 3b dc 01 c1 38
       0.22960573 0.2537385 0.0072353254 9.2033035e-05
0002d0 ee e1 0e 3d 7e 78 f6 3c 4e 5d 40 bb de 08 c5 3c
       0.034883432 0.030086752 -0.002935249 0.02405208
0002e0 98 17 4e 39 b0 18 b7 3d c2 e5 51 3d 90 b4 0b bc
       0.0001965448 0.08940256 0.051244505 -0.008526936
0002f0 13 da 6b ba ab b0 23 39 74 81 92 3e 0c 54 3f 3e
       -0.0008997034 0.00015610705 0.2861439 0.18684405
000300 2a 1a 86 32 67 63 75 3d a5 92 e0 ba 8f 67 00 3a
       1.5611551e-08 0.05990925 -0.0017133547 0.0004898244
000310 76 8d 83 1f bf c8 2c 3a 84 5d d7 3a ea 3e 13 3e
       5.5714686e-20 0.0006591193 0.0016431068 0.14379469
000320 73 1b cb 33 34 9c 76 3d 62 c6 1a 39 4c 93 40 3f
       9.457917e-08 0.06020756 0.00014760488 0.7522476
000330 81 40 50 bc 17 d4 c7 3d 79 c1 4a 3c 58 7a 2c 3d
       -0.012710691 0.0975725 0.012375229 0.042108864
000340 30 f8 98 3e e2 9b f6 3d f6 22 10 bd ad 89 b8 3b
       0.29876852 0.12041451 -0.03518959 0.0056316466
000350 08 71 40 3c 58 30 39 3a a9 47 22 3d f3 82 2c 3c
       0.011745699 0.0007064394 0.03961912 0.010529268
000360 c1 2e ea b8 1b 3e 99 34 8f f9 74 3e 86 82 bb 3e
       -0.00011166698 2.8543658e-07 0.23923324 0.3662302
000370 70 11 95 3e 84 3f 5f 3e 7b c7 24 3f 19 22 0b 3e
       0.29114866 0.21801573 0.64366883 0.13587226
000380 1b 27 a0 3c 5b 7d 6e ba 82 2b 9f 3a 84 f0 86 ba
       0.019549897 -0.0009097659 0.0012143704 -0.0010295068
000390 39 27 c0 3d 82 5e b1 3b 5d cd 0b b3 09 82 1a 3f
       0.09382481 0.0054128775 -3.2550236e-08 0.6035467
0003a0 d9 cc 10 bc c8 8b 52 3b b5 76 57 3e d4 4f a0 3e
       -0.008837902 0.0032126773 0.21041377 0.31310904

encoder.norm.bias f4 [236]
000000 fb ba ca b4 9d ab f7 bd a5 e9 f4 3b fe 76 2c bb
       -3.7761478e-07 -0.120932795 0.0074741417 -0.0026316042
000010 70 0f 5c bc b0 d5 b6 bd 01 10 0e bc 3e 78 24 bc
       -0.013431415 -0.089274764 -0.008670808 -0.010038434
000020 2c 48 7c bd ca 2a b2 bb f4 8a 24 3e 08 46 c0 bb
       -0.061592266 -0.0054372298 0.16068631 -0.0058677234
000030 1b f2 13 be 68 17 1e 3d 8f 3f 50 bc 55 9b 9b b8
       -0.14447825 0.03859654 -0.012710466 -7.419909e-05
000040 a0 01 99 be 2a 36 89 bc a5 b7 67 bc 06 78 a4 3e
       -0.29884052 -0.01674946 -0.014142905 0.3212282
000050 a2 36 f4 bb c0 32 70 be 1c d9 cd 3d 8c 2f 8e 3d
       -0.007452802 -0.2345686 0.10051176 0.069426626
000060 91 bb d8 3d 7b 75 12 3f 99 a4 52 bc fe ff 4b 3d
       0.105826505 0.5721051 -0.012856626 0.04980468
000070 04 5e 33 3e dd ca 63 bd 94 ce b3 b9 06 fa 1e be
       0.17516333 -0.055613387 -0.00034295453 -0.15525064
000080 ae c6 90 3d 1b 45 a1 3c db be d9 bc c1 a6 c7 b6
       0.07069145 0.019686272 -0.026580265 -5.950075e-06
000090 e6 62 3f 3f 49 bf 69 bb 39 d4 2f bc bb d6 ce bb
       0.7476028 -0.0035666993 -0.01073175 -0.006312219
0000a0 0c de 89 bc e6 11 9e 3e 77 35 bd ba 67 68 51 3f
       -0.016829513 0.3087303 -0.001443549 0.8179993
0000b0 d8 46 eb ba f5 07 2a 3e fd 96 eb bc 42 bb 5a 3e
       -0.001795019 0.16604598 -0.02875852 0.21360496
0000c0 37 aa 16 bb 53 e2 1e 3e f9 39 80 bc 53 82 9a bb
       -0.002298964 0.15516023 -0.015652644 -0.004715243
0000d0 20 bd b0 3e 6f 0a 64 3e 31 8a 2e be 0a 22 3a 3e
       0.3451929 0.22269605 -0.17044903 0.18177047
0000e0 d8 3f 0b bb 62 03 a6 bb 63 93 9d bd 8f 55 d2 bb
       -0.002124777 -0.005066321 -0.076941274 -0.006418891
0000f0 65 91 33 bc 1e d2 f2 bb c7 26 c8 bc 1c 30 81 bc
       -0.010959958 -0.007410302 -0.024432553 -0.01577001
000100 2a d9 b0 bd a7 af 8c 3d 86 68 63 bd 3f 97 c8 bd
       -0.08635171 0.068694405 -0.055519603 -0.09794473
000110 0d a4 0c b7 5d ce b4 bb 2b 63 76 bd 36 87 19 3e
       -8.382846e-06 -0.0055177645 -0.060153168 0.14992985
000120 26 c7 35 3e d3 d6 bc bc 27 7f 17 3e f4 65 af 3e
       0.1775175 -0.023051655 0.14794599 0.34257472
000130 5a ed 24 3f b2 8b 01 bd 45 21 0b bc ac fc 94 bc
       0.6442467 -0.031627364 -0.008491819 -0.01818689
000140 3e e4 1a 3e 94 2d 71 bc 4c d7 e0 bc a4 29 d1 3d
       0.1512613 -0.014720339 -0.027446412 0.102130204
000150 33 f1 1a be af 99 c0 bc 52 e2 06 bd 39 44 72 ba
       -0.15131073 -0.023510782 -0.03293068 -0.00092417334
000160 54 5b 26 bc fb c1 13 3d 47 6d 15 3c a6 4a 2b bb
       -0.01015361 0.036073666 0.009120292 -0.0026137023
000170 e1 cb 92 bd 6e ce d4 3e 9c 6a 82 bd 52 4f cc 3c
       -0.07167793 0.41563743 -0.063679904 0.024940167
000180 1e a5 aa bc 07 87 40 b2 96 28 c8 3e e0 f1 a7 3e
       -0.020830687 -1.1206573e-08 0.39093465 0.32801723
000190 d8 f3 a6 3d 9c 54 41 3f bf d2 20 bc d1 9a 01 bc
       0.08151978 0.7551973 -0.009815871 -0.007910446
0001a0 bb 65 38 3d 74 74 0a b6 60 4e d4 ba 8f 52 99 b9
       0.045018893 -2.0631387e-06 -0.0016197674 -0.00029243945
0001b0 8b c0 a8 b8 dd 90 ff bc 32 e3 0f b6 42 54 bf bb
       -8.046728e-05 -0.031197006 -2.1440906e-06 -0.0058389017
0001c0 f8 04 f4 bc 80 dd 98 bd 50 8c 64 bd 93 d8 5e 3a
       -0.029787526 -0.07464123 -0.055797875 0.00085009
0001d0 40 48 51 be 42 91 a9 ba 4f db f0 bd 9f 52 44 bd
       -0.20437717 -0.0012936967 -0.1176058 -0.047930356
0001e0 88 3c d4 bb d8 65 4f bc 3c f0 fd bc 03 4c 62 be
       -0.0064769424 -0.012658559 -0.030998342 -0.22099309
0001f0 1d 9e 05 bc aa c6 03 bd d0 73 63 ba c7 c8 2b 3f
       -0.008155373 -0.032171883 -0.000867662 0.67103237
000200 2f b7 bf b9 0f 3c 9e bb 8a 61 3f b8 48 7f 3e bd
       -0.0003656684 -0.004828937 -4.562879e-05 -0.046508104
000210 bf aa 98 be a9 63 20 ba a0 f6 b5 3e a8 61 54 bc
       -0.2981777 -0.0006118366 0.35539722 -0.012962736
000220 5c 53 3f b8 cb 6e a4 bd 49 7d 65 3c ae ec ae 3e
       -4.5615583e-05 -0.080289446 0.014006921 0.34164947
000230 18 87 70 bb a4 b2 81 bd b7 c3 6c bd 0b 47 ec b9
       -0.0036701616 -0.06332901 -0.057803836 -0.0004506636
000240 63 f9 55 be f2 59 19 bd ce b7 0b bb 34 e0 00 3f
       -0.20895915 -0.037439294 -0.0021319273 0.50342107
000250 f4 a2 40 be 85 72 32 3e b3 30 c7 bc 6c 78 54 3d
       -0.18812162 0.17426498 -0.024315214 0.051872656
000260 ce c5 aa 3c 90 58 44 be 19 a0 22 3e cb 68 83 bc
       0.020846274 -0.19174409 0.15881385 -0.01604118
000270 a7 9a 8e bb 17 d3 b9 be 90 4f 1c bd 22 12 39 bd
       -0.004351932 -0.3629386 -0.038161814 -0.04518331
000280 5b 21 1c bd 30 8a 18 bd 3b 45 93 bd 99 f4 21 bd
       -0.038117748 -0.03724116 -0.07190939 -0.039539907
000290 cf 25 12 b9 c2 02 a5 bc da 9f 3d 3f 9c 8f c7 be
       -0.0001393773 -0.020142917 0.7407204 -0.38976753
0002a0 b8 f6 2b b8 f0 d7 a2 3d 4d 07 81 be b1 45 42 bc
       -4.099935e-05 0.07951343 -0.25200883 -0.011857436
0002b0 c3 23 b1 bd 51 2f a7 bd 8e 62 6f bd 23 23 07 bc
       -0.08649399 -0.08163322 -0.0584436 -0.008248123
0002c0 be 36 41 3f 37 18 d2 bc 5a b3 d2 bd 54 29 dd b9
       0.75474155 -0.025646312 -0.10288115 -0.00042183197
0002d0 2d 47 f9 3d 38 62 7d bd cd cc b3 bb 2d e2 e7 bd
       0.12171779 -0.061861247 -0.0054870606 -0.113224365
0002e0 45 19 02 be 09 a3 87 bd b3 a9 ee 3d 4a 1f 8d bc
       -0.12704952 -0.06622893 0.11653461 -0.017226834
0002f0 2d f7 c7 bb f6 b9 d6 3b 55 9d b2 3e bb d3 49 3e
       -0.0061024637 0.00655293 0.3488566 0.19709675
000300 ac f6 86 b3 30 5b 5b 3e d7 7c d8 bc e4 96 91 b8
       -6.2847306e-08 0.21421504 -0.026426716 -6.942244e-05
000310 90 c4 cc bb a2 17 79 bb 5c a2 f6 bb 8c d9 86 3d
       -0.006249018 -0.003800847 -0.007526679 0.065844625
000320 78 1b 06 ba 97 12 d3 bd e5 53 be ba e0 21 d0 39
       -0.00051157875 -0.1030628 -0.0014520852 0.0003969809
000330 62 b9 c0 bc 35 4f a4 bd 66 2e c2 3c a1 ef 47 be
       -0.023525897 -0.0802292 0.023703765 -0.19525005
000340 64 db 62 3e a9 25 c7 3e 11 d3 59 bd 45 a4 4c bd
       0.22154003 0.3889592 -0.053179804 -0.049961347
000350 a1 dd c4 3b 48 ce b4 3c a4 78 26 be 85 df 24 bb
       0.0060078655 0.022071019 -0.16256958 -0.0025157642
000360 0d 84 76 bc 67 f6 07 ba 1f 29 ef 3d 2e b6 a3 be
       -0.015046132 -0.0005186558 0.11677765 -0.3197493
000370 09 e6 02 3f 4b 3c ba 3d ec 80 3c 3f ed b3 03 3e
       0.51132256 0.09093531 0.7363422 0.12861605
000380 d0 40 77 bd 7d 2d bb bc 29 6d 6f bd 88 71 67 bc
       -0.060364544 -0.022848839 -0.058453713 -0.014126189
000390 20 89 8c bd 0a 3e c0 bc 26 97 90 b8 e3 6e 49 3f
       -0.06862092 -0.023467083 -6.894609e-05 0.78684825
0003a0 d8 92 05 bd 5c 17 46 bc 7c eb de 3e 3c 46 f5 3e
       -0.032610744 -0.01209053 0.43539035 0.47905147

encoder.norm.running_mean f4 [236]
000000 d7 92 88 3e a1 07 12 c0 8a 06 1a 41 bf 9f 7d 3f
       0.2667453 -2.2817156 9.626596 0.9907188
000010 bb 59 49 bf 19 64 81 40 f2 b2 c4 40 da a1 25 3e
       -0.7865254 4.043469 6.146844 0.16175023
000020 86 a5 6b c0 a1 6c 77 40 77 7b ed c0 da ad 4d c1
       -3.6819777 3.8660052 -7.4213214 -12.854944
000030 f3 16 31 41 d9 a8 29 41 24 48 54 3e 09 a1 9b c0
       11.068103 10.603723 0.20730644 -4.8634076
000040 b4 c0 57 c1 58 8d d1 bc 15 cc 18 40 8b 8f 11 41
       -13.484547 -0.025580093 2.3874562 9.097545
000050 03 9f 67 bf 53 e1 78 40 38 10 d9 40 e9 26 30 bd
       -0.9047701 3.8887527 6.78323 -0.043005858
000060 a7 68 40 41 9e ba bf c1 97 f0 81 c0 d5 6f ed c0
       12.02555 -23.966122 -4.060619 -7.4199014
000070 aa 1f fb c0 5b a1 8d 40 05 6e 2c 3b 47 bb 02 c1
       -7.8476152 4.4259467 0.0026310694 -8.170722
000080 a3 7b 93 40 19 1a 0d 40 8c fc da bf bf 8b d4 bf
       4.6088424 2.2047179 -1.7108321 -1.6605147
000090 57 12 8a c1 e2 11 a8 3c 07 8a b0 41 15 93 c6 3c
       -17.258955 0.02051634 22.067396 0.024240056
0000a0 6c 36 80 3f a0 c3 73 c1 8f 01 2b c1 f5 d4 cd 3e
       1.0016608 -15.23526 -10.6878805 0.40201536
0000b0 00 4d c4 bb 9c a0 0e 41 a2 70 f6 38 cd 5f b5 c0
       -0.0059906244 8.914211 0.000117511736 -5.6679444
0000c0 0a ad 29 c1 d7 7b f1 40 a2 01 db be 35 9d 84 bd
       -10.604746 7.546367 -0.42774683 -0.06475297
0000d0 5a 2a 6b c1 8d 17 98 41 c6 1b 04 41 48 32 40 c0
       -14.69784 19.0115 8.256781 -3.003069
0000e0 3d 7c e6 3e 02 47 7e 40 83 16 b7 40 34 3f 5f c0
       0.4501666 3.973084 5.721498 -3.4882326
0000f0 a5 b4 1c be 62 0e 0c 3f 3b 02 f8 40 26 9f 11 bf
       -0.15303285 0.54709446 7.7502723 -0.56883466
000100 0c af b9 3f 47 94 5f 40 ca dc 43 3f 6b e7 3a 41
       1.4506545 3.4934251 0.7650877 11.681499
000110 5d 33 03 41 28 6c 50 3f dc a5 7c 40 95 ef f4 40
       8.20004 0.81415033 3.9476233 7.654246
000120 85 a1 3f 41 e6 5a 1c c0 9b 4d 86 3f 7a a2 54 41
       11.9769335 -2.443048 1.0492433 13.289667
000130 88 47 91 c1 b0 99 c5 40 0b d8 e0 bf a1 ad 3e 3f
       -18.159927 6.1750107 -1.7565931 0.74483687
000140 3f d0 1b c1 ad 03 5a 3f d3 57 26 bf 74 e5 eb bf
       -9.738341 0.8516186 -0.6497776 -1.8429399
000150 2d c9 8b 41 0c b6 ac 3f c5 f8 1f 3f b4 3c cb 39
       17.47323 1.3493056 0.6248897 0.00038764405
000160 31 34 e4 3d 93 cf 71 40 42 17 e0 be 40 47 8e 3e
       0.11142767 3.7782943 -0.43767744 0.27788734
000170 71 1b 92 bf 2f 98 2a 41 2d b9 0b 40 f4 fa fc c0
       -1.1414624 10.662154 2.1831772 -7.905634
000180 28 c3 90 bd f5 4a 8e 39 73 23 3f 41 53 17 9b 41
       -0.07068473 0.00027140198 11.946155 19.386389
000190 7c 6f 9d 40 68 78 cc c1 32 07 38 be 15 01 bb be
       4.919859 -25.558792 -0.17971495 -0.36524263
0001a0 f4 e8 12 41 da bb 90 3b 0f 29 4b bd 7b 24 c1 be
       9.181873 0.004416925 -0.049599703 -0.37723145
0001b0 2d d1 e8 bc e5 a2 3b 3f 68 d4 22 ba 51 9d d2 bf
       -0.028420055 0.7329543 -0.00062114606 -1.6454259
0001c0 3e 7b aa bc 19 9b b3 3b 5b 5c 9a bd 27 cc 62 3f
       -0.02081072 0.0054811356 -0.07537147 0.8859276
0001d0 56 0e 83 40 ef 44 ee 3e e7 70 96 c0 35 64 53 3f
       4.0955 0.46536967 -4.701282 0.8257478
0001e0 29 10 00 40 91 d7 ec 3e 87 8c d1 3e 37 2b 4e c0
       2.0009863 0.46258214 0.40927526 -3.2213876
0001f0 48 6e 6a bf ca 51 12 41 4d 54 07 c0 ef 3d 8b 41
       -0.91574526 9.144968 -2.1145203 17.405241
000200 8d aa e4 3e db cc 23 bc 13 ed 52 b8 9c 86 69 41
       0.4466137 -0.009997572 -5.0288694e-05 14.595364
000210 0e 44 56 c1 3f 1e 1b 3f 68 a0 2a 41 c6 8c b8 bf
       -13.391615 0.60593027 10.664162 -1.4417961
000220 08 bd 0b c0 a4 e6 bb 3c 6b 88 2b c1 2c 97 11 c1
       -2.1834126 0.022937126 -10.720805 -9.099407
000230 fc 14 9b bd 4c e3 c8 bf 92 aa 66 40 cd 7f 57 3f
       -0.07572362 -1.5694366 3.6041608 0.84179384
000240 96 ab 0e 3f 62 51 0f 40 f0 16 ad be 67 96 73 c1
       0.5573057 2.2393422 -0.33806562 -15.224219
000250 a0 bf 24 c1 a5 00 e5 c0 e6 2f 07 bf 90 c8 ee c0
       -10.296783 -7.1563287 -0.5280746 -7.4619827
000260 95 97 ec bd 6b 73 8a 40 0f 0e 84 40 e5 4d 86 40
       -0.115523495 4.326589 4.126716 4.1970086
000270 e5 7f 17 c0 81 51 2c 3e a5 a3 3e c0 eb d0 d5 3e
       -2.367181 0.16827966 -2.978738 0.41760954
000280 bb ae a4 bf f3 3b c1 40 3e f4 0d 40 c7 95 92 bf
       -1.2865824 6.038568 2.2180324 -1.1451958
000290 1c c0 c0 bc 61 70 42 3a de 83 f6 bd aa 1f c1 c0
       -0.023529105 0.00074172585 -0.120368704 -6.0351152
0002a0 f6 ab 02 36 8d 6f 1e 41 46 e4 e5 c0 78 de 4e c0
       1.9471604e-06 9.902234 -7.1841154 -3.2323284
0002b0 ef 6b 65 3f 5c 7b c2 40 b1 90 2b 40 57 89 21 c0
       0.8961782 6.0775585 2.6807063 -2.5240076
0002c0 b1 b4 a3 41 f5 14 19 c1 e8 70 1c bf ec 6b 3a c0
       20.463228 -9.567616 -0.6110978 -2.912837
0002d0 60 40 e8 c0 22 b6 9a 40 a2 f8 68 ba c9 a3 56 3f
       -7.2578583 4.834733 -0.0008887147 0.83843666
0002e0 da 8d a6 bd f4 46 de bf 1d 22 1b c1 2c 18 29 bf
       -0.08132525 -1.7365403 -9.695828 -0.6605251
0002f0 eb 0b 7e c0 94 9b 43 be ca c3 94 c0 51 d3 b0 c0
       -3.9694774 -0.19102317 -4.6489 -5.5257955
000300 3d 09 54 36 31 9c 0f 41 1f 8a 2c 3e e2 a4 1e b7
       3.159584e-06 8.975633 0.16849564 -9.455924e-06
000310 68 d3 d0 bc 9f 1b bd 3b 0a 0e 8e 40 13 75 b7 40
       -0.025491431 0.005771115 4.4392138 5.7330413
000320 23 03 66 38 c8 c2 99 40 8b 99 dd bc 17 35 cf c1
       5.4839194e-05 4.805027 -0.027050754 -25.900923
000330 cf 63 8d bf 0a 08 a5 3f 09 8d a0 bc d7 79 4e c0
       -1.1046084 1.2893078 -0.0195985 -3.2261865
000340 80 a0 3a 41 99 42 64 41 1c 5a 1d c0 56 31 c7 bd
       11.664185 14.266259 -2.4586248 -0.09726207
000350 ba 33 4b 3f 6f a7 34 bf 67 5d 02 be 06 23 e3 bd
       0.79375803 -0.70567983 -0.12730943 -0.110906646
000360 85 ae b0 3d 46 e9 19 3f 7d 31 68 c0 9a 5e d0 c1
       0.08627037 0.6012157 -3.6280205 -26.046192
000370 48 09 c0 c1 12 ae 15 c1 cc a3 6e 3f df 85 ea bf
       -24.004532 -9.354998 0.93218684 -1.8322104
000380 e6 3b 22 40 19 be 77 40 2d 70 91 3f 69 ed bd bf
       2.534906 3.8709776 1.1362358 -1.4838077
000390 62 dc 08 40 20 83 20 b9 3d 7e f8 3b bd 33 23 c0
       2.138451 -0.00015307637 0.007583408 -2.5500329
0003a0 d5 f7 6a bf 84 9d 9a bf fd cf 7e c1 31 e4 7b c1
       -0.9178441 -1.207932 -15.925778 -15.743211
