checkpoints/ae_50%.pt (torch, 915163 bytes, 16 tensors)

encoder.linear1.weight f4 [236, 358]
00000000: 7c3c 583b c881 58bb 733f 1e3b d567 513a
00000010: 424f 11bb e9b5 0ebb 2ee4 afb9 9123 c43b
00000020: 51aa a2bb 8bd7 faba 9261 86bb e0ba 583b
00000030: 5ae3 46bb e5df 403a ef43 0a3b e1dd 42bc
00000040: f7a8 6d3b c45b cfbb 9ebd 42bc 9493 38bc
00000050: 4ae1 b0bc 526a bcbc 604b 9d3b 502d 9d3b
00000060: 5444 14bd 88af 8ebc 223c 4cbd 87a8 55bd
00000070: b352 56bd ace7 8abe d6a2 f63d 56ce ccbd
00000080: fd62 853c ea4e 833c e9a9 fd3b eb3c 64bc
00000090: 47bc abbd 02c7 cc3d 7023 11bd fa9c a5b9
000000a0: 5acb cf3d e725 00bd 498c afba 146c b53c
000000b0: 1477 b23c 1e5a 72bb 5016 a1bb 7500 253c
000000c0: c08e 733b 458e c3bb 16aa 473d c222 a83c
000000d0: 0e08 363c c796 373d 0b04 ce3b cb76 3f3c
000000e0: 657d c63b 1451 843b ddff 283c f7a8 853c
000000f0: 9a40 eb3b 6a0c 1d3a e94b 853b 4418 f8ba
00000100: 9543 b6bc 3018 9c3b 3755 9a3b e1b7 89bb
00000110: 649c 23bb 5d05 0ab9 d374 eaba f970 b73b
00000120: fcc2 3e3b 8920 a63b 7c19 2abb 5db1 2fbb
00000130: 1e42 063b fb87 3dbb 3d77 cabb 2a58 64bb
00000140: e581 2abb b8c4 00bc ce27 74bb b468 bd3b
00000150: 2254 d33b 32b6 cd3b 5ccc be3b f07e 933b
00000160: 203a 8c3b 2faf 4e3a eeb5 6bbb 93a4 d5bb
00000170: b3e6 2fbb 2ec8 d5bc f1f6 8cbb 4bd3 963c
00000180: e336 98bc 5752 babc f83f babc f4fb cbbb
00000190: 4fff 8abb 94c2 a4bc 195d 0f3c 8b6c e3ba
000001a0: 012f 193b 569f 8a3b 765c d5bc 2028 83bd
000001b0: ded6 9f3d 061b 91bd 4218 9b3d df34 a2bd
000001c0: f4cf acba 7d7c 293d 92f8 443d dfb0 88bc
000001d0: 9298 2a3d f3d8 a23c 0d7d 713c db35 d63c
000001e0: ca78 e93b e13e 453c ef2d 083d e2f1 fc3b
000001f0: 47e1 d93b 2b6c 663c 35f9 663c 05ab 363d
00000200: e302 993c b92b ff3b 5303 b43b b34b 313c
00000210: 5be7 35bc dded 8639 11c0 cd3b d930 c93b
00000220: 802e b93b 437b 2b3c c1bd 793c aa4f 663c
00000230: 7080 7e3c a25a 683c 1e16 613c 5746 d2bb
00000240: 44ac 38bc 3d28 90bc 1684 14bc 551a 603c
00000250: bcae c93b 6126 28bc 7e8b 8f3c 1662 5e3c
00000260: ca05 7c3c cf2c 0cbc 3e9f 2e3c ca0b 07bc
00000270: e116 27bc d066 1d3c b907 a53c f2b9 893c
00000280: bbae 1f3b 82cd 473b eedb 403c 36a7 c43b
00000290: 1b75 81ba 8ed6 293b c24b e33b 79d7 f63b
000002a0: 9014 963a a53f cdba 8d67 473c b8cc 46b7
000002b0: e357 4f3b a396 ba3b bfac 08bc 1908 76b9
000002c0: a09d 0eba eed6 16bd aaab 163d ba90 a93c
000002d0: 109f 3b3c d088 cbba 3049 983a a989 383c
000002e0: 34a6 ff3c b08b a2bc d359 6438 24ab 6b38
000002f0: 93e5 6239 470f 5abd 9dcd ad3b ac1a aab9
00000300: 8d8e 10bc ffdc 6139 1907 ff38 48e1 d33e
00000310: 0a16 aeb9 27c4 44b8 dcd0 21b9 c427 8c3a
00000320: 43f3 fc38 6554 a93b 1f8b dcb7 a3db 6938
00000330: 2adb c3bb def4 6639 33d1 adb9 9ca8 92b8
00000340: 967c c138 d144 da39 af9e e936 6278 ebb8
00000350: 63b3 09b8 1ff7 df38 5be4 a73d 345e 83bd
00000360: 62e9 a4b9 52e6 9f38 d6c1 a53a 9da3 3bb9
00000370: 51b4 03b9 0331 483e efc7 39b8 fc27 7239
00000380: 581c bdb8 e7db 873c d67f 0b3b ad39 6c39
00000390: bfb0 b53a b654 b9bb 6c0f 66bc e423 06ba
000003a0: 427d 1939 86dc 083a 3589 e83a adfe 2fb9
000003b0: 817f 8439 61b8 013a 9922 8e39 aed0 1ab8
000003c0: 0cfd 9ebb 4f76 8fb6 4f14 1cba aefc 79bb
000003d0: 392c 6a3a 0e01 97ba c320 a23b 4ba8 b0ba
000003e0: 9b24 44b9 0936 9a3b bd33 8dbb 0e73 d539
000003f0: 6eb6 0cbb 62b4 e33a fb2b e13b d089 57bb
0.0032995036 -0.003303634 0.0024146705 0.00079881895 -0.0022172485 -0.0021775907 -0.00033548608 0.005985685
-0.004964151 -0.0019137723 -0.0041009868 0.003307037 -0.0030347914 0.00073575816 0.002109762 -0.01189372
0.003626404 -0.006328078 -0.011886029 -0.011265654 -0.021591801 -0.022999916 0.004800245 0.0047966614
-0.036197975 -0.017417684 -0.049862035 -0.052162673 -0.052324962 -0.27129877 0.12042777 -0.10000293
0.016282553 0.01602884 0.007741202 -0.01393054 -0.083855204 0.09998895 -0.035434186 -0.0003158821
0.10146208 -0.031286146 -0.0013393249 0.022146262 0.021785296 -0.0036979984 -0.00491599 0.01007091
0.0037163943 -0.0059678876 0.04874619 0.020524386 0.011110319 0.044821527 0.006287103 0.011686037
0.0060574287 0.0040379856 0.010314909 0.01631592 0.007179332 0.00059909245 0.004067887 -0.001892813
-0.022249022 0.0047636256 0.0047098654 -0.0042028283 -0.0024965042 -0.00013162704 -0.00178876 0.005598184
0.002910792 0.0050697965 -0.0025955131 -0.0026808598 0.0020486186 -0.0028920162 -0.006178765 -0.003484259
-0.0026017365 -0.007859401 -0.003725517 0.005780304 0.0064492384 0.006277823 0.0058227014 0.004501216
0.00427939 0.0007884381 -0.0035966593 -0.006519863 -0.0026840388 -0.02609643 -0.0043018986 0.0184113
-0.01858086 -0.02274434 -0.02273558 -0.0062251035 -0.004241861 -0.020112313 0.008750224 -0.0017351074
0.0023373964 0.00423042 -0.026045065 -0.064041376 0.078046545 -0.070852324 0.07572986 -0.079202406
-0.0013184533 0.041378487 0.048088618 -0.016685901 0.04164941 0.01987884 0.014739287 0.026148727
0.007124995 0.012038917 0.03324693 0.0077192644 0.0066491696 0.014063875 0.0140975015 0.04459669
0.018678134 0.0077871946 0.0054935603 0.010821271 -0.011102523 0.00025735694 0.0062789996 0.0061398563
0.005651295 0.0104664 0.015242995 0.014057079 0.015533552 0.014181765 0.013738183 -0.0064170766
-0.01127154 -0.017597312 -0.009064695 0.013678153 0.006154863 -0.0102630565 0.01752257 0.01357319
0.01538224 -0.008555605 0.0106580835 -0.008242557 -0.010198326 0.009607032 0.020145284 0.016812298
0.0024365622 0.0030487482 0.011771185 0.0060013784 -0.0009876819 0.0025915238 0.0069365213 0.0075330106
0.001145022 -0.0015659226 0.0121706845 -1.18493845e-05 0.0031638078 0.005694227 -0.008341967 -0.00023463405
-0.0005440358 -0.036826067 0.036784805 0.020698894 0.011451498 -0.0015528444 0.0011618491 0.0112632895
0.031207182 -0.019841999 5.444309e-05 5.6187753e-05 0.00021638563 -0.053237226 0.005304052 -0.000324448
-0.008823049 0.0002154 0.000121606696 0.41382813 -0.00033204287 -4.6912723e-05 -0.00015431963 0.0010693003
0.000120616074 0.0051675313 -2.6290827e-05 5.575608e-05 -0.005977054 0.0002202573 -0.00033152997 -6.9932285e-05
9.226163e-05 0.00041631472 6.9624143e-06 -0.00011228096 -3.2830412e-05 0.000106794985 0.08197852 -0.06414452
-0.000314544 7.624611e-05 0.0012646269 -0.0001789466 -0.00012560307 0.19549946 -4.429364e-05 0.00023093814
-9.017502e-05 0.01658435 0.0021285913 0.000225282 0.0013861879 -0.0056558503 -0.014041763 -0.00051170425
0.00014637879 0.0005220849 0.0017741086 -0.00016784175 0.00025272 0.0004948434 0.00027110128 -3.691081e-05
-0.004851943 -4.275505e-06 -0.0005953954 -0.0038144994 0.0008932981 -0.00115207 0.004947753 -0.001347789
-0.00018705653 0.0047061485 -0.004309146 0.00040712248 -0.0021471041 0.0017372484 0.006871698 -0.003288854

encoder.linear1.bias f4 [236]
00000000: 61e9 47b3 7b3f 0000 f10d 94b4 a2c9 0300
00000010: 07b4 8934 dbfd 1b35 d354 3534 7d17 0280
00000020: da10 9533 87da 0200 7769 df34 983b 7834
00000030: 3b6b 0080 903f 9c2b fdd9 6484 78cd 0100
00000040: 05be 0180 d5e2 0200 6ac9 692d 13ac 0200
00000050: e885 b830 69a0 0000 8481 84b3 cf7f 0300
00000060: 9153 0bb4 5f6c c89e 84cf 78b4 ac81 0300
00000070: 05f9 0300 2f25 0280 5894 30aa 572c 7f35
00000080: 6fcd 5ead d540 0300 8d76 f40b 4cfa 4534
00000090: aac4 0100 a8ca 0200 9828 971f 8255 b3b4
000000a0: edd8 a033 6d8c dab2 4ab4 0380 d3e9 5134
000000b0: 4cd9 0280 b4a6 2034 ed90 74b5 c770 0300
000000c0: c649 0180 6be9 3331 d95a ddb3 97d7 2b35
000000d0: 8bb3 8983 fd17 0134 45e6 bfb5 3df4 1036
000000e0: a679 9eb4 97f8 1034 547d b234 0038 5e34
000000f0: 23e8 0300 0652 9033 e9ce 0200 79f7 59b2
00000100: 173d 6d34 f75c 0300 b5d5 0000 18c8 0300
00000110: c238 03b0 26c1 8fb4 8b79 3732 3fe3 0280
00000120: b756 0080 b708 0235 0533 0080 a4c3 841a
00000130: a3ea 0200 cc4f 0080 678a 0280 851f 0380
00000140: 1ae3 0380 0209 60b3 109f 0280 3fb8 0300
00000150: 11fb 5d34 7c39 61b1 382a 6935 007b b834
00000160: 1db3 0380 c721 0200 af9f 0380 9b9a ca32
00000170: b807 dab2 e22b 77b2 af57 68b4 0b7e 7f34
00000180: 24e5 9735 5539 6634 e9b0 0200 d091 0000
00000190: 945c 0200 56cc 482b 483a 0200 90db 0200
000001a0: 5aec 0100 8610 38b5 04a1 0080 a75e 0080
000001b0: 1365 1833 d6ad 0280 e50f 04b4 42e3 0200
000001c0: dea9 0280 0514 0300 5f25 0180 7eaa 0280
000001d0: 93f2 1a36 957c 4533 9f06 0380 daa3 de33
000001e0: 347b 0300 3af0 0280 2953 0380 8622 0280
000001f0: 695f 4c34 b222 3133 ebcc 91b2 d17e 9cb4
00000200: f100 23b4 9e2b 0000 67f5 2034 02ed 69b4
00000210: 4fa5 0380 94f7 d5b2 9b55 c833 f1da 0f35
00000220: 5ab7 0280 27fc 3816 88ec a635 a3c9 a6b5
00000230: 8746 0300 fd1e bb13 24a3 c704 5df6 1a34
00000240: 7339 dbb2 a29c 8932 20d4 1a2a d79c 0a34
00000250: bf80 3fb4 084f 0480 1ec3 06b4 c880 b7b2
00000260: b39e 2614 c563 2984 db59 0080 0f12 0300
00000270: dda2 0100 048c 0280 327d 5935 1f4c 0a34
00000280: 5c69 c7b5 931e ed34 31f2 0634 2421 0380
00000290: 29ff 0300 5fdd 0200 f94a 0380 7d5d 1eb3
000002a0: bcd1 c1b4 dcc5 c831 8ce7 6333 6cb0 b634
000002b0: 93d9 0380 583b 0300 fb45 dc34 1bf9 4832
000002c0: 4809 1534 0458 0f35 d52b 2ba5 1d5d 0180
000002d0: 02b5 e031 74ec 7ab4 afbf c830 d740 3b17
000002e0: 6a48 0380 3260 3cb3 5c01 ca33 74cc a40b
000002f0: a538 02b4 044e 0300 c50c 0280 6fd3 0000
00000300: a0c7 30b5 6961 72b3 017d 020a 5040 0280
00000310: fb57 cc34 064c 0380 66f1 1538 bf14 8335
00000320: 39e8 34b4 346f 9c2d 69f6 90b5 c669 0200
00000330: 8fb0 0200 3e97 0080 c6f5 a3b3 729b 0fb7
00000340: ccaf 0280 9cbd 2db2 cbe8 9f34 cc21 05a9
00000350: a5d6 0200 f89b 0000 812b 0200 5943 b12d
00000360: 0941 42b4 ab10 a634 4739 9db4 c018 0300
00000370: 36ec 0380 d710 0480 d904 eeb3 1622 0180
00000380: 6933 7332 261f 8db6 3d21 b3b4 eeda baae
00000390: ef14 7c34 415a b131 a4c1 3b33 26e7 0280
000003a0: 84b4 0100 1aac 0080 caf3 a728 8dc9 c9b4
-4.6545555e-08 2.2773e-41 -2.7577292e-07 3.47839e-40 2.5649226e-07 5.811141e-07 1.6887797e-07 -1.92097e-40
6.9414185e-08 2.62064e-40 4.1613723e-07 2.311848e-07 -3.8467e-41 1.1102109e-12 -2.6901367e-36 1.65544e-40
-1.60002e-40 2.65043e-40 1.32892395e-11 2.454e-40 1.342582e-09 5.7544e-41 -6.170288e-08 3.21356e-40
-1.2975785e-07 -2.1220645e-20 -2.3172294e-07 3.22024e-40 3.64838e-40 -1.9701e-40 -1.5683407e-13 9.5059426e-07
-1.2664854e-11 2.98764e-40 9.4163757e-32 1.8438112e-07 1.62385e-40 2.5637e-40 6.4018144e-20 -3.3403563e-07
7.490039e-08 -2.5442398e-08 -3.40182e-40 1.9549707e-07 -2.61622e-40 1.4961807e-07 -9.110798e-07 3.15963e-40
-1.183e-40 2.618061e-09 -1.03076395e-07 6.401619e-07 -8.093357e-37 1.2022788e-07 -1.4297626e-06 2.1599838e-06
-2.9518304e-07 1.3501482e-07 3.3246272e-07 2.0695734e-07 3.58781e-40 6.7204425e-08 2.57896e-40 -1.2687331e-08
2.209457e-07 3.08856e-40 7.6664e-41 3.47287e-40 -4.773818e-10 -2.677636e-07 1.0679638e-08 -2.65192e-40
-3.1107e-41 4.8441456e-07 -1.8302e-41 5.4909995e-23 2.67843e-40 -2.8626e-41 -2.3332e-40 -2.86814e-40
-3.56975e-40 -5.2162257e-08 -2.40732e-40 3.41602e-40 2.0673566e-07 -3.2774485e-09 8.68607e-07 3.4362165e-07
-3.3976e-40 1.95788e-40 -3.3279e-40 2.3586201e-08 -2.538205e-08 -1.438727e-08 -2.1638583e-07 2.379458e-07
1.1317065e-06 2.1441276e-07 2.47134e-40 5.2308e-41 2.16882e-40 7.1337847e-13 2.04578e-40 2.62435e-40
1.76622e-40 -6.8569386e-07 -5.7762e-41 -3.3955e-41 3.5482184e-08 -2.46032e-40 -1.229924e-07 2.65196e-40
-2.44608e-40 2.82688e-40 -1.05242e-40 -2.44832e-40 2.3088985e-06 4.5980943e-08 -2.77882e-40 1.0367485e-07
3.19703e-40 -2.69848e-40 -3.05339e-40 -1.96056e-40 1.903369e-07 4.124258e-08 -1.6973408e-08 -2.9149535e-07
-1.51809e-07 1.5647e-41 1.4990438e-07 -2.1786039e-07 -3.34808e-40 -2.4909049e-08 9.328797e-08 5.3590253e-07
-2.49445e-40 1.4942967e-25 1.2436803e-06 -1.2426648e-06 3.00807e-40 4.7235993e-27 4.6934496e-36 1.4431994e-07
-2.552108e-08 1.6020127e-08 1.3751543e-13 1.290931e-07 -1.7835099e-07 -3.95693e-40 -1.2550706e-07 -2.1362567e-08
8.412156e-27 -1.9911666e-36 -3.2234e-41 2.81985e-40 1.5026e-40 -2.33899e-40 8.102098e-07 1.2879944e-07
-1.4857319e-06 4.4166936e-07 1.2567831e-07 -2.87395e-40 3.67041e-40 2.63084e-40 -3.02402e-40 -3.687227e-08
-3.6101653e-07 5.84326e-09 5.3063147e-08 3.4028506e-07 -3.53557e-40 2.96795e-40 4.102911e-07 1.1698172e-08
1.3880083e-07 5.339973e-07 -1.4846737e-16 -1.25238e-40 6.5398362e-09 -2.3369086e-07 1.4606395e-09 6.05048e-25
-3.01484e-40 -4.385965e-08 9.406605e-08 6.347813e-32 -1.21278e-07 3.03493e-40 -1.88252e-40 7.5848e-41
-6.58556e-07 -5.643361e-08 6.282783e-33 -2.06742e-40 3.8061975e-07 -3.02779e-40 3.5749188e-05 9.766298e-07
-1.6848288e-07 1.778453e-11 -1.0800551e-06 2.21615e-40 2.47008e-40 -5.4255e-41 -7.634985e-08 -8.559657e-06
-2.46735e-40 -1.01130375e-08 2.9785437e-07 -2.9561247e-14 2.60671e-40 5.5951e-41 1.99277e-40 2.0152479e-11
-1.8091318e-07 3.0932037e-07 -2.9285204e-07 2.84385e-40 -3.60243e-40 -3.73383e-40 -1.10836204e-07 -1.04063e-40
1.4156151e-08 -4.2057536e-06 -3.3365532e-07 -8.4971905e-11 2.3476944e-07 5.1616387e-09 4.3715445e-08 -2.66591e-40
1.56592e-40 -6.1738e-41 1.8646451e-14 -3.7585815e-07

encoder.linear2.weight f4 [118, 236]
00000000: 49ef 963d dc9b 41bc 57c6 0fbb f0b2 8a3a
00000010: a7dd 683a 5b12 33bc b408 083c 4283 d33a
00000020: 49f3 f5bc cae5 849b b194 ddbb b181 233d
00000030: 93ea 9d37 e7ac c8b5 aab9 09bd edc0 9e90
00000040: 8617 6cbc bfc5 b231 e4b2 a6bc bf96 eebc
00000050: 98b7 423b ff0b ebbb 9e21 0ebb 0cee cabc
00000060: 3fbe 2c3b a6d6 98bc f422 e9ba 2dec 30bc
00000070: c40f c0bc 5330 8abc 03f1 70bc 6a36 75bc
00000080: e88c 41bc 9232 2a3b 20d5 c037 5dd0 da3b
00000090: bbfa 2835 9eeb 06bc 21a1 343a 9f1c 4aba
000000a0: 4900 b5bb cce6 08bd 5ec6 1ebd b2df a03b
000000b0: b69b ccbc 5eac 943c ddea 4abd 801c 65b6
000000c0: 70f5 e1b0 acb0 8438 c32e 67bc a8f9 143b
000000d0: 56c2 56bd eefc 743b 403f 303a 4b6c 163b
000000e0: a0db 043c 0c23 9a3b 81cb 393c 9426 19bb
000000f0: 7329 6237 22d8 adb9 229e 8fb1 ee72 b33c
00000100: d5ae b9ba 853d 9328 13ee 8fb6 3e6b 83bc
00000110: 5709 3db8 b5a5 943b db56 2fba d022 75bc
00000120: 08ca 5838 a1e9 a6bc 7b18 ecb4 ecf7 05bd
00000130: e89a 0b37 0ab6 66bc 0456 8b3a 8c96 0e80
00000140: e001 3d3a d0f7 48bc 3d7c 07bd c46b 38bc
00000150: bb8c 98ba 19e0 293c bf20 2fbd a60a 1cba
00000160: a71b c2bc 0429 efbb d552 f3bb a15b 0e3a
00000170: 08d8 453b 6bc6 bd3b 3679 7bbc 656a 433a
00000180: 2f77 a2bc 5355 013d b878 36ba 5431 6abc
00000190: 4581 82bc 8a2e c6b6 e98e 0abc a55a b4ba
000001a0: e27b 0426 5cab 92bc cb18 5120 b56c 8b39
000001b0: 9a61 f43a 0a7d e639 903c ccbb 3799 eebc
000001c0: 2536 b339 b136 1939 ec0a edbc a6b4 edbc
000001d0: e102 ca3c df63 acbc cd76 c6bc 8a46 db3a
000001e0: 8168 cea8 1cfb 19bc 802e f2bb 20ae 752e
000001f0: d311 dfb9 1ca7 223a 1d16 f2b7 5051 6ebc
00000200: 61ab b93d 581a bcbb 7db3 873b 1f3b 97bc
00000210: a3db 1fbc 9936 6e3a d08c 00ba 3d1f 8fbd
00000220: 941d 7635 4049 1dbd b68f 68bc b090 12bd
00000230: de61 c6bb 18f3 23b4 979e d6bc 9170 853a
00000240: 1809 973b 8269 27bc ec89 0f37 09a6 37bd
00000250: a1f2 c53b f306 0d3b c071 7cbc 7661 4f3a
00000260: 688b d13a 545e f0b9 df88 15bc 8427 2bb5
00000270: 2620 93a8 0a8a f438 defb 8bb8 2521 0a3a
00000280: 39ab 94bc 3745 863b f4d6 93ba 24d3 2425
00000290: 5fdb d636 95e9 c53c e594 6439 d71a f1b9
000002a0: c0c5 cbbc dafa 143b f5f3 8939 61c3 723c
000002b0: c925 cfbc 77b2 0538 69c0 dc3c 48f8 27bd
000002c0: fda2 823c 4adb 28bd 1818 29bd c472 a5b8
000002d0: ccfd 023c 975c 03bc 84bf 43bc cef2 beba
000002e0: 8e30 a538 9b89 31bd f4be 853d f2c7 c9b8
000002f0: f769 a139 7611 4bb6 fc6a ed35 23b6 bbbc
00000300: 7411 06bb f6d4 53bb b1a6 b5bc b62f da35
00000310: 1695 61bc 44b5 3134 abf8 5bbd ef1c 7a3c
00000320: 8e5a 4a3c d636 afbc 7c4f 973d f65e 09bd
00000330: 1fc6 a2bb 4597 7037 f8a9 adba e944 fcbb
00000340: 8efd 42bc c930 df3b 0c3c 90ba c385 4d3a
00000350: f757 18bd d564 87bd 630d d4bb 6279 37bc
00000360: c4f8 183d afcf e03a 4e0d 07be 050a 63b8
00000370: 299d efbc 33e2 f6b5 828f 393a e19d 0fbc
00000380: d8c3 b5bc 6617 e6ba b2d2 b73b 3825 2fb6
00000390: 14db 2abc e35b 1d3b fb3a 823b bed9 e938
000003a0: 4d89 c737 957b 0cbd 6c4f 1339 8dad a2bc
000003b0: 5f1d 36bd 747a 9fba 60d7 f9bb 3c87 04b6
000003c0: 5873 44bb 1186 1d3c b1ef 083c 692a 4d2e
000003d0: 7e65 f73c 5cf6 b415 69fd d439 bf61 30bc
000003e0: 6b42 c439 1e87 ce36 8528 17b5 33bf 8fb5
000003f0: 92a5 d23a 0053 b12f 7ef7 8339 c1b2 4f3c
0.07369859 -0.011816945 -0.0021938288 0.0010581892 0.00088831264 -0.010929669 0.008302856 0.001613714
-0.030023234 -2.1986066e-22 -0.00676211 0.039918605 1.882509e-05 -1.4951482e-06 -0.03362433 -6.261726e-29
-0.014409905 5.202963e-09 -0.020348974 -0.029124616 0.0029711481 -0.007173061 -0.0021687518 -0.024771713
0.0026358513 -0.01865704 -0.0017786906 -0.010798496 -0.023445018 -0.016868746 -0.014705899 -0.014966587
-0.01181338 0.0025970084 2.2987428e-05 0.006677671 6.294974e-07 -0.008234886 0.0006890465 -0.00077099534
-0.0055237156 -0.03342323 -0.038763396 0.004909479 -0.024976593 0.018148597 -0.04954039 -3.4140248e-06
-1.6440662e-09 6.327158e-05 -0.01411027 0.0022731815 -0.052431427 0.0037382203 0.0006723292 0.0022952731
0.008109003 0.004703885 0.011340023 -0.0023368942 1.34803e-05 -0.00033158163 -4.1798254e-09 0.021905389
-0.0014166484 1.6346958e-14 -4.2894476e-06 -0.016042348 -4.506981e-05 0.0045363554 -0.00066886627 -0.014961913
5.168657e-05 -0.020375075 -4.3976237e-07 -0.03270714 8.321113e-06 -0.014081487 0.0010630493 -1.339703e-39
0.0007210057 -0.012266114 -0.033077467 -0.011256162 -0.0011638621 0.01036837 -0.04275584 -0.00059525145
-0.023694826 -0.0072985906 -0.007425646 0.0005430524 0.003018858 0.0057914755 -0.015348723 0.00074545137
-0.019832222 0.031575512 -0.00069607375 -0.014293987 -0.015930781 -5.9062777e-06 -0.008456924 -0.0013759924
4.596459e-16 -0.017903976 1.7711192e-19 0.0002659314 0.001864481 0.0004396218 -0.0062328056 -0.029125793
0.0003418188 0.00014611591 -0.028935872 -0.029016804 0.024659576 -0.021043716 -0.02422657 0.0016729396
-2.2915916e-14 -0.009398248 -0.007390797 5.5861205e-11 -0.00042547155 0.0006204711 -2.8858945e-05 -0.014545754
0.09065891 -0.005740445 0.0041412697 -0.018460808 -0.009756955 0.0009087115 -0.0004903795 -0.0698838
9.1685183e-07 -0.038399935 -0.01419442 -0.035782516 -0.006054147 -1.5268995e-07 -0.026198668 0.0010180642
0.0046092384 -0.010218026 8.555577e-06 -0.044836078 0.0060408865 0.0021519035 -0.0154079795 0.0007910946
0.0015986981 -0.00045846647 -0.009126871 -6.3759967e-07 -1.633422e-14 0.000116605384 -6.6749504e-05 0.0005269221
-0.018148052 0.0040976065 -0.0011279271 1.429627e-16 6.403235e-06 0.024159232 0.00021799242 -0.000459871
-0.024874568 0.0022732527 0.00026312438 0.01481709 -0.025286572 3.187588e-05 0.026947217 -0.041008264
0.01594686 -0.041224755 -0.041282743 -7.88919e-05 0.00799508 -0.008017681 -0.011947516 -0.0014568211
7.876857e-05 -0.04334412 0.06530562 -9.6216696e-05 0.00030787263 -3.025952e-06 1.7689013e-06 -0.022913998
-0.002045718 -0.003232298 -0.022174211 1.6256151e-06 -0.013768455 1.6550354e-07 -0.053703945 0.015265687
0.0123506915 -0.021388453 0.07388207 -0.033537827 -0.0049674655 1.4340335e-05 -0.0013249507 -0.0076986444
-0.011901272 0.0068112356 -0.0011004223 0.00078400614 -0.037193265 -0.06611029 -0.0064713224 -0.0111983735
0.037346616 0.0017151738 -0.13188669 -5.413035e-05 -0.029249744 -1.8394261e-06 0.0007078574 -0.008765669
-0.022188112 -0.0017554581 0.0056098336 -2.6098696e-06 -0.010428209 0.0024011068 0.003974316 0.000111508634
2.3786584e-05 -0.034297545 0.000140486 -0.019858146 -0.044461604 -0.0012167231 -0.0076245517 -1.974825e-06
-0.0029975977 0.009614483 0.008357928 4.664927e-11 0.030199762 7.309011e-26 0.00040624596 -0.010765492
0.00037433518 6.155008e-06 -5.631085e-07 -1.0709977e-06 0.0016071072 3.2255087e-10 0.00025170663 0.012676896

encoder.linear2.bias f4 [118]
00000000: fe1f 8935 b99d cb34 d80b 0036 1542 4bb6
00000010: 6b3d ce32 ce64 22b6 6008 63b4 2da3 1335
00000020: 7217 3d36 5d47 8f35 b617 90b4 4104 0635
00000030: 90cb 8f36 7a03 80b5 48c6 0db6 b8ca 8e35
00000040: 20b1 c834 0b09 ed36 0ca8 c1b5 46cb 2b35
00000050: 423a afb5 bc57 5736 9233 9335 5717 e5b4
00000060: c334 b535 4d52 2bb5 14ba 8935 9d07 d7b5
00000070: d948 8236 18e8 4d35 dc9d ee33 d683 f3b4
00000080: b1da e5b5 52d3 84b5 e4c4 d2b6 c32f b834
00000090: 00d3 5234 f656 cbb4 3f38 6136 0bf6 9a34
000000a0: 73e5 50b5 8ba9 e435 bf38 88b5 9cbe c035
000000b0: 2706 1936 6cdf d8b5 9fe5 8133 6885 68b4
000000c0: 9861 74b4 ad91 0b35 f4ae 76b6 aa5c 2036
000000d0: e60c 9535 8ae3 6fb5 6402 a0b5 44b7 04b6
000000e0: af47 0635 5bec 8436 af01 1c35 a98c 8534
000000f0: b962 84b6 1c49 2735 944d 82b5 f955 ba35
00000100: 5319 fab3 3247 d1b3 a839 ffb3 19f4 d3b4
00000110: e0dd 4cb5 8948 fcb5 2391 d6b6 5af7 bfb5
00000120: 3a80 4434 28d8 8eb4 57c3 8bb5 0e5e d436
00000130: 5c26 99b5 c7f5 bb35 6d91 8536 4866 7fb5
00000140: 5713 2e35 94d5 9fb6 5d12 20b6 3fd2 3cb6
00000150: 65b5 0c35 4b8b 9a35 93d8 3935 a687 e434
00000160: 3098 14b6 033d 55b6 7ab3 87b6 4e1b 70b5
00000170: bb7e aab5 16ad 00b6 41d2 3ab5 e64e b2b5
00000180: 7c49 2835 d272 84b5 b555 e4b2 be59 0736
00000190: cbd4 36b5 d7e9 9235 7396 ab35 add1 afb6
000001a0: abcb 28b5 b45f f8b4 d878 2a35 b344 14b4
000001b0: 9c52 c0b5 b522 e432 e8c5 1c36 e9f3 4d36
000001c0: a3e7 0a35 0f03 49b4 85f3 1ab4 b095 0436
000001d0: 1126 75b5 2281 b5b5
1.0216606e-06 3.7926455e-07 1.908038e-06 -3.0287822e-06 2.4009486e-08 -2.4198557e-06 -2.1144069e-07 5.499922e-07
2.8176842e-06 1.06751e-06 -2.6839342e-07 4.992508e-07 4.28543e-06 -9.537755e-07 -2.1126052e-06 1.0638823e-06
3.7381778e-07 7.064203e-06 -1.4428529e-06 6.3998266e-07 -1.3055471e-06 3.2088565e-06 1.0967362e-06 -4.2671556e-07
1.3500907e-06 -6.382223e-07 1.0261451e-06 -1.6020964e-06 3.8827825e-06 7.670619e-07 1.1111453e-07 -4.53582e-07
-1.7125477e-06 -9.896269e-07 -6.281409e-06 3.4307422e-07 1.9634535e-07 -3.787497e-07 3.3560352e-06 2.8863755e-07
-7.781993e-07 1.7036667e-06 -1.0149305e-06 1.4360589e-06 2.2802358e-06 -1.6158278e-06 6.0487984e-08 -2.1655217e-07
-2.2759775e-07 5.199352e-07 -3.6758693e-06 2.3895795e-06 1.1105119e-06 -8.936555e-07 -1.1921625e-06 -1.9776207e-06
5.0023203e-07 3.961422e-06 5.811698e-07 2.4875524e-07 -3.9453994e-06 6.2318736e-07 -9.708333e-07 1.3883101e-06
-1.16461386e-07 -9.745271e-08 -1.18848504e-07 -3.9479417e-07 -7.631879e-07 -1.8796574e-06 -6.394593e-06 -1.4302598e-06
1.8300571e-07 -2.6606835e-07 -1.0413158e-06 6.3290418e-06 -1.1410552e-06 1.4004116e-06 3.9806387e-06 -9.514374e-07
6.4848194e-07 -4.763433e-06 -2.3852547e-06 -2.8136562e-06 5.241803e-07 1.1514434e-06 6.923303e-07 4.2567007e-07
-2.2142303e-06 -3.1774987e-06 -4.0442073e-06 -8.94467e-07 -1.270287e-06 -1.9174236e-06 -6.959636e-07 -1.3284996e-06
6.269181e-07 -9.868183e-07 -2.6581668e-08 2.0168804e-06 -6.810994e-07 1.0945904e-06 1.2784279e-06 -5.239816e-06
-6.2881253e-07 -4.6263233e-07 6.3505786e-07 -1.3808567e-07 -1.4329157e-06 2.6558476e-08 2.3361008e-06 3.0689355e-06
5.174608e-07 -1.8720696e-07 -1.443096e-07 1.9756662e-06 -9.1325006e-07 -1.3523133e-06

encoder.norm.weight f4 [236]
00000000: 9888 823e 963f de3c 3be4 653e d879 1039
00000010: 8156 123e 0011 d83d 878b 003e 588d b638
00000020: 9fc9 873e 49f1 133b 2912 183e 89e2 903e
00000030: 6f1c 243a 1d0b 993c fc8e e13c 2194 58b1
00000040: 1dab 1e3b b87a 2233 9606 3ebc 7301 4f3a
00000050: 8e86 2f3c 14c5 b13b f22d fa3d 2b47 6b3c
00000060: 3a89 563d 8012 77ba 69a1 9e3d f509 773a
00000070: eeb2 843a cfd7 ec38 1fab f33a 0439 833d
00000080: 1759 0b3d ff82 132f ed3a 083b 9840 643d
00000090: 82ae b939 1a07 c53a fc99 2b3b 673d dd3d
000000a0: 79e9 663e 65f4 0e3e a33d 3139 77f0 4c3e
000000b0: 37ca 233a f9fa 973d d537 5c3d 683a 8eb8
000000c0: 4b13 ca3b 6aa7 f03c d8e6 573c 6e53 ad3e
000000d0: 67ce 153c e848 f03d a93b 4e3e 842c 423e
000000e0: d32a 593e 6e5e c73e f50a de3d bd37 823d
000000f0: a148 d939 bd37 b63d f43d b02f 6a66 613d
00000100: 0dbc 753e 9ba6 1fb7 1b35 133c eb00 b634
00000110: eeb0 ec3c 44d5 7e3e fbff a33c c264 33b9
00000120: 3eb3 df3a e396 953e c284 2738 3948 793c
00000130: 760f 5639 e50c 43b7 77d4 4c3a 2149 34a9
00000140: e8cd bc37 fdc3 0c3e 8b21 073c 2e09 3a3b
00000150: 6dd5 d13d 9edf 6c3d 6af2 4e3e ac9f 663d
00000160: bd1b ab3a 0813 913b 6566 bb3a 3133 163d
00000170: e43c 8f3d 05ca 423d 5714 093e 5937 1f3e
00000180: 7d62 193e cfe4 b03e 8856 bc3c 2f16 773c
00000190: 61f4 913c 4d67 513c 4612 483c 694b a62d
000001a0: db9a 6339 8d2b 8c3d 061c 29b9 c1e0 3a37
000001b0: 19ad 303d 47d5 5ab9 a921 893d 2c11 e33b
000001c0: d9a0 153c d356 fd34 56e1 683a 94ec 5d39
000001d0: 08ca 563e dbec ca3c e972 b332 195d 0e3e
000001e0: 8f27 9fb1 18c2 6e3b 7c8d 1e3d 8c7c e03b
000001f0: 50ce 5b3d eb81 16bc 09bd e53c 2a75 fe3e
00000200: ab77 633e dc76 f338 3794 f73d 95a7 013e
00000210: 6200 8a3a 78f6 fe3c 590b b93d e407 ec3d
00000220: e077 363a b5da f13a 02ae 3c3e e823 763e
00000230: a3ff 6833 1757 b23a 5bc5 b03b cb25 433d
00000240: 2562 223e 1ed9 393e 38b0 3e3a 72d3 a93e
00000250: 3567 f33d 7c5b 8a39 3617 c43d e347 8b3d
00000260: 5ca7 e737 3fb0 a83b 98e3 4b3b 8586 2035
00000270: 47d4 d93c 60af d3b6 548f 893e 6356 ec3c
00000280: e974 173e 6706 f03d 8387 ff3c 670f 55b8
00000290: f66b 943a 3996 d337 4bed 6338 5c12 aa3d
000002a0: 7715 ed3d 0266 47bc 840a cd3c 8e00 053f
000002b0: 4bf3 6f39 1ef8 a93c 88e7 8d3e 93a9 f23d
000002c0: 06bc 7c3e 3ffe de3d 1e6d 74bc 70c3 553a
000002d0: dcd8 073b 37e3 083e 3745 39bb 7585 293d
000002e0: dd01 b03b 7c6d f73e ce12 b53e 0ac3 4bbb
000002f0: f60a 993e 53c1 103b fad8 943a 4c9b 17bb
00000300: 62af 843e e3bb 0d3e 9569 123c 4b58 2a39
00000310: 1fe2 ed3d d296 0c3a b97a ad3e a12a 493e
00000320: a514 873e 6949 b33d 2f2a a23e 147f 993b
00000330: 1145 573a 82e4 45b4 0d8b 5a3e c062 cf3e
00000340: 0de4 b439 73de 8a3d b3ec c63d e190 b43a
00000350: 4826 f0b5 4262 4a38 7f22 7fbb f33b 553c
00000360: c87c 8c3e 78d1 1d3e 6cf9 833e b77d 58ba
00000370: 384d 2bbb fc43 95b2 12d9 403d 5d72 e63b
00000380: c202 8c3d 14c3 743e 93b3 cc3e 1cd0 b43c
00000390: 3d8a 663e 62af d83c b8dd 033e e66c 0aba
000003a0: dabf 003a 43c9 243c a11b 6b3a 0373 1f3e
0.25494838 0.02712993 0.22450344 0.000137783 0.14290811 0.105501175 0.12553225 8.7047636e-05
0.26521012 0.0022574237 0.14850678 0.28297833 0.00062603405 0.018682057 0.027534 -3.1516338e-09
0.0024210878 3.7830176e-08 -0.01159825 0.0007896639 0.010713233 0.005425105 0.122157946 0.0143602295
0.052376963 -0.0009425059 0.0774563 0.0009423786 0.0010124126 0.000112935544 0.0018590427 0.06407359
0.03402051 1.3416111e-10 0.0020787076 0.055725664 0.00035415968 0.0015032024 0.002618431 0.10802727
0.2255 0.13960417 0.00016902997 0.20013605 0.0006248089 0.07420916 0.053764183 -6.781967e-05
0.0061668507 0.029376704 0.013177596 0.33852714 0.009143448 0.11732656 0.20139946 0.18962294
0.21207742 0.38939232 0.10841934 0.063582875 0.00041443578 0.0889735 3.2058234e-10 0.05502931
0.23997517 -9.515929e-06 0.008984829 3.390081e-07 0.02889296 0.24886042 0.020019522 -0.00017108305
0.0017066968 0.2921668 3.9939543e-05 0.015214973 0.0002041439 -1.1625908e-05 0.0007813642 -4.0031458e-14
2.2507229e-05 0.13746639 0.008247743 0.002838682 0.10245786 0.057830445 0.20209661 0.05630462
0.0013054531 0.0044273175 0.0014297484 0.036669914 0.06994036 0.047555942 0.13386665 0.15548457
0.14978977 0.34549567 0.02299048 0.015080973 0.017816724 0.0127809765 0.012211388 1.8905504e-11
0.00021706095 0.06844244 -0.00016127535 1.11387935e-05 0.04313383 -0.00020869552 0.06695873 0.0069295373
0.009132587 4.7188095e-07 0.00088836753 0.00021164335 0.20975506 0.024771145 2.0890598e-08 0.13902701
-4.6320063e-09 0.0036431607 0.03870915 0.0068507846 0.05366355 -0.009186248 0.02804424 0.49698764
0.22213618 0.00011609282 0.120888166 0.12661584 0.0010528679 0.031123385 0.090353675 0.115249425
0.0006960612 0.0018452021 0.18425754 0.24037135 5.424921e-08 0.0013606277 0.0053946204 0.047643464
0.15857752 0.1814923 0.00072741834 0.33169132 0.118849196 0.00026389572 0.0957474 0.06800821
2.7615279e-05 0.0051479633 0.0031110998 5.9800396e-07 0.02659048 -6.3087064e-06 0.26867163 0.028849786
0.14790691 0.11719971 0.031192547 -5.0797502e-05 0.0011323679 2.5223113e-05 5.4342014e-05 0.08304283
0.1157636 -0.012170317 0.025029428 0.5195397 0.0002288345 0.020748194 0.27715707 0.1184875
0.246811 0.10888337 -0.014918594 0.00081544276 0.0020728623 0.13367926 -0.0028270015 0.04138704
0.005371316 0.48325717 0.3536591 -0.0031091594 0.29891175 0.0022087886 0.0011356168 -0.0023133336
0.25915056 0.13841204 0.0089363055 0.00016245355 0.11615395 0.000536305 0.33882692 0.19645168
0.26382938 0.08754236 0.3167281 0.0046843383 0.0008211891 -1.8430185e-07 0.21342106 0.40505028
0.00034502186 0.0678071 0.097131155 0.0013776087 -1.7892535e-06 4.8252063e-05 -0.0038930473 0.013014781
0.2743895 0.15411937 0.2577623 -0.0008258479 -0.0026138555 -1.7376799e-08 0.047082014 0.007032676
0.068364635 0.23902541 0.39980754 0.02207189 0.22513671 0.026450817 0.12877548 -0.00052805094
0.00049114006 0.01005775 0.00089686556 0.15571217

encoder.norm.bias f4 [236]
00000000: a0fa 9b3e d213 c4bd 7e56 9b3e b8f4 b9bc
00000010: 5d5d c0bd 78eb 773e b84a fdbb 719a 63bb
00000020: a1be 023f a95a 73bc 582a 3d3e 38ca bc3e
00000030: 795e f9ba 7b8d 1cbd 2592 97bd 2b1f e6b8
00000040: 36c5 5fbd 43b3 ffb6 3fff 08bd cb45 c4bc
00000050: ace1 13bc 2f44 a6bc 5fbf 163d 23dd b1bc
00000060: e606 173d 47f6 c7bb b8eb 95bd 6182 5bbc
00000070: 5d34 07bd 5f62 0abe 7634 85bc e80d eebd
00000080: 4c73 86bd bc98 e9b5 abee c1bc 467c 75bd
00000090: ab94 a5bb 27d0 92bc f028 d5bb a56c aabd
000000a0: 811d 6f3c a56c 473e f002 66bd 8e8b e33e
000000b0: ce82 fabd 8c81 813d 2bce d7bd bb15 2cb9
000000c0: 7265 38bd 1b28 2cbd 81eb 943d 30e0 703e
000000d0: 806a d0bc de87 9b3c a52f 04bd 0c24 8e3e
000000e0: 657a 1f3f 584c 8f3e c191 92bd 0fda 77bd
000000f0: 93f9 1abc 5596 a5bd a7e4 90ba 5a12 63bc
00000100: f2e8 883d a9a2 4bb8 0dfe 60bd a8f9 01bb
00000110: cc3a 46bd 9600 313e d9a9 41bd 04a6 84bb
00000120: 084c 7bbc 0a90 9ebd 26e5 9bb8 920e 95bd
00000130: 8d77 62bd b6e3 aabc 5318 60bc 5f2d 14b9
00000140: 7e42 01bd e4fc aa3d 8624 0dbd 5047 e1bb
00000150: ac4b c3bd f149 1ebd a9d3 b13e 7594 f4bc
00000160: 5b3d 4ebb 55bb 8ebc 1698 89bc 9c83 c1bc
00000170: bbd7 a63d 4148 adb9 26ad 8a3e 053a 1c3d
00000180: 5e65 4f3e 0533 d43e 5f98 d2bd 302e 0ebd
00000190: 4c49 b5bd 9f2c d5bc 03e9 39bd 4bcd d4bb
000001a0: 1108 48ba 6214 05be 5544 bfbc 22ad a9ba
000001b0: d1d5 3bbd 85c5 22ba 7e2c d83d b9e7 45bc
000001c0: 0074 debd 7642 1fbd 0693 9fbd 5446 cebc
000001d0: 4a06 26be 9138 613d e8e2 64b9 88e1 c1bd
000001e0: c48b 51b5 5aa5 bdbd 1d04 1ebe a0a3 9cbc
000001f0: b56d 573d 4cc1 acbb 3ea8 0bbd f034 2c3f
00000200: 2434 dc3e 69c6 2aba 81af 03be 0e48 3d3e
00000210: ccb3 76bb ca10 94bd aaab c9bb 3cb7 713e
00000220: db34 4abc c455 e7bb 99ba 433e b300 423e
00000230: 90e0 a6b4 1194 92bb 9b3a 66bc 0ae2 8f3d
00000240: 46c8 afbd 8161 883e 1201 79bb 9cd8 f23e
00000250: 7919 d03e 7cd1 93ba 6a29 e33d 7937 08bd
00000260: 0558 9fb8 4a40 3cbc 28c3 79bc a5fe efba
00000270: d812 a5bd 5394 93b8 f310 4bbe 9765 80bc
00000280: f6ff 123e 7f76 04be 524b a73c f3ca e1ba
00000290: b7de 5cbc ff77 80bb 180c 93ba 8ce6 37bd
000002a0: 7d55 3e3e c463 bdbb f4a7 153e 5817 a7be
000002b0: 30bf e2bd 33e1 6bbd a493 413e 1c51 c43e
000002c0: 6bc3 ff3c c8f1 573e 9635 80bd 05c0 7ebb
000002d0: b992 ca3b a86b 86be 92f7 a13d 33bc cdbd
000002e0: e5b4 f2bc 7d73 113f 62dc c73e bec2 90bc
000002f0: 69c5 39be dc23 abbc 7744 8ebb d7ef a2ba
00000300: 7eea 033f 5e98 8bbd 362b 0dbd addf a0b9
00000310: 32e9 ae3d d612 00bb bcbe c23e 71c5 183e
00000320: 4013 c93e 984b 4ebe e22e 9c3e 0bf0 12be
00000330: d0fb 6bbc 539b 3ab5 d4fe 9dbe 4a81 4b3f
00000340: c71a 1fbd caa4 e8bc 843a dd3d eb2f 5ebb
00000350: f9e3 40b8 a8dc 61bb e297 36bc 66dd 03bd
00000360: 8d0f aa3e 8530 883e 2d58 143f 6f0b acbb
00000370: 4be8 eabb 185d 6fba e5ff 09bd 4460 16be
00000380: 8b43 65bd c4e4 76bd ea93 ee3e 2c70 3cbd
00000390: dd79 09be fa8f db3b 75e9 c4bd c246 eaba
000003a0: 8651 35bb e394 35bd c10c 7bbc 4962 36be
0.3046465 -0.09574093 0.30339426 -0.022699699 -0.09392808 0.24210918 -0.0077298544 -0.0034729505
0.51072127 -0.014853158 0.18473184 0.3687303 -0.0019025347 -0.038220864 -0.07400922 -0.0001097306
-0.054631434 -7.620461e-06 -0.033446547 -0.023959061 -0.009025972 -0.020296184 0.0368036 -0.021711892
0.036871813 -0.0061023566 -0.073203504 -0.013397784 -0.033008922 -0.13514088 -0.016260367 -0.11623746
-0.0656496 -1.7404304e-06 -0.023673376 -0.05993297 -0.005053123 -0.01792152 -0.0065051243 -0.083215035
0.014594437 0.19475038 -0.056155145 0.4444241 -0.1223198 0.06323537 -0.1053737 -0.00016411293
-0.04501862 -0.042030435 0.07271481 0.2352302 -0.025441408 0.018985685 -0.032272 0.27761877
0.62296134 0.27987933 -0.071567066 -0.06051069 -0.009458917 -0.08085314 -0.0011054472 -0.013859356
0.06685056 -4.855046e-05 -0.05492978 -0.0019832645 -0.048395917 0.1728538 -0.04728112 -0.004048111
-0.0153379515 -0.07742317 -7.433658e-05 -0.0727817 -0.055289794 -0.020860534 -0.013677674 -0.00014131282
-0.031557553 0.08349016 -0.03445866 -0.006874956 -0.09535918 -0.038644735 0.34731796 -0.029855946
-0.0031469676 -0.017423311 -0.016796153 -0.023622327 0.08146616 -0.00033050965 0.27085227 0.03814127
0.20253512 0.41445175 -0.10282969 -0.034712017 -0.08851871 -0.026022254 -0.045388233 -0.0064941994
-0.00076305965 -0.12996057 -0.023348013 -0.0012945274 -0.045858208 -0.0006209242 0.10555361 -0.012079173
-0.10861969 -0.03888174 -0.07791714 -0.02518002 -0.16213337 0.054985587 -0.00021828304 -0.09466845
-7.8061953e-07 -0.09260054 -0.15431257 -0.019120991 0.05259486 -0.005272066 -0.034095995 0.67268276
0.4300853 -0.0006514551 -0.12859918 0.18484518 -0.0037643788 -0.07229765 -0.006154497 0.23605055
-0.012341703 -0.0070597846 0.1911415 0.18945579 -3.10833e-07 -0.0044732173 -0.014052059 0.070255354
-0.08583121 0.2663689 -0.0037995023 0.47430885 0.40644434 -0.0011277641 0.110918835 -0.033256028
-7.598106e-05 -0.011489937 -0.015244283 -0.0018310143 -0.08060235 -7.037134e-05 -0.19830684 -0.015673442
0.14355454 -0.12935828 0.020421658 -0.0017226621 -0.013480834 -0.0039205546 -0.0011218814 -0.0448976
0.18587299 -0.0057797153 0.1461485 -0.32634997 -0.11071622 -0.057587814 0.18903977 0.38343132
0.031221112 0.21088326 -0.06260221 -0.0038871777 0.0061820415 -0.2625401 0.079085484 -0.10045662
-0.029627273 0.56816846 0.39035326 -0.017670985 -0.18141712 -0.020891123 -0.0043416577 -0.0012431097
0.5152968 -0.06816171 -0.034465037 -0.0003068423 0.08540572 -0.0019542477 0.38036144 0.14919068
0.392725 -0.20146024 0.3050452 -0.14349382 -0.0144032985 -6.9516426e-07 -0.3085848 0.79494154
-0.038843896 -0.02839889 0.108021766 -0.0033903073 -4.5988683e-05 -0.0034463797 -0.01114461 -0.032193564
0.3321499 0.26599517 0.57947046 -0.0052503864 -0.0071688048 -0.00091309985 -0.033691306 -0.1468516
-0.055972617 -0.06027676 0.46597224 -0.046005413 -0.13425393 0.006700513 -0.09614841 -0.0017873871
-0.0027667 -0.044331443 -0.015322865 -0.1781093

encoder.norm.running_mean f4 [236]
00000000: 0e2e 6a3d 3b86 18bf 6c65 a1c0 c8c3 babf
00000010: d8b5 c240 e1be 5440 27ae 2e40 bc32 08be
00000020: 7d20 81bf d165 0abd 8baa c1c0 c1a7 c4c0
00000030: 07e0 dd3d e975 d03f 363b b93f 5ed4 05c1
00000040: e699 b9bc c182 0b40 8861 9cbe 605a 7f3e
00000050: 50cc 8f3f ada9 ad3f 9a1d a340 598c 403b
00000060: 786f 8440 eb58 49be 7a32 ac3f 51e1 b4c0
00000070: 929a 6fbe 21d5 ffbf fdd8 88be 5bc9 1c40
00000080: c374 903f e1f2 2241 34af 47be 874e 1b40
00000090: 53dd 473c f20d 31be 39db 6d41 c746 1040
000000a0: 9536 db3e 1f51 cb3f 7e2b b9be 83de bd40
000000b0: ba53 05bf a68c 4d3f 586e b63f 5a5e 97c0
000000c0: e5a7 fb3c 6794 0640 27e7 87c0 1db3 6441
000000d0: 8d4a 823e b62f ce40 2f7e 16c1 0f23 79c0
000000e0: 298b 0241 ec9f 5841 53c3 f7bf 01b1 95bf
000000f0: ce45 383e 3228 1d40 cb9e bebb a94d 0c41
00000100: 18f0 3841 9ca6 4e3f f3ac b3bf ca22 19be
00000110: 7141 8840 6e2b c0c0 c402 97c0 3f54 753f
00000120: 60d2 57c0 0973 43c1 2605 573c ec4c 2dc0
00000130: 0cb5 b6c0 e6e8 a4be 1138 b1be 2a41 643b
00000140: 7f0a e83f f8c5 77be 3622 13be bdd9 2a40
00000150: 6d0e d33f 9bce 5a40 e036 24c1 8681 3ec0
00000160: 6e1c 8140 3154 11c1 dcc9 2e3e deb3 783f
00000170: 0898 d6bf abad 52bf 902c 4dc1 2707 9f40
00000180: 1db0 c2c0 2649 e8be 0c93 f1bf 5b43 a43d
00000190: a56b 1840 a460 ec40 339d 7cbd fdb5 4f41
000001a0: 7a40 373b 411a 2a40 2a0c 1e40 01f9 733c
000001b0: 8809 29c1 1875 b43d a8be 53c1 e9be bb3b
000001c0: c4cc 0240 c8db ba3d 1f2d 3540 5bf6 f23f
000001d0: 6c1c 9040 8892 9cc0 377c 30be 9504 5f40
000001e0: 3bde 153d 9346 06c0 43ab 44bf db7d d13f
000001f0: 43cc b040 dbda e0be bd93 d73f 7a1b abc0
00000200: d81f 9b3e 9865 c6bb 88ab 22c0 3620 9ec0
00000210: 9067 0a40 c69a bbbf adca 4440 9f79 eec0
00000220: b939 c33f 28f8 8a3e 9a15 03c0 bc3a 2ec1
00000230: 7050 c9be 6e88 5941 269b 9b3f 2ac5 fbc0
00000240: 766b 7ac0 ffa6 e23f 8767 1840 22c3 763e
00000250: b744 ac40 9f35 03bd e4f9 b4bf 54ef 9440
00000260: a4fc e53f 2b0b 6040 a191 79be 490b 4a3d
00000270: 8329 fa40 16ea aabc 2b41 b640 a9a2 a23f
00000280: 7760 49c0 bb63 51c0 33c2 a4bf 94e6 3ec1
00000290: 9e37 8137 896c 2641 d3ec 7d40 a687 91c0
000002a0: 0936 6ec0 ed18 00bf c7a8 7040 0e15 cbc0
000002b0: 8bfb 9cbf 3722 8e40 52bb 1941 78c6 5b40
000002c0: 796b a93f d363 19c1 22fb 4c40 3faf 76c0
000002d0: a1da 0cbe f8bb debf 0ba9 6ec1 3df4 8a3f
000002e0: 4f94 0239 c449 1d3e 425e aabf 3986 83bf
000002f0: 5963 b140 9310 7dbf 0f04 f2bf cfeb 4aba
00000300: 4003 75c1 f942 2040 424f 5cbe 54b7 7739
00000310: 6788 a440 8e47 af3d afde e6bf 487b 6040
00000320: 817e bcc0 0d1c 9140 6585 883e e59f 3abf
00000330: 8ea4 27c1 2172 dcbb 402e 14c0 cadf a3c1
00000340: 8424 afbd a86e 2940 49c9 9d40 02cf 7540
00000350: 4813 d6ba 8fc3 ae40 d624 01c0 e833 253f
00000360: d8c6 3a3d baec d740 c776 1840 e58c b7bf
00000370: 4086 86be b4e0 dbbf c0c1 813f c7aa f0bf
00000380: aac6 f440 307c 79c0 e2ce 6041 36e7 a13f
00000390: fffa 94c0 5eee b240 91cc 1241 4edf 37c1
000003a0: eb6d c140 b1a0 4ac0 13e3 26c1 3b84 b03f
0.057172827 -0.5957982 -5.0436306 -1.4590998 6.0846977 3.3241503 2.7293794 -0.13300604
-1.008804 -0.033788506 -6.052068 -6.145478 0.108337454 1.6285983 1.4471195 -8.364347
-0.022656392 2.1798556 -0.3054316 0.24936819 1.1234226 1.3567406 5.0973635 0.0029380529
4.138607 -0.19662826 1.3452904 -5.6525044 -0.23398808 -1.9986917 -0.2672805 2.4497898
1.1285633 10.184297 -0.19500428 2.426668 0.012198764 -0.17290476 14.866021 2.25432
0.4281508 1.5884131 -0.36165994 5.933412 -0.5208088 0.8029274 1.4252424 -4.7302675
0.030719707 2.1028078 -4.246967 14.293729 0.25447503 6.443324 -9.405807 -3.8927648
8.158975 13.539043 -1.9356483 -1.1694642 0.17995378 2.4555783 -0.0058172694 8.76896
11.558617 0.80722976 -1.4037155 -0.14954677 4.2579885 -6.0053015 -4.7190876 0.95831674
-3.3722153 -12.215585 0.013123786 -2.70782 -5.7096004 -0.32208937 -0.34613088 0.003482888
1.8128203 -0.24196613 -0.14368519 2.6695397 1.6488777 3.4188602 -10.263397 -2.9766555
4.0347204 -9.083055 0.1706919 0.97149456 -1.6765146 -0.82296246 -12.8233795 4.969623
-6.083998 -0.45368308 -1.8873 0.080206595 2.38157 7.386797 -0.061673354 12.981931
0.0027962015 2.6578524 2.4694924 0.01489091 -10.564827 0.08811396 -13.234047 0.0057295454
2.043748 0.09123951 2.830879 1.8981432 4.5034695 -4.892887 -0.17234884 3.4846547
0.03658889 -2.0980575 -0.76823825 1.6366533 5.5249343 -0.43916973 1.6841961 -5.347104
0.30297732 -0.0060545914 -2.5417194 -4.941432 2.162571 -1.4656608 3.0748703 -7.4523463
1.525199 0.27142453 -2.0481935 -10.889339 -0.3931918 13.595808 1.2156723 -7.867818
-3.912809 1.7707213 2.3813188 0.24097875 5.383388 -0.03203356 -1.413876 4.654215
1.7967725 3.5006816 -0.2437196 0.04932717 7.8175673 -0.020863574 5.695455 1.270589
-3.1465127 -3.271712 -1.2871765 -11.9312935 1.5403897e-05 10.401498 3.9675796 -4.5478086
-3.722048 -0.50038034 3.7603014 -6.34632 -1.2264265 4.4416766 9.6082325 3.4339886
1.3235923 -9.586871 3.202828 -3.8544462 -0.13755275 -1.7401114 -14.91627 1.0855786
0.00012453015 0.1536017 -1.3310015 -1.0275337 5.5433774 -0.98853415 -1.8907489 -0.00077408267
-15.313293 2.5040877 -0.2151461 0.0002362405 5.1416507 0.0855857 -1.8036708 3.5075245
-5.8904424 4.534674 0.26664272 -0.7290023 -10.4776745 -0.0067274724 -2.3153229 -20.484272
-0.08551887 2.647379 4.930821 3.8407598 -0.001633265 5.461372 -2.0178733 0.6453233
0.04559979 6.7476473 2.3822496 -1.4339873 -0.262743 -1.7177949 1.0137253 -1.8802117
7.649251 -3.8982048 14.0505085 1.2648685 -4.655639 5.5915976 9.174943 -11.492018
6.0446677 -3.1660578 -10.430438 1.3790354

encoder.norm.running_var f4 [236]
00000000: 1c3b 803f 98c2 e43c b251 4440 9f9f 8c3d
00000010: 1274 8b3f 2080 193f 6dba a73e 3efa 1f3a
00000020: a0d5 5140 012a d739 2e18 8c3f a4f8 6440
00000030: a151 353a 2169 b23d 2cb3 933d ea19 0d40
00000040: 4058 263c 4495 163e 990f 543c 4a2c 843b
00000050: 5380 213d 2600 6a3d 2179 0f40 4d42 9d34
00000060: 0035 103f 1ebd 963a c93a 7d3d 139d 7f3f
00000070: aa8f db3a eff0 ed3d e348 503b ce95 5c3e
00000080: dd57 313d 0b74 4e40 3710 bf3a e0c5 323e
00000090: 66d9 9c36 f637 763a 1a77 d140 f837 313e
000000a0: fb3b 163f ac16 0c40 6f14 823b 32ef 8140
000000b0: 22bc 043c 51ba 313e c364 9b3d 92ef 333f
000000c0: 34a4 4638 caa1 093e 6424 f73e 48a9 a940
000000d0: 5a05 133b 9aef 8c3f 9ae9 1140 91e5 be3f
000000e0: 8472 2040 d56b 0d41 3d21 6c3e 8195 983d
000000f0: 1b86 223c 9cea 353e dffe a338 e969 1740
00000100: a6be 8040 b510 ab3c 4d3c bc3d 6507 2f3a
00000110: 09e2 053f c366 2a40 0e37 603f 34f9 f23c
00000120: 48c7 bc3e 364a 7540 745b a037 82f8 643e
00000130: 439b 903f efea 263e b298 763b 54ca 1038
00000140: 2a34 0a3e d015 823e e32f 283a 1828 853e
00000150: d97d ba3d b50b b43e 9905 3c40 2ec7 653e
00000160: 2ca1 203f bd0b 2440 b3e4 713a 3e74 063d
00000170: d331 963e e81d f93d 6423 8740 d130 2f3f
00000180: ba78 813f 305b 5b40 041c e63d c19a 8939
00000190: 2fe9 f33e d43b d23f 08fe f838 1832 b640
000001a0: 88eb a037 8a74 7a3e a3a0 573e 17b2 9738
000001b0: 9780 5740 3d3c 693a 253e ac40 071e 8c35
000001c0: 12e2 0c3e dcd0 0f3c e1b3 a43e a0c7 1a3e
000001d0: 4f82 2b3f 0efc 253f d724 733a 9c4b ad3e
000001e0: df44 3338 c4a8 033e 92d6 e03c aabe ea3d
000001f0: c9ae 4f3f 83d3 eb3b 3536 a93d 30de 0d41
00000200: cd3a 9f3f 3bb7 8d36 60dd ff3e ba16 873f
00000210: 9677 843e a2a4 b13d 6421 133f 4fc3 ca3f
00000220: dd96 ad3d 4969 203b 77d3 8f3f 551d 4d40
00000230: 0d9d e73c 3919 b340 0734 3f3d 7c4b d83f
00000240: 0df2 683f f443 b43f afe5 3f3e 4672 fa3f
00000250: ac31 3540 e2da 0b38 9762 5d3e 92a1 233f
00000260: 2364 c23d c689 c83e 1150 f53a e3d3 bf38
00000270: 0b6a ef3f b831 193a 704e 8e3f 572d 3e3d
00000280: 29a3 383f b4e1 fb3e 489f 873d d361 9440
00000290: 5dfe 022d 72dc 6540 6977 153f b1a2 0e3f
000002a0: 9648 1a3f ab4e f73b f839 793f 9262 b340
000002b0: f4b6 923d ab89 1c3f 8abe c83f 67e8 433f
000002c0: ea28 4e3f 827c 1840 ad4a 983e 6199 e53e
000002d0: 60be e939 5700 903e 4645 ef40 e582 253d
000002e0: a4e8 6c31 6430 9640 1e94 2040 9417 113d
000002f0: 511b 8f3f a58e 0b3d dcb0 c43d 1b65 a132
00000300: 13bc c540 f7b6 633f 6849 d83a 92b5 0b33
00000310: e723 b53f 3fe4 7339 ef76 1140 0a6e 003f
00000320: 66af 6940 dfff 403f de67 843f 4594 af3c
00000330: e0ea 7a40 d6df f136 6c94 413f 4963 2b41
00000340: 345a 6439 1ecd 763e 0be0 223f 4c30 ef3e
00000350: 678d af33 dcfa 743f b112 033e c53d 583c
00000360: e28d 0740 e620 7f40 1905 2a40 1655 923d
00000370: 1154 3b3b 3478 bd3d 8e7f 033d 8380 db3d
00000380: a50b ea3f 360f 8f3f c0a1 2941 291b 6b3d
00000390: 74b3 1b40 ffb8 813f 7756 3740 d92c 8440
000003a0: 22e7 963f 3bc5 a33e bcda 5940 c9ea 523e
1.0018039 0.02792482 3.0674863 0.06866383 1.0894797 0.5996113 0.3275942 0.00061026576
3.2786636 0.0004103929 1.0944879 3.5776758 0.00069167657 0.08711458 0.07211909 2.2047067
0.010152876 0.14705378 0.012943172 0.0040336 0.03942902 0.057129048 2.2417681 2.929177e-07
0.5633087 0.0011500453 0.06182364 0.9984905 0.0016751189 0.1161822 0.0031781725 0.21541521
0.043296684 3.2258327 0.0014576976 0.17458296 4.674471e-06 0.0009392494 6.545789 0.17306507
0.5868527 2.1888838 0.003969721 4.0604486 0.008101495 0.1735623 0.07587578 0.7028743
4.7359805e-05 0.13440624 0.4826995 5.301914 0.002243361 1.101062 2.279883 1.4913808
2.5069895 8.838826 0.23059554 0.074503906 0.009919669 0.17765278 7.819919e-05 2.3658392
4.0232725 0.02088199 0.09191189 0.0006676822 0.5229803 2.662522 0.87584007 0.029659845
0.3687079 3.8326545 1.9116073e-05 0.22360423 1.1297382 0.16300558 0.0037627635 3.4520708e-05
0.13496462 0.25407267 0.0006415827 0.26007152 0.09106035 0.35165182 2.9378417 0.22439262
0.6274593 2.5632164 0.0009227499 0.0328257 0.29334888 0.12163907 4.22307 0.6843386
1.0114968 3.4274406 0.11235812 0.00026245977 0.47638842 1.6424508 0.000118728785 5.693615
1.9183164e-05 0.24458519 0.21057372 7.233413e-05 3.3672235 0.0008897221 5.382586 1.0439552e-06
0.13758114 0.008777823 0.32168487 0.15115213 0.6699571 0.6483773 0.0009275204 0.33846748
4.2741067e-05 0.12857348 0.027446065 0.114621475 0.81126076 0.007196845 0.08262292 8.866745
1.243982 4.2234583e-06 0.49973583 1.0553811 0.25872487 0.08673979 0.57472825 1.5840853
0.084760405 0.0024476817 1.1236409 3.2049153 0.02827313 5.596829 0.046680477 1.6898036
0.9099434 1.4083238 0.18739961 1.9566123 2.8311567 3.3344033e-05 0.2161964 0.6391841
0.09491756 0.39167613 0.0018715878 9.147057e-05 1.8704237 0.00058438955 1.1117687 0.04642996
0.7212396 0.49195635 0.06622177 4.6369414 7.4461244e-12 3.59158 0.5838533 0.55717
0.6026701 0.0075472197 0.9735408 5.6057825 0.07163802 0.61147565 1.5683148 0.7652649
0.8053118 2.3825994 0.29744473 0.4484358 0.00044583064 0.2812526 7.477206 0.040408034
3.447476e-09 4.693407 2.5090404 0.035422876 1.1180211 0.034071583 0.09604046 1.8788844e-08
6.1792083 0.8895106 0.0016501369 3.2528597e-08 1.4151582 0.00023259314 2.2728841 0.50167906
3.6513305 0.7539043 1.0344198 0.021433005 3.9205856 7.2084176e-06 0.756171 10.71174
0.00021777378 0.24101683 0.6362311 0.46716535 8.1747935e-08 0.9569528 0.12800099 0.013198321
2.1180348 3.986383 2.6565611 0.07145135 0.0028584043 0.092514426 0.032104068 0.10717871
1.8284804 1.1176517 10.60199 0.05739895 2.432828 1.0134581 2.8646524 4.1304746
1.1789286 0.31986412 3.4039755 0.20597376
