checkpoints/ae_50%.pt (torch, 915163 bytes, 16 tensors)

encoder.linear1.weight f4 [236, 358]
00000000: 601f 04ba cfd2 043a 2ba5 5eb9 9bd0 d4b9
00000010: d265 bd38 9f1a ae38 3e82 a0bc fdef db3b
00000020: 539a a8bc e602 5a39 acf3 833a 65bc 8c3a
00000030: bfa4 a63a d491 4137 3ad7 593a 53eb 853a
00000040: 03ff bd3a d564 75b8 9b25 69ba 9926 2c3a
00000050: efc3 653a cef5 1c3b 4599 11ba 5349 13ba
00000060: aa2b 0cb9 dbc8 2cba 73af 9e39 7443 1b3a
00000070: badd 09ba 67c5 21bb 69aa 1fba 12b1 053b
00000080: c2d3 c83a 941b 9c3a 5ae1 18ba 6cc8 893a
00000090: 8d37 403c 17ce 05bb 3114 dd3a d0e4 c4ba
000000a0: 4788 4c3b 8dac 20ba b1cc 13ba 6040 6d39
000000b0: 7750 6cba 35da b33a d52c 773a 05a7 743a
000000c0: 5bb2 b7ba 114d 9e3a 0d66 7a3b 779f cb3a
000000d0: 195f 1b3a af48 a1bb 9c67 87b9 4672 8a3a
000000e0: 883e 43ba c0f0 aeba 39f9 9eb8 53d7 6db9
000000f0: cf0f 543a 2bb0 8cba 851e 90ba 426e 9cb9
00000100: 82c2 70ba 2003 6bba 3774 6eba 6a2d 41ba
00000110: e95b b4b9 43f5 cb39 c04d 8f38 04a4 df38
00000120: 41b7 0b3a 578e 94b9 479c 5fb9 4d53 52b9
00000130: 6c0a 3538 033e 39b9 40fe 1f3a 682c b63a
00000140: a9fc 2fb9 a826 b439 7769 94ba 5132 33ba
00000150: ead6 22ba 0804 2bba c4e4 3eba c528 11b9
00000160: 3e6f b6b9 53e8 e5ba 0adb 89b9 680c 89b9
00000170: 11ea 963a 716c 2bbb 0fac 793a 0308 12bc
00000180: 3496 1dbb e614 50bb d77a 50bb f418 1ab8
00000190: 3b95 03ba 6d7b 753d be98 e0b9 c40b babd
000001a0: 7ece 8cb9 085c 60b8 59b7 95bc 4e5f 093c
000001b0: e32f 44bb a3ea 973b 806d 22bb 5177 2c3b
000001c0: 0d30 bdba bdd2 1dba 237f 77ba 5689 a73b
000001d0: 46c6 1fba 0939 07ba 68a2 96bc e214 94ba
000001e0: 7b8b 083b 1c7a 603b 8907 cd3a 262d 1a3b
000001f0: af79 e03a 9783 b7bd 14ac cbbd 5a5c aebc
00000200: 2ab6 50bc a7ba 34bb 571b a9bb 2fd1 1bbb
00000210: df01 173a a61d b438 8c04 60bb fb67 6ebb
00000220: f4df 74bb f06c 5cb9 6ddc f2b9 4bf8 43ba
00000230: c234 6cbb bbfb a4ba 9735 4aba be2e 3c3c
00000240: 8533 2f3c aeb7 283c bb8b da3b 0b77 e1bb
00000250: e253 bc39 8efd 133c e59a e6bb 9bdd a5bb
00000260: bdd2 943a 32f0 eb3b 2329 593c d67a 003c
00000270: 2466 d23b b5b7 91bb eab8 bdbc 8e0d dfbb
00000280: d79d 0f3c 846d 00bc 26e5 7c3a 814e aeb9
00000290: ffc7 1eba 703e 3cba f3cb cab9 8fd1 82b9
000002a0: 5bd7 a539 f8f4 ddb9 e731 0f3a d67b 5fb8
000002b0: 2f77 6a3a 7c42 df39 b460 2539 39e1 6eb7
000002c0: c4a5 3137 e7ed 703a 3470 71ba 83dc 053b
000002d0: 1a7f 9e3a 9bb3 13ba 24db 4639 ed86 833a
000002e0: 744c 86ba 8ca6 073a 72c6 0e37 c585 89b8
000002f0: b6e7 49b8 c6f4 8bbc 1d71 ab3c c765 24b8
00000300: 94c1 9db7 ef18 6037 71a9 a4b5 a9ce 89bb
00000310: f398 8c38 59c1 e7b6 2385 63b7 ba6c 17b9
00000320: d187 8c37 49b5 0f38 7113 5138 f45e 08b9
00000330: 9542 33b9 e335 10b8 f2b8 0db8 3552 4d38
00000340: 99ce 8237 5a7a 74b8 d963 67b7 9bf5 8037
00000350: c5b1 c337 e4a0 c137 d902 cbbd 2bef e5bd
00000360: 3a42 9938 a252 fbb8 c068 c73a e6b6 04b8
00000370: e3ae 66b7 efe4 90bb bff8 3db8 d84b 0f39
00000380: 2c8e deb8 cfa6 3a3c 3116 193b e84d 8fb8
00000390: 10c2 f43d 7491 cfbc 5889 75bc 749c 0e3b
000003a0: 5cfc 16b8 a5c6 2c39 b701 b339 82d6 e738
000003b0: 5cef 50b8 120e bcb7 5ffb 9937 672e 45b8
000003c0: 22aa 6ab8 d3a8 0d3a 2655 6bb9 ac85 0a3a
000003d0: 462d 82b9 b592 2c3a 9292 53ba 1221 5eba
000003e0: d0cb b1b8 4151 38b9 222b e539 0f00 7a3a
000003f0: 0e5d 263a 4e2c 95b9 7fa2 feb8 2215 11ba
-0.00050400756 0.00050668133 -0.000212331 -0.00040591214 9.031188e-05 8.301925e-05 -0.019593354 0.0067119584
-0.0205814 0.0002079118 0.0010067127 0.0010737298 0.0012713893 1.153765e-05 0.00083099643 0.0010217227
0.0014495555 -5.850646e-05 -0.0008893848 0.0006567031 0.0008764853 0.0023950222 -0.000555415 -0.0005618531
-0.00013367707 -0.0006591209 0.00030266828 0.0005922832 -0.0005259175 -0.0024684311 -0.0006090762 0.0020399732
0.0015321898 0.0011910074 -0.000583192 0.0010512001 0.011731994 -0.0020417029 0.001686698 -0.0015021805
0.0031209157 -0.00061292277 -0.00056381064 0.00022626063 -0.0009014676 0.0013721647 0.0009428983 0.0009332749
-0.0014014946 0.0012077411 0.00382078 0.0015535195 0.00059269514 -0.0049219946 -0.00025826402 0.0010562621
-0.00074479776 -0.0013346896 -7.5804484e-05 -0.00022682296 0.0008089514 -0.0010733654 -0.0010995424 -0.00029836787
-0.00091842574 -0.0008965004 -0.0009096297 -0.0007369133 -0.00034400754 0.00038901911 6.8332534e-05 0.00010664019
0.0005329736 -0.0002833481 -0.00021325155 -0.00020058193 4.316347e-05 -0.00017666076 0.0006103255 0.0013898732
-0.00016783424 0.00034361077 -0.0011322935 -0.0006835806 -0.0006211834 -0.0006523733 -0.00072820135 -0.00013843465
-0.00034796627 -0.0017540551 -0.00026293873 -0.0002613992 0.0011513849 -0.0026157165 0.0009524235 -0.008913043
-0.0024045827 -0.0031750738 -0.00318115 -3.67397e-05 -0.00050194905 0.05993216 -0.0004283841 -0.09084275
-0.0002685673 -5.3491472e-05 -0.018275904 0.008384539 -0.002993577 0.004636125 -0.0024784505 0.0026316235
-0.0014433876 -0.0006020477 -0.0009441247 0.0051128073 -0.00060949137 -0.000515834 -0.018387988 -0.0011297727
0.002083509 0.003425247 0.0015642504 0.0023525446 0.0017126108 -0.08960646 -0.09944931 -0.021284271
-0.012738744 -0.0027577074 -0.00516073 -0.0023775806 0.00057604717 8.588591e-05 -0.0034182398 -0.0036377895
-0.0037364932 -0.00021021417 -0.00046322067 -0.0007475658 -0.0036042188 -0.0012587229 -0.0007713674 0.011485754
0.010693436 0.010297699 0.006669489 -0.006880646 0.00035920652 0.00903262 -0.007037508 -0.005061818
0.0011354309 0.0072002644 0.013254437 0.007841786 0.0064208675 -0.0044469484 -0.023159463 -0.0068070358
0.008765659 -0.007838611 0.0009647183 -0.00033246356 -0.00060570234 -0.0007180935 -0.00038680396 -0.00024951666
0.00031631705 -0.0004233492 0.0005462453 -5.3282674e-05 0.00089441513 0.0004258341 0.00015771651 -1.4238344e-05
1.0588617e-05 0.00091907236 -0.000921014 0.0020425625 0.0012092323 -0.0005634368 0.00018964388 0.0010034718
-0.0010246173 0.0005174659 8.510064e-06 -6.5575856e-05 -4.8137932e-05 -0.01708449 0.02092796 -3.9195435e-05
-1.8806e-05 1.3357246e-05 -1.2268266e-06 -0.004205544 6.704209e-05 -6.906845e-06 -1.3561253e-05 -0.00014440986
1.6752545e-05 3.426269e-05 4.984759e-05 -0.00013005343 -0.00017095574 -3.438246e-05 -3.3789263e-05 4.895237e-05
1.5593412e-05 -5.8288082e-05 -1.37919205e-05 1.5373158e-05 2.3328592e-05 2.3082313e-05 -0.099126525 -0.11227258
7.307944e-05 -0.00011984004 0.0015213713 -3.164159e-05 -1.3749787e-05 -0.0044218223 -4.5292774e-05 0.00013665797
-0.000106122665 0.011392309 0.0023359174 -6.8332825e-05 0.11951077 -0.025337912 -0.014986359 0.0021760734
-3.5997815e-05 0.00016477199 0.00034142818 0.000110548935 -4.9813985e-05 -2.2417898e-05 1.8356075e-05 -4.7011676e-05
-5.5948396e-05 0.000540388 -0.00022443067 0.0005284201 -0.00024829264 0.00065831403 -0.0008070852 -0.0008473556
-8.477981e-05 -0.00017577877 0.0004371042 0.0009536752 0.00063462637 -0.00028452504 -0.00012141931 -0.000553446

encoder.linear1.bias f4 [236]
00000000: e240 3e34 83b2 1686 a773 0380 200e e234
00000010: d1cb b0b4 695d 0180 ae0b 04b4 80b3 0935
00000020: f473 ffb3 2548 0100 1544 d632 44d8 0000
00000030: 1f05 ef33 70d4 0200 68bd 82b4 6441 1e34
00000040: 6754 0280 23e7 04b4 72b2 0380 03f6 0280
00000050: dbda 0300 6af7 39b4 ee1d 28b4 c58b 0000
00000060: 5073 0280 e305 0380 7159 9ab3 dbcd 8834
00000070: f93d b134 0513 a533 9752 0100 7270 0080
00000080: 761d 0300 5cee 0380 7401 0eb2 216b 0100
00000090: 2a09 0300 0b22 0300 d32e 0200 02aa aeb4
000000a0: 084b 0200 f435 0380 5527 79b5 ead2 0280
000000b0: 6417 0200 4d21 b5b5 a611 0200 1bcc 7eb4
000000c0: 4764 1634 1076 0300 266f 81b5 04da 37b4
000000d0: 8050 0180 2eaf 18b5 ff26 0380 2422 bfb5
000000e0: 2c5b a1b4 2680 0100 5df2 9fb2 57b1 c734
000000f0: fd53 0080 87d5 0300 d44d 3335 84c0 16b2
00000100: aa5b b034 3748 1932 4473 88b3 1538 0380
00000110: 7f10 8e36 f09b 0080 c7ed 0280 d0d8 0280
00000120: d744 6533 087c 29af 8ccc 0280 4b24 abb4
00000130: 64d8 cf32 5201 3136 01c9 b9b3 8e07 3d35
00000140: 82e1 0200 8e74 ac35 fe4e d030 485e a2b3
00000150: f231 d005 da5f f134 e3ad e0b4 0de1 69b5
00000160: f6b8 e8b4 128d 6835 4dee 0280 2c22 1135
00000170: b2b4 dab5 7f3a abb4 c417 0136 6483 bcb1
00000180: 5b14 2b34 d5ca 0080 084f 1f34 c388 0100
00000190: dfdf a6b5 be6b a3b4 34de cc30 d01a 0300
000001a0: 426d 0300 fc45 0180 9327 6734 e2a6 0200
000001b0: 98ae ea33 2d70 0380 dd52 3933 ca23 35b3
000001c0: e029 9c33 75f2 a1b5 9cc3 0732 10b1 e935
000001d0: ba70 0380 acfd 0280 527b 2a34 49f9 f034
000001e0: 5130 0180 4239 92b5 a3dd 0280 8357 95b1
000001f0: ce7b 4ab5 d0ec 5cb2 6c14 0300 c451 0300
00000200: 48d6 0280 e880 0180 765e 0300 6554 3d36
00000210: f5b8 2134 6fc8 0180 8cbb 1632 f773 8930
00000220: 5ec9 0380 db8f 0200 4f52 f131 5be8 0100
00000230: 6903 97b5 9d02 0280 4a30 0400 6d0f 9a35
00000240: acf6 0280 3559 0280 34e3 0200 faea bfb3
00000250: f96d 2532 0793 c122 e1e5 0280 e179 0180
00000260: 064f 0300 376c c230 c37b 0300 83c9 0000
00000270: 64ee fc34 10de 0300 3e76 0180 9069 e0b3
00000280: 6356 ebb3 0f65 0000 996f 93b4 c7bf 0380
00000290: e1ae 0380 2c60 0300 6d98 a4b4 67fc 0200
000002a0: 4953 c135 9389 fcb4 f512 0380 8ae3 0300
000002b0: 5f12 0180 56f6 0180 6fc6 0200 3db0 0380
000002c0: 2872 ed33 4611 0400 8332 89b5 b326 3834
000002d0: 4714 0080 6386 0300 be7f 0300 8697 abb4
000002e0: 737c 3335 09a3 ab34 deb8 0300 5fb5 a235
000002f0: d2d7 b630 3507 0200 82df 0300 7829 0480
00000300: 51bb a8b3 8bea a8b4 3a50 5fb3 5e0c 0480
00000310: c277 0280 531e 0380 96db 9fb3 2a73 0200
00000320: e0ec 81b2 647d 0200 f326 0380 f8de 1ab5
00000330: 0c14 9034 b7b8 0380 8c11 9536 a748 0180
00000340: 6702 0180 ffe6 0280 2f96 0100 7410 0300
00000350: 4bb5 0000 5a07 64b5 87aa 3835 58eb 8734
00000360: ffdd 8fb5 0e5b 8934 f0ca 0280 e419 0300
00000370: c815 3e35 60b4 8232 961e 2633 0aa7 0726
00000380: 9d84 3733 5dc5 0380 41c0 d1b5 1a75 0100
00000390: 1698 0300 3f18 a1b5 da2d aeb3 a290 0280
000003a0: bcf0 68b4 9063 0000 3677 1eb4 af38 f7ad
1.7718733e-07 -2.8343014e-35 -3.16995e-40 4.2106058e-07 -3.293085e-07 -1.25345e-40 -1.2297707e-07 5.1297684e-07
-1.18954546e-07 1.17716e-40 2.4943839e-08 7.7581e-41 1.1130236e-07 2.59879e-40 -2.4352198e-07 1.4738686e-07
-2.13949e-40 -1.2377545e-07 -3.3952e-40 -2.71923e-40 3.54017e-40 -1.7319476e-07 -1.5657108e-07 5.014e-41
-2.25037e-40 -2.77618e-40 -7.187453e-08 2.5481754e-07 3.301391e-07 7.686871e-08 1.21463e-40 -4.0338e-41
2.86075e-40 -3.61014e-40 -8.265818e-09 1.30266e-40 2.78794e-40 2.87719e-40 2.00468e-40 -3.2533723e-07
2.10587e-40 -2.94861e-40 -9.2816964e-07 -2.59333e-40 1.92062e-40 -1.3495243e-06 1.90002e-40 -2.3729847e-07
1.400632e-07 3.1786e-40 -9.643597e-07 -1.7122517e-07 -1.20713e-40 -5.687933e-07 -2.89496e-40 -1.4240545e-06
-3.0054923e-07 1.37806e-40 -1.862025e-08 3.719567e-07 -3.013e-41 3.52106e-40 6.679595e-07 -8.774922e-09
3.284925e-07 8.922192e-09 -6.35396e-08 -2.95625e-40 4.23385e-06 -5.594e-41 -2.6897e-40 -2.61449e-40
5.3380827e-08 -1.5414525e-10 -2.57049e-40 -3.187764e-07 2.4196375e-08 2.6375824e-06 -8.651296e-08 7.041898e-07
2.64568e-40 1.284892e-06 1.5156443e-09 -7.5608625e-08 1.9578573e-35 4.495949e-07 -4.184977e-07 -8.7126756e-07
-4.3347944e-07 8.663202e-07 -2.69157e-40 5.4066436e-07 -1.6294855e-06 -3.1893794e-07 1.9236331e-06 -5.4864575e-09
1.5933021e-07 -7.2762e-41 1.483678e-07 1.40896e-40 -1.2433119e-06 -3.043951e-07 1.4906107e-09 2.85125e-40
3.14701e-40 -1.16941e-40 2.1527948e-07 2.43537e-40 1.09282325e-07 -3.15748e-40 4.3149033e-08 -4.2174896e-08
7.271933e-08 -1.2065999e-06 7.902511e-09 1.7411385e-06 -3.15945e-40 -2.74671e-40 1.5877347e-07 4.4884862e-07
-1.09168e-40 -1.0894512e-06 -2.63179e-40 -4.3464197e-09 -7.5431024e-07 -1.285953e-08 2.82832e-40 3.04838e-40
-2.6054e-40 -1.38078e-40 3.09393e-40 2.8212319e-06 1.506158e-07 -1.63738e-40 8.773792e-09 1.0001021e-09
-3.47743e-40 2.35277e-40 7.0233805e-09 1.75189e-40 -1.1251369e-06 -1.84608e-40 3.84665e-40 1.1478384e-06
-2.7216e-40 -2.15672e-40 2.65176e-40 -8.9368726e-08 9.629269e-09 5.2468426e-18 -2.66136e-40 -1.35557e-40
3.03855e-40 1.4146114e-09 3.19904e-40 7.2289e-41 4.711211e-07 3.55168e-40 -1.34253e-40 -1.04500145e-07
-1.0958754e-07 3.6253e-41 -2.7462082e-07 -3.44303e-40 -3.38241e-40 3.10006e-40 -3.0658285e-07 2.74216e-40
1.440386e-06 -4.7038756e-07 -2.82307e-40 3.57132e-40 -9.8426e-41 -1.80204e-40 2.54856e-40 -3.38729e-40
1.10569374e-07 3.73539e-40 -1.0221996e-06 1.7150414e-07 -7.274e-42 3.23715e-40 3.21332e-40 -3.196148e-07
6.6863794e-07 3.1969856e-07 3.41824e-40 1.2122727e-06 1.3303583e-09 1.86256e-40 3.55686e-40 -3.82218e-40
-7.857182e-08 -3.146309e-07 -5.19942e-08 -3.71778e-40 -2.26632e-40 -2.86385e-40 -7.443957e-08 2.24984e-40
-1.5125295e-08 2.28653e-40 -2.89479e-40 -5.769393e-07 2.6836676e-07 -3.4177e-40 4.4425888e-06 -1.17898e-40
-9.2697e-41 -2.66537e-40 1.45711e-40 2.81409e-40 6.5036e-41 -8.4947317e-07 6.879349e-07 2.5316945e-07
-1.071894e-06 2.558449e-07 -2.56471e-40 2.84794e-40 7.081221e-07 1.5216017e-08 3.8677705e-08 4.7063914e-16
4.272862e-08 -3.46307e-40 -1.5627667e-06 1.33844e-40 3.30065e-40 -1.2002491e-06 -8.110847e-08 -2.35555e-40
-2.1694262e-07 3.5716e-41 -1.4758265e-07 -2.8105821e-11

encoder.linear2.weight f4 [118, 236]
00000000: d225 b7bc 8ad3 023d f8a3 f53d 8e55 ff3c
00000010: c345 c83b 6b53 d53d 1ad0 483d d742 913d
00000020: d528 5ebd 84ba 0033 4737 e03a e2a9 79b6
00000030: ae16 1ab9 be85 a43c b8e0 66bc 2bf6 20bc
00000040: 9ece bf36 a5dd 353d 6eed 7732 44a2 f93c
00000050: 09b4 643d be49 333e 0a51 25bd 7ae7 a439
00000060: c04a 1a36 0d92 c636 ba88 4b3c fd45 383d
00000070: 5558 88bb abd7 8d3b 687e 273d da6c d6b5
00000080: 1a59 173b b789 f83c 793d b138 32ea be3c
00000090: 847c 2bbb d275 e73c 781f 7bba 2e03 a23c
000000a0: 9017 69bb d54b 053c 0472 453b bb1b 19ba
000000b0: a3f1 593d d999 8abd 70c4 57bd 7bbf dcbb
000000c0: 668a 63bc fe51 ea3c cc58 3bbd 1c92 bd3c
000000d0: 7b85 693d 1c41 b43c 420e edbc 9a92 08bd
000000e0: 0e4a f4bc a3e5 c73a fa43 13bc e5c3 d63c
000000f0: f55b 373d bc68 d73d 0b6e 31bd 12b3 3f3c
00000100: fad2 283d 2317 64bc ca99 ddbc c9e4 f3bb
00000110: 6b57 7dbd 2fa3 c8bb 0d99 f8ba a0d7 9bb5
00000120: e646 263b b622 fab8 15ee 063d a1e0 a2bc
00000130: e43f 35bb 4a8c 993d b847 883d 7ac3 5a3d
00000140: 6d47 bb36 4c21 56bc d454 6bbd 4dbd 5dbc
00000150: b2e1 2abd 7295 01be 25e4 303e 8d47 ccbc
00000160: 4378 89bb 5606 01bd 52fa e1bb 109c 2e3d
00000170: cab3 2abd 1f1b e9bb e210 9ebc f4a1 cebb
00000180: ab45 913d c167 813d a959 0fbc f4c0 9eba
00000190: db2d dd3d 65ce e2bc 37c7 30bc cf31 5ebc
000001a0: d3f7 ab3d 178f b6bc 4065 563d 21c8 4cbc
000001b0: 3bda babc fa80 a23d d622 2c3d 14a0 523b
000001c0: 055a 993b 09f5 5b3c 80f3 3f3a bcc4 d23a
000001d0: 9c31 2f3c 88b8 1d3e b9f5 6cbc e76f b13a
000001e0: 03a6 eab9 e3d7 d43d 7361 a733 f404 b73c
000001f0: bfaa 27bd 8719 af3d 7ab7 4b3d 3141 3fbc
00000200: f315 2cbc 93e5 43bc 51d5 f3b4 0503 40bd
00000210: add0 d4bb f999 e538 7c33 67bc 4fa2 d8b9
00000220: 0dd6 0cbd be2b 343c 6668 34bb 7ef0 16bd
00000230: 11e9 ecbb 7de4 3e3d 8f21 ba39 58ae 783d
00000240: fc27 a83d 113a 3733 a228 1f3b 1f50 d6bc
00000250: 7e78 213a 8531 b13d 065f 00b8 c71e 7c3c
00000260: 08e2 88b9 5eb4 49bd 3f22 d537 d16b c43d
00000270: 98a6 373a 07b7 e73a 3730 9ebb 6432 84bc
00000280: 5535 3a3c 839d 763d b822 05bd 5933 413c
00000290: da1b 853d 0b91 333c 40ba 523d d511 47bc
000002a0: 928b bebc db1c f83b 2a06 deb0 e2b5 a53d
000002b0: 2c27 8dbc f616 94b8 9a49 d63b 6217 84bb
000002c0: c6c6 d5bd 8dd5 f4bb 3271 49bd 4f80 ab3d
000002d0: eb2e 3dae 7739 c228 89db c9b4 05ea 103d
000002e0: 0bfa 4a3d 3364 773d 16cd 2738 c4d8 f53c
000002f0: d9a0 4e39 fe0e 393d 86dd 5abc e3ff 2c3d
00000300: 7f76 123c 7ef6 993c 3723 11bd 525b 92ba
00000310: 99de bf3c 1572 5d3b 4d7b 113d 613b 8b3d
00000320: 60ae 2b39 2351 113d d2f3 60bd 41f2 cebc
00000330: ca3e d23c 8c29 fd3d 20b3 5e3d 5b47 843d
00000340: 0524 043d f8d3 7d3d cbfa 8b39 1318 ac38
00000350: b1a2 683d f01b dfbd 5d6e b93c 1f74 42bc
00000360: ed2c 51bd 9f4e 1d3c 405a 12b9 88b0 0cbb
00000370: d36a 9b3d 69ef 943d 6603 c2ba aa39 e8bb
00000380: b04f 783d c7f6 b53a ed80 063d fe40 2a3d
00000390: e66a 563c 64de 3c3b f47e e8bc 6a8c cebc
000003a0: 709a 523d 11d5 dc23 14e3 45bc 7549 41bb
000003b0: a164 9dba c23f c530 1991 39b7 cd5e 983a
000003c0: 9b3d d239 fbd8 6c33 82dc a3ba af48 71b9
000003d0: 2e5a 86bb 6b37 ac1a 8428 99ba 08cd 8eb8
000003e0: a770 b9ba 5c6e 0e32 b3b1 e8b9 05e9 38bb
000003f0: 3455 aeb8 d1d0 173b 428f 29ac 6b10 44b8
-0.022356901 0.03194002 0.11994165 0.031168725 0.006111832 0.10416301 0.049026586 0.07092827
-0.05423816 2.9971957e-08 0.0017106318 -3.7202776e-06 -0.00014695033 0.020083304 -0.014091663 -0.009824316
5.716297e-06 0.04440083 1.44312775e-08 0.030472882 0.055835757 0.17508599 -0.040360488 0.0003145298
2.2991298e-06 5.9178624e-06 0.012422735 0.04498862 -0.0041609206 0.004328688 0.040892035 -1.5975922e-06
0.002309388 0.030339105 8.451468e-05 0.023305032 -0.0026166746 0.028254423 -0.00095795793 0.019776907
-0.0035567023 0.008135756 0.0030127773 -0.0005840619 0.05320896 -0.06767625 -0.05267757 -0.0067366934
-0.013887977 0.02860355 -0.04573898 0.02314096 0.057012063 0.022003703 -0.028937463 -0.033342935
-0.029820468 0.0015250932 -0.008988375 0.026216457 0.04476543 0.10518023 -0.043317836 0.0117004085
0.041216828 -0.013921532 -0.027050871 -0.007443045 -0.061850946 -0.0061229686 -0.0018966511 -1.1611155e-06
0.0025371849 -0.000119273944 0.032941896 -0.019882502 -0.002765649 0.07497461 0.06654304 0.053409077
5.5813493e-06 -0.013069462 -0.057453945 -0.013533902 -0.041719146 -0.12654665 0.1727453 -0.024936462
-0.0041952445 -0.031500183 -0.0068962956 0.0426293 -0.041675366 -0.007113829 -0.01929516 -0.0063059274
0.07093366 0.063186176 -0.008749404 -0.0012111948 0.10799762 -0.027686307 -0.010789684 -0.01356168
0.08396878 -0.022285027 0.052342653 -0.012498886 -0.022809139 0.079347566 0.04202541 0.003213887
0.0046799206 0.01342512 0.0007322356 0.001608036 0.01069298 0.15402424 -0.014462882 0.0013537378
-0.00044755646 0.103927396 7.7942694e-08 0.022341229 -0.04093432 0.08549791 0.049735524 -0.011673258
-0.01050328 -0.01195659 -4.5417485e-07 -0.04687788 -0.0064946027 0.000109482506 -0.014111396 -0.0004131966
-0.034383822 0.010996757 -0.0027528047 -0.036850445 -0.007229932 0.046604622 0.00035501688 0.060713142
0.082107514 4.266082e-08 0.0024285694 -0.026161252 0.00061596173 0.08652023 -3.0606076e-05 0.015388197
-0.00026108348 -0.049244277 2.5407526e-05 0.09590877 0.00070057204 0.0017678448 -0.004827525 -0.01613731
0.011365254 0.06020881 -0.032503814 0.011792027 0.06499453 0.010959874 0.051447153 -0.012150248
-0.023259912 0.007571799 -1.6154378e-09 0.08091332 -0.017230593 -7.061467e-05 0.0065395357 -0.0040311078
-0.10438304 -0.0074717463 -0.049180217 0.08374082 -4.3015296e-11 2.1563248e-14 -3.75989e-07 0.03537943
0.049554866 0.06039829 4.0006904e-05 0.030010588 0.00019705611 0.045180313 -0.013358479 0.04223622
0.0089393845 0.018794294 -0.035433974 -0.0011166132 0.023421573 0.0033789922 0.03551798 0.06798435
0.0001637279 0.03547777 -0.054920025 -0.025262 0.025664706 0.1236144 0.054370046 0.064589225
0.032260913 0.061969727 0.00026699 8.206083e-05 0.05679578 -0.108940005 0.022635633 -0.011868506
-0.051068235 0.009601264 -0.00013957266 -0.0021467526 0.075887345 0.07272226 -0.0014802038 -0.007086952
0.06062287 0.001388275 0.032837797 0.041565888 0.01308701 0.0028819079 -0.028380848 -0.025213439
0.051416814 2.3942685e-17 -0.012078065 -0.0029493247 -0.0012008139 1.4351758e-09 -1.10606425e-05 0.0011624933
0.0004010022 5.5145374e-08 -0.001250163 -0.00023010628 -0.0041001057 7.1227065e-23 -0.0011685048 -6.809278e-05
-0.0014147953 8.290581e-09 -0.00044382885 -0.0028215062 -8.312837e-05 0.0023165236 -2.4095869e-12 -4.6745332e-05

encoder.linear2.bias f4 [118]
00000000: 00bd d6b5 d346 1435 d5ca dd33 cce9 7d35
00000010: d752 2935 25b6 19b6 5034 a134 64dc 05b6
00000020: 2654 e235 5316 8435 d5a8 3e37 4899 06b4
00000030: 7ebb 19b6 3d7c 2ab5 05a3 9235 e595 87b5
00000040: 9b06 36b5 7bb4 8836 8945 8735 c48f c1b6
00000050: a2f4 75b5 d28e 9735 2c4a 3db6 c858 7135
00000060: 8b63 2534 7950 17b6 1f51 98b6 df58 7bb4
00000070: 8e26 4fb6 7a04 32b4 e795 0bb6 3200 5d36
00000080: 83ae 0db6 ff1c e936 9106 60b4 6715 3935
00000090: b258 6bb5 385c 9c36 e33d e6b3 37d6 0eb6
000000a0: f0c2 b836 0763 5435 e441 d1b5 b4b5 eb35
000000b0: 6143 11b7 a3fd d135 dfc6 e1b6 b02a 3934
000000c0: 1a42 0f36 c079 55b4 a9cf 86b4 d6d3 6fb5
000000d0: 5bd1 21b6 baaf 33b4 110a 8ab5 2690 18b6
000000e0: aa26 97b6 4337 4935 773a 3034 61d2 18b5
000000f0: ff31 df36 3524 1635 7e37 b836 c316 3436
00000100: 66c2 bcb5 3d16 2636 60f6 a5b3 d0a4 46b6
00000110: a914 62b5 f492 a3b6 668c f136 19b1 12b5
00000120: 4c7b 3036 c9d0 1f36 0cb6 f835 6c37 6db5
00000130: d7ae 3db5 ca7e 23b6 2ad5 a534 14dd 5eb2
00000140: 6e06 ecb3 9b81 7db5 e66e 32b6 d8d6 84b5
00000150: 5eaf 45b6 65bb 7b34 b996 8c35 4365 fab5
00000160: 9b11 d335 4191 c336 8b7d 9e34 12ae 1f36
00000170: 6500 89b6 8106 98b6 d3c9 2fb5 2112 21b6
00000180: c950 ac36 ec89 6236 8c8a f3b4 3f2a 0235
00000190: 1166 b535 2a40 8532 dbc1 d9b6 bbfa eb34
000001a0: 507a 4ab6 fcb2 71b4 c895 29b5 bd65 5bb2
000001b0: 3823 9936 ec11 aeb5 1a24 f5b5 7e49 1f36
000001c0: 3600 6535 cc1b bbb4 cc16 0c34 0f17 37b6
000001d0: f09c 6c36 318f 6635
-1.5999249e-06 5.523736e-07 1.03280094e-07 9.4590064e-07 6.3077954e-07 -2.2904799e-06 3.002665e-07 -1.9946829e-06
1.6862803e-06 9.841264e-07 1.1364192e-05 -1.2535486e-07 -2.2907911e-06 -6.3510726e-07 1.0925293e-06 -1.0101909e-06
-6.7809896e-07 4.0741265e-06 1.0078521e-06 -5.7685847e-06 -9.16256e-07 1.1291943e-06 -2.8206368e-06 8.990869e-07
1.5403036e-07 -2.2547595e-06 -4.5393967e-06 -2.3408528e-07 -3.0867845e-06 -1.657917e-07 -2.0799869e-06 3.293168e-06
-2.1112216e-06 6.9473167e-06 -2.0864015e-07 6.8949015e-07 -8.767339e-07 4.659898e-06 -1.0721467e-07 -2.1284338e-06
5.506321e-06 7.912026e-07 -1.559089e-06 1.7561747e-06 -8.658361e-06 1.5645531e-06 -6.728674e-06 1.7244997e-07
2.1347137e-06 -1.9881463e-07 -2.5110538e-07 -8.93427e-07 -2.411273e-06 -1.6734603e-07 -1.0284731e-06 -2.273367e-06
-4.5046518e-06 7.495875e-07 1.6412547e-07 -5.6930554e-07 6.651738e-06 5.593204e-07 5.4900875e-06 2.683534e-06
-1.4063669e-06 2.4748872e-06 -7.7282266e-08 -2.9600233e-06 -8.4221625e-07 -4.874886e-06 7.198704e-06 -5.464695e-07
2.6297812e-06 2.3814375e-06 1.8530422e-06 -8.837003e-07 -7.066241e-07 -2.4362694e-06 3.0888742e-07 -1.2972368e-08
-1.0990776e-07 -9.4438445e-07 -2.6588618e-06 -9.897294e-07 -2.9457365e-06 2.344437e-07 1.0474679e-06 -1.8655923e-06
1.5725849e-06 5.8283626e-06 2.9521138e-07 2.3794169e-06 -4.082964e-06 -4.53071e-06 -6.5486273e-07 -2.4001422e-06
5.135404e-06 3.3756905e-06 -4.5363083e-07 4.849025e-07 1.3515256e-06 1.5512416e-08 -6.4896717e-06 4.3954591e-07
-3.017154e-06 -2.2509988e-07 -6.3175366e-07 -1.277061e-08 4.5638553e-06 -1.2969226e-06 -1.8264429e-06 2.3735624e-06
8.5309455e-07 -3.485169e-07 1.304681e-07 -2.7282547e-06 3.525809e-06 8.589005e-07

encoder.norm.weight f4 [236]
00000000: f67a 0a3e 4161 95b9 ffe6 383c bb37 283d
00000010: e206 a43d d45e 04ba 547c bd3e 4ba9 f23d
00000020: f1db a83e ba85 a239 98fd 363c 3491 023b
00000030: 4b4f a43c 3c83 20b8 697c 463d 974b 093e
00000040: 539e 223c 4366 0e3e 3826 0337 a2b3 403c
00000050: 3ae8 1839 bb6f 673e 9ba5 213e c437 c439
00000060: 1533 153a 308b 2637 e3d6 56bd bdc4 683e
00000070: 4b2d 483d 502a b13d 7849 293b fcdc b03b
00000080: 0eb3 073b a0c1 06b9 c1a7 1e3c b1c8 033c
00000090: f0db b539 f985 8b3a c5bc 4cb4 ef37 f83d
000000a0: 09eb 5938 8009 fa3a a6cc 8c3d 5992 9a3b
000000b0: fce7 853b 9467 363e 1d41 653a 9e58 df3d
000000c0: 9329 353e a828 13bb f107 193e c756 9ebd
000000d0: 019e 03b7 4df0 933e 295b a439 5613 583e
000000e0: c1ca 573e 4cd8 0f3b 0e56 393e e27e d13d
000000f0: 293f 8c3b cb1f ff39 5a0c a13d ebd4 be3d
00000100: 598f 9c3e 5ec8 04be 65f1 b33e 519c 183b
00000110: 3c7b 613e 75e3 aa39 3688 9539 19e2 8f3b
00000120: cd4e 533e e093 0c3b 5ffd 0537 e866 733e
00000130: 62ee b23d 8af9 4a3d 10f8 133e 0cff f73e
00000140: 1748 b1b8 2566 f13e 7892 5bbc 3768 3c3d
00000150: 84d5 d13b b5a7 173f 5822 f33e 6794 f03d
00000160: d8da e53c 0ff8 9c3e 27b8 fa34 8b67 c03c
00000170: 9846 703e a2ed d13d fd42 813e 772b 973d
00000180: b405 65bd d170 0d3d 3867 5f3d b82e 4839
00000190: 9412 313f 650f 983e 26df 573c e642 443b
000001a0: ff40 473c ab61 0e3c 9312 2a3d 4f1e 9b3b
000001b0: 9c47 fa3d 7278 223c 5678 6a3e 5ec9 c13c
000001c0: 8257 5a3d 85c6 8f3e 05fd 0f3d 7e9a a13e
000001d0: 501c 5b3a ede4 3fba b440 d7bd 3e66 8c3e
000001e0: cd78 d1ba 27c4 943e d502 7eb8 c781 2d3c
000001f0: b606 453e edd7 e03c 8b9f 50ba 0cd0 103b
00000200: 9c0c e837 669c b3b9 fadb ae39 10c9 d63e
00000210: 2375 133d 0d5f feb9 0d3a 323d a877 dc3c
00000220: a4e2 0e3a 296e d839 b439 623b 3987 c73b
00000230: 9999 e43d 9b4c c63a 244d 87b9 c6b1 bf3d
00000240: d8d5 a73a c17c 5eb8 9cd0 f636 919b 323d
00000250: 2e2a 4bbb 3b34 b03b 2106 0f3a 89a1 653b
00000260: 2d99 433a 921d 023c a596 88b8 94dc 51bc
00000270: 1c1a 1b3e 338e ba3a c176 6434 df04 bd3d
00000280: f754 2b3d ff0f 793b 6909 273d 49aa a5bb
00000290: 2834 96b4 4be2 db3a 88b0 8f3e cff1 683b
000002a0: 4178 6d3e db55 a03e 42a9 cb3b a60f 083b
000002b0: 7877 1eba 5171 503b 27de 013b 9d1d f1ba
000002c0: b381 463e c311 2039 f8b8 fb3d 2c20 863d
000002d0: f3c6 1436 67e1 533c ae3e a43a 9892 933e
000002e0: c9ff 743e aebf ae3e 562c f0b9 1a2b 66be
000002f0: b57f 8e3c 3cd9 9e39 6b10 b63a 753c 7c3c
00000300: 8060 db3d 451b 043e b5da 453d 200c 803a
00000310: 87f7 003c c765 c639 b4b5 263c 0d91 233b
00000320: 804b 683c 2d27 123b 2551 cb3b ba35 3b3e
00000330: c6e1 c33d 04b2 aa3b 5824 7d3d 6945 fa3a
00000340: 7bd2 913c 1417 103c 608d 29ba df14 e7ba
00000350: 17d5 533b ecf8 083f 6949 4b3e 6fb1 ca3d
00000360: f3ca e83e 27c0 f63d eb1f 5d3b 2466 0db9
00000370: 6227 053e 80c1 a93c 7f03 09be 220a 323b
00000380: a105 dd3d 4e5d e53b 59e2 663e 0e19 de36
00000390: 2ffa 3e38 8cbf a73e 041a 3c3e 09a5 9a3a
000003a0: 7e40 593e 59c9 fc39 95eb aabd 3b56 b93b
0.13523468 -0.00028491954 0.0112855425 0.041068774 0.08009125 -0.0005049531 0.37008917 0.11848696
0.32980302 0.00030998682 0.01116886 0.0019922974 0.020057341 -3.8269194e-05 0.04845849 0.13407741
0.009925443 0.13906197 7.817107e-06 0.011761578 0.00014582361 0.22601216 0.1578583 0.00037425582
0.0005691511 9.926778e-06 -0.052451026 0.227313 0.04887132 0.086506486 0.0025831144 0.005397437
0.002070609 -0.00012851367 0.00968355 0.008043454 0.00034686876 0.0010644785 -1.9067654e-07 0.121200435
5.1955725e-05 0.0019076318 0.06874971 0.004717153 0.0040864926 0.1781295 0.00087453594 0.10905574
0.1769164 -0.0022454653 0.14944436 -0.07731395 -7.844997e-06 0.28894272 0.00031348437 0.21101126
0.21073438 0.0021948991 0.18099234 0.10229279 0.00427999 0.00048661078 0.07863684 0.09317955
0.30578116 -0.12967059 0.35145107 0.0023286531 0.22019666 0.00032594395 0.0002852098 0.0043909666
0.20635529 0.0021450445 7.98641e-06 0.23769724 0.08736874 0.049554385 0.14450097 0.48436773
-8.4534455e-05 0.47148243 -0.01340162 0.045997825 0.006403627 0.59240276 0.4748714 0.117470555
0.028058454 0.30658004 4.6700117e-07 0.023486873 0.2346443 0.10250403 0.2524642 0.07381337
-0.055913642 0.03453142 0.054541796 0.0001909089 0.6916897 0.29699245 0.013175761 0.00299471
0.012161492 0.008690278 0.04152162 0.0047338377 0.1222069 0.009916412 0.22897467 0.02365559
0.05330611 0.28081146 0.035153408 0.3156318 0.0008358406 -0.00073201844 -0.10510388 0.27421755
-0.0015981436 0.29055902 -6.0560957e-05 0.010590023 0.19240841 0.027446711 -0.0007958344 0.0022096662
2.7662427e-05 -0.00034258066 0.00033351762 0.41950274 0.036000382 -0.00048517474 0.043512393 0.026912525
0.0005450642 0.00041280806 0.0034519257 0.006089118 0.11162109 0.0015129031 -0.0002580668 0.093600795
0.0012804819 -5.304511e-05 7.3556566e-06 0.04360539 -0.0031000483 0.00537732 0.00054559304 0.003503891
0.00074614846 0.00794162 -6.513045e-05 -0.012808938 0.15146679 0.0014233052 2.1277357e-07 0.09229445
0.041829076 0.003800392 0.04078046 -0.0050557 -2.7977626e-07 0.0016775815 0.2806437 0.003554452
0.23190404 0.31315503 0.0062152455 0.002076128 -0.0006045024 0.0031805823 0.001981625 -0.0018395666
0.19385414 0.00015265406 0.12291139 0.06549105 2.2169522e-06 0.012932158 0.0012530887 0.2882278
0.239257 0.34130615 -0.000458094 -0.2247738 0.01739488 0.0003029796 0.0013890391 0.015395273
0.10711765 0.12901028 0.04830428 0.0009769239 0.007871515 0.00037841333 0.010175157 0.0024958283
0.014178157 0.0022301183 0.0062047415 0.18282214 0.09564547 0.0052092094 0.06180224 0.0019094172
0.01780056 0.008794565 -0.0006467905 -0.0017630121 0.0032323056 0.53504825 0.19852223 0.09897124
0.45467338 0.12048369 0.0033740948 -0.00013484858 0.13003305 0.02072215 -0.1338024 0.0027166684
0.10792089 0.006999648 0.22547282 6.6190323e-06 4.553253e-05 0.32763326 0.18369299 0.0011798452
0.21216008 0.000482152 -0.08345715 0.0056560314

encoder.norm.bias f4 [236]
00000000: 0379 19be ba08 93ba e133 80bd 03a9 c63d
00000010: 005a 82bd aae4 e2bb c5e7 17bd 4720 c0bd
00000020: a5e1 a13e 7fd0 15bd a07e 9b3c 880e 01bc
00000030: 4b5b 9f3d cdd7 8ab9 710a 15bd 6f1f 913e
00000040: a471 edbc 208c 623e ef52 1dba 02df 18be
00000050: 96cf c5ba 31c4 adbe a6fc 3cbe 0d93 09bd
00000060: a683 15bb 3b75 ebb8 38da e03d 7782 46bd
00000070: c0e4 933e c14b 93bd 6980 42bc efdf c7bc
00000080: 73bc debb 564f 0dba c9c0 8cbc 13b7 d8bd
00000090: 584a c0ba 9e2f 5abb fac9 c5b8 eedb b73d
000000a0: 0f84 10ba a8e3 b2bd d6a9 72bd bbe8 6bbd
000000b0: fb9e 60bc beb8 44be 4ef8 81bc 8e4b 11be
000000c0: d93a 87be 636d 1bbc 7dbc 783c 1adb 253e
000000d0: d2f6 4fbc 9c96 233c a1b9 61ba 3bf6 04bd
000000e0: 22ca 5c3d 1c1e 4bbc 1762 87bd a137 3f3e
000000f0: c1d9 7cbc 5363 e8bb aacc 1fbd 6e55 833c
00000100: c000 003f 0c37 753e 24bb 6ebc 6301 3ebc
00000110: c723 4a3f 61e0 42bc 2b9b dbbc 60bc 8bbc
00000120: a1c3 bd3e b7ac 943c feba 16bb 8db4 04be
00000130: a698 cfbc 7d6e 603e 8cfc 80be ccb1 af3e
00000140: ac66 53ba 8cbc 2a3f cdfe a8bc 0ce3 c53d
00000150: 155c 73bc 13d1 0cbe 7b34 343f 8e1a 2abd
00000160: 8f6f 803d 5038 d4bd 76d1 d4b5 473d 643d
00000170: fd9f 463e 2a69 a6bd 6897 263e 000a 363b
00000180: 813f f13d ccad f5bd 970d a83d 1a77 35ba
00000190: fb9e 403e e057 a43e 86fc d53d 81f2 5fbc
000001a0: 7ce8 52bd 32c1 08bd 68cc e53c 423c 3ebd
000001b0: 312a 8e3d 52be b3bd a245 3b3b e552 e73c
000001c0: 8fdb 803d a5a8 3f3e d535 063c c298 1a3f
000001d0: d562 bdbb bf5b 1fbb 52cd 4c3e 2816 3abe
000001e0: c532 06bc 0d0e f33e 6b45 00ba 0d1f 0f3e
000001f0: aee3 263e e017 b3bd 878d 2fbc 0363 35bc
00000200: 5169 4dba 3bdf 73bb d9c2 c8ba 8592 12bd
00000210: bca1 0b3e 7548 7fbb f2b7 d63d c66f ebbc
00000220: fee4 64bc 9b9e d0bc c786 0d3c 237e 97bd
00000230: 16de 8abd a44f 3abc 31a7 57ba de65 aabd
00000240: 767f ddbb c8f7 f5bb 57af b0b9 513e ca3d
00000250: 0d62 88bb 5bbe aebc 842a b0bb efd0 2abc
00000260: aa64 aebb 4cee 1cbc 878f 7eb9 ed5b 22bd
00000270: b533 ae3e 2939 b8bc 0a21 8db9 b470 983d
00000280: ff3c f23d a62c afbc da79 9a3d c87f 98bc
00000290: a086 adbc ff1a 40bc c1bf 66be 3268 1ebc
000002a0: b7ab 053e 37c1 113f a8d6 07bd 9095 70bb
000002b0: 5cf4 a0bc 5e11 7bbd 4595 82bc a167 aebb
000002c0: 8da7 c9bd 3691 daba efb3 91bd 07f8 36be
000002d0: 25a7 e2bb af68 8ebd 998b 02bd 92a6 333d
000002e0: 4fdf 183e 24c6 a63e 4d22 a1bb b5aa 873e
000002f0: 26da 8cbc b791 e6bb fe36 4cbb 61fe 80bd
00000300: 9830 adbd ed12 b0bd ca04 083e 44e1 2ebb
00000310: 7926 c2bc 9d06 7bba f084 04bc 5945 cabb
00000320: 7241 b2bc fad8 cebb bf38 b0bc 06b0 c53e
00000330: 0863 b9bd ba2d 82bc 0fc1 953d 31f9 42bd
00000340: 0904 b3bd d455 36bd 8454 38bc f377 a7bb
00000350: 275f 56bc 8c14 1a3f fa03 d13e e1a3 433c
00000360: 746e 213f e8f9 4d3e bfaf 27bc 8158 feb9
00000370: 12c9 af3e 2963 cbbc 1bb5 213b c7d0 b1bb
00000380: d30f 6bbe 3836 e8bc d607 83bd e1c8 efb9
00000390: 922c a4b9 664c 90bd bc42 70be 6d36 bbbc
000003a0: a891 dc3e 3397 1dbc bbec 483e f0b0 1bbc
-0.14987569 -0.0011217811 -0.06259895 0.09700205 -0.063648224 -0.0069242315 -0.037086267 -0.093811564
0.31617466 -0.03657579 0.018981278 -0.007877 0.077810846 -0.00026482195 -0.03638691 0.28344294
-0.028984852 0.22123766 -0.0006001433 -0.1492882 -0.0015091773 -0.33938745 -0.18455753 -0.033587504
-0.0022814064 -0.00011227509 0.10979122 -0.048464265 0.2888546 -0.07192183 -0.011871436 -0.024398772
-0.0067973672 -0.0005390545 -0.01718177 -0.10581794 -0.0014670594 -0.0033292542 -9.431313e-05 0.08977495
-0.00055128423 -0.08734828 -0.059244 -0.057594996 -0.013709779 -0.19211099 -0.015865471 -0.14188978
-0.26412085 -0.009486529 0.015181658 0.16196862 -0.012693124 0.009984639 -0.000861073 -0.032461386
0.053903706 -0.012397315 -0.06610506 0.18673564 -0.015432776 -0.0070919185 -0.039013542 0.016031947
0.50001144 0.2394678 -0.014570985 -0.01159701 0.7896084 -0.011894316 -0.026807388 -0.017057598
0.37063316 0.018148763 -0.002299964 -0.129595 -0.025341343 0.21917148 -0.25192678 0.34315336
-0.00080643105 0.6669395 -0.020629311 0.096624464 -0.014853497 -0.1375163 0.7039258 -0.04152923
0.06271278 -0.10362303 -1.5856192e-06 0.0557225 0.19396968 -0.08125527 0.16268694 0.0027776957
0.117796905 -0.1199604 0.08205717 -0.00069223496 0.18810646 0.32098293 0.10448556 -0.013668657
-0.051491246 -0.03338737 0.02805157 -0.046444185 0.06941641 -0.08776535 0.002857544 0.02823777
0.062918775 0.18716677 0.0081915455 0.6038934 -0.005779604 -0.002431616 0.20000198 -0.18172514
-0.008190815 0.47471657 -0.00048931566 0.13976689 0.1629779 -0.08744788 -0.010714895 -0.0110709695
-0.0007835823 -0.0037211913 -0.0015316858 -0.035784263 0.13635916 -0.00389531 0.104843035 -0.028739821
-0.013970612 -0.025466254 0.00863809 -0.073971055 -0.06780641 -0.011371527 -0.00082265126 -0.08320211
-0.0067595793 -0.0075063445 -0.00033699974 0.09875167 -0.004162079 -0.021331003 -0.005376162 -0.01042579
-0.0053220587 -0.009578299 -0.00024276796 -0.03963845 0.34023824 -0.022488194 -0.00026918232 0.074433714
0.1182804 -0.021383595 0.075427726 -0.018615618 -0.021182358 -0.011725186 -0.22534086 -0.009668397
0.13053785 0.5693545 -0.033163697 -0.003671024 -0.01964777 -0.06129586 -0.015940318 -0.005322412
-0.09846411 -0.0016675356 -0.07114398 -0.17868052 -0.006916898 -0.069535606 -0.031871412 0.043860026
0.14928935 0.32573044 -0.004917419 0.26497427 -0.017193865 -0.0070364135 -0.0031160708 -0.06298519
-0.08456534 -0.0859736 0.13283077 -0.0026684562 -0.023699986 -0.00095758756 -0.008088335 -0.0061728177
-0.021759722 -0.0063124867 -0.021511434 0.38610858 -0.09052092 -0.015890945 0.07312214 -0.04760093
-0.08741004 -0.044515446 -0.011250619 -0.0051107346 -0.0130842095 0.601876 0.40823346 0.011940927
0.63059163 0.20114863 -0.010234772 -0.00048512596 0.34333092 -0.024827557 0.0024674598 -0.0054264995
-0.22955255 -0.028346166 -0.06397979 -0.000457353 -0.00031313725 -0.07045822 -0.23462957 -0.0228531
0.43079877 -0.009618568 0.19621556 -0.009502634

encoder.norm.running_mean f4 [236]
00000000: 79fb 05c0 0a8e 25bf 61ab 5bc0 c04c 08c1
00000010: 93c8 2041 cbf6 98bf 2b35 6f41 3f3c e83f
00000020: 6dc1 3f3f 7876 a7bf c844 a7bf 629d 03c1
00000030: cea8 0340 d1d4 34c0 1f69 4ec0 37b2 44c1
00000040: 4110 623f 7a90 33c1 0628 413c c14d b9c0
00000050: 7174 0abf 9ae0 46c0 bc04 a5bf 3b9c 9041
00000060: b2df eb3f fc91 d038 ac67 0540 8035 c7c0
00000070: 7b0d be40 dd6b 9840 87fc ffbd f4e5 463f
00000080: b9b0 e13e 6476 b040 2ba1 083e b5c4 23c0
00000090: 6e78 393e 6ef2 2440 1ba8 babb 149d 2741
000000a0: 805c 5fbd 213c 11bf eaae 533f dfe4 2335
000000b0: 1660 2c40 8b67 23c0 18f8 8f40 6b54 28c0
000000c0: 2f12 16c0 1f3d d63e 8f68 e0c0 2182 d040
000000d0: cda4 3c40 e6f6 a441 e5f9 413c bc6c 33c1
000000e0: d237 8440 f2b7 c7bf 5c41 ca3f df91 bac0
000000f0: e134 55bf 629b 9cc0 7e05 3cc0 5286 6041
00000100: 1a25 41c1 619d dc40 72ed 70c1 5985 f8ba
00000110: f746 8141 1376 86bf e838 e140 267d 04c0
00000120: ec91 81c0 aaec 5ac0 7b39 87bf 990a 3ac1
00000130: b18d c13e 8878 bcc0 0ae5 ddbf aae7 a841
00000140: a1e1 273e be28 41c0 af6f d8be d443 11bf
00000150: d203 bd40 3bc4 8ac1 b336 76bf 2d30 92c0
00000160: ecd3 a3bf a1a8 8bc1 53f3 113b 7523 0bc0
00000170: 4386 b040 ee96 3ec1 c755 0841 768c b63f
00000180: 31b0 4d40 3944 253e 9fe2 1fc1 05c3 d23e
00000190: 590a b241 fcab 33c0 409d 52c1 edce 3c40
000001a0: a86e 51c0 ffdc 75bf 4d35 c13f 5593 17bc
000001b0: 367f b640 0ac1 a9c0 689c 9b41 6f70 febd
000001c0: ea27 50bd cb5a bc40 1e12 ce40 33c1 59bf
000001d0: 8999 c340 34da febc b54b 0a41 7d49 d9c0
000001e0: 9e83 1bbe 1cca ab3f 5c03 1cbb ae7d 5b41
000001f0: aacf 1641 1f04 0ec1 4c94 25c0 af23 0c41
00000200: b325 643d 3395 4ac0 c1f7 2cbf 2f90 5cc1
00000210: 4a20 4240 447b a73e f8c2 1dc1 b42f a6c0
00000220: f5d8 73bf 83d9 73c1 f13b b0bf 5a2b ad3c
00000230: b8e1 81c0 56d3 1b41 0ac3 4b3b 91a4 ad3f
00000240: 2d8b 173f 9b77 c73a c4a6 dbc0 e417 45c0
00000250: 6ce7 49be 4ad9 e2bd c515 0bc1 1782 953e
00000260: ba36 ab3a 930e 1041 14fc 97be f5b5 96bf
00000270: 746d 35c1 bfd4 2dbf 2de8 f3bf 3019 ddc0
00000280: 036c 81bf d1ea adbd ec99 78c0 b8ce 68bf
00000290: 80c4 cabf 1d0b 49c1 2813 8840 b87f f4bd
000002a0: 9d30 1f41 0ab3 dabf 0c50 3632 79bc 50ba
000002b0: 4a0b 47c0 f398 e4bf f112 a7be c8cd 1ec0
000002c0: 2d52 8fc0 1705 973d eaba 8dc0 6ec3 f5bf
000002d0: ac28 1abf 506e f3bd b020 63bc 83da 0341
000002e0: 6a2c 80c0 d7e3 5fc1 9ce4 d93e 4c03 dd40
000002f0: 3d95 0541 1d8e 7440 2bda 3639 98e0 a1bf
00000300: cfce 4741 2221 b840 017d 65c0 03a2 2d3d
00000310: 9e52 e33e 6c9e b940 163b 2940 7455 a73e
00000320: 90aa 17c0 502d e43d 175a 813f f5d1 6bc1
00000330: f42a b73f 463b ad3e 197a 2bc0 4302 3ec0
00000340: be18 12c1 8bdc 49c0 5a52 1dbd f5b1 94bd
00000350: 4233 88bf d832 adbf ac8f 3cc0 be83 98c0
00000360: 6ed8 5941 91d2 4cbf d9a1 3b41 77d7 e3c0
00000370: 1b70 00c0 011c d740 9ffb 5fc1 cfbb f740
00000380: 8449 17bf 5954 5a3f fa44 87c0 a864 36bd
00000390: 940d ee3f a759 22be 91ca a0bf 82a2 22c0
000003a0: 560a 2fc1 0a10 f6bd 0e3c 0241 36ba 6540
-2.0934737 -0.6466986 -3.4323351 -8.518738 10.048968 -1.1950315 14.95048 1.8143386
0.7490452 -1.3083029 -1.3067865 -8.225924 2.057178 -2.8254893 -3.225166 -12.2935095
0.8830605 -11.222773 0.0117893275 -5.7907414 -0.54083925 -3.1074586 -1.289207 18.076284
1.8427641 9.9454046e-05 2.0844526 -6.225281 5.9391456 4.763167 -0.12499338 0.7769463
0.4408014 5.514452 0.1334273 -2.558881 0.18112347 2.5772967 -0.0056963093 10.475849
-0.054531574 -0.56732374 0.8268877 6.1055283e-07 2.6933646 -2.5531948 4.499035 -2.6301525
-2.3448598 0.41843507 -7.0127635 6.515885 2.9475586 20.620556 0.011839365 -11.2140465
4.131814 -1.5603011 1.5801196 -5.8303065 -0.8328381 -4.8939676 -2.9378352 14.032793
-12.071558 6.8942113 -15.05797 -0.0018960639 16.15965 -1.0504783 7.0381966 -2.0701385
-4.0490627 -3.4206948 -1.0564417 -11.627587 0.37803414 -5.8897133 -1.7335522 21.113117
0.16394664 -3.0181117 -0.42272708 -0.5674412 5.9067163 -17.345816 -0.96177214 -4.568381
-1.2799048 -17.457338 0.0022270277 -2.1740391 5.5163894 -11.911848 8.520942 1.4261615
3.2138789 0.16139306 -9.992827 0.41164413 22.255053 -2.807372 -13.163391 2.9501297
-3.272379 -0.9604034 1.5094391 -0.009251435 5.7030287 -5.3048143 19.45137 -0.12423789
-0.050819315 5.886083 6.4397116 -0.85060424 6.112492 -0.031109907 8.643483 -6.7902207
-0.15186927 1.3421054 -0.0023805713 13.7181835 9.425699 -8.876006 -2.5871763 8.758712
0.055700015 -3.1653564 -0.6756554 -13.785201 3.0332208 0.32711232 -9.8601 -5.193323
-0.95252925 -15.240603 -1.3768293 0.021138836 -4.0588036 9.739096 0.0031091594 1.3565847
0.5919674 0.001521814 -6.864107 -3.0795832 -0.19717187 -0.11076601 -8.692815 0.29200813
0.0013062574 9.003558 -0.29684508 -1.1774279 -11.339222 -0.6790275 -1.905523 -6.9093246
-1.0111088 -0.08492053 -3.8843946 -0.9094043 -1.5841217 -12.565213 4.2523384 -0.11938423
9.9493685 -1.7085888 1.0611995e-08 -0.0007962655 -3.110064 -1.7859176 -0.3263164 -2.48131
-4.478781 0.07374018 -4.4290667 -1.9200265 -0.6021831 -0.11886275 -0.013862774 8.240848
-4.0054216 -13.993125 0.42557228 6.9066525 8.348935 3.821174 0.00017438146 -1.2646666
12.48799 5.7540445 -3.5857546 0.042390835 0.4439897 5.8005886 2.6442313 0.32682383
-2.3697853 0.11141455 1.0105618 -14.738759 1.4309983 0.33834285 -2.6793272 -2.968888
-9.131041 -3.1540859 -0.038408615 -0.07260505 -1.0640643 -1.3531141 -2.946269 -4.766082
13.615339 -0.800088 11.727014 -7.120052 -2.0068424 6.7221684 -13.998931 7.741676
-0.5909655 0.85284954 -4.22717 -0.044529587 1.8597894 -0.15854512 -1.2561818 -2.5411687
-10.940023 -0.12014778 8.139662 3.5894904

encoder.norm.running_var f4 [236]
00000000: 5ecf 1f3f f795 913c d9ff fd3e bd9b 7f40
00000010: aedb 8240 56e2 6e3d b381 1241 67ca 523e
00000020: b562 3f3f 74c0 143e 71b0 cb3d 281e 4940
00000030: df30 ba3e 3465 a53e 3d47 cb3e d184 c440
00000040: 881f 913d b19b e740 1702 c036 dc10 b43f
00000050: 7ac1 493c 4bcb 0d40 46f4 733e 0c56 5e41
00000060: f535 723e c629 2f38 2e25 b33e 7fb2 1c40
00000070: c4d3 4740 5d8f 823f c157 383a cd34 1d3d
00000080: d59d 833e b8a1 a13f 04d4 843a 8efd a03e
00000090: 4126 e83a 66a4 873e 6b1f 1f36 f243 9140
000000a0: 4e8b 0b39 8cfb 5c3c fb6e 1d3d 09cc 0c2d
000000b0: 0b94 b83e aeb0 153f c4cf 5a3f 73dd 053f
000000c0: d28d 653f cd55 f13b 7e47 e93f e376 0140
000000d0: bf29 c03e bf41 8a41 d8df c836 6e9d a140
000000e0: 92c2 023f 9560 c83d 842b 2c3f f4ad dd3f
000000f0: 1106 d43c cd2b 8a3f 7c36 b63e ca28 f640
00000100: 3a2a 2941 21b3 0b40 107d 3841 847a 2234
00000110: f672 a341 2666 403d ef3e 0c40 a195 3a3e
00000120: 39dc c23f 6d0f f93e 35e0 413d 8fda db40
00000130: 79f8 9b3d f100 b23f 905b d73e 8bdb 8c41
00000140: 07db ab3a ca31 3640 90ec fc3b dfcc 123e
00000150: e71d c03f 2621 3441 82b5 b840 b90f 4b3f
00000160: 1895 9e3d c023 5b41 e9fb 6934 8b6d 693e
00000170: 358a df3f 20a2 b640 919b 8740 cc52 9e3d
00000180: d16d 2a3f 8bec 1b3b 8181 6f40 f7c3 e93b
00000190: f026 9941 8b90 823f 5163 eb40 4953 cc3e
000001a0: 8677 ed3e d19e 2d3d e972 053e 0cfb 243b
000001b0: f066 c73f 6fe6 973f b7b7 8441 3fe2 343c
000001c0: 9971 773d acb2 3c3f 307d d93f 2907 1540
000001d0: 2cf8 c73f 5a37 563c d86f 4440 147f 6140
000001e0: 295b 983a 5a76 9f3f 2dc0 d934 3d6c e840
000001f0: 0c38 8f40 f5c2 4f40 2fb1 943e b938 5640
00000200: 85f1 0839 b8a9 d73e c2c2 9d3c df3e fd40
00000210: febd 1b3f f6fa 063c bbd4 7c40 e2e7 9f3f
00000220: 9368 1f3d 4fff 3041 3bb2 953d d1b9 9d37
00000230: 6312 3e3f 0978 7240 9d31 2637 e64c e43d
00000240: 44c9 703c 7187 c336 2d63 0340 d285 c33e
00000250: c7b7 103b b4be 033a 95b3 5640 f7c2 c83b
00000260: 60f2 0b34 0bfa 7b40 de00 743b e6d8 7d3d
00000270: 9e1a a840 5a92 b53c 3ece 213e cf37 ea3f
00000280: 101f 1f3e 32b9 363a dd67 0f3f d109 103d
00000290: 8a8b d83d 74f5 0441 9394 753f 6752 523d
000002a0: 51a0 9140 1a8a 4b40 25ec ae22 7dee c733
000002b0: 3a9d cf3e 4b83 123e 6f7f 963b 708c 803e
000002c0: 20cb 763f 79cc 8639 e2c6 533f 0ed9 913e
000002d0: a13c 823c 8a0e 103a 0ddf fd37 dfb4 3340
000002e0: efda 743f 8a2a 3e41 87ae 393c 7aa0 bf3f
000002f0: 3bb2 2d40 1ef6 193f d133 db30 bc75 943d
00000300: b1fd c940 129b b03f 8b98 103f 6195 9e38
00000310: ed0b 083c 940f b23f bd41 963e 9f3e e43b
00000320: f632 683e 775f 0a3a 9914 333d b281 1241
00000330: 74d2 173e 17a3 933b bf0f 683e 7060 bd3e
00000340: 1194 5940 771b df3e ef0b 8138 396e 393a
00000350: f69f 413d 81aa 5f40 d7bc 903f 5748 6c3f
00000360: 9ebc 7141 cb18 063f feed d340 f1c8 0940
00000370: bcc4 133f e544 f33f 5350 3241 6cb2 2440
00000380: decc 873e 7d62 293d f824 ab3f be9a ae38
00000390: 5aee 0a3e 7a90 f53e 8e05 eb3e 37c9 903e
000003a0: 7197 f740 3027 173a 663d 2d40 5d70 0b3f
0.6242579 0.017771704 0.4960926 3.9938805 4.0893164 0.05832132 9.156665 0.20585023
0.7475999 0.1452654 0.09945763 3.1424656 0.3636541 0.32303774 0.39702788 6.141213
0.07086092 7.2377553 5.722289e-06 1.4067645 0.012314195 2.215533 0.23823652 13.896008
0.23653395 4.1762156e-05 0.34989303 2.4483945 3.1223001 1.0200001 0.00070321193 0.038380433
0.25706354 1.2627478 0.0010133986 0.31443447 0.0017711596 0.26492614 2.3711134e-06 4.539544
0.00013307968 0.013487708 0.038435917 8.0033835e-12 0.36050448 0.58472717 0.85473275 0.5229103
0.89669526 0.0073649646 1.8224943 2.0228813 0.3753185 17.282103 5.9865233e-06 5.0504675
0.5107814 0.097840466 0.672539 1.7318711 0.025881799 1.0794617 0.35588443 7.692479
10.572809 2.1828082 11.530533 1.5131997e-07 20.431133 0.046972416 2.1913412 0.18221141
1.5223457 0.4864458 0.04733296 6.8704295 0.07615752 1.3906537 0.42062044 17.607199
0.001311154 2.846789 0.00771863 0.14335965 1.5009125 11.258093 5.7721567 0.79320866
0.07743281 13.696228 2.179146e-07 0.22795694 1.7464052 5.7072906 4.23774 0.07730636
0.66573817 0.0023792114 3.7422793 0.0071339565 19.144012 1.0200361 7.3558736 0.39907292
0.46380252 0.042387787 0.13032116 0.002517405 1.5578289 1.1867198 16.589705 0.011040269
0.06041107 0.7371013 1.6991329 2.328562 1.5622611 0.01307472 3.0693264 3.5233812
0.0011623848 1.2457993 4.0559226e-07 7.2632127 4.4755917 3.2462742 0.2904143 3.347212
0.00013059944 0.42121673 0.019257907 7.9139247 0.6083678 0.008238545 3.950484 1.249264
0.03891809 11.062331 0.073093854 1.8802386e-05 0.74246806 3.7885764 9.9059225e-06 0.1114748
0.014696423 5.8272203e-06 2.0529282 0.38188034 0.0022082196 0.00050256704 3.3547108 0.0061267572
1.303356e-07 3.9371364 0.0037231962 0.06197443 5.253249 0.022164512 0.15801331 1.8298281
0.15539193 0.0006970345 0.5601786 0.03516561 0.1057349 8.309925 0.9592983 0.051348116
4.55082 3.180304 4.7412822e-18 9.3100404e-08 0.40549642 0.14307897 0.004592828 0.25107145
0.96403694 0.00025710816 0.82725346 0.28485912 0.01589805 0.00054953306 3.0263816e-05 2.8079145
0.95646566 11.8853855 0.0113331145 1.4970849 2.7140033 0.6014117 1.5949074e-09 0.072490185
6.312218 1.3797324 0.5648276 7.561851e-05 0.008303625 1.3911004 0.2934703 0.006965473
0.2267569 0.00052785076 0.043720815 9.156664 0.14826375 0.004505526 0.22662257 0.36987638
3.3996623 0.43575642 6.153422e-05 0.00070736144 0.04727169 3.4947817 1.1307629 0.9229788
15.108549 0.5238158 6.622802 2.1528895 0.5772207 1.90054 11.14461 2.57339
0.2652349 0.04135369 1.3370657 8.3257895e-05 0.13567486 0.4796179 0.45902675 0.28278515
7.7372365 0.0005766032 2.7068725 0.5446833
