checkpoints/ae_5%.pt (torch, 915143 bytes, 16 tensors)

encoder.linear1.weight f4 [236, 358]
00000000: 5750 b73a c6ce b9ba 7e65 b43b 5c44 ed3b
00000010: 4693 e8bb 121b ebbb c85f c5bd 0507 8c3c
00000020: 7400 c8bd c2e5 bfbb 9bb2 e0bb 1c01 1bbc
00000030: 64bd 84bb ef00 b0b9 5b9e 97bb 1f1f cebb
00000040: cf2e 63bc 16b9 0bbc 2675 95bb 7102 e9bb
00000050: d89e 7dbb 3dfc 88bc a9ce 63bb 7ddf 60bb
00000060: 262b 82bc 7547 2fbc e480 a6bc 2429 c3bc
00000070: 14b2 93bc f976 f0bd 5051 533d 65c5 19bd
00000080: 457f 893a 8672 063b 2113 2d3c 8fcf 2c3c
00000090: d1ab 7e3d 83b0 193d 3642 48bc 97e3 093c
000000a0: e9f1 3d3d d389 6abc 0455 12b9 d05b 2e3c
000000b0: cfc6 453c fba2 293a 2438 8239 9e94 b23b
000000c0: 5b2d 2cba 02ab 8dba ccbf 98bc 8b82 d93b
000000d0: 5fde be3b b0dd c23d a5e1 d339 e501 383b
000000e0: 5d64 8f3b 40a9 b03b b74a c53b e575 f53b
000000f0: 1284 8fba e450 ffb9 c5cc 53bb 00d3 e23a
00000100: e87b 103c 3086 b33b 1c3e b33b 6ff1 ab3a
00000110: cdaa 2fbb 806d 6f3b 1a36 87bb 6c78 9239
00000120: b2b0 a6b8 fba6 923b 71b9 fdb8 8308 1fb9
00000130: 5bde 3bb9 9d5f adb9 4588 aeba d696 85ba
00000140: 613b afb8 340a 6bbb fd33 d23b de60 c73a
00000150: abd7 a63a aa64 ad3a 3213 c93a 9b7a fa3a
00000160: c2fb 003b 71b3 083b 10bd c53b e88b a43b
00000170: c154 7abb 1f9b 543c 1a13 a23a 729c 9f3d
00000180: afe0 7e38 de2e 543c de64 543c 1b96 5d3b
00000190: 8bc3 f53b 68fc bb3c 2c9b a53a b8e4 5d3d
000001a0: 6d7b 88bc 40ca 81bc 244b afbd fb65 24bd
000001b0: 7539 263d ed44 48bd 6c94 193d ad5d 76bd
000001c0: d2ed ea39 4b7e dc3c 5845 083d cf99 7bbb
000001d0: 8e72 e33c 4104 aa3c 2548 763d f52c f23c
000001e0: fb20 a33c 44b2 983c 8a5b d63c 9c07 643c
000001f0: 531f 423c e4ea f83d 4b5c f83d d92e 4b3d
00000200: cad1 dc3c ddc1 a13b 27a9 1e3c 83fd 333c
00000210: 4560 b8ba 3b57 da37 d51b c93b 53c2 2b3c
00000220: 9551 843c 4779 f4b8 9383 3b39 c3d4 303a
00000230: b39b 833c 3bd2 e13a 64b2 313a 894e 55bc
00000240: 7475 2ebc b2b8 15bc e12b bbbc 2c9d 9b3c
00000250: acbd 4d3c 5fdb f1bc 3d0a 913c fca3 023d
00000260: 90cb 233d 872e 01bb d05f a03c 3e21 ecbc
00000270: 189a 9dbc 2dca d23c ee6c 4c3b 60c1 bdb9
00000280: 37c1 99bb 9566 a03b 931b e33b cdae 363b
00000290: 2839 de3a 1c34 1b3b 4320 243b c10e 633b
000002a0: 5f83 efba abf6 e339 2da0 b43b 8d14 763a
000002b0: c1e5 0aba 78f8 5a3b f5ed d7b8 afcc 6b39
000002c0: 5361 cc3b 2471 6bbc c69d 713c ef94 ae3a
000002d0: d5e4 6b38 4c3d c73a 6826 bbb9 8cc1 3a3c
000002e0: 4e33 c43c c94f aabc f26e 14b8 b148 11b9
000002f0: 7504 e637 9864 5b3d 26d6 d43d 8045 ac38
00000300: 60d2 013c 15ab 0f39 2f32 bcb7 7aa9 373e
00000310: 84d8 38b8 6739 1b35 d8c0 14b7 0490 1cbc
00000320: 59f1 bbb8 b6c0 d73a a1d4 6cb8 3afb 12b8
00000330: 088d 4d3a a56d 0a39 7469 2eb8 399a f739
00000340: d1f7 0ab8 e6ec 2037 fd35 77b8 b119 8e38
00000350: 9a80 c038 c30d c1b5 396a 19bd 9b9f 393e
00000360: e51b c637 fa79 8bb8 a118 eeb9 0df2 1fb8
00000370: e984 3fb6 143b 76bc 57c7 54ba 016e 11b8
00000380: 7f34 ddb8 685b 453a 93ea 28bb 7169 15b8
00000390: 2fa5 96bd c7a1 0abd 07dc 02bc cafa cb38
000003a0: 71d6 d238 deb4 d8bb 9972 a9ba f3f6 17b8
000003b0: 6867 6db9 ebb8 c9bb 4b25 be38 efff 9237
000003c0: 39bc 91ba e90d f7b7 8e3a 0f3a 58fd 453a
000003d0: ff19 eab9 0e1e 3aba 18dc f33a 3c07 563b
000003e0: 9ebd be39 a058 463a 170a 143b 12d7 3a3b
000003f0: 37b3 bc3a 78a0 003b 7137 8d3b 4cf6 4f3a
0.0013985735 -0.0014176003 0.005505263 0.007240815 -0.0070976345 -0.007174858 -0.096374094 0.01709319
-0.097657114 -0.0058562467 -0.006857229 -0.009460714 -0.0040508974 -0.00033570032 -0.0046270317 -0.006290331
-0.0138661405 -0.008528015 -0.0045610843 -0.0071108867 -0.0038699415 -0.01672184 -0.003476063 -0.0034312897
-0.015889715 -0.010698189 -0.020325132 -0.023823328 -0.01802925 -0.11741442 0.051591218 -0.037541766
0.00104902 0.0020515039 0.010563643 0.010547533 0.062175576 0.03752185 -0.012222817 0.008416078
0.04637328 -0.014315086 -0.00013955316 0.010642007 0.012071325 0.00064711244 0.0002483736 0.0054498455
-0.0006568038 -0.0010808411 -0.018646143 0.0066378764 0.0058248485 0.0951494 0.00040413174 0.00280773
0.004375978 0.00539127 0.0060208696 0.0074908608 -0.0010949394 -0.00048697658 -0.0032318097 0.0017305315
0.008818604 0.005478643 0.0054700505 0.0013118217 -0.0026804686 0.0036533773 -0.0041263225 0.0002793701
-7.948409e-05 0.004475472 -0.00012098521 -0.00015166592 -0.00017916544 -0.0003306837 -0.0013315758 -0.0010192047
-8.3557105e-05 -0.0035864236 0.006414889 0.0015211364 0.0012729069 0.0013228853 0.0015340804 0.0019110026
0.001968131 0.0020858909 0.006034501 0.005021561 -0.003819749 0.012976437 0.0012365312 0.077935115
6.0767572e-05 0.012950627 0.012963502 0.0033811394 0.007500117 0.022947505 0.0012634746 0.0541732
-0.016660416 -0.01584351 -0.08559254 -0.04013632 0.04058214 -0.048893858 0.03749506 -0.06014793
0.00044809148 0.02691569 0.033269256 -0.0038391238 0.027764585 0.020753982 0.060127396 0.029562453
0.019913187 0.018639691 0.026166696 0.01391783 0.011848289 0.12154177 0.121269785 0.049605224
0.026955504 0.0049364404 0.009683884 0.010985735 -0.0014066776 2.6028245e-05 0.006137351 0.010483342
0.016152183 -0.00011657416 0.00017882725 0.0006745571 0.016065454 0.0017228791 0.00067785964 -0.0130192125
-0.01064812 -0.009138273 -0.022848072 0.018995844 0.012557428 -0.02952355 0.017705077 0.03189467
0.039989054 -0.001971157 0.019576937 -0.028824445 -0.019238517 0.02573117 0.0031192857 -0.00036192965
-0.0046922225 0.004895041 0.0069307773 0.0027875185 0.001695429 0.0023682183 0.0025043644 0.0034646245
-0.0018273405 0.00043480596 0.0055122585 0.00093872176 -0.0005298518 0.003341226 -0.00010296322 0.00022487597
0.006237188 -0.014370237 0.014747089 0.0013319532 5.6241483e-05 0.0015200763 -0.00035696034 0.011398684
0.023950245 -0.020789998 -3.5389276e-05 -0.00013855357 2.7420212e-05 0.05356273 0.10392408 8.2145445e-05
0.007923692 0.00013701276 -2.2434715e-05 0.17935744 -4.4070664e-05 5.782553e-07 -8.866387e-06 -0.00955582
-8.961809e-05 0.001646063 -5.646481e-05 -3.5043086e-05 0.00078411447 0.00013201551 -4.1583044e-05 0.00047226416
-3.313256e-05 9.5919e-06 -5.893967e-05 6.775873e-05 9.179227e-05 -1.4383626e-06 -0.037454817 0.18127291
2.3616429e-05 -6.6507564e-05 -0.00045413247 -3.813398e-05 -2.8538582e-06 -0.015028734 -0.0008116862 -3.4673143e-05
-0.00010547879 0.0007528574 -0.0025774583 -3.562257e-05 -0.07355725 -0.03384569 -0.007987029 9.7265074e-05
0.00010053523 -0.006613358 -0.001292783 -3.6231195e-05 -0.00022640603 -0.006156077 9.066852e-05 1.7523735e-05
-0.0011118717 -2.9451172e-05 0.00054637424 0.0007552705 -0.00044651327 -0.00070998154 0.0018605022 0.003265812
0.000363809 0.0007566307 0.0022589022 0.002850954 0.0014396672 0.0019626897 0.0043095876 0.00079331244

encoder.linear1.bias f4 [236]
00000000: 383d 4d33 c5e6 0000 0c55 0080 5232 c9b3
00000010: 6513 0100 15cd e033 ce8f 0080 a832 15b2
00000020: e1af 0000 b28c a5b3 fcd5 f332 53c3 1f33
00000030: 3c37 0080 31fd 1a34 daa2 7833 82e7 8633
00000040: cc4a 0000 f3e8 e02a cdd6 cdae c25a 0234
00000050: 6855 01b3 e512 a132 6b19 0080 cfa6 24b4
00000060: 1f3e ae32 90ce 0833 eb63 f4b2 4b01 a4b2
00000070: 5d33 41b2 a5cb 4932 f2a9 c933 ec56 9a33
00000080: df95 0000 3727 ac33 65ef 2033 6759 5fb4
00000090: e9bf 5033 0964 0100 c204 65b3 f7cf 0080
000000a0: f62f 0000 85dc 112f 681c 69b2 a8fc 7e31
000000b0: 8a14 8833 09ca 2132 2ac8 51b5 fb2f 4b33
000000c0: 0267 7f33 46d9 bcb3 5e4c be34 e532 8d30
000000d0: b4b3 2032 66fc fab3 ffe0 0080 2a89 02b1
000000e0: 940c 1cb4 1088 1833 63d8 3834 dd5d 84b4
000000f0: fd5c 642e 781b 94b3 b782 8833 2a7d a2b3
00000100: fcbd 9133 9cc0 0000 5359 dd33 2bc1 26b5
00000110: 9c4f a433 2f87 98b3 35f5 0080 6473 feb3
00000120: 4722 96b1 aee6 08b4 6d2c 0100 0df8 8032
00000130: c1ea 08b4 b93d 0180 cc1f 0735 c9fb 2934
00000140: 4bab 58b2 645f 8a32 c6f8 3fb4 dc2e 5db3
00000150: 534d f634 f981 42b0 f561 0100 f8d1 02b2
00000160: 0773 3a33 41ed 2fb3 984b 8db3 1a2c 9cb1
00000170: db52 c333 e806 bdb4 b498 af33 4ec1 7f32
00000180: 7d0c 0033 24ba 872e 55c3 0000 cc5c 8aaf
00000190: 5c76 b630 d09d 31b0 638a f4b3 081b 6ab2
000001a0: 8065 c633 1f67 c932 c1ef 2ab4 0312 7733
000001b0: f8d9 6333 5a5a f033 796c 0080 5632 9734
000001c0: 7069 6eb3 790a 8c34 ed2e 5234 613c 0080
000001d0: e5bb 80b4 78d4 9e33 d1bc 70b2 4812 0080
000001e0: 99d0 0000 80f1 b534 a924 90ac 484f b634
000001f0: cecb ab32 ac22 8e31 6c32 0000 ed27 8432
00000200: 593d 97b3 4037 5133 fd72 f6b2 96e6 aa31
00000210: 5d53 a0b3 a3c0 3d32 1fb7 d331 ce35 e4b1
00000220: 1a96 cab3 6b96 2bb2 6af6 4534 4522 a3b2
00000230: 066c ebb2 9dfb 7234 c84a 5bb4 a2e2 03b4
00000240: 6afa fd31 de58 0080 1df5 0000 73af feb1
00000250: 9be3 8331 cdb3 2334 aa2e 3f35 3de0 0720
00000260: 28b7 9831 4620 8134 eb9a f6af 4af0 19b2
00000270: 3f3e 19b4 4e4e 27b4 21dc d1b4 0b34 1c34
00000280: 1c1d 9834 00d7 02b4 7c82 7fb1 7f32 96b3
00000290: d047 1d31 4f28 81b3 3616 0000 af16 0100
000002a0: 2fc8 5832 139b 3ab1 9486 7133 7c86 d531
000002b0: 24fe 5e32 c9fa 1f9a a6bb 94b2 f025 a833
000002c0: 4b49 6a34 7943 1330 090c 8f30 7fac 5933
000002d0: c4e0 12b3 c016 2732 bb02 dd30 3554 ab33
000002e0: 8216 f4b2 a430 deb2 d542 f033 b34f 0000
000002f0: 4e0b 00b2 4a03 0080 0fcd 9531 a828 0832
00000300: 6c57 85b4 651d 0180 d76d 0080 db88 3f32
00000310: 39d2 0080 1ddb 8bb1 bc51 f032 254f 5db2
00000320: 1016 0180 13d5 5634 65d7 fbb2 ef26 95b4
00000330: 9f8a 0080 e08d 2bb4 dba0 c2af e0c7 802e
00000340: 708f a52c 9567 cb32 c0f4 bd35 d8a6 9333
00000350: 3cbf 9a35 4be8 0080 5c9d 3b33 d59c af31
00000360: f2a1 0080 856b da9b 36b1 00b4 e21b 0100
00000370: 8daf 3633 c952 0000 c8c4 0000 2151 92b3
00000380: 92f6 8e33 0708 0180 c26e d333 65b6 0080
00000390: 4b2b a6b3 066c 4b34 c5c4 5d33 e4ee 06b1
000003a0: d1b3 85b0 b1bb 0080 6462 0080 ea28 00b3
4.778596e-08 8.2785e-41 -3.0509e-41 -9.368945e-08 9.8793e-41 1.0468117e-07 -5.1587e-41 -8.684459e-09
6.3093e-41 -7.7090036e-08 2.8386232e-08 3.719772e-08 -1.9814e-41 1.4434478e-07 5.7890112e-08 6.281972e-08
2.6832e-41 3.9952034e-13 -9.360477e-11 1.2140211e-07 -3.011283e-08 1.8751459e-08 -9.118e-42 -1.5334375e-07
2.0284515e-08 3.1852835e-08 -2.8450776e-08 -1.90927e-08 -1.1245757e-08 1.1746043e-08 9.390705e-08 7.186995e-08
5.3764e-41 8.016507e-08 3.747063e-08 -2.0801018e-07 4.8603315e-08 1.27721e-40 -5.3322545e-08 -7.4604e-41
1.7205e-41 1.3266017e-10 -1.3568844e-08 3.7105483e-09 6.3367295e-08 9.417371e-09 -7.8149844e-07 4.730826e-08
5.94655e-08 -8.793954e-08 3.5445822e-07 1.0273565e-09 9.3540855e-09 -1.1687443e-07 -8.0713e-41 -1.8995459e-09
-1.4533208e-07 3.5514006e-08 1.7215056e-07 -2.465521e-07 5.1923788e-11 -6.8967836e-08 6.3567704e-08 -7.56648e-08
6.7866466e-08 6.9095e-41 1.03073624e-07 -6.2120915e-07 7.651326e-08 -7.102641e-08 -8.7964e-41 -1.1848786e-07
-4.3694715e-09 -1.2749908e-07 1.07772e-40 1.5013962e-08 -1.275139e-07 -1.13977e-40 5.033769e-07 1.583095e-07
-1.2611802e-08 1.6108693e-08 -1.7878764e-07 -5.149819e-08 4.5877331e-07 -7.076149e-10 1.26976e-40 -7.614737e-09
4.3411116e-08 -4.0961144e-08 -6.5795746e-08 -4.5452113e-09 9.0954664e-08 -3.5209018e-07 8.176849e-08 1.4886906e-08
2.981368e-08 6.1721545e-11 7.0072e-41 -2.516799e-10 1.3275883e-09 -6.461649e-10 -1.1387308e-07 -1.3626739e-08
9.238556e-08 2.3446374e-08 -1.5919706e-07 5.752555e-08 5.3050798e-08 1.1192306e-07 -3.8913e-41 2.8162566e-07
-5.5509588e-08 2.6084652e-07 1.9574846e-07 -2.166e-41 -2.397857e-07 7.396096e-08 -1.40127705e-08 -6.558e-42
7.4831e-41 3.3889592e-07 -4.0967963e-12 3.3957826e-07 1.99997e-08 4.1366857e-09 1.8088e-41 1.5384979e-08
-7.0426445e-08 4.8711854e-08 -2.869046e-08 4.9738658e-09 -7.465744e-08 1.1045048e-08 6.1617267e-09 -6.6417902e-09
-9.433661e-08 -9.987711e-09 1.84367e-07 -1.8991281e-08 -2.7406724e-08 2.2629543e-07 -2.042317e-07 -1.2282774e-07
7.391738e-09 -3.188e-41 8.793e-41 -7.412319e-09 3.8384775e-09 1.5245969e-07 7.122095e-07 1.1509139e-19
4.4446047e-09 2.4051604e-07 -4.4857215e-10 -8.9604075e-09 -1.427188e-07 -1.5581574e-07 -3.9089448e-07 1.4547565e-07
2.8333386e-07 -1.218541e-07 -3.7181556e-09 -6.9941045e-08 2.2887328e-09 -6.014363e-08 7.968e-42 9.9973e-41
1.2618371e-08 -2.7154712e-09 5.6234583e-08 6.214405e-09 1.2979886e-08 -3.3083012e-23 -1.73148e-08 7.8300104e-08
2.1819612e-07 5.3574173e-10 1.040804e-09 5.0681134e-08 -3.4197697e-08 9.725852e-09 1.6080642e-09 7.978125e-08
-2.8415574e-08 -2.586632e-08 1.11880276e-07 2.859e-41 -7.453151e-09 -1.18e-42 4.359783e-09 7.925486e-09
-2.4836788e-07 -1.0238e-40 -3.9403e-41 1.1148781e-08 -7.5414e-41 -4.0703427e-09 2.7976846e-08 -1.28818884e-08
-9.975e-41 2.0007819e-07 -2.9318196e-08 -2.778174e-07 -4.9728e-41 -1.597723e-07 -3.540269e-10 5.856271e-11
4.705507e-12 2.3679414e-08 1.4152829e-06 6.8755696e-08 1.1529551e-06 -8.3331e-41 4.3682448e-08 5.111e-09
-5.8095e-41 -3.6134558e-22 -1.1985398e-07 1.01838e-40 4.253484e-08 2.9698e-41 7.0592e-41 -6.813412e-08
6.657241e-08 -9.4715e-41 9.8456e-08 -6.5431e-41 -7.737852e-08 1.8945147e-07 5.1634533e-08 -1.963536e-09
-9.72813e-10 -6.7331e-41 -3.5296e-41 -2.9839534e-08

encoder.linear2.weight f4 [118, 236]
00000000: 0378 783c 2606 edbd d840 9e3b 2203 0a3c
00000010: 5d29 cd38 7dc8 2abc deb2 993a c4a3 8e39
00000020: c80e 59bd 684d 01bd 73b6 2d3b c558 c8bd
00000030: 20ed 1a91 6ca1 8f3c d40b f03a b044 b33a
00000040: 0d2f 53bb 8a1b 94bd b8ba 6639 4b2c 15be
00000050: 35e0 7eba 1fbe 96bb 9e12 8d3c 5c43 4ebe
00000060: 035e 20be 8d3f 95bb 2e32 7dbd ea4d 98bd
00000070: e11c abbb ea2f a93c d413 d93b 52c6 f4bd
00000080: 8061 4739 eb8e d03b 34d0 2e3d 54d9 f4bb
00000090: 928d ce3c 98d3 4cbd e14a 52bd 74d0 cb2e
000000a0: 6adb 1e35 3aa2 50b9 58a9 fbbd 6bf4 5dbe
000000b0: 35a7 1fbe f4db 9ebb ba04 2a3c 4f6e babb
000000c0: 4bf1 be3c ebd1 953c 3c6d 54be 2beb 3d39
000000d0: 015a 843c 7185 eb3b bdca d097 3319 15bd
000000e0: a801 d0bd f687 cbbd a040 003c 4164 78bd
000000f0: 9018 49bd ff7e 8bbc d0cf e7bd abdd 80bc
00000100: a028 91bc e317 00bd 0ba5 d5bc 4526 1fbe
00000110: ce39 393b 60bc 113b eb45 8cbd 7082 0e3d
00000120: 4a6a bf39 5f27 f0bd fbb9 35bb f980 cc3c
00000130: ed3a cd3a 2536 a03a 3f81 dfbb 7f7c 9bbb
00000140: 240f 063d 38eb 083b e86d 2ebc c9b1 743b
00000150: 46a0 70bc 2b39 4c38 adde 2939 4f56 ecba
00000160: c6f1 2bbe ec02 a2bb 82e8 f8bd 3632 04be
00000170: b528 933b 58e2 8d3c fd50 f1bd 3ba8 d53a
00000180: 4e70 2bbd e0f0 6d35 1a10 81ba 7343 8dbd
00000190: 8d9e d63a 324b 753b 099f 4bbd 3fc1 9b3c
000001a0: bd10 a5bd 9752 383a 9509 003d 0ffc 9f3c
000001b0: bf72 32bb d2e5 49bb b6ad c3af 94be 133c
000001c0: dabf 253c e2ed d13b d6eb d2bd 9673 08bd
000001d0: 8c8b fbba 9370 973a 6d07 3a3d d635 e1bb
000001e0: ac31 a6bd 40bd 1bbe 4996 57b5 6a9a 69bc
000001f0: 97ed 03be c34f feb9 74a7 fcbd f195 d8bd
00000200: 46fe ec3b 7821 78b9 4cda 5ebb 91cc 0abe
00000210: 6f28 31bb 2eb0 c6ba 3c15 80bc ad0d 0338
00000220: 1218 093c 9f65 c9bd 232f 153c 6ec6 0bbd
00000230: 0849 1f3b fcd6 d0ba 3783 663b 34dd 143c
00000240: 4a23 8abc ca81 0939 88da 5cbe 85f2 3c3b
00000250: 894e 6dba 06c3 ba3b 78fc 7fbe 718e 0bbd
00000260: 89c2 7138 ff8a b8bd ba4f 94b8 1e5f 06be
00000270: 93f3 413c 410b 163c e48f 0e3c 64e8 c1bd
00000280: 4019 36bd ca11 c83b 95df df3b 033b 443c
00000290: 21ab b53a 25f1 45bd ffbb e0b8 4203 df37
000002a0: a1a5 34be 3d2a 793b 5c51 24be cbcc 303b
000002b0: c0d3 3bbe bffe 9bb6 0214 d438 34b3 dcba
000002c0: 8b0b e5bc 6713 563a 2c5b b13b cb48 59bd
000002d0: de1b 2e3c 63bd 2e3c 474b 8dbb 5300 a9bd
000002e0: 7506 7c3c 725a 91bd 28f7 af3b 609a 0cbe
000002f0: 813e 8b39 d133 013c 93cf 33be aba5 f8bd
00000300: a50a a63c 279c 14b6 2c29 9cbd 4248 84be
00000310: 178a 5a39 eace 6bbb 1615 50be 2717 23be
00000320: 0a25 2e3b 9309 dbbc fa9b 6e3b 4d90 453a
00000330: 4788 0e35 5306 a33c bd24 453c 372a b4ba
00000340: 9ad8 21be afc6 20bd 303f fa3c b88b f03c
00000350: 9e08 a039 aa55 8dbd a1e7 aabc c038 abbd
00000360: f2a1 a1bd 7149 26be 1e19 8fbc c246 66be
00000370: 0de9 1fbe 6a6c a939 78b5 35b3 74d4 e9bd
00000380: fb00 a0bd 188e c73c e260 ccbd d3cf aebd
00000390: 60d2 2d3b 081f 36bd ec40 ea3a 5e00 e0bd
000003a0: e0ab b5b9 ba28 0fbe 763f b9b2 5f29 32be
000003b0: 9c67 fa3d e350 f5bd 5173 be3c 9c64 11bd
000003c0: 4b11 383d 7bba 123e 243d 70bd 243d 5f3d
000003d0: 007e 39bd 0ede ea3d 9c48 2abe 7cd4 08bc
000003e0: ce63 ad3d a8f2 7cbc 38a5 4fbc d074 b13c
000003f0: 65fe 9e3d 1e35 c0bd 702b ecbb 4590 4d3d
0.015165332 -0.11573438 0.0048295073 0.0084235985 9.782866e-05 -0.010423777 0.001172628 0.00027206365
-0.052992612 -0.03156796 0.0026506453 -0.097825564 -1.2221528e-28 0.017533027 0.0018314072 0.0013677087
-0.003222409 -0.07231815 0.00022004067 -0.14567678 -0.00097227405 -0.004600301 0.017220791 -0.20142883
-0.15660863 -0.004554695 -0.061815433 -0.07436736 -0.0052219485 0.02065273 0.006624678 -0.11951889
0.0001901444 0.0063646934 0.042679027 -0.0074721966 0.02521399 -0.05000648 -0.05134094 9.2684e-11
5.9178876e-07 -0.0001989686 -0.12288159 -0.2167527 -0.15591128 -0.004847998 0.010377103 -0.0056894193
0.023308417 0.018288573 -0.20744795 0.00018112051 0.016156198 0.0071875383 -1.3492863e-24 -0.036400985
-0.10156566 -0.09938042 0.007827908 -0.060642485 -0.04909569 -0.01702833 -0.11318934 -0.0157307
-0.017719567 -0.03127278 -0.026079675 -0.15541942 0.0028263214 0.0022237524 -0.06849273 0.034792364
0.0003650955 -0.117262594 -0.0027729261 0.024963843 0.001565782 0.0012223168 -0.0068208273 -0.0047450657
0.032729283 0.0020892154 -0.010646321 0.0037337414 -0.01468665 4.8690632e-05 0.00016200049 -0.0018031093
-0.16791448 -0.004944196 -0.12153722 -0.12909779 0.0044909366 0.017319843 -0.117830254 0.0016300747
-0.04185515 8.86399e-07 -0.0009846718 -0.068976305 0.0016374156 0.0037428853 -0.049712215 0.019013045
-0.08059833 0.000703135 0.031259138 0.01952937 -0.0027229039 -0.003080715 -3.5593722e-10 0.009017605
0.010116542 0.0064065317 -0.102988884 -0.033313356 -0.0019191368 0.0011553935 0.045417238 -0.006872873
-0.08114943 -0.15208912 -8.0312435e-07 -0.014258007 -0.12883602 -0.00048506082 -0.12336627 -0.10575474
0.00723246 -0.00023663591 -0.0034004627 -0.13554598 -0.0027032157 -0.0015158707 -0.015635125 3.124557e-05
0.008367555 -0.09833836 0.009105477 -0.034124784 0.0024305005 -0.0015933211 0.0035173425 0.009085942
-0.01686253 0.00013113688 -0.21567738 0.0028831076 -0.0009052535 0.005699518 -0.24998653 -0.03407139
5.7640053e-05 -0.090108864 -7.07204e-05 -0.13122222 0.011837858 0.009157957 0.008701298 -0.09468153
-0.044457674 0.0061056362 0.006832073 0.01197696 0.0013860204 -0.048325676 -0.00010716169 2.6585189e-05
-0.17641307 0.003801956 -0.16046661 0.0026977535 -0.18342495 -4.6490163e-06 0.000101126745 -0.0016838075
-0.027959606 0.00081663433 0.00541248 -0.053047936 0.010626761 0.0106652705 -0.0043119523 -0.08252015
0.015382399 -0.07097329 0.0053700395 -0.13730764 0.00026558715 0.007885889 -0.17559652 -0.12140974
0.020268748 -2.2144611e-06 -0.076250404 -0.25836378 0.00020841543 -0.0035981485 -0.20320544 -0.159268
0.002657237 -0.026737964 0.0036408887 0.0007536456 5.309743e-07 0.019900477 0.012032685 -0.0013745491
-0.15805283 -0.03925198 0.030547708 0.029363498 0.00030523998 -0.06901105 -0.020862402 -0.083604336
-0.07892217 -0.16238953 -0.017468031 -0.2248793 -0.15616246 0.00032314967 -4.230739e-08 -0.11417475
-0.07812687 0.024359748 -0.099794164 -0.08535733 0.0026523098 -0.044463187 0.0017872131 -0.1093757
-0.00034651067 -0.1398038 -2.1565693e-08 -0.17398594 0.12226793 -0.119783185 0.023248347 -0.03549634
0.044938367 0.14328949 -0.05865206 0.054501668 -0.04528618 0.11468135 -0.16629261 -0.0083514415
0.08466302 -0.015438713 -0.012673669 0.021662146 0.07763366 -0.09385131 -0.0072073266 0.050186414

encoder.linear2.bias f4 [118]
00000000: a8aa 3d33 1099 5bb4 8a9a 0834 7629 8d34
00000010: d89a 39b3 48b7 d2b4 da7a c832 235f 26b4
00000020: e6a7 0d35 9c89 3eb3 47ec 20b5 e075 1933
00000030: c4a2 f4b3 10f6 a532 eadd 7034 ee8e 44b0
00000040: 0953 59b4 db94 a333 84f7 3bb4 4bb7 4332
00000050: 3081 a8b4 0290 fa33 6730 e6b2 38c9 14b4
00000060: da3d 18b0 ec22 7ab5 ebe6 11b3 c335 1db5
00000070: 61a9 94b4 8786 08b5 0b76 d5b4 7d27 2c35
00000080: 500d 0b34 20bf 59b5 df68 89b3 0653 8834
00000090: 7feb 85b4 4352 a733 cd69 85b4 5464 9ab4
000000a0: 2087 feb2 38d7 fa34 3338 ad32 fb6f d334
000000b0: 0c82 4e33 1991 beb2 e825 63b4 897f 2434
000000c0: 539d bc33 d795 0c34 3c43 6532 cec9 30b3
000000d0: c6c4 86b3 abd9 39b4 5444 00b5 c16b fdb3
000000e0: ebb3 2934 48b6 f831 d157 59b3 8f59 6c34
000000f0: ecce 00b5 6e06 24b4 56b7 e7b1 c96c 9733
00000100: 8462 67b4 5080 be34 6776 1133 afeb d034
00000110: 5b5f d6b3 30cf 9a34 3308 83b3 4486 5734
00000120: 599b 4ab4 f882 6fb4 0bc2 d634 e7be 8d34
00000130: 2d5a 0db4 f475 cd34 3275 35b2 6192 fbb4
00000140: f2ac ac33 2e14 a7b4 33cc 5834 9e69 6033
00000150: 6eaf b633 1884 4134 f586 31b4 d021 52b5
00000160: 0fb1 b4b4 9ef4 f032 c4e4 7eb4 cc62 51b3
00000170: 1aac 71b4 83f9 68b4 1b59 36b4 be77 97b3
00000180: 3633 b8b4 d8c0 9e34 dcd4 0435 0487 eeb3
00000190: ea93 a1b3 bb11 65b4 403e e033 1c0b f7b3
000001a0: 6fe0 a6b4 91bc 7ab4 6ea4 b0b3 28b7 cfb4
000001b0: d20e 00b4 321c a1b4 b8a4 8233 9a3e 9db3
000001c0: 86d3 3334 9f56 03b4 ca5f 99b2 ed4c 1035
000001d0: b438 b334 cd64 ccb4
4.4160203e-08 -2.0451648e-07 1.2722208e-07 2.6293463e-07 -4.32145e-08 -3.9248903e-07 2.333893e-08 -1.5494565e-07
5.277092e-07 -4.4362977e-08 -5.9948474e-07 3.5730295e-08 -1.1391742e-07 1.9320424e-08 2.2432474e-07 -7.15075e-10
-2.0239908e-07 7.6173556e-08 -1.7505778e-07 1.139217e-08 -3.1386435e-07 1.1667727e-07 -2.6797535e-08 -1.3856777e-07
-5.5385174e-10 -9.3183075e-07 -3.3970462e-08 -5.856529e-07 -2.7690388e-07 -5.085971e-07 -3.976023e-07 6.4132456e-07
1.2950227e-07 -8.1116923e-07 -6.3986356e-08 2.5392382e-07 -2.4944526e-07 7.791507e-08 -2.485016e-07 -2.8757734e-07
-2.963094e-08 4.672272e-07 2.0165407e-08 3.938329e-07 4.808139e-08 -2.2184894e-08 -2.1154813e-07 1.5320087e-07
8.783049e-08 1.3093027e-07 1.3344842e-08 -4.1161734e-08 -6.275654e-08 -1.7308655e-07 -4.7783146e-07 -1.1800831e-07
1.5804805e-07 7.238473e-09 -5.060412e-08 2.2011794e-07 -4.7984827e-07 -1.527603e-07 -6.7438277e-09 7.051273e-08
-2.1549391e-07 3.5483617e-07 3.386813e-08 3.8914501e-07 -9.9824966e-08 2.8835484e-07 -6.101654e-08 2.0072281e-07
-1.8869231e-07 -2.2306256e-07 4.000179e-07 2.6402196e-07 -1.3164454e-07 3.8270048e-07 -1.0562234e-08 -4.6858898e-07
8.040833e-08 -3.1120857e-07 2.0190855e-07 5.2250122e-08 8.506946e-08 1.8022581e-07 -1.6533507e-07 -7.82803e-07
-3.365644e-07 2.8050916e-08 -2.3738818e-07 -4.875146e-08 -2.2507484e-07 -2.1697456e-07 -1.6982487e-07 -7.0532664e-08
-3.4309932e-07 2.9570106e-07 4.9483583e-07 -1.1107298e-07 -7.524052e-08 -2.1333737e-07 1.0442136e-07 -1.15038546e-07
-3.1083206e-07 -2.3351664e-07 -8.225548e-08 -3.8690018e-07 -1.192632e-07 -3.0009102e-07 6.083559e-08 -7.3222694e-08
1.6747626e-07 -1.2231838e-07 -1.7855104e-08 5.375612e-07 3.3382605e-07 -3.8071303e-07

encoder.norm.weight f4 [236]
00000000: ed0e e63e 7e36 cf3c 47be 883d 8809 b53e
00000010: fc05 3639 266b f93e aeac fb3b 2090 653e
00000020: 1240 a23b b6d7 d13e 8541 413e 1d2e 253e
00000030: fd72 90ba 691e e53e eddc c23d 95d8 b23d
00000040: 5ac2 8e3a cdbb b73c edea 253c 56ce c83e
00000050: 3d78 323d 7f6c 163e 1c1f 3a3b e217 6a3e
00000060: 1ad0 9c3e 35e0 993d 5818 f33d 92fa 943d
00000070: ddd4 c43d 7ee6 9f3d f260 773e 1212 d63c
00000080: 91f0 8c3a 3241 033e d95e 1c3f 74f0 1c3f
00000090: d9ff 1a3f 3233 253b 006e dd3e 357f 5d3b
000000a0: bee6 a53c ea08 0c3c e015 d0bc 0263 473d
000000b0: 88d5 e23d 7951 233f 33f0 7e3f ab51 f23d
000000c0: e071 cf3e f94f d93e dfcc f73d 1de5 083e
000000d0: 10a3 533d 021c 233e 0c8d 8737 9a3f c43b
000000e0: fce3 803e 34b3 de3d 5215 323e fa7e f43e
000000f0: 71b4 f53d 5477 4f3e 74af f33e eda6 9c3e
00000100: bc50 683e 40c5 e13a 3159 5f3e 7e33 853e
00000110: 0c6e 143e 205a 0f3e 99c6 67bb 5f4e fe3e
00000120: 8ce0 383d 706c ba3d 89eb a03c 9bc6 643e
00000130: 9fb1 1d3e ad56 7c3b bb83 053f eea1 f43e
00000140: 60b2 d23e 2499 e53d b563 bd3e 69d6 143e
00000150: d923 863e 123f 553d a1ae 1d3d f9d9 ba3d
00000160: 23bc 2a3e 1316 663e 8b46 013e f466 073d
00000170: ece9 a93e e802 733f 7c1b 5d3d a21e 153d
00000180: 0555 d83d c201 b43c a8fb 413d 335a 153e
00000190: 866a df3c 81c7 9d3d 6abb 003f 6f2e 383e
000001a0: 9354 473e 033a 373e c8de 2f3f b671 0b3f
000001b0: b7de 893e f5bc 5e3f 3d99 c7ba e38c ad3e
000001c0: 1bd0 763e 790f 583f 089f 233e a38a 493d
000001d0: 3279 3f3f a36d 3c3e 702b b53e 0a70 2035
000001e0: 2f26 de3a 22a3 623e 7dab b63d d230 b33e
000001f0: 17de 773e 52e3 b13e a430 113c 1c8f e43e
00000200: 093a 6f3e ca2e 153d cf97 203e b4d1 193e
00000210: 465f c43e f110 fa3d 4107 ad3e f891 c23d
00000220: 5053 ab3e 3ec7 2c3e 0c58 363f 4dbc 583e
00000230: a888 1fbe 0fe6 373e 5b17 403e 2271 d33e
00000240: e533 ec3e 0ca7 003d b4f0 bd3c c925 bf3d
00000250: 29f4 1cbd 1547 b23e ff93 003f b069 87bb
00000260: 8d18 293e 3327 4c3e 561d ad3c de87 8b3e
00000270: 4a1a 1d3f 5891 a43d 5410 493f be78 0a3f
00000280: 6169 2e3e 9dc0 f33e d9fa 513e e266 923e
00000290: 4440 83bc 76f4 243e c816 ed3a ff1e 983d
000002a0: 4219 183e 6147 90bd 0c50 ab3e ddfa 963e
000002b0: 7c15 883e 22a6 d03d c503 453e fff2 043f
000002c0: 545e 553f f119 1e3d bced b13d 7962 dd3d
000002d0: 97d8 a23e 2bdc 823e 3949 da3e 621c ed3d
000002e0: bdbb bb3e 0f36 303e 71a2 7f3e 6635 893c
000002f0: 5bfa 8e3e 3627 4c3a adf2 7d3e 8e1e 973d
00000300: f1c5 883e f540 bbba c339 873c d05f 2e3d
00000310: b699 23bc 83e4 bf3e 24c5 1c3e a379 c93b
00000320: 7e02 c63c f6ce 153f 2403 053f 652b ac3e
00000330: 3273 f0ba 9cd0 0d3f 033b c93e 3326 273e
00000340: 6e26 eb3a 8b01 203e a05f 8e3f 329c 143f
00000350: 8fe6 213f 2f97 f73c 54fb 9d3e 6c14 bd3e
00000360: 3c7f df3b c7d7 6e3d a4a8 fd3e 6a4f e7bb
00000370: cb53 863e 6052 f43b 8ffd 1c3d 8d0f 0c3e
00000380: c59c 263e c2c7 3e3c 1a08 123e d314 c53b
00000390: c682 483e 112b 563e 9da1 e63e c473 293d
000003a0: 7a2c 063e 74ef fb3c c734 bbbb f718 1a3e
0.44933262 0.025294539 0.066769175 0.35358834 0.00017359102 0.4871456 0.007680497 0.2241826
0.0049514854 0.40984887 0.1887265 0.16130872 -0.0011020597 0.44749764 0.095147945 0.08732716
0.0010891662 0.022428418 0.010126811 0.39219922 0.0435717 0.14689825 0.002839989 0.22860673
0.3062752 0.07513467 0.118698776 0.07274355 0.09610913 0.07807635 0.24158075 0.026131663
0.0010752847 0.12817839 0.61082226 0.613044 0.6054664 0.0025207517 0.43247986 0.0033797745
0.020251628 0.008547047 -0.025401056 0.048678406 0.11075884 0.6379619 0.99585265 0.11831983
0.40516567 0.42443827 0.12099623 0.1336865 0.05166918 0.15928653 1.6158934e-05 0.005989027
0.25173938 0.10874024 0.17390946 0.47753125 0.11997307 0.20260364 0.47594798 0.30596104
0.22687048 0.0017224923 0.21811368 0.26015848 0.14495105 0.13999224 -0.0035366176 0.49669167
0.04513602 0.09102714 0.019643562 0.22341387 0.15399788 0.0038503811 0.5215413 0.47779793
0.41151714 0.1121085 0.36990133 0.14534916 0.26199225 0.0520621 0.038496617 0.09123606
0.16673331 0.22469358 0.12624566 0.033057168 0.3318628 0.9492631 0.05398129 0.036406167
0.10563091 0.021973494 0.04735914 0.1458519 0.027272474 0.07704068 0.5028597 0.17986463
0.19465856 0.17893223 0.6869931 0.54470384 0.2692773 0.87007076 -0.0015228164 0.3389655
0.24102823 0.8439861 0.15978634 0.04920448 0.74794304 0.18401198 0.35384703 5.9767683e-07
0.0016948635 0.22132543 0.089194275 0.34998184 0.24205814 0.34743744 0.0088616945 0.44640434
0.23361982 0.036421575 0.1568291 0.15021402 0.38353938 0.122102626 0.33794597 0.095004976
0.33462 0.1687288 0.712281 0.21165581 -0.15579474 0.17958854 0.1875891 0.4129725
0.46133342 0.03140931 0.023186065 0.09333379 -0.038318787 0.34819856 0.50225824 -0.004132472
0.16513272 0.19936828 0.021132153 0.27252096 0.6136824 0.080355346 0.7854054 0.5409049
0.17032386 0.4760789 0.20505847 0.28594118 -0.016021855 0.1610888 0.0018088454 0.07427787
0.14853385 -0.070448644 0.33459508 0.29488268 0.2657889 0.10187937 0.19239719 0.5193328
0.8334706 0.03859896 0.08687922 0.10809798 0.3180587 0.255586 0.4263399 0.11577679
0.3666667 0.17208122 0.2496431 0.016749095 0.2792538 0.00077878253 0.24799605 0.07378875
0.26713517 -0.0014286326 0.016507035 0.042571843 -0.009985378 0.37479028 0.15309578 0.0061485334
0.02417111 0.5851892 0.5195792 0.33626857 -0.0018344878 0.5539644 0.39302835 0.16323166
0.001794053 0.15625589 1.1122932 0.58050835 0.6324243 0.030223457 0.3085581 0.36929643
0.0068205874 0.05831125 0.49542725 -0.0070590274 0.26235804 0.007456109 0.03832775 0.13677807
0.1627074 0.011644306 0.14260903 0.0060144453 0.19581136 0.20914866 0.45045176 0.04137017
0.13102904 0.030753829 -0.0057130787 0.15048586

encoder.norm.bias f4 [236]
00000000: fc3f a43d 73ed 81bd bce5 90be 4384 a83b
00000010: de38 10bb 0ec9 1abc cd70 28bd 9ee3 d73d
00000020: 88b7 6ebc 9dbb 5a3e 349c 2b3d 5718 753e
00000030: 51e1 d3bb cef3 f5bd 7145 85bc c80a 93bd
00000040: 3933 37bb 367e a8bd 4ed5 59bb cddd 023f
00000050: c9c0 a0bb 6eb0 663b 24ff 9fbc e11a a0be
00000060: 8e34 f33e 74e9 96bd f615 24be 2e4c c0bd
00000070: d92e 543e a60f d5bd 2f9c 43bd f68a b4bd
00000080: 5116 0fbe e7b6 81bd b10e 693f 5cba 07b9
00000090: 6229 3fbc 462f 96bc 528a 293d e76f 64bc
000000a0: 73d6 88be da3b 003d 81fe 823d 0a88 2fbe
000000b0: 9a1c 8f3e 4939 fe3c 3c6a b43e 2f99 08be
000000c0: 63df 8f3c 8142 413e f1c2 103e 4f0d 6dbe
000000d0: 7070 84bd e555 02bc c361 53bb 5d48 a23b
000000e0: cb63 babe 123a 233e c30d 18bd fa75 063f
000000f0: 8f65 99be c927 843e d47e 073f 547c 2dbe
00000100: 0a9f c43e b4b9 14bc 9fec 6c3e 13ee ab3e
00000110: a4b6 ebbd fad5 59bd 6dc1 0abc 86b7 d9bd
00000120: eb87 babd c950 fcbd cf12 98bd aafd 8e3e
00000130: f228 4fbd 4a7f 97bc 7320 ca3e 7fdb 74bb
00000140: 2ef9 4a3e 3cb8 fd3b ec6b 043f 4de8 e3bd
00000150: 37b0 8b3e 53c0 26bd 2278 40be 88c1 35bd
00000160: 52c8 393e 958d 58bd 52e0 453e 9719 873e
00000170: a25c f83d 03a1 313e e6d1 103e b33c 0ebd
00000180: 7405 05be 053a ffbc b58c 34be e82c 1dbe
00000190: 2565 3ebd 0388 9abc 5c08 b23e 2bc3 d9bc
000001a0: df74 343e 09f2 61be a137 203e e1e1 1b3d
000001b0: 6178 683e 5324 043e 4551 41bd 9d41 37be
000001c0: 5dc5 bebd d157 4dbe 0d5a 713e 1eff efbd
000001d0: 3a75 2438 0e78 4a3e 9883 98bd f978 51b8
000001e0: 4547 e9bb ff65 75be d79f 2fbe 1756 4bbe
000001f0: b115 90be c4c7 abbd 5ca9 13bd e987 0dbe
00000200: edc2 4a3d bac0 babb 5a4e 2fbd b4cb 6fbe
00000210: 7b50 a03e 8bdf 2bbe bdf7 d0bd 796a 07be
00000220: 28ca 4bbe 039a c4bd f70f 683d 04e5 28be
00000230: 6a6d 843c 2982 8ebd 5af3 00be 91fe d5bd
00000240: 92c2 4b3e e7ca aebd 576a ebbd b58b e73c
00000250: a7cf 443d 4d00 be3e 65f9 f23e 3735 13bc
00000260: 658e 19bd d969 c0be 513b 12bd 2fc8 933e
00000270: 4771 563e 4847 d63a eaef 6c3e 36f6 1f3e
00000280: 3997 61be 2753 943d e424 94bd e084 debd
00000290: b996 c73a b8b9 63be 9f17 96bb 32ee 8cbe
000002a0: 560f 9fbe 04f8 113e 5ef7 cebe 02be ffbd
000002b0: 0d7b bebb 2c5a 86be 187f 2fbe e492 d73b
000002c0: 8818 b93d eafd 0cbc de9f 8cbe 268c 53be
000002d0: 2f4d 3f3d 545c 013d 81ca c23d 5f15 c73e
000002e0: 5573 5f3d 2de1 58be 19c5 a23e eeaa 4fbe
000002f0: 7042 3ebd 1a38 10be 67e2 833d 76c3 d0bd
00000300: 98c2 c33d 93e1 98bb f3ed 7fbd f4c8 0d3d
00000310: 0194 d7bc 2243 cf3d ad2e 3abe fc4a b83d
00000320: 9c2e 76bd 101b f03e 2982 0ebd 8d2e 19bd
00000330: 28c4 00bc 55e7 24bd ff04 3dbe e2b3 a73d
00000340: ce23 98bb 1836 813e c35d 653e 0041 a03e
00000350: 49ce ae3e c01b fabd 776f 923e 2c34 923e
00000360: bd46 68bc 8db3 03be 0dc0 0c3f 8725 a3bc
00000370: 8142 49bd 044f ddbc 91df 28be 395d 613e
00000380: 0741 c1bd 7f4a 3ebd 104d 863e 374d 2bbd
00000390: 2c52 373c 4a22 99be e431 4abc 4ffe 07bd
000003a0: 2466 75be 60c8 eebd b7e7 45be aeba 943e
0.080200166 -0.06344118 -0.28300273 0.00514272 -0.0022006552 -0.009447349 -0.0411232 0.105414614
-0.014570124 0.21360631 0.041897014 0.23935066 -0.006466069 -0.12009393 -0.016268464 -0.07179791
-0.0027954115 -0.08227198 -0.0033238712 0.5111969 -0.0049057943 0.0035200375 -0.01953084 -0.31270507
0.47501034 -0.073687464 -0.16024002 -0.0938953 0.20720996 -0.10403375 -0.04775637 -0.08815567
-0.13973357 -0.06333714 0.9103804 -0.00012944028 -0.011667581 -0.018333089 0.04139168 -0.013942695
-0.26726112 0.03130708 0.06396199 -0.17141739 0.2795151 0.031033175 0.352373 -0.13339685
0.017562574 0.18873025 0.14136864 -0.23149608 -0.06466758 -0.007955049 -0.0032254315 0.004952474
-0.3640426 0.15940121 -0.0371225 0.5252377 -0.29960296 0.25811604 0.529279 -0.16941959
0.38402587 -0.009077478 0.23137139 0.33580074 -0.11509445 -0.05318258 -0.008468968 -0.106307074
-0.091079555 -0.12320096 -0.074254625 0.27927905 -0.050576158 -0.018493313 0.39477882 -0.0037362275
0.19821617 0.0077429097 0.51727176 -0.11128292 0.2728288 -0.04071076 -0.18795827 -0.04437402
0.18142822 -0.0528694 0.19323853 0.2638671 0.12127043 0.17346577 0.1414257 -0.034725856
-0.12990361 -0.031155596 -0.176318 -0.15349162 -0.046483178 -0.018863684 0.34772003 -0.026582321
0.17622708 -0.22064985 0.1564622 0.03805721 0.22702171 0.12904482 -0.047196645 -0.17896123
-0.09314988 -0.2005303 0.23569508 -0.117185816 3.9209823e-05 0.1977236 -0.074469745 -4.9942148e-05
-0.0071190917 -0.2396469 -0.17150818 -0.1985706 -0.2814155 -0.08387712 -0.036050186 -0.13821377
0.049502302 -0.0056992443 -0.04279933 -0.2341755 0.31311402 -0.16784494 -0.10203502 -0.1322421
-0.19901335 -0.09599688 0.05665585 -0.16493613 0.016165454 -0.0695842 -0.12592831 -0.10448945
0.19898441 -0.08534794 -0.11494892 0.02826486 0.048049595 0.37109604 0.47455898 -0.008984855
-0.037489314 -0.37580755 -0.0357011 0.28863665 0.2094165 0.0016348148 0.23138395 0.15621266
-0.22030343 0.072424226 -0.07233599 -0.10865188 0.0015227414 -0.22238815 -0.0045804526 -0.2752548
-0.31066388 0.14254767 -0.404231 -0.12487413 -0.0058130086 -0.2624067 -0.17138326 0.00657879
0.09037882 -0.00860546 -0.2746572 -0.20658931 0.046704467 0.03158219 0.09511281 0.38883492
0.05455335 -0.21179648 0.31791 -0.20280048 -0.04645008 -0.14083901 0.06439667 -0.10193531
0.095586 -0.0046655624 -0.062482785 0.034615472 -0.026315691 0.101202264 -0.18181868 0.08998677
-0.060103044 0.46895647 -0.0347921 -0.03739791 -0.007859267 -0.040259678 -0.18458937 0.08188607
-0.00464294 0.25236583 0.22399049 0.3129959 0.34141758 -0.12212324 0.28600666 0.2855543
-0.014177022 -0.12861462 0.54980546 -0.019915355 -0.04913569 -0.027015217 -0.16491534 0.22008218
-0.09436231 -0.046457764 0.2623067 -0.041821685 0.011189025 -0.29908973 -0.012340996 -0.033201512
-0.23964745 -0.11659312 -0.19326673 0.29048675

encoder.norm.running_mean f4 [236]
00000000: 046e d040 d5c2 fd3d a66f c4bf f556 9540
00000010: 4753 52be 9953 97bf d720 82bf 2283 9140
00000020: b29a e13e c1c9 2e40 b5f4 afc0 1d83 ce40
00000030: 4b28 df3e 7c78 ddc0 de62 c8bf bbf4 21c0
00000040: e081 8241 a0b2 26c1 4be1 1441 1827 52c0
00000050: 9f37 80bf fd38 72c0 9052 38c0 25b9 34c0
00000060: c55d 8340 9fc5 f4bf 7806 5840 3a02 bf40
00000070: fdf6 b0bf ed45 8041 f7bd fb40 34b4 99bf
00000080: e982 7abc 1428 dc3f 9630 8cbe f9e3 aec0
00000090: a7e7 5841 0a25 3e3d 1488 5cc1 2703 023f
000000a0: a8f0 613e 73a9 f041 94ee 23bf dca5 25bf
000000b0: 37f1 8240 a4af 9d40 3c3d 29c1 77a8 ebbf
000000c0: a197 8e3f fd47 32c0 e568 52c0 6483 f541
000000d0: bb8c a8c0 b237 30c0 976c e6bf 87df 2f41
000000e0: 4670 703e 347a ca3f ed40 e03f e06d 42bf
000000f0: d7be 903e bf04 e3be 06f5 c0bf 029e c1c0
00000100: 15b0 8ec0 8753 1d41 01e8 c340 36c5 c7c0
00000110: 896e 6ec0 b996 9a3f 235a bfc0 10fa 68c1
00000120: e17a a83f e775 e03f 81d8 cec1 f5b8 683e
00000130: 2f5a a7c0 0dac 30c1 088b 8341 efe0 a5c0
00000140: c9ea ec40 004f e2bf 37f1 23c1 9697 80c0
00000150: f302 77c0 9746 fb41 6f6c c63d fa32 14c0
00000160: 57fe 87c0 c4e8 efbf 7dd7 3fc1 8d27 97c0
00000170: 37ff 82c0 318d 15c1 351c 3bc0 be1f d53f
00000180: 5952 1341 620a 2941 b596 963f c64c 4241
00000190: c522 ae40 b9ba a2be adc2 e6bf 2f7b 2cc0
000001a0: 7fdc cc40 4a13 8c41 fe7e 62c1 8043 c840
000001b0: 7684 6e3f 5d4a 3141 0159 62c1 2e98 a440
000001c0: f186 72c0 891b 3341 fd4b 98c0 0741 8440
000001d0: 9725 2bc1 841a 8c41 f117 5bbe 5fce 0941
000001e0: daa0 2bc1 48c0 e43f 7ff1 8140 1e37 ad40
000001f0: 989e 2841 7ba1 4441 82f8 5ac1 802c 84c1
00000200: 90c1 9ec1 c937 8ebe 0d78 c63e f16f e240
00000210: 4dae 94c0 19b7 ae41 494a 86bf a101 f340
00000220: 9cdc 14c1 0f57 e740 adf9 13c1 3891 be40
00000230: d559 4ec1 6f23 86c0 d5b8 58c0 c8aa 0ac1
00000240: 74f4 863f ef58 2740 2b38 57c1 7a77 bf3f
00000250: c1c8 843f 8f16 1c41 9333 2cc1 0b02 9cc1
00000260: d9d8 44c0 b9b0 253f 9791 cbbf 6536 9cc1
00000270: f521 80c1 0999 08c0 1014 48c1 34a8 bfc0
00000280: 7b1c 1940 044b d840 ce61 3640 7db1 cc3f
00000290: 053b 823f 4833 0c40 5d5a db41 0c9f 923e
000002a0: dc3d 43be 4dd1 1741 301c a4bf 7ea2 d4c0
000002b0: 5473 9640 b9bc ab40 c7c3 aec0 7a4a a040
000002c0: 46f1 3f41 5a3f 8e40 7cd9 68c0 b07e 80bf
000002d0: 467e a4c1 7101 e4c1 6e4a f4c0 4e6f 7c40
000002e0: 1180 203f 40cf 3541 aeac 8ebf 899e d2c1
000002f0: 642b 8641 34d8 63c0 fb55 2a40 acf6 5541
00000300: cc7d a6c0 1130 bdbe b014 2ac0 26d9 4a40
00000310: 9198 f9bf dca8 9b3f 9a5f 76c1 2e06 71be
00000320: 927d 5740 eb96 7fc0 aa7c 8841 dab9 a5c0
00000330: 3c25 afbf edd0 1ac1 36fd 3040 49e3 1240
00000340: 5315 c63e f4e9 0740 6241 85c1 e2d6 adc1
00000350: 4173 fcc0 0514 90bc ee74 dd40 c530 91c1
00000360: a5bc fe3e 2fda 8e41 3118 dc3f 6133 a6bf
00000370: 8080 3940 92c2 f03f 9bbf 3cc0 9e79 77c0
00000380: ed76 1bc0 771f c641 6842 70c0 dfe7 97c1
00000390: 5681 b1c1 254f b7be 10e1 3541 a147 66c1
000003a0: cf94 9e41 045b 7bc0 7966 043e 2a50 91c0
6.5134296 0.12390677 -1.5346572 4.666865 -0.2053958 -1.1822387 -1.0166272 4.5472574
0.44063336 2.731064 -5.4986215 6.453505 0.4358543 -6.9209576 -1.5655172 -2.5305622
16.313416 -10.41861 9.305003 -3.283636 -1.0016974 -3.7847283 -2.8800392 -2.8238003
4.1051965 -1.9122809 3.3753948 5.969022 -1.3825375 16.034143 7.866939 -1.2008119
-0.0152900005 1.7199731 -0.27380818 -5.4653287 13.556556 0.046422042 -13.783222 0.5078606
0.2206446 30.082739 -0.64035916 -0.64706206 4.091945 4.9276905 -10.57745 -1.8410786
1.1140023 -2.7856438 -3.2876523 30.689156 -5.267179 -2.7533994 -1.8001889 10.992072
0.23480329 1.5818543 1.7519814 -0.75948906 0.282706 -0.44339558 -1.5074775 -6.050538
-4.4589944 9.832892 6.122071 -6.2428236 -3.7254965 1.2077247 -5.979753 -14.56105
1.31625 1.7535981 -25.855715 0.22726806 -5.2297587 -11.042005 16.442886 -5.1837077
7.4036603 -1.7680359 -10.24639 -4.018504 -3.859555 31.409468 0.09688651 -2.3156114
-4.2497973 -1.874291 -11.990109 -4.723578 -4.093654 -9.346971 -2.9235966 1.6650312
9.207604 10.565035 1.1764742 12.1437435 5.4417443 -0.31783083 -1.802816 -2.6950185
6.401916 17.509418 -14.156004 6.2582397 0.9317087 11.080655 -14.146729 5.1435766
-3.7894862 11.194222 -4.759276 4.132938 -10.696677 17.512947 -0.21395852 8.612884
-10.72677 1.787118 4.0607295 5.412978 10.538719 12.289424 -13.685671 -16.521729
-19.844513 -0.27776936 0.38763466 7.0761647 -4.646277 21.839403 -1.049142 7.593949
-9.30386 7.2293773 -9.248456 5.955227 -12.896932 -4.1918254 -3.3862813 -8.666695
1.0543351 2.614803 -13.451213 1.4958336 1.0373765 9.755507 -10.762591 -19.500998
-3.0757353 0.6472278 -1.5903805 -19.52656 -16.01658 -2.1343405 -12.504898 -5.9892826
2.3923633 6.759157 2.8497195 1.5991665 1.0174261 2.19063 27.419123 0.28636968
-0.19066566 9.488599 -1.2821102 -6.6448355 4.701578 5.3667874 -5.4613986 5.0090914
11.996405 4.4452333 -3.6382742 -1.0038662 -20.561657 -28.500704 -7.6340857 3.9442935
0.62695414 11.363098 -1.1146448 -26.32741 16.771187 -3.560071 2.6614978 13.372723
-5.202856 -0.36950734 -2.6575127 3.1695037 -1.9499685 1.2160907 -15.39834 -0.23537514
3.3670392 -3.9935863 17.060871 -5.178937 -1.3683238 -9.676007 2.7654548 2.2951224
0.38688144 2.1236544 -16.656925 -21.729923 -7.889069 -0.017587671 6.9205236 -18.148813
0.497533 17.856535 1.7194883 -1.298443 2.898468 1.8809378 -2.9491947 -3.866798
-2.4291337 24.765364 -3.754053 -18.988218 -22.188152 -0.3580257 11.367447 -14.392488
19.82266 -3.9274302 0.12929715 -4.5410357

encoder.norm.running_var f4 [236]
00000000: 6af6 1540 b3c7 173a c8d8 033e 39e5 4240
00000010: da10 ae3c 8505 563f fb69 1b3d 5a6b b03f
00000020: e8cb 083c 2a43 5a3f f9ec fd3f 3fab 4040
00000030: 06aa 8e3c 3124 c23f a9eb f33d ffd8 813e
00000040: 0956 2541 7cc0 8040 b19d 6c40 78ce e23f
00000050: c06e fd3d 68b4 e23f 1883 d53e 8d33 203f
00000060: 6133 7b40 7678 d93e ef4e d43e 4549 b03f
00000070: 73d5 843e afce 3e41 7553 0a40 3a84 583d
00000080: 4703 9638 787f eb3d 4901 3040 0aba 9e3f
00000090: 229d ad40 ac4b 013a 4956 1641 e12c 253e
000000a0: 203c 5a40 fbd4 3d42 2abf 803e 9118 c53c
000000b0: 98a3 ab3f 0ae4 2e40 eb09 8640 1665 1c3f
000000c0: a1f3 643f c4d1 463f d77c f63e c6e0 5242
000000d0: 4161 a23f 6303 803e f7b2 ec3d 7e52 a440
000000e0: 9680 fe3e 75fd 753f fb84 e43e 2722 3440
000000f0: 3905 793d de91 883f 0379 c03f 9a30 a840
00000100: c57f 1340 46b4 6d40 f187 0940 0562 9f3f
00000110: 633d 0c3f 4957 0c3e 61d8 a53f bd36 0041
00000120: 06c5 bd3d 4cae 043e 68b5 0f42 187e 9b3e
00000130: 5a84 ad3f 4be3 8f40 84e1 2d41 3467 2440
00000140: 0642 2740 46a3 353e 71c6 5f40 85f8 213f
00000150: d1f3 813f a61d 3c42 9a02 1c3b 7207 313f
00000160: dae6 233f b5e3 3b3f a536 ae40 c0a1 583f
00000170: 8cb3 203f de00 5b40 0492 f73e 2269 be3d
00000180: 941c 5a40 6c8a 8340 d8e2 5f3d 44c7 0741
00000190: ce49 963f 83ad a53f c00a 0440 539d b13e
000001a0: 27f1 bf3f e947 5f41 2a54 d740 048d 5240
000001b0: 081c 7f3f faea 6940 41e8 eb40 df6b 793f
000001c0: 6771 f33e 8445 a040 f282 123f 0617 283f
000001d0: 84e3 5741 4667 4d41 1c60 f33e 8043 3240
000001e0: 2cf2 8a40 b02e 253e 7359 203f 80bf 993f
000001f0: 7897 0441 e521 9a40 cddc e340 c50e 4941
00000200: 3cdb 8641 8476 e73b 34be ab3e 4100 2740
00000210: 00b3 7f40 2183 c541 368c 413f 7f5b 0740
00000220: 3572 4840 1079 7440 af22 5440 5cf6 ad3f
00000230: e127 b640 cb6e b63f 0d47 e23e 38a8 2640
00000240: 9fd0 bf3f 2d18 ab3e 7493 f240 206b 4d3f
00000250: a7d4 4b3e 0af7 4a40 2367 5e40 4376 6a41
00000260: d234 493f c555 a63c b4df 8c3e c95f 8741
00000270: a45e 2d41 756e 163e 44c5 ea40 1ba5 3340
00000280: 33af 973e 3821 ba3f 8ed0 0440 e190 9c3e
00000290: 5ef9 4b3d 3014 8a3e 3df2 1042 c07c 893c
000002a0: 63a5 3e3e f70e b940 4169 553f 376b d93f
000002b0: 7aa5 3140 85b2 943f a35b a23f 1df4 1740
000002c0: 2446 9d40 b855 5a3f d7e9 603f 2333 a93e
000002d0: 3f9e c041 0b59 1842 c7e4 1141 4632 b93f
000002e0: 3fe1 6a3e 2dfc eb40 dc06 193f f4b2 fd41
000002f0: 65a8 1f41 7f74 033f df1f 983f e655 1141
00000300: 018d 9b3f eb50 a93b ebed 8e3e 9364 ea3e
00000310: 994d 9e3e 7676 563f 9d51 4041 65b9 fe3c
00000320: 7d7e ba3e f6a9 2640 ffce 6741 b95d 813f
00000330: a553 8f3d f686 4c40 b189 513f 79fb 163e
00000340: c11f 8c3c f584 f73e 98c2 1d41 8234 c641
00000350: 0629 1c40 139c 143c 9fb6 d83f ecf3 5b41
00000360: 0101 093c fa57 8041 625c 513f 2c35 713d
00000370: f203 aa3f caff b43e 3be1 173f c233 023f
00000380: 1f81 903f eed7 e841 806e ad3f 07ef 7a41
00000390: 82f6 bb41 8467 0a3f fe3b 9240 7ae0 0041
000003a0: f5f5 a841 a5e0 1b3f 2708 223a 85d0 753f
2.343165 0.00057899504 0.12875664 3.0452406 0.02124827 0.8360217 0.037942868 1.3782761
0.008349396 0.85258734 1.9837943 3.010452 0.017415058 1.5167295 0.11910183 0.25360867
10.333505 4.0234966 3.6971247 1.7719259 0.123746395 1.7711306 0.4170158 0.6257866
3.925011 0.42474717 0.41466472 1.377236 0.259441 11.92546 2.1613438 0.052860476
7.153168e-05 0.11498922 2.7500784 1.2400525 5.4254313 0.00049322355 9.396066 0.16130401
3.4099197 47.45799 0.25145847 0.024059566 1.34093 2.7326684 4.1887107 0.61091745
0.8943425 0.77663827 0.4814212 52.719505 1.268593 0.25002584 0.11557572 5.13507
0.49707478 0.9608987 0.44632706 2.8145845 0.060795996 1.0669515 1.503693 5.255933
2.3046734 3.714128 2.1489222 1.2451788 0.5478117 0.13705172 1.2956659 8.013364
0.09266095 0.12957114 35.927155 0.3036964 1.3556015 4.4964957 10.867558 2.568799
2.6134048 0.17738065 3.496487 0.63269836 1.0152532 47.028954 0.0023805262 0.69151986
0.64024127 0.7339433 5.4441705 0.8462181 0.62773967 3.421928 0.4835359 0.09297396
3.4079943 4.110647 0.054659694 8.486149 1.1741273 1.2943577 2.0631561 0.3469034
1.4995469 13.955056 6.729024 3.289857 0.9965215 3.6549668 7.3721013 0.97430223
0.47547457 5.008486 0.57231057 0.6566013 13.493046 12.837713 0.47534263 2.7853699
4.342062 0.16131091 0.6263649 1.2011566 8.28698 4.8166375 7.120703 12.566106
16.857048 0.0070636887 0.3354355 2.6093905 3.9953003 24.689028 0.7560457 2.1149595
3.1319706 3.819889 3.314617 1.3590808 5.692368 1.4252561 0.44194832 2.6040173
1.4985541 0.33416882 7.5804996 0.80241585 0.19905339 3.171328 3.475045 14.6538725
0.7859622 0.02030457 0.27514422 16.92177 10.835606 0.14690574 7.3365803 2.8069522
0.29625854 1.4541388 2.0752292 0.30579284 0.049798362 0.26968527 36.23656 0.016783118
0.18617778 5.783077 0.8336373 1.6985844 2.775725 1.161698 1.2684215 2.3742745
4.914812 0.85287046 0.8785681 0.33046827 24.077269 38.086956 9.118354 1.4468467
0.22937487 7.374533 0.5977609 31.71238 9.978612 0.51349634 1.1884726 9.083471
1.2152406 0.005167117 0.27915892 0.45779857 0.30918577 0.8377451 12.019925 0.031094262
0.36424628 2.6041236 14.488036 1.0106727 0.06998376 3.1957374 0.81850725 0.14744367
0.017104985 0.48343626 9.860008 24.775639 2.4400039 0.009070414 1.6930732 13.747051
0.008362056 16.042957 0.8178159 0.0588886 1.3282454 0.35351402 0.5932805 0.50860226
1.1289405 29.105434 1.3549347 15.683356 23.495365 0.540642 4.5698233 8.054804
21.120096 0.60889655 0.00061810244 0.960213
