checkpoints/dnn.pt (torch, 257481 bytes, 12 tensors)

linear1.weight f4 [128, 358]
00000000: f272 ecba 46ab b43a 35fd 043c 55bb f63b
00000010: 6941 40bc f206 59bb a42d 023b d803 2cbb
00000020: e8c1 dc3a c28b 15bc 2ac0 2bbb 9ef2 6abb
00000030: ca22 d2ba 7210 14bb 09dd 69bc 02d9 3cbc
00000040: f724 343c cfe7 a63b 08e8 d33c a7b5 1fbd
00000050: 4812 ba3c 8b25 3ebd c0db 86bc 43c1 42bc
00000060: 9e66 eb3a 04fa 653c 921e 033b 5c3b a63a
00000070: a21a d5bb 3fe7 dc3c b6ce efbc 4ed6 e23c
00000080: 1892 2ab9 39e7 c13a a86f 88bb be9f 673c
00000090: 1e6a 643c f64b f0bc a472 923c adf4 12bc
000000a0: a7cb 50bc ba10 4e3c 7e70 88bb 295c 5abc
000000b0: aadf 2a3d a702 90ba 39ff 713b 6ab7 16bd
000000c0: 64f0 26bc f275 aebc 6c20 a5bd 569c 4bbd
000000d0: f6f7 d1bb edf6 05bd c1d4 d9b9 d17e dd3a
000000e0: 67ac 4bba 8745 44bb 1deb d5bc fa82 9dbc
000000f0: 2241 bcbc 96e3 b6bb bab4 04bc 5334 5e39
00000100: 637a f53b 30c4 28bb 5877 28bb 2404 2ebb
00000110: 60b0 b6bb 58d2 4cbb 6984 7339 24c5 193b
00000120: b580 da3b ef41 ceb9 fc37 f5ba 18c2 12bb
00000130: 3f5c 54ba 6e03 103a e4fc dd3a 122f 343b
00000140: 6aea ae3c 0c9b 613b bd2c bb3c b30e 42bb
00000150: acbc c3ba 2ebe c2ba 643a 2bbb 0ae2 a9ba
00000160: f0de ccba 5c1e 56bb c234 9f3a a199 253b
00000170: 3714 a33b 8243 b33d ab00 d43b 0332 c0bc
00000180: 2e8f 6abc 1736 47bc 990c 47bc 50b6 7d3b
00000190: 213c bdb9 17f0 c33c 51eb aabb fcd0 58bd
000001a0: 3eb3 53bc 6bc9 10bc 1f19 b9bd b0e4 3a3d
000001b0: 63a5 b03c cf72 14bc 5415 d63c 8d30 b43c
000001c0: cf47 84bb 4613 95bb 33a6 dbbb 5897 053d
000001d0: f0aa 97b8 5c8e 703b 8c9d 173d 8b70 ab3b
000001e0: 679f 4c3c c6fe 1dbc 01be dc3b d30f 943b
000001f0: 16c2 e23a d601 6f3d 7d8c 983b 46b3 063c
00000200: 85fc 49bb 8b93 89bb 9b9a 613b b7ba 60ba
00000210: b5e0 f93a 2e26 ccb7 a6de 8e3a 2f97 04bb
00000220: e79f c8bb 634c 1539 ae21 193b 1ec5 693b
00000230: 89cc 2c3c 7f7a eb3b cf96 483b d5a2 b63b
00000240: fcb4 e9ba 3024 c43a a8b0 0538 f000 8d3b
00000250: 0a4e 1dbb a612 2a3a 3f51 fe3b 7663 f03b
00000260: 9804 623c 9b31 bdba 6778 8c3b 6e87 033b
00000270: 1e3d a7ba 5486 c43b fd22 dd3b 8a38 8839
00000280: 98de b33b 5b45 85bb 19ba 1e3a 7b95 b13a
00000290: 42b7 113a bf5c 503a 368d de3a 765c a73a
000002a0: ca38 103a 1cc5 dab8 f92f 3438 508a 7fb7
000002b0: 98e2 913a d6aa 8237 7296 1aba bad6 e537
000002c0: c623 8c38 0221 1d3c fc49 acbc 709f f93b
000002d0: 4aec 423b 6bfc 943a bbff 173a 9b96 5f3a
000002e0: 2ad4 7bba bfae 44bb 5157 74b9 fc37 0cba
000002f0: 0217 00bb ca73 203c 1db2 dbba e0c3 5ebc
00000300: 8804 e1bb 04e3 4bbb 70b2 d6ba c807 c23c
00000310: 2ed8 be3a 66ab c2ba 1894 86b9 a4d8 dcba
00000320: e4bb 3cba da07 643c 3379 fe39 8b54 03b9
00000330: b420 2db8 8038 ae33 2a92 353a 4632 ec37
00000340: f47f 1db9 9df6 3bb9 b07d 0a38 3df1 723a
00000350: b35d a338 1ac3 813b 75b2 bbbb 6b89 a2bd
00000360: defe 513c f616 8f3c ff6e 88bb 5dce 913b
00000370: 217c 4d3a 9697 43bc 917b 91ba e3b7 5fb8
00000380: f2b2 d3b6 125d 753c d870 1fb9 0bb6 46b9
00000390: 05db 433b 859b 16bc 4b17 5ebc 70fa f537
000003a0: b064 53b8 cafe 10b9 525a 25b9 73c6 7eb9
000003b0: bbae 5eb9 68e4 5eb9 295c 84bb 03d8 d139
000003c0: 17b3 c0b9 2c80 4cba 22bd 8d3a 1c83 a43a
000003d0: 9eaa d63c b7a8 ed3b d031 bf39 3990 cf39
000003e0: cf7d 0a39 d8fc 3f39 ce43 85bb 4704 08bc
000003f0: c747 893b 579c 793c 1873 403c 071a 11bc
-0.0018039627 0.0013783954 0.00811701 0.007529656 -0.011734345 -0.0033115712 0.001986363 -0.0026247408
0.0016842457 -0.009127559 -0.0026207068 -0.0035850178 -0.0016032096 -0.002259281 -0.01427389 -0.011526348
0.010995141 0.0050935517 0.025867477 -0.038991597 0.022713795 -0.046422523 -0.016462207 -0.0118868975
0.001795966 0.014036659 0.0020007235 0.0012682485 -0.006503419 0.026965735 -0.029273372 0.027690079
-0.00016266888 0.0014793641 -0.004163701 0.014137207 0.013941316 -0.029333096 0.01787693 -0.008969468
-0.012743867 0.01257723 -0.0041638007 -0.013327637 0.04171721 -0.0010987119 0.0036925806 -0.03679601
-0.0101891495 -0.021296475 -0.080628246 -0.04970964 -0.006407733 -0.03270619 -0.0004154798 0.0016898756
-0.00077695254 -0.0029948668 -0.026113087 -0.019227494 -0.022980276 -0.0055813296 -0.008099729 0.00021191062
0.0074913963 -0.0025751702 -0.00257059 -0.002655276 -0.0055752248 -0.0031253304 0.00023223613 0.0023463452
0.006668175 -0.00039340506 -0.0018708701 -0.002239352 -0.0008100904 0.0005493675 0.0016936329 0.0027493876
0.021352012 0.003442469 0.022848481 -0.0029610812 -0.0014933548 -0.0014857703 -0.0026127333 -0.0012961042
-0.0015630405 -0.0032671904 0.001214646 0.0025268572 0.004976775 0.087531105 0.006469806 -0.023461347
-0.014316363 -0.012158892 -0.012149 0.0038713403 -0.0003609369 0.023918195 -0.00521604 -0.052933678
-0.012921153 -0.008837084 -0.090379946 0.04562825 0.021563238 -0.009060576 0.026133217 0.021995807
-0.0040368806 -0.0045494167 -0.006703162 0.032615036 -7.232081e-05 0.0036705947 0.037015483 0.005231922
0.012489176 -0.009643262 0.0067365174 0.004518488 0.0017300274 0.05835136 0.0046554194 0.008221453
-0.003082068 -0.0041984967 0.0034424427 -0.00085727446 0.001906416 -2.4336474e-05 0.0010900095 -0.0020231714
-0.0061225775 0.00014238204 0.0023366022 0.003567047 0.010546812 0.0071862335 0.0030607467 0.0055736103
-0.0017830427 0.0014964398 3.1874195e-05 0.0043030903 -0.0024002814 0.0006487764 0.00776115 0.0073360754
0.013795041 -0.0014434339 0.004286814 0.0020069736 -0.0012759303 0.0059974585 0.0067485557 0.00025982066
0.0054891817 -0.0040671057 0.00060549524 0.0013548577 0.00055586186 0.00079483906 0.001697934 0.0012768644
0.00055016263 -0.000104317645 4.2960022e-05 -1.5231388e-05 0.0011130152 1.557676e-05 -0.0005897052 2.7398917e-05
6.6823835e-05 0.009590389 -0.021031372 0.0076178834 0.002974289 0.001136673 0.00057982997 0.0008529217
-0.0009606505 -0.0030011383 -0.00023302181 -0.00053489185 -0.0019544964 0.009793231 -0.0016761456 -0.013596505
-0.0068669952 -0.0031110654 -0.0016380083 0.023685351 0.0014560276 -0.0014852106 -0.0002566881 -0.0016849232
-0.0007199629 0.013917888 0.00048536956 -0.00012524628 -4.127687e-05 8.112784e-08 0.0006926382 2.8156803e-05
-0.00015020353 -0.0001792558 3.301882e-05 0.00092675147 7.7898985e-05 0.0039600255 -0.005728061 -0.07936367
0.012817113 0.017467003 -0.0041636224 0.0044496492 0.0007838626 -0.011937996 -0.0011099448 -5.33386e-05
-6.309122e-06 0.014975803 -0.00015205459 -0.00018950568 0.0029885184 -0.009192352 -0.013555358 2.9322895e-05
-5.0400093e-05 -0.00013827826 -0.00015769273 -0.00024297256 -0.00021236662 -0.00021256658 -0.0040393067 0.00040024528
-0.00036754526 -0.00078010815 0.0010813812 0.0012551281 0.026204403 0.0072527784 0.00036467472 0.0003958957
0.00013207573 0.00018309371 -0.004066921 -0.008301801 0.0041894647 0.015235028 0.0117461905 -0.008856303

linear1.bias f4 [128]
00000000: 236c 193d 075e 883d 81d8 373c 7f85 a9bb
00000010: 75db 0b3b d847 c7ba 520b f3ba fe72 0b3d
00000020: 7faa 7dba cf57 f8bb 6269 c43d dab0 ed3d
00000030: 792e 3e3d 99a0 75bb 522e 333d 99a7 6eba
00000040: 2389 2e3e 97c8 95bb bdd2 863c 6b34 093d
00000050: df4d a0bb 5cb9 653e 78c0 4cba 525d f23e
00000060: 02b5 61ba 6de4 ad3c f1ab 50b9 5d91 173d
00000070: 6e58 25bb 9a30 e13c a320 2bbb 7e81 7dbc
00000080: f2fc 2a3d 2cc4 d63c ea71 0f3d cda6 2bbb
00000090: d074 813e 1f22 013d 9924 873c 66c6 5f3d
000000a0: 8715 75ba 25ce c33e c4f8 e53c 26d9 67ba
000000b0: 2a31 00bc 6d6b 393d 6e27 a33c 4b32 073d
000000c0: adf2 41ba 9422 573d 01b2 3e3c bb96 82ba
000000d0: 30c6 18ba 3de5 243d 6ec8 113d 1540 5fbb
000000e0: 4bb3 343d 2c15 59bc 1d0d 13ba c9db b23c
000000f0: e5d6 ca3d f56d 0e3d 9ba2 d33d 74cb 38bb
00000100: 283b 97ba 5132 083d 45dd 3abb b30e 3b3d
00000110: 3f0f d13c 7b37 b439 3ca8 b939 f84a 6d3d
00000120: 68ee 6fbc 2ae5 53ba bd72 183d 6f88 f23b
00000130: 044a 183d b6d8 85bb dc64 583e 5797 9c3c
00000140: 4d21 173d fdb2 9439 2258 0f3d 6323 ffba
00000150: 5f48 193d 7d7c 9839 9e06 d23d dee4 8fba
00000160: 6672 e53c 6639 2dba d29e a6bb 28cd bf39
00000170: d976 f23d ae2a 303d 73a5 4b3d dff4 9abb
00000180: 2826 4d3d e183 753b 1dd9 4d3d 162f 1a3d
00000190: 718a e0bb 11aa c33e 0a76 513b 07f1 84ba
000001a0: 9d95 333d ea62 983c 4eda 46bb 778b ef38
000001b0: d37d 0ebb e9f7 5f3c d24e 9d3d e8cb 253e
000001c0: 96b4 9939 1323 283e 3872 46bb 7345 62bc
000001d0: 1412 283d 9cdf 8c3d f0ae eeb9 1a5b 203d
000001e0: 4115 fcba c2db 313d 7534 c8ba 1a2c 93ba
000001f0: b1ad 0c3e 19fc 093e b47c a6bb cd8d 023e
0.037456643 0.06658559 0.011221052 -0.0051733847 0.0021340523 -0.0015203906 -0.0018542802 0.034045212
-0.000967659 -0.007578827 0.09590413 0.116059974 0.04643104 -0.0037479757 0.043745346 -0.00091039535
0.17044501 -0.0045710313 0.01645791 0.033497255 -0.0048920955 0.2243399 -0.00078106625 0.47336823
-0.0008610041 0.021227086 -0.00019900479 0.037003864 -0.002522971 0.027488995 -0.0026111982 -0.015472768
0.041745134 0.026216589 0.035020746 -0.002619195 0.25284433 0.03152668 0.016496943 0.054632567
-0.0009349216 0.38243213 0.028072722 -0.00088443083 -0.007824222 0.045268465 0.019916262 0.033006947
-0.0007398527 0.05252321 0.011639119 -0.0009963134 -0.0005827872 0.04025768 0.035591535 -0.0034065295
0.0441163 -0.013249677 -0.0005609559 0.021833317 0.09904269 0.034772832 0.10333749 -0.002819744
-0.0011538016 0.03325111 -0.0028513235 0.045668315 0.025519965 0.00034373612 0.00035411294 0.057932824
-0.014644243 -0.00080831593 0.037218798 0.007401518 0.03717996 -0.004084672 0.21132225 0.019115133
0.036896992 0.00028362116 0.03499616 -0.0019465502 0.037422534 0.0002908445 0.102551684 -0.0010978242
0.028008651 -0.00066079793 -0.005084851 0.00036583212 0.11839075 0.043009453 0.04971833 -0.004728898
0.050085217 0.003746264 0.050255883 0.03764256 -0.006852441 0.38215688 0.0031961226 -0.0010142633
0.043843854 0.018601853 -0.0030342522 0.000114223854 -0.0021742478 0.013669946 0.076810494 0.16191065
0.0002931698 0.1641963 -0.0030280482 -0.013810503 0.041032866 0.068785876 -0.00045525236 0.03914938
-0.0019232408 0.043422468 -0.0015274422 -0.0011228353 0.13738133 0.13475074 -0.0050807837 0.12749405

linear2.weight f4 [64, 128]
00000000: 4f1c 0080 d70d 0080 e70b 0080 e325 0080
00000010: 0723 0080 0b09 0080 920e 0080 5d08 0080
00000020: a51f 0080 8908 0000 c319 0080 2008 0080
00000030: fe25 0080 0807 0080 f918 0080 d80a 0080
00000040: 681f 0080 6f0e 0000 f00a 0000 9e1e 0000
00000050: 561b 0080 4918 0080 9524 0080 0b11 0080
00000060: 930f 0080 491c 0080 df07 0080 ef24 0080
00000070: 2510 0080 7215 0080 941c 0080 1c1f 0080
00000080: 4e25 0080 7624 0080 6f14 0000 6c18 0080
00000090: bf26 0080 e10d 0000 e809 0080 5b1b 0080
000000a0: fe18 0080 c71c 0080 ba15 0080 d609 0080
000000b0: 1e19 0080 eb08 0080 b90c 0080 c315 0080
000000c0: 8f12 0080 150f 0080 e905 0080 2f12 0080
000000d0: e724 0080 bb22 0080 d410 0080 1309 0080
000000e0: 7212 0080 6209 0000 3918 0080 f006 0080
000000f0: 5d10 0080 5d1a 0000 cd0a 0080 761e 0080
00000100: 6b0c 0000 051d 0080 c421 0080 b320 0080
00000110: a71c 0080 a41f 0080 6b11 0080 b612 0000
00000120: 9b0c 0080 b826 0080 b024 0080 0015 0080
00000130: ad09 0080 7115 0080 b714 0080 3312 0000
00000140: 3423 0080 ba07 0080 7a0a 0000 ec25 0080
00000150: 1c0d 0080 5c16 0080 4e09 0080 4a23 0080
00000160: a622 0080 5f0f 0080 101c 0000 4125 0080
00000170: ef05 0080 5d0e 0080 7619 0000 7b15 0080
00000180: aa1a 0000 b712 0000 581b 0080 851f 0080
00000190: e819 0080 8620 0080 ad0f 0080 a00c 0080
000001a0: 6820 0080 8722 0080 4b16 0080 df09 0080
000001b0: 2c0d 0080 580d 0080 8507 0080 4910 0080
000001c0: cb1e 0000 bb0f 0000 320f 0080 e525 0080
000001d0: f210 0080 4926 0080 3416 0080 7117 0080
000001e0: bc20 0080 4507 0000 1314 0000 8724 0080
000001f0: a926 0080 6410 0080 240d 0000 671a 0080
00000200: 2916 0080 4d12 0080 e217 0080 0918 0080
00000210: 1d12 0080 c90a 0080 490b 0080 1c14 0080
00000220: 2213 0080 4c0b 0080 e013 0080 8b16 0080
00000230: a710 0080 401f 0080 9f0c 0080 ba06 0080
00000240: 3809 0000 541a 0080 3b1d 0080 9813 0080
00000250: 730f 0080 8d13 0080 2222 0080 4e0a 0080
00000260: b60d 0080 3213 0080 c707 0080 940d 0080
00000270: ce0e 0080 a90f 0080 5617 0080 7218 0080
00000280: 970f 0000 5110 0080 6718 0080 0807 0080
00000290: 8d19 0080 5412 0080 950d 0080 9617 0080
000002a0: 2515 0000 6b13 0080 680c 0080 2116 0080
000002b0: d808 0080 a622 0080 911f 0080 6211 0080
000002c0: 9219 0080 de10 0080 081e 0080 8b08 0080
000002d0: 000d 0080 151d 0080 4623 0080 6910 0000
000002e0: 550a 0080 690f 0080 d10f 0080 2d18 0080
000002f0: c408 0080 f717 0080 971b 0080 e126 0080
00000300: 3107 0080 511e 0080 5d16 0080 b00f 0080
00000310: cc0f 0000 3a09 0080 910b 0080 0509 0080
00000320: 6b0b 0080 a10a 0080 bc0b 0080 390f 0080
00000330: 3e0e 0080 0b1a 0080 570a 0080 b105 0080
00000340: 580a 0080 850f 0080 5516 0080 e020 0080
00000350: 1e1f 0080 e321 0080 170e 0080 180a 0080
00000360: d40f 0080 880a 0080 b606 0080 1e12 0080
00000370: c706 0080 b719 0080 921a 0080 8c22 0080
00000380: 110d 0000 d31f 0080 641f 0080 6521 0080
00000390: f922 0080 a821 0080 b313 0080 7217 0080
000003a0: d30c 0080 6b1a 0080 550f 0080 870a 0080
000003b0: f908 0080 b922 0080 db1d 0080 3e22 0080
000003c0: 200f 0080 d410 0080 bc1a 0080 4c13 0080
000003d0: 8d10 0080 3a1c 0080 f224 0080 da24 0000
000003e0: c225 0080 3018 0080 d114 0080 8c0d 0080
000003f0: 3519 0080 b626 0080 6825 0080 7a0f 0000
-1.0155e-41 -4.965e-42 -4.27e-42 -1.3591e-41 -1.2565e-41 -3.244e-42 -5.227e-42 -3e-42
-1.1352e-41 3.062e-42 -9.242e-42 -2.915e-42 -1.3629e-41 -2.522e-42 -8.959e-42 -3.89e-42
-1.1266e-41 5.178e-42 3.924e-42 1.0983e-41 -9.806e-42 -8.712e-42 -1.3123e-41 -6.114e-42
-5.587e-42 -1.0147e-41 -2.824e-42 -1.3249e-41 -5.792e-42 -7.693e-42 -1.0252e-41 -1.116e-41
-1.3382e-41 -1.308e-41 7.33e-42 -8.761e-42 -1.39e-41 4.979e-42 -3.554e-42 -9.813e-42
-8.966e-42 -1.0323e-41 -7.794e-42 -3.528e-42 -9.01e-42 -3.199e-42 -4.564e-42 -7.807e-42
-6.658e-42 -5.41e-42 -2.12e-42 -6.523e-42 -1.3238e-41 -1.2459e-41 -6.037e-42 -3.255e-42
-6.617e-42 3.366e-42 -8.69e-42 -2.489e-42 -5.87e-42 9.457e-42 -3.875e-42 -1.0927e-41
4.455e-42 -1.041e-41 -1.2113e-41 -1.173e-41 -1.0279e-41 -1.135e-41 -6.248e-42 6.712e-42
-4.522e-42 -1.389e-41 -1.3161e-41 -7.533e-42 -3.471e-42 -7.692e-42 -7.431e-42 6.529e-42
-1.2629e-41 -2.772e-42 3.758e-42 -1.3604e-41 -4.703e-42 -8.021e-42 -3.338e-42 -1.266e-41
-1.243e-41 -5.514e-42 1.0067e-41 -1.3364e-41 -2.129e-42 -5.153e-42 9.134e-42 -7.706e-42
9.565e-42 6.714e-42 -9.809e-42 -1.1307e-41 -9.293e-42 -1.1667e-41 -5.623e-42 -4.529e-42
-1.1625e-41 -1.2386e-41 -7.997e-42 -3.541e-42 -4.725e-42 -4.787e-42 -2.697e-42 -5.842e-42
1.1046e-41 5.643e-42 -5.451e-42 -1.3594e-41 -6.079e-42 -1.3734e-41 -7.965e-42 -8.409e-42
-1.1743e-41 2.608e-42 7.201e-42 -1.3104e-41 -1.3869e-41 -5.88e-42 4.714e-42 -9.471e-42
-7.95e-42 -6.565e-42 -8.568e-42 -8.622e-42 -6.498e-42 -3.869e-42 -4.048e-42 -7.214e-42
-6.864e-42 -4.053e-42 -7.13e-42 -8.087e-42 -5.974e-42 -1.121e-41 -4.528e-42 -2.413e-42
3.307e-42 -9.445e-42 -1.0486e-41 -7.029e-42 -5.542e-42 -7.013e-42 -1.2245e-41 -3.697e-42
-4.919e-42 -6.886e-42 -2.79e-42 -4.871e-42 -5.311e-42 -5.618e-42 -8.371e-42 -8.77e-42
5.593e-42 -5.853e-42 -8.754e-42 -2.522e-42 -9.166e-42 -6.575e-42 -4.872e-42 -8.461e-42
7.585e-42 -6.966e-42 -4.45e-42 -7.938e-42 -3.173e-42 -1.243e-41 -1.1324e-41 -6.236e-42
-9.173e-42 -6.051e-42 -1.0773e-41 -3.065e-42 -4.664e-42 -1.0433e-41 -1.2654e-41 5.887e-42
-3.706e-42 -5.528e-42 -5.674e-42 -8.673e-42 -3.145e-42 -8.597e-42 -9.897e-42 -1.3947e-41
-2.58e-42 -1.0875e-41 -8.022e-42 -5.628e-42 5.667e-42 -3.31e-42 -4.149e-42 -3.236e-42
-4.096e-42 -3.813e-42 -4.21e-42 -5.461e-42 -5.109e-42 -9.342e-42 -3.709e-42 -2.042e-42
-3.71e-42 -5.567e-42 -8.011e-42 -1.1793e-41 -1.1163e-41 -1.2156e-41 -5.054e-42 -3.621e-42
-5.678e-42 -3.778e-42 -2.407e-42 -6.499e-42 -2.431e-42 -9.225e-42 -9.532e-42 -1.2393e-41
4.687e-42 -1.1416e-41 -1.1261e-41 -1.198e-41 -1.2546e-41 -1.2074e-41 -7.067e-42 -8.41e-42
-4.6e-42 -9.477e-42 -5.5e-42 -3.776e-42 -3.219e-42 -1.2456e-41 -1.071e-41 -1.2284e-41
-5.426e-42 -6.037e-42 -9.59e-42 -6.922e-42 -5.937e-42 -1.0126e-41 -1.3253e-41 1.322e-41
-1.3545e-41 -8.677e-42 -7.468e-42 -4.86e-42 -9.043e-42 -1.3887e-41 -1.3419e-41 5.552e-42

linear2.bias f4 [64]
00000000: 6425 0080 a30e 0080 4fdb 8c3d e5cd 283e
00000010: fe1b 0080 831f 0080 a91a 0080 ed21 0080
00000020: f906 0080 b318 0080 4a24 0080 f411 0080
00000030: 5416 0080 0686 a23d d11e 0080 1511 0080
00000040: 61d9 163e 61d7 cb3d ff10 0080 ff20 0080
00000050: c10c 0080 9116 0080 de0c 0080 4180 3e3e
00000060: 360c 0f3e b814 0080 6d20 0080 4115 0080
00000070: 6519 0080 fa1b 0080 ee1a 0080 86ef 103e
00000080: 8d08 0080 0955 743d 861f 0080 19bf 833d
00000090: 261b 0080 b008 0080 d322 0080 8f21 0080
000000a0: bad5 a23d 8e08 0080 1116 0080 81fc ef3d
000000b0: 231d 0080 62c3 25b7 400a 0080 d51c 0080
000000c0: e70f 0080 c00d 0080 4414 0080 b91c 0080
000000d0: 3924 0080 9818 0080 df1f 0080 090f 0080
000000e0: ae25 0080 77d2 163e 5f11 0080 5618 0080
000000f0: 5e75 b93c fb07 0080 ebf9 123d 4e17 0080
-1.3413e-41 -5.25e-42 0.06877767 0.16484793 -1.0042e-41 -1.1304e-41 -9.564e-42 -1.217e-41
-2.501e-42 -8.86e-42 -1.3018e-41 -6.44e-42 -8.01e-42 0.07935719 -1.1055e-41 -6.128e-42
0.14731361 0.0995319 -6.097e-42 -1.1837e-41 -4.575e-42 -8.095e-42 -4.616e-42 0.18603612
0.13969502 -7.432e-42 -1.1632e-41 -7.624e-42 -9.11e-42 -1.0036e-41 -9.66e-42 0.14153871
-3.067e-42 0.05965141 -1.1308e-41 0.06432933 -9.739e-42 -3.116e-42 -1.2493e-41 -1.2039e-41
0.07950921 -3.069e-42 -7.916e-42 0.11718083 -1.0452e-41 -9.8802575e-06 -3.677e-42 -1.0343e-41
-5.705e-42 -4.933e-42 -7.27e-42 -1.0304e-41 -1.2994e-41 -8.823e-42 -1.1433e-41 -5.394e-42
-1.3517e-41 0.14728723 -6.232e-42 -8.73e-42 0.022638973 -2.863e-42 0.03588287 -8.36e-42

linear3.weight f4 [32, 64]
00000000: ed22 0080 200c 0080 0f1f 0080 b91a 0080
00000010: 4d11 0080 190c 0000 cc1a 0000 aa12 0000
00000020: 0508 0000 6b20 0080 b80b 0080 6323 0080
00000030: 1613 0080 fd15 0080 4024 0080 fb0f 0000
00000040: f026 0080 d11d 0080 3a1d 0080 4a00 0080
00000050: 3e0f 0080 d80d 0080 8321 0080 471f 0080
00000060: 3e1d 0000 4013 0080 6f23 0080 9008 0080
00000070: 3006 0080 8307 0000 ed1e 0080 e120 0080
00000080: 601b 0000 c00a 0080 bc0e 0000 d023 0080
00000090: 7812 0080 4013 0000 f210 0080 4b26 0080
000000a0: 1311 0080 b00f 0080 6b1a 0080 481f 0080
000000b0: 8522 0000 5a16 0080 4918 0000 371e 0000
000000c0: aa1b 0000 c50c 0080 b50d 0080 0314 0080
000000d0: 8b1d 0080 8900 0000 3b25 0000 3415 0080
000000e0: 5221 0080 dc22 0080 1c08 0080 b421 0080
000000f0: 0a17 0080 a807 0080 7713 0080 670c 0080
00000100: fa18 0080 5e24 0000 0772 ef3c e103 c13d
00000110: 7324 0000 b110 0080 930a 0080 500c 0080
00000120: ba03 0080 1419 0080 f510 0080 f018 0080
00000130: 0021 0080 2fbf 993d e90d 0000 cd04 0080
00000140: 929b ad3d 99a5 35b9 5325 0000 540a 0000
00000150: 8905 0000 9c24 0080 460e 0000 41d4 c73d
00000160: f359 923c 3916 0000 ff18 0080 fc18 0080
00000170: e404 0000 bc0d 0080 5822 0080 cfe6 b33d
00000180: 1e17 0080 64db a43d d826 0080 01a5 953d
00000190: 4c10 0000 1f0b 0080 930d 0000 ad1a 0080
000001a0: df18 993d 9c25 0080 bd23 0080 1488 a93d
000001b0: a10c 0000 ae6e f8b9 720d 0000 9e10 0000
000001c0: b114 0080 5825 0080 1602 0000 4b06 0000
000001d0: 6818 0000 a418 0080 f701 0080 d51e 0080
000001e0: ab0f 0000 df4a be3d 3818 0080 af05 0000
000001f0: a49b c13c ab14 0080 acb2 583d 2f24 0000
00000200: ca0e 0080 660b 0000 251c e33c 523b c33d
00000210: e323 0080 9d19 0000 9809 0000 7907 0000
00000220: c01f 0000 f10f 0080 4113 0000 5f26 0000
00000230: ed0a 0080 49f5 9e3d fe1f 0000 6d1a 0000
00000240: 30d8 dd3d febd 3bbb e510 0080 c80b 0080
00000250: ff1e 0080 8220 0080 a90a 0000 17d2 c33d
00000260: bb97 773c e712 0000 040f 0080 c410 0080
00000270: e00e 0000 f10e 0080 eb22 0080 4694 bc3d
00000280: d325 0080 66b3 a13d 110f 0000 19ea 923d
00000290: 6313 0000 8d23 0080 1f10 0080 9816 0080
000002a0: a80d 9e3d 1e19 0080 8008 0080 3da2 b33d
000002b0: 6612 0080 4b26 fbb8 9325 0080 f820 0080
000002c0: 2023 0080 8625 0000 d41f 0000 8a21 0000
000002d0: ea08 0080 fc25 0080 cb0f 0000 8116 0080
000002e0: c41d 0000 719b c43d 2c07 0080 2e22 0080
000002f0: 858a b83c 5709 0080 b41f 533d 2908 0080
00000300: c51b 0080 9f20 0080 b0c4 843d f604 ec3d
00000310: 3d23 0000 191d 0000 ae0d 0080 6c14 0080
00000320: 231c 0080 c517 0000 e101 0080 3219 0080
00000330: 431f 0000 f292 c03d 2125 0000 3f0d 0080
00000340: 5a74 f13d d306 55be a31f 0080 e70a 0080
00000350: 3710 0080 8b1a 0000 3200 0080 19c7 063e
00000360: fb26 923d d119 0080 ee05 0000 3515 0080
00000370: a621 0000 8f1c 0000 fe11 0080 6860 e53d
00000380: ef21 0080 fdc9 8c3d 8922 0080 783d 8d3d
00000390: de22 0000 d414 0080 e013 0000 9813 0080
000003a0: 89c5 bd3d 740e 0000 9122 0080 f620 c53d
000003b0: cd18 0000 375e f8ba 9f26 0080 a908 0000
000003c0: 861d 0080 680c 0080 fa00 0000 e41a 0000
000003d0: 2919 0000 271f 0000 9f17 0000 1e1d 0080
000003e0: fc03 0000 fae8 ff3d 4a18 0000 cb0a 0000
000003f0: 9da6 313d 4204 0080 938b 7d3d 221f 0000
-1.2529e-41 -4.35e-42 -1.1142e-41 -9.586e-42 -6.206e-42 4.34e-42 9.613e-42 6.695e-42
2.877e-42 -1.163e-41 -4.204e-42 -1.2694e-41 -6.847e-42 -7.888e-42 -1.3004e-41 5.733e-42
-1.3968e-41 -1.0696e-41 -1.0485e-41 -1.04e-43 -5.468e-42 -4.966e-42 -1.2022e-41 -1.122e-41
1.049e-41 -6.906e-42 -1.2711e-41 -3.072e-42 -2.22e-42 2.695e-42 -1.1094e-41 -1.1795e-41
9.82e-42 -3.856e-42 5.286e-42 -1.2847e-41 -6.625e-42 6.906e-42 -6.079e-42 -1.3737e-41
-6.125e-42 -5.628e-42 -9.477e-42 -1.1222e-41 1.2383e-41 -8.018e-42 8.712e-42 1.0839e-41
9.924e-42 -4.581e-42 -4.917e-42 -7.179e-42 -1.0598e-41 1.92e-43 1.3356e-41 -7.606e-42
-1.1953e-41 -1.2505e-41 -2.909e-42 -1.209e-41 -8.265e-42 -2.747e-42 -6.983e-42 -4.449e-42
-8.96e-42 1.3046e-41 0.029229177 0.09424568 1.3076e-41 -5.988e-42 -3.793e-42 -4.417e-42
-1.337e-42 -8.996e-42 -6.083e-42 -8.946e-42 -1.1838e-41 0.075071685 4.99e-42 -1.722e-42
0.08476938 -0.00017323195 1.339e-41 3.705e-42 1.986e-42 -1.3133e-41 5.12e-42 0.09757281
0.017865157 7.972e-42 -8.967e-42 -8.963e-42 1.754e-42 -4.927e-42 -1.232e-41 0.087842576
-8.293e-42 0.08049658 -1.3935e-41 0.073068626 5.846e-42 -3.99e-42 4.87e-42 -9.57e-42
0.07475447 -1.3492e-41 -1.282e-41 0.08277908 4.53e-42 -0.0004738471 4.823e-42 5.961e-42
-7.423e-42 -1.3396e-41 7.48e-43 2.257e-42 8.755e-42 -8.84e-42 -7.05e-43 -1.106e-41
5.62e-42 0.09291624 -8.688e-42 2.039e-42 0.023633786 -7.414e-42 0.05290477 1.298e-41
-5.305e-42 4.089e-42 0.027723381 0.09532799 -1.2874e-41 9.188e-42 3.442e-42 2.68e-42
1.139e-41 -5.719e-42 6.907e-42 1.3765e-41 -3.92e-42 0.07761628 1.1477e-41 9.48e-42
0.1083225 -0.002864718 -6.06e-42 -4.226e-42 -1.112e-41 -1.1662e-41 3.824e-42 0.09561556
0.015111859 6.781e-42 -5.387e-42 -6.014e-42 5.336e-42 -5.36e-42 -1.2526e-41 0.092079684
-1.3569e-41 0.07895546 5.405e-42 0.07173557 6.955e-42 -1.2753e-41 -5.783e-42 -8.105e-42
0.077174485 -9.01e-42 -3.049e-42 0.08771179 -6.6e-42 -0.00011975745 -1.3479e-41 -1.1827e-41
-1.26e-41 1.3461e-41 1.1418e-41 1.2032e-41 -3.198e-42 -1.3626e-41 5.665e-42 -8.073e-42
1.0678e-41 0.095999606 -2.573e-42 -1.2261e-41 0.022526989 -3.35e-42 0.051543906 -2.927e-42
-9.962e-42 -1.1702e-41 0.06482828 0.11524384 1.2641e-41 1.0438e-41 -4.907e-42 -7.326e-42
-1.0094e-41 8.527e-42 -6.74e-43 -9.038e-42 1.1215e-41 0.094030276 1.332e-41 -4.752e-42
0.117897704 -0.20803384 -1.1349e-41 -3.911e-42 -5.817e-42 9.522e-42 -7e-44 0.13161887
0.07136341 -9.261e-42 2.127e-42 -7.608e-42 1.2071e-41 1.0245e-41 -6.454e-42 0.11200029
-1.2173e-41 0.06874464 -1.2389e-41 0.0689649 1.2508e-41 -7.472e-42 7.13e-42 -7.029e-42
0.092661925 5.185e-42 -1.24e-41 0.096254274 8.897e-42 -0.0018948977 -1.3855e-41 3.107e-42
-1.0591e-41 -4.45e-42 3.5e-43 9.647e-42 9.026e-42 1.1175e-41 8.474e-42 -1.0445e-41
1.43e-42 0.12495609 8.713e-42 3.872e-42 0.043371785 -1.527e-42 0.061900686 1.1168e-41

linear3.bias f4 [32]
00000000: e50c 0080 389e 703d 33c4 2c3d 038b 293e
00000010: 640d 0080 0a2e 223d 1011 0080 4af9 dd3c
00000020: aadf 653d 8025 0080 0d12 2d3e cd23 0080
00000030: dee1 9f3d cbdb 493e c3a7 6b3d 2624 0080
00000040: 5323 0080 3c12 0080 a896 45b9 aef5 1d3c
00000050: 0190 553d cddd 443e 7022 0080 030f 0080
00000060: b7cb c4bb 3116 0080 d823 0080 d25c 313e
00000070: 4a87 543d fdc3 43bc a90d c8ba f221 0080
-4.626e-42 0.05874464 0.042179298 0.16556935 -4.804e-42 0.039594688 -6.121e-42 0.02709641
0.056121506 -1.3452e-41 0.16901417 -1.2843e-41 0.078067526 0.1971275 0.057533037 -1.2968e-41
-1.2672e-41 -6.541e-42 -0.00018843508 0.009641094 0.052139286 0.19225235 -1.2354e-41 -5.385e-42
-0.00600573 -7.961e-42 -1.2858e-41 0.17320564 0.051886834 -0.011948583 -0.001526286 -1.2177e-41

linear4.weight f4 [64, 96]
00000000: d21c 0080 b020 79bc c3e7 82bc 0d00 62bc
00000010: 0a0b 0080 08e8 58bc 6010 0080 4ba3 3bbc
00000020: 0066 72bc 300d 0000 eef0 51bd 751c 0080
00000030: 6416 67bc 20f4 5abc 4ee3 84bc 0118 0080
00000040: e804 0000 8124 0080 f150 72b3 bb26 e2bb
00000050: 79a9 afbc 591a 5ebc b922 0000 5a0a 0080
00000060: e819 3fbb 0006 0080 2706 0000 3c77 73bd
00000070: 0d81 13bc b1bd 2cbc e961 2089 400c 0000
00000080: 1d1f 0080 8d11 133d 7ff9 1b3d 0fe3 a63b
00000090: be22 0080 85ea e73d 3e26 0000 f8f3 fa3c
000000a0: ca64 0a3d dc24 0000 1e15 e03d be09 0080
000000b0: a272 a03c 5731 f33a 67b0 043e db03 0080
000000c0: 380f 0000 0726 0000 7bf4 02b9 bbdb 843d
000000d0: d4b2 1d3e 55a5 383b c907 0000 8625 0000
000000e0: 9718 fe3c 881e 0080 361c 0000 196b e13d
000000f0: 31d4 4f3c f678 223d deb9 6137 e80d 0080
00000100: d213 0080 c3a3 043d 02f1 153d 2cca 243c
00000110: f523 0080 079e b23d f11f 0000 9315 d93c
00000120: fb18 ff3c 970e 0000 02ee 9e3d ce18 0080
00000130: bcd3 cd3c b0c2 983b 80f4 c73d 0820 0000
00000140: e222 0080 4d0c 0000 e8fe 8ab9 fd2c 503d
00000150: f328 e43d 6182 cd3b d926 0080 ff1f 0000
00000160: 46ec da3c 9e22 0080 d819 0000 46e1 853d
00000170: 9901 793c 13be 023d 8715 5d38 1c07 0000
00000180: 9617 0000 193e 543d 052f 513d d814 b43d
00000190: a718 0000 f8b9 7bbd 6107 0000 b886 2f3d
000001a0: d28b 533d 4709 0080 b169 843e ea18 0000
000001b0: 7922 863d 3e7e c13d 5f3b 93bd 990c 0000
000001c0: af1d 0000 9d1d 0000 12f3 2036 3656 01bd
000001d0: e410 a9bd 8409 be3d 3d08 0080 6109 0000
000001e0: a3b2 7dbc b114 0080 410e 0000 98c2 893e
000001f0: 6637 393d 75b4 eb3c ac10 1a1e 251b 0080
00000200: fe23 0000 650b 553d 9197 493d c5b1 bb3d
00000210: e60a 0000 00a9 8dbd 921d 0080 215e 443d
00000220: 1ead 553d 3426 0000 1701 6e3d d016 0080
00000230: 3826 893d 73ae cd3d 0b40 a4bd f81b 0080
00000240: 1706 0080 e924 0080 3f0d 6f3a 8de2 15bd
00000250: 9620 cfbd f532 c83d cd08 0080 9720 0080
00000260: 1cb6 08ba ae14 0080 d223 0080 f64a 5d3d
00000270: 8b3c 5a3d e9d0 bb3c d235 183b d20b 0080
00000280: 941f 0000 0927 593d c9df 453d de58 ac3d
00000290: 9f0f 0000 7595 1bbd 7e24 0080 1b96 463d
000002a0: 6ddc 543d 0b21 0000 61a4 d13d 5720 0080
000002b0: 0139 843d 8e29 bd3d 7ea9 34bd f221 0080
000002c0: c21f 0080 ca26 0080 4365 af3a 1df5 73bc
000002d0: 44e6 5bbd 31c4 b73d 7211 0000 451f 0080
000002e0: bd7b d73b 5904 0080 9020 0080 51c2 cf3d
000002f0: 25ca 383d 15aa 0a3d 250b 763b 6c1d 0080
00000300: 7616 0080 a4b0 a1bb da67 a0bb a050 703c
00000310: 0e04 0080 42bc b3bd e206 0080 7685 7abb
00000320: ed52 6bbb 8314 0000 6ce1 963a 2023 0000
00000330: f798 953b 4697 973c 95ec cebd b01f 0000
00000340: 330e 0080 0813 0000 3eb5 15af 4808 43bd
00000350: 4525 efbd 408d 8e3c 600e 0000 300d 0000
00000360: 0e72 bdbc 6902 0000 4214 0080 bb94 91ba
00000370: 2685 6a3b c13d 4bbc b007 0080 bc00 0080
00000380: da00 0000 eaa8 f33c 724e 003d 7726 ca3c
00000390: fe19 0000 92b7 593d ea1e 0000 329c c73c
000003a0: 5c69 eb3c 450b 0000 6b5d e43d bc00 0080
000003b0: baeb ce3c 2b8e d93c adbc 7b3d f518 0000
000003c0: 050b 0080 ae08 0000 3fa0 b5b5 0d2f ed3c
000003d0: 76c3 943d 1862 d33c c70b 0080 a203 0080
000003e0: 5ee0 553c 4324 0080 6c10 0000 2785 003e
000003f0: 9b12 9b3c 94a7 c93c bbb4 b13a d820 0000
-1.0339e-41 -0.015205547 -0.015979653 -0.013793957 -3.96e-42 -0.013238914 -5.874e-42 -0.011452506
-0.0147948265 4.731e-42 -0.05125516 -1.0208e-41 -0.014104459 -0.013363868 -0.016221669 -8.611e-42
1.76e-42 -1.3095e-41 -5.641863e-08 -0.0069015897 -0.021443116 -0.013556086 1.2456e-41 -3.713e-42
-0.0029159728 -2.152e-42 2.207e-42 -0.059439883 -0.009002936 -0.010543273 -1.9305337e-33 4.394e-42
-1.1161e-41 0.03590541 0.038079735 0.0050929855 -1.2463e-41 0.11324028 1.3719e-41 0.030633911
0.033787526 1.3223e-41 0.10941528 -3.495e-42 0.019585911 0.0018554133 0.12957917 -1.383e-42
5.46e-42 1.3642e-41 -0.00012488842 0.06487223 0.15400249 0.0028174717 2.793e-42 1.3461e-41
0.031017585 -1.0953e-41 1.012e-41 0.110067554 0.012684868 0.03966614 1.3454321e-05 -4.989e-42
-7.11e-42 0.032382738 0.036606796 0.010057967 -1.2899e-41 0.087215476 1.1458e-41 0.026499545
0.031139841 5.234e-42 0.0776024 -8.898e-42 0.025125377 0.0046618804 0.097634315 1.149e-41
-1.2514e-41 4.413e-42 -0.0002651133 0.050824154 0.11140623 0.006271646 -1.3936e-41 1.1478e-41
0.026723992 -1.2418e-41 9.271e-42 0.06537108 0.015198135 0.03191955 5.2710555e-05 2.55e-42
8.461e-42 0.051817033 0.051070232 0.08793038 8.844e-42 -0.06145665 2.647e-42 0.042853087
0.051647015 -3.328e-42 0.25861886 8.937e-42 0.06549544 0.09447907 -0.071890585 4.519e-42
1.0648e-41 1.0623e-41 2.3983343e-06 -0.031576358 -0.08255175 0.09279159 -2.955e-42 3.365e-42
-0.015484485 -7.423e-42 5.113e-42 0.26906276 0.045218848 0.028772572 8.15614e-21 -9.738e-42
1.2912e-41 0.05201282 0.04921681 0.09164766 3.91e-42 -0.06917 -1.0608e-41 0.04794133
0.05216705 1.3705e-41 0.058106508 -8.184e-42 0.06696743 0.10043039 -0.08020028 -1.0033e-41
-2.185e-42 -1.3241e-41 0.00091191 -0.03659301 -0.10113637 0.09775344 -3.157e-42 -1.1691e-41
-0.00052151247 -7.418e-42 -1.285e-41 0.054026566 0.053280395 0.022926765 0.0023225439 -4.24e-42
1.1328e-41 0.053015742 0.04830912 0.084153876 5.604e-42 -0.03798433 -1.3091e-41 0.048482995
0.051968027 1.1854e-41 0.10236431 -1.1601e-41 0.06456185 0.092364416 -0.044106953 -1.2177e-41
-1.1393e-41 -1.3915e-41 0.0013381619 -0.0148899825 -0.053686395 0.089729674 6.258e-42 -1.1217e-41
0.00657603 -1.56e-42 -1.1681e-41 0.10144485 0.045114655 0.03385361 0.0037543264 -1.0555e-41
-8.057e-42 -0.0049343873 -0.0048951926 0.01466766 -1.455e-42 -0.08776142 -2.469e-42 -0.0038226522
-0.0035907582 7.358e-42 0.0011511273 1.26e-41 0.004565354 0.01850475 -0.10103718 1.1367e-41
-5.094e-42 6.827e-42 -1.3615861e-10 -0.04761532 -0.116770305 0.017401338 5.157e-42 4.731e-42
-0.023125675 8.65e-43 -7.267e-42 -0.0011106947 0.003578493 -0.01240486 -2.758e-42 -2.63e-43
3.05e-43 0.02974363 0.03132481 0.024676545 9.324e-42 0.053153582 1.109e-41 0.024366472
0.028736763 4.043e-42 0.111506306 -2.63e-43 0.025258888 0.026557049 0.061459232 8.953e-42
-3.953e-42 3.114e-42 -1.3532189e-06 0.0289531 0.07263844 0.02580361 -4.225e-42 -1.303e-42
0.013053982 -1.3008e-41 5.891e-42 0.12550794 0.01892977 0.02461604 0.001355789 1.1782e-41

linear4.bias f4 [64]
00000000: dc67 1bbb ceb6 a73d 8196 27bc a117 0080
00000010: 0f95 a9bb 58df 67bc b1a6 d63b 9a46 f53a
00000020: 3970 693c 0814 0080 8620 0080 b0af d13c
00000030: 7ed6 883c 5af4 0d3d 7208 0080 f124 0080
00000040: 710b 38bc a41d 163d ad4e 6bbc 02fa f13c
00000050: 692c 66bc 160d 0080 ff07 2b3c 4532 963c
00000060: 201d 0080 6c9e 4a3d f104 e03b c886 f2bb
00000070: 0ccc c33c 8e97 0cbc 6fa3 8b3b 3467 cabc
00000080: ae13 0000 dc32 8db8 d5ea 11bc 86bf 33bc
00000090: 399e 063b b2ce 9d3c 900a 0080 7121 0080
000000a0: 2254 b03d 01ab 323c 90ef 3d3c 66f9 b23c
000000b0: 6db3 c03c 590e 0080 6954 ffbb b0bf 3b3d
000000c0: 1610 0080 f40d 0080 f6a6 533a 30dd 54bb
000000d0: 6a90 8abc cba3 be3a e4c9 923d 8018 0080
000000e0: 0d00 0080 0a7a 56bc 1d19 6a3c 8d74 9d3d
000000f0: d7bb cf3c 172a ef3d 0cfd 89bc d919 0080
-0.0023713028 0.08189164 -0.010228754 -8.476e-42 -0.00517524 -0.01415237 0.006550633 0.0018713058
0.014247947 -7.186e-42 -1.1667e-41 0.02559647 0.01670384 0.03465686 -3.03e-42 -1.3252e-41
-0.011233197 0.03664936 -0.0143620195 0.029538158 -0.014048674 -4.694e-42 0.010438918 0.018334517
-1.0448e-41 0.04946749 0.0068365266 -0.007401321 0.023901008 -0.008581055 0.004261426 -0.024707414
7.06e-42 -6.732877e-05 -0.008906086 -0.010970956 0.0020541085 0.019263599 -3.789e-42 -1.1997e-41
0.08609797 0.010905028 0.011592761 0.021847438 0.023523057 -5.147e-42 -0.007792045 0.045837104
-5.77e-42 -5.005e-42 0.00080738903 -0.003248047 -0.016914565 0.0014544664 0.07167414 -8.789e-42
-1.8e-44 -0.01309062 0.014288214 0.07688246 0.025358124 0.1167795 -0.016844295 -9.272e-42

linear5.weight f4 [16, 64]
00000000: 1616 0000 0c1f 0000 0c25 0080 510a 0000
00000010: 1520 0080 4713 0000 6e0d 0000 ad0e 0080
00000020: 9e15 0080 8f15 0000 3f26 0080 6018 0080
00000030: 7012 0080 d001 0080 8626 0000 e826 0080
00000040: cc03 0080 3221 0080 b408 0000 5d0b 0080
00000050: ed04 0000 d31d 0080 2d22 0080 6309 0080
00000060: 3602 0080 3622 0080 5f0d 0080 a718 0000
00000070: 501a 0080 de20 0080 cd0f 0080 a417 0080
00000080: b124 0080 1e1d 0080 1807 0000 f021 0000
00000090: 6422 0080 1314 0080 3b19 0080 2c06 0000
000000a0: 7623 0080 4019 0000 e50c 0080 4421 0080
000000b0: 5517 0080 8119 0080 361f 0080 a422 0080
000000c0: 3413 0080 7e21 0080 4425 0080 bc05 0080
000000d0: c108 0080 7018 0000 2900 0000 e725 0080
000000e0: b60e 0080 4413 0080 8a1b 0080 cb0c 0000
000000f0: ec1a 0080 441e 0080 331e 0080 db1f 0080
00000100: 353c f83d 422f 2c3e 009a 213e 6219 0080
00000110: e558 fc3d 8b60 113e 9af5 233d 0108 323e
00000120: 001f 783d 1326 0000 b213 0080 3df3 e23c
00000130: db9e a9bd 2751 00bd fa01 0000 3825 0000
00000140: dbcd 213e e816 05be 8101 053e 0db1 2f3c
00000150: 1795 2f3e 931b 0080 69b2 8a3d 4ebe 86bd
00000160: 3f23 0000 ff67 3dbe e6b6 1cbc 92d2 043e
00000170: 8b3d e33c 9f51 093e 61f7 323e 6001 253e
00000180: a024 0000 1878 ddb2 e814 fb3d 2f15 043e
00000190: 25a0 abbd 430f 10be f810 0000 081c 0080
000001a0: d1f8 293e 76a2 7f3d 7da5 b03b d80d 3f3e
000001b0: 11f0 2a3c ed17 0000 8486 003e 6516 883d
000001c0: 0a23 0080 1e12 0000 d25a b2bc 319f f83d
000001d0: f66d 123e d308 2f3b 3ab9 283e 7c1a 0000
000001e0: 8008 0080 e805 2f3e eacc 1bbc 7d52 283e
000001f0: a12a 983c 7722 323e ffe8 233e a202 0080
00000200: 84bf 073e e339 c6bd 25a9 223e f208 0000
00000210: bc38 e83d fef9 8d3e 8ff1 6d3d d65f 8d3b
00000220: 39da 0ebc 6321 0080 140b 0000 8d78 633c
00000230: 9caf 9c3d 437a 1e3c 8d0d 0080 9900 0000
00000240: 48df 193e 0301 a73d 177f ab3d 79af 2ebe
00000250: eb14 fe3c 9a10 0000 a695 26bc f8c9 593d
00000260: 2e1e 0000 20fa af3d cdc2 933c 5db3 b03d
00000270: 31a4 1fbe 0ca7 a03d 8a06 54bb 56da f03c
00000280: 7d19 0080 40cf 2639 afd2 193e 312a b03d
00000290: bee8 b23d a27f aa3d 5c1a 0080 7d1e 0000
000002a0: 098b d6bd 5316 53bc 0c3c 67be 519e 19bd
000002b0: 1ffb 6a3d 8119 0080 2ad9 cb3d 8147 c6ba
000002c0: 1913 0080 ba13 0000 5996 bf3c 5b38 073e
000002d0: a407 4d3d a578 a53c 0304 9fbd 101e 0080
000002e0: 5009 0000 1a95 f83c e74f f83d 8157 bfbd
000002f0: 3948 2f3c 273a 1fbe 50ec 413e ac0b 0000
00000300: 3ce8 e93d 1e81 8bbd 097d 0f3e a200 0000
00000310: f31a c93d 4bc3 733e d858 523d a8c5 663c
00000320: 645b 63ba ee0d 0080 ac22 0080 58f1 a73c
00000330: 60f2 623d bdc6 1d3c 7a11 0080 1200 0000
00000340: caca 073e b30b 673d b892 983d 8d64 17be
00000350: 1628 1c3d 7910 0080 cbd5 deba 36ec 2c3d
00000360: 9224 0000 b7e9 603d cc02 743c 85a9 9c3d
00000370: d382 09be 21dc 8c3d 866f f43b 0bb4 063d
00000380: b40b 0080 ceb8 ab38 936c 0b3e 4cac 9b3d
00000390: 6c17 8a3d 2d5d 763d 2a24 0080 a912 0000
000003a0: be97 9abd 5eb4 87bb b3a4 50be a580 b9bc
000003b0: 9ee6 4b3d 8512 0080 c304 b53d b03d 223c
000003c0: a910 0000 2126 0000 28bf 853c a639 e63d
000003d0: adb9 443d 3aa0 8f3c 6ccb 4dbd 581f 0080
000003e0: 530b 0000 0a1c 193d 3e6d de3d f086 85bd
000003f0: a332 753c 8eab f2bd 9da7 253e 1723 0000
7.923e-42 1.1138e-41 -1.329e-41 3.701e-42 -1.1509e-41 6.915e-42 4.818e-42 -5.265e-42
-7.755e-42 7.734e-42 -1.372e-41 -8.744e-42 -6.614e-42 -6.5e-43 1.382e-41 -1.3957e-41
-1.362e-42 -1.1908e-41 3.122e-42 -4.076e-42 1.767e-42 -1.0699e-41 -1.226e-41 -3.367e-42
-7.93e-43 -1.2273e-41 -4.797e-42 8.844e-42 -9.439e-42 -1.179e-41 -5.668e-42 -8.48e-42
-1.3162e-41 -1.0445e-41 2.545e-42 1.2174e-41 -1.2337e-41 -7.201e-42 -9.051e-42 2.214e-42
-1.2721e-41 9.058e-42 -4.626e-42 -1.1933e-41 -8.37e-42 -9.149e-42 -1.1196e-41 -1.2427e-41
-6.889e-42 -1.2015e-41 -1.3368e-41 -2.057e-42 -3.14e-42 8.767e-42 5.7e-44 -1.3597e-41
-5.277e-42 -6.911e-42 -9.879e-42 4.589e-42 -9.658e-42 -1.0857e-41 -1.0833e-41 -1.1428e-41
0.121208586 0.16814902 0.15781403 -9.106e-42 0.12321643 0.14196984 0.040029146 0.17385866
0.06057644 1.3658e-41 -7.065e-42 0.027703876 -0.082822524 -0.031327393 7.09e-43 1.3352e-41
0.15801184 -0.1299702 0.12988855 0.010723365 0.17146717 -9.892e-42 0.0677231 -0.065792665
1.2644e-41 -0.18496703 -0.009565091 0.12970951 0.027739307 0.13410042 0.1747718 0.16113806
1.3139e-41 -2.5782398e-08 0.12259847 0.12898706 -0.083801545 -0.14068322 6.087e-42 -1.0056e-41
0.16598822 0.062410794 0.0053908215 0.18657625 0.010433213 8.583e-42 0.12551314 0.066448964
-1.257e-41 6.499e-42 -0.021771822 0.12139738 0.1429976 0.002670814 0.16476908 9.501e-42
-3.049e-42 0.17092097 -0.009509305 0.16437717 0.018575015 0.1739596 0.1600685 -9.44e-43
0.13256651 -0.0967901 0.15884836 3.209e-42 0.11338946 0.2772979 0.058091696 0.004314403
-0.0087190205 -1.1977e-41 3.974e-42 0.013883722 0.07650682 0.009672704 -4.861e-42 2.14e-43
0.15026581 0.0815449 0.0837385 -0.17059125 0.031015834 5.956e-42 -0.010167515 0.053171128
1.0826e-41 0.085926294 0.018037224 0.08627961 -0.15589978 0.07844362 -0.003235253 0.029400986
-9.143e-42 0.000159082 0.15021776 0.08601797 0.08735798 0.08325125 -9.456e-42 1.0937e-41
-0.104757376 -0.0128837405 -0.225815 -0.037504498 0.057368394 -9.149e-42 0.0995353 -0.0015127511
-6.851e-42 7.077e-42 0.023387121 0.13205092 0.050056115 0.02019913 -0.07764437 -1.0784e-41
3.34e-42 0.030344535 0.12124615 -0.09342862 0.010698372 -0.15549527 0.18937802 4.187e-42
0.11421248 -0.068117365 0.14012541 2.27e-43 0.09819593 0.23804967 0.05135426 0.014085211
-0.0008672981 -4.997e-42 -1.2438e-41 0.020500824 0.055406928 0.009629902 -6.27e-42 2.5e-44
0.13260952 0.05640764 0.074498594 -0.14784451 0.038124166 -5.909e-42 -0.0017000971 0.042217456
1.3119e-41 0.054910388 0.014893245 0.07649521 -0.13428812 0.06877924 0.0074595837 0.032886546
-4.198e-42 8.188338e-05 0.13615637 0.076012224 0.067427486 0.060147453 -1.2973e-41 6.694e-42
-0.07548474 -0.0041413745 -0.20375328 -0.02264435 0.04978048 -6.644e-42 0.08838799 0.009902403
5.977e-42 1.3678e-41 0.016326502 0.11241464 0.048028637 0.017532457 -0.050242826 -1.1244e-41
4.062e-42 0.037380256 0.1086068 -0.06519878 0.014965686 -0.11849128 0.1617722 1.2588e-41

linear5.bias f4 [16]
00000000: 400a 0080 ac1b 8e3b ab7d 2ebb 3095 84bc
00000010: 5401 8c3d 3d1f 0080 7b6a 753d ec89 3bbc
00000020: be4f 513b 35db e83a 7d0c 0080 bcb9 d93c
00000030: dc1c 0080 2ce4 a83d 9a21 0080 8d94 983d
-3.677e-42 0.004336795 -0.0026625197 -0.01618442 0.06836191 -1.1206e-41 0.059916 -0.011446457
0.00319384 0.0017765524 -4.48e-42 0.026577823 -1.0353e-41 0.08246645 -1.2054e-41 0.07450209

linear6.weight f4 [4, 16]
00000000: 2924 0000 09fd 1ebe f088 abbe 50ac 9dbe
00000010: 79f4 9abe 0e18 0000 b964 803f 74a1 9cbe
00000020: 8418 213e 36ab bcbe 7618 0000 492f 233f
00000030: 3126 0000 51a8 a8be 4f21 0080 0a14 90be
00000040: 7f07 0000 237e 17bd a32d a6be bbf8 98be
00000050: 5dbd 143f f809 0080 65bb e3be 80fa 9dbe
00000060: e562 bdbe 9f53 a7be 560d 0000 5039 a7be
00000070: 710e 0000 6494 383f c007 0080 12fc 283f
00000080: 6617 0000 79d0 b33e 6ea3 ffbc 100e a03b
00000090: 4d25 103e 3d0c 0000 1395 c5bd e25e bebb
000000a0: c8a5 843d 65e2 2dbd 7918 0080 30ad 963d
000000b0: 6e21 0080 6263 863d 1a11 0080 e654 9e3d
000000c0: 4c18 0080 f2fd 0dbe 98a0 e63e 14cd bc3e
000000d0: ea8c cfbe a111 0000 5ac4 dfbe 33f0 c63e
000000e0: ddc6 4c3e 3302 fb3e 160c 0000 a7ad 6fbe
000000f0: b70e 0080 c98c dfbe 590e 0000 6db0 d5be
1.2972e-41 -0.15526213 -0.33502913 -0.30795527 -0.30264643 8.629e-42 1.0030738 -0.3059193
0.15732008 -0.36849374 8.775e-42 0.63744026 1.37e-41 -0.32940915 -1.1949e-41 -0.2814029
2.689e-42 -0.036985528 -0.32456693 -0.29877266 0.58101445 -3.576e-42 -0.44478908 -0.3085518
-0.36989513 -0.32680985 4.784e-42 -0.32660913 5.18e-42 0.72101426 -2.78e-42 0.6600963
8.394e-42 0.3511999 -0.031205859 0.004884489 0.14076729 4.39e-42 -0.09647574 -0.0058096508
0.06476933 -0.042452235 -8.779e-42 0.07357252 -1.1992e-41 0.065619245 -6.135e-42 0.07731037
-8.716e-42 -0.13866404 0.45044398 0.36875212 -0.40537196 6.324e-42 -0.43704492 0.38855132
0.19997735 0.49025115 4.336e-42 -0.23406087 -5.279e-42 -0.43662098 5.147e-42 -0.41736165

linear6.bias f4 [4]
00000000: a94c 683d 472b 6e3d af9b ce3c 8f26 ce3c
0.056713734 0.05814674 0.02522072 0.02516487
