checkpoints/dnn_7.pt (torch, 257573 bytes, 12 tensors)

linear1.weight f4 [128, 358]
0.004274085 -0.0050497036 -0.020125594 -0.00041165252 -0.0058226376 0.006727044 -0.035696313 -0.0051457686
-0.0378251 0.022358475 0.024327146 -0.0049956343 -0.03814142 -0.04837024 -0.00803375 0.028809136
0.0914297 0.050495 0.103399426 -0.047359865 0.11680014 -0.17082125 -0.054734938 -0.008336749
-0.057048768 0.07035654 -0.09061721 -0.046889745 -0.06088828 -0.051200658 -0.0009256311 -0.014082918
-0.079110324 -0.008108042 0.014898322 0.027429543 -0.05447955 0.010430688 0.0059279026 0.024180539
-0.0014431118 0.06648398 -0.07250159 -0.0087546185 0.08953568 0.016284809 0.10555657 -0.011157537
-0.013391989 -0.1366042 -0.024652231 0.04607649 -0.04127409 -0.07233821 0.03449308 -0.09965105
0.019056113 -0.040342785 0.032198954 -0.08939477 0.049932618 -0.03314581 -0.004653105 0.00041420892
0.00076338765 -0.018084284 -0.017522622 0.040645678 0.03824835 -0.048034865 -0.010327773 0.0171502
0.040517263 -0.037233684 0.0024015051 0.034056056 0.033009842 -0.02319762 0.011009026 0.1084401
-0.107474424 0.054331355 -0.0018723375 -0.0005110873 -0.004197385 0.017262038 -0.025665589 0.024628041
-0.014726789 -0.008180407 0.00059009437 -0.014727363 0.01451328 0.012163854 -0.015188895 -0.0616753
-0.02568152 -0.031614248 -0.029125018 -0.05225778 -0.009217845 -0.006109723 0.057667967 -0.09245613
0.06421692 0.043542355 -0.02302228 0.06468616 0.03943214 -0.030463638 0.06983805 0.12547551
-0.07328146 -0.04832023 -0.062309973 0.018191153 -0.03510766 -0.024978902 -0.004714205 -0.077115275
0.05127035 -0.021089029 -0.10663473 -0.14971663 -0.24514678 0.022393519 -0.12555198 0.013319268
0.036737017 -0.047852185 0.18705815 -0.020712651 0.038043533 -0.002063511 0.088765495 0.07682147
0.06138059 -0.07397744 0.09971299 -0.03027142 -0.027823122 -0.05701588 -0.043246556 0.0759241
-0.15664847 0.054295883 0.09531138 0.20804873 -0.0950201 -0.016981198 0.23253389 0.24036983
0.26808387 -0.11581507 -0.07310026 0.10504696 -0.004938903 0.0052393246 0.18615267 -0.021526195
0.0033678378 -0.014724268 0.03901472 0.058318682 -0.10827701 -0.056478642 0.0023216866 -0.060351618
0.027254054 -0.14263357 0.05973454 0.13598545 0.01636764 -0.039224025 -0.06419408 0.035906255
-0.08495651 0.010178718 -0.124766015 0.044798467 -0.015895922 -0.008163806 0.06925524 0.053340692
0.006821354 0.01913423 0.009456541 0.013018606 -9.318719e-05 -0.058551796 0.03150508 -0.012813583
-0.074183546 -0.022754168 0.017110392 0.02559417 -0.041025713 -0.0065774824 0.009335478 -0.027625643
-0.03277584 0.11610963 0.06089887 0.06571863 -0.0026709153 0.00078085315 0.026786892 -0.06784592
-0.07034122 -0.029449973 -0.007715142 -0.0074635795 -0.05621173 0.0025953208 0.029836364 0.13320501
0.05353742 0.070256375 -0.02628136 0.03410344 -0.01573088 -0.030436374 -0.18472633 -0.022931866
-0.0014815925 -0.039542053 0.029404467 0.013299388 -0.037220836 -0.050673444 0.025320413 0.044631395
0.021938276 -0.029853584 0.0010615222 -0.018681793 -0.0058717644 -0.06957365 -0.0042421836 0.0830782
0.024247961 -0.013456908 -0.035787087 -0.002042359 0.037330184 0.0646872 0.0011447258 -0.01652194
-0.003803428 0.01413335 0.043039482 -0.11268849 0.043863274 0.041411586 0.09468934 -0.11721427
00000000: a00d 8c3b fc77 a5bb 6ede a4bc 11d3 d7b9
00000010: d3cb bebb 896e dc3b 4c36 12bd d69d a8bb
00000020: 7eee 1abd 1f29 b73c b949 c73c 6bb2 a3bb
00000030: 2d3a 1cbd df1f 46bd fd9f 03bc 2301 ec3c
00000040: 7f3f bb3d d8d3 4e3d 14c3 d33d 6bfc 41bd
00000050: e934 ef3d c4eb 2ebe be31 60bd dc96 08bc
00000060: f8ab 69bd 1717 903d 8495 b9bd 760f 40bd
00000070: fd65 79bd c8b7 51bd 0da6 72ba 0abc 66bc
00000080: 9804 a2bd 98d7 04bc 1718 743c ecb3 e03c
00000090: f325 5fbd 7ae5 2a3c da3e c23b 4416 c63c
000000a0: cc26 bdba c128 883d b77b 94bd 886f 0fbc
000000b0: 7c5e b73d b867 853c 0b2e d83d 1ace 36bc
000000c0: 136a 5bbc f9e1 0bbe 7af3 c9bc b4ba 3c3d
000000d0: 050f 29bd 0e26 94bd 9e48 0d3d da15 ccbd
000000e0: 911b 9c3c 7a3e 25bd 0de3 033d 9b14 b7bd
000000f0: 2586 4c3d e7c3 07bd 1379 98bb 2e2a d939
00000100: 141e 483a 7e25 94bc 9a8b 8fbc 157c 263d
00000110: 4daa 1c3d 35c0 44bd d235 29bc 947e 8c3c
00000120: 6ef5 253d 5982 18bd 9262 1d3b 5d7e 0b3d
00000130: 5435 073d ef08 bebc 345f 343c d815 de3d
00000140: 8d1b dcbd 8e8a 5e3d 3969 f5ba 7dfa 05ba
00000150: 388a 89bb 1e69 8d3c a440 d2bc bfc0 c93c
00000160: a148 71bc 1d07 06bc 90b0 1a3a 0a4b 71bc
00000170: 1cc9 6d3c e74a 473c d8da 78bc 3d9f 7cbd
00000180: 0d62 d2bc f17d 01bd 9797 eebc 410c 56bd
00000190: 7206 17bc 1234 c8bb 3f35 6c3d a459 bdbd
000001a0: 2984 833d 7859 323d 3899 bcbc 2d7a 843d
000001b0: 9883 213d e18e f9bc 4007 8f3d a77c 003e
000001c0: 9714 96bd 6feb 45bd be38 7fbd 9d05 953c
000001d0: 0dcd 0fbd 8ea0 ccbc 9e79 9abb 9dee 9dbd
000001e0: dc00 523d e6c2 acbc 4f63 dabd 514f 19be
000001f0: c207 7bbe 9d72 b73c b390 00be 0f39 5a3c
00000200: 8e79 163d a700 44bd 2c8c 3f3e 94ad a9bc
00000210: 89d3 1b3d f83b 07bb afca b53d 9354 9d3d
00000220: 376a 7b3d 7c81 97bd 5336 cc3d c5fb f7bc
00000230: 51ed e3bc 7c89 69bd 4d23 31bd 187e 9b3d
00000240: 7568 20be 5c65 5e3d 9d32 c33d ba0a 553e
00000250: e699 c2bd 271c 8bbc 5d1d 6e3e 8223 763e
00000260: 4a42 893e 7430 edbd 97b5 95bd dc22 d73d
00000270: 85d6 a1bb a4ae ab3b ce9e 3e3e b457 b0bc
00000280: f1b6 5c3b 0e3e 71bc e6cd 1f3d 92df 6e3d
00000290: 56c0 ddbd 2656 67bd 7027 183b 4233 77bd
000002a0: e543 df3c 890e 12be 34ac 743d c53f 0b3e
000002b0: 6e15 863c 5fa9 20bd 3078 83bd 7012 133d
000002c0: aefd adbd a3c4 263c 5385 ffbd 997e 373d
000002d0: 2a38 82bc 7cc1 05bc b1d5 8d3d c57b 5a3d
000002e0: aa85 df3b 64bf 9c3c 9cef 1a3c fe4b 553c
000002f0: 7e6d c3b8 02d4 6fbd 790b 013d 10f0 51bc
00000300: 8bed 97bd f366 babc 182b 8c3c ddaa d13c
00000310: 940a 28bd ec87 d7bb d5f3 183c 2c4f e2bc
00000320: f63f 06bd e3ca ed3d 1871 793d 7d97 863d
00000330: 860a 2fbb 2bb2 4c3a 2f70 db3c cdf2 8abd
00000340: 0f0f 90bd 1241 f1bc 4dcf fcbb 0b91 f4bb
00000350: 453e 66bd 4216 2a3b 646b f43c e566 083e
00000360: 0e4a 5b3d 93e2 8f3d 024c d7bc 0cb0 0b3d
00000370: 0cde 80bc b455 f9bc e628 3dbe 9cdb bbbc
00000380: ff31 c2ba d9f6 21bd a3e1 f03c ade5 593c
00000390: e074 18bd f58e 4fbd c16c cf3c 69cf 363d
000003a0: e6b7 b33c 818f f4bc c622 8b3a 8f0a 99bc
000003b0: ee67 c0bb a17c 8ebd 0402 8bbb e724 aa3d
000003c0: a9a3 c63c 5d7a 5cbc 7b95 12bd 19d9 05bb
000003d0: 89e7 183d b97a 843d a00a 963a 0559 87bc
000003e0: ef42 79bb 918f 673c 2b4a 303d 39c9 e6bd
000003f0: faa9 333d 329f 293d 7cec c13d 090e f0bd

linear1.bias f4 [128]
0.08198948 0.034204308 -0.054980155 0.06999197 0.030718848 0.04260732 0.13995391 -0.00020375178
-0.027746506 0.03417041 -0.0034463895 0.0038267514 -0.023304544 -0.039946295 -0.033768386 0.057138793
0.087543584 -0.00074952043 0.040073574 0.29831463 0.7295933 0.0044188146 0.043795135 0.007961119
-0.013827913 0.025133386 0.060278747 0.011328745 -0.0010481301 0.23016898 -0.046168182 -0.007660683
0.03918294 0.5401711 0.056943916 -0.008793935 -0.019955054 0.06807435 -0.014004906 -0.038279586
0.032583307 0.04507289 0.071780264 0.051161114 -0.0033195375 0.76873493 0.5688158 0.024771132
-0.035365436 0.07268259 0.07944525 0.04281403 0.11598713 0.0024028253 0.042447757 -0.018660665
0.28662232 0.06905688 -0.053492725 0.095260136 -0.006739766 -0.02676484 0.460313 -0.00823047
0.0011596602 0.034312546 -0.0022782346 0.027733013 0.12992236 0.037855536 -0.027180236 0.022391848
0.09052867 0.053096734 -0.0038518673 0.0018877669 0.008069123 0.04499897 0.012745006 0.11663114
-0.0022957763 -0.046073157 0.100378655 0.09439921 -0.043523148 0.009851616 0.2645929 0.044071387
0.25373545 0.043546308 -0.00019486703 0.088434696 0.12939319 0.054968167 -0.00027891927 -0.019610211
-0.011907101 0.0031879486 8.4018306e-05 0.057279624 -0.0045022247 0.17109945 0.1203176 -0.029668102
-0.015260961 0.03876665 -0.0018968384 -0.035726085 -0.026061172 0.08748489 0.5830069 0.031623617
0.20766048 0.29216707 -0.023531951 0.0059906817 0.11244598 2.0844513e-05 0.051425602 0.024411343
-0.05892781 -0.016901486 -0.03953321 0.045636524 0.04945873 0.03047702 0.1144021 -0.032000165
00000000: 1aea a73d d119 0c3d df32 61bd f357 8f3d
00000010: 18a6 fb3c 0385 2e3d 1450 0f3e 34a6 55b9
00000020: a44c e3bc 46f6 0b3d d2dc 61bb 3cca 7a3b
00000030: 2ce9 bebc ba9e 23bd b850 0abd 5e0a 6a3d
00000040: 0d4a b33d 777b 44ba 3024 243d b2bc 983e
00000050: a0c6 3a3f b4cb 903b 8762 333d 5a6f 023c
00000060: 798e 62bc 88e4 cd3c d9e6 763d 339c 393c
00000070: 6961 89ba 6bb1 6b3e d91a 3dbd 7706 fbbb
00000080: 4a7e 203d a748 0a3f 063e 693d 7014 10bc
00000090: c878 a3bc 916a 8b3d d574 65bc 0ecb 1cbd
000000a0: 1376 053d 5a9e 383d 8801 933d 518e 513d
000000b0: 998c 59bb d0cb 443f ea9d 113f d4ec ca3c
000000c0: 59db 10bd 9cda 943d 31b4 a23d c45d 2f3d
000000d0: a98a ed3d b878 1d3b b3dd 2d3d 40de 98bc
000000e0: 29c0 923e b26d 8d3d 301b 5bbd bf17 c33d
000000f0: 41d9 dcbb f041 dbbc 25ae eb3e 18d9 06bc
00000100: bdff 973a 508b 0c3d 6f4e 15bb 5830 e33c
00000110: 5e0a 053e 680e 1b3d 16a9 debc 1c6f b73c
00000120: 1867 b93d f67b 593d 9c6f 7cbb f26e f73a
00000130: 5b34 043c d750 383d 6ed0 503c 4fdc ee3d
00000140: bc74 16bb 35b7 3cbd 5393 cd3d 5f54 c13d
00000150: 5445 32bd ac68 213c b878 873e 3384 343d
00000160: 9de9 813e 9d5d 323d 3855 4cb9 401d b53d
00000170: a67f 043e 4d26 613d e93b 92b9 98a5 a0bc
00000180: 0016 43bc e7ec 503b fc32 b038 0a9e 6a3d
00000190: 6687 93bb b234 2f3e 1369 f63d 850a f3bc
000001a0: 1c09 7abc c7c9 1e3d 569f f8ba 8455 12bd
000001b0: 3d7e d5bc 472b b33d f13f 153f c487 013d
000001c0: f3a4 543e ec96 953e 14c6 c0bc 7b4d c43b
000001d0: 144a e63d 40db ae37 a7a3 523d 4cfa c73c
000001e0: 4a5e 71bd fc74 8abc 93ed 21bd 5ded 3a3d
000001f0: 3d95 4a3d f2aa f93c a64b ea3d 9b12 03bd

linear2.weight f4 [64, 128]
0.049513914 0.0031761262 -0.056311864 0.039237645 -0.032235984 -0.031969126 0.07869401 -0.052831676
-0.00820327 -0.0078088227 -0.015760588 0.06275091 -0.038078744 -0.05933788 -0.044771537 0.025919024
0.065677606 1.899309e-05 -0.025615474 -0.028479204 0.013959557 -0.051718082 0.0009922916 0.028477056
-0.044256404 -0.004541288 0.008544258 -0.023131186 0.000107842585 -0.0025012635 -0.06958605 -0.0118997125
0.011145486 0.007373022 0.055178873 -4.7287523e-07 -0.047311973 -0.002156818 -0.03189707 0.008539467
0.01837724 0.036144458 -0.024519723 0.07722276 4.4790713e-18 -0.003840193 0.0051147537 0.053997535
-0.07311549 0.044479 -0.04796988 0.046115093 0.0061558974 0.026212242 -0.0031090882 0.008575564
0.121409856 0.058524277 -0.045599967 0.037239917 -0.0038704104 -0.061750017 0.00955157 -0.034965664
-0.046709698 -0.050523244 0.016082598 -0.006770124 0.09771646 0.003454368 -0.018865898 0.010409402
0.0684269 -0.024791215 2.5195026e-23 -0.047520306 0.013238735 -0.018793885 0.08170393 0.06677959
-0.044060327 -0.07169429 0.07240042 0.09464168 -0.04722772 -0.050847284 0.05244308 0.017956521
0.00072180334 -0.018642997 0.066961996 -0.018897422 -0.032407355 0.031609084 -0.07685753 -0.014264461
0.013626559 -0.024597747 -0.0571608 0.02302537 -0.07013893 -0.040261418 -0.028233286 0.0071685156
0.03174436 -0.027006002 -9.588598e-09 -0.054820817 -0.063830905 -0.044658862 0.0055878493 0.019863764
-0.043720584 -0.024488822 -0.073182665 -0.030987883 0.08727837 0.0002386947 -0.037139416 0.025138829
-0.093103014 -0.026344568 -0.09781998 0.0104616275 0.061098773 -0.024964413 0.059211448 -0.06260269
-7.158e-42 -1.103e-41 -5.975e-42 -6.778e-42 -1.3262e-41 -3.73e-42 -3.688e-42 -1.3263e-41
-5.981e-42 -9.808e-42 -8.255e-42 -5.147e-42 -2.905e-42 -4.215e-42 -1.2589e-41 -6.617e-42
-6.512e-42 -2.466e-42 -1.2847e-41 -6.31e-42 -4.442e-42 -4.948e-42 -1.3318e-41 -6.257e-42
-3.184e-42 -1.1454e-41 -2.925e-42 -2.534e-42 -9.892e-42 1.3808e-41 -4.016e-42 -9.8e-42
-1.4e-44 -6.58e-42 -7.06e-42 -7.327e-42 1.285e-41 -3.956e-42 -5.747e-42 -9.179e-42
-9.597e-42 -5.207e-42 -5.27e-42 -4.076e-42 -4.715e-42 -1.7e-43 -2.878e-42 -7.74e-42
-5.01e-42 -4.602e-42 -3.14e-42 -8.492e-42 -3.772e-42 -5.982e-42 -7.777e-42 -1.1238e-41
-9.58e-42 -7.89e-42 -1.2913e-41 -1.3043e-41 -6.317e-42 -1.2833e-41 -1.0176e-41 -4.557e-42
-1.0626e-41 -7.218e-42 -3.348e-42 -1.0029e-41 -2.626e-42 -7.88e-42 1.132e-41 -9.108e-42
-1.097e-41 -5.049e-42 -1.275e-41 -7.8e-42 -4.926e-42 -1.1465e-41 -1.1362e-41 -1.333e-41
-1.312e-41 -8.95e-42 -5.081e-42 -1.0389e-41 7.3e-42 -1.1493e-41 -1.1433e-41 -1.077e-41
-1.3036e-41 -6.218e-42 -1.1669e-41 -1.2252e-41 -1.3677e-41 -6.855e-42 -8.635e-42 -4.554e-42
-5.291e-42 -4.364e-42 -8.091e-42 -3.823e-42 -1.3527e-41 -2.302e-42 -7.173e-42 -1.0403e-41
-1.1422e-41 -6.062e-42 -1.2725e-41 -3.93e-42 -9.065e-42 -1.0525e-41 -9.506e-42 -1.3275e-41
-8.241e-42 -1.3517e-41 -1.3502e-41 -6.662e-42 -7.347e-42 -3.063e-42 -2.485e-42 -9.306e-42
-9.606e-42 -8.185e-42 -2.775e-42 -5.256e-42 -5.46e-42 -2.64e-42 -1.3415e-41 1.152e-41
00000000: 1acf 4a3d 8e26 503b 45a7 66bd a7b7 203d
00000010: e109 04bd 0ff2 02bd 532a a13d 0766 58bd
00000020: 0267 06bc 27e1 ffbb 591c 81bc 8d83 803d
00000030: 75f8 1bbd 470c 73bd 5c62 37bd 2254 d43c
00000040: fb81 863d 5a53 9f37 8bd7 d1bc 384d e9bc
00000050: a0b6 643c 57d6 53bd c80f 823a b748 e93c
00000060: 3446 35bd 16cf 94bb 37fd 0b3c 9d7d bdbc
00000070: 8c29 e238 3dec 23bb 2283 8ebd 03f7 42bc
00000080: 8e9b 363c 6499 f13b 3e03 623d 7adf fdb4
00000090: 33ca 41bd 6759 0dbb 81a6 02bd 1fe9 0b3c
000000a0: de8b 963c 360c 143d 96dd c8bc f726 9e3d
000000b0: a23f a522 bfab 7bbb aa99 a73b 852c 5d3d
000000c0: 93bd 95bd 9d2f 363d 117c 44bd 2ee3 3c3d
000000d0: 69b7 c93b 0ebb d63c d8c1 4bbb 8680 0c3c
000000e0: bba5 f83d 27b7 6f3d 08c7 3abd e288 183d
000000f0: b6a6 7dbb 96ed 7cbd 307e 1c3c 2838 0fbd
00000100: ab52 3fbd 76f1 4ebd a7bf 833c ebd7 ddbb
00000110: 911f c83d ae62 623b a88c 9abc 328c 2a3c
00000120: 6723 8c3d f216 cbbc ddab f319 a7a4 42bd
00000130: 47e7 583c a2f5 99bc 6454 a73d bdc3 883d
00000140: 9a78 34bd 75d4 92bd ac46 943d 7fd3 c13d
00000150: db71 41bd 3e45 50bd 8ece 563d 8e19 933c
00000160: 6737 3d3a 33b9 98bc 5f23 893d c4ce 9abc
00000170: 93bd 04bd 8778 013d 7b67 9dbd 7cb5 69bc
00000180: ee41 5f3c 3781 c9bc 7121 6abd b39f bc3c
00000190: 00a5 8fbd 28e9 24bd 7e49 e7bc dee5 ea3b
000001a0: 6006 023d b13b ddbc 1abb 24b2 cb8b 60bd
000001b0: c7b9 82bd 36ec 36bd 471a b73b 55b9 a23c
000001c0: 5b14 33bd c89c c8bc cbe0 95bd 4dda fdbc
000001d0: 01bf b23d 1f4a 7a39 801f 18bd f2ef cd3c
000001e0: cbac bebd 90d0 d7bc d755 c8bd 3f67 2b3c
000001f0: b542 7a3d 2b82 ccbc b487 723d d735 80bd
00000200: f413 0080 bf1e 0080 a810 0080 e512 0080
00000210: f824 0080 660a 0080 480a 0080 f924 0080
00000220: ac10 0080 571b 0080 0317 0080 590e 0080
00000230: 1908 0080 c00b 0080 1823 0080 7212 0080
00000240: 2712 0080 e006 0080 d023 0080 9711 0080
00000250: 620c 0080 cb0d 0080 2025 0080 7111 0080
00000260: e008 0080 ee1f 0080 2708 0080 1007 0080
00000270: 931b 0080 7e26 0000 320b 0080 521b 0080
00000280: 0a00 0080 5812 0080 ae13 0080 6d14 0080
00000290: d223 0000 070b 0080 0510 0080 9619 0080
000002a0: c11a 0080 840e 0080 b10e 0080 5d0b 0080
000002b0: 250d 0080 7900 0080 0608 0080 9315 0080
000002c0: f70d 0080 d40c 0080 c108 0080 ac17 0080
000002d0: 840a 0080 ad10 0080 ae15 0080 541f 0080
000002e0: b51a 0080 fe15 0080 ff23 0080 5c24 0080
000002f0: 9c11 0080 c623 0080 5e1c 0080 b40c 0080
00000300: 9f1d 0080 1f14 0080 5509 0080 f51b 0080
00000310: 5207 0080 f715 0080 8e1f 0000 6419 0080
00000320: 941e 0080 130e 0080 8b23 0080 be15 0080
00000330: bb0d 0080 f61f 0080 ac1f 0080 2925 0080
00000340: 9324 0080 f318 0080 2a0e 0080 f61c 0080
00000350: 5914 0000 0a20 0080 df1f 0080 061e 0080
00000360: 5724 0080 5511 0080 8720 0080 2722 0080
00000370: 2026 0080 1c13 0080 1218 0080 b20c 0080
00000380: c00e 0080 2a0c 0080 8e16 0080 a80a 0080
00000390: b525 0080 6b06 0080 ff13 0080 001d 0080
000003a0: d71f 0080 e610 0080 7923 0080 f50a 0080
000003b0: 4519 0080 571d 0080 801a 0080 0125 0080
000003c0: f916 0080 ae25 0080 a325 0080 9212 0080
000003d0: 7b14 0080 8a08 0080 ed06 0080 f119 0080
000003e0: c71a 0080 d116 0080 bc07 0080 a70e 0080
000003f0: 380f 0080 5c07 0080 6525 0080 1d20 0000

linear2.bias f4 [64]
0.055659197 -1.0136e-41 -8.586e-42 -3.286e-42 -9.342e-42 -1.3502e-41 -1.1542e-41 0.016964741
-4.14e-42 -1.1594e-41 -1.3764e-41 -1.0381e-41 -9.913e-42 -1.327e-41 -8.638e-42 -1.133e-41
-1.0875e-41 -1.1719e-41 -7.976e-42 -9.648e-42 -1.3015e-41 -3.938e-42 -9.656e-42 -4.738e-42
-4.694e-42 -6.806e-42 -8.168e-42 -8.531e-42 -6.693e-42 0.14803182 -1.1784e-41 -1.3385e-41
-8.111e-42 -1.369e-41 -3.656e-42 -6.146e-42 -1.2715e-41 -6.031e-42 -1.2502e-41 0.04317044
0.21081485 -7.402e-42 -4.177e-42 -1.0577e-41 -7.177e-42 -1.1624e-41 -7.01e-42 -6.42e-42
-2.937e-42 -1.1315e-41 -3.54e-42 -8.149e-42 -8.1e-42 -2.772e-42 0.12918201 -8.223e-42
-2.674e-42 -6.806e-42 -3.11e-42 0.5110591 0.021678401 -1.0999e-41 -0.0020232585 0.031439036
00000000: e6fa 633d 411c 0080 ef17 0080 2909 0080
00000010: 0b1a 0080 a325 0080 2d20 0080 a4f9 8a3c
00000020: 8a0b 0080 5220 0080 5e26 0080 f01c 0080
00000030: a21b 0080 fe24 0080 1418 0080 951f 0080
00000040: 511e 0080 ab20 0080 3c16 0080 e51a 0080
00000050: 4824 0080 fa0a 0080 eb1a 0080 350d 0080
00000060: 160d 0080 f912 0080 c516 0080 c817 0080
00000070: a812 0080 a795 173e d920 0080 5025 0080
00000080: 9c16 0080 2a26 0080 310a 0080 2211 0080
00000090: 7223 0080 d010 0080 da22 0080 7dd3 303d
000000a0: d9df 573e a214 0080 a50b 0080 7c1d 0080
000000b0: 0214 0080 6720 0080 8b13 0080 e511 0080
000000c0: 3008 0080 8b1f 0080 de09 0080 b716 0080
000000d0: 9416 0080 ba07 0080 4a48 043e ec16 0080
000000e0: 7407 0080 f912 0080 ab08 0080 c5d4 023f
000000f0: e796 b13c a91e 0080 a598 04bb 38c6 003d

linear3.weight f4 [32, 64]
0.006028306 2.116e-42 -9.652e-42 -5.357e-42 -6.159e-42 -1.2065e-41 -1.3954e-41 -0.013454578
1.152e-41 -3.373e-42 4.685e-42 1.1285e-41 1.3796e-41 -1.1074e-41 1.1488e-41 -7.724e-42
-6.449e-42 9.711e-42 -9.819e-42 -2.472e-42 -1.0377e-41 6.059e-42 -1.0367e-41 -1.3736e-41
1.403e-42 -9.345e-42 2.861e-42 8.957e-42 1.539e-42 -0.12632191 -1.1521e-41 6.21e-43
-4.561e-42 -2.769e-42 1.1514e-41 -8.961e-42 -4.72e-43 5.828e-42 2.182e-42 0.010998147
-0.022984957 1.0419e-41 -2.494e-42 -3.451e-42 -1.1262e-41 -8.975e-42 7.78e-43 -1.0227e-41
5.13e-42 -1.2832e-41 -1.2834e-41 -2.215e-42 -1.2123e-41 -1.3071e-41 -2.6491196e-05 1.3773e-41
-3.572e-42 -9.228e-42 -5.182e-42 -0.032822438 0.16236511 4.418e-42 0.024243709 0.0013714186
-9.918001e-10 5.72e-43 -1.2323e-41 -9.583e-42 6.188e-42 -9.63e-42 4.903e-42 -0.010488192
-7.76e-42 8.263e-42 1.0919e-41 -1.348e-41 4.452e-42 8.838e-42 -2.1e-42 5.06e-42
4.452e-42 8.489e-42 -3.82e-42 -5.41e-42 1.1954e-41 5.713e-42 -7.051e-42 -9.216e-42
-1.3248e-41 3.516e-42 1.0962e-41 1.0307e-41 9.802e-42 -0.0009872072 3.349e-42 7.718e-42
-3.069e-42 3.355e-42 -7.215e-42 -8.434e-42 -8.427e-42 7.877e-42 -1.1564e-41 0.003907036
-0.00033537037 1.2074e-41 1.208e-41 -4.127e-42 -1.0133e-41 -9.722e-42 1.2324e-41 -1.3573e-41
5.186e-42 7.98e-42 5.026e-42 1.2976e-41 5.167e-42 -9.207e-42 -3.4e-44 1.2459e-41
1.3956e-41 9.38e-42 1.1381e-41 -0.00010759875 -5.636e-42 -9.532e-42 -7.206664e-08 -3.6422853e-06
-8.966e-42 1.2051e-41 -3.318e-42 -9.53e-42 1.0927e-41 1.2355e-41 1.3064e-41 -4.22e-42
-4.393e-42 -9.372e-42 -4.997e-42 -1.1432e-41 1.3063e-41 -3.838e-42 2.54e-43 -1.0651e-41
-1.0804e-41 1.0497e-41 1.1032e-41 1.2166e-41 1.3282e-41 4.68e-42 -1.1922e-41 1.1442e-41
2.04e-42 1.2599e-41 4.05e-42 3.826e-42 6.761e-42 -7.772e-42 -2.117e-42 2.885e-42
-1.1868e-41 8.357e-42 -9.784e-42 -9.352e-42 8.746e-42 -1.3706e-41 3.393e-42 -5.284e-42
-1.2673e-41 -8.709e-42 1.3223e-41 4.742e-42 -6.459e-42 -1.3797e-41 1.3033e-41 -9.428e-42
-1.0612e-41 -8.79e-43 -6.558e-42 -4.456e-42 -5.832e-42 6.065e-42 -1.1784e-41 3.725e-42
9.603e-42 -1.0843e-41 1.025e-41 -9.434e-42 -6.056e-42 -1.0232e-41 -8.006e-42 -9.068e-42
-0.004575522 -6.155e-42 -9.424e-42 -7.035e-42 -5.102e-42 1.1866e-41 -9.148e-42 -1.1910424
-4.721e-42 -3.317e-42 -1.159e-41 -3.823e-42 1.2039e-41 -1.466e-42 -7.88e-42 -9.017e-42
3.388e-42 -5.535e-42 2.697e-42 2.697e-42 -1.1544e-41 -1.0637e-41 -7.657e-42 -1.1691e-41
3.96e-42 -5.287e-42 1.0622e-41 -3.324e-42 -7.315e-42 -0.06646969 -1.1433e-41 -1.1827e-41
-6.08e-42 -2.838e-42 1.3171e-41 3.222e-42 -9.726e-42 9.658e-42 -1.0847e-41 0.008324203
-0.047803625 3.813e-42 6.163e-42 2.563e-42 6.452e-42 8.251e-42 -4.46e-43 -2.33e-42
1.0513e-41 -5.318e-42 1.125e-42 -1.314e-41 2.475e-42 1.044e-42 0.062929705 -3.105e-42
-1.3008e-41 -1.1758e-41 -7.358e-42 0.99875075 -0.008196804 5.106e-42 -8.206391e-26 -0.013656976
00000000: 1989 c53b e605 0000 e81a 0080 ef0e 0080
00000010: 2b11 0080 a221 0080 e626 0080 9770 5cbc
00000020: 1d20 0000 6709 0080 0f0d 0000 751f 0000
00000030: 7526 0000 df1e 0080 0620 0000 8815 0080
00000040: fa11 0080 121b 0000 5f1b 0080 e406 0080
00000050: ed1c 0080 e410 0000 e61c 0080 4a26 0080
00000060: e903 0000 0d1a 0080 fa07 0000 f818 0000
00000070: 4a04 0000 885a 01be 1e20 0080 bb01 0000
00000080: b70c 0080 b807 0080 1920 0000 fb18 0080
00000090: 5101 0080 3f10 0000 1506 0000 9231 343c
000000a0: f34a bcbc 0b1d 0000 f406 0080 9f09 0080
000000b0: 651f 0080 0519 0080 2b02 0000 821c 0080
000000c0: 4d0e 0000 c523 0080 c723 0080 2d06 0080
000000d0: cb21 0080 7024 0080 6939 deb7 6526 0000
000000e0: f509 0080 b919 0080 720e 0080 d270 06bd
000000f0: 0a43 263e 510c 0000 be9a c63c 2cc1 b33a
00000100: dd4f 88b0 9801 0000 5a22 0080 b71a 0080
00000110: 4011 0000 d81a 0080 ab0d 0000 aad6 2bbc
00000120: a215 0080 0917 0000 701e 0000 9425 0080
00000130: 690c 0000 a318 0000 db05 0080 1b0e 0000
00000140: 690c 0000 aa17 0000 a60a 0080 150f 0080
00000150: 5321 0000 ed0f 0000 a813 0080 b119 0080
00000160: ee24 0080 cd09 0000 8f1e 0000 bb1c 0000
00000170: 531b 0000 2d65 81ba 5609 0000 8415 0000
00000180: 8e08 0080 5a09 0000 1d14 0080 8317 0080
00000190: 7e17 0080 f515 0000 3c20 0080 9806 803b
000001a0: a6d4 afb9 a821 0000 ad21 0000 810b 0080
000001b0: 3f1c 0080 1a1b 0080 5b22 0000 d625 0080
000001c0: 750e 0000 3f16 0000 030e 0000 2c24 0000
000001d0: 670e 0000 aa19 0080 1800 0080 bb22 0000
000001e0: e726 0000 261a 0000 ba1f 0000 a4a6 e1b8
000001f0: b60f 0080 921a 0080 0ec3 9ab3 fc6d 74b6
00000200: fe18 0080 9821 0000 4009 0080 911a 0080
00000210: 761e 0000 7122 0000 6b24 0000 c30b 0080
00000220: 3f0c 0080 201a 0080 ee0d 0080 de1f 0080
00000230: 6a24 0000 b30a 0080 b500 0000 b11d 0080
00000240: 1e1e 0080 431d 0000 c11e 0000 ea21 0000
00000250: 0625 0000 0c0d 0000 3c21 0080 e51f 0000
00000260: b005 0000 1f23 0000 4a0b 0000 aa0a 0000
00000270: d912 0000 aa15 0080 e705 0080 0b08 0000
00000280: 1521 0080 4c17 0000 461b 0080 121a 0080
00000290: 6118 0000 3526 0080 7509 0000 bb0e 0080
000002a0: 5423 0080 4718 0080 dc24 0000 380d 0000
000002b0: 0112 0080 7626 0080 5524 0000 481a 0080
000002c0: 951d 0080 7302 0080 4812 0080 6c0c 0080
000002d0: 4210 0080 e810 0000 d920 0080 620a 0000
000002e0: c51a 0000 3a1e 0080 931c 0000 4c1a 0080
000002f0: e210 0080 861c 0080 5116 0080 4719 0080
00000300: 43ee 95bb 2811 0080 451a 0080 9c13 0080
00000310: 390e 0080 1421 0000 8019 0080 1474 98bf
00000320: 290d 0080 3f09 0080 4f20 0080 a80a 0080
00000330: 8f21 0000 1604 0080 f715 0080 2319 0080
00000340: 7209 0000 6e0f 0080 8507 0000 8507 0000
00000350: 2e20 0080 a71d 0080 5815 0080 9720 0080
00000360: 0a0b 0000 bd0e 0080 9c1d 0000 4409 0080
00000370: 6414 0080 4321 88bd df1f 0080 f820 0080
00000380: f310 0080 e907 0080 b724 0000 fb08 0000
00000390: 1d1b 0080 ec1a 0000 3d1e 0080 3d62 083c
000003a0: bccd 43bd a10a 0000 2e11 0000 2507 0000
000003b0: fc11 0000 0017 0000 3e01 0080 7f06 0080
000003c0: 4e1d 0000 d30e 0080 2303 0000 a124 0080
000003d0: e606 0000 e902 0000 4ae1 803d a808 0080
000003e0: 4324 0080 c720 0080 8314 0080 21ae 7f3f
000003f0: e34b 06bc 3c0e 0000 2f2e cb95 82c1 5fbc

linear3.bias f4 [32]
-0.04806651 9.5674455e-05 -4.294e-42 -0.07918488 -1.3867e-41 0.050885685 0.9351583 -3.423e-42
-4.315e-42 -1.059e-41 0.095933944 -0.009313475 -1.3635e-41 0.08841299 5.537e-42 -2.0996417e-14
0.16785377 -1.112e-41 0.11409726 -0.079361096 1.1196717 -2.838e-42 -0.00022142888 -0.014352587
-1.0115e-41 -1.0236e-41 -5.566e-42 -8.96e-42 -6.768e-42 -1.282e-41 -0.059079215 -8.496e-42
00000000: 64e1 44bd d5a4 c838 f80b 0080 af2b a2bd
00000010: a826 0080 826d 503d 8966 6f3f 8b09 0080
00000020: 070c 0080 851d 0080 0479 c43d 8c97 18bc
00000030: 0226 0080 df11 b53d 6f0f 0000 711e bda8
00000040: dce1 2b3e ff1e 0080 d3ab e93d 1288 a2bd
00000050: 6751 8f3f e907 0080 5d2f 68b9 1d27 6bbc
00000060: 321c 0080 891c 0080 840f 0080 fa18 0080
00000070: de12 0080 bd23 0080 0cfd 71bd af17 0080

linear4.weight f4 [64, 96]
-0.0024368777 5.017e-42 1.1477e-41 -5.0905897e-09 -1.0543e-41 -2.631143e-13 -6.962e-42 -3.988e-42
-8.056e-42 -5.304e-42 1.1444383e-18 7.53e-42 -8.758e-42 -6.649391e-11 3.073e-42 -6.22e-42
-0.00012952444 8.16e-42 3.446316e-18 -4.70769e-13 -1.4522569e-31 1.3001e-41 -3.442e-42 -2.786e-42
8.455e-42 -2.448e-42 -8.433e-42 2.344e-42 -6.243e-42 -7.473e-42 2.4102447e-17 8.923e-42
1.1261e-41 -1.2002e-41 -7.379e-42 -1.0783e-41 5.16e-42 -4.871e-42 3.412104e-10 -3.596e-42
1.1877e-41 -8.451e-42 -9.689e-42 0.0013251893 -8.327e-42 -3.719651e-15 -7.498e-42 -6.478e-42
-4.3570587e-38 1.0657e-41 -1.1938e-41 5.4e-43 -4.3277664e-06 1.3719e-41 0.0016607642 -1.1686601e-24
8.674e-42 1.1732e-41 3.108e-42 -7.616e-42 1.1252e-41 1.1569e-41 3.276e-42 7.316e-42
-6.874913e-11 -7.77e-42 -7.731e-42 1.2424e-41 2.675e-42 3.4857656e-16 -1.9549727e-05 9.125e-42
1.3017e-41 -1.1093e-41 6.0377346e-07 -5.175e-42 -1.0997e-41 -0.00017187968 -1.066e-42 -5.677e-42
-1.32e-43 3.174e-42 1.9889585e-06 6.325166e-20 -0.0015937497 -1.3451e-41 0.0015123952 -5.6280774e-10
-4.092e-42 4.993e-42 -1.428e-42 5.41e-43 6.861e-42 -5.503e-42 2.9386906e-06 -1.1457e-41
-1.3133e-41 -3.139e-42 -1.2872e-41 -5.644e-42 2.927e-42 -5.445e-42 -9.439e-42 -6.07e-42
5.42e-43 3.332e-42 -5.929e-42 -1.048e-42 -3.739e-42 3.115e-42 1.338e-42 1.371e-41
-4.04e-42 -1.2829e-41 -1.0992e-41 -1.3716e-41 -1.2764e-41 1.897e-42 -1.2305e-41 -4.473e-42
-1.3047e-41 -8.366e-42 -1.3553e-41 -1.2832e-41 8.926e-42 3.478e-42 -1.126e-41 -1.2529e-41
-1.2403e-41 -7.976e-42 2.136e-42 -8.193e-42 4.057e-42 -1.0113e-41 -9.84e-42 1.1747e-41
-1.3315e-41 1.138e-41 -4.268e-42 -9.829e-42 -5.078e-42 1.3597e-41 1.157e-42 -3.685e-42
-1.2511e-41 -1.2008e-41 -1.2071e-41 -3.007e-42 -1.0012e-41 -8.136e-42 -8.804e-42 -1.2959e-41
-1.1702e-41 8.942e-42 -2.538e-42 -8.357e-42 -3.44e-42 -3.465e-42 -5.4e-42 -4.994e-42
-7.298e-42 4.484e-42 -6.544e-42 -4.49e-42 8.807e-42 -1.1747e-41 -1.027e-41 6.05e-42
-1.2732e-41 -4.515e-42 6.167e-42 -1.281e-41 -9.272e-42 -9.991e-42 -4.549e-42 -8.158e-42
-8.39e-42 4.093e-42 8.265e-42 1.0127e-41 -1.2843e-41 -1.0201e-41 -8.084e-42 -7.005e-42
-8.523e-42 -4.205e-42 -3.126e-42 -9.826e-42 3.856e-42 -7.19e-42 1.024e-41 -6.718e-42
0.00029384004 -7.105808e-12 -1.1384e-41 -0.068294965 6.506e-42 -0.049893387 -0.18356504 1.3765e-41
6.147e-42 2.52e-42 -0.04060181 6.532633e-06 -5.814e-42 0.5084883 -4.801e-42 8.446e-42
-0.089019 -1.3409e-41 -0.041493207 -0.05044289 -0.24627866 1.393e-42 -1.2428e-41 0.059096023
1.25e-41 1.854e-42 -5.7e-42 7.823e-42 -9.988e-42 7.483e-42 -0.045712795 -6.299e-42
-0.0009656089 -8.376953e-08 -7.217e-42 -0.029753972 -5.745e-42 -0.029131755 0.16498387 -8.555e-42
3.782e-42 1.1447e-41 -0.026261073 0.0016816701 -1.3176e-41 0.014005519 -5.96e-43 -2.7079e-41
-0.012593404 3.4e-42 -0.025198953 -0.031217456 0.17950185 1.2547e-41 -8.642e-42 0.0067035323
6.695e-42 6.627e-42 -1.0344e-41 5.046e-42 5.283e-42 8.202e-42 -0.031678 -1.1062e-41
00000000: 06b4 1fbb fc0d 0000 fe1f 0000 4de9 aeb1
00000010: 641d 0080 c41e 94aa 6813 0080 1e0b 0080
00000020: 7516 0080 c90e 0080 a8e3 a821 fe14 0000
00000030: 6a18 0080 be38 92ae 9108 0000 5711 0080
00000040: f4d0 07b9 bf16 0000 124b 7e22 7b82 04ab
00000050: 8383 3c8c 3e24 0000 9809 0080 c407 0080
00000060: 9217 0000 d306 0080 8217 0080 8906 0000
00000070: 6711 0080 d514 0080 4b4e de23 e018 0000
00000080: 641f 0000 7521 0080 9214 0080 0f1e 0080
00000090: 620e 0000 940d 0080 1895 bb2f 060a 0080
000000a0: 1c21 0000 8f17 0080 021b 0080 f9b1 ad3a
000000b0: 3617 0080 ba03 86a7 e714 0080 0f12 0080
000000c0: 8938 6d81 b51d 0000 4721 0080 8101 0000
000000d0: 3b37 91b6 3e26 0000 00ae d93a 65d7 b497
000000e0: 2e18 0000 b420 0000 aa08 0000 3b15 0080
000000f0: 5e1f 0000 4020 0000 2209 0000 6514 0000
00000100: 522e 97ae a915 0080 8d15 0080 a222 0000
00000110: 7507 0000 d2f0 c825 b8fe a3b7 7019 0000
00000120: 4924 0000 ec1e 0080 ff12 2235 6d0e 0080
00000130: a81e 0080 9a3a 34b9 f902 0080 d30f 0080
00000140: 5e00 0080 d908 0000 0c7a 0536 4859 951f
00000150: 5ee5 d0ba 7f25 0080 903b c63a 13b4 1ab0
00000160: 680b 0080 eb0d 0000 fb03 0080 8201 0000
00000170: 2013 0000 570f 0080 5236 4536 f01f 0080
00000180: 9c24 0080 c008 0080 e223 0080 bc0f 0080
00000190: 2908 0000 2e0f 0080 501a 0080 ec10 0080
000001a0: 8301 0000 4a09 0000 8710 0080 ec02 0080
000001b0: 6c0a 0080 af08 0000 bb03 0000 3826 0000
000001c0: 430b 0080 c323 0080 a41e 0080 3c26 0080
000001d0: 9523 0080 4a05 0000 4d22 0080 780c 0080
000001e0: 5f24 0080 5217 0080 c825 0080 c523 0080
000001f0: e218 0000 b209 0000 631f 0080 ed22 0080
00000200: 9322 0080 3c16 0080 f405 0000 d716 0080
00000210: 4f0b 0000 311c 0080 6e1b 0080 bf20 0000
00000220: 1e25 0080 b91f 0000 e60b 0080 661b 0080
00000230: 280e 0080 e725 0000 3a03 0000 460a 0080
00000240: e022 0080 7921 0080 a621 0080 6208 0080
00000250: e91b 0080 ae16 0080 8b18 0080 2024 0080
00000260: 9f20 0080 ed18 0000 1307 0080 4c17 0080
00000270: 9709 0080 a909 0080 0e0f 0080 ec0d 0080
00000280: 5814 0080 800c 0000 3e12 0080 840c 0080
00000290: 8d18 0000 bf20 0080 a11c 0080 dd10 0000
000002a0: 7e23 0080 960c 0080 3111 0000 b623 0080
000002b0: d919 0080 da1b 0080 ae0c 0080 be16 0080
000002c0: 6317 0080 690b 0000 0a17 0000 3b1c 0000
000002d0: cd23 0080 701c 0080 8916 0080 8713 0080
000002e0: c217 0080 b90b 0080 b708 0080 641b 0080
000002f0: c00a 0000 0b14 0080 8c1c 0000 ba12 0080
00000300: 8b0e 9a39 6e03 faac bc1f 0080 3bde 8bbd
00000310: 2312 0000 025d 4cbd 79f8 3bbe 5f26 0000
00000320: 2311 0000 0607 0000 154e 26bd e432 db36
00000330: 3510 0080 4a2c 023f 620d 0080 8b17 0000
00000340: 984f b6bd 6125 0080 c8f4 29bd 349d 4ebd
00000350: 7930 7cbe e203 0000 a522 0080 ac0e 723d
00000360: d822 0000 2b05 0000 e40f 0080 cf15 0000
00000370: d81b 0080 dc14 0000 573d 3bbd 8f11 0080
00000380: eb20 7dba c9e4 b3b3 1e14 0080 9abe f3bc
00000390: 0410 0080 b8a5 eebc 88f1 283e d917 0080
000003a0: 8b0a 0000 e91f 0000 7621 d7bc 7c6b dc3a
000003b0: bb24 0080 6877 653c a901 0080 7c4b 0080
000003c0: 9154 4ebc 7a09 0000 096e cebc c0bb ffbc
000003d0: 55cf 373e fa22 0000 1718 0080 4ea9 db3b
000003e0: aa12 0000 7912 0000 d61c 0080 110e 0000
000003f0: ba0e 0000 dd16 0000 cac0 01bd d61e 0080

linear4.bias f4 [64]
-1.4857735e-06 -6.425e-42 0.15938969 -1.0913e-41 0.16024247 -0.011951035 0.38376975 -0.04722238
0.1206384 0.333089 -0.16045459 0.08257774 -1.3318e-41 -0.018832043 1.4799738e-05 -0.03830781
0.02631253 -0.0171784 0.09013235 -0.06014244 -5.73876e-08 0.0060612606 0.021417364 0.36610013
0.083262175 -0.023125548 -3.2190812e-07 -0.018440314 -0.13574818 -0.052258983 -0.00049722666 -0.031060046
-6.7158105e-08 -0.022515344 -4.919824e-05 -0.116365254 -1.4416437e-12 -0.0032523223 0.09045688 0.012975231
0.12000512 0.22008698 -0.033290774 0.079235435 0.021004321 -2.3965665e-11 0.10394514 0.20451188
-0.021655848 -3.990888e-11 0.06498389 -0.07582968 0.23321971 -0.034755055 -9.74057e-09 -0.18230252
0.08558649 0.20108132 0.122056395 -0.022966066 -0.02671729 -0.025858922 0.08264511 0.0010536675
00000000: ca6a c7b5 e911 0080 0d37 233e 6c1e 0080
00000010: 9a16 243e 46ce 43bc 787d c43e 416c 41bd
00000020: 4411 f73d a48a aa3e 354e 24be 851e a93d
00000030: 2025 0080 a845 9abc 644c 7837 a6e8 1cbd
00000040: 608d d73c b7b9 8cbc 4f97 b83d eb57 76bd
00000050: 557a 76b3 8a9d c63b 7873 af3c 7a71 bb3e
00000060: 5c85 aa3d ca71 bdbc b7d2 acb4 2410 97bc
00000070: 9201 0bbe 840d 56bd 5158 02ba a371 febc
00000080: 8f38 90b3 1972 b8bc 355a 4eb8 e850 eebd
00000090: b0e4 caab ea24 55bb 7541 b93d 1096 543c
000000a0: 3fc5 f53d 7b5e 613e e85b 08bd 3046 a23d
000000b0: 4111 ac3c e1cd d2ad 31e1 d43d 906b 513e
000000c0: 9b67 b1bc 6785 2fae 4616 853d 974c 9bbd
000000d0: 26d1 6e3e 515b 0ebd 7b57 27b2 83ad 3abe
000000e0: f847 af3d 43e8 4d3e b4f8 f93d 5523 bcbc
000000f0: 38de dabc 17d6 d3bc d741 a93d 371b 8a3a

linear5.weight f4 [16, 64]
-1.0138438e-06 6.066e-42 0.020201024 1.3731e-41 0.23719311 -0.0070867506 0.20719902 0.008296031
0.080615364 0.16808195 -0.22529753 0.028261045 4.596e-42 0.03708119 2.099221e-06 -0.0127198845
0.15380162 0.0333318 -0.07034675 0.012912134 6.6118457e-09 0.049197137 0.0057412023 -0.1136516
-0.0059499834 0.03669286 -1.1609842e-08 0.026562689 -0.27393287 -0.042377744 0.010808181 0.07864554
-7.447097e-25 0.00070505025 -1.7048166e-07 -0.01824469 -1.8494545e-10 0.02157385 0.082286395 0.17528565
-0.06627242 0.0704451 0.0146271875 0.18197162 -0.062176075 -5.810688e-12 0.12031979 -0.0842681
-0.048409164 7.716322e-09 -0.011780093 -0.25222954 0.1361132 0.10247839 6.581848e-17 -0.30289263
-0.062130664 -0.0060103643 0.07624624 -0.115935944 0.012470222 0.13297649 -0.04664869 0.0009349365
-2.3828237e-05 7.274e-42 0.030328972 8.245e-42 0.422132 -0.0079630185 0.34376 0.020424092
0.17210698 0.28638217 -0.3156983 0.06681115 1.0287e-41 0.0633827 -2.3726743e-06 -0.0084860595
0.24839196 0.038091943 -0.084417515 0.018888589 1.8017389e-06 0.09132878 -0.0035072977 -0.18767902
-0.01424184 0.0409491 4.3992915e-07 0.03765395 -0.3784616 -0.010689305 0.022600072 0.1080753
-2.1497982e-15 0.003010229 -3.594299e-07 -0.06357223 -4.7872395e-09 0.022575976 0.18656002 0.25401098
-0.07189685 0.14660524 0.017590325 0.31835768 -0.09411993 -9.437708e-09 0.2412807 -0.13094494
-0.04685487 1.5326264e-06 -0.029282294 -0.36744633 0.15598053 0.11335392 -1.7817366e-09 -0.41336682
-0.06139951 -0.03512872 0.064024664 -0.1703101 0.0143804895 0.20606297 -0.041075442 0.0013565444
-7.7252005e-19 -1.2435e-41 0.010769721 1.0187e-41 0.4230416 -0.022182273 0.035944298 -0.052174773
0.03637409 0.04086743 -0.03429599 -0.0008756415 6.425e-42 0.087960936 -4.7454557e-07 -0.01267283
0.22849762 0.0340543 -0.102460176 0.06532927 1.955277e-06 0.044468712 -0.009024873 -0.23101251
-0.019644491 0.02822929 8.155025e-07 0.023625864 -0.054315537 0.019474126 0.018836528 0.1427938
-2.1020829e-13 0.0023906538 -1.698152e-06 0.037321616 5.586283e-10 0.006052484 0.027166251 0.44101477
-0.10333563 0.0057837684 0.010357976 0.12440416 -0.04157335 -1.4044204e-08 0.08049619 -0.14657295
-0.05369088 3.7010304e-33 -0.031564314 -0.051547766 0.05647948 0.30454507 3.4818692e-14 -0.064028114
-0.07624935 -0.06641714 0.1469556 -0.02945027 0.0034537066 0.30940583 -0.057684638 0.0005353238
-8.867716e-20 7.006e-42 -0.14898497 1.2784e-41 -0.46251863 0.01862418 -0.10178783 0.084002405
0.44991392 -0.08604066 -0.048151653 -0.057471626 -7.964e-42 -0.026403215 3.0786206e-05 0.040665265
0.0009717858 0.046415277 0.7539562 -0.04111669 -0.0013214193 0.2512999 0.17311606 0.45788878
-0.12649925 0.08636394 -0.0010337777 -0.0022470155 -0.049163863 -0.05509303 0.0018002929 -0.043433227
-0.00013712858 -0.010071899 3.2697264e-06 -0.043989126 -2.783533e-06 0.1437143 0.071498126 -0.15306103
0.81366783 0.018625231 -0.007743243 0.0016303384 0.35486546 -5.2979444e-06 0.05496904 0.30088776
0.056513835 -4.714e-42 -0.048587333 -0.047528386 0.04058856 -0.09934076 -4.8603713e-05 -0.049460433
0.7550798 -0.14540455 0.19628645 -0.053348634 -0.0013466629 -0.097186044 0.68918663 0.001492739
00000000: 6813 88b5 e910 0000 9e7c a53c 4726 0000
00000010: c0e2 723e f937 e8bb fb2b 543e 13ec 073c
00000020: ab19 a53d ad1d 2c3e 65b4 66be b583 e73c
00000030: d00c 0000 72e2 173d 58e0 0c36 1067 50bc
00000040: 2c7e 1d3e ed86 083d f511 90bd 6a8d 533c
00000050: 692e e331 f082 493d b220 bc3b 2cc2 e8bd
00000060: 14f8 c2bb 414b 163d a074 47b2 ff99 d93c
00000070: ee40 8cbe 4994 2dbd cc14 313c ea10 a13d
00000080: fb79 6697 1fd3 383a a40d 37b4 e375 95bc
00000090: 8459 4baf a5bb b03c c585 a83d 157e 333e
000000a0: d6b9 87bd 8545 903d dfa6 6f3c c556 3a3e
000000b0: 57ac 7ebd 0672 ccac 396a f63d c194 acbd
000000c0: b048 46bd be90 0432 4b01 41bc 3b24 81be
000000d0: 4261 0b3e 31e0 d13d 5fc4 9724 be14 9bbe
000000e0: b97c 7ebd 97f2 c4bb fd26 9c3d d36f edbd
000000f0: e74f 4c3c fd2a 083e b212 3fbd 8716 753a
00000100: c0e2 c7b7 4714 0000 7774 f83c fc16 0000
00000110: af21 d83e 5277 02bc 5001 b03e 6d50 a73c
00000120: d03c 303e afa0 923e 35a3 a1be 49d4 883d
00000130: ad1c 0000 cace 813d 3c3a 1fb6 1d09 0bbc
00000140: 765a 7e3e 4c06 1c3d 17e3 acbd 3ebc 9a3c
00000150: 47d3 f135 950a bb3d b1da 65bb ee2e 40be
00000160: 9b56 69bc 3eba 273d 672f ec34 073b 1a3d
00000170: b8c5 c1be 3222 2fbc c923 b93c 9556 dd3d
00000180: c7e8 1aa7 4347 453b abf7 c0b4 2832 82bd
00000190: 017d a4b1 41f1 b83c 9709 3f3e ba0d 823e
000001a0: a83e 93bd af1f 163e 9619 903c c7ff a23e
000001b0: f3c1 c0bd 7b23 22b2 4a12 773e 6e16 06be
000001c0: e4ea 3fbd a4b4 cd35 6ce1 efbc ed21 bcbe
000001d0: 5cb9 1f3e 1a26 e83d 49e1 f4b0 d1a4 d3be
000001e0: 0d7e 7bbd 22e3 0fbd 5d1f 833d c565 2ebe
000001f0: 259c 6b3c 2c02 533e b93e 28bd 14ce b13a
00000200: f701 64a1 aa22 0080 7c73 303c 661c 0000
00000210: e998 d83e 99b7 b5bc 543a 133d 37b5 55bd
00000220: fffc 143d 9b64 273d f479 0cbd 4e8b 65ba
00000230: e911 0000 dd24 b43d 0cc5 feb4 b4a1 4fbc
00000240: 48fb 693e 867c 0b3d a4d6 d1bd 5acb 853d
00000250: 6737 0336 d324 363d 10dd 13bc 8b8e 6cbe
00000260: 7ced a0bc 1d41 e73c e8e8 5a35 078b c13c
00000270: f879 5ebd 3488 9f3c 104f 9a3c 8a38 123e
00000280: 6aac 6caa 84ac 1c3b 0fec e3b5 8dde 183d
00000290: f98d 1930 ea53 c63b c28b de3c b0cc e13e
000002a0: a1a1 d3bd c485 bd3b 80b4 293c 9cc7 fe3d
000002b0: d148 2abd 1047 71b2 30db a43d 3817 16be
000002c0: f8ea 5bbd 1bbc 9909 9549 01bd c023 53bd
000002d0: 0757 673d 55ed 9b3e 38cf 1c29 2c21 83bd
000002e0: 9f28 9cbd b605 88bd 877b 163e b141 f1bc
000002f0: 9557 623b 716a 9e3e ba46 6cbd f954 0c3a
00000300: 0e62 d19f 8813 0000 848f 18be a323 0000
00000310: 3ecf ecbe bd91 983c 2376 d0bd 7409 ac3d
00000320: 1e5b e63e 1636 b0bd ab3a 45bd 5e67 6bbd
00000330: 3316 0080 8e4b d8bc 7020 0138 9f90 263d
00000340: 71bf 7e3a f21d 3e3d 4603 413f f969 28bd
00000350: 7933 adba 61aa 803e 5645 313e 6670 ea3e
00000360: 0589 01be 94df b03d d37f 87ba aa42 13bb
00000370: 0c60 49bd 3ba9 61bd cef7 eb3a 0ae7 31bd
00000380: 2cca 0fb9 9b04 25bc 796d 5b36 f12d 34bd
00000390: bccc 3ab6 d729 133e 9c6d 923d 08bc 1cbe
000003a0: 894c 503f f193 983c 08bb fdbb 14b1 d53a
000003b0: edb0 b53e ffc4 b1b6 3727 613d f60d 9a3e
000003c0: 0d7b 673d 240d 0080 8303 47bd 20ad 42bd
000003d0: 3140 263d 2b73 cbbd d7db 4bb8 0697 4abd
000003e0: e94c 413f eee4 14be 51ff 483e 1984 5abd
000003f0: 8282 b0ba 7a09 c7bd 896e 303f 02a8 c33a

linear5.bias f4 [16]
0.1337641 0.19510211 0.025620436 0.08148867 0.06618069 -0.20295317 0.12239489 0.2504387
0.036540374 -8.552e-42 -1.0133e-41 0.22096603 -6.715e-42 -3.886e-42 -9.477e-42 -9.37e-42
00000000: 75f9 083e d9c8 473e f3e1 d13c 88e3 a63d
00000010: be89 873d f5d2 4fbe 2caa fa3d 8039 803e
00000020: 5cab 153d d717 0080 3f1c 0080 eb44 623e
00000030: b812 0080 d50a 0080 6b1a 0080 1f1a 0080

linear6.weight f4 [4, 16]
0.4178141 0.7328844 0.406609 -0.5469772 0.27394736 -0.55562913 0.3559288 -0.59651005
-0.03184548 1.0822e-41 -1.2054e-41 -0.45105463 -4.781e-42 -4.24e-42 -1.3733e-41 1.3908e-41
-0.15585902 -0.16806418 -0.43908426 1.2362715 -0.16780885 -0.092516564 -0.22216146 -0.34022686
-0.051534947 4.829e-42 7.794e-42 -0.19948325 1.1292e-41 -2.842e-42 -1.308e-41 7.38e-42
-0.009856536 -0.07226347 -0.5559262 -0.49645582 -0.15661022 -0.074847944 -0.31953636 0.92081386
0.17034881 5.657e-42 8.199e-42 0.7866449 4.104e-42 1.0976e-41 3.363e-42 -4.977e-42
-0.35762703 -0.5248078 0.23550427 -0.36926505 -0.082201995 1.1511836 -0.19945724 -0.3045466
-0.01664403 -1.234e-41 -1.0063e-41 -0.28458205 8.954e-42 -1.098e-41 -1.2511e-41 1.1966e-41
00000000: bbeb d53e 509e 3b3f 0e2f d03e b306 0cbf
00000010: d442 8c3e b63d 0ebf 4d3c b63e e2b4 18bf
00000020: 6870 02bd 2b1e 0000 9a21 0080 a2f0 e6be
00000030: 540d 0080 d20b 0080 4826 0080 c526 0000
00000040: 8299 1fbe 0419 2cbe a7cf e0be 253e 9e3f
00000050: 15d6 2bbe 5379 bdbd 4b7e 63be 3732 aebe
00000060: 4f16 53bd 760d 0000 ba15 0000 5645 4cbe
00000070: 7a1f 0000 ec07 0080 7624 0080 9314 0000
00000080: 4f7d 21bc dffe 93bd 2e51 0ebf 752f febe
00000090: 6e5e 20be e149 99bd 459a a3be 75ba 6b3f
000000a0: eb6f 2e3e c50f 0000 db16 0000 8f61 493f
000000b0: 710b 0000 991e 0000 6009 0000 e00d 0080
000000c0: e41a b7be ce59 06bf 0828 713e 4f10 bdbe
000000d0: 8559 a8bd fc59 933f 853e 4cbe 88ed 9bbe
000000e0: 1059 88bc 6622 0080 0d1c 0080 bdb4 91be
000000f0: f618 0000 9c1e 0080 e022 0080 5b21 0000

linear6.bias f4 [4]
0.85625714 -0.07732513 0.061827093 -0.3743976
00000000: ab33 5b3f a35c 9ebd 683e 7d3d 0bb1 bfbe
