checkpoints/dnn_9.pt (torch, 257573 bytes, 12 tensors)

linear1.weight f4 [128, 358]
1.1070895e-05 -0.00012119904 0.0013704298 0.00025829097 -0.0009629022 -0.0009530363 0.005373553 -0.0029207112
0.0072952188 -0.0012517624 -0.0010664159 -0.00083103805 8.078831e-05 6.394185e-05 -0.0005664441 -0.00092057453
-0.0005377679 -0.0006720117 -0.00076514855 -0.00082153257 0.00093502976 -8.4444924e-05 -9.6954864e-05 -0.0001519146
-1.44148225e-05 -0.0018633081 -0.00014995488 0.00019404142 0.00022314518 -0.0014748689 0.00086996204 0.0011958847
-0.000475706 -0.00028073095 7.4547934e-05 0.00031882894 0.007156946 -0.0010309393 0.0010016008 0.0003898706
-0.00015889568 0.00039548415 0.00012631579 -0.00064995344 -0.00078965066 9.143061e-05 6.612273e-05 -2.047022e-05
-2.6614807e-05 0.00025667323 -0.0008097929 -1.578246e-05 -0.0007343269 0.008161792 -0.0005582505 -0.0006506789
-0.00036679264 -0.00012585177 -0.0008448006 -0.0016080869 0.00020917768 0.00029222673 0.00023310375 8.43135e-05
-0.0002124694 -0.00029305814 -0.000275627 0.00040859406 0.00036827457 -0.00014688208 -0.00016041772 -4.741958e-05
0.00026141029 0.00025311258 8.127081e-05 8.267749e-05 0.00012491818 4.534237e-05 -0.00018494496 -9.5596515e-05
-5.8731795e-05 -0.0003021289 0.00015992779 0.00013569373 0.000121671685 0.00012358277 0.00014159817 -5.1551788e-06
1.3366369e-05 0.00014021942 -1.9389079e-06 -9.850623e-05 -0.00011744394 -6.0967697e-05 -0.00042088283 0.0097004045
0.0020367543 -0.00036861878 -0.00037729365 -7.1078415e-05 -0.00011821991 -0.0055514006 5.6672416e-06 0.015703069
0.0013705273 0.0005538469 0.0032789626 -0.004124374 0.0013348216 -0.0014681771 -2.431428e-05 -0.0021772624
1.9393048e-05 -0.00025287108 -0.00030217713 0.002730385 -0.00034613823 -0.0020117604 0.0058780126 -0.0019545618
-0.0012939973 -0.00041572968 -0.001441937 -0.0006100042 6.658757e-05 0.0074569387 0.008305152 -0.0016897336
-0.0009548427 -0.00019260152 -0.00096993864 -0.00014340828 -0.00020206303 -4.8155603e-06 -0.00043688613 -0.00028175578
-7.0766706e-05 0.00015652023 0.00012732646 -0.00014354021 -0.0029137267 -0.0007121271 -0.00019912442 -0.00027259617
-0.00010317114 -0.00049687317 0.0006735892 -0.0018048832 -0.001241391 0.00013357692 -0.00227995 -2.6955919e-05
7.5532065e-05 -0.0002837619 0.0022130485 0.0010341097 0.0013413223 0.0006052588 -0.0028299484 0.0003714967
-0.00049181 0.0004841949 -0.0029296915 -0.00023728696 -3.835125e-06 -5.4634012e-05 -0.00031341807 -0.00062203855
-9.571035e-05 8.039928e-05 -0.00024985438 0.00012330645 -7.98374e-06 -0.0004310673 0.00013750218 6.960828e-06
-0.0006890046 0.00075129396 -0.000989939 7.104047e-05 -0.000106425214 1.9023177e-05 0.0007192286 0.0001377786
-0.0021840672 0.0019292862 4.5793024e-07 -9.150456e-07 -1.2878237e-06 0.0007277478 -0.004479973 1.3710725e-07
-7.876263e-06 -3.0599938e-06 -1.8463785e-09 -0.0039268625 1.4560199e-07 8.11634e-08 1.2209639e-06 0.0016124664
-4.1246673e-07 -0.001493862 -3.6492239e-07 -5.421445e-07 2.446511e-06 4.3423147e-06 -5.953239e-07 -8.398936e-07
-3.5430237e-06 1.1304508e-08 1.3960029e-06 -3.1500101e-06 5.1655724e-07 -8.694451e-07 0.008334478 0.0045741526
1.0114906e-06 -3.099273e-07 -4.0557157e-07 5.5354036e-07 3.7643045e-07 -0.0062503424 6.3376196e-05 -2.3611237e-06
7.823776e-07 -0.0066224006 6.963467e-07 -1.4616165e-06 -0.008009659 0.00058214605 -0.011198857 -1.383199e-06
1.7956698e-06 0.0007258554 6.463261e-08 9.2199286e-07 -6.082869e-06 0.00075202115 -1.0319092e-06 -1.3284578e-06
0.0004060321 0.00041250797 0.00026810242 0.00016138097 9.556813e-05 0.00029080102 0.000304953 0.00013108486
0.0004686472 0.00043385618 0.00021037996 0.00027745013 0.00022694004 0.00030397967 0.00018449419 0.0003747698
00000000: 22bd 3937 3d2c feb8 fe9f b33a 3a6b 8739
00000010: 466b 7cba 2fd5 79ba a114 b03b 6769 3fbb
00000020: bb0c ef3b 2d12 a4ba fbc6 8bba 05da 59ba
00000030: e56c a938 8518 8638 6c7d 14ba b652 71ba
00000040: fef8 0cba f129 30ba 4094 48ba 1e5c 57ba
00000050: c91c 753a 0618 b1b8 3f54 cbb8 444b 1fb9
00000060: 31d7 71b7 3f3a f4ba 353d 1db9 9977 4b39
00000070: 14fc 6939 6350 c1ba 2a0e 643a 3bbf 9c3a
00000080: 2e68 f9b9 122f 93b9 9e56 9c38 7f28 a739
00000090: d184 ea3b 9520 87ba 2548 833a 8c67 cc39
000000a0: 3c9d 26b9 fc58 cf39 a373 0439 a361 2aba
000000b0: 8f00 4fba 6fbe bf38 5fab 8a38 76b7 abb7
000000c0: dd42 dfb7 1992 8639 4848 54ba 9364 84b7
000000d0: d87f 40ba 09b9 053c 8f57 12ba 5292 2aba
000000e0: 134e c0b9 14f7 03b9 9c75 5dba 71c6 d2ba
000000f0: b556 5b39 0236 9939 506d 7439 77d1 b038
00000100: 52ca 5eb9 99a5 99b9 0882 90b9 9138 d639
00000110: fa14 c139 5c04 1ab9 ce35 28b9 63e4 46b8
00000120: e50d 8939 32b4 8439 ef6f aa38 2463 ad38
00000130: 78fc 0239 002e 3e38 c9ed 41b9 fd7a c8b8
00000140: c956 76b8 0e67 9eb9 4ab2 2739 0249 0e39
00000150: fd29 ff38 ff95 0139 f879 1439 a6fa acb6
00000160: 1e40 6037 dd07 1339 2f1e 02b6 2195 ceb8
00000170: 3c4c f6b8 91b7 7fb8 f0a9 dcb9 72ee 1e3c
00000180: 117b 053b 2d43 c1b9 7fcf c5b9 ef0f 95b8
00000190: d5ec f7b8 86e8 b5bb 3c29 be36 b9a3 803c
000001a0: 44a3 b33a 0930 113a dde3 563b c225 87bb
000001b0: 2ef5 ae3a d96f c0ba 85f6 cbb7 67b0 0ebb
000001c0: 41ae a237 c893 84b9 876d 9eb9 42f0 323b
000001d0: e379 b5b9 bdd7 03bb 589c c03b 1b18 00bb
000001e0: 589b a9ba 4bf6 d9b9 61ff bcba b0e8 1fba
000001f0: eea4 8b38 5659 f43b 5512 083c 0d7a ddba
00000200: 694e 7aba 14f5 49b9 7b43 7eba de5f 16b9
00000210: e2e0 53b9 5995 a1b6 dd0d e5b9 9fb8 93b9
00000220: 9668 94b8 941f 2439 f082 0539 4883 16b9
00000230: 39f4 3ebb 0aae 3aba 0ecc 50b9 3deb 8eb9
00000240: 965d d8b8 9840 02ba ce93 303a d591 ecba
00000250: 2bb6 a2ba c810 0c39 376b 15bb 651f e2b7
00000260: f866 9e38 e1c5 94b9 cb08 113b f78a 873a
00000270: 4fcf af3a 3baa 1e3a a876 39bb 71c5 c239
00000280: cfec 00ba 8adb fd39 1100 40bb 3cd0 78b9
00000290: 79af 80b6 d326 65b8 4352 a4b9 4d10 23ba
000002a0: 1ab8 c8b8 099c a838 e3fe 82b9 d34b 0139
000002b0: e7f1 05b7 e000 e2b9 762e 1039 0f91 e936
000002c0: 519e 34ba 7cf2 443a d7c0 81ba 90fb 9438
000002d0: 9a30 dfb8 f693 9f37 9d8a 3c3a a978 1039
000002e0: 9122 0fbb 1ae0 fc3a 74d9 f534 74a1 75b5
000002f0: 49d9 acb5 54c6 3e3a bdcc 92bb c137 1334
00000300: 4b24 04b7 4b5a 4db6 abc3 fdb0 e9ac 80bb
00000310: c556 1c34 0d4c ae33 00e0 a335 6559 d33a
00000320: ff70 ddb4 b1cd c3ba 8dea c3b4 e387 11b5
00000330: bd2e 2436 33b4 9136 59ce 1fb5 0c75 61b5
00000340: afc4 6db6 c135 4232 4b5e bb35 c364 53b6
00000350: 8ba9 0a35 d063 69b5 568d 083c c6e2 953b
00000360: 8dc2 8735 1564 a6b4 55bd d9b4 0197 1435
00000370: 3518 ca34 accf ccbb d6e8 8438 cc73 1eb6
00000380: 9404 5235 b900 d9bb 95ec 3a35 c32c c4b5
00000390: f23a 03bc 299b 183a 697b 37bc 5ba6 b9b5
000003a0: bf02 f135 5547 3e3a 27cc 8a33 de7e 7735
000003b0: 721b ccb6 4923 453a 2180 8ab5 764d b2b5
000003c0: b5e0 d439 e245 d839 1990 8c39 6038 2939
000003d0: c06b c838 a776 9839 19e2 9f39 d373 0939
000003e0: c3b4 f539 3177 e339 7199 5c39 ba76 9139
000003f0: c1f6 6d39 765f 9f39 c874 4139 c07c c439

linear1.bias f4 [128]
-0.00083463284 -0.011334126 0.03448101 0.0012193841 -0.008400774 0.0034691594 -0.00086093345 -0.005661573
-0.0038639964 0.01898074 0.012716543 0.055931043 0.000327709 0.14886157 -0.015338922 -0.015898284
-0.0038925272 0.0014413632 -0.004323209 -0.0059795915 -0.013444842 0.0009250021 -0.0051509533 -0.009151919
-0.0021429376 -0.0019027203 -0.0016354172 -0.0013625964 -0.01358986 -0.014600316 -0.047977187 0.0013379796
-0.012029093 -0.0006235472 0.023761788 -0.005818759 -0.0055890954 -0.010483461 0.0072508752 -0.008377718
-0.014090427 0.0059102364 -0.007504169 -0.0051504467 0.2416183 -0.010845453 -0.0001477582 -0.007840074
-0.0132369995 -0.0060764933 -0.011270781 0.010716314 0.19154014 0.05536127 0.0025780564 0.00901071
0.0030242899 -0.0018038471 -0.011339745 -0.00970674 0.012635734 -0.009700581 0.003175938 -0.0061466154
-0.005424605 0.003127292 -0.0117821265 0.19071771 -0.006388733 -0.014902355 -0.01074342 -0.0053542387
0.010245058 -0.008239545 0.00590804 -0.010353382 -0.009629343 0.014958916 -0.0053778347 -0.0032820625
-0.009143453 -0.004393156 0.036787782 -0.01069329 -0.012771244 -0.010374101 -0.007954104 0.012264048
0.006021844 -0.0035015855 -0.0014181439 -0.014345667 -0.001014031 0.0010076474 -0.01028809 -0.01383931
-0.009358683 -0.005323951 0.0018175372 -0.009846084 -0.014757393 -0.000582116 -0.016906057 0.0048913676
-0.0011528222 -2.6562102e-05 -0.00392502 -0.0043749167 -0.005623934 -0.010326889 0.0010508035 -0.011488036
0.24126782 -0.010504477 -0.011205566 0.0029787477 0.009547181 0.010443169 -0.0051277624 -0.019708265
0.044959657 0.10352962 0.18845215 0.039396506 0.0025326093 -0.007880101 0.0035253968 -0.0037805296
00000000: 43cb 5aba c5b2 39bc f63b 0d3d bed3 9f3a
00000010: 66a3 09bc d65a 633b 44b0 61ba b784 b9bb
00000020: 1a3b 7dbb 7f7d 9b3c 0c59 503c f317 653d
00000030: 5cd0 ab39 2b6f 183e 1a50 7bbc 1e3d 82bc
00000040: c519 7fbb 20ec bc3a b5a9 8dbb 73f0 c3bb
00000050: c147 5cbc d77b 723a 54c9 a8bb eef1 15bc
00000060: 8770 0cbb b364 f9ba 7f5b d6ba 2699 b2ba
00000070: 01a8 5ebc 2a36 6fbc ba83 44bd 255f af3a
00000080: ac15 45bc 8b75 23ba 15a8 c23c 4aab bebb
00000090: bb24 b7bb d3c2 2bbc c098 ed3b b242 09bc
000000a0: 89db 66bc a8aa c13b 88e5 f5bb 14c5 a8bb
000000b0: ca6a 773e 20b1 31bc 8aef 1ab9 a773 00bc
000000c0: 00e0 58bc 521d c7bb 15a9 38bc 7b93 2f3c
000000d0: 1923 443e 80c2 623d 9cf4 283b a8a1 133c
000000e0: 2a33 463b 116f ecba 56ca 39bc 0509 1fbc
000000f0: 1c06 4f3c 30ef 1ebc 6623 503b 8c69 c9bb
00000100: e3c0 b1bb 41f3 4c3b d209 41bc 814b 433e
00000110: 9458 d1bb 0229 74bc 2b05 30bc 9c72 afbb
00000120: e3da 273c 28ff 06bc 3b98 c13b 3ba1 29bc
00000130: 64c4 1dbc 3e16 753c 8c38 b0bb df17 57bb
00000140: 6cce 15bc 77f4 8fbb c9ae 163d e932 2fbc
00000150: 7b3e 51bc 22f8 29bc ee51 02bc 25ef 483c
00000160: e452 c53b db7a 65bb 03e1 b9ba 170a 6bbc
00000170: 3ce9 84ba 0913 843a 618f 28bc 46be 62bc
00000180: 2955 19bc 8a74 aebb 6e3a ee3a 7851 21bc
00000190: fec8 71bc 2599 18ba 927e 8abc c447 a03b
000001a0: 4b1a 97ba aed1 deb7 749d 80bb 765b 8fbb
000001b0: fa48 b8bb 1d32 29bc 1dbb 893a 5138 3cbc
000001c0: e90e 773e f81a 2cbc 8d97 37bc 1837 433b
000001d0: c86b 1c3c d319 2b3c ca06 a8bb 3a73 a1bc
000001e0: 9e27 383d 5607 d43d 9af9 403e 3b5e 213d
000001f0: 22fa 253b 8a1b 01bc 580a 673b c3c2 77bb

linear2.weight f4 [64, 128]
0.007884261 -0.00022306641 -0.13054046 0.0050984505 -0.002295509 0.008934344 0.0018954036 -0.003597936
0.0027998823 0.012486999 0.009476618 -0.24958818 0.007854102 0.1694023 -0.0027968339 0.012718146
-0.0021127497 -0.0005403479 0.0039090645 -0.082709484 -5.557216e-06 0.004006184 -0.002270756 -0.00062681874
0.0025017688 -0.002087866 0.0010705546 0.003552169 -0.006868296 0.0115452595 -0.0075271865 0.0047026877
-0.007090908 0.0067837797 -0.054232195 0.0011082068 -0.00051489554 -0.006313871 0.002758741 -0.0052146018
0.0020872094 -0.0062612533 0.008051737 -0.00021590778 0.07382234 -0.00036567953 -0.0020598904 -0.006038828
-0.0048336927 -0.0064399056 -3.8633952e-05 0.009413841 0.07552244 -0.22124693 0.0044009713 0.013501955
0.00032804365 0.0052293385 0.003201591 0.006741289 -0.036317855 -0.00039567132 0.006690507 -0.0025040645
0.0048372014 0.0013848903 0.011569338 0.2815543 0.002141738 0.011448897 0.00698763 0.00086917944
0.011284392 -0.0031751136 0.002937573 -0.003208722 -0.005455246 0.2620647 0.001316541 -0.0044432064
-0.00055060023 0.0070264875 -0.13303813 0.0017735921 0.0051397057 0.008883425 -0.002267437 0.013423015
0.011553583 -0.00043548958 -0.0041444073 9.831732e-05 0.003334812 -0.0027479238 0.010917555 -0.0032847533
-0.0052870996 0.001589309 0.007028642 0.0011503582 0.013855987 -0.003919657 0.0037256842 0.009364876
0.0012308926 -0.001916704 -0.0054361694 -0.005552264 -0.004356392 -0.0039296737 0.007146314 0.010556502
0.19697854 -0.0026668608 -0.006079252 -0.0040025455 0.009351004 0.029598227 0.0005231153 0.04936708
-0.18458691 0.18944609 0.16552593 -0.11968169 0.008212442 -0.0010037172 0.0021638523 0.0069887848
-0.003203092 -0.010154784 -0.098820984 -0.0063865585 -0.0031488342 0.0023330809 -0.0068449485 -0.01354038
0.00017815542 0.0074654995 0.0071290797 -0.09940517 -0.004585682 0.061313517 -0.007951327 -0.0007246755
-0.0012897315 -0.006894884 -0.010096372 -0.07938909 -0.004947176 -0.006423783 -0.0029946931 -0.005149383
-0.00855227 -0.01156651 0.00025058212 -0.008085828 -0.0039015785 -0.0014729035 -0.031150531 0.0014782209
-0.0020163406 0.0051607294 -0.026587328 0.0010734955 -0.0023925866 -0.006051989 0.0070130886 0.002061744
-0.0025772294 -0.0021308789 -0.005554697 0.0016071817 0.096230306 -0.0031708241 -0.0043428387 -0.005012125
-0.006500959 -0.0055256626 0.0013623625 0.011517939 0.06776282 -0.1463358 -0.003364341 0.0028655974
-0.0030087824 0.0020743802 -0.0027492328 -0.00477144 -0.023600332 -0.00041702183 -0.003781859 -0.00322156
-0.0062034563 -0.0072711147 -0.0012271323 0.16212389 0.0005286817 -0.004363867 -0.008740223 0.00026197344
0.0028337534 -0.003191809 0.003740746 -0.012467612 -0.014846775 0.11116438 0.0011294131 -0.0037271758
-0.0037305849 -0.010954049 -0.038790464 -0.006016424 -0.0040787216 -0.002832891 -0.0034692588 0.0022639632
3.639621e-05 -0.00038233952 -0.0037183387 -0.0009280225 -0.001415601 -0.0061804065 -0.0021515856 -0.005058831
-0.0051265173 -0.008504735 -0.0016373671 -0.011755163 0.0018005121 -0.005653572 0.001636801 -0.00896968
0.0006265467 -0.0049545206 -0.004115102 -0.004287508 -0.0034236093 -0.0037376091 -0.0044365986 -0.0017778259
0.17870165 -0.007478076 -0.014236585 -0.003480139 -0.004640364 0.009804017 0.0012814386 0.033760943
-0.06675435 0.044472024 0.12672725 -0.046064347 -0.00782515 -0.003698961 0.0073690354 0.00056508894
00000000: fd2c 013c efe6 69b9 66ac 05be e710 a73b
00000010: 4070 16bb 5b61 123c 316f f83a 59cb 6bbb
00000020: 3b7e 373b 4596 4c3c d143 1b3c 0b94 7fbe
00000030: 7eae 003c cc77 2d3e 164b 37bb c55f 503c
00000040: 0f76 0abb 22a6 0dba 9c17 803b 9763 a9bd
00000050: 1f78 bab6 4f46 833b f7d0 14bb 1851 24ba
00000060: b7f4 233b 94d4 08bb da51 8c3a 82cb 683b
00000070: 710f e1bb 5428 3d3c 9ea6 f6bb 0119 9a3b
00000080: d95a e8bb 784a de3b 9422 5ebd 4041 913a
00000090: 0efa 06ba 97e4 cebb fecb 343b 40df aabb
000000a0: 90c9 083b 332b cdbb 6feb 033c 4e65 62b9
000000b0: 2b30 973d adb8 bfb9 3aff 06bb 5ce1 c5bb
000000c0: f463 9ebb d805 d3bb e40a 22b8 833c 1a3c
000000d0: 82ab 9a3d 8e8e 62be 0636 903b 4e37 5d3c
000000e0: 46fd ab39 df5a ab3b c9d1 513b 08e6 dc3b
000000f0: 08c2 14bd 1b72 cfb9 0a3c db3b 3b1b 24bb
00000100: 6381 9e3b 3585 b53a 528d 3d3c e327 903e
00000110: 675c 0c3b 2894 3b3c 7df8 e43b a5d9 633a
00000120: 2ce2 383c 9115 50bb 4c84 403b 6c49 52bb
00000130: ecc1 b2bb 582d 863e c98f ac3a 5198 91bb
00000140: 2856 10ba 733e e63b 263b 08be e077 e83a
00000150: fa6a a83b c98b 113c 4899 14bb 35ec 5b3c
00000160: 3d4b 3d3c 6c52 e4b9 cfcd 87bb b62f ce38
00000170: dc8c 5a3b 8316 34bb 8bdf 323c 0445 57bb
00000180: 683f adbb 5c50 d03a 8650 e63b 9ec7 963a
00000190: 3904 633c 7770 80bb 9c2a 743b 236f 193c
000001a0: e755 a13a ea39 fbba e521 b2bb c4ef b5bb
000001b0: 11c0 8ebb 7ec4 80bb a02b ea3b 2ef5 2c3c
000001c0: beb4 493e 80c6 2ebb 7634 c7bb c927 83bb
000001d0: f434 193c fb77 f23c ac21 093a 2335 4a3d
000001e0: 5a04 3dbe 28fe 413e a17f 293e ad1b f5bd
000001f0: 7a8d 063c 298f 83ba 6bcf 0d3b 2d02 e53b
00000200: f7ea 51bb 4060 26bc a862 cabd 5646 d1bb
00000210: ac5c 4ebb 9ae6 183b 974b e0bb 78d8 5dbc
00000220: 3bcf 3a39 26a1 f43b 0e9b e93b f094 cbbd
00000230: 7d43 96bb e223 7b3d 4846 02bc 26f8 3dba
00000240: 350c a9ba 7bee e1bb 416b 25bc bf96 a2bd
00000250: ec1b a2bb 997e d2bb 9d42 44bb 28bc a8bb
00000260: d21e 0cbc 7681 3dbc 9060 8339 6c7a 04bc
00000270: a0b1 7fbb 710e c1ba 662f ffbc ddc0 c13a
00000280: 9524 04bb 561b a93b abcd d9bc 88b4 8c3a
00000290: f1cc 1cbb c34f c6bb 0dce e53b 531e 073b
000002a0: bce6 28bb 37a6 0bbb 2d04 b6bb 12a8 d23a
000002b0: 6514 c53d 9acd 4fbb 5f4e 8ebb c03c a4bb
000002c0: ff05 d5bb 9e10 b5bb 4d91 b23a bdb5 3c3c
000002d0: 3cc7 8a3d 0dd9 15be 477c 5cbb bfcc 3b3b
000002e0: fe2e 45bb 53f2 073b 792c 34bb bd59 9cbb
000002f0: 7c55 c1bc b9a3 dab9 11d9 77bb cf20 53bb
00000300: 5d46 cbbb 8842 eebb bad7 a0ba ce03 263e
00000310: 3a97 0a3a c5fe 8ebb 2733 0fbc 7b59 8939
00000320: 7eb6 393b ab2d 51bb 4e27 753b f444 4cbc
00000330: e33f 73bc 27aa e33d d108 943a a243 74bb
00000340: d47c 74bb 9d78 33bc c0e2 1ebd 6c25 c5bb
00000350: cca6 85bb 06a8 39bb 815c 63bb 005f 143b
00000360: 22a8 1838 be74 c8b9 5faf 73bb 8946 73ba
00000370: b08b b9ba 0285 cabb 9e01 0dbb 8dc4 a5bb
00000380: 58fc a7bb 7257 0bbc ec9c d6ba ba98 40bc
00000390: 29ff eb3a 9941 b9bb ee89 d63a 91f5 12bc
000003a0: d63e 243a 8859 a2bb fad7 86bb 397e 8cbb
000003b0: a25e 60bb adf2 74bb e360 91bb f005 e9ba
000003c0: 91fd 363e a60a f5bb 9140 69bc 0b13 64bb
000003d0: 320e 98bb 07a1 203c f2f5 a73a ea48 0a3d
000003e0: 81b6 88bd 4c28 363d cac4 013e f8ad 3cbd
000003f0: 0f35 00bc 456a 72bb f377 f13b 7a22 143a

linear2.bias f4 [64]
0.36784923 0.24407692 -4.149e-42 -1.3975e-41 -3.063e-42 0.41152593 -8.216e-42 -7.047e-42
-6.753e-42 -7.15e-42 -8.699e-42 -1.0661e-41 -6.155e-42 -1.296e-41 -5.531e-42 -5.752e-42
-1.1736e-41 0.24594484 -1.0016e-41 -6.38e-42 0.0016204297 0.21377996 -5.473e-42 -1.3545e-41
-1.2616e-41 -1.1541e-41 -7.03e-43 0.3495344 -9.271e-42 0.6231299 -6.81e-42 -1.2155e-41
-5.542e-42 -5.314e-42 -9.09181e-06 -8.7e-42 -9.403e-42 0.0007971662 -2.612e-42 -1.3321e-41
-3.837e-42 -1.2387e-41 -1.054e-42 -1.1191e-41 -1.3808e-41 0.04415479 -1.2514e-41 -5.259e-42
-3.391e-42 -7.955e-42 -4.95309e-06 -4.415e-42 -1.2549e-41 0.567896 -9.368e-42 -6.463e-42
-4.498e-42 -1.0666583e-09 -6.1e-42 -1.1393e-41 -1.1428e-41 -5.424e-42 -4.338e-42 -3.7e-42
00000000: bc56 bc3e 4def 793e 910b 0080 f526 0080
00000010: 8a08 0080 87b3 d23e e716 0080 a513 0080
00000020: d312 0080 ee13 0080 4018 0080 b81d 0080
00000030: 2811 0080 2124 0080 6b0f 0080 0910 0080
00000040: b720 0080 f7d8 7b3e ec1b 0080 c911 0080
00000050: 9964 d43a 22e9 5a3e 420f 0080 c225 0080
00000060: 2b23 0080 2c20 0080 f601 0080 2cf6 b23e
00000070: d819 0080 7185 1f3f fc12 0080 e221 0080
00000080: 730f 0080 d00e 0080 0789 18b7 4118 0080
00000090: 361a 0080 ebf8 503a 4807 0080 2225 0080
000000a0: b20a 0080 8822 0080 f002 0080 321f 0080
000000b0: 7e26 0080 a7db 343d e222 0080 a90e 0080
000000c0: 7409 0080 2d16 0080 b832 a6b6 4f0c 0080
000000d0: fb22 0080 a261 113f 1d1a 0080 0412 0080
000000e0: 8a0c 0080 b499 92b0 0111 0080 c21f 0080
000000f0: db1f 0080 1f0f 0080 180c 0080 500a 0080

linear3.weight f4 [32, 64]
-3.11e-42 -1.3487e-41 -1.1628e-41 -2.049e-42 -4.162e-42 -7.284e-42 -2.371e-42 -3.273e-42
1.099e-41 -1.16e-43 -8.2e-42 7.89e-43 1.0976e-41 -1.1848e-41 1.445e-42 -1.1732e-41
-2.903e-42 -9.676e-42 8.596e-42 1.1401e-41 -4.738e-42 -9.342e-42 -6.742e-42 -1.37e-41
1.1798e-41 -7.182e-42 -9.614e-42 -1.021e-41 -2.744e-42 -1.2462e-41 1.0493e-41 -8.443e-42
-4.285e-42 -9.766e-42 -1.188e-41 -6.135e-42 -3.073e-42 -1.0965e-41 -8.625e-42 4.54e-43
-6.964e-42 8.446e-42 2.001e-42 -9.09e-42 -1.0939e-41 -1.2909e-41 1.0377e-41 1.0259e-41
-7.867e-42 7.52e-43 -1.3203e-41 2.267e-42 -1.3764e-41 -1.3516e-41 -1.201e-41 2.208e-42
-9.551e-42 -1.1813e-41 -6.396e-42 -1.313e-41 1.203e-41 -5.448e-42 -8.964e-42 -8.837e-42
-6.7289125e-06 -5.306039e-06 7.594e-42 -1.1464e-41 -6.82e-43 -8.258518e-06 -9.016e-42 -1.1021e-41
-3.014e-42 -6.062e-42 1.2025e-41 -5.322e-42 9.34e-42 -2.685e-42 -3.42e-42 -3.844e-42
-5.848e-42 -5.8329483e-06 6.906e-42 1.3026e-41 -5.7572774e-06 -3.932042e-06 -1.1517e-41 7.929e-42
-5.273e-42 -6.14e-43 6.8e-43 3.8638063e-06 -1.3646e-41 -1.4347356e-05 8.04e-42 1.3134e-41
-9.813e-42 1.3881e-41 2.897136e-07 -7.603e-42 -1.2638e-41 -3.0539086e-06 -8.369e-42 -5.189e-42
1.2759e-41 -7.226e-42 1.3148e-41 1.3018e-41 -1.3454e-41 -1.1481822e-05 6.349e-42 -7.98e-42
-1.2631e-41 3.442e-42 -8.472e-42 -7.634e-42 5.499e-42 -1.1545263e-05 -1.1819e-41 -2.672e-42
-1.1397e-41 -1.3762e-41 -9.69e-42 1.2291e-41 -5.573e-42 -6.023e-42 -4.254e-42 -3.925e-42
-0.00491996 -1.0324612e-12 -1.0349e-41 -9.462e-42 -4.694e-42 -1.505124e-06 7.936e-42 -8.418e-42
-7.497e-42 -1.819e-42 -8.025e-42 6.352e-42 1.0377e-41 -3.372e-42 -3.8e-42 -1.3604e-41
1.1968e-41 0.0009902613 8.618e-42 6.833e-42 0.0038813238 -1.492056e-33 8.649e-42 5.63e-42
-6.987e-42 1.3811e-41 -4.308e-42 -0.0017624774 -2.906e-42 -2.0647808e-17 6.606e-42 -1.3158e-41
2.719e-42 -7.777e-42 -0.00041678202 4.776e-42 -8.556e-42 0.0076927966 -1.2956e-41 -3e-42
-8.96e-42 8.576e-42 3.293e-42 -7.084e-42 1.1568e-41 0.00056162995 -7.337e-42 1.0433e-41
1.1956e-41 9.693e-42 6.306e-42 -6.714e-42 4.445e-42 -0.0069127264 -6.349e-42 1.3635e-41
7.044e-42 1.1359e-41 -2.706e-42 -9.509e-42 -9.796e-42 8.845e-42 -1.015e-41 4.61e-42
0.027744517 0.024302589 1.1224e-41 7.119e-42 -2.298e-42 0.041461337 -6.547e-42 8.785e-42
-7.22e-42 3.1e-42 -1.1111e-41 9.501e-42 -8.527e-42 -7.326e-42 -9.087e-42 1.1289e-41
-1.2787e-41 0.019083358 -2.856e-42 5.663e-42 -0.02625417 0.022249496 -6.698e-42 5.881e-42
6.537e-42 -3.98e-42 -3.415e-42 -0.02164738 -4.551e-42 0.06548448 3.72e-42 1.0375e-41
4.623e-42 1.2459e-41 2.7468683e-08 -3.952e-42 -8.744e-42 0.018450223 -1.8e-44 -7.096e-42
2.92e-42 -1.0672e-41 -1.207e-41 6.611e-42 -2.326e-42 0.025726901 -6.67e-42 -1.0947e-41
-1.263e-42 -1.1327e-41 1.661594e-23 -9.88e-42 7.885e-42 0.058147896 -2.29e-42 7.07e-42
-1.2912e-41 6.4716204e-35 8.18e-42 -1.2266e-41 -6.69e-42 5.6e-43 -8.974e-42 -5.234e-42
00000000: ab08 0080 9925 0080 6a20 0080 b605 0080
00000010: 9a0b 0080 4e14 0080 9c06 0080 2009 0080
00000020: a31e 0000 5300 0080 dc16 0080 3302 0000
00000030: 991e 0000 0721 0080 0704 0000 b420 0080
00000040: 1808 0080 f91a 0080 f617 0000 c81f 0000
00000050: 350d 0080 0b1a 0080 cb12 0080 3126 0080
00000060: e320 0000 0514 0080 cd1a 0080 761c 0080
00000070: a607 0080 bd22 0080 401d 0000 8917 0080
00000080: f20b 0080 391b 0080 1e21 0080 1a11 0080
00000090: 9108 0080 911e 0080 0b18 0080 4401 0000
000000a0: 6a13 0080 8b17 0000 9405 0000 5719 0080
000000b0: 7e1e 0080 fc23 0080 ed1c 0000 991c 0000
000000c0: ee15 0080 1902 0000 ce24 0080 5206 0000
000000d0: 5e26 0080 ad25 0080 7b21 0080 2806 0000
000000e0: a01a 0080 ee20 0080 d411 0080 9a24 0080
000000f0: 8921 0000 300f 0080 fd18 0080 a218 0080
00000100: ebc8 e1b6 870a b2b6 2b15 0000 f51f 0080
00000110: e701 0080 118e 0ab7 2219 0080 b91e 0080
00000120: 6708 0080 e610 0080 8521 0000 d60e 0080
00000130: 091a 0000 7c07 0080 8909 0080 b70a 0080
00000140: 4d10 0080 a5b8 c3b6 4013 0000 5024 0000
00000150: a32e c1b6 fcef 83b6 1b20 0080 1a16 0000
00000160: b30e 0080 b601 0080 e501 0000 d8a5 8136
00000170: 0a26 0080 6db5 70b7 6a16 0000 9d24 0000
00000180: 5b1b 0080 b226 0000 ef89 9b34 3215 0080
00000190: 3b23 0080 c0f1 4cb6 5417 0080 770e 0080
000001a0: 9123 0000 2514 0080 a724 0000 4a24 0000
000001b0: 8125 0080 0da2 40b7 b311 0000 3f16 0080
000001c0: 3623 0080 9809 0000 9e17 0080 4815 0080
000001d0: 540f 0000 87b2 41b7 f220 0080 7307 0080
000001e0: c51f 0080 5d26 0080 031b 0080 4322 0000
000001f0: 890f 0080 ca10 0080 dc0b 0080 f10a 0080
00000200: 9e37 a1bb 564e 91ab d91c 0080 601a 0080
00000210: 160d 0080 ab03 cab5 1f16 0000 7717 0080
00000220: e614 0080 1205 0080 5f16 0080 b511 0000
00000230: ed1c 0000 6609 0080 980a 0080 ec25 0080
00000240: 5d21 0000 a8cb 813a 0618 0000 0c13 0000
00000250: cf5d 7e3b 0be9 f788 1c18 0000 b20f 0000
00000260: 7a13 0080 8026 0000 020c 0080 ee02 e7ba
00000270: 1a08 0080 4271 bea3 6a12 0000 ae24 0080
00000280: 9407 0000 ae15 0080 8983 dab9 500d 0000
00000290: da17 0080 db13 fc3b 1e24 0080 5d08 0080
000002a0: fa18 0080 e817 0000 2e09 0000 bf13 0080
000002b0: 3f20 0000 593a 133a 7414 0080 151d 0000
000002c0: 5421 0000 051b 0000 9411 0000 b712 0080
000002d0: 640c 0000 2784 e2bb b311 0080 0226 0000
000002e0: a313 0000 aa1f 0000 8b07 0080 821a 0080
000002f0: 4f1b 0080 a818 0000 4b1c 0080 da0c 0000
00000300: 7848 e33c 3916 c73c 4a1f 0000 d813 0000
00000310: 6806 0080 5dd3 293d 4012 0080 7d18 0000
00000320: 2014 0080 a408 0000 f91e 0080 7c1a 0000
00000330: c517 0080 6c14 0080 5519 0080 781f 0000
00000340: a523 0080 b454 9c3c f607 0080 c90f 0000
00000350: fc12 d7bc 9344 b63c ac12 0080 6510 0000
00000360: 3912 0000 180b 0080 8509 0080 d955 b1bc
00000370: b00c 0080 ba1c 863d 5f0a 0000 ec1c 0000
00000380: e30c 0000 bb22 0000 46f4 eb32 040b 0080
00000390: 6018 0080 ec24 973c 0d00 0080 c813 0080
000003a0: 2408 0000 c01d 0080 a521 0080 6e12 0000
000003b0: 7c06 0080 39c1 d23c 9812 0080 841e 0080
000003c0: 8503 0080 931f 0080 13b3 a019 8b1b 0080
000003d0: fb15 0000 7d2c 6e3d 6206 0080 b513 0000
000003e0: fe23 0080 910b ac06 cd16 0000 3122 0080
000003f0: a612 0080 9001 0000 0419 0080 970e 0080

linear3.bias f4 [32]
-1.0975e-41 -1.4028345e-05 -0.0064963186 0.053805407 0.6825859 0.0071399882 0.10745222 0.039862294
-9.302e-42 -0.004508235 -0.0069478005 0.014186516 0.013919577 -0.11512144 -0.018191472 -4.593e-42
-1.192e-41 -1.3637e-41 -3.33e-42 -0.04668802 -1.1499e-41 0.089126945 -3.46e-42 0.01394601
-5.89e-42 0.15457651 -7.123e-42 0.13542101 0.54654825 -9e-42 0.5549721 -3.882e-42
00000000: 981e 0080 485b 6bb7 12df d4bb 0f63 5c3d
00000010: f3bd 2e3f 90f6 e93b e90f dc3d a546 233d
00000020: ee19 0080 d1b9 93bb 60aa e3bb 906e 683c
00000030: f00e 643c cac4 ebbd 4806 95bc ce0c 0080
00000040: 3a21 0080 0426 0080 4809 0080 f03b 3fbd
00000050: 0e20 0080 3088 b63d a509 0080 ce7d 643c
00000060: 6b10 0080 4e49 1e3e db13 0080 ceab 0a3e
00000070: 96ea 0b3f 1719 0080 a712 0e3f d20a 0080

linear4.weight f4 [64, 96]
3.009e-42 5.25e-42 1.174e-41 -7.805e-42 -5.908e-42 6.362e-42 1.0528e-41 1.0329e-41
1.2937e-41 1.0825e-41 -3.928e-42 1.0213e-41 -5.37e-43 -8.387e-42 -9.393e-42 1.2479e-41
1.3587e-41 -3.614e-42 3.89e-42 9.677e-42 -6.433e-42 -3.2e-44 4.805e-42 1.5e-44
1.0962e-41 1.2593e-41 5.37e-43 1.3752e-41 -1.2923e-41 -5.68e-42 -8.737e-42 2.992e-42
7.662e-42 1.2916e-41 6.915e-42 -7.772e-42 -1.3118e-41 -4.062e-42 -3.43e-42 6.517e-42
8.87e-42 -1.2379e-41 -4.581e-42 1.3413e-41 1.3468e-41 -1.0646e-41 -6.233e-42 1.1112e-41
1.986e-42 4.15e-43 -2.48e-43 -1.1384e-41 -5.318e-42 -1.3548e-41 5.586e-42 9.621e-42
1.998e-42 -7.283e-42 -1.391e-42 -3.331e-42 -1.2556e-41 -6.845e-42 -5.64e-42 1.2177e-41
-1.3144e-41 1.1848e-41 9.593e-42 -1.0948e-41 -9.634e-42 -9.29e-42 1.2982e-41 4.95e-43
8.712e-42 -1.1732e-41 4.682e-42 8.657e-42 -5.384e-42 -6.06e-42 8.652e-42 9.764e-42
-3.845e-42 -1.11e-43 6.055e-42 1.255e-41 3.847e-42 -1.3668e-41 1.2882e-41 -1.383e-41
8.273e-42 -1.1722e-41 5.37e-43 -6.421e-42 -1.1781e-41 -5.473e-42 -1.1601e-41 -9.37e-42
-6.906e-42 -5.62e-43 3.177e-42 1.641e-42 -1.1939e-41 -5.588e-42 -5.033e-42 -1.026e-42
6.003e-42 4.218e-42 -6.934e-42 -8.633e-42 -1.074e-41 -4.554e-42 -5.315e-42 1.3531e-41
-9.439e-42 -9.644e-42 -1.138e-41 9.173e-42 -4.756e-42 -5.185e-42 -1.351e-41 -4.776e-42
-1.3792e-41 -1.381e-41 -7.818e-42 -1.052e-42 -8.15e-42 -8.195e-42 -6.205e-42 -2.689e-42
6.85e-43 3.806e-42 3.097e-42 -5.615e-42 -9.431e-42 -4.92e-42 -3.747e-42 -8.33e-42
-1.0193e-41 -5.876e-42 1.1016e-41 -1.2491e-41 -5.963e-42 -9.321e-42 -5.695e-42 -3.25e-43
-2.552e-42 2.616e-42 -1.17e-42 -1.278e-41 6.051e-42 -4.564e-42 -7.327e-42 -2.037e-42
-9.205e-42 -1.1732e-41 -2.528e-42 -4.748e-42 -6.279e-42 -8.3e-43 -1.0874e-41 -6.285e-42
-1.0804e-41 1.757e-42 -4.267e-42 -2.154e-42 -5.978e-42 -2.494e-42 -4.644e-42 -9.354e-42
5.602e-42 -1.2945e-41 7.9e-43 1.256e-41 -6.185e-42 -8.635e-42 -3.367e-42 4.706e-42
1.0046e-41 1.6e-42 3.226e-42 -9.694e-42 1.0671e-41 -6.276e-42 -1.2718e-41 -4.354e-42
-8.025e-42 -4.253e-42 -3.95e-42 -1.0997e-41 -1.2256e-41 9.635e-42 -4.924e-42 -9.655e-42
-1.211e-42 -8.206e-42 0.00019360852 -6.9632482e-15 1.0390617e-05 0.00019892634 -4.1492515e-36 -8.436474e-19
0.00019801056 -1.0756e-41 3.63e-43 6.5378836e-10 -5.96e-42 -7.3092195e-09 -5.6240834e-09 -1.2613e-41
1.352e-41 -1.3052e-41 -1.722e-42 1.3291e-41 -8.28e-43 -5.995e-42 -1.777e-42 -1.0941e-41
-3.847e-42 -3.171769e-39 1.2554e-41 -1.663102e-39 -1.7083921e-06 -7.952e-42 -8.575603e-06 -5.155e-42
1.3038e-41 0.00027381256 -4.491e-42 -2.22752e-12 -0.00011178997 7.943e-42 -3.4885295e-05 -3.6518952e-16
0.00019800793 -1.1258e-41 -1.1404e-41 -4.039e-42 -1.3647e-41 -0.00011562298 -1.8457169e-05 8.975e-42
-8.502e-42 2.371e-42 -3.645e-42 -3.2357894e-10 4.85e-42 -2.609084e-07 -1.3206e-41 -4.292e-42
-8.741e-42 -9.979073e-06 3.819e-42 -1.5063141e-05 4.969726e-05 -4.287e-42 1.732684e-05 -1.1845e-41
00000000: 6308 0000 a30e 0000 ba20 0000 c215 0080
00000010: 7810 0080 bc11 0000 591d 0000 cb1c 0000
00000020: 1024 0000 2d1e 0000 f30a 0080 781c 0000
00000030: 7f01 0080 6117 0080 2f1a 0080 c922 0000
00000040: e025 0000 130a 0080 d80a 0000 fa1a 0000
00000050: ef11 0080 1700 0080 650d 0000 0b00 0000
00000060: 8f1e 0000 1b23 0000 7f01 0000 5626 0000
00000070: 0624 0080 d50f 0080 5b18 0080 5708 0000
00000080: 5c15 0000 0124 0000 4713 0000 aa15 0080
00000090: 9124 0080 530b 0080 9009 0080 2b12 0000
000000a0: ba18 0000 8222 0080 c50c 0080 6425 0000
000000b0: 8b25 0000 ad1d 0080 6011 0080 fa1e 0000
000000c0: 8905 0000 2801 0000 b100 0080 bc1f 0080
000000d0: d30e 0080 c425 0080 920f 0000 d21a 0000
000000e0: 9205 0000 4d14 0080 e103 0080 4909 0080
000000f0: 0023 0080 1513 0080 b90f 0080 f221 0000
00000100: a424 0080 0721 0000 be1a 0000 851e 0080
00000110: db1a 0080 e619 0080 3024 0000 6101 0000
00000120: 4918 0000 b420 0080 0d0d 0000 2218 0000
00000130: 020f 0080 e510 0080 1e18 0000 381b 0000
00000140: b80a 0080 4f00 0080 e110 0000 fc22 0000
00000150: b90a 0000 1a26 0080 e923 0000 8d26 0080
00000160: 1017 0000 ad20 0080 7f01 0000 e611 0080
00000170: d720 0080 420f 0080 5720 0080 1f1a 0080
00000180: 4013 0080 9101 0080 db08 0000 9304 0000
00000190: 4821 0080 940f 0080 080e 0080 dc02 0080
000001a0: bc10 0000 c20b 0000 5413 0080 1118 0080
000001b0: f01d 0080 b20c 0080 d10e 0080 b825 0000
000001c0: 501a 0080 e21a 0080 b91f 0080 9219 0000
000001d0: 420d 0080 740e 0080 a925 0080 500d 0080
000001e0: 7226 0080 7f26 0080 cb15 0080 ef02 0080
000001f0: b816 0080 d816 0080 4c11 0080 7f07 0080
00000200: e901 0000 9c0a 0000 a208 0000 a70f 0080
00000210: 4a1a 0080 b70d 0080 720a 0080 3817 0080
00000220: 6a1c 0080 6110 0080 b51e 0000 d222 0080
00000230: 9f10 0080 fc19 0080 e00f 0080 e800 0080
00000240: 1d07 0080 4b07 0000 4303 0080 a023 0080
00000250: de10 0000 b90c 0080 6d14 0080 ae05 0080
00000260: a919 0080 b420 0080 0c07 0080 3c0d 0080
00000270: 8111 0080 5002 0080 501e 0080 8511 0080
00000280: 1e1e 0080 e604 0000 e50b 0080 0106 0080
00000290: aa10 0080 f406 0080 f20c 0080 131a 0080
000002a0: 9e0f 0000 1624 0080 3402 0000 0323 0000
000002b0: 3e11 0080 1218 0080 6309 0080 1e0d 0000
000002c0: 011c 0000 7604 0000 fe08 0000 061b 0080
000002d0: bf1d 0000 7f11 0080 7423 0080 230c 0080
000002e0: 5f16 0080 db0b 0080 030b 0080 a81e 0080
000002f0: 2a22 0080 dc1a 0000 ba0d 0080 ea1a 0080
00000300: 6003 0080 e016 0080 6403 4b39 a1e0 faa7
00000310: 5c53 2e37 e296 5039 597d b084 3200 79a1
00000320: 0ea1 4f39 fc1d 0080 0301 0000 44b6 3330
00000330: 9d10 0080 9324 fbb1 f63d c1b1 2923 0080
00000340: b025 0000 6224 0080 cd04 0080 0d25 0000
00000350: 4f02 0080 b610 0080 f404 0080 801e 0080
00000360: b90a 0080 9a89 2280 ff22 0000 0d1c 1280
00000370: e84b e5b5 2b16 0080 efdf 0fb7 5f0e 0080
00000380: 5824 0000 808e 8f39 850c 0080 6fbf 1cac
00000390: c870 eab8 2416 0000 cd51 12b8 7684 d2a5
000003a0: 59a0 4f39 621f 0080 ca1f 0080 420b 0080
000003b0: 0b26 0080 9d7a f2b8 78d4 9ab7 0519 0000
000003c0: b317 0080 9c06 0000 290a 0080 b0e3 b1af
000003d0: 850d 0000 fa12 8cb4 d024 0080 f70b 0080
000003e0: 5e18 0080 cb6b 27b7 a50a 0000 b3b7 7cb7
000003f0: 0772 5038 f30b 0080 1b59 9137 0521 0080

linear4.bias f4 [64]
-6.908e-42 -1.1645e-41 -2.1850383e-06 -9.533e-42 -0.012742331 0.049975738 -0.0041555003 -0.00048750863
0.040455434 0.02963229 0.17285435 0.23539886 -6.34e-42 -1.3183e-41 -0.0069519775 0.0073671243
-0.50748014 0.32762614 -7.556e-42 0.021582663 -0.5377447 0.0095539475 0.19048156 0.011913788
0.2540897 0.02087699 0.0047784075 0.1596568 -7.718953e-06 -4.308e-42 0.015126999 -0.001136331
-9.278e-42 -9.449e-42 -1.0434e-41 -1.3062e-41 -8.521e-42 -0.13882387 0.0176925 -1.3338e-41
0.010946045 -5.178e-42 -1.3658e-41 0.01559037 0.52775776 -5.789e-42 -0.001706004 -0.00023732065
-0.01798466 -0.0020433997 0.029122485 -1.1105e-41 0.20530823 0.15589288 -8.359e-42 -0.00013354799
-3.044e-42 -3.328e-42 -0.019155106 -4.217e-42 0.028321667 -1.3838e-41 -2.4986944e-05 0.27505338
00000000: 4213 0080 7620 0080 aca2 12b6 931a 0080
00000010: 36c5 50bc 5cb3 4c3d dd2a 88bb 4d98 ffb9
00000020: 99b4 253d 6bbf f23c bb00 313e 660c 713e
00000030: ac11 0080 c024 0080 6acd e3bb eb67 f13b
00000040: 38ea 01bf 9dbe a73e 1015 0080 20ce b03c
00000050: a3a9 09bf 2988 1c3c 990d 433e 0c32 433c
00000060: 0c18 823e 3906 ab3c 3094 9c3b 127d 233e
00000070: a780 01b7 020c 0080 3bd7 773c f1f0 94ba
00000080: dd19 0080 571a 0080 161d 0080 6924 0080
00000090: c117 0080 d827 0ebe ddef 903c 2e25 0080
000000a0: 0a57 333c 6f0e 0080 1326 0080 c06e 7f3c
000000b0: 221b 073f 2310 0080 ff9b dfba 47d9 78b9
000000c0: 9154 93bc 8fea 05bb 4792 ee3c f51e 0080
000000d0: 523c 523e 62a2 1f3e 4d17 0080 0409 0cb9
000000e0: 7c08 0080 4709 0080 2beb 9cbc c10b 0080
000000f0: d702 e83c 9326 0080 0e9b d1b7 ccd3 8c3e

linear5.weight f4 [16, 64]
1.0036e-41 9.92e-42 2.0300055e-05 -1.0356e-41 -0.030564923 0.074341334 0.0011050923 5.4735017e-07
0.05505441 0.019479858 0.00022090359 0.1494562 1.1104e-41 1.3709e-41 0.0004957492 -0.0034224682
-0.432209 0.21350433 7.126e-42 -0.022977456 -0.43860778 0.01581026 -0.03451291 0.013521772
0.1633047 -0.026983785 -0.008218016 0.20832866 -2.901975e-05 3.373e-42 0.027541999 5.960647e-05
7.987e-42 8.645e-42 1.34e-41 -1.1642e-41 1.3395e-41 -0.012724573 -0.024104195 -1.0741e-41
0.0035255975 9.043e-42 -4.743e-42 0.019379344 0.61465704 7.081e-42 0.0013614559 0.00033186475
-0.047659226 0.00086653564 0.047165364 -3.914e-42 0.1232048 -0.03324547 1.0993e-41 0.0009618222
2.87e-42 6.414e-42 -0.18452343 -1.2865e-41 0.004066251 -5.714e-42 0.00033527418 0.26277077
-8.092e-42 1.034e-41 -1.0587e-41 -7.96e-42 -7.395e-42 -1.2403e-41 -1.0993e-41 -7.455e-42
-4.624e-42 -9.513e-42 -9.134e-42 -4.715e-42 7.8e-44 -4.414e-42 -8.289e-42 1.994e-42
-1.2341e-41 -4.486e-42 -1.2222e-41 -5.478e-42 -1.3094e-41 -1.3047e-41 -3.954e-42 -6.824e-42
-1.3559e-41 -3.635e-42 -1.1737e-41 -8.324e-42 -1.58e-43 -1.0569e-41 -3.195e-42 -1.1273e-41
-7.81e-42 -1.2294e-41 8.057e-42 4.22e-42 1.2062e-41 -1.1187e-41 -1.1472e-41 1.3876e-41
1.2658e-41 4.04e-42 -4.696e-42 1.448e-42 -7.575e-42 -3.097e-42 1.2976e-41 -1.159e-42
-7.986e-42 -8.687e-42 -7.732e-42 -4.678e-42 -1.3087e-41 -1.3113e-41 -8.862e-42 -9.068e-42
-1.3849e-41 -9.491e-42 -1.0433e-41 8.226e-42 -1.2113e-41 -1.3904e-41 -8.084e-42 -4.149e-42
1.3395e-41 6.103e-42 1.1893e-41 -9.513e-42 -3.771e-42 1.242e-41 3.778e-42 -3.821e-42
-5.333e-42 2.496e-42 -5.757e-42 -8.54e-42 -8.284e-42 1.1076e-41 1.3405e-41 6.438e-42
-1.0562e-41 -3.954e-42 9.74e-42 -7.308e-42 -6.932e-42 2.7e-43 -4.633e-42 -1.251e-41
-7.191e-42 8.953e-42 -5.949e-42 -9.42e-42 -1.3104e-41 -4.034e-42 -1.144e-41 -1.3129e-41
-1.0727e-41 1.3457e-41 1.3602e-41 -4.774e-42 -5.409e-42 -4.519e-42 -9.312e-42 -4.352e-42
-7.05e-42 1.3349e-41 -5.066e-42 1.2411e-41 -3.94e-42 1.097e-41 -1.15e-42 -6.562e-42
-4.378e-42 -4.683e-42 -9.903e-42 -9.851e-42 -1.2882e-41 -3.205e-42 -1.2086e-41 -7.224e-42
6.588e-42 -4.469e-42 -3.365e-42 5.775e-42 -7.525e-42 -9.662e-42 -1.0578e-41 -6.809e-42
7.992e-42 7.75e-42 0.0036753647 -1.1325e-41 0.019151125 0.12512705 0.0025467798 0.0008500969
0.14670064 0.15270698 0.26476973 0.08890422 6.702e-42 1.3036e-41 0.0090551395 0.046664312
0.00799956 0.091917895 9.257e-42 0.04810037 0.1400636 -0.007009895 0.29888484 0.08290654
0.09053688 0.0693963 0.01361442 -0.1856274 0.00018921794 -5.764e-42 0.0021102724 0.0053505804
-8.733e-42 -1.1299e-41 6.006e-42 3.768e-42 -9.211e-42 -0.01301051 0.06954251 1.0413e-41
0.03412664 1.2636e-41 9.455e-42 -0.0046880147 -1.0067062 3.796e-42 0.0058139316 0.0014680807
0.13371009 8.400564e-05 -0.00020870937 1.116e-41 0.08310293 0.31976315 5.538e-42 0.00034839322
1.1663e-41 1.3944e-41 0.968904 3.262e-42 0.19167341 1.3085e-41 0.0006149259 -0.2357815
00000000: fa1b 0000 a71b 0000 094a aa37 de1c 0080
00000010: 4a63 fabc 4540 983d bfd8 903a 9eed 1235
00000020: bc80 613d 3994 9f3c 5ba2 6739 0c0b 193e
00000030: f41e 0000 3726 0000 2af5 013a 7d4b 60bb
00000040: 804a ddbe e1a0 5a3e dd13 0000 383b bcbc
00000050: 3391 e0be 8584 813c 695d 0dbd 6c8a 5d3c
00000060: 5939 273e 190d ddbc dba4 06bc 1c54 553e
00000070: 706f f3b7 6709 0000 c29f e13c f601 7a38
00000080: 4416 0000 1918 0000 5b25 0000 7420 0080
00000090: 5725 0000 ba7a 50bc 2976 c5bc f11d 0080
000000a0: b60d 673b 3519 0000 390d 0080 6ec1 9e3c
000000b0: 2a5a 1d3f bd13 0000 e172 b23a 22fe ad39
000000c0: 5236 43bd 3928 633a 7830 413d e90a 0080
000000d0: cc52 fc3d 672c 08bd a51e 0000 cc22 7c3a
000000e0: 0008 0000 e111 0000 b6f3 3cbe dd23 0080
000000f0: 303e 853b ee0f 0080 bdc7 af39 e489 863e
00000100: 8f16 0080 d31c 0000 831d 0080 3016 0080
00000110: 9d14 0080 9322 0080 a51e 0080 c814 0080
00000120: e40c 0080 851a 0080 7619 0080 250d 0080
00000130: 3800 0000 4e0c 0080 1b17 0080 8f05 0000
00000140: 6722 0080 810c 0080 1222 0080 450f 0080
00000150: 8024 0080 5f24 0080 060b 0080 0613 0080
00000160: cc25 0080 220a 0080 b820 0080 3417 0080
00000170: 7100 0080 761d 0080 e808 0080 6d1f 0080
00000180: c515 0080 4522 0080 7616 0000 c30b 0000
00000190: a021 0000 2f1f 0080 fb1f 0080 ae26 0000
000001a0: 4923 0000 430b 0000 170d 0080 0904 0000
000001b0: 1e15 0080 a208 0080 2c24 0000 3b03 0080
000001c0: 4316 0080 3718 0080 8e15 0080 0a0d 0080
000001d0: 7b24 0080 8e24 0080 b418 0080 4719 0080
000001e0: 9b26 0080 751a 0080 151d 0080 ee16 0000
000001f0: c421 0080 c226 0080 8916 0080 910b 0080
00000200: 5725 0000 0311 0000 2721 0000 851a 0080
00000210: 830a 0080 9f22 0000 880a 0000 a70a 0080
00000220: de0e 0080 f506 0000 0c10 0080 ce17 0080
00000230: 1817 0080 e01e 0000 5e25 0000 f211 0000
00000240: 711d 0080 060b 0080 271b 0000 5f14 0080
00000250: 5313 0080 c100 0000 ea0c 0080 df22 0080
00000260: 0c14 0080 f518 0000 9510 0080 421a 0080
00000270: 8724 0080 3f0b 0080 e41f 0080 9924 0080
00000280: e71d 0080 8325 0000 eb25 0000 4f0d 0080
00000290: 140f 0080 990c 0080 f519 0080 220c 0080
000002a0: a713 0080 3625 0000 1f0e 0080 9922 0000
000002b0: fc0a 0080 941e 0000 3503 0080 4b12 0080
000002c0: 340c 0080 0e0d 0080 9b1b 0080 761b 0080
000002d0: e923 0080 ef08 0080 b121 0080 2314 0080
000002e0: 5d12 0000 750c 0080 6109 0080 1910 0000
000002f0: fa14 0080 ef1a 0080 7d1d 0080 fb12 0080
00000300: 4716 0000 9b15 0000 63de 703b 921f 0080
00000310: d2e2 9c3c 4e21 003e e0e7 263b 0ad9 5e3a
00000320: b138 163e 385f 1c3e e68f 873e 6a13 b63d
00000330: af12 0000 5724 0000 025c 143c 1423 3f3d
00000340: 9610 033c 733f bc3d ce19 0000 e504 453d
00000350: d56c 0f3e 43b3 e5bb 6f07 993e e7ca a93d
00000360: 666b b93d a61f 8e3d 040f 5f3c 1c15 3ebe
00000370: ce68 4639 1110 0080 7f4c 0a3b ec53 af3b
00000380: 5818 0080 7f1f 0080 be10 0000 810a 0000
00000390: ad19 0080 092a 55bc 4e6c 8e3d 071d 0000
000003a0: 60c8 0b3d 3923 0000 5b1a 0000 eb9d 99bb
000003b0: c0db 80bf 950a 0000 cb82 be3b 9d6c c03a
000003c0: 4ceb 083e 2f2c b038 ffd8 5ab9 1c1f 0000
000003d0: de31 aa3d ffb7 a33e 700f 0000 8ca8 b639
000003e0: 8320 0000 df26 0000 180a 783f 1809 0000
000003f0: 0946 443e 7a24 0000 fb32 213a b570 71be

linear5.bias f4 [16]
0.30676737 -1.2571e-41 -9.201e-42 0.068513826 -0.019078905 0.43630472 -0.0073092435 -1.1289e-41
-1.0134e-41 -8.427e-42 -5e-42 -0.010101855 0.1309969 0.37300935 0.014007046 -4.757e-42
00000000: 9d10 9d3e 0b23 0080 a619 0080 fa50 8c3d
00000010: 5d4b 9cbc 5563 df3e 6182 efbb 781f 0080
00000020: 401c 0080 7e17 0080 f00d 0080 4082 25bc
00000030: 0d24 063e 15fb be3e cf7d 653c 430d 0080

linear6.weight f4 [4, 16]
-0.6359505 -3.627e-42 4.228e-42 -0.41650116 0.10012537 -0.54215425 0.07426063 4.962e-42
5.465e-42 -1.3757e-41 5.866e-42 0.012280956 0.4797411 -0.7801664 0.16122982 1.1153e-41
-0.21857122 -8.751e-42 5.381e-42 1.0497326 -0.041797306 0.23497467 -0.0055389213 1.0877e-41
6.883e-42 3.477e-42 -7.554e-42 -0.026985178 0.20360926 -0.21830836 -1.0103211 5.429e-42
0.28995842 -1.2954e-41 -8.618e-42 -0.00015884616 0.16398121 -0.9439718 0.008540959 9.491e-42
1.2657e-41 5.115e-42 1.3528e-41 0.1375046 -1.2570475 0.34508824 0.6878608 -7.741e-42
0.32643938 -1.3646e-41 -1.1035e-41 -0.6082044 -0.1544039 0.62092113 -0.04760978 1.3436e-41
7.177e-42 5.148e-42 -2.699e-42 -0.106325716 -0.08388427 0.41061357 -0.10482676 -4.313e-42
00000000: a7cd 22bf 1c0a 0080 c90b 0000 a43f d5be
00000010: 880e cd3d 9fca 0abf f515 983d d50d 0000
00000020: 3c0f 0000 5926 0080 5a10 0000 1036 493c
00000030: a0a0 f53e fcb8 47bf 6e19 253e 171f 0000
00000040: 22d1 5fbe 6518 0080 000f 0000 a35d 863f
00000050: a733 2bbd 339d 703e d77f b5bb 521e 0000
00000060: 3013 0000 b109 0000 0f15 0080 0510 ddbc
00000070: f27e 503e 3a8c 5fbe 3452 81bf 220f 0000
00000080: 6e75 943e 1c24 0080 0618 0080 f18f 26b9
00000090: b1ea 273e 23a8 71bf 61ef 0b3c 751a 0000
000000a0: 4823 0000 420e 0000 b625 0000 02ce 0c3e
000000b0: efe6 a0bf 68af b03e a517 303f 9415 0080
000000c0: 1023 a73e 0a26 0080 c31e 0080 49b3 1bbf
000000d0: 0e1c 1ebe b0f4 1e3f 7902 43bd 7425 0000
000000e0: 0214 0000 5a0e 0000 8607 0080 4cc1 d9bd
000000f0: 84cb abbd f13b d23e 6aaf d6bd 060c 0080

linear6.bias f4 [4]
-0.085717976 0.052404348 -0.056157127 0.48204422
00000000: e88c afbd f1a5 563d 0405 66bd 80ce f63e
