checkpoints/dnn_9.pt (torch, 257573 bytes, 12 tensors)

linear1.weight f4 [128, 358]
000000 bd cf 89 39 21 9a 22 b9 47 01 a6 ba 54 44 d2 b9
       0.00026285453 -0.00015506941 -0.0012665176 -0.0004010523
000010 a3 73 23 3a 31 37 24 3a 7e fc 85 bb b1 af 19 bc
       0.0006235188 0.00062643277 -0.0040889373 -0.009380267
000020 b4 96 9a bb 1f 25 c0 3a 2d b5 b4 3a 79 d4 59 3a
       -0.0047176722 0.00146595 0.0013786905 0.0008309554
000030 90 f1 a8 38 f7 75 6a 39 8f c4 3f 3b ef dc 29 3b
       8.055859e-05 0.00022359924 0.0029261445 0.002591904
000040 be 8a 1a 3b 02 70 1c 3b 80 5f 44 3b 1f 92 c4 3a
       0.0023581232 0.0023870473 0.002996415 0.0014997161
000050 a2 5a 26 bb bd cb 54 3b f1 1e 14 3b 48 54 0c 3b
       -0.0025383611 0.003247007 0.002260145 0.002141254
000060 df a1 24 ba a3 bf 93 3b 86 9d b3 b9 21 d9 e7 3a
       -0.0006280224 0.004508929 -0.00034258905 0.0017688611
000070 e2 ee 21 3a ac 5d 71 3c f1 4a ad bb de 9d 7d 3b
       0.0006177259 0.014731806 -0.0052884747 0.0038698833
000080 c0 bb 81 37 be 18 e1 39 0e f7 2f b9 11 10 8b bb
       1.5465426e-05 0.0004293378 -0.00016781336 -0.0042438586
000090 33 6b a7 3c cc d9 7b bb 5f c1 5d 3a 9b 52 8c ba
       0.020436859 -0.0038429378 0.00084592955 -0.0010705771
0000a0 92 8a 51 bb 7e 1b 3d 38 db dd a2 37 8e 8f 49 3b
       -0.0031973463 4.5086716e-05 1.9415214e-05 0.0030755731
0000b0 f3 8c c1 3a 5f ce 9b 3a 38 e2 48 3a 1b 2f 39 3b
       0.0014766738 0.0011887065 0.0007663104 0.0028256837
0000c0 62 46 a0 ba 6c 7e 49 bb 3b 07 94 bb 23 5a a9 3b
       -0.0012228007 -0.003074552 -0.0045174635 0.005168216
0000d0 1e 53 81 3b 68 1b 51 3c e3 38 6b ba 20 54 81 3b
       0.003946676 0.012762882 -0.00089730154 0.003946796
0000e0 db dd 81 ba 7c 7d 67 ba bb 6c d6 b9 a8 c7 8b 3b
       -0.0009908037 -0.00088306493 -0.0004089827 0.0042657442
0000f0 e0 f3 14 bb b5 53 62 ba b3 35 4c ba 38 7e 3f 38
       -0.0022728369 -0.0008633689 -0.0007789984 4.56555e-05
000100 a7 e4 21 3b 0d c0 79 ba 2b ec 76 ba d8 ef 82 b9
       0.0024702938 -0.0009527214 -0.0009419347 -0.0002497423
000110 04 d7 97 b9 2d 68 d5 3a 92 9e a4 3a 9e d4 f4 b8
       -0.00028961163 0.0016281657 0.0012559465 -0.0001167443
000120 6a 94 84 39 5d 25 53 ba 6b 00 58 3a 0a 25 53 3a
       0.0002528758 -0.0008054579 0.00082398084 0.00080545305
000130 81 91 f9 37 7f c4 37 3a 29 9c 66 3a 35 fb 17 3b
       2.9750869e-05 0.0007010176 0.00087970734 0.0023190503
000140 8a 2f c1 3a db 23 85 3a 92 87 72 b9 e7 49 95 ba
       0.0014738899 0.001015778 -0.00023129422 -0.0011389822
000150 a0 99 5c ba ef 69 70 ba 63 cc a1 ba ad 97 f8 b5
       -0.0008415226 -0.0009171059 -0.0012344237 -1.8521583e-06
000160 32 b0 07 b9 33 52 12 bb a2 aa 68 b9 49 03 d1 3a
       -0.00012940241 -0.0022326827 -0.0002218881 0.0015946414
000170 fc 0c 26 3b 6b e3 fe b9 9b 6b 50 3a 47 c1 87 3c
       0.002533733 -0.00048616095 0.0007950605 0.016571654
000180 9a e8 77 3c 97 be fb 3a cf 8d fe 3a 73 21 44 3a
       0.01513114 0.001920658 0.0019420924 0.0007481791
000190 0e 25 1e 3a 8c f7 31 bd 33 7c 7e 3a 53 7f 4d 3d
       0.0006032743 -0.04344897 0.0009707838 0.050170254
0001a0 c0 16 a4 39 5f c0 4a b8 37 8e ff 3c 84 6f 79 bc
       0.00031297468 -4.8339713e-05 0.031195743 -0.015224341
0001b0 10 71 2b 3c 7e 2f 5d bc 3d 88 1b 3c c0 b7 65 bc
       0.010463968 -0.013500093 0.009492931 -0.01402086
0001c0 8d fe 10 bb 1e 5f c3 3a dc 22 44 3b 5c 42 54 bc
       -0.002212438 0.0014905666 0.0029928004 -0.012955274
0001d0 c4 28 bf 3a 38 75 26 bb e2 a4 96 bc cb 90 f5 ba
       0.0014584293 -0.0025399458 -0.01838917 -0.0018735168
0001e0 c0 d8 c3 3b 20 27 29 3c c1 3e c8 3c 19 65 1a 3c
       0.0059767663 0.0103242695 0.024443986 0.009423518
0001f0 10 d5 2c 3c 3f 65 18 bc 5d 1a 0b bc b3 26 04 3d
       0.010548845 -0.009301483 -0.008490172 0.03226347
000200 41 d9 7f 3c 6b 65 07 3c 59 00 4f 3c 19 ed 80 3b
       0.015615762 0.008263926 0.01263436 0.0039345142
000210 43 87 9a 39 b6 d3 40 33 42 af dc 3b bc ba e5 3b
       0.00029473947 4.4896034e-08 0.0067347595 0.007010786
000220 a4 bb 0f 3c fd 19 78 ba 4d c5 c0 ba 67 ff da b9
       0.008772764 -0.0009464322 -0.0014707238 -0.0004177049
000230 6c c5 04 bd 40 02 a6 bb 7f c5 e9 b9 9a 00 82 bc
       -0.03241484 -0.005066186 -0.0004458837 -0.015869427
000240 24 35 84 bc ab 9b 90 bc 51 b5 db bc b6 00 4a 3c
       -0.01613862 -0.017652353 -0.026819857 0.012329271
000250 81 de c6 3c 96 c0 f1 bc ce b0 46 3c b9 66 ae 3c
       0.02427602 -0.029510777 0.012127114 0.021289216
000260 d1 0a 88 3c 37 22 86 bc d5 63 f3 3a 2b b5 ce bc
       0.01660672 -0.016373737 0.0018569181 -0.025232872
000270 02 45 59 bc 09 b4 b7 3c 3f cc 04 bc 7f eb 72 3c
       -0.013261082 0.022424715 -0.008105337 0.014826654
000280 41 55 4c bc 61 09 87 3c 1e 5e c4 ba 53 57 3d b9
       -0.012471498 0.016483964 -0.0014981662 -0.00018056975
000290 e2 a2 4a b7 ae 6a 50 b8 18 50 c9 b9 cd 44 ef b9
       -1.2078062e-05 -4.9690418e-05 -0.00038397382 -0.00045636893
0002a0 d6 5d 82 b9 e4 20 26 b5 0e 75 ce b9 c2 75 02 36
       -0.00024865445 -6.188768e-07 -0.00039378594 1.9440054e-06
0002b0 58 58 ed 39 a3 12 dc b8 03 fc 0c 38 b4 5f 4e 34
       0.00045269984 -0.00010493889 3.3613305e-05 1.9220062e-07
0002c0 b5 f5 9b 35 e4 e9 f7 39 03 0f 0a ba 6e 5e 2d 38
       1.161991e-06 0.00047285773 -0.0005266519 4.133436e-05
0002d0 4a f5 34 b9 3a f9 99 b8 43 98 b5 36 b9 ae 81 3a
       -0.00017257515 -7.3420306e-05 5.411946e-06 0.000989399
0002e0 4c 4f 2c bb bc 82 1d 3b f9 df e2 af 3e da 7a 34
       -0.0026292382 0.0024034223 -4.1268303e-10 2.336246e-07
0002f0 ad ac 33 b2 0d 17 6f bd de 6c a1 3b 6d 6b a5 b4
       -1.0458433e-08 -0.058371592 0.004926308 -3.0811808e-07
000300 ab 11 01 35 51 8e 90 32 ab 1d 1c b4 b2 47 1d 3c
       4.8081955e-07 1.6828524e-08 -1.4539425e-07 0.009599613
000310 a6 76 93 33 71 86 75 b4 1a 8d b7 33 13 10 56 37
       6.866803e-08 -2.2866313e-07 8.547268e-08 1.2759137e-05
000320 c2 1f 62 34 49 49 df bb b3 fb 44 b3 1d 40 f8 33
       2.1059444e-07 -0.006814156 -4.5863725e-08 1.1560062e-07
000330 d9 6d 9f b3 16 3a b7 b5 bf b3 06 36 54 e7 d0 34
       -7.4239956e-08 -1.3651468e-06 2.0072182e-06 3.8911332e-07
000340 86 e0 00 34 4d 19 d2 33 fc 44 5f 31 68 52 b8 b3
       1.200261e-07 9.783489e-08 3.2489984e-09 -8.583157e-08
000350 17 96 ea 33 f5 57 fe b4 d4 09 4b 3d 3d f7 22 bd
       1.0923775e-07 -4.7375184e-07 0.04956992 -0.039786566
000360 55 1a da 33 6e 62 0b b5 54 20 10 3b 57 94 77 b2
       1.0156206e-07 -5.192477e-07 0.0021991925 -1.4411021e-08
000370 86 ee 73 b4 f2 b8 28 3d 05 34 d0 3b 66 b8 92 b3
       -2.2717913e-07 0.041192003 0.0063538575 -6.832197e-08
000380 44 9e 90 b4 c5 df b1 bd 8d dd 21 3b e1 6d 72 b4
       -2.6937244e-07 -0.08685259 0.0024698705 -2.257798e-07
000390 d8 52 81 bd 42 f2 24 bd 5f a5 48 bd b9 79 1e b5
       -0.06314629 -0.040270098 -0.048985835 -5.9036716e-07
0003a0 4e 6f 3e 34 34 c8 2b 36 91 00 eb b4 63 ae 6b b3
       1.7735621e-07 2.559752e-06 -4.3772573e-07 -5.4873805e-08
0003b0 aa 5b d9 b3 d4 99 1e 36 37 ec 45 36 78 7b a6 30
       -1.01215235e-07 2.3633374e-06 2.9492783e-06 1.2113182e-09
0003c0 f8 fa 52 3a 52 ae 0f 39 cc 9f fe 39 54 6d 08 ba
       0.00080482615 0.00013702482 0.00048565713 -0.00052042794
0003d0 54 1b 45 3a cb b3 2e ba d1 06 5a b8 40 ce 0f 3a
       0.0007519026 -0.00066643645 -5.19816e-05 0.0005485751
0003e0 5b 96 d4 39 42 2e dc 38 ad 1d fa 38 83 ba a8 39
       0.00040547815 0.00010499034 0.000119264565 0.0003218242
0003f0 eb 92 37 37 82 37 20 bb 75 df 21 3a aa 5a 50 3a
       1.0941857e-05 -0.0024447148 0.000617496 0.00079480803

linear1.bias f4 [128]
000000 5f e5 3e be 7b c4 e0 bd 13 83 20 bd 3a c9 99 bd
       -0.18642186 -0.10974976 -0.039187502 -0.07509084
000010 92 a5 50 bd db f2 3c bd c8 a5 fd bd 20 a2 47 be
       -0.05093915 -0.046130043 -0.12385136 -0.1949544
000020 3d c2 cc bd 68 17 33 be 9d 53 0e be 62 60 30 bd
       -0.099979855 -0.17489398 -0.13899083 -0.043060668
000030 44 56 71 be 58 7c eb bd e8 5c 78 3c f9 30 1b be
       -0.23568064 -0.11498326 0.015158869 -0.151554
000040 60 38 bb bd 08 f5 88 bd 1a 2a 2d bc ef a9 01 be
       -0.09141612 -0.06687361 -0.01056912 -0.12662481
000050 2b 35 46 bc 5b cb e6 bd 4a 25 12 be ae 5a e8 3c
       -0.012097637 -0.11269256 -0.14272037 0.028363552
000060 1a d6 88 bd 9e e0 6f 3e e3 22 fe bc 82 0c 35 be
       -0.06681462 0.23425528 -0.031022495 -0.17680553
000070 9e 8f f4 3d 53 e0 cf bd 04 2a 27 be 3c 07 8d bd
       0.11941455 -0.10150208 -0.16324621 -0.068861455
000080 fd 94 6f bd 26 50 c1 3d ab c3 5d be 09 b1 03 be
       -0.058491696 0.09439115 -0.21656673 -0.12860502
000090 9e e4 bc bc dc a8 bb bd a1 32 79 bd 6b 5b e4 bd
       -0.023058232 -0.09163067 -0.0608393 -0.11150249
0000a0 d2 c2 3c bb 0e ce f9 3e d9 df 91 3d be bb 39 bd
       -0.0028802645 0.4879002 0.07122774 -0.04534506
0000b0 b9 a6 5a 3c db 0a 2d bd db a6 f2 bd 1b e0 2a 3c
       0.013345414 -0.04224668 -0.118482314 0.0104294075
0000c0 12 06 c9 3c a1 60 1c bd 3b 8f b7 bd 15 f1 3a bd
       0.024539027 -0.03817809 -0.08962866 -0.04564007
0000d0 e8 b2 02 bd b5 aa 33 3d 68 51 38 bc c0 a1 09 bd
       -0.0319089 0.04386397 -0.0112498775 -0.033601522
0000e0 6f 29 ab bd 68 63 62 bd 80 be 08 3e a1 2b 70 be
       -0.08357512 -0.055270582 0.1335392 -0.23454143
0000f0 86 36 6c 3d b1 63 d4 bd 06 d0 df 3c 34 b5 de bc
       0.057669185 -0.10370577 0.027320873 -0.027186014
000100 86 e9 b6 bd 6e 32 00 be e9 5c 29 be 61 38 0b be
       -0.0893126 -0.12519237 -0.16539349 -0.13595726
000110 2d 0a 71 bd 7d a0 0e be ca af 33 be e2 67 2b be
       -0.058847595 -0.13928409 -0.17547527 -0.16738847
000120 8d 1e 0a be 60 e7 87 3c ad 6d 81 bd 08 13 99 bd
       -0.13488217 0.01658982 -0.06319747 -0.07474333
000130 cf 62 13 bd bf d5 8f bd 47 86 a3 bc 4d 95 1b be
       -0.035982903 -0.07023191 -0.01996149 -0.15193672
000140 1c 6f 31 be 82 90 27 bc ca 17 e3 bd a8 9c e3 bd
       -0.17327541 -0.010227324 -0.11088522 -0.11113864
000150 92 b2 38 be a3 bf 49 3d 72 0a ab bd e3 c4 2a be
       -0.18036869 0.049255025 -0.08351602 -0.16676669
000160 89 de e8 bd 74 4e 32 be 18 09 93 bd ab 3c bc bd
       -0.1137057 -0.1741274 -0.07179469 -0.09191259
000170 4f 23 aa bd 04 8a 10 be 39 26 f3 bd 06 a8 fd bc
       -0.08307516 -0.14115149 -0.11872525 -0.030963909
000180 1b 36 5c be 23 99 9c 3d d5 59 c8 bc 63 94 19 be
       -0.21505015 0.07646396 -0.024456898 -0.14998011
000190 d3 e6 35 be a5 a5 9b bd c5 53 38 be c3 50 19 be
       -0.17763834 -0.075999536 -0.18000706 -0.14972214
0001a0 f1 46 1c bd 12 7e 2b be 24 99 12 bd c9 8c cb bd
       -0.038153592 -0.16747311 -0.035790578 -0.09938962
0001b0 a7 5f 12 be 61 92 ca bd c6 fd 81 bd b6 44 d6 3d
       -0.14294301 -0.09891201 -0.063472316 0.10462324
0001c0 81 4c f8 3c ea ef 85 bd 6b b4 2e be 6b 48 a2 3c
       0.030309917 -0.065399006 -0.17061011 0.019809922
0001d0 38 f0 0e be 0b 81 b3 bd f7 d3 3b be 30 4b b7 bd
       -0.13958824 -0.08764847 -0.18342577 -0.08949888
0001e0 69 ae a4 bd 9d 66 31 bd 3a 34 03 be f1 59 ff bd
       -0.080410786 -0.04331075 -0.12812892 -0.12468327
0001f0 8a 92 29 3d 74 37 f2 bd 8d 86 1e 3e 29 f2 9d bd
       0.041399516 -0.11826983 0.15481015 -0.07712204

linear2.weight f4 [64, 128]
000000 1f 16 00 80 00 1b 00 80 25 20 00 80 af 11 00 80
       -7.936e-42 -9.686e-42 -1.1531e-41 -6.344e-42
000010 35 11 00 00 2d 21 00 80 45 0d 00 80 c3 1d 00 80
       6.173e-42 -1.1901e-41 -4.76e-42 -1.0676e-41
000020 ae 1a 00 80 0d 17 00 80 83 1c 00 80 07 15 00 80
       -9.571e-42 -8.269e-42 -1.0228e-41 -7.543e-42
000030 23 26 00 00 e2 1d 00 80 7e 11 00 80 48 25 00 80
       1.3681e-41 -1.072e-41 -6.275e-42 -1.3374e-41
000040 37 15 00 00 42 0b 00 80 68 14 00 80 61 19 00 00
       7.61e-42 -4.039e-42 -7.32e-42 9.104e-42
000050 ce 1e 00 00 b9 21 00 80 55 06 00 00 35 18 00 80
       1.105e-41 -1.2097e-41 2.272e-42 -8.684e-42
000060 49 0a 00 00 6b 0c 00 80 e4 18 00 00 41 09 00 80
       3.69e-42 -4.455e-42 8.929e-42 -3.32e-42
000070 52 15 00 80 0e 17 00 80 6a 15 00 80 17 0f 00 80
       -7.648e-42 -8.27e-42 -7.682e-42 -5.413e-42
000080 94 16 00 00 5f 1b 00 80 42 08 00 80 e4 0d 00 80
       8.1e-42 -9.819e-42 -2.962e-42 -4.983e-42
000090 5c 08 00 80 e5 1a 00 80 ef 1f 00 00 2a 13 00 80
       -2.999e-42 -9.648e-42 1.1456e-41 -6.875e-42
0000a0 eb 22 00 80 d3 19 00 80 60 13 00 80 96 1c 00 80
       -1.2526e-41 -9.264e-42 -6.95e-42 -1.0255e-41
0000b0 84 20 00 80 14 1f 00 80 d5 26 00 80 1e 0e 00 00
       -1.1664e-41 -1.1149e-41 -1.393e-41 5.064e-42
0000c0 24 1e 00 80 2b 03 00 80 4b 26 00 00 58 14 00 80
       -1.0812e-41 -1.136e-42 1.3737e-41 -7.298e-42
0000d0 33 14 00 80 9f 1f 00 80 0b 12 00 00 a4 06 00 80
       -7.246e-42 -1.1344e-41 6.473e-42 -2.382e-42
0000e0 33 21 00 80 0f 22 00 00 1b 1f 00 80 9b 14 00 00
       -1.191e-41 1.2218e-41 -1.1159e-41 7.392e-42
0000f0 e7 1b 00 80 d4 1c 00 80 10 18 00 80 dc 26 00 80
       -1.001e-41 -1.0342e-41 -8.632e-42 -1.394e-41
000100 a9 22 00 80 a4 03 00 00 1c 15 00 80 51 05 00 00
       -1.2434e-41 1.306e-42 -7.573e-42 1.907e-42
000110 59 1a 00 80 cc 21 00 80 d8 1b 00 80 a9 0c 00 00
       -9.452e-42 -1.2124e-41 -9.988e-42 4.542e-42
000120 b6 19 00 80 4e 15 00 80 5b 0c 00 80 56 17 00 80
       -9.223e-42 -7.643e-42 -4.432e-42 -8.371e-42
000130 47 06 00 80 f2 0c 00 80 bd 18 00 80 0c 16 00 80
       -2.252e-42 -4.644e-42 -8.874e-42 -7.909e-42
000140 06 26 00 80 56 23 00 00 cb 21 00 80 67 26 00 80
       -1.364e-41 1.2676e-41 -1.2123e-41 -1.3776e-41
000150 c9 03 00 00 5e 0e 00 80 ff 1c 00 80 97 0f 00 80
       1.358e-42 -5.154e-42 -1.0402e-41 -5.593e-42
000160 d7 26 00 80 96 1c 00 80 4b 19 00 80 24 20 00 80
       -1.3933e-41 -1.0255e-41 -9.073e-42 -1.153e-41
000170 5f 18 00 80 2a 0b 00 80 e2 21 00 80 0c 0a 00 80
       -8.743e-42 -4.005e-42 -1.2155e-41 -3.604e-42
000180 ff 0c 00 80 61 23 00 80 3f 24 00 80 c9 04 00 80
       -4.662e-42 -1.2692e-41 -1.3003e-41 -1.717e-42
000190 a8 23 00 80 c3 15 00 80 66 0c 00 80 18 10 00 80
       -1.2791e-41 -7.807e-42 -4.448e-42 -5.773e-42
0001a0 fe 11 00 80 ae 24 00 00 e3 1a 00 80 1f 02 00 80
       -6.454e-42 1.3158e-41 -9.645e-42 -7.61e-43
0001b0 46 10 00 80 f9 1e 00 80 7e 0e 00 80 0e 12 00 80
       -5.838e-42 -1.1111e-41 -5.199e-42 -6.477e-42
0001c0 63 09 00 80 a8 22 00 00 5c 1c 00 80 ef 13 00 80
       -3.367e-42 1.2432e-41 -1.0173e-41 -7.151e-42
0001d0 88 26 00 80 8b 23 00 80 c0 1a 00 80 8b 0c 00 80
       -1.3822e-41 -1.275e-41 -9.596e-42 -4.5e-42
0001e0 06 24 00 00 57 06 00 80 d4 0c 00 80 64 00 00 00
       1.2923e-41 -2.274e-42 -4.602e-42 1.4e-43
0001f0 a6 0f 00 80 f5 1c 00 80 8a 1d 00 80 be 1b 00 80
       -5.614e-42 -1.0388e-41 -1.0597e-41 -9.952e-42
000200 c3 24 00 80 b7 0b 00 80 a4 10 00 80 0b 16 00 80
       -1.3188e-41 -4.202e-42 -5.97e-42 -7.908e-42
000210 ef 16 00 80 b0 22 00 80 6b 1c 00 80 21 1a 00 80
       -8.227e-42 -1.2444e-41 -1.0194e-41 -9.373e-42
000220 28 1c 00 80 c2 16 00 80 6c 22 00 80 2f 16 00 80
       -1.01e-41 -8.164e-42 -1.2348e-41 -7.958e-42
000230 c6 10 00 80 ba 0d 00 80 38 22 00 80 90 1b 00 80
       -6.017e-42 -4.924e-42 -1.2275e-41 -9.888e-42
000240 b1 0e 00 80 f7 17 00 80 30 1b 00 80 9a 12 00 80
       -5.27e-42 -8.597e-42 -9.753e-42 -6.673e-42
000250 b4 14 00 80 ee 18 00 80 c1 25 00 80 55 1d 00 80
       -7.427e-42 -8.943e-42 -1.3544e-41 -1.0522e-41
000260 a0 23 00 80 39 1d 00 80 5d 1d 00 80 19 1f 00 80
       -1.278e-41 -1.0483e-41 -1.0534e-41 -1.1156e-41
000270 c5 0a 00 80 b2 14 00 80 db 1b 00 80 cd 19 00 80
       -3.863e-42 -7.424e-42 -9.993e-42 -9.256e-42
000280 1e 24 00 80 2d 1d 00 80 23 18 00 80 d8 26 00 80
       -1.2956e-41 -1.0466e-41 -8.659e-42 -1.3935e-41
000290 dc 1a 00 00 ea 23 00 80 f4 23 00 80 a2 17 00 80
       9.635e-42 -1.2884e-41 -1.2898e-41 -8.478e-42
0002a0 68 1c 00 80 74 0a 00 80 ef 14 00 80 0a 1c 00 80
       -1.019e-41 -3.75e-42 -7.51e-42 -1.0059e-41
0002b0 da 16 00 80 14 19 00 80 0b 24 00 00 46 19 00 80
       -8.198e-42 -8.996e-42 1.293e-41 -9.066e-42
0002c0 d9 22 00 80 78 25 00 80 e2 1e 00 80 33 19 00 80
       -1.2501e-41 -1.3441e-41 -1.1079e-41 -9.04e-42
0002d0 c1 17 00 80 b1 12 00 80 c0 19 00 80 3e 1a 00 80
       -8.521e-42 -6.705e-42 -9.237e-42 -9.414e-42
0002e0 d3 20 00 80 7d 1a 00 80 03 0d 00 00 2f 14 00 80
       -1.1775e-41 -9.502e-42 4.668e-42 -7.24e-42
0002f0 6d 0c 00 80 38 1b 00 80 77 10 00 80 48 21 00 80
       -4.458e-42 -9.764e-42 -5.906e-42 -1.1939e-41
000300 00 25 00 80 88 1d 00 80 f7 1d 00 80 61 1a 00 00
       -1.3273e-41 -1.0594e-41 -1.075e-41 9.463e-42
000310 ed 21 00 80 ac 0e 00 80 6a 1c 00 80 0e 22 00 80
       -1.217e-41 -5.263e-42 -1.0193e-41 -1.2217e-41
000320 98 17 00 80 d6 1c 00 80 70 17 00 80 30 24 00 80
       -8.464e-42 -1.0344e-41 -8.408e-42 -1.2982e-41
000330 11 1e 00 80 d1 12 00 80 be 1b 00 80 09 21 00 80
       -1.0786e-41 -6.75e-42 -9.952e-42 -1.1851e-41
000340 b3 17 00 80 f6 19 00 00 cc 1e 00 80 73 20 00 80
       -8.502e-42 9.313e-42 -1.1048e-41 -1.164e-41
000350 45 1a 00 80 7b 10 00 80 76 21 00 80 2d 1f 00 80
       -9.424e-42 -5.912e-42 -1.2004e-41 -1.1184e-41
000360 08 25 00 80 4c 19 00 80 6b 1e 00 80 28 18 00 80
       -1.3284e-41 -9.075e-42 -1.0912e-41 -8.666e-42
000370 6d 08 00 00 c3 11 00 80 35 25 00 80 4f 13 00 80
       3.023e-42 -6.372e-42 -1.3347e-41 -6.927e-42
000380 db 1b 00 00 02 11 00 00 d6 26 00 80 01 26 00 80
       9.993e-42 6.101e-42 -1.3932e-41 -1.3633e-41
000390 93 23 00 80 79 1c 00 80 a3 21 00 80 36 1e 00 80
       -1.2762e-41 -1.0214e-41 -1.2067e-41 -1.0838e-41
0003a0 80 19 00 80 3e 14 00 80 8e 21 00 80 c0 1b 00 00
       -9.148e-42 -7.262e-42 -1.2037e-41 9.955e-42
0003b0 7c 17 00 80 67 25 00 80 c7 12 00 80 e0 23 00 80
       -8.425e-42 -1.3417e-41 -6.736e-42 -1.287e-41
0003c0 b7 0a 00 80 f0 13 00 80 d1 17 00 80 63 23 00 80
       -3.844e-42 -7.152e-42 -8.544e-42 -1.2694e-41
0003d0 80 0b 00 80 26 20 00 00 c1 1d 00 80 1a 0c 00 80
       -4.125e-42 1.1533e-41 -1.0674e-41 -4.341e-42
0003e0 13 13 00 80 07 15 00 00 1c 1e 00 80 be 16 00 80
       -6.843e-42 7.543e-42 -1.0801e-41 -8.158e-42
0003f0 ec 1b 00 80 a1 1c 00 80 10 1f 00 80 ad 22 00 80
       -1.0016e-41 -1.027e-41 -1.1143e-41 -1.244e-41

linear2.bias f4 [64]
000000 ef 11 00 80 45 0c 00 80 87 10 00 80 e4 16 00 80
       -6.433e-42 -4.401e-42 -5.929e-42 -8.212e-42
000010 52 0d 00 80 cd 11 00 80 c8 11 00 80 45 19 00 80
       -4.778e-42 -6.386e-42 -6.379e-42 -9.065e-42
000020 2f 14 00 80 d9 0b 00 80 22 14 0b bc 23 1c 00 80
       -7.24e-42 -4.25e-42 -0.008488687 -1.0094e-41
000030 c0 24 00 80 90 88 13 bd 1a 1b 00 80 c9 13 00 80
       -1.3183e-41 -0.036018908 -9.722e-42 -7.098e-42
000040 16 1d 00 80 86 13 58 3a 81 3f 8f 3c 56 25 00 80
       -1.0434e-41 0.00082426553 0.017486336 -1.3394e-41
000050 30 21 00 80 19 22 00 80 bb 75 ee 3e c2 ff 4a 3e
       -1.1905e-41 -1.2232e-41 0.46574196 0.19824126
000060 78 0f 00 80 4d 1b 00 80 36 23 00 80 0e 19 00 80
       -5.549e-42 -9.794e-42 -1.2631e-41 -8.988e-42
000070 97 11 00 80 5e 23 00 80 31 16 00 80 59 16 00 80
       -6.31e-42 -1.2687e-41 -7.961e-42 -8.017e-42
000080 cc 31 95 3e 6e 1a 00 80 28 12 00 80 f1 1f 00 80
       0.29139555 -9.481e-42 -6.513e-42 -1.1458e-41
000090 13 17 00 80 cd 25 00 80 89 a5 86 3c b8 0a 00 80
       -8.277e-42 -1.356e-41 0.016436355 -3.845e-42
0000a0 cd 1f 00 80 12 25 00 80 6b 14 00 80 29 18 00 80
       -1.1408e-41 -1.3298e-41 -7.325e-42 -8.667e-42
0000b0 2f f4 55 ab 82 11 72 3d bb 26 00 80 ce 22 00 80
       -7.6011674e-13 0.059098728 -1.3894e-41 -1.2486e-41
0000c0 e2 0f 00 80 93 57 e8 3b b4 26 00 80 66 1a 00 80
       -5.698e-42 0.007090518 -1.3884e-41 -9.47e-42
0000d0 ec 90 9e bb 60 26 00 80 47 0d 00 80 d5 37 ff 3c
       -0.0048390534 -1.3766e-41 -4.763e-42 0.031154552
0000e0 80 16 00 80 df 23 00 80 3a 1d 00 80 d1 1b 00 80
       -8.071e-42 -1.2868e-41 -1.0485e-41 -9.979e-42
0000f0 9e 0a 00 80 50 18 00 80 49 26 00 80 f7 1a 00 80
       -3.809e-42 -8.722e-42 -1.3734e-41 -9.673e-42

linear3.weight f4 [32, 64]
000000 97 13 00 00 14 19 00 80 0a 0d 00 00 4f 1a 00 00
       7.028e-42 -8.996e-42 4.678e-42 9.438e-42
000010 80 15 00 80 24 0a 00 00 75 03 00 80 b6 0a 00 80
       -7.713e-42 3.638e-42 -1.24e-42 -3.842e-42
000020 f2 17 00 80 85 11 00 80 31 7b d3 bc b9 1b 00 80
       -8.59e-42 -6.285e-42 -0.025815578 -9.945e-42
000030 39 06 00 80 e4 6e 13 bc f8 00 00 80 c0 26 00 80
       -2.232e-42 -0.008998606 -3.48e-43 -1.3901e-41
000040 69 14 00 00 d2 6a 9e b9 db 7b 45 3b 61 0f 00 80
       7.322e-42 -0.00030215696 0.0030133638 -5.517e-42
000050 c4 03 00 80 3a 02 00 00 fb 7e 92 12 da 26 00 00
       -1.351e-42 7.99e-43 9.245198e-28 1.3937e-41
000060 35 15 00 00 25 25 00 80 46 1a 00 80 c5 16 00 80
       7.608e-42 -1.3325e-41 -9.425e-42 -8.168e-42
000070 02 26 00 00 4e 19 00 80 7e 26 00 80 9a 23 00 80
       1.3635e-41 -9.078e-42 -1.3808e-41 -1.2771e-41
000080 c6 7c 4c 3b 19 0f 00 00 eb 12 00 00 df 12 00 80
       0.00312023 5.416e-42 6.786e-42 -6.77e-42
000090 34 19 00 80 c6 06 00 80 38 6c ba 3c 28 14 00 00
       -9.041e-42 -2.43e-42 0.02275668 7.23e-42
0000a0 a6 07 00 00 11 0c 00 00 ca 07 00 80 34 0a 00 80
       2.744e-42 4.329e-42 -2.794e-42 -3.66e-42
0000b0 ba 69 a3 a0 63 0e 65 bd 91 0f 00 00 71 24 00 00
       -2.7683238e-19 -0.055921923 5.584e-42 1.3073e-41
0000c0 fd 1a 00 00 2d 27 ce bb 18 0b 00 00 9c 03 00 80
       9.682e-42 -0.006291291 3.98e-42 -1.295e-42
0000d0 62 c4 33 3b ac 0e 00 80 07 1e 00 00 22 54 3f 3b
       0.0027430286 -5.263e-42 1.0772e-41 0.0029194434
0000e0 07 25 00 80 05 14 00 80 81 1a 00 80 df 1c 00 80
       -1.3283e-41 -7.182e-42 -9.508e-42 -1.0357e-41
0000f0 0a 09 00 80 0d 0e 00 80 9b 03 00 80 1e 16 00 80
       -3.243e-42 -5.04e-42 -1.293e-42 -7.934e-42
000100 15 13 00 00 7f 09 00 80 a1 10 00 00 e3 1e 00 80
       6.845e-42 -3.407e-42 5.965e-42 -1.108e-41
000110 c5 26 00 00 e5 11 00 00 53 1b 00 80 86 15 00 00
       1.3908e-41 6.42e-42 -9.802e-42 7.721e-42
000120 10 19 00 80 23 15 00 00 29 23 00 80 a8 24 00 00
       -8.991e-42 7.582e-42 -1.2613e-41 1.315e-41
000130 ae 1e 00 00 4e 12 00 80 c0 06 00 80 b0 0a 00 80
       1.1006e-41 -6.566e-42 -2.421e-42 -3.834e-42
000140 7e 22 00 80 de 05 00 80 94 14 00 80 fe 02 00 80
       -1.2373e-41 -2.105e-42 -7.382e-42 -1.073e-42
000150 d3 01 00 80 10 1e 00 00 3f 0c 00 80 22 1d 00 00
       -6.54e-43 1.0784e-41 -4.393e-42 1.0451e-41
000160 8a 1f 00 80 6a 21 00 80 cd 14 00 00 9b 1b 00 00
       -1.1314e-41 -1.1987e-41 7.462e-42 9.903e-42
000170 21 16 00 80 20 0b 00 80 c3 02 00 80 34 11 00 80
       -7.938e-42 -3.991e-42 -9.91e-43 -6.171e-42
000180 0e 14 00 80 d5 10 00 00 c0 23 00 00 5d 21 00 00
       -7.194e-42 6.038e-42 1.2825e-41 1.1968e-41
000190 70 16 00 80 6b 03 00 00 8a 0c 00 80 25 1a 00 00
       -8.049e-42 1.226e-42 -4.498e-42 9.379e-42
0001a0 a5 18 00 80 64 18 00 80 f1 00 00 00 01 26 00 80
       -8.841e-42 -8.75e-42 3.38e-43 -1.3633e-41
0001b0 1f 25 00 00 db 16 00 80 0f 0b 00 80 a1 19 00 00
       1.3317e-41 -8.199e-42 -3.967e-42 9.194e-42
0001c0 2b 02 00 80 08 17 00 80 56 14 00 00 76 1c 00 00
       -7.78e-43 -8.262e-42 7.295e-42 1.021e-41
0001d0 1a 00 00 80 79 26 00 80 ba 07 00 00 59 19 00 80
       -3.6e-44 -1.3801e-41 2.772e-42 -9.093e-42
0001e0 77 0e 00 00 64 23 00 80 7c 0d 00 00 ee 00 00 00
       5.189e-42 -1.2696e-41 4.837e-42 3.34e-43
0001f0 88 07 00 80 91 0f 00 80 bc 12 00 80 c4 22 00 80
       -2.702e-42 -5.584e-42 -6.72e-42 -1.2472e-41
000200 bf 16 00 80 8e 21 00 80 de 15 00 80 68 11 00 80
       -8.16e-42 -1.2037e-41 -7.844e-42 -6.244e-42
000210 4f 1c 00 80 8e 22 00 00 09 14 00 80 85 11 00 00
       -1.0155e-41 1.2396e-41 -7.187e-42 6.285e-42
000220 4c 0f 00 80 7d 1f 00 80 b7 18 00 80 97 10 00 80
       -5.487e-42 -1.1296e-41 -8.866e-42 -5.951e-42
000230 14 00 00 80 32 15 00 80 c4 1c 00 80 21 23 00 80
       -2.8e-44 -7.603e-42 -1.0319e-41 -1.2602e-41
000240 87 0c 00 80 5b 13 00 80 78 16 00 80 38 24 00 80
       -4.494e-42 -6.943e-42 -8.06e-42 -1.2993e-41
000250 da 22 00 80 74 17 00 80 69 0b 00 80 f7 22 00 80
       -1.2502e-41 -8.413e-42 -4.093e-42 -1.2543e-41
000260 f9 20 00 00 56 06 00 80 77 12 00 00 fa 19 00 00
       1.1828e-41 -2.273e-42 6.624e-42 9.319e-42
000270 30 1c 00 80 db 25 00 80 77 22 00 00 57 0c 00 00
       -1.0112e-41 -1.358e-41 1.2364e-41 4.427e-42
000280 3a 11 00 80 ab 1d 00 00 c4 23 00 80 4d 0e 00 00
       -6.18e-42 1.0643e-41 -1.283e-41 5.13e-42
000290 ea 23 00 80 ff 06 00 80 9d 25 00 80 dc 0c 00 80
       -1.2884e-41 -2.51e-42 -1.3493e-41 -4.613e-42
0002a0 22 0f 00 80 95 06 00 00 6b 17 00 00 90 0b 00 00
       -5.429e-42 2.361e-42 8.401e-42 4.148e-42
0002b0 0b 21 00 80 b3 01 00 00 ed 0e 00 80 7e 1e 00 00
       -1.1854e-41 6.1e-43 -5.354e-42 1.0939e-41
0002c0 ae 0a 00 80 9b 23 00 00 98 07 00 80 da 06 00 80
       -3.831e-42 1.2773e-41 -2.724e-42 -2.458e-42
0002d0 64 09 00 80 0d 22 00 80 22 1e 00 80 9e 1d 00 80
       -3.369e-42 -1.2215e-41 -1.081e-41 -1.0625e-41
0002e0 a9 22 00 00 f0 1b 00 00 5a 09 00 80 24 24 00 00
       1.2434e-41 1.0022e-41 -3.355e-42 1.2965e-41
0002f0 61 12 00 00 08 19 00 80 8d 1f 00 00 c4 12 00 00
       6.593e-42 -8.98e-42 1.1318e-41 6.732e-42
000300 15 11 00 80 cd 16 00 80 6f 02 00 80 8e 0e 00 80
       -6.128e-42 -8.18e-42 -8.73e-43 -5.221e-42
000310 ac 0d 00 80 9f 20 00 00 3f 0d 00 80 c3 0a 00 00
       -4.905e-42 1.1702e-41 -4.752e-42 3.86e-42
000320 dd 1f 00 00 b3 1b 00 00 06 c6 31 3d 9c 24 00 80
       1.143e-41 9.937e-42 0.04340174 -1.3133e-41
000330 11 19 00 80 0b b2 dd 3c 36 23 00 80 0c 1e 00 00
       -8.992e-42 0.027062437 -1.2631e-41 1.0779e-41
000340 33 1d 00 00 15 a0 6b 3a df 60 15 3c 25 10 00 80
       1.0475e-41 0.00089883927 0.009117334 -5.792e-42
000350 52 20 00 00 39 23 00 80 6d fb 16 3c de 3b be 3a
       1.1594e-41 -1.2636e-41 0.009215218 0.0014513691
000360 27 0e 00 80 35 08 00 80 f5 1d 00 80 7b 0d 00 00
       -5.077e-42 -2.944e-42 -1.0747e-41 4.836e-42
000370 5e 23 00 80 77 1f 00 80 f8 0d 00 00 8a 17 00 00
       -1.2687e-41 -1.1287e-41 5.011e-42 8.444e-42
000380 11 18 20 3c 84 02 00 80 69 15 00 00 55 0e 00 80
       0.009771363 -9.02e-43 7.68e-42 -5.141e-42
000390 6a 25 00 80 bb 12 00 80 6f 6e 44 3d 52 1a 00 00
       -1.3422e-41 -6.719e-42 0.04795688 9.442e-42
0003a0 c5 1d 00 80 2e 26 00 80 7c 1d 00 00 d7 06 00 00
       -1.0679e-41 -1.3696e-41 1.0577e-41 2.454e-42
0003b0 d7 5d 00 00 ca ad b1 3c d8 26 00 00 dc 14 00 80
       3.3663e-41 0.021689314 1.3935e-41 -7.483e-42
0003c0 e3 21 00 00 e9 a9 90 3c 48 10 00 80 b0 0f 00 80
       1.2156e-41 0.017659144 -5.84e-42 -5.628e-42
0003d0 a0 73 36 3c 0d 26 00 00 39 26 00 80 d3 76 72 3d
       0.011135966 1.365e-41 -1.3712e-41 0.05919535
0003e0 55 09 00 80 bd 25 00 80 6e 0b 00 80 3a 0e 00 00
       -3.348e-42 -1.3538e-41 -4.1e-42 5.104e-42
0003f0 31 0a 00 00 35 23 00 80 64 21 00 80 e0 21 00 80
       3.656e-42 -1.263e-41 -1.1978e-41 -1.2152e-41

linear3.bias f4 [32]
000000 1d 78 16 bd 56 0d 00 80 df 13 00 80 53 4f 00 3d
       -0.036735643 -4.784e-42 -7.128e-42 0.03132565
000010 c3 07 00 80 d9 e7 9e 33 8e 12 b9 bb 5b 3d 7b 3e
       -2.784e-42 7.399621e-08 -0.005647964 0.24535124
000020 e2 67 b0 3b a4 9c 87 bd 8b 39 e4 3e 6e 1f 00 80
       0.0053834775 -0.06621674 0.44575152 -1.1275e-41
000030 5c 02 29 3e d6 3b 50 3f e2 ac 31 3f 10 77 57 3e
       0.16504806 0.813413 0.69404423 0.21041512
000040 e5 71 b1 3e 72 25 00 80 98 32 49 be 62 26 00 80
       0.34657207 -1.3433e-41 -0.19648206 -1.3769e-41
000050 bc c9 36 b5 3f 8b e0 3c 60 08 c0 3c 46 96 10 3f
       -6.8093846e-07 0.027410148 0.023441494 0.564793
000060 15 dc 08 b9 12 c4 91 3d ea a8 b8 b9 5f 23 00 80
       -0.00013051958 0.071174756 -0.00035221066 -1.2689e-41
000070 41 6e 2a 3f 29 6b 46 bb a1 1e 29 80 fa 49 a9 9e
       0.66574484 -0.0030276275 -3.776243e-39 -1.7924167e-20

linear4.weight f4 [64, 96]
000000 7d 0e 00 80 76 18 00 00 e1 03 00 00 c0 3f 03 b2
       -5.197e-42 8.775e-42 1.391e-42 -7.639699e-09
000010 0c 16 00 00 6f aa 45 b9 37 d5 60 39 9c 28 13 3a
       7.909e-42 -0.00018850875 0.00021441733 0.0005613656
000020 0d fe ea 35 18 54 53 3a 4e ff ca 37 17 12 00 00
       1.7508297e-06 0.0008061542 2.4199162e-05 6.49e-42
000030 f6 89 69 3a e7 2e 97 37 3e b2 be 39 26 de 17 3a
       0.00089088024 1.8022443e-05 0.00036372425 0.00057932956
000040 4b a6 99 3a b0 0d 00 80 a4 f1 c0 39 7f 01 00 00
       0.0011722533 -4.91e-42 0.0003680113 5.37e-43
000050 6c f1 3e 39 af 9b 38 37 89 12 b6 36 17 f8 f8 37
       0.00018209749 1.1003503e-05 5.4261805e-06 2.967943e-05
000060 9a 51 4e b9 2e d5 49 3a 5c 54 3f 39 f0 04 00 80
       -0.0001967609 0.0007699308 0.00018246606 -1.771e-42
000070 64 e3 1a 38 07 cc 0f af 3d 1a 00 80 ce 0a 00 80
       3.6928235e-05 -1.307826e-10 -9.413e-42 -3.876e-42
000080 e6 80 fa aa de 0c 00 80 9b 06 00 80 56 3e d1 b1
       -4.4498362e-13 -4.616e-42 -2.37e-42 -6.0897873e-09
000090 a3 13 00 80 06 e4 68 b9 ea 0c 00 80 e2 73 af ba
       -7.044e-42 -0.0002221019 -4.633e-42 -0.0013385976
0000a0 a7 1c f8 b8 63 4e 8f b7 92 30 e9 39 e1 03 00 00
       -0.000118308984 -1.708343e-05 0.0004447741 1.391e-42
0000b0 eb d2 91 ba f6 99 7f 3a 6e a2 1f ba e6 b7 05 bb
       -0.001112548 0.000975042 -0.00060895726 -0.0020403801
0000c0 65 ce 86 ba 52 16 00 80 ce 23 02 b9 17 12 00 80
       -0.0010284899 -8.007e-42 -0.00012411104 -6.49e-42
0000d0 56 9d 70 b9 38 a8 b2 b6 85 18 d0 b8 8d 30 aa 39
       -0.00022946796 -5.3243966e-06 -9.92278e-05 0.000324611
0000e0 8a 92 85 b8 9a 5a 5a ba d2 92 38 39 e1 03 00 00
       -6.369229e-05 -0.0008329541 0.00017602302 1.391e-42
0000f0 c2 43 32 3a e0 6a 20 ba df 1a 00 80 e7 10 00 80
       0.0006800258 -0.0006119441 -9.64e-42 -6.063e-42
000100 0d f8 07 b6 fe 06 00 00 f0 04 00 00 32 80 93 b3
       -2.0260952e-06 2.508e-42 1.771e-42 -6.8685395e-08
000110 7f 01 00 00 2c 8f 34 b9 87 12 00 80 1c 1c 3c bc
       5.37e-43 -0.00017219473 -6.646e-42 -0.011481311
000120 96 f6 48 ba 60 6b e4 ae 0c fc 40 3a 0c 16 00 00
       -0.00076661387 -1.0387313e-10 0.00073617767 7.909e-42
000130 43 21 8d b8 cb 63 24 3b 4e 9a 81 b9 79 6e dc bb
       -6.7295994e-05 0.0025083895 -0.00024719763 -0.0067270366
000140 3d 9a f1 bb c8 21 00 00 82 2d c7 b4 e1 03 00 80
       -0.007373123 1.2118e-41 -3.709975e-07 -1.391e-42
000150 04 a8 2a 32 2b fb 11 ba a3 39 2c ba 40 89 fe 39
       9.933505e-09 -0.0005568738 -0.0006569868 0.00048548914
000160 18 eb 4b 32 04 44 00 b8 52 8b 29 b9 7f 01 00 00
       1.1869609e-08 -3.0580923e-05 -0.00016168997 5.37e-43
000170 6b 95 85 3a 1f 37 36 bb 84 24 00 80 b6 1a 00 80
       0.0010191625 -0.002780385 -1.31e-41 -9.582e-42
000180 f5 07 00 80 f9 03 00 00 84 1d 00 00 84 16 52 b7
       -2.854e-42 1.425e-42 1.0588e-41 -1.2522218e-05
000190 37 07 00 00 d3 05 00 00 e0 22 4c 39 49 54 b1 30
       2.588e-42 2.09e-42 0.00019467948 1.29024e-09
0001a0 31 cb 22 b7 94 c4 62 32 36 1e 54 b8 17 12 00 80
       -9.703262e-06 1.3199628e-08 -5.0572875e-05 -6.49e-42
0001b0 02 4e a7 32 29 ea d0 b9 5a 3b 1f 33 df 6b 81 31
       1.9476833e-08 -0.00039847314 3.7074052e-08 3.7666577e-09
0001c0 b1 0c 3e 32 55 0e 00 00 ea 1d 3d 32 c7 0e 00 80
       1.1062341e-08 5.141e-42 1.100805e-08 -5.301e-42
0001d0 02 9f 01 3a 57 be 81 28 ff 9d 44 b7 de f2 0a b9
       0.00049446535 1.4404424e-14 -1.1719297e-05 -0.0001325118
0001e0 a8 5e 42 b9 57 d3 96 32 1d 1d 00 00 33 01 00 00
       -0.00018536544 1.7558405e-08 1.0444e-41 4.3e-43
0001f0 e3 1a 5c b9 0e d4 e8 38 ac 17 00 80 8f 01 00 00
       -0.00020990851 0.0001110212 -8.492e-42 5.59e-43
000200 f9 0a 00 80 40 02 00 80 e3 23 00 00 3a 5b 1b b7
       -3.936e-42 -8.07e-43 1.2874e-41 -9.25996e-06
000210 50 14 00 80 3e 5d 07 a0 1e 93 63 39 a3 21 bd b8
       -7.287e-42 -1.1465796e-19 0.00021703212 -9.0184876e-05
000220 05 b9 22 37 04 67 98 b8 e7 42 71 b9 a3 13 00 80
       9.699031e-06 -7.267113e-05 -0.00023008474 -7.044e-42
000230 19 99 7c ae 28 88 c7 b9 d1 b0 19 2c 60 b4 6b b6
       -5.7434144e-11 -0.00038057682 2.184076e-12 -3.512272e-06
000240 c6 46 e2 b7 2f 0c 00 00 1a 83 8c b7 49 1d 00 80
       -2.6974256e-05 4.37e-42 -1.675035e-05 -1.0506e-41
000250 0e 45 76 b9 2f a2 aa 32 90 14 52 39 06 0e 52 b9
       -0.00023486113 1.9864357e-08 0.00020034821 -0.00020032385
000260 f4 f2 94 39 20 a5 c5 af a3 25 00 80 7a 0d 00 80
       0.00028409774 -3.595142e-10 -1.3502e-41 -4.834e-42
000270 d2 50 db b9 f1 91 b2 2f 5b 1f 00 00 81 09 00 80
       -0.0004183115 3.248171e-10 1.1248e-41 -3.41e-42
000280 bb 48 47 9f 6e 01 00 00 7b 17 00 00 4d e9 fd b6
       -4.220005e-20 5.13e-43 8.423e-42 -7.5671473e-06
000290 95 0a 00 80 dc e8 b7 97 1c 55 35 b9 8d d7 ec b9
       -3.796e-42 -1.188488e-24 -0.00017293211 -0.00045174026
0002a0 f1 53 04 37 da d4 a9 b9 4f 6d 6b 39 a3 13 00 00
       7.887357e-06 -0.0003239278 0.00022452067 7.044e-42
0002b0 9a 4e 08 ad 72 51 60 2f 50 99 0d 2e 34 fb 30 b9
       -7.748158e-12 2.0401617e-10 3.2195857e-11 -0.00016878248
0002c0 21 ee aa b9 35 1b 00 00 c2 c2 5a b9 78 19 00 80
       -0.00032602347 9.76e-42 -0.00020862653 -9.136e-42
0002d0 71 df 42 b9 79 21 dc b4 67 78 6d 39 c3 c7 19 b9
       -0.0001858452 -4.1002548e-07 0.00022646935 -0.00014665634
0002e0 47 dc 8a 30 a1 82 2d ae 45 1a 00 80 ad 0c 00 00
       1.0103428e-09 -3.9451668e-11 -9.424e-42 4.547e-42
0002f0 97 0e 46 38 3e 3a bb b6 9e 1d 00 80 33 0c 00 00
       4.7220467e-05 -5.5798146e-06 -1.0625e-41 4.376e-42
000300 ee 07 00 00 73 07 00 00 e9 12 00 00 39 1d fc 38
       2.845e-42 2.672e-42 6.784e-42 0.000120217395
000310 1d 0f 00 80 99 04 00 00 65 de 53 39 a0 76 ab 3b
       -5.422e-42 1.65e-42 0.00020205376 0.005232647
000320 33 29 23 39 a7 90 c0 b9 48 09 a7 ba a3 13 00 00
       0.00015560239 -0.00036728868 -0.0012743855 7.044e-42
000330 a6 a5 30 ba 78 db 3f bb b1 fa 8c bb e6 69 91 3b
       -0.0006738551 -0.00292751 -0.0043023457 0.004437673
000340 ad 7c e4 3b ff 03 00 00 df 89 09 ba 1b 0b 00 80
       0.0069728703 1.434e-42 -0.00052466796 -3.984e-42
000350 2a 4a 92 b8 18 21 b9 b7 7a 63 17 38 93 9b f6 ba
       -6.975637e-05 -2.2069129e-05 3.609385e-05 -0.0018814675
000360 d5 f1 90 39 6a 04 1f ba 2a 1b 00 00 af 00 00 80
       0.00027646 -0.00060660264 9.745e-42 -2.45e-43
000370 59 4b 0f bb b9 27 a4 37 76 16 00 00 94 0a 00 80
       -0.002186498 1.956882e-05 8.057e-42 -3.795e-42
000380 6d 16 aa 32 1a 09 00 00 18 23 00 00 0b d6 00 ba
       1.9800803e-08 3.265e-42 1.2589e-41 -0.00049147074
000390 b3 06 00 00 ae 81 84 2a dd 5b 65 32 83 13 be 3c
       2.403e-42 2.3537894e-13 1.3350442e-08 0.023202663
0003a0 90 2b fe b8 22 02 3e 3b ec a4 d9 38 f0 04 00 00
       -0.00012119778 0.002899297 0.000103780854 1.771e-42
0003b0 75 df 4a 3b 80 78 0a bb cc fa 30 3b ae 66 22 3c
       0.0030955945 -0.0021128953 0.0027004955 0.009912176
0003c0 8b a7 bc 3c 6a 19 00 80 83 11 9d 3b 69 06 00 80
       0.02302911 -9.117e-42 0.0047933473 -2.3e-42
0003d0 3b 03 a8 b2 11 ce 44 ba 37 cd a4 b9 ad 16 15 ba
       -1.9559243e-08 -0.0007507513 -0.00031433415 -0.0005687278
0003e0 cf 32 52 b3 a8 8f 82 3b e4 21 00 80 7a 1c 00 00
       -4.8940645e-08 0.0039844103 -1.2158e-41 1.0215e-41
0003f0 df 98 8e b9 70 71 e7 39 26 1f 00 00 93 17 00 80
       -0.00027198248 0.0004414427 1.1174e-41 -8.457e-42

linear4.bias f4 [64]
000000 98 12 36 3a 3a 8c 27 33 d8 b5 ec ba 25 23 00 80
       0.00069455197 3.9010253e-08 -0.0018059565 -1.2607e-41
000010 74 28 39 b9 cf 5c 72 3c 89 50 77 bc 25 ae 5c 3b
       -0.00017658045 0.014792635 -0.015094885 0.0033673134
000020 8c 7e 0c 35 e9 47 69 b8 e8 46 68 b8 17 10 00 80
       5.2338214e-07 -5.56185e-05 -5.5379147e-05 -5.772e-42
000030 7f 05 25 3c e1 be 8d 3b c1 60 99 3b a9 70 cb bb
       0.010072111 0.004325733 0.0046807234 -0.0062084985
000040 09 86 26 36 19 f0 17 39 f1 1f 00 80 22 e4 6c 38
       2.4813946e-06 0.00014489926 -1.1458e-41 5.647925e-05
000050 fa 8d bc b9 30 34 9e 35 be cb c1 3d ee 23 03 3e
       -0.00035963935 1.1787106e-06 0.09462689 0.12806675
000060 2a 93 e1 3b 0a ea a6 be 3d 99 00 3c cd c2 77 bd
       0.0068839984 -0.32600433 0.007849035 -0.06048851
000070 65 a2 a3 3c 06 1f 00 80 c0 6f af 3a 3d b4 a8 34
       0.019974897 -1.1129e-41 0.0013384745 3.142358e-07
000080 32 1c 5a b8 8e 7b 9f bd 85 25 dd 3e 3b b8 7a b0
       -5.200151e-05 -0.07787238 0.43192688 -9.121128e-10
000090 77 72 e4 bd f3 3a a9 38 11 bf 56 b8 9d 67 89 ba
       -0.11154645 8.069528e-05 -5.119952e-05 -0.001048315
0000a0 72 4e 50 3b 5c 18 85 b9 fc c8 10 3c fc 33 5f 3a
       0.0031785038 -0.00025385886 0.008836981 0.0008514521
0000b0 15 44 ba be 75 41 45 3b 83 9f 65 3e 1a 5e da 3a
       -0.36380067 0.003009883 0.2242413 0.0016660125
0000c0 58 2f fa b9 29 9f 21 bc 49 d8 23 3c a4 e4 59 bb
       -0.0004771899 -0.009864607 0.010000297 -0.0033247853
0000d0 56 75 bd 3d 6c 6c d3 bd d7 1e ba 3d d5 ce 19 b8
       0.09250896 -0.10323414 0.090879135 -3.667067e-05
0000e0 2f 14 00 80 8d 6f 6b 3d ee 14 00 80 9f 1e 00 80
       -7.24e-42 0.05747943 -7.508e-42 -1.0985e-41
0000f0 ba fe b7 38 d2 6e ba be b9 ca 74 3d ad b8 43 37
       8.7735665e-05 -0.36412674 0.059763644 1.1665904e-05

linear5.weight f4 [16, 64]
000000 f7 22 00 80 4a 57 3e b9 bc 4d f8 ad 7c 04 00 00
       -1.2543e-41 -0.0001815233 -2.8228857e-11 1.609e-42
000010 99 1d 00 00 9d a5 40 b9 43 df 14 a9 cd e1 ae ae
       1.0618e-41 -0.00018372243 -3.305625e-14 -7.952714e-11
000020 b2 1c 00 00 73 04 00 00 21 b5 2c 38 60 09 00 00
       1.0294e-41 1.596e-42 4.1176685e-05 3.363e-42
000030 7f e5 2d b5 91 9f e8 b5 f4 c1 91 a8 80 18 35 b4
       -6.4781483e-07 -1.7331787e-06 -1.6182348e-14 -1.6865852e-07
000040 0d e9 0c b9 99 14 00 00 e9 22 00 00 4e f3 42 39
       -0.00013438259 7.389e-42 1.2523e-41 0.0001859192
000050 68 9d 08 b5 29 23 00 80 fc 38 ae ba 6a b6 f1 ba
       -5.0893004e-07 -1.2613e-41 -0.0013292129 -0.0018441204
000060 b1 7c 49 ad 45 bb 97 36 0a 10 ab ac c6 9f 19 ba
       -1.1453214e-11 4.5219517e-06 -4.861893e-12 -0.0005860295
000070 fd 24 34 b9 b6 1c 00 80 94 0c 00 00 f7 dc 0e 39
       -0.00017179917 -1.03e-41 4.512e-42 0.00013624491
000080 05 d4 8f 0d 59 17 91 ba 6a cf a0 b2 c9 13 00 00
       8.864097e-31 -0.001106958 -1.8720772e-08 7.098e-42
000090 8f ee ac ba bb 1a 00 00 a7 1f 4d 39 ae c6 31 39
       -0.0013193655 9.589e-42 0.00019562115 0.0001695405
0000a0 2a d4 9f a9 8f 3e 4c 98 a2 d1 a7 b7 29 08 00 00
       -7.097823e-14 -2.6397966e-24 -2.000557e-05 2.927e-42
0000b0 aa aa 00 38 02 36 0e 99 54 fa 3e b9 ff e1 ec 92
       3.067652e-05 -7.352135e-24 -0.00018213067 -1.4949406e-27
0000c0 81 08 00 80 71 31 00 00 1a ab 8d b0 13 13 00 80
       -3.05e-42 1.7736e-41 -1.030773e-09 -6.843e-42
0000d0 4a ab c1 ba ee 8a ac ba e0 9d 50 ba 38 03 00 00
       -0.001477578 -0.0013163963 -0.00079580955 1.155e-42
0000e0 84 09 00 80 21 5a 61 ba 34 18 00 80 de 1b 00 00
       -3.414e-42 -0.0008596499 -8.682e-42 9.997e-42
0000f0 9f 4a 99 18 1c 70 a5 38 40 51 03 b9 00 be 45 37
       3.962492e-24 7.888695e-05 -0.00012523402 1.1786353e-05
000100 e9 83 af 36 e4 f4 01 33 b5 fe 11 38 27 13 00 00
       5.230763e-06 3.025788e-08 3.480791e-05 6.87e-42
000110 14 a9 3d ac bb eb 0f 3b 38 54 0e 3b de 8e 0e 3b
       -2.6952373e-12 0.0021960575 0.0021717679 0.0021752636
000120 fc 99 07 38 e6 81 cb 38 b7 0d db b2 80 25 00 00
       3.2329917e-05 9.70399e-05 -2.5501192e-08 1.3452e-41
000130 9f d4 e9 3a fc 86 10 3a fd f7 dd b9 70 13 47 3a
       0.0017839855 0.00055132783 -0.0004233717 0.0007594144
000140 30 8d 9e b2 f4 51 1a 38 6f 23 00 80 76 a7 28 39
       -1.8457825e-08 3.6792786e-05 -1.2711e-41 0.00016084113
000150 1f 22 18 37 0c f0 15 34 46 ac e5 38 c1 22 10 3a
       9.06785e-06 1.3964035e-07 0.00010951659 0.0005498343
000160 10 fa 41 3a 6c 44 52 3b 05 b9 f2 39 d0 16 3a bb
       0.0007399628 0.003208424 0.00046295687 -0.0028394945
000170 14 16 3d b9 37 0a 00 00 0d cf ae b4 49 a2 0e b6
       -0.0001803267 3.664e-42 -3.2560675e-07 -2.1254111e-06
000180 e0 dc f5 b4 71 cf 8e ba a0 e1 53 3d f1 53 00 80
       -4.5795514e-07 -0.0010895563 0.051728845 -3.0113e-41
000190 1b 76 88 bb a8 fc 80 37 b3 04 15 b5 a9 69 17 af
       -0.00416447 1.5376441e-05 -5.5513664e-07 -1.3770908e-10
0001a0 2b 7c 2c 3a e1 16 8f b7 88 4f dc b8 ba b2 59 39
       0.0006579782 -1.7057582e-05 -0.00010505231 0.00020761313
0001b0 3a a4 2f 3b 10 62 65 39 8d 4d 6f 3c 7f 49 bf 38
       0.0026800768 0.00021875673 0.014605892 9.1212794e-05
0001c0 74 9e c4 38 e5 a0 c1 39 5f 89 bc 38 63 75 83 b8
       9.3755225e-05 0.00036931704 8.990126e-05 -6.268432e-05
0001d0 6f cd d2 3b c2 f1 b6 bb 2b 54 9a bb 19 60 a9 ab
       0.006433181 -0.005583019 -0.0047097406 -1.2034845e-12
0001e0 c3 04 00 00 76 b6 61 3b 3e 22 00 00 db 23 00 80
       1.708e-42 0.003444103 1.2284e-41 -1.2863e-41
0001f0 64 32 29 39 ad 14 15 3b 86 c9 b7 3b e8 73 8f 36
       0.00016135868 0.002274792 0.0056087403 4.2752254e-06
000200 07 72 8a 3a cb 75 a3 36 a3 b1 aa 3b 92 01 00 00
       0.0010562547 4.8714915e-06 0.005209164 5.63e-43
000210 e0 5d 8c 3a ed 0d c6 3d 48 ae 2c ba 8d 11 a5 3c
       0.0010709129 0.09670625 -0.0006587249 0.02014997
000220 fa 92 2c b6 04 cf 13 3b 90 e0 71 ba be 1c 00 80
       -2.571555e-06 0.002255381 -0.0009226883 -1.0311e-41
000230 0b 4d 40 3c 5f 80 2a bc d3 6e 01 3c 73 6c 38 bc
       0.0117371185 -0.010406583 0.007899958 -0.011256325
000240 2c 45 b4 b6 6b 37 9a 3b 73 0c 00 00 8e 17 16 39
       -5.3724707e-06 0.0047063134 4.466e-42 0.0001431389
000250 2c cf 4d bb 41 a4 20 37 9a 09 cc 3e e4 78 14 3f
       -0.0031404002 9.5749865e-06 0.39851075 0.57996964
000260 e4 9d 39 bc 54 54 cb be 7e 16 da 3c d6 fe 82 3e
       -0.011329148 -0.39712775 0.026622053 0.2558505
000270 24 0e 20 bb f4 12 00 00 af d3 fb 3b 4e b8 a0 36
       -0.002442249 6.799e-42 0.0076851468 4.7898275e-06
000280 29 96 06 bb 88 4b 70 be 4d 8c ac ba 8f ec 45 38
       -0.002053628 -0.23466313 -0.0013164371 4.7188772e-05
000290 67 6e 8b be 82 7b 24 39 ff f7 99 ba d3 dc 2f ba
       -0.27232668 0.00015686269 -0.0011746882 -0.00067086256
0002a0 94 b2 66 3c cb 49 ab 3a a1 4d fd 3b 14 fd 09 3b
       0.014080662 0.0013068257 0.0077302014 0.0021055387
0002b0 ec cf 0d bf cf 4c 8e bb b3 cd 79 3c b7 8e c5 3b
       -0.5539539 -0.0043426524 0.015246796 0.006028976
0002c0 62 8e 07 39 42 00 82 3b 8c 97 41 3c c4 2f 4b bd
       0.00012927645 0.003967316 0.011815917 -0.0496061
0002d0 ee c5 9f be 14 bd 8f 3d c5 9a 0e 3f ab 26 b2 b8
       -0.31205696 0.07018486 0.5570491 -8.494904e-05
0002e0 1f 0a 00 80 27 f2 7e 3d c5 24 00 80 28 23 00 80
       -3.631e-42 0.062242653 -1.319e-41 -1.2612e-41
0002f0 c8 37 3c bc f5 74 09 bf 21 5e a5 3d f5 84 45 38
       -0.011487909 -0.5369409 0.08074594 4.7092286e-05
000300 57 18 b7 39 48 ea e3 36 7f 4a fd bb 69 20 00 00
       0.00034922615 6.792401e-06 -0.007729828 1.1627e-41
000310 7b b7 12 39 68 2b c3 3c 46 2d 2e 3c 9a 9a 94 3d
       0.00013991997 0.023824409 0.010630911 0.072560504
000320 81 54 82 37 76 2f 77 3b 9c e0 ce 3a 3a 24 00 00
       1.5536558e-05 0.0037717498 0.0015783492 1.2996e-41
000330 01 fe 55 3d d8 43 2f 3d eb 7c c3 3c 29 8f 9f ba
       0.05224419 0.04278931 0.023863276 -0.0012173402
000340 e3 d5 1d 3a d4 4f 6a 3a bc 1d 00 80 b5 42 48 39
       0.00060209463 0.0008938287 -1.0667e-41 0.00019098337
000350 8e ea 3b ba cd 5c a4 b6 f0 cc 06 3d d5 06 ca 3c
       -0.0007168435 -4.8983843e-06 0.032910287 0.02466146
000360 30 22 4e 3d 13 cf c0 ba 42 8b 9c 3c cb d2 22 be
       0.050325572 -0.001471015 0.019109372 -0.15900724
000370 29 e5 01 3d 9b 15 00 00 d8 76 5e ba bb 51 23 36
       0.031712685 7.75e-42 -0.0008486337 2.4336466e-06
000380 b4 53 02 bb bf 89 1e be f3 f8 a3 3f 6f bd 47 39
       -0.0019886317 -0.15482233 1.2810348 0.00019048688
000390 09 ae 51 be b8 46 cd 39 ae 9e 92 37 87 73 5d 31
       -0.20476545 0.00039153337 1.7478447e-05 3.2225402e-09
0003a0 05 a9 62 3c 98 84 92 3b 75 3a 12 bd 89 e6 e9 3a
       0.013834243 0.004471373 -0.03570028 0.0017845194
0003b0 cb 4f d4 bc ad 15 9b b8 8e b6 0a 3f 9b fb 9c 3c
       -0.025916955 -7.3950134e-05 0.54184806 0.019162944
0003c0 30 0a 51 3c 40 0b 8b 3c 4f 91 04 3d d2 74 3d 3b
       0.012758777 0.016973138 0.03236514 0.0028908742
0003d0 79 bb 8e 3e d6 b0 98 be 2e 08 89 be ac f0 94 3a
       0.27877405 -0.29822415 -0.26764053 0.001136323
0003e0 08 1d 00 00 cd f4 00 bd ca 0e 00 00 e5 1a 00 80
       1.0414e-41 -0.03148346 5.305e-42 -9.648e-42
0003f0 e4 77 7c 3c 6f e4 cf bc 2b 5c a2 3d bb 5d f7 37
       0.0154094435 -0.02537748 0.07927736 2.9488341e-05

linear5.bias f4 [16]
000000 4f b7 96 b9 4e d5 00 3c 9f 5b c9 3e a8 f5 b6 3e
       -0.00028746805 0.007863356 0.39327714 0.35734296
000010 a0 18 00 80 f3 76 20 3b 72 8f 21 be 68 59 d9 3c
       -8.834e-42 0.0024484962 -0.15777376 0.02653189
000020 8b f9 c9 bd 3d 4b 07 3c 20 6a 79 ba 38 d1 e1 3d
       -0.0986205 0.008257684 -0.000951441 0.110262334
000030 02 ec c2 ba 11 0d 00 80 e1 8a 8b ba 59 22 00 80
       -0.0014871361 -4.687e-42 -0.0010646248 -1.2322e-41

linear6.weight f4 [4, 16]
000000 d1 91 18 3b b1 1a 64 bc 1b a1 53 bf b4 a6 ac be
       0.0023280273 -0.013922379 -0.826677 -0.33720934
000010 e9 11 00 00 69 de 01 be 89 68 f0 3e ce 63 07 3f
       6.425e-42 -0.12682499 0.46954754 0.52886665
000020 21 c1 47 3d 9f a7 bb bb 13 4b cf bb 5c 57 ae bd
       0.048768166 -0.005726769 -0.006326088 -0.08512756
000030 48 90 d2 3c 2a 1d 00 00 30 47 1d 3b 82 26 00 00
       0.025703564 1.0462e-41 0.002399873 1.3814e-41
000040 57 f3 ff 3a 25 60 bb bb cf db 22 be fe 82 c1 be
       0.0019527477 -0.0057182484 -0.15904163 -0.37795252
000050 4e 14 00 00 ca 24 15 3f e3 f3 53 bd cd bb 17 bf
       7.284e-42 0.5825926 -0.05174626 -0.59270936
000060 b6 d8 48 3f 21 f5 5a 3a 54 98 9c 3b 02 57 24 be
       0.78455675 0.0008352567 0.004778901 -0.16048816
000070 5a 52 aa bb 71 1d 00 80 b7 1e df bb 74 12 00 00
       -0.0051978054 -1.0562e-41 -0.0068090814 6.62e-42
000080 36 41 8e b4 04 48 41 3d 6f 35 9b 3e 74 39 71 3f
       -2.6497008e-07 0.04718782 0.30314204 0.9422829
000090 f1 1a 00 00 9f f8 3d bf 1a 10 44 3e a9 92 a3 be
       9.665e-42 -0.7420749 0.19146767 -0.3194783
0000a0 c6 2d c4 bc 22 7f de 3c 8f b3 b8 3b 8f b7 b5 3e
       -0.023947608 0.027160231 0.0056366394 0.35491607
0000b0 5b 18 67 bc cb 1a 00 00 75 1b 3e 3b 03 09 00 00
       -0.014104928 9.612e-42 0.0029008065 3.233e-42
0000c0 b1 fb 0f bb 7a f9 da bb fd 9b 25 3f 2c 0e dd be
       -0.0021970088 -0.006682572 0.64691144 -0.43174875
0000d0 e3 17 00 00 9f 05 a8 3e 13 8b eb be 3c 0d 20 3f
       8.569e-42 0.3281679 -0.46004543 0.62520194
0000e0 fd 37 35 bf 0e a9 56 bd 5b d9 11 3a 3a 78 16 be
       -0.70788556 -0.052407317 0.00055636995 -0.146943
0000f0 c1 05 b1 3c ca 08 00 00 af 66 43 3c 90 23 00 00
       0.021609189 3.153e-42 0.011926337 1.2757e-41

linear6.bias f4 [4]
000000 7e 0a 39 be 51 00 f1 bd c4 12 94 3e 67 7e 11 3e
       -0.18070409 -0.117676385 0.28920567 0.14208375
