checkpoints/dnn_9.pt (torch, 257573 bytes, 12 tensors)

linear1.weight f4 [128, 358]
-0.000103812774 0.0002669659 0.0025755598 0.0022780127 -0.0029590053 -0.0028840678 -0.01377364 -0.017263874
-0.013062252 -0.00254701 -0.0031731436 -0.0046084137 0.000781622 0.00024382625 -0.0017581811 -0.00070832105
-0.0012238739 0.0017975058 0.002982276 0.00064434536 -0.00038186216 0.0027954446 0.00031076578 0.00036915977
-0.0020604492 0.0010642324 -0.0008253665 0.0007183214 0.0023679826 0.013827889 -0.002755256 -0.0014108864
-0.0032424727 -0.0017880754 0.00054374983 -0.012101868 0.011022729 0.0014457766 -0.0032553428 0.0055037104
-0.005634115 0.0007818893 0.0011011652 0.003407791 0.0053141895 0.0006951226 0.0010557987 0.0068854517
-0.0007257037 0.0023281814 -0.010233388 0.0013110914 0.0027235756 0.012941841 0.0054196077 0.0030208384
0.005081496 0.005801705 0.00518079 0.0037305057 0.006345314 0.0035791744 0.002779124 0.0006554683
-0.0017514426 0.0055669895 0.005573387 0.004104714 0.00323145 -0.0030130625 -0.0018267991 -0.0015578609
-3.0986936e-05 0.0031769199 -0.00014004736 -0.0001480624 0.00038360112 0.00042970164 -0.0011896633 -0.0018027276
0.00012939615 -0.0018175739 0.0009962624 0.0016704332 0.0013439715 0.0013965697 0.0016335278 0.0013358718
0.0012938028 0.0022014403 0.0009556686 0.00040514517 -0.004926261 0.007791122 -0.0040883734 0.0144161135
0.01287722 0.008767957 0.008748829 0.0007506451 0.00046353147 -0.016825756 -0.0010524434 0.012946888
0.0095302705 0.008062041 0.0151162585 -0.01515128 0.010589623 -0.011987191 0.00988846 -0.010046713
-5.2669606e-05 0.0039588134 0.0042690723 -0.014322482 0.0040002214 0.0025376661 0.004606802 0.001881633
-0.012281942 -0.009175144 -0.01737443 -0.008835051 -0.0076707196 0.008039973 0.008055456 -0.0067736693
-0.00525445 -0.0035702104 -0.004640158 -0.0025598167 -0.0024130119 -0.0003407723 -0.002191811 -0.0020710765
-0.0018068887 0.0005086539 0.0007019299 0.00092046853 -0.0014938544 0.0012128548 0.00093481294 0.0034457764
0.004194722 0.0052188905 0.0031244953 -0.0050440077 -0.004819306 0.004226668 -0.005608992 -0.0045201634
0.0012449549 0.00016640301 -0.002827767 0.005059272 0.0043947008 -0.0040512825 -0.015519627 -0.0035351207
-0.0047181053 0.0007430778 -0.0029018207 -0.0013138691 -0.001137237 -0.0011199838 -0.0015654672 -0.0015997223
-0.00063216366 -0.00055480277 -0.0030225178 0.0005074546 -0.0010679619 -0.0012904587 0.0011621777 -2.6725007e-05
-0.00029575633 -0.0013680768 0.0014110305 -0.003954398 -0.0019403852 -0.0006606697 -0.00016201817 -0.0028385413
0.00025818645 -0.0024337033 -0.00024318138 0.0002300044 -0.00011202235 -0.021843366 0.013142391 -0.0004654456
0.00020550891 -0.00013162917 7.347765e-06 0.0014966741 -0.00014937429 -0.000117362695 -2.1070287e-05 0.00029004292
2.6561413e-05 0.00067066733 0.00031566463 5.7656714e-05 4.7739264e-05 -0.00010956846 3.350653e-05 9.866603e-07
-7.01887e-05 4.325481e-06 3.0024007e-06 -6.3313706e-07 -0.00029566616 7.6772756e-07 0.011296005 0.013273678
2.1109647e-05 -7.6851927e-07 -2.2967619e-05 0.0001291817 -4.7667677e-06 -0.028356932 0.00021529608 -9.526864e-05
-3.4217733e-06 -0.0058793197 3.0820922e-06 9.02175e-05 0.0055717616 -0.0049169655 0.012709024 8.134079e-07
-0.00024843265 0.00022118412 -4.7957612e-05 -0.00020679492 2.6099212e-06 0.00023646232 0.00036746595 -0.00021423736
0.0007587143 -0.00067762536 0.00074794196 -0.0002186133 0.0003695259 -0.0005473486 1.2175876e-05 -0.00057749765
0.00044557825 -0.0003954476 0.00023618 -0.0002473601 -0.0011793282 0.00042227525 -0.0012399168 -0.00046692605
00000000: 0fb6 d9b8 8ef7 8b39 b9ca 283b b64a 153b
00000010: dfeb 41bb a102 3dbb d5aa 61bc f86c 8dbc
00000020: 0e03 56bc bdeb 26bb 84f4 4fbb 2d02 97bb
00000030: c4e5 4c3a 9cab 7f39 c572 e6ba 9fae 39ba
00000040: 656a a0ba 499a eb3a 4a72 433b 49e9 283a
00000050: ac34 c8b9 c733 373b 47ee a239 c98b c139
00000060: 9a08 07bb b77d 8b3a 685d 58ba bc4d 3c3a
00000070: 2830 1b3b 5f8e 623c 8691 34bb 7eed b8ba
00000080: aa7f 54bb db5d eaba 6f8a 0e3a ea46 46bc
00000090: ad98 343c 3680 bd3a 9757 55bb 7858 b43b
000000a0: 629e b8bb b4f7 4c3a f954 903a 3f55 5f3b
000000b0: a722 ae3b e338 363a ba62 8a3a 5b9f e13b
000000c0: 273d 3eba 6794 183b f1a9 27bc edd8 ab3a
000000d0: 047e 323b 040a 543c f796 b13b 42f9 453b
000000e0: ae82 a63b 3b1c be3b 9ec3 a93b 807b 743b
000000f0: 5aec cf3b 9590 6a3b f721 363b bcd3 2b3a
00000100: a990 e5ba 4b6b b63b f5a0 b63b d680 863b
00000110: bcc6 533b cd76 45bb 3571 efba 2331 ccba
00000120: f8f7 01b8 df33 503b add9 12b9 3341 1bb9
00000130: 121e c939 9449 e139 7aee 9bba 8049 ecba
00000140: 84ae 0739 a93b eeba 0595 823a 70f2 da3a
00000150: 3328 b03a 1a0d b73a 191c d63a 6b18 af3a
00000160: d194 a93a 0a46 103b d685 7a3a aa69 d439
00000170: 796c a1bb ab4c ff3b c3f7 85bb 9031 6c3c
00000180: fafa 523c 7aa7 0f3c 4057 0f3c f1c6 443a
00000190: 2406 f339 2bd6 89bc 24f2 89ba 2f1f 543c
000001a0: da24 1c3c a716 043c 2faa 773c 133d 78bc
000001b0: 1980 2d3c ec65 44bc 3503 223c f89a 24bc
000001c0: 8fe9 5cb8 efb8 813b 93e3 8b3b d8a8 6abc
000001d0: 4a14 833b f94e 263b a8f4 963b 20a1 f63a
000001e0: 333a 49bc 5853 16bc d254 8ebc e4c0 10bc
000001f0: a95a fbbb 17ba 033c 08fb 033c a8f5 ddbb
00000200: 852d acbb 31fa 69bb 770c 98bb 99c2 27bb
00000210: 9f23 1ebb afa9 b2b9 7da4 0fbb e6ba 07bb
00000220: 20d5 ecba 2f57 053a b801 383a 994b 713a
00000230: 70cd c3ba a7f8 9e3a 3c0e 753a 89d2 613b
00000240: e173 893b 3a03 ab3b 55c4 4c3b 3448 a5bb
00000250: 45eb 9dbb dc7f 8a3b a3cb b7bb e11d 94bb
00000260: c12d a33a 787c 2e39 0f52 39bb 40c8 a53b
00000270: 6c01 903b 9fc0 84bb 0946 7ebc 7cad 67bb
00000280: 569a 9abb 1bcb 423a 792c 3ebb 2236 acba
00000290: 570f 95ba 6ccc 92ba 5d30 cdba c6ad d1ba
000002a0: c9b7 25ba 2f70 11ba 6f15 46bb b406 053a
000002b0: dbfa 8bba 9c24 a9ba 3654 983a 842f e0b7
000002c0: be0f 9bb9 0a51 b3ba 54f2 b83a e593 81bb
000002d0: 8654 feba cb30 2dba 6ce3 29b9 d206 3abb
000002e0: 335d 8739 c47e 1fbb 81fe 7eb9 562d 7139
000002f0: 8bed eab8 dcf0 b2bc 2f53 573c 0d07 f4b9
00000300: e17d 5739 f005 0ab9 d28c f636 0d2c c43a
00000310: 5ba1 1cb9 9e20 f6b8 19c0 b0b7 e710 9839
00000320: 33d0 de37 b9cf 2f3a ca7f a539 6dd4 7138
00000330: a53b 4838 1ec8 e5b8 5d89 0c38 646d 8435
00000340: 4532 93b8 9923 9136 da7c 4936 d9f4 29b5
00000350: a403 9bb9 d615 4e35 e112 393c d779 593c
00000360: 9f14 b137 3e4c 4eb5 96aa c0b7 f374 0739
00000370: 39f2 9fb6 cc4c e8bc 1ac1 6139 f6ca c7b8
00000380: 9ea1 65b6 4fa7 c0bb f1d5 4e36 2733 bd38
00000390: 5393 b63b 7f1e a1bb 8339 503c f758 5a35
000003a0: 1140 82b9 a9ed 6739 1826 49b8 17d7 58b9
000003b0: 1b26 2f36 dff2 7739 72a8 c039 e7a4 60b9
000003c0: 74e4 463a aba2 31ba 8911 443a 903b 65b9
000003d0: edbc c139 f17b 0fba fd46 4c37 3663 17ba
000003e0: 809c e939 1454 cfb9 16a7 7739 1cb0 81b9
000003f0: b093 9aba d364 dd39 b484 a2ba c1cd f4b9

linear1.bias f4 [128]
-0.031067481 -0.026562613 -0.008992913 -0.02795535 0.0010679652 0.023074647 -0.0129932845 -0.02132568
0.002762514 -0.033700712 0.03281216 -0.030433683 -0.01855516 -0.029644882 0.022840824 0.04703995
-0.011811465 0.039438095 0.03992347 -0.01005165 -0.016812889 -0.026649477 -0.031697966 -0.023646537
-0.016510366 -0.014049877 -0.005595731 -0.010595615 -0.014179557 0.19070709 -0.025725687 0.04023988
0.044573322 -0.00488986 -0.07061268 -0.0054706545 -0.00055744854 -0.014763329 0.0031229663 -0.0035750116
-0.0074275164 -0.0083698565 -0.0063596815 -0.024762044 -0.033910666 -0.027453152 -0.0072899596 -0.01502769
-0.02725119 -0.022908378 -0.007767393 -0.0033380722 -0.033086408 -0.036239438 -0.020666251 -0.00029860545
0.019867232 -0.0031106079 -0.019185495 0.0035206508 0.0123135615 0.011745823 -0.012351848 0.21916349
-0.0057773655 0.008557278 0.0051884446 0.039736245 -0.01327926 -0.008552308 -0.012185249 -0.0053310976
0.07401987 -0.008699109 -0.046916597 0.014086496 0.012821262 -0.006788397 -0.009359743 -0.03225527
-0.009799563 -0.014878229 0.01521337 0.00032742994 0.016074188 -0.0060469215 -0.0040127942 -0.00509444
0.003439066 -0.021919744 0.00868328 -0.006651015 0.013517415 -0.029310951 -0.008963582 0.040250383
-0.027522461 0.024058694 0.03223563 -0.0068659163 0.05950415 0.010840433 -0.011124894 0.03841095
-0.04332292 -0.031451717 0.039716095 -0.009563136 -0.019271985 -0.006479438 0.064403914 -0.005880288
0.011874212 -0.011279851 -0.08039662 -0.0056563467 -0.0043489556 0.03620388 -0.009507544 0.008923314
-0.013759709 -0.011635494 -0.0176572 -0.012919154 -0.017556021 -0.023968762 -0.031165138 0.0027007824
00000000: 3b81 febc d699 d9bc 0357 13bc 9e02 e5bc
00000010: f7fa 8b3a 0b07 bd3c c9e1 54bc 31b3 aebc
00000020: 4b0b 353b c209 0abd 0b66 063d 0f50 f9bc
00000030: fe00 98bc d3d9 f2bc ae1c bb3c f6ac 403d
00000040: e084 41bc d789 213d cb86 233d adaf 24bc
00000050: 2fbb 89bc 0150 dabc bad5 01bd 62b6 c1bc
00000060: bf40 87bc 7531 66bc 655c b7bb 3b99 2dbc
00000070: 5f51 68bc b848 433e adbe d2bc 93d2 243d
00000080: 8492 363d 1e3b a0bb 619d 90bd 2d43 b3bb
00000090: bd21 12ba e4e1 71bc aeaa 4c3b be4a 6abb
000000a0: 8662 f3bb b921 09bc e064 d0bb c5d9 cabc
000000b0: e9e5 0abd 6fe5 e0bc 9de0 eebb b336 76bc
000000c0: e33d dfbc 5aaa bbbc 9d85 febb 8fc3 5abb
000000d0: 9d85 07bd ce6f 14bd 454c a9bc 258e 9cb9
000000e0: 9bc0 a23c 57db 4bbb e62a 9dbc b8ba 663b
000000f0: d2be 493c 8d71 403c 685f 4abc 656c 603e
00000100: 0e50 bdbb d333 0c3c d403 aa3b 79c2 223d
00000110: 4191 59bc fb1e 0cbc a3a4 47bc 7db0 aebb
00000120: bb97 973d b586 0ebc 9e2b 40bd 0ccb 663c
00000130: 4510 523c 3471 debb 9c59 19bc 1a1e 04bd
00000140: 598e 20bc d1c3 73bc 8041 793c e7aa ab39
00000150: 04ae 833c 4125 c6bb c27d 83bb 43ef a6bb
00000160: f461 613b 0991 b3bc 5144 0e3c c2f0 d9bb
00000170: 2678 5d3c 851d f0bc fddb 12bc 96dd 243d
00000180: c976 e1bc bd16 c53c 8209 043d 7bfb e0bb
00000190: a0ba 733d 129c 313c 3045 36bc cd54 1d3d
000001a0: 6073 31bd 84d3 00bd 58ad 223d b3ae 1cbc
000001b0: 48e0 9dbc 7751 d4bb 33e6 833d 6eaf c0bb
000001c0: 0e8c 423c 20cf 38bc fca6 a4bd e058 b9bb
000001d0: af81 8ebb 854a 143d 88c5 1bbc 1733 123c
000001e0: 6770 61bc cda2 3ebc d5a5 90bc dcaa 53bc
000001f0: a5d1 8fbc 235a c4bc 084e ffbc 9cff 303b

linear2.weight f4 [64, 128]
-8.81e-42 -1.0534e-41 -8.933e-42 -6.247e-42 -8.984e-42 -3.62e-42 -1.174e-41 -1.2546e-41
-1.3792e-41 -1.2305e-41 1.2212e-41 -1.2801e-41 -1.1998e-41 -2.929e-42 -1.3678e-41 -3.443e-42
-1.2666e-41 -5.758e-42 -1.3614e-41 1.3796e-41 -6.788e-42 -1.31e-41 -1.2488e-41 -1.539e-42
-1.38e-41 -1.3003e-41 3.953e-42 5.96e-42 -3.181e-42 -4.877e-42 -6.883e-42 -1.119e-41
-1.3797e-41 1.2941e-41 -6.341e-42 -1.0068e-41 -6.495e-42 -5.807e-42 -4.186e-42 -1.853e-42
-1.3876e-41 -9.973e-42 -1.1273e-41 -1.2427e-41 -6.337e-42 -4.42e-42 -3.548e-42 -1.0322e-41
-1.3567e-41 -5.431e-42 -1.0122e-41 -1.1222e-41 -7.497e-42 -9.548e-42 -9.35e-42 -1.2275e-41
-1.0399e-41 -1.193e-41 -1.2994e-41 -7.305e-42 -5.335e-42 -9.679e-42 -1.3255e-41 -9.505e-42
-1.1671e-41 -4.26e-42 -1.0323e-41 -7.191e-42 -1.2592e-41 -4.781e-42 -1.1607e-41 -1.2847e-41
-8.252e-42 -1.2041e-41 -6.744e-42 -9.264e-42 -2.162e-42 -5.626e-42 -1.1272e-41 -1.2144e-41
-1.2519e-41 -1.0475e-41 -5.727e-42 -2.661e-42 6.026e-42 -8.517e-42 -3.145e-42 -1.3939e-41
9.187e-42 -1.274e-41 -3.544e-42 -2.24e-42 -7.985e-42 -1.139e-41 -5.085e-42 -6.488e-42
-1.0676e-41 -6.978e-42 -1.0992e-41 -1.2347e-41 -8.394e-42 -2.54e-42 -9.293e-42 -4.647e-42
-4.495e-42 1.2343e-41 -4.019e-42 -6.97e-42 -1.3514e-41 -9.703e-42 -1.1718e-41 -8.448e-42
-1.2882e-41 -5.752e-42 -2.873e-42 -4.07e-42 -1.1023e-41 2.426e-42 -1.0773e-41 5.047e-42
-9.698e-42 -1.2738e-41 -6.327e-42 -7.191e-42 4.528e-42 -2.853e-42 -5.454e-42 -1.3209e-41
-7.501e-42 -5.651e-42 -3.77e-43 -1.1869e-41 -4.596e-42 -9.803e-42 -7.96e-42 -1.293e-41
-1.3223e-41 -7.179e-42 -1.0077e-41 -7.629e-42 -7.042e-42 -1.1681e-41 -1.2072e-41 3.252e-42
-2.096e-42 -9.2e-43 -1.0882e-41 -3.224e-42 -1.0838e-41 1.3301e-41 -4.274e-42 -5.349e-42
-1.331e-41 -7.32e-42 -1.1898e-41 -1.746e-42 -1.2732e-41 -3.505e-42 -1.0707e-41 -3.419e-42
-9.432e-42 -1.0346e-41 -1.1482e-41 -1.2511e-41 -7.47e-42 -1.3266e-41 5.965e-42 -1.1733e-41
1.031e-42 -2.318e-42 -1.3377e-41 -7.051e-42 -8.032e-42 -2.8e-44 -3.311e-42 1.27e-42
-1.121e-41 -7.585e-42 -5.063e-42 -1.098e-41 -3.601e-42 -4.693e-42 -1.1063e-41 -1.1705e-41
6.346e-42 -6.858e-42 -2.437e-42 -5.014e-42 -5.713e-42 -1.1048e-41 -6.089e-42 -5.066e-42
-1.1407e-41 -7.013e-42 -1.0409e-41 -6.227e-42 -8.724e-42 -4.132e-42 -5.611e-42 -9.471e-42
-8.55e-43 -1.1495e-41 -1.0564e-41 -3.088e-42 -9e-42 -1.1534e-41 -9.607e-42 -7.947e-42
-7.986e-42 -6.756e-42 6.318e-42 1.3018e-41 -1.698e-42 -4.959e-42 -8.995e-42 -1.2018e-41
-8.464e-42 -9.003e-42 -9.111e-42 -8.629e-42 -7.002e-42 -5.479e-42 -8.474e-42 -6.516e-42
-1.1732e-41 -2.3e-42 -9.958e-42 -4.563e-42 -6.985e-42 -9.417e-42 4.557e-42 -8.646e-42
2.124e-42 -3.946e-42 -4.578e-42 -2.946e-42 -3.648e-42 -6.579e-42 -4.982e-42 -8.89e-42
-4.8e-44 -4.948e-42 -1.0647e-41 6.079e-42 -4.465e-42 -4.801e-42 -1.235e-41 -7.124e-42
-1.1939e-41 -5.44e-42 -1.0015e-41 6.544e-42 -9.659e-42 -3.896e-42 1.1464e-41 -1.3574e-41
00000000: 8f18 0080 5d1d 0080 e718 0080 6a11 0080
00000010: 0b19 0080 170a 0080 ba20 0080 f922 0080
00000020: 7226 0080 4d22 0080 0b22 0000 af23 0080
00000030: 7221 0080 2a08 0080 2126 0080 9909 0080
00000040: 4f23 0080 0d10 0080 f325 0080 7526 0000
00000050: ec12 0080 8424 0080 d022 0080 4a04 0080
00000060: 7826 0080 3f24 0080 050b 0000 9d10 0000
00000070: de08 0080 980d 0080 3013 0080 311f 0080
00000080: 7626 0080 1324 0000 ad11 0080 111c 0080
00000090: 1b12 0080 3010 0080 ab0b 0080 2a05 0080
000000a0: ae26 0080 cd1b 0080 6d1f 0080 a422 0080
000000b0: aa11 0080 520c 0080 e409 0080 c61c 0080
000000c0: d225 0080 240f 0080 371c 0080 481f 0080
000000d0: e614 0080 9e1a 0080 101a 0080 3822 0080
000000e0: fd1c 0080 4221 0080 3924 0080 5d14 0080
000000f0: df0e 0080 fb1a 0080 f324 0080 7f1a 0080
00000100: 8920 0080 e00b 0080 c71c 0080 0c14 0080
00000110: 1a23 0080 540d 0080 5b20 0080 d023 0080
00000120: 0117 0080 9121 0080 cd12 0080 d319 0080
00000130: 0706 0080 af0f 0080 6c1f 0080 da21 0080
00000140: e622 0080 331d 0080 f70f 0080 6b07 0080
00000150: cc10 0000 be17 0080 c408 0080 db26 0080
00000160: 9c19 0000 8423 0080 e109 0080 3f06 0080
00000170: 4216 0080 c01f 0080 2d0e 0080 1612 0080
00000180: c31d 0080 7413 0080 a41e 0080 6b22 0080
00000190: 6617 0080 1507 0080 e819 0080 f40c 0080
000001a0: 880c 0080 6822 0000 340b 0080 6e13 0080
000001b0: ac25 0080 0c1b 0080 aa20 0080 8d17 0080
000001c0: e923 0080 0910 0080 0208 0080 580b 0080
000001d0: ba1e 0080 c306 0000 081e 0080 120e 0000
000001e0: 091b 0080 8223 0080 a311 0080 0c14 0080
000001f0: 9f0c 0000 f407 0080 340f 0080 d224 0080
00000200: e914 0080 c10f 0080 0d01 0080 1621 0080
00000210: d00c 0080 541b 0080 3016 0080 0b24 0080
00000220: dc24 0080 0314 0080 171c 0080 4415 0080
00000230: a113 0080 9020 0080 a721 0080 1109 0000
00000240: d805 0080 9102 0080 561e 0080 fd08 0080
00000250: 361e 0080 1425 0000 ea0b 0080 e90e 0080
00000260: 1a25 0080 6814 0080 2b21 0080 de04 0080
00000270: 7e23 0080 c509 0080 d91d 0080 8809 0080
00000280: 4b1a 0080 d71c 0080 0220 0080 e022 0080
00000290: d314 0080 fb24 0080 a110 0000 b520 0080
000002a0: e002 0000 7606 0080 4a25 0080 a813 0080
000002b0: 6416 0080 1400 0080 3b09 0080 8a03 0000
000002c0: 401f 0080 2515 0080 1d0e 0080 9c1e 0080
000002d0: 0a0a 0080 150d 0080 d71e 0080 a120 0080
000002e0: b111 0000 1e13 0080 cb06 0080 fa0d 0080
000002f0: ed0f 0080 cc1e 0080 f910 0080 1f0e 0080
00000300: cc1f 0080 8d13 0080 041d 0080 5c11 0080
00000310: 5218 0080 850b 0080 a40f 0080 671a 0080
00000320: 6202 0080 0b20 0080 731d 0080 9c08 0080
00000330: 1719 0080 2720 0080 c81a 0080 2716 0080
00000340: 4316 0080 d512 0080 9d11 0000 4a24 0000
00000350: bc04 0080 d30d 0080 1319 0080 8021 0080
00000360: 9817 0080 1919 0080 6619 0080 0e18 0080
00000370: 8513 0080 460f 0080 9f17 0080 2a12 0080
00000380: b420 0080 6906 0080 c21b 0080 b80c 0080
00000390: 7913 0080 401a 0080 b40c 0000 1a18 0080
000003a0: ec05 0000 000b 0080 c30c 0080 3608 0080
000003b0: 2b0a 0080 5712 0080 e30d 0080 c818 0080
000003c0: 2200 0080 cb0d 0080 ae1d 0080 f210 0000
000003d0: 720c 0080 620d 0080 6d22 0080 dc13 0080
000003e0: 4821 0080 2a0f 0080 eb1b 0080 3e12 0000
000003f0: ed1a 0080 dc0a 0080 f51f 0000 d725 0080

linear2.bias f4 [64]
-2.653e-42 -1.1961e-41 -7.284e-42 -8.911e-42 -1.3486e-41 -1.0707e-41 -5.942e-42 -9.474e-42
-3.139e-42 -1.1541e-41 -1.2456e-41 -0.024878671 -2.971e-42 -6.512e-42 -1.363e-41 -2.894e-42
-1.2693e-41 -1.116e-41 -1.2947e-41 -1.1112e-41 -6.439e-42 -7.358e-42 -2.193e-42 0.566313
-1.2364e-41 -6.359e-42 0.28228137 -1.3898e-41 -8.318e-42 -9.513e-42 -9.127e-42 -0.0661919
-8.224e-42 -8.476e-42 -1.1557e-41 0.39348978 -1.3951e-41 -9.501e-42 -1.3925e-41 -3.1e-42
-1.1283e-41 -0.020007394 -5.783e-42 0.53378063 0.25493836 -9.036e-42 -1.0063e-41 -1.3325e-41
-9.71e-42 -2.887e-42 -5.68e-42 0.5307183 -7.622e-42 -1.0497e-41 -5.109e-42 -1.3843e-41
-9.703e-42 -0.024725812 -1.0955e-41 -1.1702e-41 -5.29e-42 -1.3954e-41 -1.3542e-41 -1.3562e-41
00000000: 6507 0080 5821 0080 4e14 0080 d718 0080
00000010: 9825 0080 d91d 0080 9010 0080 691a 0080
00000020: c008 0080 2c20 0080 b922 0080 5bce cbbc
00000030: 4808 0080 2712 0080 ff25 0080 1108 0080
00000040: 6223 0080 1c1f 0080 1724 0080 fa1e 0080
00000050: f311 0080 8314 0080 1d06 0080 e4f9 103f
00000060: 7722 0080 ba11 0080 2f87 903e be26 0080
00000070: 3017 0080 851a 0080 7119 0080 9e8f 87bd
00000080: ed16 0080 a117 0080 3720 0080 7e77 c93e
00000090: e426 0080 7c1a 0080 d126 0080 a408 0080
000000a0: 741f 0080 8ce6 a3bc 1f10 0080 d9a5 083f
000000b0: 4887 823e 3019 0080 0d1c 0080 2525 0080
000000c0: 111b 0080 0c08 0080 d50f 0080 28dd 073f
000000d0: 3f15 0080 431d 0080 3e0e 0080 9726 0080
000000e0: 0c1b 0080 c98d cabc 8a1e 0080 9f20 0080
000000f0: bf0e 0080 e626 0080 c025 0080 ce25 0080

linear3.weight f4 [32, 64]
2.043e-42 -3.949e-42 1.0501e-41 -1.1594e-41 -3.66e-42 -1.2757e-41 -6.181e-42 6.691e-42
9.763e-42 -1.2647e-41 1.0444e-41 -0.017706253 -4.459e-42 -7.07e-42 -1.3635e-41 1.2514e-41
-1.1552e-41 1.0658e-41 -1.208e-41 -1.0485e-41 -6.128e-42 7.626e-42 2.095e-42 -0.22941488
1.0714e-41 -2.822e-42 0.11015384 -6.255e-42 -5.356e-42 -5.436e-42 -1.1087e-41 -0.029386649
-1.0943e-41 -7.06e-43 -1.169e-41 -0.36842194 -1.1124e-41 -3.36e-42 -3.227e-42 -7.322e-42
-3.562e-42 0.0016631822 -7.81e-42 0.6405818 -0.010837836 7.503e-42 1.2467e-41 1.2351e-41
4.95e-42 -7.126e-42 -8.806e-42 0.59510773 -2.88e-42 -9.635e-42 1.0937e-41 6.359e-42
-7.128e-42 0.011751572 -7.913e-42 -5.165e-42 -1.058e-42 4.941e-42 -1.057e-41 -4.07e-42
-1.3797e-41 -7.776e-42 -7.752e-42 -5.752e-42 -5.651e-42 9.38e-42 -7.416e-42 -1.3616e-41
7.236e-42 -9.249e-42 -1.1461e-41 -9.052e-42 3.234e-42 6.523e-42 -6.627e-42 -3.105e-42
3.613e-42 -7.128e-42 -3.362e-42 -1.2273e-41 -1.235e-41 -1.144e-41 -4.781e-42 -4.539e-42
1.0116e-41 -1.0755e-41 -6.915e-42 -9.139e-42 -5.541e-42 5.455e-42 -1.2526e-41 -9.171e-42
-9.366e-42 -1.0483e-41 -6.396e-42 -5.26e-42 -5.546e-42 -6.391e-42 -3.963e-42 2.409e-42
-1.1332e-41 2.441e-42 1.0431e-41 -2.843e-42 -5.259e-42 -7.172e-42 4.644e-42 -2.386e-42
6.976e-42 -2.868e-42 -4.208e-42 -3.072e-42 -9.747e-42 -4.13e-42 -8.956e-42 -1.0416e-41
3.408e-42 -5.387e-42 1.268e-42 -7.704e-42 9.648e-42 -3.535e-42 -9.555e-42 -7.295e-42
4.74e-43 4.832e-42 -1.3168e-41 -3.66e-42 -1.1104e-41 -3.234e-42 -6.844e-42 -1.3328e-41
1.2438e-41 9.85e-42 -1.1231e-41 0.002482652 -5.464e-42 -4.252e-42 9.865e-42 2.102e-42
-6.693e-42 -8.231e-42 -9.121e-42 -1.1604e-41 -4.753e-42 -3.21e-42 8.357e-42 0.8501324
-7.547e-42 -3.706e-42 0.22898352 -1.2016e-41 -1.212e-41 5.388e-42 -2.31e-42 0.0910782
-7.421e-42 -1.2365e-41 -1.1933e-41 -0.35997885 -6.795e-42 -5.487e-42 9.963e-42 -1.372e-41
-5.949e-42 -0.0038495255 7.337e-42 -0.4947902 -0.13501297 -1.173e-41 -7.37e-43 -2.259e-42
7.43e-42 -9.628e-42 -1.3329e-41 -0.49527195 -5.842e-42 -1.0269e-41 -8.241e-42 -7.207e-42
3.842e-42 0.033366382 4.878e-42 1.3265e-41 -1.2414e-41 6.809e-42 -6.379e-42 1.2204e-41
3.761e-42 3.053e-42 4.13e-42 -1.2275e-41 1.2665e-41 3.71e-42 -7.957e-42 -6.32e-42
1.3005e-41 -6e-42 6.917e-42 0.035391364 -1.175e-41 1.3647e-41 2.534e-42 -7.626e-42
-5.501e-42 1.1621e-41 -9.4e-42 -1.3563e-41 -4.867e-42 8.116e-42 -6.481e-42 -0.23028126
-1.2481e-41 1.2784e-41 0.08480246 5.84e-42 -7.875e-42 6.599e-42 7.651e-42 0.021648427
-1.067e-41 6.789e-42 1.2575e-41 -0.3533844 -1.0482e-41 1.2846e-41 1.3475e-41 9.558e-42
1.3677e-41 0.08608695 2.119e-42 0.7553197 0.6064448 -7.411e-42 -8.296e-42 -5.84e-42
7.674e-42 -2.092e-42 -2.515e-42 0.72362274 -1.648e-42 -1.318e-41 -1.1555e-41 -9.49e-42
1.3182e-41 0.12646492 6.054e-42 -1.627e-42 -3.143e-42 1.1894e-41 -1.041e-41 1.2025e-41
00000000: b205 0000 020b 0080 461d 0000 5220 0080
00000010: 340a 0080 9023 0080 3b11 0080 a712 0000
00000020: 371b 0000 4123 0080 1d1d 0000 b40c 91bc
00000030: 6e0c 0080 b513 0080 0226 0080 e222 0000
00000040: 3420 0080 b61d 0000 ad21 0080 3a1d 0080
00000050: 1511 0080 4215 0000 d705 0000 bceb 6abe
00000060: de1d 0000 de07 0080 5698 e13d 7011 0080
00000070: ee0e 0080 270f 0080 e81e 0080 45bc f0bc
00000080: 811e 0080 f801 0080 9620 0080 cda1 bcbe
00000090: 021f 0080 5e09 0080 ff08 0080 6914 0080
000000a0: ee09 0080 22ff d93a c515 0080 2bfd 233f
000000b0: 2e91 31bc ea14 0000 c122 0000 6e22 0000
000000c0: cc0d 0000 dd13 0080 8c18 0080 fb58 183f
000000d0: 0708 0080 dc1a 0080 7d1e 0000 ba11 0000
000000e0: df13 0080 aa89 403c 0f16 0080 660e 0080
000000f0: f302 0080 c60d 0000 771d 0080 580b 0080
00000100: 7626 0080 ad15 0080 9c15 0080 0910 0080
00000110: c10f 0080 261a 0000 ac14 0080 f525 0080
00000120: 2c14 0000 c819 0080 f31f 0080 3c19 0080
00000130: 0409 0000 2f12 0000 7912 0080 a808 0080
00000140: 120a 0000 df13 0080 5f09 0080 3622 0080
00000150: 6d22 0080 e41f 0080 540d 0080 a70c 0080
00000160: 331c 0000 fb1d 0080 4713 0080 7a19 0080
00000170: 720f 0080 350f 0000 eb22 0080 9119 0080
00000180: 1c1a 0080 391d 0080 d411 0080 aa0e 0080
00000190: 760f 0080 d111 0080 0c0b 0080 b706 0000
000001a0: 971f 0080 ce06 0000 141d 0000 ed07 0080
000001b0: a90e 0080 fe13 0080 f20c 0000 a706 0080
000001c0: 7213 0000 ff07 0080 bb0b 0080 9008 0080
000001d0: 2c1b 0080 830b 0080 f718 0080 091d 0080
000001e0: 8009 0000 040f 0080 8903 0000 7a15 0080
000001f0: e51a 0000 db09 0080 a31a 0080 5614 0080
00000200: 5201 0000 780d 0000 b524 0080 340a 0080
00000210: f41e 0080 0409 0080 1413 0080 2725 0080
00000220: ac22 0000 751b 0000 4f1f 0080 fdb3 223b
00000230: 3b0f 0080 da0b 0080 801b 0000 dc05 0000
00000240: a812 0080 f216 0080 6d19 0080 5920 0080
00000250: 400d 0080 f308 0080 4c17 0000 47a2 593f
00000260: 0a15 0080 550a 0080 a87a 6a3e 7f21 0080
00000270: c921 0080 050f 0000 7006 0080 3587 ba3d
00000280: b014 0080 7822 0080 4421 0080 264f b8be
00000290: f112 0080 4c0f 0080 c61b 0000 3f26 0080
000002a0: 9510 0080 5248 7cbb 7414 0000 2455 fdbe
000002b0: d740 0abe b320 0080 0e02 0080 4c06 0080
000002c0: b614 0000 d71a 0080 2825 0080 4994 fdbe
000002d0: 4910 0080 a01c 0080 f916 0080 1714 0080
000002e0: b60a 0000 30ab 083d 990d 0000 fa24 0000
000002f0: 9b22 0080 fb12 0000 c811 0080 0522 0000
00000300: 7c0a 0000 8308 0000 830b 0000 3822 0080
00000310: 4e23 0000 580a 0000 2e16 0080 9e11 0080
00000320: 4124 0000 ba10 0080 4813 0000 89f6 103d
00000330: c120 0080 0b26 0000 1007 0000 4215 0080
00000340: 560f 0080 6520 0000 341a 0080 cf25 0080
00000350: 910d 0080 a016 0000 1112 0080 dace 6bbe
00000360: cb22 0080 a323 0000 eaac ad3d 4810 0000
00000370: f415 0080 6512 0000 5415 0000 0b58 b13c
00000380: be1d 0080 ed12 0000 0e23 0000 cdee b4be
00000390: 381d 0080 cf23 0000 9025 0000 a51a 0000
000003a0: 2026 0000 5b4e b03d e805 0000 a25c 413f
000003b0: f73f 1b3f a914 0080 2017 0080 4810 0080
000003c0: 6415 0000 d505 0080 0307 0080 573f 393f
000003d0: 9804 0080 be24 0080 3620 0080 741a 0080
000003e0: bf24 0000 0580 013e e010 0000 8904 0080
000003f0: c308 0080 2821 0000 051d 0080 8521 0000

linear3.bias f4 [32]
0.32897922 -1.1938e-41 0.55417067 0.33045602 -1.2651e-41 0.3364026 0.47828054 -8.415e-42
-5.727e-42 0.46784434 0.37749344 -7.173043e-05 0.45949504 -1.2815e-41 0.44392857 -5.294e-42
-8.95e-42 0.45198953 0.57004744 0.4459274 -6.307e-42 -4.054e-42 -7.086e-42 -9.596e-42
0.0042761513 0.32818446 -5.361e-42 -0.03478207 0.49942377 -0.024227872 0.34075075 0.508201
00000000: f76f a83e 4721 0080 21de 0d3f 8831 a93e
00000010: 4423 0080 f63c ac3e 30e1 f43e 7517 0080
00000020: f70f 0080 4b89 ef3e d246 c13e fb6d 96b8
00000030: ef42 eb3e b923 0080 9b4a e33e c20e 0080
00000040: f318 0080 2c6b e73e a1ee 113f 9950 e43e
00000050: 9511 0080 4d0b 0080 c113 0080 c01a 0080
00000060: f51e 8c3b cb07 a83e f20e 0080 a577 0ebd
00000070: 79b4 ff3e 8879 c6bc e276 ae3e 7619 023f

linear4.weight f4 [64, 96]
0.3040255 -9.267e-42 -0.022781305 0.61967206 -1.1013e-41 0.28727785 0.0045851637 -1.2296e-41
1.1524e-41 -0.16242555 -0.17102422 -8.457e-42 -0.16668601 -1.1081e-41 -0.010261294 -8.363e-42
-6.213e-42 -0.12476276 -0.19730209 -0.2007767 -6.963e-42 1.0968e-41 -7.909e-42 -7.43e-42
-0.0004998115 -0.13259466 1.1025e-41 4.487e-42 -0.18192324 -5.545e-42 -0.042395204 0.020943865
-0.005402596 6.223e-42 -0.0052810917 0.070257366 -1.1852e-41 -0.019543113 0.028996574 -9.694e-42
1.0287e-41 0.016302722 0.020162283 -3.336e-42 0.017420445 7.861e-42 0.003971565 -0.0001980087
-2.915e-42 0.022765242 0.01762442 0.022752427 8.001e-42 1.0039e-41 1.771e-42 -8.922e-42
-0.009209461 0.016104752 1.391e-42 0.000696735 0.014535124 -1.1510497e-05 0.013261392 -0.0031942157
-0.00580367 8.048e-42 0.0076120193 0.030564487 -1.1716e-41 -0.006181511 -0.10633155 -4.581e-42
7.004e-42 0.0031881374 0.0035997638 -3.6633966e-35 0.003699494 -1.0975e-41 -0.011726097 -0.0001980087
-3.98e-42 -0.056769095 0.0017628712 -0.04385891 1.0307e-41 4.49e-42 5.37e-43 -1.1422e-41
-0.009289675 0.0026008291 7.044e-42 -0.0012493382 -0.01689059 0.00065683963 -0.054204576 -0.0044558174
-0.005375057 7.693e-42 0.0061474 -0.009990546 1.118e-42 -0.005413911 0.000757108 5.688e-42
-6.684e-42 -0.0015939325 -0.0016632703 9.662e-42 -0.0016631533 6.084e-42 0.0052584736 0.00019801108
3.579e-42 0.0060696187 -0.0021439162 -0.003120959 -3.379e-42 -1.2373e-41 -1.391e-42 1.478e-42
5.684549e-05 -0.0011531665 -7.044e-42 -1.0735e-41 -0.0023017882 -1.463e-42 0.0014366579 0.0025710908
-3.868688e-06 -2.908e-42 -0.006864176 -0.011557572 -6.531e-42 9.625037e-05 -0.0010143968 1.205e-42
-8.705e-42 0.0028696163 0.003312348 -1.249e-41 0.0030439587 -5.799e-42 -0.0064219856 -0.00019800925
6.49e-42 0.005573604 0.003756401 0.00469744 -0.00019800985 -1.2685e-41 -7.909e-42 -1.391e-42
1.0972199e-05 0.0025727907 -2.762e-42 0.00010119038 0.0043646963 2.8938788e-07 0.0027230522 -0.007574165
3.622212e-06 -6.442e-42 -0.0061907833 -0.0068811364 2.42e-43 4.022143e-06 0.005965613 9.061e-42
-3.205e-42 0.0012338177 0.0030773317 -1.1631e-41 0.0016449968 -1.1657e-41 -0.0032996645 -0.00019800985
-3.241e-42 0.022335898 0.0020135972 0.009525448 0.0001980084 2.535e-42 -7.044e-42 5.16e-42
-1.3749911e-05 0.0019504415 1.2166e-41 9.9452234e-05 0.00679093 4.1367393e-06 0.011115114 -0.0057674595
-0.22049649 -9.724e-42 0.44124198 -0.37906855 1.0946e-41 -0.19804466 0.069776125 1.2753e-41
-1.187e-41 0.006147554 0.0063156537 4.434e-42 0.0062294877 6.169e-42 0.399242 -6.796e-42
1.36e-41 0.021951662 0.006574847 -0.007259384 1.3835e-41 -5.16e-42 -1.771e-42 1.759e-42
-2.4434041e-09 0.0057174014 -7.044e-42 2.8e-42 0.0022981314 -6.896e-42 0.013561755 0.24109228
0.0012682127 -1.109e-41 0.061836556 0.22430849 -1.0562e-41 0.021315947 -0.0634985 1.3326e-41
-1.11e-41 -0.0053165145 -0.009561399 1.2361e-41 -0.0064288173 7.86e-42 0.08469759 0.00019800801
6.003e-42 -0.099881396 -0.002543153 -0.09379222 -8.364e-42 -9.794e-42 1.2166e-41 1.3881e-41
0.00568348 -0.005720983 8.219e-42 0.0021848038 -0.012901879 2.3367722e-08 -0.016497167 0.031379823
00000000: 3ba9 9b3e d519 0080 dc9f babc d4a2 1e3f
00000010: b31e 0080 1516 933e 243f 963b 4722 0080
00000020: 2020 0000 e252 26be f920 2fbe 9317 0080
00000030: bdaf 2abe e41e 0080 fd1e 28bc 5017 0080
00000040: 5211 0080 9e83 ffbd 8f09 4abe 6898 4dbe
00000050: 6913 0080 931e 0000 0c16 0080 b614 0080
00000060: c805 03ba e5c6 07be bc1e 0000 820c 0000
00000070: 164a 3abe 750f 0080 98a6 2dbd 7892 ab3c
00000080: 4308 b1bb 5911 0000 020d adbb 18e3 8f3d
00000090: 0a21 0080 e118 a0bc 398a ed3c 061b 0080
000000a0: ad1c 0000 498d 853c 5f2b a53c 4d09 0080
000000b0: 52b5 8e3c ea15 0000 e723 823b 8ea0 4fb9
000000c0: 2008 0080 2c7e ba3c 1661 903c 4c63 ba3c
000000d0: 4e16 0000 fc1b 0000 f004 0000 df18 0080
000000e0: 47e3 16bc 1dee 833c e103 0000 18a5 363a
000000f0: bb24 6e3c 351d 41b7 4f46 593c 0c56 51bb
00000100: b62c bebb 6f16 0000 3f6e f93b 6062 fa3c
00000110: a920 0080 468e cabb 5bc4 d9bd c50c 0080
00000120: 8613 0000 12f0 503b 04ea 6b3b 92c7 4286
00000130: 3673 723b 981e 0080 d11e 40bc 8ea0 4fb9
00000140: 180b 0080 b686 68bd 2410 e73a 67a5 33bd
00000150: bb1c 0000 840c 0000 7f01 0000 d71f 0080
00000160: b933 18bc ac72 2a3b a313 0000 d5c0 a3ba
00000170: 225e 8abc c32f 2c3a 9e05 5ebd 1b02 92bb
00000180: 3f21 b0bb 7215 0000 2170 c93b 63af 23bc
00000190: 1e03 0000 2d67 b1bb a878 463a db0f 0000
000001a0: a212 0080 80eb d0ba 1702 daba ef1a 0000
000001b0: 2afe d9ba f610 0000 464f ac3b 32a1 4f39
000001c0: fa09 0000 a7e3 c63b f280 0cbb 0189 4cbb
000001d0: 6b09 0080 7e22 0080 e103 0080 1f04 0000
000001e0: 616d 6e38 d925 97ba a313 0080 ed1d 0080
000001f0: 99d9 16bb 1404 0080 3d4e bc3a bf7f 283b
00000200: c7cf 81b6 1b08 0080 e2ec e0bb f85b 3dbc
00000210: 3512 0080 06da c938 82f5 84ba 5c03 0000
00000220: 4418 0080 2c10 3c3b fa13 593b d122 0080
00000230: 277d 473b 2a10 0080 856f d2bb b4a0 4fb9
00000240: 1712 0000 c7a2 b63b f32d 763b fcec 993b
00000250: dda0 4fb9 5c23 0080 0c16 0080 e103 0080
00000260: 3c15 3837 449c 283b b307 0080 2c36 d438
00000270: ba05 8f3b 2b5d 9b34 3c75 323b b330 f8bb
00000280: 2115 7336 f511 0080 0edc cabb 287b e1bb
00000290: ad00 0000 f2f5 8636 307b c33b 4219 0000
000002a0: ef08 0080 0db8 a13a 0fad 493b 6c20 0080
000002b0: ef9c d73a 7f20 0080 2f3f 58bb dda0 4fb9
000002c0: 0909 0080 c6f9 b63c 8ef6 033b a010 1c3c
000002d0: 7aa0 4f39 1107 0000 a313 0080 620e 0000
000002e0: 6baf 66b7 f5a5 ff3a ea21 0000 0391 d038
000002f0: 7386 de3b 52ce 8a36 2b1c 363c f5fc bcbb
00000300: d5c9 61be 1b1b 0080 78ea e13e 4615 c2be
00000310: 831e 0000 38cc 4abe c9e6 8e3d 8d23 0000
00000320: 1721 0080 6c71 c93b 8bf3 ce3b 5c0c 0000
00000330: bb20 cc3b 3211 0000 7369 cc3e f212 0080
00000340: e925 0000 f9d3 b33c d071 d73b 20e0 edbb
00000350: 9126 0000 620e 0080 f004 0080 e704 0000
00000360: d2e8 27b1 0a59 bb3b a313 0080 ce07 0000
00000370: 3f9c 163b 3913 0080 2032 5e3c e5e0 763e
00000380: 283a a63a ea1e 0080 5448 7d3d 20b1 653e
00000390: 711d 0080 c89e ae3c 800b 82bd 2625 0000
000003a0: f11e 0080 2836 aebb 6aa7 1cbc 7522 0000
000003b0: d4a8 d2bb e915 0000 ee75 ad3d 5fa0 4f39
000003c0: bc10 0000 9e8e ccbd 07ab 26bb 2316 c0bd
000003d0: 5117 0080 4d1b 0080 ea21 0000 b226 0000
000003e0: 7c3c ba3b 1577 bbbb e916 0000 ed2e 0f3b
000003f0: 6762 53bc 2aba c832 1125 87bc 2188 003d

linear4.bias f4 [64]
0.112650685 -0.0036342237 0.2038933 0.14923508 0.023846658 0.019588033 0.0371661 0.0022038396
0.054715537 -1.2445e-41 0.013406703 0.21658985 0.14578366 0.20978431 -4.32e-42 0.012694139
0.27660218 -1.3307e-41 0.35010135 0.17408909 0.18361667 0.19461313 0.011104093 0.016891617
-0.0002931981 0.2907167 0.05719724 -6.966735e-05 0.0015930273 0.1390395 -0.0921926 0.37814146
0.027676327 0.30269876 -0.0032527975 -0.0010919565 -1.9830437e-05 0.2601072 0.019236805 0.013276531
0.3232371 0.23854145 -5.125e-42 0.17332238 -6.451562e-05 0.28264862 -0.0028673224 0.09182338
0.14517693 -7.735492e-05 0.11661463 0.0071989177 -0.039262503 0.01176903 0.023754863 -5.475076e-07
-8.62e-42 0.0051957355 0.22379072 -0.004376211 0.014765881 -8.172e-42 0.002580919 0.061672278
00000000: 67b5 e63d 282c 6ebb 68c9 503e 15d1 183e
00000010: 115a c33c 1577 a03c 7b3b 183d 4b6e 103b
00000020: 661d 603d b122 0080 caa7 5b3c bbc9 5d3e
00000030: 5048 153e b3d1 563e 0b0c 0080 14fb 4f3c
00000040: cd9e 8d3e 1825 0080 7c40 b33e 6944 323e
00000050: 0206 3c3e aa48 473e f1ed 353c 4a60 8a3c
00000060: 62b8 99b9 d2d8 943e a747 6a3d 601a 92b8
00000070: 20cd d03a 5f60 0e3e 79cf bcbd c29b c13e
00000080: 77b9 e23c 55fb 9a3e e32c 55bb fb1f 8fba
00000090: 8a59 a6b7 c52c 853e 8196 9d3c cf85 593c
000000a0: 557f a53e 3644 743e 490e 0080 6c7b 313e
000000b0: 8f4c 87b8 52b7 903e b0e9 3bbb e50d bc3d
000000c0: 43a9 143e 9b39 a2b8 a7d3 ee3d e6e4 eb3b
000000d0: b8d1 20bd e4d2 403c 8f99 c23c 70f8 12b5
000000e0: 0718 0080 fd40 aa3b 6529 653e 5266 8fbb
000000f0: 98ec 713c c816 0080 a324 293b 129c 7c3d

linear5.weight f4 [16, 64]
0.21528432 0.0031503667 -0.036690544 -0.20455933 -0.036933437 -0.031196294 -0.045121245 -0.008206727
-0.034947854 -7.536e-42 -0.0038795294 -0.003513341 0.10050531 0.40364352 -9.703e-42 -0.0166237
0.06378933 8.001e-42 0.1162745 0.36204785 -0.07856906 0.07705012 -0.014694704 0.02884974
5.7432115e-11 0.085247286 -0.0072217663 -4.5650844e-11 0.004143621 0.32927266 -0.10713536 0.21425065
0.0026708902 0.078546286 8.249549e-05 0.00022839637 3.3359203e-05 0.22169411 -0.0274398 -0.009285182
0.024381258 -0.011977869 1.2123e-41 -0.16557014 -1.4058777e-07 0.068426065 -0.001830419 0.024724267
-0.016791694 1.4396102e-05 -0.014997899 -0.01128332 0.35138026 -0.019148597 -0.000101886784 3.8223686e-09
2.613e-42 -0.0059698503 0.005977687 3.516772e-05 -0.024083657 -3.386e-42 0.002367774 -0.057066213
-2.948e-42 -1.0437e-41 -8.856e-42 4.141e-42 4.205e-42 -6.499e-42 -4.03e-42 1.2033e-41
-8.301e-42 -1.158e-41 -1.3845e-41 -7.524e-42 -1.1687e-41 -5.712e-42 -1.3125e-41 8.737e-42
4.12e-42 -4.413e-42 4.348e-42 1.3305e-41 8.088e-42 -8.363e-42 6.754e-42 -5.748e-42
1.3148e-41 -6.744e-42 -1.3297e-41 -3.613e-42 -1.1737e-41 -8.545e-42 -6.715e-42 -4.687e-42
-1.3901e-41 -1.3405e-41 2.294e-42 -5.545e-42 -7.176e-42 -1.2404e-41 3.607e-42 4.707e-42
-9.725e-42 -7.696e-42 -8.189e-42 1.1477e-41 -5.906e-42 -4.201e-42 4.942e-42 -1.2905e-41
-1.3793e-41 9.742e-42 1.026e-41 -1.0238e-41 -7.87e-42 5.674e-42 -1.1076e-41 -1.009e-41
1.2767e-41 7.982e-42 -1.1812e-41 1.024e-42 -1.3644e-41 -6.875e-42 8.357e-42 1.237e-41
0.3582606 0.014645887 -0.02777702 -0.28659287 -0.07454885 -0.051692676 -0.06825888 -0.010770465
-0.06881457 -5.517e-42 -0.012806937 0.056102958 0.20762001 0.70822966 5.245e-42 -0.028907469
0.1559301 1.1052e-41 0.22216527 0.65173995 -0.027561415 0.046165485 -0.02761369 0.0530366
3.2675138e-07 0.18709452 -0.016556012 -1.9606365e-08 0.009765235 0.5541542 -0.26861036 0.45881274
-0.012850382 0.16659005 0.0043840273 1.6633956e-05 0.00026107166 0.1586515 -0.049091924 -0.016013153
0.095906444 0.037253026 1.2467e-41 -0.045920245 3.562118e-06 0.16411684 -0.0025608086 0.0226445
-0.018100701 9.42963e-05 -0.00858316 -0.020227836 0.5077286 -0.034958575 0.00073863036 1.9678158e-08
6.023e-42 -0.009761945 0.033994634 0.008465594 -0.047313157 1.1353e-41 0.0010517355 -0.10266587
-0.3449425 0.04345061 0.09220373 -0.32267466 0.012811588 0.006992748 0.012849389 0.025278619
0.042937335 -1.0833e-41 0.57189363 0.2225191 -0.43050647 -0.39523253 -9.527e-42 0.012037451
0.30495343 -5.548e-42 0.3198397 -0.4351238 -0.63744056 -0.5542104 0.023366887 0.5086853
0.0041301986 0.2649915 -0.113343306 9.170928e-14 0.02383115 -0.31161937 0.017778007 0.103534855
0.052270565 0.22583632 0.02349625 -0.004200183 1.9373704e-11 -0.7783807 0.012780405 0.034518845
0.22099121 0.14621884 1.1805e-41 -0.59894574 0.0027273209 0.24541216 0.013452872 -0.21230009
0.07972956 -4.1107395e-10 0.06672512 0.012368322 0.050345197 0.014625467 0.06223895 3.8997367e-08
3.407e-42 0.017298948 0.10936874 0.030177297 0.006913764 -2.735e-42 0.0062050354 0.04206873
00000000: 7e73 5c3e 6276 4e3b d348 16bd 0078 51be
00000010: 8447 17bd 5f8f ffbc 0ed1 38bd 8275 06bc
00000020: 7b25 0fbd 0215 0080 b43f 7ebb 1540 66bb
00000030: bad5 cd3d 5daa ce3e 0c1b 0080 6d2e 88bc
00000040: fba3 823d 4e16 0000 5321 ee3d 565e b93e
00000050: d1e8 a0bd 74cc 9d3d 0ec2 70bc 4a56 ec3c
00000060: d096 7c2e 2196 ae3d 91a4 ecbb 48c6 48ae
00000070: 36c7 873b 6d96 a83e c969 dbbd 8664 5b3e
00000080: 1a0a 2f3b e0dc a03d 6e01 ad38 af7d 6f39
00000090: 2ceb 0b38 c803 633e 6ec9 e0bc e020 18bc
000000a0: 34bb c73c d33e 44bc cb21 0000 388b 29be
000000b0: 79f4 16b4 f722 8c3d abea efba 8c8a ca3c
000000c0: bc8e 89bc ca86 7137 bfb9 75bc addd 38bc
000000d0: 1de8 b33e 85dd 9cbc 0dac d5b8 e955 8331
000000e0: 4907 0000 bc9e c3bb 79e0 c33b 0d81 1338
000000f0: 174b c5bc 7009 0080 a82c 1b3b 43be 69bd
00000100: 3808 0080 181d 0080 b018 0080 8b0b 0000
00000110: b90b 0000 1e12 0080 3c0b 0080 8b21 0000
00000120: 2417 0080 4820 0080 9826 0080 f914 0080
00000130: 9420 0080 ec0f 0080 9624 0080 5b18 0000
00000140: 7c0b 0000 4d0c 0080 1f0c 0000 1725 0000
00000150: 8c16 0000 5017 0080 d412 0000 0610 0080
00000160: a724 0000 cd12 0080 1125 0080 120a 0080
00000170: b820 0080 d217 0080 b812 0080 110d 0080
00000180: c026 0080 5e25 0080 6506 0000 750f 0080
00000190: 0114 0080 9422 0080 0e0a 0000 1f0d 0000
000001a0: 1c1b 0080 7415 0080 d416 0080 fe1f 0000
000001b0: 7710 0080 b60b 0080 c70d 0000 f923 0080
000001c0: 7326 0080 281b 0000 9a1c 0000 8a1c 0080
000001d0: f015 0080 d10f 0000 e01e 0080 201c 0080
000001e0: 9723 0000 4016 0000 ed20 0080 db02 0000
000001f0: 0926 0080 2a13 0080 4c17 0000 7c22 0000
00000200: ef6d b73e 4df5 6f3c a28c e3bc 4dbc 92be
00000210: 11ad 98bd b3bb 53bd 50cb 8bbd 9b76 30bc
00000220: a7ee 8cbd 610f 0080 30d4 51bc 37cc 653d
00000230: 579a 543e 8a4e 353f 9f0e 0000 5bcf ecbc
00000240: 24ac 1f3e cf1e 0000 4b7f 633e 6ed8 263f
00000250: 7ac8 e1bc 0518 3d3d 1b36 e2bc e83c 593d
00000260: 5e6c af34 b595 3f3e 79a0 87bc da6a a8b2
00000270: 5dfe 1f3c 0ddd 0d3f 4c87 89be 81e9 ea3e
00000280: 698a 52bc 9596 2a3e e3a7 8f3b 2689 8b37
00000290: 72e0 8839 8a75 223e 9d14 49bd 042e 83bc
000002a0: 996a c43d a196 183d c122 0000 de16 3cbd
000002b0: b90c 6f36 3f0e 283e 3dd3 27bb f580 b93c
000002c0: ec47 94bc f1c0 c538 62a0 0cbc d9b4 a5bc
000002d0: 80fa 013f b930 0fbd a5a0 413a ba08 a932
000002e0: ca10 0000 91f0 1fbc f53d 0b3d 46b3 0a3c
000002f0: 71cb 41bd a61f 0000 63da 893a 7c42 d2bd
00000300: 4e9c b0be 44f9 313d 4fd5 bc3d 9d35 a5be
00000310: b2e7 513c 6c23 e53b 3e86 523c 1b15 cf3c
00000320: 0fdf 2f3d 331e 0080 9f67 123f 0cdc 633e
00000330: 586b dcbe eb5b cabe 8f1a 0080 bb38 453c
00000340: db22 9c3e 770f 0080 07c2 a33e 8cc8 debe
00000350: 4e2f 23bf bce0 0dbf ea6b bf3c 3339 023f
00000360: 9e56 873b f7ac 873e 8920 e8bd cd82 ce29
00000370: 8b39 c33c 938c 9fbe 2fa3 913c 150a d43d
00000380: a919 563d a341 673e 357b c03c b0a1 89bb
00000390: b469 aa2d f543 47bf e764 513c a263 0d3d
000003a0: 854b 623e 64ba 153e e820 0000 8254 19bf
000003b0: dabc 323b 534d 7b3e 6f69 5c3c 3265 59be
000003c0: 4049 a33d 84fd e1af 2ea7 883d 81a4 4a3c
000003d0: c436 4e3d a89f 6f3c 45ee 7e3d 0f7e 2733
000003e0: 7f09 0000 86b6 8d3c b8fc df3d 6136 f73c
000003f0: db8c e23b a007 0080 9c53 cb3b 4350 2c3d

linear5.bias f4 [16]
0.11481258 -1.3548e-41 0.16442278 -0.037567258 -8.419e-42 0.061453223 -6.97e-42 0.14593981
-1.2235e-41 -1.2183e-41 0.010034904 0.020524902 -0.12673925 -1.0323e-41 0.1954783 -9.083e-42
00000000: dc22 eb3d c425 0080 725e 283e 20e0 19bd
00000010: 7817 0080 60b6 7b3d 6e13 0080 3f71 153e
00000020: 1b22 0080 f621 0080 7069 243c d723 a83c
00000030: efc7 01be c71c 0080 772b 483e 5219 0080

linear6.weight f4 [4, 16]
0.19152574 -1.1e-41 0.4608859 -0.75972253 -1.1949e-41 -0.09944836 -6.813e-42 -0.099911675
7.908e-42 -3.39e-42 -0.05618139 -0.009296803 -0.59653366 -3.886e-42 0.28859112 -7.711e-42
0.094693065 6.817e-42 0.28418508 0.9688992 -8.767e-42 -0.8039621 1.1575e-41 0.03708198
3.461e-42 6.31e-42 -0.17298232 0.0031160556 -0.04406903 1.031e-41 0.05483508 3.514e-42
-0.72131115 -6.433e-42 -1.1786408 -0.0076662884 8.276e-42 0.35884425 5.052e-42 1.2002375
-6.288e-42 -3.287e-42 -0.056585524 0.13756783 0.21269937 1.1842e-41 -0.021411156 -1.3197e-41
-0.082758114 1.2701e-41 0.07622557 -0.029068528 4.236e-42 0.23659812 -7.833e-42 -0.86389977
-1.349e-41 -7.447e-42 0.102872886 -0.12157569 0.6832569 -1.012e-41 -0.93135005 1.3587e-41
00000000: 531f 443e aa1e 0080 3df9 eb3e 2d7d 42bf
00000010: 4f21 0080 95ab cbbd fe12 0080 7e9e ccbd
00000020: 0b16 0000 7309 0080 751e 66bd 9e51 18bc
00000030: 6eb6 18bf d50a 0080 37c2 933e 7f15 0080
00000040: 70ee c13d 0113 0000 b580 913e c709 783f
00000050: 7018 0080 76d0 4dbf 4420 0000 46e3 173d
00000060: a609 0000 9711 0000 4722 31be bd36 4c3b
00000070: ba81 34bd bd1c 0000 c09a 603d cc09 0000
00000080: d9a7 38bf ef11 0080 b4dd 96bf 7d35 fbbb
00000090: 1217 0000 6fba b73e 150e 0000 62a1 993f
000000a0: 8711 0080 2a09 0080 39c6 67bd 95de 0c3e
000000b0: ddcd 593e 0321 0000 7366 afbc ca24 0080
000000c0: 167d a9bd 6823 0000 271c 9c3d 1f21 eebc
000000d0: cf0b 0000 c746 723e d615 0080 8928 5dbf
000000e0: 9b25 0080 c214 0080 05af d23d adfc f8bd
000000f0: ede9 2e3f 361c 0080 f56c 6ebf e025 0000

linear6.bias f4 [4]
0.34143442 0.011659148 0.08595949 0.13598444
00000000: 7ed0 ae3e 0306 3f3c 870b b03d 813f 0b3e
