checkpoints/dnn_7.pt (torch, 257573 bytes, 12 tensors)

linear1.weight f4 [128, 358]
0	0x38a5b356	7.901217e-05
1	0xb8b90a14	-8.8233646e-05
2	0x3a086bc4	0.00052040466
3	0x391681d7	0.00014353484
4	0xba70947a	-0.0009177398
5	0xba81a6ac	-0.0009891591
6	0x3ca5a619	0.020220803
7	0xbaceadfc	-0.0015768404
8	0x3ca5a47e	0.020220038
9	0xba1130d6	-0.0005538588
10	0x3a39d5d2	0.00070890517
11	0x39368c5c	0.0001740916
12	0x385da386	5.28428e-05
13	0x38b37b97	8.5584055e-05
14	0x39ffb77c	0.00048774097
15	0x3b41bcd3	0.002956201
16	0xb9b209f0	-0.0003395821
17	0xba25a243	-0.00063184294
18	0xbb0f6deb	-0.0021885585
19	0xba823fbf	-0.0009937211
20	0x3a830e98	0.0009998856
21	0x3ba1063d	0.0049140737
22	0xb976481c	-0.00023487251
23	0xb9711502	-0.00022991377
24	0x3bab6378	0.0052303635
25	0xba200d0f	-0.00061054615
26	0x3b13384d	0.0022463978
27	0x3acd91dc	0.0015683728
28	0x3bb3d9ae	0.005488596
29	0x3c80ab67	0.015706731
30	0xbbe58b24	-0.0070051122
31	0x3bdd1492	0.006746837
32	0x39a1ec73	0.0003088448
33	0xb94411a7	-0.00018698593
34	0x3846fae1	4.7440528e-05
35	0x3aa72a9b	0.0012753786
36	0xbc1f3954	-0.009718258
37	0xbbd77903	-0.006575705
38	0x3bb3bc9b	0.00548513
39	0xbae8eb1d	-0.0017770265
40	0xbb8930e2	-0.0041867355
41	0x39d5f80c	0.00040811335
42	0x384c868c	4.8762697e-05
43	0xbbdee80e	-0.0068025654
44	0xbb8a5b1b	-0.0042222864
45	0x388c5ccd	6.693006e-05
46	0x3841ab6c	4.6174435e-05
47	0xbb0e5c36	-0.0021722442
48	0xb8870278	-6.4377615e-05
49	0xb9d18169	-0.00039960005
50	0x3b397df6	0.0028303838
51	0xbb1e796a	-0.0024181255
52	0xbb6c0a00	-0.0036016703
53	0xbcd2e329	-0.025743084
54	0xbb1727d5	-0.0023064513
55	0xbb0704c7	-0.0020602213
56	0xba4f3f3b	-0.00079058454
57	0xba88a09e	-0.0010423844
58	0xba6ad868	-0.00089586386
59	0xba57e568	-0.00082357833
60	0xbae2d3a0	-0.0017305501
61	0xb9edc3d7	-0.00045350075
62	0xb8ab5ed4	-8.1715785e-05
63	0x372d0c59	1.03144785e-05
64	0xbac682f3	-0.0015145227
65	0xba9c24c2	-0.001191281
66	0xba9cf9cd	-0.0011976302
67	0xbb167227	-0.0022956224
68	0xbb0107a3	-0.001968839
69	0xb96aee07	-0.00022404651
70	0xb9b68521	-0.00034812934
71	0x37cd70c7	2.449042e-05
72	0xb7dbab93	-2.618673e-05
73	0xba734df0	-0.0009281328
74	0xb80167c5	-3.085264e-05
75	0xb7f01e33	-2.8624292e-05
76	0x371aa5c8	9.217714e-06
77	0xb997664b	-0.0002887718
78	0xb715823f	-8.911417e-06
79	0xb869cafa	-5.5740566e-05
80	0xb8cde475	-9.817715e-05
81	0xb894fdc6	-7.104459e-05
82	0xb89a3034	-7.352271e-05
83	0xb85034ba	-4.964017e-05
84	0xb733981e	-1.0704649e-05
85	0xb78f8cd6	-1.711251e-05
86	0xb818493e	-3.6307836e-05
87	0xb7a8e93d	-2.013577e-05
88	0xb851818e	-4.995014e-05
89	0x38a62619	7.922593e-05
90	0xb8069fbc	-3.2096854e-05
91	0x396705ca	0.00022032033
92	0x3afda29c	0.001935083
93	0xbb43c08e	-0.002986941
94	0x3b5999b8	0.0033203196
95	0xbbf37610	-0.0074298456
96	0xbc4f6fb0	-0.012660906
97	0xbbb1576b	-0.0054120324
98	0xbbaf2ace	-0.005345679
99	0xb943dfd3	-0.0001868003
100	0x396d3030	0.00022620033
101	0x3d85d463	0.0653465
102	0x39975d12	0.00028870307
103	0xbceeb27d	-0.029137844
104	0xbba5e093	-0.0050621717
105	0x3ba16621	0.004925505
106	0x3cac3e49	0.021025794
107	0xbc164cf3	-0.00917362
108	0x3c26ac6e	0.010172946
109	0x3caae8eb	0.020863017
110	0xbc62989e	-0.013830332
111	0x3c2088e4	0.009798262
112	0x368d60c7	4.213394e-06
113	0xbbe81f22	-0.0070837894
114	0xbc4ebb04	-0.01261783
115	0xbbfcf4b7	-0.007719602
116	0xbbeebf1f	-0.007285967
117	0xbcb64a05	-0.022252092
118	0xbd860f21	-0.06545854
119	0xbcdda827	-0.02705772
120	0xbac76dc7	-0.0015215211
121	0xb5d96ec2	-1.6199995e-06
122	0xbc00f07d	-0.007869837
123	0xbb057150	-0.002036173
124	0xbb8d2446	-0.0043073026
125	0xbdd34516	-0.103159115
126	0xbe06a666	-0.13149413
127	0xbd0c1fdc	-0.03421007
128	0xbce6721f	-0.028130589
129	0xbc3b2190	-0.011421576
130	0xbc48be3a	-0.012252385
131	0xbbc23964	-0.0059272517
132	0xb90f403a	-0.00013661469
133	0xb39f0d94	-7.406484e-08
134	0xbc34c657	-0.011033616
135	0xbbd52aed	-0.0065053613
136	0xbb9fcea9	-0.0048769307
137	0x3849741d	4.8030273e-05
138	0x38653707	5.4649103e-05
139	0x37b29083	2.1286547e-05
140	0xbc1913ae	-0.009343071
141	0xb99a0231	-0.00029374802
142	0x37a62f8b	1.9810881e-05
143	0x3c477021	0.01217273
144	0x3ba9e2a5	0.005184489
145	0x3c67c1bf	0.014145314
146	0x3cf76598	0.03019981
147	0xbc681d4e	-0.014167143
148	0xbc8d3877	-0.017238839
149	0x3cd4227d	0.025895352
150	0xbc944650	-0.018099934
151	0xbce4fb12	-0.02795175
152	0xbd297cef	-0.04137891
153	0xb834fc98	-4.315059e-05
154	0xbd0024cb	-0.03128509
155	0x3cf634ea	0.030054528
156	0x3c9e62c2	0.0193342
157	0xbcdb4ba1	-0.026769461
158	0x3d216d53	0.0394109
159	0xb8664eb5	-5.4909575e-05
160	0xb7cbd485	-2.4298448e-05
161	0xba694525	-0.0008898548
162	0x3a197c4f	0.000585501
163	0x379bf5f5	1.8591973e-05
164	0x37939755	1.7594235e-05
165	0x372d9ca0	1.0348071e-05
166	0x36c48603	5.856856e-06
167	0x378b7272	1.6623384e-05
168	0xb83288f6	-4.2566062e-05
169	0x379c74bd	1.865101e-05
170	0x3a4123dc	0.0007367709
171	0x372847c5	1.00302905e-05
172	0x39435886	0.00018629627
173	0x3896f141	7.1974944e-05
174	0xb877f59c	-5.911813e-05
175	0x372e92d0	1.0405391e-05
176	0x382b2e5b	4.081275e-05
177	0x3b54aa66	0.0032450198
178	0xbb3a6eca	-0.0028447383
179	0x3b07f6f1	0.0020746554
180	0x3a232fbc	0.00062250695
181	0xb7a1a9e4	-1.9271807e-05
182	0x37b838c0	2.1960936e-05
183	0x3b21754f	0.0024636572
184	0xbca4dd97	-0.020125194
185	0x3ca1231c	0.019670062
186	0xb3fed85f	-1.18671544e-07
187	0xb3f6793f	-1.1477322e-07
188	0xb4684de5	-2.1635022e-07
189	0xbb65bfaf	-0.003505688
190	0xbcb040aa	-0.02151521
191	0xb4776493	-2.3040256e-07
192	0xb76b0d29	-1.4010156e-05
193	0x34a3b749	3.0494473e-07
194	0xb5ceb723	-1.5401496e-06
195	0x3d263709	0.04057983
196	0x3564031b	8.494114e-07
197	0xb552370e	-7.831121e-07
198	0xb4a9f6b5	-3.1658206e-07
199	0xb6dbc537	-6.5496674e-06
200	0x34d0ba84	3.8878727e-07
201	0xb68e047c	-4.232452e-06
202	0xb56dabca	-8.8539366e-07
203	0xb52a752f	-6.350046e-07
204	0xb6034d2c	-1.956544e-06
205	0x351cbe45	5.839141e-07
206	0xb606f50d	-2.0110194e-06
207	0xb908aeb3	-0.00013035051
208	0x34aafe0c	3.184981e-07
209	0xb4ba4955	-3.4698556e-07
210	0xb2f76d1f	-2.8804207e-08
211	0x358e5823	1.0605476e-06
212	0x3377f47f	5.7731537e-08
213	0x331a37ef	3.590679e-08
214	0xbda8a824	-0.08235195
215	0xbdb096b7	-0.086224966
216	0xb77e5cb6	-1.5161166e-05
217	0xb847e69c	-4.766007e-05
218	0xb64d41c8	-3.058567e-06
219	0xb59775e4	-1.1284687e-06
220	0x3572a050	9.038531e-07
221	0x3d067d0c	0.032834098
222	0x347ef5ed	2.374506e-07
223	0x34173306	1.4081533e-07
224	0xb3ccd006	-9.5373295e-08
225	0x3c328d00	0.010897875
226	0xb5486b2e	-7.4661773e-07
227	0x347ba750	2.3437065e-07
228	0x3a34c10a	0.000689522
229	0x3dacec18	0.08443469
230	0x3c9c59eb	0.019085845
231	0xb6902ae1	-4.296526e-06
232	0xb2766aa1	-1.4343329e-08
233	0xb6bae78d	-5.570188e-06
234	0xb55d90d1	-8.253965e-07
235	0x33abb6da	7.9960685e-08
236	0xb6bb5f5b	-5.584135e-06
237	0xb697379f	-4.506626e-06
238	0x344a682d	1.8850615e-07
239	0x35f6b73e	1.8381759e-06
240	0x386cdf46	5.6474724e-05
241	0x38cba534	9.710566e-05
242	0xb82efa4f	-4.171795e-05
243	0x38c938d9	9.5950156e-05
244	0xb9cee8fa	-0.00039464963
245	0x38d4c266	0.00010145157
246	0xb7aa5773	-2.0306301e-05
247	0xb7f51faa	-2.922102e-05
248	0x3869bed6	5.572926e-05
249	0x373dcc36	1.1312824e-05
250	0x386777bc	5.5186203e-05
251	0x387b2522	5.9877646e-05
252	0x38bbbc23	8.951898e-05
253	0xb82468e3	-3.919833e-05
254	0x387bb3fc	6.0010687e-05
255	0x3798fcef	1.8237593e-05

linear1.bias f4 [128]
0	0xbb10b1d1	-0.0022078643
1	0xbcb76d8f	-0.022391109
2	0xbc88b8ba	-0.016689647
3	0xbd2fa4a1	-0.04288161
4	0xbc88c72a	-0.016696531
5	0xbcf27868	-0.02959843
6	0xba815adc	-0.0009868997
7	0xbd77390e	-0.060357146
8	0xbcd2502d	-0.025672996
9	0xbd217da6	-0.03942647
10	0x3e818128	0.2529385
11	0xbc4016b8	-0.011724167
12	0x3d1fd2c4	0.03901936
13	0xbc5c4d45	-0.013446157
14	0xbd60125f	-0.05470502
15	0xbcbd960c	-0.023142837
16	0x3cc876e2	0.02447075
17	0x3cdf4760	0.027255714
18	0xbd1e526f	-0.038652834
19	0xbcbed20b	-0.023293516
20	0x3cf05123	0.029335564
21	0xbc0ae963	-0.008478495
22	0xbc14b2a6	-0.009075796
23	0xbcb58c6a	-0.022161681
24	0xbd55ef08	-0.05222991
25	0x3d4ac0c4	0.049500242
26	0xbd374056	-0.04473909
27	0xbce213e2	-0.027597371
28	0xbcb282dc	-0.021790914
29	0xbd740f6a	-0.059585012
30	0xbcb92dd4	-0.02260486
31	0x3e63b12c	0.22235554
32	0xbd237d2b	-0.03991429
33	0x3d806885	0.062699355
34	0xbd95653f	-0.07294702
35	0x3d913b6b	0.07091411
36	0xbd5c964e	-0.05385428
37	0xbd3b4fd8	-0.04573044
38	0xbcc63e61	-0.024199666
39	0x3d8e2edc	0.069425315
40	0x3e39320c	0.18085498
41	0xbd96a028	-0.07354766
42	0xbc168992	-0.009188073
43	0x3c8f00ae	0.017456379
44	0x3dd9791d	0.10618804
45	0x3ca80cd8	0.020513937
46	0x3e2fb2e7	0.1715809
47	0x3d35bb3a	0.044368006
48	0xbca87cf8	-0.020567402
49	0x3e197b1e	0.14988372
50	0xbd40ff96	-0.047118746
51	0x3df72a91	0.12068666
52	0xbca48b52	-0.020085964
53	0xbc884e58	-0.01663892
54	0xbc8ced67	-0.017203046
55	0xbcb5840c	-0.022157691
56	0xbd8a935c	-0.06766388
57	0xba6f7da0	-0.0009135846
58	0xbcff8cd9	-0.031195091
59	0xbbf07a06	-0.007338765
60	0xbcf08ced	-0.029364074
61	0xbcaea0c0	-0.021316886
62	0xbcc75f43	-0.024337417
63	0xbd9f041d	-0.077644564
64	0xbcefb8dd	-0.029262954
65	0xbc92270c	-0.017840885
66	0x3da6bbe3	0.08141305
67	0xbc817ff1	-0.015808078
68	0xbc551f8a	-0.013008008
69	0xbd3fb41e	-0.046802633
70	0x3db436f1	0.08799542
71	0xbdb284d7	-0.087167434
72	0xbd39142f	-0.045185264
73	0x3d217c2e	0.039425068
74	0xbdba673e	-0.09101723
75	0xbca456ca	-0.020060915
76	0xbce350ed	-0.02774855
77	0x3dc9372b	0.098249756
78	0xbca2b06b	-0.019859513
79	0x3e3ec82e	0.1863105
80	0x3d87b7f4	0.06626883
81	0xbcc2e310	-0.023789912
82	0xbc851b15	-0.016248265
83	0x3d8506ee	0.06495462
84	0xbcfc3b47	-0.030789984
85	0xbd24f134	-0.04026909
86	0xbccbbd20	-0.024870455
87	0xbd22cc52	-0.039745636
88	0xbc4839b2	-0.012220787
89	0xbc241496	-0.010014674
90	0xbc426200	-0.011864185
91	0xbdb64985	-0.089007415
92	0xbbc9a777	-0.0061539966
93	0xbc8e83b2	-0.017396782
94	0xbcb439f6	-0.022000294
95	0xbbef68d5	-0.007306198
96	0x3d1bd057	0.038040485
97	0xbd111c4d	-0.03542738
98	0x3c2a8129	0.010406771
99	0x3d4d4a4e	0.05011969
100	0x3e5231dc	0.20526832
101	0xbcb91e1c	-0.022597365
102	0xbd0665be	-0.032811873
103	0x3d80b3a3	0.06284263
104	0xbcfe04a1	-0.031008067
105	0xbc6bd934	-0.014395047
106	0xbc16d52e	-0.009206099
107	0xbd3c14ed	-0.045918394
108	0xbb445e22	-0.0029963334
109	0xbcc828c2	-0.024433497
110	0xbc0fce17	-0.008777163
111	0xbc5a8b52	-0.013338881
112	0xbb826988	-0.0039798655
113	0xbc6256e7	-0.013814664
114	0x3e03a6e9	0.1285664
115	0xbdab459d	-0.08362887
116	0xbd045fdc	-0.03231798
117	0xbca26d60	-0.019827545
118	0xbc94c067	-0.01815815
119	0xbcf19df8	-0.02949427
120	0xbd3d3fd9	-0.046203468
121	0xbda0fde2	-0.07860924
122	0x3d827132	0.063692465
123	0xbc5123cb	-0.012764881
124	0xbd4027a3	-0.0469128
125	0xbd4fde47	-0.05074909
126	0xbcca3c21	-0.024686875
127	0xbd84fe60	-0.06493831

linear2.weight f4 [64, 128]
0	0x80002570	-1.343e-41
1	0x80000ce9	-4.631e-42
2	0x800007c7	-2.79e-42
3	0x80000d2f	-4.73e-42
4	0x80000f99	-5.595e-42
5	0x80001f79	-1.129e-41
6	0x800005cc	-2.08e-42
7	0x80001d40	-1.0493e-41
8	0x80000f57	-5.503e-42
9	0x80000927	-3.283e-42
10	0x80002279	-1.2366e-41
11	0x00001155	6.218e-42
12	0x80001716	-8.282e-42
13	0x80000b90	-4.148e-42
14	0x800002a6	-9.5e-43
15	0x800005f5	-2.137e-42
16	0x80002404	-1.292e-41
17	0x800024f4	-1.3256e-41
18	0x80001076	-5.905e-42
19	0x800018af	-8.855e-42
20	0x00000084	1.85e-43
21	0x0000227e	1.2373e-41
22	0x8000180d	-8.628e-42
23	0x800024c2	-1.3186e-41
24	0x8000215c	-1.1967e-41
25	0x80002394	-1.2763e-41
26	0x80000569	-1.941e-42
27	0x80000ba7	-4.18e-42
28	0x80001a4d	-9.435e-42
29	0x80000e69	-5.17e-42
30	0x000007f6	2.856e-42
31	0x00001823	8.659e-42
32	0x80001f7d	-1.1296e-41
33	0x80001bb4	-9.938e-42
34	0x0000065e	2.284e-42
35	0x8000200c	-1.1496e-41
36	0x80001034	-5.813e-42
37	0x000003aa	1.314e-42
38	0x80000534	-1.867e-42
39	0x800007b7	-2.768e-42
40	0x80000b7d	-4.121e-42
41	0x80000565	-1.935e-42
42	0x80000a09	-3.6e-42
43	0x800014db	-7.482e-42
44	0x80001f8d	-1.1318e-41
45	0x80001e75	-1.0926e-41
46	0x00002000	1.148e-41
47	0x80001d76	-1.0569e-41
48	0x800025a5	-1.3504e-41
49	0x80000908	-3.24e-42
50	0x800008b3	-3.12e-42
51	0x8000220d	-1.2215e-41
52	0x80001a59	-9.452e-42
53	0x00001583	7.717e-42
54	0x80000d91	-4.867e-42
55	0x80001d64	-1.0543e-41
56	0x800022e1	-1.2512e-41
57	0x800010c2	-6.012e-42
58	0x80000859	-2.995e-42
59	0x00000132	4.29e-43
60	0x800014ae	-7.418e-42
61	0x80002672	-1.3792e-41
62	0x00000461	1.571e-42
63	0x00001b74	9.848e-42
64	0x800018d1	-8.902e-42
65	0x8000232e	-1.262e-41
66	0x80000205	-7.24e-43
67	0x80000d0a	-4.678e-42
68	0x80000bda	-4.252e-42
69	0x80001e58	-1.0885e-41
70	0x00000a36	3.663e-42
71	0x8000236a	-1.2704e-41
72	0x8000230a	-1.257e-41
73	0x800020e5	-1.18e-41
74	0x800020e8	-1.1805e-41
75	0x800019c7	-9.247e-42
76	0x80002109	-1.1851e-41
77	0x80000507	-1.803e-42
78	0x00000222	7.65e-43
79	0x00000b7d	4.121e-42
80	0x800025dc	-1.3581e-41
81	0x80000638	-2.231e-42
82	0x80002445	-1.3011e-41
83	0x800008cb	-3.154e-42
84	0x800023a1	-1.2781e-41
85	0x80000920	-3.273e-42
86	0x8000224d	-1.2305e-41
87	0x8000004a	-1.04e-43
88	0x000016a9	8.129e-42
89	0x80000874	-3.032e-42
90	0x80000686	-2.34e-42
91	0x80002111	-1.1862e-41
92	0x80001d4e	-1.0513e-41
93	0x00000012	2.5e-44
94	0x80002164	-1.1978e-41
95	0x800019ef	-9.303e-42
96	0x00000ac2	3.859e-42
97	0x8000141e	-7.217e-42
98	0x00000849	2.972e-42
99	0x80001c16	-1.0075e-41
100	0x8000051d	-1.834e-42
101	0x800023a6	-1.2788e-41
102	0x0000140b	7.19e-42
103	0x800009a7	-3.463e-42
104	0x80001401	-7.176e-42
105	0x8000047e	-1.611e-42
106	0x80000fb1	-5.629e-42
107	0x80001464	-7.315e-42
108	0x80001a27	-9.382e-42
109	0x00000ef3	5.363e-42
110	0x80001244	-6.552e-42
111	0x8000113b	-6.181e-42
112	0x800002ea	-1.045e-42
113	0x80000d0e	-4.683e-42
114	0x80000cc3	-4.578e-42
115	0x800003e2	-1.393e-42
116	0x0000009f	2.23e-43
117	0x800020df	-1.1792e-41
118	0x00001aba	9.588e-42
119	0x800024ed	-1.3246e-41
120	0x80000f4d	-5.489e-42
121	0x80001fd0	-1.1412e-41
122	0x8000161d	-7.933e-42
123	0x00001aad	9.57e-42
124	0x80000f88	-5.572e-42
125	0x800026b2	-1.3881e-41
126	0x0000003a	8.1e-44
127	0x0000047e	1.611e-42
128	0x80001212	-6.482e-42
129	0x8000037e	-1.253e-42
130	0x80002278	-1.2365e-41
131	0x800019e8	-9.293e-42
132	0x80000ee3	-5.34e-42
133	0x80001a75	-9.491e-42
134	0x800025e9	-1.36e-41
135	0x800025fc	-1.3626e-41
136	0x80000d9e	-4.885e-42
137	0x800026a3	-1.386e-41
138	0x800024b7	-1.3171e-41
139	0x80000d0e	-4.683e-42
140	0x80002352	-1.267e-41
141	0x00001107	6.108e-42
142	0x00001ca6	1.0277e-41
143	0x800014dd	-7.484e-42
144	0x80000a12	-3.613e-42
145	0x800017d6	-8.551e-42
146	0x00000ab0	3.834e-42
147	0x800010a9	-5.977e-42
148	0x80001ab8	-9.585e-42
149	0x0000119b	6.316e-42
150	0x80002238	-1.2275e-41
151	0x80000bb1	-4.194e-42
152	0x80000fcb	-5.665e-42
153	0x00001cfd	1.0399e-41
154	0x8000161e	-7.934e-42
155	0x80000eb8	-5.28e-42
156	0x800025aa	-1.3511e-41
157	0x800021c0	-1.2107e-41
158	0x8000259c	-1.3492e-41
159	0x0000104c	5.846e-42
160	0x80001629	-7.95e-42
161	0x800024a4	-1.3144e-41
162	0x80001de6	-1.0726e-41
163	0x80002521	-1.332e-41
164	0x8000240c	-1.2931e-41
165	0x800018f6	-8.954e-42
166	0x80000ec0	-5.291e-42
167	0x80001d12	-1.0428e-41
168	0x80002077	-1.1646e-41
169	0x80000ddd	-4.973e-42
170	0x80001e8a	-1.0955e-41
171	0x80000b51	-4.06e-42
172	0x00001647	7.992e-42
173	0x8000129e	-6.679e-42
174	0x8000110a	-6.112e-42
175	0x80002430	-1.2982e-41
176	0x0000125b	6.585e-42
177	0x80000773	-2.672e-42
178	0x800008dd	-3.18e-42
179	0x800025cf	-1.3563e-41
180	0x80001532	-7.603e-42
181	0x80000ffe	-5.737e-42
182	0x80000951	-3.342e-42
183	0x80000d50	-4.776e-42
184	0x800012f2	-6.796e-42
185	0x80001864	-8.75e-42
186	0x80001201	-6.459e-42
187	0x0000150e	7.553e-42
188	0x8000265d	-1.3762e-41
189	0x80000c90	-4.507e-42
190	0x80000548	-1.895e-42
191	0x80001e8b	-1.0957e-41
192	0x80000aad	-3.83e-42
193	0x80001ba8	-9.921e-42
194	0x800013a0	-7.04e-42
195	0x0000109e	5.961e-42
196	0x80001252	-6.572e-42
197	0x8000233f	-1.2644e-41
198	0x80000e79	-5.192e-42
199	0x00001185	6.285e-42
200	0x80000c53	-4.421e-42
201	0x80001ed7	-1.1063e-41
202	0x800012b3	-6.708e-42
203	0x80001364	-6.956e-42
204	0x800002db	-1.024e-42
205	0x800010f3	-6.08e-42
206	0x800021ad	-1.208e-41
207	0x80000775	-2.675e-42
208	0x80001040	-5.83e-42
209	0x80001582	-7.716e-42
210	0x00000b5e	4.078e-42
211	0x80000d4f	-4.774e-42
212	0x80001357	-6.938e-42
213	0x00002527	1.3328e-41
214	0x80001247	-6.557e-42
215	0x80000e14	-5.05e-42
216	0x80001b4f	-9.796e-42
217	0x80001990	-9.17e-42
218	0x000026a3	1.386e-41
219	0x80000e4b	-5.127e-42
220	0x80000ee9	-5.349e-42
221	0x8000171f	-8.294e-42
222	0x80002134	-1.1911e-41
223	0x8000126b	-6.607e-42
224	0x800010e4	-6.059e-42
225	0x8000173a	-8.332e-42
226	0x80000b96	-4.156e-42
227	0x800005a6	-2.026e-42
228	0x800010a6	-5.972e-42
229	0x00000e72	5.182e-42
230	0x80001291	-6.66e-42
231	0x80002533	-1.3345e-41
232	0x000022a4	1.2427e-41
233	0x80001592	-7.738e-42
234	0x80001302	-6.819e-42
235	0x80001ff0	-1.1457e-41
236	0x00001488	7.365e-42
237	0x0000128b	6.652e-42
238	0x800026d7	-1.3933e-41
239	0x80001089	-5.932e-42
240	0x80001d55	-1.0522e-41
241	0x00000ee6	5.345e-42
242	0x80001da8	-1.0639e-41
243	0x80001d31	-1.0472e-41
244	0x80000fee	-5.714e-42
245	0x8000229a	-1.2413e-41
246	0x80002278	-1.2365e-41
247	0x80000ba1	-4.172e-42
248	0x80001cb7	-1.0301e-41
249	0x80000c18	-4.338e-42
250	0x80000709	-2.524e-42
251	0x8000180d	-8.628e-42
252	0x80000755	-2.63e-42
253	0x800023c1	-1.2826e-41
254	0x80002196	-1.2048e-41
255	0x800024bf	-1.3182e-41

linear2.bias f4 [64]
0	0x80000fcc	-5.667e-42
1	0x80001a49	-9.43e-42
2	0x80001979	-9.138e-42
3	0x80001eb1	-1.101e-41
4	0xbd35c872	-0.044380613
5	0x800019ac	-9.21e-42
6	0x80000b1f	-3.99e-42
7	0x80000e8b	-5.217e-42
8	0x800025fc	-1.3626e-41
9	0x80002188	-1.2029e-41
10	0x800025a6	-1.3506e-41
11	0xbcd363ab	-0.025804361
12	0x8000182c	-8.671e-42
13	0x80000e13	-5.049e-42
14	0x3e8c2a73	0.27376136
15	0x3e105979	0.14096631
16	0x8000172d	-8.314e-42
17	0x80001864	-8.75e-42
18	0xbe6c5292	-0.23078373
19	0x8000114d	-6.206e-42
20	0x8000129e	-6.679e-42
21	0x80000ca9	-4.542e-42
22	0xbe44d16e	-0.19220516
23	0x80000513	-1.82e-42
24	0x80001b1c	-9.725e-42
25	0x8000181d	-8.65e-42
26	0x80000aba	-3.848e-42
27	0x80000ab6	-3.842e-42
28	0xbd6fb210	-0.058519423
29	0x80001fd4	-1.1418e-41
30	0x3e2b5ae5	0.16733892
31	0x80001177	-6.265e-42
32	0x3db530d2	0.08847202
33	0x80002496	-1.3125e-41
34	0x3ecf4833	0.4048477
35	0x8000123d	-6.543e-42
36	0x80002253	-1.2313e-41
37	0x80001fe2	-1.1437e-41
38	0x80001c95	-1.0253e-41
39	0x80001976	-9.134e-42
40	0x3e017bd1	0.12644888
41	0x8000191a	-9.005e-42
42	0x80001438	-7.253e-42
43	0x3c9cadb4	0.019125797
44	0x80001715	-8.28e-42
45	0x800006be	-2.419e-42
46	0x800016aa	-8.13e-42
47	0x8000131a	-6.852e-42
48	0x3dc3b97f	0.09556865
49	0x800021fe	-1.2194e-41
50	0x8000170f	-8.272e-42
51	0x80000b24	-3.997e-42
52	0x80002338	-1.2634e-41
53	0x80001330	-6.883e-42
54	0x3d5f8b29	0.054576073
55	0x80001e6a	-1.091e-41
56	0xa211db84	-1.9767375e-18
57	0x80001e84	-1.0947e-41
58	0x80001d34	-1.0476e-41
59	0x80000a96	-3.798e-42
60	0x3cd523c8	0.026018038
61	0x80001b0e	-9.705e-42
62	0x80002398	-1.2769e-41
63	0x80001f80	-1.13e-41

linear3.weight f4 [32, 64]
0	0x0000216f	1.1994e-41
1	0x800017cb	-8.535e-42
2	0x00001b0c	9.703e-42
3	0x0000189c	8.828e-42
4	0x8000028e	-9.16e-43
5	0x0000148d	7.372e-42
6	0x80000cc7	-4.584e-42
7	0x00001506	7.542e-42
8	0x80001d31	-1.0472e-41
9	0x800019f6	-9.313e-42
10	0xbae97c94	-0.0017813616
11	0x8fb69ed2	-1.8007761e-29
12	0x80001bae	-9.93e-42
13	0x000016b5	8.146e-42
14	0x80001904	-8.974e-42
15	0x800024e0	-1.3228e-41
16	0x00001fc6	1.1398e-41
17	0x80000aaf	-3.833e-42
18	0x84904aed	-3.3923046e-36
19	0x80001fe7	-1.1444e-41
20	0x000024d1	1.3207e-41
21	0x000019f1	9.306e-42
22	0x80001747	-8.35e-42
23	0x800017b7	-8.507e-42
24	0x800010a4	-5.97e-42
25	0x80001988	-9.159e-42
26	0x80001080	-5.919e-42
27	0x800019ba	-9.229e-42
28	0x000024bb	1.3176e-41
29	0x00000b46	4.044e-42
30	0x000009ee	3.562e-42
31	0x80000d0c	-4.68e-42
32	0x80001b3b	-9.768e-42
33	0x80000ebc	-5.286e-42
34	0x8000116d	-6.251e-42
35	0x80001d18	-1.0437e-41
36	0x800003ff	-1.434e-42
37	0x800009c6	-3.506e-42
38	0x80000a12	-3.613e-42
39	0x00001df5	1.0747e-41
40	0x80000948	-3.33e-42
41	0x80002061	-1.1615e-41
42	0x00000f15	5.41e-42
43	0x80000db2	-4.913e-42
44	0x800026d3	-1.3928e-41
45	0x80001fd1	-1.1414e-41
46	0x80001e25	-1.0814e-41
47	0x00001885	8.796e-42
48	0x875b3e86	-1.6494103e-34
49	0x80000d4b	-4.769e-42
50	0x00002250	1.2309e-41
51	0x00000720	2.556e-42
52	0x0000150c	7.55e-42
53	0x00001c71	1.0203e-41
54	0x80002095	-1.1688e-41
55	0x80000aa9	-3.824e-42
56	0x3aecdbfe	0.0018070934
57	0x00001348	6.917e-42
58	0x0000121b	6.495e-42
59	0x80001778	-8.419e-42
60	0x00000eca	5.305e-42
61	0x000019b6	9.223e-42
62	0x80001d81	-1.0584e-41
63	0x00000f1b	5.419e-42
64	0x800024c7	-1.3193e-41
65	0x00001476	7.34e-42
66	0x00002540	1.3363e-41
67	0x800017f4	-8.593e-42
68	0x3d20255f	0.03909814
69	0x800003ff	-1.434e-42
70	0x800022a0	-1.2421e-41
71	0x80000c80	-4.484e-42
72	0x80001d2c	-1.0465e-41
73	0x80001bd4	-9.983e-42
74	0x1e90f717	1.5348787e-20
75	0x3d0739ab	0.03301398
76	0x80000f97	-5.593e-42
77	0x800026bb	-1.3894e-41
78	0x3ea4bfda	0.3217762
79	0xbde8412b	-0.11340555
80	0x800008f8	-3.217e-42
81	0x80001cfa	-1.0395e-41
82	0x3f130241	0.57425314
83	0x800018eb	-8.939e-42
84	0x8000025c	-8.46e-43
85	0x000022ec	1.2528e-41
86	0x3f009e05	0.5024112
87	0x00002325	1.2607e-41
88	0x0000132e	6.88e-42
89	0x80000b39	-4.026e-42
90	0x80000ed0	-5.314e-42
91	0x800016e1	-8.207e-42
92	0x3cff6d58	0.031180069
93	0x80001458	-7.298e-42
94	0x3bf466e0	0.0074585527
95	0x8000136a	-6.964e-42
96	0x3ce84bac	0.028356396
97	0x800026bf	-1.39e-41
98	0xbe695afc	-0.22788614
99	0x8000101a	-5.776e-42
100	0x00001c0a	1.0059e-41
101	0x800010ad	-5.982e-42
102	0x000011f6	6.443e-42
103	0x80001001	-5.741e-42
104	0x3e2672ff	0.16254805
105	0x00000707	2.521e-42
106	0x800015b7	-7.79e-42
107	0xbdcd063b	-0.10010954
108	0x80001591	-7.737e-42
109	0x80000b99	-4.16e-42
110	0x80000b16	-3.977e-42
111	0x800012ba	-6.718e-42
112	0xbd9dc556	-0.077036545
113	0x80001216	-6.488e-42
114	0x000020c9	1.1761e-41
115	0x80001465	-7.316e-42
116	0x80002520	-1.3318e-41
117	0x80002239	-1.2277e-41
118	0x3ecfb767	0.40569612
119	0x80001d0e	-1.0423e-41
120	0x1e99edfc	1.6297933e-20
121	0x00002282	1.2379e-41
122	0x800015dc	-7.842e-42
123	0x80001112	-6.124e-42
124	0x3d40e9ad	0.04709785
125	0x80001af9	-9.676e-42
126	0x80000a14	-3.615e-42
127	0x80001050	-5.852e-42
128	0x00001f69	1.1268e-41
129	0x80000fa2	-5.608e-42
130	0x80000a7a	-3.758e-42
131	0x80001022	-5.787e-42
132	0x80000544	-1.889e-42
133	0x000015be	7.8e-42
134	0x80001e2f	-1.0828e-41
135	0x80002613	-1.3658e-41
136	0x80002204	-1.2203e-41
137	0x800017f4	-8.593e-42
138	0x89a37372	-3.9349387e-33
139	0x80000fd8	-5.684e-42
140	0x000026b0	1.3878e-41
141	0x80001851	-8.723e-42
142	0x80000528	-1.85e-42
143	0x00001412	7.2e-42
144	0x00000b43	4.04e-42
145	0x00000a98	3.8e-42
146	0x80001757	-8.373e-42
147	0x800013cf	-7.106e-42
148	0x80001202	-6.46e-42
149	0x80002307	-1.2565e-41
150	0x80001373	-6.977e-42
151	0x000010f5	6.083e-42
152	0x800013ea	-7.144e-42
153	0x80001f2f	-1.1187e-41
154	0x80001fdf	-1.1433e-41
155	0x800011ed	-6.43e-42
156	0x000025ff	1.363e-41
157	0x80000625	-2.204e-42
158	0x80000c1b	-4.343e-42
159	0x80001e30	-1.0829e-41
160	0x800023e2	-1.2872e-41
161	0x800018b4	-8.862e-42
162	0x83f373b2	-1.4308819e-36
163	0x00001454	7.292e-42
164	0x800008af	-3.115e-42
165	0x00000ff9	5.73e-42
166	0x80000007	-1e-44
167	0x80001e12	-1.0787e-41
168	0x8000142e	-7.239e-42
169	0x80000ad2	-3.882e-42
170	0x0000156d	7.686e-42
171	0x800010c1	-6.01e-42
172	0x80001d3c	-1.0487e-41
173	0x00001225	6.509e-42
174	0x8000092e	-3.293e-42
175	0x800017e0	-8.565e-42
176	0x8000223a	-1.2278e-41
177	0x8000178f	-8.451e-42
178	0x80000c91	-4.508e-42
179	0x000010c2	6.012e-42
180	0x80001785	-8.437e-42
181	0x000009e5	3.55e-42
182	0x80001460	-7.309e-42
183	0x000025d1	1.3566e-41
184	0x800023b7	-1.2812e-41
185	0x80002578	-1.3441e-41
186	0x0000153d	7.619e-42
187	0x80000ce9	-4.631e-42
188	0x80000a31	-3.656e-42
189	0x80002023	-1.1528e-41
190	0x000015e9	7.86e-42
191	0x800014d1	-7.468e-42
192	0x000014b0	7.421e-42
193	0x8000240b	-1.293e-41
194	0x80000cc6	-4.582e-42
195	0x00000eb7	5.279e-42
196	0x3d3f1f51	0.046660725
197	0x800003de	-1.387e-42
198	0x00000958	3.352e-42
199	0x00001dd0	1.0695e-41
200	0x800013cf	-7.106e-42
201	0x000017ec	8.582e-42
202	0xb76b4cd3	-1.4024979e-05
203	0x3f72ae8a	0.94797575
204	0x0000050d	1.812e-42
205	0x00001f4a	1.1224e-41
206	0xbf239e4f	-0.63913435
207	0x3da97e55	0.08276049
208	0x800016a1	-8.118e-42
209	0x80001de6	-1.0726e-41
210	0xbe95afb4	-0.29235613
211	0x80001f0d	-1.1139e-41
212	0x8000075f	-2.644e-42
213	0x80000ed2	-5.317e-42
214	0xbe5811ec	-0.21100587
215	0x80001f14	-1.1149e-41
216	0x80000f09	-5.394e-42
217	0x00002126	1.1891e-41
218	0x00000aee	3.921e-42
219	0x80001aec	-9.658e-42
220	0xbd0da1b1	-0.03457803
221	0x000020f1	1.1817e-41
222	0x3e085aff	0.13315962
223	0x800020ae	-1.1723e-41
224	0xbdad2d7d	-0.08455942
225	0x8000176a	-8.4e-42
226	0xbe9a02bd	-0.30080214
227	0x80001950	-9.08e-42
228	0x80001164	-6.239e-42
229	0x80001af3	-9.668e-42
230	0x80001c0c	-1.0061e-41
231	0x0000259c	1.3492e-41
232	0x3ee283a5	0.44241062
233	0x8000171f	-8.294e-42
234	0x800019e9	-9.295e-42
235	0x3f0278ab	0.50965375
236	0x800024b2	-1.3164e-41
237	0x00001497	7.386e-42
238	0x00000a6f	3.743e-42
239	0x800011e2	-6.415e-42
240	0x3f0d5ed3	0.55222815
241	0x000025db	1.358e-41
242	0x80001418	-7.208e-42
243	0x8000205d	-1.161e-41
244	0x800013fd	-7.17e-42
245	0x00001a49	9.43e-42
246	0xbf2a350f	-0.6648721
247	0x00001b52	9.8e-42
248	0x2e69b97d	5.3142813e-11
249	0x80001b42	-9.778e-42
250	0x8000269c	-1.385e-41
251	0x00000ac1	3.858e-42
252	0xbb2c821c	-0.0026322668
253	0x80001800	-8.61e-42
254	0x80000b74	-4.109e-42
255	0x80002383	-1.2739e-41

linear3.bias f4 [32]
0	0x80001005	-5.747e-42
1	0xbe64ebfd	-0.22355647
2	0xae31ce86	-4.042857e-11
3	0x3eddf1ca	0.43348533
4	0x8000220d	-1.2215e-41
5	0x8000174b	-8.356e-42
6	0x3e319ffd	0.17346187
7	0xb6a33dfa	-4.8649936e-06
8	0x3d69cf17	0.057082262
9	0xbd11cdce	-0.03559666
10	0x3e279539	0.16365518
11	0x8000095b	-3.356e-42
12	0x3edf74c3	0.4364377
13	0xbc51b843	-0.012800279
14	0x3b303780	0.002688855
15	0x3e189c23	0.14903311
16	0x3f27503f	0.6535682
17	0xb805d622	-3.1909098e-05
18	0x3e142da8	0.14470541
19	0x3e5656c1	0.20931531
20	0x80000ff3	-5.722e-42
21	0x800012cd	-6.744e-42
22	0x3e1f5390	0.1555922
23	0xbd0cbc97	-0.03435954
24	0x3edb1df1	0.4279628
25	0xbc71b942	-0.014753642
26	0x3db72e88	0.08944422
27	0xb09da556	-1.1470245e-09
28	0x3ed9f829	0.42572144
29	0xbd929921	-0.07158113
30	0xbdf0e9d7	-0.117633514
31	0xa9dcedd8	-9.811222e-14

linear4.weight f4 [64, 96]
0	0x80000e4b	-5.127e-42
1	0xbd200915	-0.03907116
2	0x000014a7	7.409e-42
3	0x3e9142d1	0.2837129
4	0x00001670	8.049e-42
5	0x3ae927ad	0.0017788314
6	0xbdca2e09	-0.09872062
7	0x0000180c	8.626e-42
8	0xbd735cf1	-0.059414808
9	0x39f3c850	0.00046497816
10	0x3c9552b9	0.018227922
11	0x3aea6619	0.0017883211
12	0xbddcea26	-0.10786848
13	0x00001e94	1.097e-41
14	0x3ccc0552	0.02490488
15	0xbdd8d04a	-0.10586603
16	0xbe249620	-0.16072893
17	0x80000c58	-4.428e-42
18	0xbd577107	-0.052598026
19	0xbaf0e8d0	-0.001837993
20	0x00001e27	1.0817e-41
21	0x00001aa3	9.555e-42
22	0xbd7f80ff	-0.06237888
23	0x371702db	9.000966e-06
24	0xbdf22a7a	-0.11824508
25	0x390f6c43	0.00013677873
26	0x3d66336b	0.05620138
27	0x000023f5	1.2899e-41
28	0x3d88a6e9	0.066724606
29	0xb93ed098	-0.00018197519
30	0xbb3a486e	-0.002842452
31	0x000016fb	8.244e-42
32	0x0000085f	3.003e-42
33	0xbd2ec0ef	-0.042664465
34	0x0000190d	8.987e-42
35	0xbd6c4e8f	-0.057692107
36	0x00000b61	4.082e-42
37	0xbaecfed1	-0.0018081312
38	0xbe6d5526	-0.23177013
39	0x1316546a	1.8974281e-27
40	0xbc77e1e7	-0.015129543
41	0x3c96df25	0.01841695
42	0x3ab5675c	0.0013840008
43	0x80000b2f	-4.012e-42
44	0x3d19e367	0.037570383
45	0x278a89c5	3.8452064e-15
46	0xbdd82dac	-0.10555586
47	0xba817020	-0.0009875335
48	0x3d053feb	0.03253166
49	0x1c9632d5	9.939307e-22
50	0x3c4e36ee	0.012586338
51	0x3b840ab4	0.004029596
52	0x000010ae	5.984e-42
53	0x80002406	-1.2923e-41
54	0x3cd87915	0.026424924
55	0x3ac09d45	0.0014695307
56	0x3d020d49	0.03175095
57	0x36f755ed	7.3711767e-06
58	0xbc0e0422	-0.0086679775
59	0x00000fdf	5.693e-42
60	0x3c0ed237	0.008717111
61	0xbda3bfb6	-0.0799555
62	0xb998f2c6	-0.0002917258
63	0x00000c5f	4.438e-42
64	0x00001ac0	9.596e-42
65	0xbcf94906	-0.030430328
66	0x00001c22	1.0092e-41
67	0x3cd01ef0	0.025405377
68	0x00000ae9	3.914e-42
69	0x80000d33	-4.735e-42
70	0xbe53d2f0	-0.20685935
71	0x963aad63	-1.5079672e-25
72	0xbc555aa0	-0.013022095
73	0x3cac224c	0.021012448
74	0x3cbfaa7b	0.023396721
75	0x80001e15	-1.0791e-41
76	0x3cec5df2	0.02885339
77	0xb6160241	-2.2353054e-06
78	0xbd931a15	-0.07182709
79	0xbc8693a7	-0.016427828
80	0x3c6f56e2	0.014608117
81	0xa906ebf9	-2.995865e-14
82	0xbd0d1257	-0.03444132
83	0xba9f51f3	-0.001215516
84	0x00002102	1.1841e-41
85	0x80001e85	-1.0948e-41
86	0x3c8783c0	0.016542315
87	0x3abd8a38	0.0014460748
88	0x3ca5092e	0.020145979
89	0x363bc5f5	2.7980398e-06
90	0x3c2f092f	0.010683342
91	0x00002019	1.1514e-41
92	0x3b6c98cc	0.0036101816
93	0xbd638344	-0.055545107
94	0xb03e1cce	-6.916253e-10
95	0x00001fbb	1.1383e-41
96	0xbaea4507	-0.0017873355
97	0xa5f52a79	-4.2529506e-16
98	0x3aeceddf	0.0018076262
99	0xbb820beb	-0.003968706
100	0xbaeaa012	-0.0017900488
101	0xbaea9fff	-0.0017900466
102	0xb7add1da	-2.0720927e-05
103	0xbaee2a89	-0.0018170635
104	0x3562f8c8	8.4553585e-07
105	0xaeffc0be	-1.1630295e-10
106	0xb9126a8f	-0.00013963341
107	0xbaeaa5fa	-0.0017902248
108	0xba903478	-0.0011001965
109	0x8000153e	-7.62e-42
110	0xb6c42293	-5.84528e-06
111	0x399f6474	0.00030401687
112	0xbb541853	-0.0032363131
113	0x800000c4	-2.75e-43
114	0xb7a4fabe	-1.9667084e-05
115	0xb964bee5	-0.00021814888
116	0x3aea9fd3	0.0017900415
117	0x3aea9f06	0.0017900176
118	0xb7f4ac42	-2.916728e-05
119	0x000021aa	1.2076e-41
120	0xba4f9b30	-0.0007919548
121	0x835dcd5f	-6.5181817e-37
122	0xb7785a01	-1.4802908e-05
123	0x3ae96cf1	0.0017808956
124	0xbabad01e	-0.0014252698
125	0x800015de	-7.844e-42
126	0xba85f29d	-0.0010219399
127	0xbafcaf0d	-0.0019278243
128	0xbae9b4f1	-0.0017830414
129	0xbc97fdeb	-0.018553695
130	0x80002492	-1.3119e-41
131	0xbcee7d37	-0.029112441
132	0x3aeaa012	0.0017900488
133	0x3aeaa4f8	0.0017901948
134	0xbbb90f0c	-0.0056475457
135	0x80000287	-9.07e-43
136	0xbc8655a3	-0.016398257
137	0x31927371	4.2622834e-09
138	0xbc267695	-0.010160108
139	0x3aeaccb3	0.0017913788
140	0x398128d2	0.0002463521
141	0x0000197e	9.145e-42
142	0xbd0e05b5	-0.03467341
143	0xbca0108e	-0.019539144
144	0x3a2d43e2	0.00066095416
145	0x00000cfc	4.658e-42
146	0xb995f6bd	-0.0002860333
147	0xb38735b2	-6.2961945e-08
148	0x3aea9fd4	0.0017900416
149	0x3aeaa058	0.0017900569
150	0xb9831273	-0.00025000013
151	0x0925189f	1.987273e-33
152	0x3986d738	0.00025718822
153	0xa131176e	-6.000094e-19
154	0xbce6c8e8	-0.028171971
155	0xbae676b7	-0.0017582987
156	0xbcbf6672	-0.02336428
157	0xa7283f94	-2.334915e-15
158	0xbb053b88	-0.0020329673
159	0x800026d0	-1.3923e-41
160	0x3aeaffef	0.0017929057
161	0xbb86b8a1	-0.004111365
162	0x800014a4	-7.404e-42
163	0xbd499aaf	-0.049219783
164	0x3aeaa000	0.0017900467
165	0x3aeb24f7	0.0017940094
166	0xbb037ad3	-0.0020062223
167	0x800004d7	-1.736e-42
168	0xb9c68d27	-0.0003787067
169	0xb1a397cc	-4.7611817e-09
170	0xba5fa304	-0.0008531066
171	0x3ae9b7a6	0.0017831221
172	0x3b774e31	0.0037735815
173	0x800010a7	-5.974e-42
174	0xbd378596	-0.04480513
175	0xba3c0997	-0.000717306
176	0x3af096ef	0.0018355529
177	0x80001c4b	-1.015e-41
178	0xb9ab1280	-0.00032629445
179	0xb8fe472e	-0.00012124922
180	0x800012f0	-6.793e-42
181	0xbaea9fd4	-0.0017900416
182	0xb950d727	-0.00019916576
183	0xb44448da	-1.8280426e-07
184	0x3ab35f04	0.0013684933
185	0xb2692e8c	-1.35729685e-08
186	0xbd2fb193	-0.042893957
187	0x3ae848a2	0.0017721842
188	0xbcca1d74	-0.024672247
189	0x80001106	-6.107e-42
190	0xb9009323	-0.00012261844
191	0x800000bd	-2.65e-43
192	0x00000987	3.418e-42
193	0x800010af	-5.985e-42
194	0x80000b5c	-4.075e-42
195	0x800023b1	-1.2804e-41
196	0x80001365	-6.957e-42
197	0x8000147d	-7.35e-42
198	0x80001b92	-9.89e-42
199	0x80001fc7	-1.14e-41
200	0x80000fa5	-5.612e-42
201	0x800021ae	-1.2082e-41
202	0x80000a94	-3.795e-42
203	0x800024d1	-1.3207e-41
204	0x800021e9	-1.2165e-41
205	0x0000185d	8.74e-42
206	0x8000218d	-1.2036e-41
207	0x800009a7	-3.463e-42
208	0x80001757	-8.373e-42
209	0x8000126d	-6.61e-42
210	0x80002693	-1.3838e-41
211	0x80001cfc	-1.0398e-41
212	0x80000eb0	-5.269e-42
213	0x80000789	-2.703e-42
214	0x800010b4	-5.992e-42
215	0x80001e12	-1.0787e-41
216	0x80002033	-1.1551e-41
217	0x80002187	-1.2027e-41
218	0x00001166	6.241e-42
219	0x80001a0c	-9.344e-42
220	0x00000246	8.16e-43
221	0x8000153c	-7.617e-42
222	0x800007f1	-2.849e-42
223	0x00000739	2.591e-42
224	0x80002251	-1.231e-41
225	0x80000708	-2.522e-42
226	0x80002630	-1.3699e-41
227	0x80001470	-7.332e-42
228	0x8000232b	-1.2616e-41
229	0x80001807	-8.62e-42
230	0x80000e8a	-5.216e-42
231	0x80000f97	-5.593e-42
232	0x80001447	-7.274e-42
233	0x80000ca6	-4.537e-42
234	0x80000b0e	-3.966e-42
235	0x8000255a	-1.3399e-41
236	0x800014af	-7.42e-42
237	0x00000779	2.68e-42
238	0x800000cf	-2.9e-43
239	0x80000ccf	-4.595e-42
240	0x80001518	-7.567e-42
241	0x800010b3	-5.99e-42
242	0x800023ab	-1.2795e-41
243	0x800014af	-7.42e-42
244	0x80001b46	-9.784e-42
245	0x80001765	-8.392e-42
246	0x80002451	-1.3028e-41
247	0x80000ed7	-5.324e-42
248	0x800008b2	-3.119e-42
249	0x8000208b	-1.1674e-41
250	0x80002026	-1.1533e-41
251	0x80001d15	-1.0433e-41
252	0x80001827	-8.664e-42
253	0x80002408	-1.2926e-41
254	0x8000222f	-1.2263e-41
255	0x000000c0	2.69e-43

linear4.bias f4 [64]
0	0xbce6d80b	-0.02817919
1	0xbbda90cf	-0.0066700946
2	0x00002236	1.2273e-41
3	0xbda891d3	-0.08230939
4	0x80001ea4	-1.0992e-41
5	0xbcd39f48	-0.025832787
6	0xbd6333ab	-0.055469196
7	0x377d5412	1.5099549e-05
8	0xbe4f6eda	-0.2025713
9	0xb9122885	-0.0001393874
10	0xbb725292	-0.0036975485
11	0xb828fa14	-4.0287225e-05
12	0xbe4e2c5b	-0.20134108
13	0xbd90f110	-0.07077229
14	0x3c5f66e5	0.013635372
15	0xbd79909a	-0.06092892
16	0xbd98c585	-0.07459549
17	0xba95a7a1	-0.0011417755
18	0x35a94172	1.2610528e-06
19	0x3d633ce0	0.055477977
20	0xb616ceba	-2.2472072e-06
21	0x3c1d2df0	0.009593472
22	0x3d745568	0.059651762
23	0x80001f11	-1.1145e-41
24	0x80001b58	-9.809e-42
25	0x3d398e4d	0.045301724
26	0x3eb3562f	0.3502669
27	0x80001f02	-1.1124e-41
28	0x80002310	-1.2578e-41
29	0x3e49635d	0.1966681
30	0x80000acf	-3.877e-42
31	0x3dfdb15a	0.12387343
32	0xbcffde39	-0.031233894
33	0x3d0d29fe	0.034463875
34	0x3d8bb8f4	0.068223864
35	0x3d3057ae	0.043052368
36	0x3e812bb9	0.2522867
37	0x00000b63	4.085e-42
38	0x3e0b2d8e	0.13591596
39	0xbd37ce17	-0.044874277
40	0x3c81eee6	0.015860986
41	0x3e882322	0.26589304
42	0x3c635444	0.013875071
43	0xbac73cef	-0.0015200655
44	0x80001482	-7.357e-42
45	0x3726cb22	9.941667e-06
46	0xbd03c476	-0.03216978
47	0xbce56299	-0.028001117
48	0x80001dba	-1.0664e-41
49	0x3ada46a4	0.0016653133
50	0xbd1486cf	-0.036261376
51	0x80000f9e	-5.602e-42
52	0xbbe8ea35	-0.007107998
53	0xbc804da4	-0.015662022
54	0x80000ea2	-5.249e-42
55	0x80001dca	-1.0686e-41
56	0x3c8cb6d8	0.01717703
57	0x000010e3	6.058e-42
58	0xba489de5	-0.00076529226
59	0x3c83e7d2	0.016101751
60	0x37f03900	2.8636772e-05
61	0x3d1ac33a	0.03778384
62	0x3dcbceca	0.09951551
63	0x3e94891f	0.29010865

linear5.weight f4 [16, 64]
0	0xbbaf4c54	-0.005349675
1	0xbc4d4d48	-0.012530632
2	0x00000640	2.242e-42
3	0x3dc25c05	0.094902076
4	0x80000144	-4.54e-43
5	0xbcf3e5fe	-0.029772755
6	0xbc68c7c6	-0.014207786
7	0x31b65111	5.3061133e-09
8	0x3dcb2810	0.09919751
9	0x37c96bbb	2.4011233e-05
10	0x31c7e0e0	5.8172276e-09
11	0xb3481824	-4.6588085e-08
12	0x3e03885c	0.12844986
13	0x3d93ac67	0.072106175
14	0x3c9d560d	0.019206071
15	0x3e0ce031	0.13757397
16	0x3db74b3f	0.08949899
17	0x85cca824	-1.9245833e-35
18	0x32a6f4b6	1.9436225e-08
19	0xbd4780b0	-0.04870671
20	0x862646c5	-3.1273123e-35
21	0xbac02caf	-0.0014661754
22	0xbc8b3256	-0.016991775
23	0x00000bd2	4.24e-42
24	0x00001666	8.035e-42
25	0xbc21cae9	-0.009875038
26	0xbc6cd846	-0.0144558605
27	0x00000541	1.885e-42
28	0x00000063	1.39e-43
29	0xbd8a7934	-0.06761399
30	0x00000a3e	3.674e-42
31	0xbd51391c	-0.051079854
32	0x3c0301fd	0.0079960795
33	0xbd3010db	-0.042984825
34	0xbda7a0c8	-0.081849635
35	0xbcd5037e	-0.026002642
36	0xbdc6cbac	-0.09706816
37	0x000023bb	1.2818e-41
38	0xbba1a562	-0.0049330452
39	0xb6d623e6	-6.381876e-06
40	0xbd3488b8	-0.044075698
41	0xbdf3d465	-0.119057454
42	0x3b1cf7f7	0.002395151
43	0xb7c9705c	-2.4013389e-05
44	0x00001649	7.994e-42
45	0x37565457	1.2775031e-05
46	0xbccfac42	-0.025350694
47	0x3c74fce2	0.01495287
48	0x00000bc1	4.217e-42
49	0x3a9e5e76	0.0012082595
50	0x3dc15918	0.094408214
51	0x00001197	6.31e-42
52	0xbc47e4c6	-0.01220054
53	0xbd118b97	-0.035533514
54	0x000004ee	1.768e-42
55	0x00001635	7.966e-42
56	0xbd2bc3f0	-0.041934907
57	0x00001741	8.342e-42
58	0xbafb31e4	-0.0019164649
59	0xbd342c0f	-0.04398733
60	0x37710de4	1.4367954e-05
61	0xbd2ac94c	-0.041695878
62	0xbb57253a	-0.0032828585
63	0xb99dd058	-0.00030100602
64	0x80000833	-2.941e-42
65	0x8000158d	-7.731e-42
66	0x800004b6	-1.69e-42
67	0x80001b16	-9.717e-42
68	0x800023f1	-1.2893e-41
69	0x8000165c	-8.021e-42
70	0x8000140a	-7.189e-42
71	0x80002631	-1.37e-41
72	0x00000180	5.38e-43
73	0x80001b82	-9.868e-42
74	0x800023b1	-1.2804e-41
75	0x80000fde	-5.692e-42
76	0x80000c2c	-4.366e-42
77	0x80000b58	-4.07e-42
78	0x00000008	1.1e-44
79	0x800022c8	-1.2477e-41
80	0x80001be8	-1.0011e-41
81	0x80002036	-1.1555e-41
82	0x000019b3	9.219e-42
83	0x80001ddf	-1.0716e-41
84	0x0000230c	1.2572e-41
85	0x80000bb7	-4.202e-42
86	0x80001d45	-1.05e-41
87	0x00002020	1.1524e-41
88	0x80000aa3	-3.816e-42
89	0x00002415	1.2944e-41
90	0x80000e17	-5.054e-42
91	0x800014d9	-7.479e-42
92	0x80002072	-1.1639e-41
93	0x00001559	7.658e-42
94	0x80001476	-7.34e-42
95	0x80000ecb	-5.307e-42
96	0x8000264d	-1.374e-41
97	0x80000ff0	-5.717e-42
98	0x80000efc	-5.375e-42
99	0x800006d6	-2.452e-42
100	0x80000b5e	-4.078e-42
101	0x80000752	-2.626e-42
102	0x00000ee0	5.336e-42
103	0x800006ff	-2.51e-42
104	0x80001f17	-1.1153e-41
105	0x00000d10	4.686e-42
106	0x80001fe4	-1.144e-41
107	0x800016b9	-8.151e-42
108	0x00001e3c	1.0846e-41
109	0x80002324	-1.2606e-41
110	0x800022c3	-1.247e-41
111	0x80000c1d	-4.345e-42
112	0x80002335	-1.263e-41
113	0x80002288	-1.2387e-41
114	0x8000103d	-5.825e-42
115	0x80001609	-7.905e-42
116	0x80001d85	-1.059e-41
117	0x8000242e	-1.2979e-41
118	0x8000240d	-1.2933e-41
119	0x80001367	-6.96e-42
120	0x8000227b	-1.2369e-41
121	0x80000cb8	-4.563e-42
122	0x80000845	-2.967e-42
123	0x80000d46	-4.762e-42
124	0x00000f75	5.545e-42
125	0x80001ade	-9.638e-42
126	0x8000133b	-6.899e-42
127	0x80001545	-7.63e-42
128	0xb78e6471	-1.697449e-05
129	0xb30a1c29	-3.215624e-08
130	0x80001e2f	-1.0828e-41
131	0x3d4ac136	0.049500667
132	0x0000183d	8.695e-42
133	0xbbe57da8	-0.007003505
134	0x3ce00371	0.027345391
135	0xba471e42	-0.00075957563
136	0x3de417cf	0.11137354
137	0x3580d9b7	9.600107e-07
138	0x2e7ef79b	5.797283e-11
139	0x35f33e60	1.8123064e-06
140	0x3de8fe34	0.113766104
141	0x3d1e2fa9	0.03861967
142	0x3c24e887	0.010065204
143	0x3db5a635	0.08869592
144	0x3d2d4dc3	0.042310487
145	0x2d9f56a3	1.8114682e-11
146	0xb94507f8	-0.00018790353
147	0xbcce2ff0	-0.025169343
148	0x8d88036e	-8.382473e-31
149	0x399c8e1a	0.00029860513
150	0xbc6a834a	-0.014313528
151	0x80001278	-6.625e-42
152	0x00000d09	4.676e-42
153	0x3bd6ce86	0.006555381
154	0xbc1de2c0	-0.009636581
155	0x80000812	-2.895e-42
156	0x800014ad	-7.417e-42
157	0xbcce31e7	-0.02517028
158	0x80000c23	-4.354e-42
159	0xbd480295	-0.048830587
160	0x3c4aa11a	0.012367511
161	0x3a3dedfc	0.000724524
162	0xbc0c24e4	-0.008553717
163	0xbc4ae775	-0.012384285
164	0xbcbe0a2d	-0.023198212
165	0x800010e0	-6.054e-42
166	0xbc6dd592	-0.014516251
167	0xb9553a5e	-0.00020335006
168	0xbc56660a	-0.013085851
169	0xbd0201ba	-0.031739928
170	0x3a8b5e1a	0.0010632903
171	0x3699db40	4.5852794e-06
172	0x80001c1a	-1.0081e-41
173	0x36aa779e	5.08032e-06
174	0xba168154	-0.0005741317
175	0x3d154d5c	0.03645073
176	0x80001808	-8.621e-42
177	0x3894e29c	7.099399e-05
178	0x3d606600	0.054784775
179	0x80000d3f	-4.752e-42
180	0x381a5991	3.6799876e-05
181	0x3ba297a2	0.0049619237
182	0x00001ef9	1.1111e-41
183	0x80001266	-6.6e-42
184	0xbc5003ba	-0.012696201
185	0x80000d0e	-4.683e-42
186	0xb82335fe	-3.8912513e-05
187	0xbc545482	-0.012959601
188	0x34d5a33d	3.9793113e-07
189	0xbd080cf9	-0.033215497
190	0xbad06fd2	-0.0015902466
191	0x399283b6	0.00027945422
192	0x00000dc3	4.937e-42
193	0x800016c9	-8.174e-42
194	0x80000779	-2.68e-42
195	0x000017d0	8.542e-42
196	0x800020a2	-1.1706e-41
197	0x80001516	-7.564e-42
198	0x80000fa3	-5.61e-42
199	0x8000252d	-1.3336e-41
200	0x800020ae	-1.1723e-41
201	0x00000f0a	5.395e-42
202	0x800008ef	-3.205e-42
203	0x80001374	-6.978e-42
204	0x800022f6	-1.2542e-41
205	0x80002125	-1.189e-41
206	0x800024a3	-1.3143e-41
207	0x80000de6	-4.986e-42
208	0x80001562	-7.671e-42
209	0x80000864	-3.01e-42
210	0x00000ff2	5.72e-42
211	0x8000117a	-6.27e-42
212	0x000019d8	9.271e-42
213	0x80001c14	-1.0073e-41
214	0x80000ccf	-4.595e-42
215	0x80001dc5	-1.0679e-41
216	0x800016e9	-8.219e-42
217	0x80000e38	-5.101e-42
218	0x800022f2	-1.2536e-41
219	0x80001f0a	-1.1135e-41
220	0x80002382	-1.2738e-41
221	0x80001a24	-9.377e-42
222	0x00000750	2.623e-42
223	0x00001dd7	1.0705e-41
224	0x00002330	1.2623e-41
225	0x80001410	-7.197e-42
226	0x80002632	-1.3702e-41
227	0x80001533	-7.605e-42
228	0x00001ef6	1.1107e-41
229	0x8000259b	-1.349e-41
230	0x80000fcd	-5.668e-42
231	0x80000e05	-5.029e-42
232	0x800007a9	-2.748e-42
233	0x80001c74	-1.0207e-41
234	0x800020f3	-1.182e-41
235	0x800010d7	-6.041e-42
236	0x00001973	9.13e-42
237	0x8000177e	-8.427e-42
238	0x800020c1	-1.175e-41
239	0x800019b6	-9.223e-42
240	0x00001de1	1.0719e-41
241	0x800022c2	-1.2469e-41
242	0x800014a7	-7.409e-42
243	0x80001220	-6.502e-42
244	0x800006fd	-2.507e-42
245	0x80000af2	-3.926e-42
246	0x80000dd9	-4.968e-42
247	0x800018ed	-8.942e-42
248	0x800026b5	-1.3885e-41
249	0x800007e5	-2.832e-42
250	0x80001347	-6.915e-42
251	0x80001889	-8.802e-42
252	0x0000093d	3.314e-42
253	0x80001470	-7.332e-42
254	0x80000755	-2.63e-42
255	0x00001399	7.03e-42

linear5.bias f4 [16]
0	0xbd3ccd8f	-0.046094473
1	0x8000260d	-1.365e-41
2	0xbc8f7346	-0.017511021
3	0x80002033	-1.1551e-41
4	0x80001182	-6.28e-42
5	0x3d57790a	0.052605666
6	0x3d91d0e4	0.07119921
7	0x3e212a05	0.15738685
8	0x80001661	-8.028e-42
9	0xbd2ba4a4	-0.04190506
10	0xbd624e8a	-0.055250682
11	0x3eacf2cf	0.33778998
12	0xbd2c998e	-0.04213863
13	0xbd11560d	-0.035482455
14	0x3de4ae51	0.11166061
15	0x3ddb115f	0.10696673

linear6.weight f4 [4, 16]
0	0xbd03298e	-0.03202205
1	0x80000c5f	-4.438e-42
2	0xbd4cad70	-0.04997009
3	0x80001b23	-9.735e-42
4	0x80000a4a	-3.691e-42
5	0x3e2d6df1	0.1693647
6	0x3f33a3ba	0.701717
7	0x3f19262c	0.5982387
8	0x000021a4	1.2068e-41
9	0xbd02843b	-0.031864386
10	0xbd6743a8	-0.056461006
11	0x3ea9d20b	0.33168063
12	0xbf46593b	-0.77479905
13	0xbcca6900	-0.024708271
14	0xbdfa6487	-0.12226205
15	0x3f25aba5	0.64715034
16	0xba958e68	-0.0011410238
17	0x80001ad6	-9.627e-42
18	0xbd3ef11d	-0.046616662
19	0x00000c79	4.474e-42
20	0x80002554	-1.3391e-41
21	0x3e2e904f	0.17047237
22	0xbdaaf5e5	-0.08347682
23	0xbec84cad	-0.39121
24	0x00001a8e	9.526e-42
25	0xba040264	-0.00050357566
26	0xbac85788	-0.0015284875
27	0x3b114042	0.0022163545
28	0xbf01e387	-0.50737804
29	0x39bea764	0.0003636434
30	0x3f405308	0.75126696
31	0xbec1618f	-0.37769744
32	0x3e7945e2	0.24343064
33	0x00001975	9.132e-42
34	0x3e01369b	0.12618487
35	0x00000803	2.874e-42
36	0x00001323	6.865e-42
37	0xbdc27896	-0.09495656
38	0xbde1177d	-0.10990808
39	0xbdfe0de0	-0.1240499
40	0x80000991	-3.432e-42
41	0x3e836868	0.25665593
42	0x3eb2757a	0.34855253
43	0xbf5bd1f6	-0.8586725
44	0x3f17f6fe	0.59361255
45	0x3e78d9d2	0.24301842
46	0xbef45a6d	-0.4772524
47	0xbdf65d4e	-0.12029515
48	0xbd9ba385	-0.07599548
49	0x000022c3	1.247e-41
50	0x3cf14fa7	0.029456927
51	0x000016c0	8.161e-42
52	0x00001a7a	9.498e-42
53	0xbe5dac2e	-0.21647713
54	0xbdb15d4e	-0.086603746
55	0xbeaccdb1	-0.3375068
56	0x80001c14	-1.0073e-41
57	0xbde46118	-0.11151332
58	0xbdf3bfe5	-0.11901835
59	0x3f7901e5	0.97268516
60	0x3e826ad9	0.25472143
61	0xbe030762	-0.12795785
62	0xbc55dacf	-0.013052656
63	0xbe18395c	-0.14865631

linear6.bias f4 [4]
0	0x3e1a2dc6	0.15056524
1	0x3d82eafd	0.06392477
2	0xbe042942	-0.12906364
3	0x3db1debb	0.086850606
