checkpoints/dnn_7.pt (torch, 257573 bytes, 12 tensors)

linear1.weight f4 [128, 358]
000000 8c 07 b2 b9 b8 f4 c7 39 8d 0b 85 3c 2b e8 b3 3b
       -0.00033956429 0.00038138567 0.01624086 0.005490323
000010 82 e2 65 ba 0d d1 1b bc 87 c3 bc 3d b4 ef 08 bd
       -0.0008769409 -0.009510291 0.092169814 -0.033431724
000020 44 2b c3 3d c2 2f eb bc aa f6 8d bc 22 cb 81 bc
       0.09529737 -0.028709296 -0.017329533 -0.015843932
000030 da c6 45 3b 1c 21 85 ba b2 83 e1 b8 e3 18 09 bd
       0.003017834 -0.0010156962 -0.00010753366 -0.033471
000040 ec a6 d9 bc f9 1a e1 bc 44 6d 70 bb 74 36 17 bd
       -0.026568852 -0.027478682 -0.003668622 -0.036917165
000050 08 cf a7 3c 0f 15 01 be c2 83 3e bb c9 5f f4 bb
       0.020484462 -0.1260569 -0.0029070233 -0.0074577075
000060 d5 47 12 bc 4d 75 ca bc bd fe 6d bc 1e f0 2d bc
       -0.008928259 -0.024714136 -0.014526066 -0.01061633
000070 75 49 12 bc 15 42 3c 3d 5e 03 6b 3c 70 48 15 bd
       -0.008928646 0.04596146 0.0143440645 -0.036446035
000080 fe 5b 47 bc d1 19 4c 3b 28 cd c3 3c fc 5f 8b 3c
       -0.012167929 0.0031143317 0.023901537 0.017013542
000090 ee 9b 84 bd 12 bd 11 3d c7 37 56 bc c6 ad 96 3c
       -0.06475054 0.035580702 -0.013074822 0.018393409
0000a0 b7 29 28 3c 9b 59 22 bb 4a 9b 33 3a b5 0c b4 bc
       0.010263852 -0.0024772647 0.0006851448 -0.021978715
0000b0 b2 9e 4e 3c 67 03 75 3a 4a 11 98 bb 88 33 63 bd
       0.012611078 0.0009346515 -0.004640733 -0.055469066
0000c0 52 7e dc ba 20 82 d2 ba 86 03 2d bb 68 c4 ef bc
       -0.0016822314 -0.0016060509 -0.0026399805 -0.029268458
0000d0 a3 97 e7 bb f1 42 d9 bd 99 fd a5 bc b7 1d 82 bc
       -0.007067637 -0.10608471 -0.020262526 -0.01588331
0000e0 75 1f cb bc 6b 1c 0c bc 6c ae d1 bc 7d ee e2 bc
       -0.024795273 -0.008551697 -0.025595866 -0.02770161
0000f0 a9 fb 9c bc ab 3a 7b bc 58 fe db bc 92 f7 32 bc
       -0.01916297 -0.015333812 -0.026854679 -0.010923283
000100 3b 3d 08 3b 51 58 a2 bc 54 85 a2 bc 31 03 92 3a
       0.002078845 -0.019817503 -0.019838966 0.0011139867
000110 16 dc c7 39 be 8e 17 3b bf 71 2e bc 4c 54 e0 3a
       0.00038120215 0.0023125852 -0.010647236 0.0017114966
000120 96 a1 13 3c 4e ae b7 3b ad e8 11 bc 25 86 94 bb
       0.009010693 0.0056054955 -0.008905572 -0.004532593
000130 b4 4d da b9 5c 5f 09 bc 38 65 cd 3a f5 fc 8f bc
       -0.00041638094 -0.008384552 0.0015670424 -0.017576674
000140 99 01 ee 3b da fa 7d 3a e0 52 43 bb 6e a1 13 bb
       0.007263374 0.0009688564 -0.0029804036 -0.002252664
000150 bc 2f 82 bb ed a6 70 bb f7 85 d7 ba 89 c0 ff bb
       -0.0039729755 -0.003672059 -0.0016443123 -0.0078049344
000160 ed 1f 42 b8 60 8f 2f 3b ef 40 0d bc a6 dd 89 3b
       -4.6282938e-05 0.002678834 -0.008621438 0.0042073308
000170 3d 8a 2d 3c 43 f2 b4 3b 6b 9e fe 3a 9c af ba bd
       0.010592041 0.005522044 0.0019425874 -0.09115526
000180 b2 04 2a bb 3c 29 4f 3b 09 61 45 3b 97 6b 4d 3b
       -0.002594274 0.003161027 0.0030117652 0.0031344646
000190 d7 cd b6 3b cb 11 60 3d 2f 07 09 ba cd c3 22 be
       0.0055787372 0.05470447 -0.00052272057 -0.15895005
0001a0 40 49 bb bc 8e 55 fb bc 08 5b 01 be cd dd 55 3d
       -0.022862077 -0.030680444 -0.12632382 0.05221348
0001b0 0c a0 ae bc 6b 00 2c 3d 4e 06 c1 bc 7f 22 72 3d
       -0.02131655 0.041992586 -0.023562577 0.05911493
0001c0 4b fc 92 37 9c 1b 75 bc 20 eb 9a bc 32 1e f0 3c
       1.752204e-05 -0.014960196 -0.018910944 0.029311273
0001d0 a9 53 66 bc f3 6c c5 3a 12 d1 8b 3d 62 7c 9d bc
       -0.014058032 0.0015062377 0.06826986 -0.01922435
0001e0 03 e9 15 bd ec 0f 8e bc b2 d5 84 3b 38 2a d3 3c
       -0.03659917 -0.017341577 0.004053795 0.025776967
0001f0 7c 37 c4 3c 49 4d 64 bd 2e 28 8f bc b8 62 f3 bc
       0.023952238 -0.055737767 -0.017475214 -0.029710159
000200 19 e1 de bc 5f ca d4 3b 95 1b 14 bd 0a f9 ab bb
       -0.027206944 0.006493851 -0.036159117 -0.0052481936
000210 8d c0 a3 b9 c1 06 d4 b6 10 4f c5 bc c0 79 9d bc
       -0.00031233244 -6.3188786e-06 -0.024085552 -0.019223094
000220 15 88 a8 bc 68 1e b6 b9 34 7a 66 b9 c9 59 2f bb
       -0.020572701 -0.000347364 -0.00021980033 -0.0026756397
000230 e1 48 a9 3c 49 83 1c bc 29 91 44 bb 0f 62 54 bd
       0.020664634 -0.009552785 -0.0029993749 -0.05185133
000240 a7 2a 95 3d e9 4b da bc 46 9d b5 3c 7b 19 c5 bd
       0.07283526 -0.026647525 0.02216972 -0.09624001
000250 20 e0 a8 bc 5e 2a 24 3c dc a8 c7 bd ec e5 06 be
       -0.020614684 0.010019867 -0.09749004 -0.13173646
000260 f1 b3 65 be 4e 13 09 bb 47 5b f2 bc 01 f8 a7 3c
       -0.22431923 -0.0020916048 -0.02958454 0.020504
000270 6b 8e 8f 3c 8c 0d 56 bd 8f f1 5d bd 55 43 1e 3c
       0.017523965 -0.052259013 -0.054185446 0.009659608
000280 db ad 01 bd 83 6a 9e 3c 51 9d f8 ba 23 a6 22 bc
       -0.031659942 0.019337898 -0.0018967782 -0.009927305
000290 df 22 90 3a dd 27 bb 3a 42 02 29 bb 8d 04 fc ba
       0.001099672 0.0014278848 -0.00257887 -0.001922743
0002a0 0f b0 80 bb b3 b9 d3 3a 8a dc c8 ba c7 b4 1d ba
       -0.003927238 0.0016153365 -0.0015324515 -0.00060160126
0002b0 37 e0 38 b9 1e 32 03 3d be 40 9a bb 2c 1e 7b 39
       -0.00017631134 0.032030217 -0.004707425 0.00023948465
0002c0 e4 d5 a2 38 a4 82 0b bc a8 73 3a 3c a1 c9 3c bb
       7.764602e-05 -0.008515034 0.011380114 -0.0028806704
0002d0 15 90 a9 bc 1a 49 35 b9 a0 92 8c 3b b6 50 93 bb
       -0.020698586 -0.00017288738 0.00428994 -0.0044957055
0002e0 d8 01 36 bc 7f 3d 7b 3b 9e 77 24 b7 f6 dc ee b9
       -0.011108838 0.0038336215 -9.803012e-06 -0.00045559526
0002f0 a3 82 43 38 fe 51 1f bd 68 20 b5 bd bc ef 85 3a
       4.6613288e-05 -0.038896553 -0.088440716 0.0010218541
000300 a5 20 e7 b9 4c ad e1 b6 d2 3a 24 39 54 f0 13 bd
       -0.00044084075 -6.725697e-06 0.00015662171 -0.036117867
000310 57 65 91 ba 18 94 39 b7 1e 17 81 b6 42 76 87 b8
       -0.0011092824 -1.106134e-05 -3.847191e-06 -6.459329e-05
000320 cc 8a 08 ba 4f 74 9c 39 8e c1 8d 3b 5e 2b 27 38
       -0.00052086706 0.00029841295 0.004326052 3.985629e-05
000330 e8 0d 2f 36 e3 af ad b5 93 26 18 b8 81 0e 00 3a
       2.6085127e-06 -1.2940694e-06 -3.627555e-05 0.0004884974
000340 8b f6 81 39 15 75 00 3b 3a 1d c1 37 29 b1 5f 37
       0.00024788486 0.0019601036 2.3021003e-05 1.3333084e-05
000350 4d 63 37 b9 ac 3b 23 36 27 0c 97 bd 94 7d cd 3d
       -0.00017489232 2.4323626e-06 -0.07375365 0.10033718
000360 7b c0 9e 3b 42 0c 44 3c 42 be d1 37 e7 7a 08 39
       0.004844723 0.011965813 2.5003337e-05 0.00013015755
000370 11 32 69 3b 8d fa 82 bd 1c c5 a3 3d cc 53 89 35
       0.003558282 -0.06395445 0.0799658 1.0231684e-06
000380 b9 d7 9a b6 90 4f 56 3d a1 12 d2 3a 34 35 ae 3a
       -4.614671e-06 0.05232197 0.001602728 0.0013291002
000390 0a ee 97 bd 02 3d d0 3d a2 4a cf 3c 58 bf c5 bb
       -0.07418449 0.10167886 0.025304142 -0.006034773
0003a0 be af 86 b9 5f c9 88 b8 7c 1e b2 35 16 04 a0 b9
       -0.0002568941 -6.522494e-05 1.3270906e-06 -0.00030520622
0003b0 c0 04 fd ba ea 2b 26 38 01 4f 98 3a b8 49 b3 3a
       -0.0019303784 3.9618382e-05 0.0011620225 0.0013678586
0003c0 f9 7b 1c b8 4d 92 b6 39 c1 fc b1 3a 82 4f 0e 3d
       -3.7308757e-05 0.00034822748 0.0013579355 0.034743793
0003d0 a6 89 7a 3c a1 ff 44 bb a3 b6 fb b8 41 9d 8b ba
       0.015291607 -0.0030059593 -0.000120026314 -0.0010651724
0003e0 56 b1 8b 37 cf 6c 42 38 31 c4 11 3c a1 da 8d bc
       1.665267e-05 4.635454e-05 0.008896873 -0.017316164
0003f0 c0 97 64 39 a6 05 32 3a 02 ee 45 3c b3 89 b2 bb
       0.00021800306 0.0006791003 0.012080671 -0.005448544

linear1.bias f4 [128]
000000 17 3f b9 bb 2b 46 7e 3c c0 e0 da 3d f2 14 7c 3d
       -0.005653273 0.015519659 0.10687399 0.061543413
000010 05 96 92 3c e5 8c f7 bc 1e 0d 1c bc f2 a6 21 bd
       0.0178938 -0.030218551 -0.009524612 -0.039465852
000020 d8 58 9a 3b db b8 6d 3c 72 86 84 3d 85 1f 7e 3d
       0.004710298 0.014509405 0.06470956 0.062041778
000030 b5 45 c2 bc 0b 1f 07 bc 8c 66 d4 bc 39 91 d3 3d
       -0.02371488 -0.008247147 -0.025927804 0.103304334
000040 12 a6 23 bd 79 9f 33 bd 8d a6 b4 3c 99 d0 c6 bc
       -0.0399533 -0.043853257 0.022052074 -0.024269389
000050 ec 94 06 3e 0d d2 3a 3e f7 82 a8 bc 68 a8 04 bd
       0.13142747 0.1824419 -0.020570261 -0.032387167
000060 9f 6c a1 3d 88 72 31 3e 38 e7 a4 3d 8a 86 20 bc
       0.07882046 0.17328846 0.08051914 -0.009797702
000070 be 7f d1 3b e6 32 d8 3c bf e1 2f bc e8 99 8e 3d
       0.006393402 0.026391458 -0.010734974 0.06962949
000080 5c 2b b1 bc bb 30 02 3c 21 a2 f5 bc 26 7b 3b 3b
       -0.02162712 0.007946189 -0.029984536 0.0028607338
000090 6a f0 03 3e 71 c0 c1 3d 30 26 9e bc 67 26 5a bc
       0.1288468 0.094605334 -0.019305319 -0.01331482
0000a0 de 81 d5 3d 5e b7 db bc 87 3e 12 3d f3 09 e0 3d
       0.10425161 -0.026820835 0.035704162 0.10939398
0000b0 bc 46 01 bd fe 42 1a 3e ae 09 e0 3d 8a 5f b6 3c
       -0.0315616 0.15064618 0.10939346 0.022262353
0000c0 47 d0 20 bd a2 97 0f 3e 03 bb c3 3d 0b 29 de 3d
       -0.03926113 0.14022687 0.09557154 0.10847672
0000d0 9d c0 77 bc b1 29 b3 3d fa 9b 3b bd dc c2 89 3d
       -0.015121606 0.087481864 -0.045803048 0.067266196
0000e0 92 46 c4 bb d0 a6 d7 3d 5a 8f e9 bc a0 f4 26 bd
       -0.005989858 0.10529864 -0.028510738 -0.040760636
0000f0 59 1c 6f bc 4b 15 b1 bb b4 cb aa bc 4e f3 a2 bc
       -0.014594161 -0.0054041496 -0.020849086 -0.019891407
000100 ed 59 58 3c 33 68 5e bc 62 9a e3 bb 1c 0b 8d 3d
       0.013205034 -0.013574648 -0.006945894 0.068868846
000110 b7 bd a2 bc 16 e7 88 3c ff 4d a3 3d 30 30 c3 3d
       -0.019865854 0.016711753 0.07973861 0.095306754
000120 d7 6e a1 bb a0 7d ec bb 3c 8a 30 bd 4e 26 e2 3c
       -0.004926543 -0.007217124 -0.04310058 0.027606156
000130 0a 4a 98 3d 39 3b ab 3d e8 27 de 3b 63 e7 bc 3d
       0.07435997 0.08360905 0.0067796595 0.09223821
000140 1a f0 46 3d 9c 7a 56 bc 6d 56 11 bd 01 37 ad bc
       0.048568822 -0.013090756 -0.035482813 -0.021144392
000150 12 89 1d 3e 72 44 6e 3c 39 ab 84 bb 27 1d bd bc
       0.1538432 0.014542686 -0.0040487316 -0.02308519
000160 e1 25 9e 3d b3 02 40 3d 61 80 24 3e 20 36 c7 bc
       0.077220686 0.046877574 0.16064598 -0.024317801
000170 80 9a e2 3d b8 19 ac 3d 2d cc 71 3c 7d d3 cb 3d
       0.11064625 0.08403343 0.014758152 0.099524476
000180 96 1e b8 3d 89 91 39 bc 46 58 d7 3d c5 4d 91 bd
       0.08990209 -0.011326202 0.10514884 -0.070949115
000190 39 d7 07 3e 6e 66 31 3c 4d 15 dc 3b fc 88 18 bd
       0.13265695 0.010827644 0.0067164064 -0.037240013
0001a0 0c 04 25 3e 0c ab d7 3c bc 54 62 3e 37 3e fd 3d
       0.16114825 0.026326679 0.22102636 0.12365382
0001b0 47 3e c4 3d 06 55 12 bd b6 5a 8c bc af b0 4b 3e
       0.09582191 -0.035725616 -0.017133098 0.19891618
0001c0 ef f6 0b bd 4c 15 a3 bb c9 1a ca 3d b5 ac 2a bd
       -0.03417104 -0.004976904 0.0986839 -0.041668613
0001d0 ef 9c 05 3d c3 fa de 3d 93 c5 ac 3a f7 dc 87 3d
       0.032620367 0.10887673 0.001318144 0.066339426
0001e0 bc a3 9a 3d e0 1f ca 3d 24 ea 89 3c f3 49 e1 3c
       0.07550761 0.09869361 0.01683528 0.027501082
0001f0 a7 eb 3a bd 82 72 c3 bc 33 94 0e 3e 66 a2 60 bb
       -0.04563489 -0.023858313 0.13923721 -0.0034276485

linear2.weight f4 [64, 128]
000000 08 07 00 80 d5 17 00 00 9a 22 00 80 16 04 00 00
       -2.522e-42 8.55e-42 -1.2413e-41 1.466e-42
000010 57 07 00 80 20 12 00 80 d9 0f 00 80 ae 16 00 80
       -2.633e-42 -6.502e-42 -5.685e-42 -8.136e-42
000020 2b 0c 00 80 d8 1f 00 00 e9 1f 00 80 22 26 00 00
       -4.365e-42 1.1423e-41 -1.1447e-41 1.368e-41
000030 64 0e 00 80 d1 16 00 80 42 1c 00 80 83 26 00 80
       -5.162e-42 -8.185e-42 -1.0137e-41 -1.3815e-41
000040 02 21 00 80 c3 14 00 80 c0 03 00 00 47 09 00 80
       -1.1841e-41 -7.448e-42 1.345e-42 -3.328e-42
000050 28 1d 00 80 ca 17 00 80 5f 0d 00 80 0a 1b 00 80
       -1.0459e-41 -8.534e-42 -4.797e-42 -9.7e-42
000060 5a 12 00 80 14 1e 00 80 12 22 00 00 2c 0e 00 00
       -6.583e-42 -1.079e-41 1.2222e-41 5.084e-42
000070 0a 1f 00 00 88 17 00 80 05 19 00 80 3d 0c 00 80
       1.1135e-41 -8.441e-42 -8.975e-42 -4.39e-42
000080 41 1c 00 80 8c 1d 00 80 7a 0d 00 80 49 12 00 80
       -1.0136e-41 -1.06e-41 -4.834e-42 -6.56e-42
000090 02 19 00 80 93 18 00 00 26 0b 00 80 2a 0c 00 00
       -8.971e-42 8.816e-42 -4e-42 4.364e-42
0000a0 e9 19 00 80 19 0b 00 80 40 20 00 80 a8 1f 00 80
       -9.295e-42 -3.981e-42 -1.1569e-41 -1.1356e-41
0000b0 e9 08 00 80 7e 1c 00 80 03 21 00 80 85 20 00 80
       -3.196e-42 -1.0221e-41 -1.1842e-41 -1.1666e-41
0000c0 aa 19 00 80 ec 0e 00 00 f8 1e 00 80 99 20 00 80
       -9.207e-42 5.353e-42 -1.111e-41 -1.1694e-41
0000d0 80 22 00 80 c4 22 00 80 fe 18 00 80 50 21 00 80
       -1.2376e-41 -1.2472e-41 -8.966e-42 -1.195e-41
0000e0 4c 19 00 80 75 19 00 80 3b 05 00 00 26 1b 00 80
       -9.075e-42 -9.132e-42 1.876e-42 -9.739e-42
0000f0 6d 18 00 00 40 14 00 00 f2 18 00 80 df 1d 00 80
       8.762e-42 7.264e-42 -8.949e-42 -1.0716e-41
000100 71 20 00 80 37 17 00 80 39 12 00 00 53 23 00 80
       -1.1638e-41 -8.328e-42 6.537e-42 -1.2672e-41
000110 42 1f 00 80 cc 24 00 80 9b 09 00 80 6c 0a 00 80
       -1.1213e-41 -1.32e-41 -3.446e-42 -3.739e-42
000120 70 21 00 80 11 22 00 80 2d 11 00 00 fe 20 00 80
       -1.1995e-41 -1.2221e-41 6.162e-42 -1.1835e-41
000130 48 1e 00 80 15 24 00 80 7e 21 00 80 28 1f 00 80
       -1.0863e-41 -1.2944e-41 -1.2015e-41 -1.1177e-41
000140 b5 23 00 00 b5 19 00 80 21 20 00 00 dd 17 00 80
       1.2809e-41 -9.222e-42 1.1526e-41 -8.56e-42
000150 38 1e 00 80 1f 25 00 80 98 11 00 80 df 10 00 80
       -1.084e-41 -1.3317e-41 -6.311e-42 -6.052e-42
000160 64 1d 00 80 eb 16 00 00 aa 25 00 80 51 1a 00 00
       -1.0543e-41 8.221e-42 -1.3511e-41 9.44e-42
000170 7e 17 00 80 05 17 00 80 98 1b 00 80 50 13 00 80
       -8.427e-42 -8.258e-42 -9.899e-42 -6.928e-42
000180 ec 15 00 00 57 1c 00 80 85 0b 00 80 c4 19 00 80
       7.864e-42 -1.0166e-41 -4.132e-42 -9.243e-42
000190 81 19 00 80 62 24 00 80 86 23 00 00 a8 10 00 80
       -9.149e-42 -1.3052e-41 1.2743e-41 -5.975e-42
0001a0 6a 0e 00 00 76 08 00 80 d7 20 00 80 7d 24 00 80
       5.171e-42 -3.035e-42 -1.1781e-41 -1.309e-41
0001b0 24 1c 00 80 1a 12 00 80 65 12 00 80 63 08 00 80
       -1.0095e-41 -6.494e-42 -6.599e-42 -3.009e-42
0001c0 99 1e 00 80 43 23 00 80 93 1e 00 00 8e 0c 00 80
       -1.0976e-41 -1.265e-41 1.0968e-41 -4.504e-42
0001d0 d9 1f 00 80 bf 0a 00 80 c2 09 00 80 cd 1b 00 80
       -1.1425e-41 -3.855e-42 -3.5e-42 -9.973e-42
0001e0 83 0d 00 80 f2 0f 00 80 35 0e 00 80 f3 15 00 80
       -4.847e-42 -5.72e-42 -5.097e-42 -7.874e-42
0001f0 ff 18 00 80 12 09 00 80 67 24 00 80 e2 08 00 80
       -8.967e-42 -3.254e-42 -1.3059e-41 -3.187e-42
000200 ab 1c 00 80 71 16 00 80 b5 0b 00 80 e4 09 00 00
       -1.0284e-41 -8.05e-42 -4.2e-42 3.548e-42
000210 cf 20 00 80 75 1e 00 80 6b 23 00 80 2e 24 00 80
       -1.177e-41 -1.0926e-41 -1.2706e-41 -1.2979e-41
000220 bd 20 00 80 04 24 00 80 f0 1c 00 80 03 0f 00 80
       -1.1744e-41 -1.292e-41 -1.0381e-41 -5.385e-42
000230 3f 1c 00 80 1f 09 00 80 27 1c 00 00 78 23 00 00
       -1.0133e-41 -3.272e-42 1.0099e-41 1.2724e-41
000240 86 1a 00 80 06 12 00 80 54 13 00 80 04 15 00 80
       -9.515e-42 -6.466e-42 -6.934e-42 -7.539e-42
000250 c2 10 00 80 41 26 00 00 f8 1a 00 80 ca 21 00 80
       -6.012e-42 1.3723e-41 -9.675e-42 -1.2121e-41
000260 58 0a 00 80 70 14 00 80 1c 0b 00 80 f7 15 00 80
       -3.71e-42 -7.332e-42 -3.985e-42 -7.88e-42
000270 b2 0c 00 80 5a 22 00 80 ba 0c 00 80 b8 07 00 80
       -4.554e-42 -1.2323e-41 -4.565e-42 -2.769e-42
000280 e0 1b 00 80 11 0f 00 80 59 1b 00 80 01 1e 00 80
       -1e-41 -5.405e-42 -9.81e-42 -1.0763e-41
000290 61 0a 00 80 af 1b 00 80 03 1f 00 80 47 09 00 80
       -3.723e-42 -9.931e-42 -1.1125e-41 -3.328e-42
0002a0 0f 0b 00 80 94 25 00 80 3d 15 00 80 6f 1b 00 00
       -3.967e-42 -1.348e-41 -7.619e-42 9.841e-42
0002b0 70 17 00 00 b1 16 00 00 52 11 00 80 41 0f 00 00
       8.408e-42 8.14e-42 -6.213e-42 5.472e-42
0002c0 c3 20 00 80 bb 24 00 80 a3 20 00 80 1d 19 00 80
       -1.1753e-41 -1.3176e-41 -1.1708e-41 -9.009e-42
0002d0 45 0d 00 80 30 13 00 80 8a 1c 00 80 56 23 00 00
       -4.76e-42 -6.883e-42 -1.0238e-41 1.2676e-41
0002e0 a6 1b 00 80 a4 24 00 80 ad 07 00 80 c2 10 00 00
       -9.918e-42 -1.3144e-41 -2.754e-42 6.012e-42
0002f0 70 1e 00 80 19 16 00 80 88 1c 00 00 eb 0c 00 80
       -1.0919e-41 -7.927e-42 1.0235e-41 -4.634e-42
000300 37 23 00 80 f9 08 00 80 66 16 00 80 ba 1f 00 80
       -1.2633e-41 -3.219e-42 -8.035e-42 -1.1381e-41
000310 bc 11 00 80 9c 06 00 80 1b 20 00 80 84 20 00 80
       -6.362e-42 -2.371e-42 -1.1517e-41 -1.1664e-41
000320 93 14 00 80 ff 1f 00 80 3c 0d 00 80 01 0e 00 80
       -7.38e-42 -1.1478e-41 -4.748e-42 -5.024e-42
000330 48 15 00 80 be 15 00 80 6f 19 00 80 30 24 00 80
       -7.634e-42 -7.8e-42 -9.124e-42 -1.2982e-41
000340 a1 08 00 80 45 0a 00 80 9a 1e 00 80 c1 15 00 80
       -3.095e-42 -3.684e-42 -1.0978e-41 -7.804e-42
000350 e9 1b 00 80 8e 07 00 00 13 1b 00 00 cf 21 00 00
       -1.0012e-41 2.71e-42 9.712e-42 1.2128e-41
000360 18 21 00 80 94 1d 00 80 49 1f 00 80 aa 0b 00 80
       -1.1872e-41 -1.061e-41 -1.1223e-41 -4.184e-42
000370 fc 0e 00 80 3b 21 00 80 d7 23 00 80 8a 13 00 80
       -5.375e-42 -1.1921e-41 -1.2857e-41 -7.009e-42
000380 86 21 00 80 f0 0a 00 80 fd 23 00 80 88 0b 00 80
       -1.2026e-41 -3.924e-42 -1.291e-41 -4.137e-42
000390 a6 09 00 80 5c 10 00 80 65 06 00 80 98 11 00 80
       -3.461e-42 -5.869e-42 -2.294e-42 -6.311e-42
0003a0 8b 0e 00 80 9d 0b 00 80 ec 13 00 80 9b 17 00 80
       -5.217e-42 -4.166e-42 -7.147e-42 -8.468e-42
0003b0 cd 11 00 80 9e 12 00 80 20 1d 00 80 21 10 00 80
       -6.386e-42 -6.679e-42 -1.0448e-41 -5.786e-42
0003c0 7b 0a 00 80 51 26 00 00 30 13 00 80 8a 22 00 80
       -3.76e-42 1.3745e-41 -6.883e-42 -1.239e-41
0003d0 2e 22 00 80 62 06 00 80 56 1f 00 80 9a 18 00 80
       -1.2261e-41 -2.29e-42 -1.1241e-41 -8.825e-42
0003e0 a7 17 00 80 95 26 00 80 38 25 00 80 b8 0c 00 80
       -8.485e-42 -1.384e-41 -1.3352e-41 -4.563e-42
0003f0 3c 0e 00 80 ba 08 00 80 d5 21 00 80 ce 1a 00 80
       -5.106e-42 -3.13e-42 -1.2137e-41 -9.616e-42

linear2.bias f4 [64]
000000 4d 1d 00 80 fb 23 00 80 d8 22 00 80 67 1f 00 80
       -1.0511e-41 -1.2907e-41 -1.25e-41 -1.1265e-41
000010 ed 24 00 80 7a cd 5d 3b 46 1b 00 80 a8 15 00 80
       -1.3246e-41 0.0033844397 -9.784e-42 -7.769e-42
000020 88 1e 00 80 e1 1a 00 80 89 64 b3 3e 99 15 00 80
       -1.0953e-41 -9.642e-42 0.3503764 -7.748e-42
000030 f8 10 00 80 21 17 00 80 4f 15 00 80 34 95 ac 3e
       -6.087e-42 -8.297e-42 -7.644e-42 0.33707583
000040 ee cc 98 bb a1 16 00 80 f0 24 00 80 96 d4 95 3e
       -0.0046631014 -8.118e-42 -1.325e-41 0.29263753
000050 43 20 00 80 6c 19 00 80 0f d1 31 3d ad 20 00 80
       -1.1573e-41 -9.12e-42 0.043412264 -1.1722e-41
000060 36 1a 00 80 68 20 00 80 0b 09 00 80 fc 21 00 80
       -9.403e-42 -1.1625e-41 -3.244e-42 -1.2191e-41
000070 7b 1c 00 80 a2 5e 7d bb f2 df f7 ad d3 d6 cb b8
       -1.0217e-41 -0.0038661142 -2.81801e-11 -9.7198084e-05
000080 2b 0c 00 80 33 21 00 80 a6 39 4e 3e 67 17 00 80
       -4.365e-42 -1.191e-41 0.20139179 -8.395e-42
000090 aa 1d 00 80 9c 1f 00 80 96 21 00 80 bb 13 00 80
       -1.0641e-41 -1.134e-41 -1.2048e-41 -7.078e-42
0000a0 34 10 00 80 7e 1d 00 80 65 20 00 80 4e 12 00 80
       -5.813e-42 -1.058e-41 -1.1621e-41 -6.566e-42
0000b0 b7 17 00 80 31 62 6f 3c c9 19 00 80 a8 0f 00 80
       -8.507e-42 0.014610813 -9.25e-42 -5.616e-42
0000c0 45 6d f6 3c ea 19 00 80 ea 3b 44 3e 9b 1b 00 80
       0.0300814 -9.296e-42 0.1916348 -9.903e-42
0000d0 4b bc 08 bc 05 1a 00 80 4a 1b 00 80 a3 09 00 80
       -0.008345674 -9.334e-42 -9.79e-42 -3.457e-42
0000e0 1d f2 7b bc 0f 19 00 80 cf 15 00 80 07 0b 00 80
       -0.0153775485 -8.99e-42 -7.823e-42 -3.956e-42
0000f0 c9 60 d2 3e e7 24 00 80 80 23 00 80 80 81 8a 3e
       0.41089466 -1.3238e-41 -1.2735e-41 0.27051926

linear3.weight f4 [32, 64]
000000 46 24 00 80 e3 25 00 80 f8 0b 00 00 30 1b 00 80
       -1.3012e-41 -1.3591e-41 4.294e-42 -9.753e-42
000010 fd 15 00 80 e7 20 00 00 b2 1f 00 00 49 25 00 80
       -7.888e-42 1.1803e-41 1.137e-41 -1.3375e-41
000020 43 1a 00 00 ea 18 00 80 88 09 00 80 e1 17 00 80
       9.421e-42 -8.937e-42 -3.419e-42 -8.566e-42
000030 69 20 00 00 03 12 00 80 ac 0f 00 00 42 18 00 80
       1.1627e-41 -6.461e-42 5.622e-42 -8.702e-42
000040 8d 22 00 00 27 10 00 00 6b 0b 00 00 77 17 00 80
       1.2394e-41 5.794e-42 4.096e-42 -8.418e-42
000050 f8 15 00 80 33 04 00 80 c7 17 00 80 99 1e 00 80
       -7.881e-42 -1.506e-42 -8.53e-42 -1.0976e-41
000060 04 26 00 80 4a 1c 00 00 c6 12 00 80 4b 15 00 80
       -1.3637e-41 1.0148e-41 -6.735e-42 -7.638e-42
000070 e2 1b 00 80 42 18 00 00 27 1c 00 80 e3 11 00 80
       -1.0002e-41 8.702e-42 -1.0099e-41 -6.417e-42
000080 51 23 00 80 c2 07 00 00 c3 25 00 80 dd 07 00 80
       -1.2669e-41 2.783e-42 -1.3546e-41 -2.821e-42
000090 54 19 00 80 0f 06 00 80 50 05 00 80 5e 0e 00 00
       -9.086e-42 -2.173e-42 -1.906e-42 5.154e-42
0000a0 7f 24 00 80 64 23 00 80 69 1c 00 80 4e 04 00 80
       -1.3092e-41 -1.2696e-41 -1.0192e-41 -1.544e-42
0000b0 d5 07 00 80 c9 13 00 80 61 26 00 80 f2 22 00 80
       -2.81e-42 -7.098e-42 -1.3768e-41 -1.2536e-41
0000c0 10 1f 00 80 e2 1b 00 80 da 0f 00 80 a0 12 00 00
       -1.1143e-41 -1.0002e-41 -5.686e-42 6.681e-42
0000d0 37 22 00 00 b6 0d 00 80 0d 17 00 80 de 11 00 00
       1.2274e-41 -4.919e-42 -8.269e-42 6.41e-42
0000e0 a6 1e 00 00 80 03 00 80 a7 16 00 80 db 26 00 80
       1.0995e-41 -1.256e-42 -8.126e-42 -1.3939e-41
0000f0 65 0a 00 80 07 1b 00 80 e1 1c 00 00 3f 0b 00 80
       -3.729e-42 -9.696e-42 1.036e-41 -4.034e-42
000100 4b 0e 00 80 fe 21 00 80 1c 04 00 80 af 22 00 00
       -5.127e-42 -1.2194e-41 -1.474e-42 1.2442e-41
000110 2d 04 00 00 b4 1e 00 bb fe 15 00 80 27 17 00 00
       1.498e-42 -0.001954955 -7.89e-42 8.305e-42
000120 14 20 00 80 90 0d 00 80 db 78 ce a8 8d 12 00 80
       -1.1507e-41 -4.865e-42 -2.2923007e-14 -6.655e-42
000130 11 07 00 00 25 19 00 00 04 0f 00 80 5c 30 c8 b7
       2.535e-42 9.02e-42 -5.387e-42 -2.3864377e-05
000140 5f 60 b5 b9 85 07 00 80 00 17 00 00 ea 83 8c 37
       -0.00034594812 -2.697e-42 8.251e-42 1.6750728e-05
000150 4a 14 00 80 bc 21 00 80 22 5e 22 37 51 17 00 00
       -7.278e-42 -1.2102e-41 9.6778695e-06 8.364e-42
000160 75 12 00 00 e9 24 00 00 45 26 00 80 5c 11 00 00
       6.621e-42 1.3241e-41 -1.3729e-41 6.227e-42
000170 70 0b 00 00 d1 21 00 00 39 02 00 80 86 3a e6 3a
       4.103e-42 1.2131e-41 -7.97e-43 0.0017565049
000180 fc 17 00 00 99 17 00 00 81 a1 c6 37 8f 0c 00 80
       8.604e-42 8.465e-42 2.3678645e-05 -4.505e-42
000190 03 09 00 00 c1 0c 00 80 ee 1d 00 00 41 0c 00 00
       3.233e-42 -4.575e-42 1.0737e-41 4.396e-42
0001a0 20 1b 00 80 f8 0e 00 80 e3 14 00 00 b6 13 00 80
       -9.73e-42 -5.37e-42 7.493e-42 -7.071e-42
0001b0 f8 24 00 80 c8 da 83 2f ac 0f 00 80 56 19 00 00
       -1.3262e-41 2.3984215e-10 -5.622e-42 9.089e-42
0001c0 90 45 bf a6 c6 1d 00 00 cc 3f f7 b7 12 0d 00 80
       -1.3272142e-15 1.068e-41 -2.9474402e-05 -4.689e-42
0001d0 65 04 73 b1 76 18 00 80 73 04 00 00 b2 1e 00 00
       -3.5363652e-09 -8.775e-42 1.596e-42 1.1011e-41
0001e0 94 c1 a4 b6 5f 11 00 80 d7 23 00 80 44 16 00 00
       -4.9101163e-06 -6.232e-42 -1.2857e-41 7.987e-42
0001f0 46 be 80 b5 11 1b 00 80 27 0e 00 80 aa 6a 3f b9
       -9.59212e-07 -9.71e-42 -5.077e-42 -0.00018254915
000200 f2 22 00 00 95 26 00 80 f8 17 00 80 1b 16 00 00
       1.2536e-41 -1.384e-41 -8.598e-42 7.93e-42
000210 70 0f 00 00 60 ff b6 3c 7c 13 00 80 e3 1e 00 80
       5.538e-42 0.02233857 -6.99e-42 -1.108e-41
000220 c6 0b 00 80 ba 23 00 80 0f 0e 8c bd e8 1c 00 80
       -4.224e-42 -1.2816e-41 -0.06838619 -1.037e-41
000230 06 08 00 80 ef 07 00 00 b9 24 00 00 20 b1 e9 bd
       -2.878e-42 2.846e-42 1.3174e-41 -0.11410737
000240 18 27 3b 3d 11 0e 00 00 d3 20 00 00 f1 31 14 3f
       0.04569158 5.046e-42 1.1775e-41 0.57888705
000250 82 08 00 80 c0 22 00 00 92 a0 45 bd b0 08 00 80
       -3.052e-42 1.2466e-41 -0.048248835 -3.116e-42
000260 c6 05 00 80 be 24 00 80 a8 08 00 00 13 23 00 80
       -2.071e-42 -1.318e-41 3.105e-42 -1.2582e-41
000270 1a 08 00 00 02 57 8c bb e8 3f e9 2c 7a 5f 7f 3a
       2.906e-42 -0.004282833 6.6293533e-12 0.0009741705
000280 f9 26 00 80 80 23 00 80 88 87 b6 3e 62 0a 00 00
       -1.3981e-41 -1.2735e-41 0.35650277 3.725e-42
000290 43 26 00 80 02 12 00 00 d2 07 00 80 4b 24 00 80
       -1.3726e-41 6.46e-42 -2.805e-42 -1.302e-41
0002a0 55 0c 00 80 c6 16 00 00 c9 12 00 00 cd 0e 00 80
       -4.424e-42 8.17e-42 6.739e-42 -5.31e-42
0002b0 b5 1d 00 00 4a c5 f6 bc e9 19 00 00 24 17 00 00
       1.0657e-41 -0.030123372 9.295e-42 8.301e-42
0002c0 b1 5a e3 3d 80 10 00 00 9c e3 43 3f 72 19 00 00
       0.111012824 5.919e-42 0.7651918 9.128e-42
0002d0 2c 7f 09 3c 54 25 00 00 e7 14 00 00 6b 20 00 00
       0.008392137 1.3391e-41 7.498e-42 1.163e-41
0002e0 37 3c b2 3c d4 02 00 00 94 14 00 80 9d 26 00 80
       0.021757228 1.015e-42 -7.382e-42 -1.3852e-41
0002f0 4f f4 3c bd b1 1b 00 00 01 25 00 00 af 2f 80 3c
       -0.04613143 9.934e-42 1.3275e-41 0.015647737
000300 e2 21 00 80 2b 0b 00 80 b7 04 00 80 40 09 00 00
       -1.2155e-41 -4.006e-42 -1.691e-42 3.318e-42
000310 e1 03 00 00 b1 e8 a0 3a 04 03 00 00 50 0a 00 00
       1.391e-42 0.0012276379 1.082e-42 3.7e-42
000320 68 00 00 00 0d 0e 00 80 fc 77 c4 b6 43 10 00 80
       1.46e-43 -5.04e-42 -5.855223e-06 -5.834e-42
000330 33 21 00 80 60 00 00 80 77 12 00 80 3c 36 f4 b5
       -1.191e-41 -1.35e-43 -6.624e-42 -1.8195201e-06
000340 58 1e 11 bb f9 1e 00 80 49 0b 00 00 64 4a 09 b7
       -0.002214333 -1.1111e-41 4.048e-42 -8.183157e-06
000350 46 0d 00 00 7b 09 00 00 20 63 8e 35 0e 24 00 80
       4.762e-42 3.401e-42 1.0608674e-06 -1.2934e-41
000360 70 0d 00 80 9b 22 00 00 d0 15 00 00 78 13 00 80
       -4.82e-42 1.2414e-41 7.825e-42 -6.984e-42
000370 c9 13 00 80 77 37 55 10 08 1a 00 00 c9 b0 b3 b8
       -7.098e-42 4.2049572e-29 9.338e-42 -8.568314e-05
000380 8f 0e 00 80 3d 26 00 00 0f 81 c1 b7 1a 09 00 80
       -5.223e-42 1.3717e-41 -2.306749e-05 -3.265e-42
000390 48 08 00 00 c5 0d 00 00 d9 25 00 80 84 16 00 80
       2.971e-42 4.94e-42 -1.3577e-41 -8.077e-42
0003a0 db 0f 00 80 d5 13 00 80 7e 08 00 80 fe 08 00 80
       -5.688e-42 -7.114e-42 -3.046e-42 -3.226e-42
0003b0 86 1f 00 80 dc fc 94 b5 db 01 00 80 65 97 ea 3a
       -1.1308e-41 -1.1100451e-06 -6.66e-43 0.0017897902
0003c0 f9 d6 82 33 a6 19 00 80 ce b7 b0 b7 45 15 00 80
       6.0927e-08 -9.201e-42 -2.1066426e-05 -7.63e-42
0003d0 32 f5 93 b3 84 21 00 80 02 20 00 00 7f 1c 00 80
       -6.889822e-08 -1.2023e-41 1.1482e-41 -1.0222e-41
0003e0 95 a4 97 b1 4f 0e 00 00 4b 05 00 80 cd 26 00 00
       -4.413389e-09 5.133e-42 -1.899e-42 1.3919e-41
0003f0 e5 5d 50 b6 f5 21 00 80 85 22 00 00 99 cd 01 37
       -3.104907e-06 -1.2181e-41 1.2383e-41 7.736869e-06

linear3.bias f4 [32]
000000 a5 0d 00 80 cc 61 84 37 e8 da 33 3e ed 86 01 b6
       -4.895e-42 1.5781166e-05 0.17563975 -1.9301035e-06
000010 9f a8 9e bd 74 1f 00 80 c3 15 00 80 f3 64 bc 3d
       -0.07747006 -1.1283e-41 -7.807e-42 0.09198942
000020 d5 69 79 bd 3a a1 b8 b7 b4 f0 60 bd ef ed b2 bd
       -0.060891945 -2.2009586e-05 -0.054917052 -0.087367885
000030 a6 f4 a2 3c 17 96 3b 3f cf bf 97 be c0 17 00 80
       0.019892048 0.73275894 -0.29638526 -8.52e-42
000040 f2 d0 47 3f 15 21 00 80 a6 8c c5 3c b2 1e 1f b6
       0.780532 -1.1868e-41 0.024114918 -2.3710713e-06
000050 14 a2 90 35 98 b8 02 b8 ee 11 00 80 fe d1 cc 3d
       1.0776007e-06 -3.116633e-05 -6.432e-42 0.1000099
000060 a8 83 08 3e fe 17 00 80 ab 95 c5 3c 65 47 03 3e
       0.13331473 -8.607e-42 0.024119219 0.12820204
000070 3a d1 85 b8 cb e5 35 bc bb 24 33 bc ea 36 2a 3e
       -6.380906e-05 -0.01110215 -0.01093405 0.1662251

linear4.weight f4 [64, 96]
000000 1a 0d 00 80 3a 1f dc 3a 95 a8 06 3f e3 8d fe b0
       -4.7e-42 0.0016793974 0.52600986 -1.8521259e-09
000010 00 5b 27 bb 86 1c 00 80 b6 03 00 00 8d 5a c8 3e
       -0.0025536418 -1.0232e-41 1.331e-42 0.39131585
000020 8c af 72 be b1 d6 10 ae 07 c2 ef 3b eb 53 fd 3b
       -0.23699778 -3.2932494e-11 0.007316831 0.007730951
000030 d3 76 00 3d 58 c0 3d be e4 06 0c 3e 7d 06 00 80
       0.03136332 -0.18530405 0.13674504 -2.328e-42
000040 8a 66 c8 be 99 0e 00 00 f7 1a 49 39 66 8b 6c 98
       -0.3914073 5.237e-42 0.00019178899 -3.0572663e-24
000050 57 0e 30 0c 4d 5c 29 ba d6 1a 00 80 03 c0 a8 3d
       1.3562862e-31 -0.0006460592 -9.627e-42 0.08239748
000060 f3 a4 90 3e 6d 06 00 80 1a 21 2c 3d c9 fc be 3e
       0.28250846 -2.305e-42 0.042023756 0.37302235
000070 bb b5 71 1c 51 60 da ad 53 5d e3 bb 72 b1 0e 3f
       7.997509e-22 -2.4826504e-11 -0.0069386153 0.5573951
000080 13 0d 00 80 3f 1d 1f 3b 7e 9d 9f 3d 70 31 02 36
       -4.69e-42 0.0024278907 0.07793711 1.9400286e-06
000090 43 60 33 3c 07 1b 00 00 b2 09 00 00 78 1d 46 bd
       0.010948244 9.696e-42 3.478e-42 -0.048367947
0000a0 c0 f6 65 3d db cb aa ba 69 a0 73 bb 06 9d bb bc
       0.056143522 -0.0013030724 -0.003717447 -0.022902023
0000b0 13 8c 47 3b 11 17 bd 3d 65 9e 3b bd b2 13 00 80
       0.003044848 0.09232915 -0.045805354 -7.065e-42
0000c0 29 68 a5 3d 39 20 00 00 e4 96 40 3b 83 99 8a ab
       0.080765076 1.156e-41 0.0029386813 -9.848098e-13
0000d0 18 51 42 35 28 fa 64 ba ed 16 00 80 12 39 0c bd
       7.238864e-07 -0.0008734786 -8.224e-42 -0.034234114
0000e0 51 b5 fc bc df 1f 00 00 8b 3f 81 3d 85 13 d6 bb
       -0.030848177 1.1433e-41 0.06310948 -0.0065330886
0000f0 ac 2a ac 29 ea 01 81 35 27 26 19 3a 0f 8a 9f 3d
       7.645737e-14 9.611806e-07 0.0005842172 0.077900045
000100 1d 25 00 00 ef c8 0e 34 eb d3 7c 3d d9 a3 3b 36
       1.3314e-41 1.329788e-07 0.06172554 2.7960543e-06
000110 e8 5c 24 3d 85 0a 00 00 3e 24 00 80 f1 90 6f bd
       0.040127665 3.774e-42 -1.3001e-41 -0.058487836
000120 d5 6b 2d 3d 70 f3 d3 b8 a4 92 b9 bc 9b 78 b3 bc
       0.042339165 -0.00010106608 -0.022652932 -0.021908095
000130 a9 81 d5 bc 65 42 3c 3e 0d f6 dd bc 6f 07 00 80
       -0.026062803 0.18384703 -0.027094865 -2.667e-42
000140 0d ee 8a b8 c1 0d 00 00 b6 60 72 3b d1 70 cc aa
       -6.624693e-05 4.934e-42 0.0036983914 -3.6315962e-13
000150 51 ef ed 34 17 f3 12 bb 63 04 00 80 8d b2 64 bc
       4.4318816e-07 -0.0022422725 -1.574e-42 -0.013958585
000160 d7 55 41 bd a0 12 00 80 0b f1 98 3d 14 74 fc bc
       -0.047201004 -6.681e-42 0.0746785 -0.03081707
000170 b2 da bb 2e 38 88 63 b4 36 ea b5 ba 23 f2 b8 3d
       8.5426236e-11 -2.1190579e-07 -0.0013879004 0.09030559
000180 21 24 00 80 b8 19 00 00 84 10 00 80 ab 0e 00 00
       -1.296e-41 9.226e-42 -5.925e-42 5.262e-42
000190 77 07 00 00 05 0e 00 00 4e 1b 00 80 e2 0a 00 00
       2.678e-42 5.029e-42 -9.795e-42 3.904e-42
0001a0 39 19 00 80 b8 15 00 80 df 19 00 80 fe 0d 00 00
       -9.048e-42 -7.791e-42 -9.281e-42 5.02e-42
0001b0 c6 13 00 80 c1 08 00 00 63 0f 00 00 8c 02 00 00
       -7.093e-42 3.14e-42 5.52e-42 9.14e-43
0001c0 47 15 00 80 a9 00 00 00 88 1f 00 00 f3 07 00 80
       -7.633e-42 2.37e-43 1.1311e-41 -2.852e-42
0001d0 ec 1c 00 80 12 20 00 80 79 1a 00 80 5a 05 00 00
       -1.0375e-41 -1.1505e-41 -9.497e-42 1.92e-42
0001e0 f9 0d 00 00 54 0c 00 00 d5 24 00 80 52 0c 00 80
       5.012e-42 4.422e-42 -1.3213e-41 -4.42e-42
0001f0 f8 00 00 80 8b 14 00 00 b5 06 00 80 67 0e 00 80
       -3.48e-43 7.37e-42 -2.406e-42 -5.167e-42
000200 7b 16 00 00 ff 0b 00 80 ab 1f 00 80 6a 21 00 80
       8.064e-42 -4.303e-42 -1.136e-41 -1.1987e-41
000210 b5 06 00 80 c3 18 00 00 b9 07 00 80 67 06 00 00
       -2.406e-42 8.883e-42 -2.77e-42 2.297e-42
000220 e4 12 00 80 46 02 00 00 1d 14 00 80 0d 10 00 00
       -6.777e-42 8.16e-43 -7.215e-42 5.758e-42
000230 4b 24 00 80 3c 16 00 80 81 02 00 80 07 23 00 00
       -1.302e-41 -7.976e-42 -8.98e-43 1.2565e-41
000240 c3 26 00 80 f6 18 00 80 40 08 00 80 60 1c 00 80
       -1.3905e-41 -8.954e-42 -2.96e-42 -1.0179e-41
000250 1a 09 00 00 41 16 00 80 01 11 00 00 65 11 00 00
       3.265e-42 -7.983e-42 6.1e-42 6.24e-42
000260 b8 26 00 80 a9 16 00 00 ad 13 00 80 06 1c 00 80
       -1.389e-41 8.129e-42 -7.058e-42 -1.0053e-41
000270 ff 15 00 00 b2 05 00 80 43 25 00 80 bf 26 00 80
       7.891e-42 -2.043e-42 -1.3367e-41 -1.39e-41
000280 79 23 00 80 67 24 00 80 b7 0c 00 80 57 02 00 80
       -1.2725e-41 -1.3059e-41 -4.561e-42 -8.4e-43
000290 94 23 00 80 71 01 00 80 0c 0f 00 80 80 0f 00 80
       -1.2763e-41 -5.17e-43 -5.398e-42 -5.56e-42
0002a0 42 18 00 80 da 07 00 00 1a 15 00 80 31 03 00 80
       -8.702e-42 2.817e-42 -7.57e-42 -1.145e-42
0002b0 47 1e 00 00 c8 06 00 00 98 1a 00 80 8a 09 00 00
       1.0861e-41 2.433e-42 -9.54e-42 3.422e-42
0002c0 88 1d 00 80 bd 14 00 80 f8 0d 00 00 cd 05 00 00
       -1.0594e-41 -7.44e-42 5.011e-42 2.081e-42
0002d0 be 26 00 00 a0 1f 00 80 7f 02 00 80 48 20 00 80
       1.3898e-41 -1.1345e-41 -8.95e-43 -1.158e-41
0002e0 38 25 00 80 7a 0c 00 80 94 24 00 80 36 20 00 80
       -1.3352e-41 -4.476e-42 -1.3122e-41 -1.1555e-41
0002f0 d2 21 00 00 c8 1e 00 00 d9 1f 00 80 75 23 00 80
       1.2132e-41 1.1042e-41 -1.1425e-41 -1.272e-41
000300 a3 17 00 00 26 e8 56 2d 67 cd 27 b9 ac 5a 1f 38
       8.479e-42 1.2216039e-11 -0.0001600288 3.7993e-05
000310 a6 2f 83 38 b3 0d 00 80 66 12 00 80 75 37 b7 b8
       6.255442e-05 -4.914e-42 -6.6e-42 -8.73645e-05
000320 d6 72 a2 af e3 32 53 25 34 4b a2 ba 21 17 00 00
       -2.9549224e-10 1.8318574e-16 -0.0012382031 8.297e-42
000330 ee e6 17 3b 10 1a 8b 36 b0 c4 b3 3a fc 0b 00 80
       0.0023178416 4.145557e-06 0.0013715234 -4.299e-42
000340 2f be 98 36 4e 0d 00 80 c8 aa ea ba 3d 19 00 80
       4.5520933e-06 -4.773e-42 -0.001790368 -9.054e-42
000350 15 a4 e7 ba 2c d6 ea 3a c2 0e 00 80 77 3b 9a 3a
       -0.0017672802 0.0017916611 -5.294e-42 0.001176699
000360 70 a6 06 b8 17 1f 00 00 33 bf 03 af 46 51 67 b8
       -3.2103097e-05 1.1153e-41 -1.1982308e-10 -5.5150384e-05
000370 12 a0 ea ba c5 1b 00 80 ae 24 f2 3a 9e 8e 46 b9
       -0.0017900488 -9.962e-42 0.0018474066 -0.0001893588
000380 e0 1c 00 80 79 f6 09 3b 88 af bb b7 7c 6a 11 b8
       -1.0358e-41 0.002105145 -2.2373875e-05 -3.4669865e-05
000390 30 a9 f5 3a 7b 16 00 80 c7 17 00 80 95 3c 34 b7
       0.0018742438 -8.064e-42 -8.53e-42 -1.0742941e-05
0003a0 3d a5 75 34 c1 99 6f 3a 15 12 65 3b 63 1a 4d bb
       2.2877516e-07 0.00091400376 0.0034953405 -0.0031296245
0003b0 de f7 8a b5 f1 0a a0 b7 aa 9b 34 b6 1b 25 00 00
       -1.035394e-06 -1.9078581e-05 -2.6912699e-06 1.3311e-41
0003c0 90 ae 9c b7 df 14 00 00 bf 8b ea ba 69 0d 00 00
       -1.8677936e-05 7.487e-42 -0.0017894431 4.81e-42
0003d0 37 19 00 00 d5 98 f0 ba 2e 1c 00 00 f4 14 57 3a
       9.045e-42 -0.0018356094 1.0109e-41 0.00082047214
0003e0 13 b3 1c b7 dc 0d 00 80 93 72 69 b4 86 b2 1a b7
       -9.340019e-06 -4.972e-42 -2.1741498e-07 -9.220681e-06
0003f0 2a 2c e4 ba e5 72 cb 36 d4 b8 33 35 c3 d8 e5 b7
       -0.0017408181 6.063247e-06 6.6951657e-07 -2.7399865e-05

linear4.bias f4 [64]
000000 61 8d c3 bd 93 0c 00 80 34 da a7 b7 ba 77 8c 3d
       -0.0954845 -4.511e-42 -2.000956e-05 0.068587735
000010 eb d1 3c be 41 22 00 80 8d e3 a9 be 49 7f 03 bd
       -0.18439452 -1.2288e-41 -0.3318142 -0.03210381
000020 90 21 00 80 74 cb ef 37 fa 04 ff bd b5 be cc 3e
       -1.204e-41 2.858576e-05 -0.12452121 0.39989248
000030 0e 11 00 80 57 4e bc 3d d3 41 1b bc fd 18 2a 36
       -6.118e-42 0.0919463 -0.009476143 2.534652e-06
000040 fb 25 00 80 5a 18 00 80 83 01 c4 3e e7 d4 0b bd
       -1.3625e-41 -8.736e-42 0.38282403 -0.034138586
000050 92 15 d6 37 41 24 00 80 28 26 84 b7 23 e1 1d b6
       2.5520832e-05 -1.3005e-41 -1.5753394e-05 -2.352587e-06
000060 62 c9 00 ba 20 3f f2 37 73 0a 8a 3a f2 0e 00 80
       -0.0004912821 2.8878043e-05 0.0010531679 -5.361e-42
000070 e8 d0 16 b9 4a 20 00 80 66 1e 00 80 79 26 00 80
       -0.00014382938 -1.1583e-41 -1.0905e-41 -1.3801e-41
000080 2c 1a 98 b5 a4 de 5f bd d8 1a 00 80 2f 26 db 3a
       -1.13325e-06 -0.054655686 -9.63e-42 0.0016719754
000090 45 23 00 80 3e 0c 00 80 5b 18 00 80 26 fe 7d 3d
       -1.2652e-41 -4.392e-42 -8.737e-42 0.062009953
0000a0 3b 64 ba bc 1b b8 33 3d 72 1f 00 80 13 83 be be
       -0.022752872 0.04387675 -1.128e-41 -0.37209377
0000b0 76 28 b1 bd c1 40 e9 3c f1 25 00 80 60 05 29 3d
       -0.086502954 0.02847326 -1.3611e-41 0.04126489
0000c0 71 62 08 3f 3f 03 ec 3e 37 fd eb 37 94 34 92 bc
       0.5327521 0.46096227 2.8132095e-05 -0.017847337
0000d0 a1 c4 34 be 1b b9 2a ba b9 e5 1a bd f6 d6 e7 ba
       -0.17653133 -0.0006512568 -0.037816737 -0.0017687965
0000e0 6e 0d 00 80 00 f4 5c bd f2 17 00 80 15 fd 1f b7
       -4.818e-42 -0.053943634 -8.59e-42 -9.536064e-06
0000f0 47 1b 48 bc 7c 1b 00 80 d3 21 00 80 76 25 00 80
       -0.012213535 -9.86e-42 -1.2134e-41 -1.3438e-41

linear5.weight f4 [16, 64]
000000 a8 fb bf be 1b 1f 00 00 94 44 06 38 54 4e 2b 3f
       -0.37496686 1.1159e-41 3.2011958e-05 0.66916394
000010 ca b6 40 bd 41 0c 00 00 18 ff 8c be f3 bf 91 bc
       -0.04704932 4.396e-42 -0.2753837 -0.017791724
000020 20 1d 00 80 41 70 48 3a 53 1a f8 bc 0c e7 92 3d
       -1.0448e-41 0.00076461217 -0.03028599 0.07172975
000030 d1 1f 00 00 1d 35 a0 bd c0 89 d6 3e f3 07 c2 b6
       1.1414e-41 -0.078226306 0.4190197 -5.782576e-06
000040 26 0e 00 00 63 d9 b7 32 3a 96 d2 3e d4 16 28 3e
       5.076e-42 2.140286e-08 0.4113024 0.16414958
000050 23 1a 4b 3a 4a 19 00 00 1f 17 05 33 2f c6 37 b3
       0.000774773 9.072e-42 3.0987504e-08 -4.2788255e-08
000060 5e 65 43 bd c9 4b 48 3a b4 10 91 b8 0a 1e 00 00
       -0.047704093 0.00076406874 -6.91725e-05 1.0776e-41
000070 0d 39 84 3c e4 1b 00 80 e0 1c 00 80 69 06 00 00
       0.016140485 -1.0005e-41 -1.0358e-41 2.3e-42
000080 50 d5 7f b6 3e f2 e6 bc 59 21 00 00 ff d5 24 ba
       -3.8122125e-06 -0.028191682 1.1963e-41 -0.00062879914
000090 6c 11 00 80 74 0a 00 00 99 1c 00 00 4b 58 31 3f
       -6.25e-42 3.75e-42 1.0259e-41 0.6927535
0000a0 68 a4 fb bc 6f a4 3f 3f 5e 08 00 00 55 82 c3 bd
       -0.030718043 0.7486028 3.002e-42 -0.09546343
0000b0 55 75 6c 3d b8 e9 f0 be 6e 11 00 00 43 29 b2 bd
       0.057729084 -0.47053313 6.253e-42 -0.08699276
0000c0 7a 70 e5 3e 0c ac 87 3e e9 8a 48 3a 32 23 51 3d
       0.44812375 0.2649845 0.0007650094 0.051058955
0000d0 59 7a 3f 3c 71 20 c1 bc 3a 7a c2 be 05 88 11 bc
       0.011686885 -0.02357504 -0.37983876 -0.008882527
0000e0 43 25 00 00 88 25 6c 3c 5b 1c 00 00 d4 39 85 b7
       1.3367e-41 0.014413245 1.0172e-41 -1.5881764e-05
0000f0 4e 64 2b bc a8 1a 00 80 d6 22 00 00 b5 10 00 00
       -0.010460926 -9.562e-42 1.2497e-41 5.993e-42
000100 d1 b7 a4 bb 47 04 00 80 43 27 29 37 0e ce 18 be
       -0.0050267954 -1.534e-42 1.0082326e-05 -0.14922354
000110 40 b9 6e be 7d 0f 00 80 38 a4 43 be 00 76 07 bd
       -0.23312855 -5.556e-42 -0.19105613 -0.033071518
000120 af 0a 00 00 3c 35 07 b6 83 fb 42 be e2 a1 f2 3d
       3.833e-42 -2.0147554e-06 -0.19041257 0.11847283
000130 2a 15 00 80 28 bf 93 3d 88 31 92 bd f2 58 0d 38
       -7.592e-42 0.072141945 -0.071383536 3.3699856e-05
000140 35 14 00 80 3c e4 fd ae 22 f0 50 3e 0d 7d b5 ba
       -7.249e-42 -1.15456505e-10 0.20404103 -0.0013846472
000150 ee 22 e7 b5 71 21 00 80 48 5f 2e b7 23 03 94 2f
       -1.7221007e-06 -1.1997e-41 -1.0393393e-05 2.6923272e-10
000160 f4 5c 3c bc 9c f3 08 b6 c1 9c cf 38 77 25 00 80
       -0.011496771 -2.0407379e-06 9.899727e-05 -1.344e-41
000170 e3 93 fb bc 64 1c 00 00 3d 1c 00 00 bd 03 00 00
       -0.030710166 1.0185e-41 1.013e-41 1.341e-42
000180 d0 b7 d2 39 be db 10 be 8a 1a 00 00 8c 5d 63 ba
       0.00040191272 -0.14146325 9.52e-42 -0.00086733024
000190 4d 08 00 80 bc 1d 00 00 a5 22 00 00 18 ce 15 be
       -2.978e-42 1.0667e-41 1.2428e-41 -0.146294
0001a0 2a 47 f8 bd ea cb 07 be 91 03 00 00 ab b0 a3 3c
       -0.121229485 -0.13261381 1.28e-42 0.019981703
0001b0 00 30 e6 bd 17 db 89 3d 2d 0e 00 80 68 fc 65 3d
       -0.11239624 0.06731241 -5.085e-42 0.056148916
0001c0 0d 7e 97 3e 2a 29 ab 3e b3 1e 03 b6 7e 61 e0 bc
       0.29588357 0.33429843 -1.953839e-06 -0.027390238
0001d0 dc b8 97 be 39 cb e4 bc 29 8f fc 3c 25 2f 6c ba
       -0.29633224 -0.027928935 0.030829983 -0.00090097106
0001e0 0e 24 00 80 da 8e 3d be 8b 0b 00 00 59 13 dc af
       -1.2934e-41 -0.18511525 4.141e-42 -4.0031514e-10
0001f0 8d 56 4f bd eb 23 00 00 c0 05 00 00 de 06 00 80
       -0.05061965 1.2885e-41 2.063e-42 -2.463e-42
000200 b2 23 00 00 40 0f 00 80 55 0c 00 00 50 04 00 80
       1.2805e-41 -5.47e-42 4.424e-42 -1.547e-42
000210 0e 0c 00 80 1e 1a 00 80 35 1c 00 80 dc 1c 00 00
       -4.324e-42 -9.369e-42 -1.0119e-41 1.0353e-41
000220 dd 21 00 80 9f 0d 00 80 61 0f 00 80 2f 12 00 80
       -1.2148e-41 -4.886e-42 -5.517e-42 -6.523e-42
000230 8a 1f 00 80 40 19 00 00 98 05 00 80 d8 07 00 00
       -1.1314e-41 9.058e-42 -2.007e-42 2.814e-42
000240 f8 03 00 80 11 24 00 00 4b 12 00 00 37 05 00 80
       -1.424e-42 1.2938e-41 6.562e-42 -1.871e-42
000250 2f 07 00 80 a9 12 00 80 52 11 00 80 2f 03 00 80
       -2.577e-42 -6.694e-42 -6.213e-42 -1.142e-42
000260 c7 1d 00 80 e9 19 00 80 64 09 00 80 1e 0e 00 00
       -1.0682e-41 -9.295e-42 -3.369e-42 5.064e-42
000270 c3 24 00 80 59 1f 00 80 59 1b 00 80 2f 17 00 80
       -1.3188e-41 -1.1245e-41 -9.81e-42 -8.317e-42
000280 48 1a 00 00 26 13 00 00 47 19 00 80 be 13 00 80
       9.428e-42 6.869e-42 -9.068e-42 -7.082e-42
000290 00 26 00 80 b7 0f 00 00 99 09 00 80 6c 05 00 80
       -1.3632e-41 5.637e-42 -3.443e-42 -1.945e-42
0002a0 f6 12 00 80 76 10 00 80 85 0a 00 00 60 1e 00 80
       -6.802e-42 -5.905e-42 3.774e-42 -1.0896e-41
0002b0 5c 00 00 00 2b 24 00 80 04 1f 00 00 4c 24 00 00
       1.29e-43 -1.2975e-41 1.1126e-41 1.3021e-41
0002c0 e3 06 00 80 55 1c 00 80 4b 1b 00 80 9e 22 00 80
       -2.47e-42 -1.0164e-41 -9.791e-42 -1.2418e-41
0002d0 0e 08 00 00 d6 15 00 00 1c 18 00 80 fc 23 00 80
       2.89e-42 7.833e-42 -8.649e-42 -1.2909e-41
0002e0 87 23 00 80 85 26 00 80 9d 15 00 80 fd 24 00 80
       -1.2745e-41 -1.3818e-41 -7.753e-42 -1.3269e-41
0002f0 ff 18 00 00 4a 16 00 00 e6 02 00 00 e4 14 00 80
       8.967e-42 7.996e-42 1.04e-42 -7.494e-42
000300 c4 4d b5 3d 8e 1b 00 00 71 67 d9 ba 35 ac b2 b6
       0.08852723 9.885e-42 -0.0016586614 -5.324861e-06
000310 80 cb 68 bb c9 1e 00 80 21 64 38 3e 5a 19 f7 bc
       -0.0035521686 -1.1044e-41 0.18006946 -0.030163456
000320 ea 1e 00 80 94 e6 84 b8 88 99 c5 bc 6e 06 de be
       -1.109e-41 -6.337199e-05 -0.024121061 -0.4336428
000330 41 13 00 00 4f b4 5b bd b7 e3 b7 b8 02 97 32 37
       6.907e-42 -0.053638753 -8.768535e-05 1.0644786e-05
000340 71 0e 00 00 a1 12 00 80 f3 d5 ad bc e2 14 00 80
       5.18e-42 -6.683e-42 -0.021220183 -7.491e-42
000350 49 68 76 b8 b3 21 00 00 b6 5f 02 39 13 17 b7 b8
       -5.8748094e-05 1.2089e-41 0.00012433421 -8.730418e-05
000360 8c a5 94 b9 58 b7 85 b8 c2 05 86 3b d0 0c 00 00
       -0.00028352102 -6.376085e-05 0.004090042 4.596e-42
000370 8f 15 ce bc 34 1e 00 80 15 03 00 80 54 20 00 80
       -0.025156764 -1.0835e-41 -1.106e-42 -1.1597e-41
000380 de d0 0d 38 b8 3e ed bc 88 1b 00 00 ac 2c 0d b9
       3.3811542e-05 -0.02896057 9.876e-42 -0.0001346345
000390 a1 1f 00 80 7e 23 00 80 1e 24 00 80 bd d5 ef b7
       -1.1346e-41 -1.2732e-41 -1.2956e-41 -2.859055e-05
0003a0 57 1f c4 bd 87 15 65 b7 04 04 00 00 1e 4c d4 3e
       -0.0957629 -1.3654476e-05 1.44e-42 0.41464323
0003b0 33 4c 97 bc 3e 5f 64 3d ad 0d 00 00 ba bb ea 3c
       -0.018468952 0.055754893 4.906e-42 0.028653968
0003c0 ac fc 8f bd 73 7c 34 bd df 63 82 b8 35 d7 f6 3c
       -0.07030615 -0.044063997 -6.2174855e-05 0.030131916
0003d0 6e 44 85 bd d1 bb 96 3a 0b c9 a0 3d 2c 84 28 bb
       -0.065071926 0.0011500065 0.07850846 -0.0025713546
0003e0 2d 05 00 00 39 2b 94 bc 67 0f 00 00 62 20 8e b5
       1.857e-42 -0.018087016 5.525e-42 -1.0589249e-06
0003f0 58 ea 00 bd b8 14 00 80 27 12 00 00 0f 0b 00 00
       -0.031473488 -7.432e-42 6.512e-42 3.967e-42

linear5.bias f4 [16]
000000 62 0b b4 bd d4 13 c5 3e 7d 1c 00 00 bc 63 67 be
       -0.087912336 0.3849169 1.022e-41 -0.2259664
000010 95 da 88 be 85 d4 db 3d d6 12 ab be 73 16 0c be
       -0.26729265 0.10733894 -0.33412808 -0.13680439
000020 eb f7 4e be 06 24 18 3e 4a a7 1a bb 31 0f 51 3e
       -0.2021176 0.14857492 -0.0023598247 0.20415951
000030 83 22 00 80 1f 69 22 3d bc 0c 00 80 6e 22 3b 3f
       -1.238e-41 0.039651033 -4.568e-42 0.7309941

linear6.weight f4 [4, 16]
000000 1e 66 3a be 5c f8 8e 3e ee 12 00 80 6b cb c8 bd
       -0.18203017 0.27923858 -6.79e-42 -0.09804424
000010 d4 4f c7 bd df 3f 20 3d 25 31 46 bf fb 52 83 bd
       -0.09732023 0.039123412 -0.7741874 -0.06412312
000020 1c 44 ab 3e 66 7d 4c 3f c4 03 08 bd d6 16 b8 3d
       0.334504 0.7987884 -0.033206716 0.089887306
000030 72 16 00 80 25 70 67 3d 12 20 00 80 1c 0b f7 3e
       -8.052e-42 0.056503434 -1.1505e-41 0.48250663
000040 eb 84 84 be ff 64 c2 be 02 0d 00 00 1a 03 7f be
       -0.25882658 -0.3796768 4.666e-42 -0.24903527
000050 bc 03 96 be ce 1f 02 3f 60 16 97 3e 84 f7 fa b4
       -0.29299724 0.5082978 0.29509258 -4.674622e-07
000060 b2 3d a7 be 39 fe 98 be 9b 6a 82 bc 3d 1f f5 3e
       -0.32664257 -0.29881456 -0.015919974 0.47875395
000070 1e 1c 00 00 7a 38 9a bb 35 26 00 80 cf 71 0a be
       1.0087e-41 -0.0047064396 -1.3706e-41 -0.13519977
000080 ef 13 d2 b9 84 fe 18 be e8 17 00 00 73 59 94 3e
       -0.00040069173 -0.1494084 8.576e-42 0.28974494
000090 75 e1 87 3e c9 48 32 3e 65 65 87 3e ca ff 42 36
       0.26539198 0.17410578 0.26444545 2.9057142e-06
0000a0 9c ce c2 3e c4 28 c0 3e f0 d9 24 3c cd fb 29 3e
       0.38048255 0.37531102 0.010061726 0.1659996
0000b0 86 13 00 80 5b ae 4c 3c 88 1c 00 00 e5 07 38 bf
       -7.004e-42 0.012492741 1.0235e-41 -0.71887046
0000c0 4c a0 4f 3f cc 8d 16 3e a7 11 00 80 87 1b 58 bc
       0.8110397 0.14702529 -6.332e-42 -0.013190157
0000d0 17 d6 76 bc f8 d3 04 bf 64 23 8c b2 52 32 4c 3f
       -0.015065691 -0.5188594 -1.6314239e-08 0.7976428
0000e0 2e 0c 17 be c2 62 80 bd d1 70 07 3c ef d4 2e bf
       -0.1475074 -0.062688366 0.008266644 -0.6829366
0000f0 b0 05 00 00 1a ba 83 bd b0 1f 00 00 96 a7 16 3d
       2.04e-42 -0.064319804 1.1367e-41 0.036780916

linear6.bias f4 [4]
000000 73 e9 f5 3e b9 d4 d2 3d af 19 1f be f1 63 d1 bd
       0.4802967 0.1029448 -0.15537141 -0.102241404
