checkpoints/dnn_5%.pt (torch, 257523 bytes, 12 tensors)

linear1.weight f4 [128, 358]
00000000: f411 02bb 3886 393b 9821 193d 80c9 24bd
00000010: b715 7cbc 6664 bdbc 6d97 823d 693d f73b
00000020: b84c 813d 5f89 30bd a046 efbc 05b4 fbbc
00000030: 5e18 93bc 6589 89bc f019 343d 18cd e83d
00000040: de72 9ebd 1ea0 c8bd 837b b2bd 17a2 4abd
00000050: 906f e1ba 0779 063e 393f fcbc 7491 a0bc
00000060: 1362 ed3c 3939 7cbd 1925 323d 277d 6f3d
00000070: dc5f 733d 4612 d9bd 36f8 da3c f9fb 5d3c
00000080: 82c8 013b 8a09 3abc 2642 153c 1033 edbd
00000090: f194 60be ac3a 55bc 62b8 57bc a5d4 c63c
000000a0: 97cf 173d e8b8 073c 33a5 cf3a 466e e3bd
000000b0: 2921 24be b55a cbbb 0d34 a3bc a2a9 f73d
000000c0: 0966 453a 4ace 483c 29c3 eabc 5a33 d13d
000000d0: 55db 27bd 1930 893d 4f41 4b3d baed f23c
000000e0: 18a7 a43c 6ba3 533d 7752 c93d dc4a 243d
000000f0: b30b 973d 6e11 fb3c 3f19 bc3b afc4 9a3c
00000100: cf6b 683c 031b 563d 6158 553d dce2 463d
00000110: 2851 763c 3f8e 823c 2f3e 67bb b614 113d
00000120: 1325 3e3b 4fe2 d5ba 9843 ce3c 69a0 773c
00000130: 9f95 84ba 4c2c b83c d3b6 4ebc a4bd 21b9
00000140: 2281 dcbc b970 37bc eb6e 8e38 64b8 1b3c
00000150: ae4f 273c 45c3 463c c17f 473c 712d 2b3c
00000160: d6f6 3aba ffd3 843b 52e4 85bc 7b58 bbbc
00000170: 6aae d1bc 7779 50bc 677d 1bbd ed01 8b3d
00000180: e983 663c c62e 543d d9c6 513d 329f 24bd
00000190: 10e9 963c 5904 e7bc 5fbd 403d e5d1 ca3d
000001a0: a44e e03d 5c1b c33d af77 753d 6f74 0cbe
000001b0: 786a f5bd 7f5e 1cbd 8806 f7bd 5d0e e5bd
000001c0: 5270 8eba d6fe 523d bc18 673d 7e72 9bbd
000001d0: 25e0 513d cbc6 16bd 6815 81bd 4d26 08bc
000001e0: 3c82 f13d a7b3 b23d 0f21 853b b4ad b0bc
000001f0: d85b 58bd c3d4 c33d e832 1e3d 19c9 063e
00000200: 3f15 303e d5c0 54bc 8335 623b af2a c4bd
00000210: 3a2e b1bc adec 1637 dbda bcbd 4589 71bd
00000220: 76ad 87bd d455 673b d8c3 b93c 3c98 833c
00000230: 856d 33bd 54b3 e7bc da51 65bb 28ec 433e
00000240: 717b 1cbd 0e70 a33d 1d84 9abb 9488 e13d
00000250: 03ce a5bd 7406 473c 8011 f93d e86e 4f3e
00000260: 3b55 0b3d 634b 4cbd 2735 b9bd 3a63 4ebc
00000270: 2b67 dfbc 1bf7 53bd 6c91 ee3d 30d7 92bd
00000280: 449e ce3d fb57 ad3c f698 803d 6569 a13c
00000290: 84b4 83bc b0f8 2abc 4079 93bc 6b97 50bc
000002a0: 567e d3bb ca38 8a39 97b7 dd3b f78d b2b9
000002b0: 70d9 6fbb bedb 9cbc efa8 40bb 1df0 89b8
000002c0: 914d f5b9 3d00 0f3b 39f1 d63b b3c9 483c
000002d0: 23c8 b13c 32b2 dabb d3eb 84bc 8a85 a63d
000002e0: eaa3 2c3c d680 8c3c 8e34 2939 e3a0 31bb
000002f0: 61e9 8db9 af8f 3bbe 89a4 82bd 486e 71ba
00000300: 05bb 0e3a 7698 c338 c5e3 493b 6865 58be
00000310: c942 c5bc f122 02b9 1aa5 90b9 926a 533b
00000320: 7824 b3bc bc0c a33b 776c 913b f994 68b9
00000330: f7f0 85b9 fc78 80b7 6266 093b 2e6b 4cba
00000340: c9bd 4eb9 e053 66bb bca5 06ba 9947 ebbb
00000350: c4de 55bc fb1d c9ba 1242 23bd 9037 373e
00000360: 5b8c b43a 5e6d bfbb ab30 c5ba a049 8cbb
00000370: 363c dcbc 0383 cc3d 7e83 20be 17fa 6f3c
00000380: 68e1 b936 3b54 c73d 2975 49b7 808d c3b9
00000390: 0b78 fb3d 5915 62bb cc42 833d f331 2b3d
000003a0: b502 a13c b281 833b 9388 5cba 555e 1c3b
000003b0: 1e21 b537 310d 24b8 55e1 85ba 54f8 85bc
000003c0: 8d8f 39ba b28e fc3a 061c 12bc 9ede 533c
000003d0: 25c6 993c d844 b2bb 219b 4fbc 149b 363b
000003e0: d440 f9b9 616f c73a 13ea e23b 608b b6bb
000003f0: 0fa2 87bb 17d5 bf3b 4e82 e3bb f7eb 0039
-0.0019847127 0.002830876 0.037385553 -0.040231228 -0.015386037 -0.023119163 0.063765384 0.0075451625
0.06313461 -0.043099757 -0.029208481 -0.030725488 -0.017955955 -0.016789148 0.04397005 0.113672435
-0.07736753 -0.09796165 -0.08714964 -0.049470987 -0.0017199386 0.13132106 -0.030791866 -0.019600607
0.02897743 -0.06157801 0.04349241 0.058468964 0.05941759 -0.105991885 0.026729684 0.0135488445
0.001980335 -0.011354813 0.009110009 -0.11582005 -0.21931817 -0.013014477 -0.013166519 0.024271319
0.037063207 0.008283831 0.001584208 -0.11105017 -0.16028275 -0.0062058815 -0.01992228 0.12092902
0.0007530158 0.012256214 -0.028657513 0.10214873 -0.040980656 0.06698627 0.04962283 0.029654372
0.020099208 0.05166952 0.09830182 0.040110454 0.07375278 0.03064796 0.0057403143 0.018892614
0.01418586 0.052271854 0.052086238 0.048556194 0.015033998 0.015936969 -0.0035284867 0.035420142
0.0029013797 -0.0016318056 0.025178716 0.015113928 -0.0010115391 0.02248206 -0.012616831 -0.00015424803
-0.026917044 -0.011196309 6.791748e-05 0.009504411 0.010211868 0.012131517 0.012176455 0.010447846
-0.00071321183 0.004053592 -0.016344223 -0.02286934 -0.025595862 -0.012724272 -0.03796139 0.06787477
0.014069536 0.05180242 0.051215027 -0.040190883 0.01842168 -0.028200315 0.0470556 0.099033155
0.109524995 0.09526703 0.059928592 -0.13716291 -0.11983198 -0.038176056 -0.120617926 -0.1118438
-0.0010867214 0.05151256 0.056420073 -0.07590197 0.05123915 -0.036810677 -0.06302911 -0.008309913
0.11792418 0.08725672 0.004062779 -0.021567203 -0.052821964 0.095620655 0.038622767 0.1316265
0.17195605 -0.012985428 0.0034516759 -0.09578454 -0.021628488 8.995802e-06 -0.09221431 -0.0589688
-0.06624882 0.003529896 0.022676393 0.016063802 -0.043805618 -0.028283753 -0.0034991414 0.19133055
-0.03820366 0.07980357 -0.004715456 0.11012378 -0.08095934 0.012147535 0.12161541 0.20257151
0.03401683 -0.049876582 -0.09043341 -0.0125969 -0.027270874 -0.05174933 0.11648831 -0.0716995
0.100887805 0.021160116 0.06279175 0.019703576 -0.016077287 -0.010435268 -0.018002152 -0.012731413
-0.0064542694 0.00026363722 0.0067662704 -0.00034056578 -0.0036598109 -0.01914775 -0.0029397567 -6.577394e-05
-0.00046787833 0.002182021 0.0065595177 0.01225512 0.021701878 -0.0066740746 -0.016225731 0.08130939
0.010537127 0.017151278 0.00016136674 -0.0027103953 -0.00027067497 -0.1831653 -0.06379039 -0.00092098536
0.0005444738 9.326723e-05 0.0030805927 -0.21132433 -0.024079697 -0.00012410783 -0.0002758883 0.0032259566
-0.021867976 0.0049758833 0.004437979 -0.00022180741 -0.0002554727 -1.5315127e-05 0.0020965566 -0.00077979534
-0.00019716391 -0.0035145208 -0.00051363907 -0.007180166 -0.0130536 -0.0015344018 -0.03985793 0.17892289
0.0013774739 -0.005841895 -0.0015044411 -0.0042812377 -0.02688418 0.09985926 -0.1567516 0.014647028
5.5396704e-06 0.097328626 -1.2007812e-05 -0.00037298724 0.12278756 -0.0034497587 0.06409225 0.041795682
0.019654611 0.0040132636 -0.0008412685 0.0023859937 2.1592303e-05 -3.9112932e-05 -0.0010214249 -0.016353764
-0.00070785807 0.0019268601 -0.008917814 0.012931494 0.01877124 -0.0054403357 -0.012671263 0.002786343
-0.00047541282 0.0015215689 0.0069248765 -0.005570814 -0.004139192 0.0058542597 -0.0069430238 0.00012294935

linear1.bias f4 [128]
00000000: 4f85 293e 0c6d f63d a2ff cf3e cfd0 14bd
00000010: 1efb 923e 79e7 ef3d 61b1 18bd 8a58 fdbb
00000020: 0233 873d 8939 063d 7968 ca3c 1f73 923d
00000030: 3b0a 053f 8653 813e 5c93 2dbd 98a8 0a3d
00000040: 2ba0 62bd b2d5 8fbc 4af1 d9bc 06f0 9a3d
00000050: 8236 aa3d 2a8e ea3d ea18 b33d 4e84 17bd
00000060: 2924 4fbd 41d1 c53c 3a3b 03be d62b 053d
00000070: 32a1 0f3e 6d4e 62bd beb3 32bc ac8a 133e
00000080: 78a6 523d bc06 5fbd 7040 a23d 8af0 c93d
00000090: d1b7 253f 0b98 f9bc 20b3 9b3d 8c6c 98b9
000000a0: 92f0 32bd 4012 68bc 0485 cb3d b622 55bd
000000b0: 2758 6a3d f7f2 473d dc99 f23d c9db c03e
000000c0: 75e9 233d 1fe0 ae3d 36a0 ca3c 2459 033e
000000d0: ab75 03bd 4745 4a3e 5b5d fa3d 8258 a83d
000000e0: dd64 b33d f375 b93e e907 f6bc 47c3 2cbd
000000f0: bd8c 463d e3f0 933d ad2d 073e 22d3 efbc
00000100: 5ad5 b0bc eadb 06bd 1b01 873d b01d b23d
00000110: 0c3a 983e 58c5 a23c eed3 3b3d 694f e2bc
00000120: ae2d d7bc 2e83 3b3d 8167 843e 9f4f 713d
00000130: 4688 683d 4d88 233a 913c e33e 29e9 e33c
00000140: 4752 10b9 2f86 893d 2657 97bc c9dd 38bd
00000150: 334f a43e c36d 05bd 0514 0e3e 27e3 b1bc
00000160: b0fd 103e 2a4f 01bd 6a95 b13c 7b60 d23c
00000170: 2f35 9bbb abf6 f33d 0e7a 013e d115 3b3d
00000180: 11e4 a53d e735 803d e221 68bc 3e9c 54bd
00000190: cd20 ac3d bd8b 92bd 8f48 86bc c90e 873d
000001a0: 299c ad3d c819 de3d 9f49 853d 16c9 c53c
000001b0: d263 403d e17a 273e ccc6 163d 9b1b d73e
000001c0: ea00 aabc 7c20 823d d7d4 c43c 8970 ff3a
000001d0: e94b 3abd 4380 c93d 9b2a bebc b353 1a3e
000001e0: 5b8e 143f 1ccc c13d 27c3 b23e 4eec 1f3c
000001f0: e6a3 a6bc f3ed 05bc 3d3f cb3d 18a0 3a3d
0.1655476 0.12032518 0.4062472 -0.036331948 0.28707212 0.11714072 -0.037278537 -0.007731502
0.06601526 0.032769714 0.02470802 0.07150864 0.51968735 0.25259036 -0.04237686 0.03385219
-0.05532853 -0.017557953 -0.026604313 0.07565312 0.08311178 0.11452897 0.08744986 -0.03699141
-0.050571594 0.024147632 -0.12815562 0.03251251 0.14026335 -0.055250574 -0.010907112 0.14408368
0.05142829 -0.05444978 0.07922447 0.09860332 0.64733607 -0.030468008 0.07602525 -0.00029072573
-0.043686457 -0.014164507 0.0993748 -0.052035056 0.057212975 0.048815694 0.118457526 0.37667683
0.040017564 0.085388415 0.024734598 0.12826973 -0.03209464 0.1975299 0.122248374 0.082200065
0.087594725 0.362228 -0.030033069 -0.04217842 0.048474062 0.0722368 0.13201018 -0.02927548
-0.021586109 -0.03292457 0.06592008 0.08697069 0.29731786 0.019869491 0.04585641 -0.027625756
-0.026266899 0.0457794 0.25860217 0.058913823 0.056770585 0.0006238267 0.44382146 0.02782114
-0.00013763561 0.067150466 -0.018474173 -0.045133386 0.32091674 -0.03257538 0.13874824 -0.02171476
0.14159274 -0.031569637 0.021677691 0.025680771 -0.0047365646 0.119122826 0.12644216 0.045675103
0.08100141 0.06260281 -0.014168235 -0.051906817 0.08404694 -0.07155559 -0.01639202 0.06594617
0.08477051 0.10844761 0.06508183 0.024143737 0.046970196 0.16355468 0.03681068 0.4201325
-0.020752389 0.06353852 0.024027271 0.0019488494 -0.04548255 0.09838917 -0.023213675 0.15070991
0.5802972 0.09462759 0.34914514 0.009760929 -0.020341825 -0.008174407 0.09924171 0.045562834

linear2.weight f4 [64, 128]
00000000: 6d14 0080 f311 0080 571d 0080 8513 0000
00000010: 990a 0080 a00f 0080 d120 0080 7a19 0080
00000020: d525 0080 1c02 0000 e115 0080 8d21 0080
00000030: 0a19 0080 d305 0000 4a17 0080 da08 0080
00000040: b61e 0080 bb05 0000 5018 0000 fc0d 0000
00000050: 3304 0000 651c 0000 3017 0000 e319 0080
00000060: 721d 0080 ce24 0080 3118 0080 8224 0080
00000070: a80e 0080 5817 0080 451d 0000 d222 0080
00000080: 8317 0080 b024 0080 ed07 0000 fb25 0080
00000090: ce0b 0080 c216 0080 7d17 0080 e11f 0080
000000a0: bc12 0080 4406 0080 9613 0080 5a1e 0080
000000b0: 6b17 0080 3c22 0000 5116 0080 da09 0080
000000c0: 2720 0080 041f 0080 9313 0080 1715 0080
000000d0: da12 0000 b40a 0000 6611 0000 d226 0080
000000e0: df0e 0080 ef05 0000 f319 0080 f417 0080
000000f0: e506 0080 c50d 0000 f404 0000 b21c 0080
00000100: dd04 0000 d81b 0000 8801 0080 d71b 0080
00000110: 1312 0080 cb0f 0000 0e10 0080 e625 0080
00000120: 7023 0080 7407 0000 2b25 0080 4e21 0080
00000130: 0d1c 0080 6b0d 0000 fe18 0080 541b 0080
00000140: c317 0080 bb08 0000 dd06 0000 e506 0000
00000150: 4b0e 0080 1d19 0080 5d17 0080 4e23 0080
00000160: 6010 0080 c223 0080 de1f 0080 b924 0080
00000170: b11c 0080 0f23 0080 7f15 0080 cb20 0000
00000180: 441d 0080 6112 0000 320c 0080 7219 0080
00000190: d625 0080 2f23 0080 0523 0080 9825 0080
000001a0: 8809 0080 5c1f 0080 9607 0000 231c 0080
000001b0: c30c 0080 a512 0080 bd02 0080 4b10 0080
000001c0: 6a1f 0080 9c1e 0080 e826 0080 5220 0080
000001d0: e410 0080 6a1c 0080 fe18 0080 b914 0080
000001e0: 3700 0080 1814 0000 2212 0080 ff08 0080
000001f0: 1e15 0080 7523 0080 811f 0080 011a 0080
00000200: 9206 0080 8011 0080 cc1c 0080 be1c 0080
00000210: a410 0080 cf08 0080 c91c 0000 e410 0080
00000220: aa0c 0080 d509 0080 e206 0080 ab0a 0080
00000230: b520 0080 ab25 0080 c102 0000 c408 0080
00000240: ce16 0080 e810 0080 e30b 0080 6e23 0080
00000250: a01d 0080 e41f 0080 3e18 0080 2300 0080
00000260: aa0d 0080 3f1d 0000 dc0e 0000 9515 0080
00000270: 301b 0080 0a15 0080 1423 0080 de26 0080
00000280: 3513 0080 5721 0000 cf07 0080 f516 0080
00000290: 2912 0080 f405 0000 6322 0080 310c 0080
000002a0: 9914 0000 ff11 0080 6c0a 0080 590a 0080
000002b0: 5719 0080 a51e 0080 9923 0080 9625 0080
000002c0: 3311 0080 6113 0000 3524 0080 8b20 0080
000002d0: d714 0080 e320 0080 cc19 0080 c511 0080
000002e0: 8212 0080 5312 0080 ad25 0080 fe11 0080
000002f0: 2d20 0080 7915 0080 6821 0080 d920 0080
00000300: f60b 0080 dd10 0080 7014 0080 2e21 0080
00000310: 8c1a 0080 f313 0080 b21d 0000 e024 0080
00000320: 840a 0080 4c0c 0080 0f18 0080 f71b 0080
00000330: 9822 0080 7414 0080 8a24 0080 c50d 0000
00000340: c317 0080 2013 0080 ee20 0080 a804 0080
00000350: 7821 0080 8c1e 0080 0411 0080 d724 0080
00000360: cb1e 0080 a409 0080 2608 0080 910c 0080
00000370: 071a 0080 b106 0000 cb18 0080 7a0a 0000
00000380: 5524 0080 b01f 0080 c410 0080 4d1f 0080
00000390: 951d 0080 620b 0080 e122 0080 f61d 0080
000003a0: ac02 0080 141f 0080 3c19 0080 7109 0080
000003b0: 9309 0080 0f11 0080 7325 0080 6326 0080
000003c0: 811e 0080 fc23 0080 ef25 0080 ac11 0080
000003d0: 1c0c 0000 6b0b 0080 0826 0080 8d23 0080
000003e0: ad13 0080 e71d 0080 f40a 0080 8401 0080
000003f0: 1f15 0080 c81b 0080 d723 0080 9422 0080
-7.327e-42 -6.439e-42 -1.0525e-41 7.002e-42 -3.802e-42 -5.605e-42 -1.1772e-41 -9.139e-42
-1.3572e-41 7.57e-43 -7.849e-42 -1.2036e-41 -8.982e-42 2.09e-42 -8.355e-42 -3.175e-42
-1.1017e-41 2.056e-42 8.722e-42 5.017e-42 1.506e-42 1.0186e-41 8.318e-42 -9.286e-42
-1.0563e-41 -1.3203e-41 -8.678e-42 -1.3097e-41 -5.258e-42 -8.374e-42 1.05e-41 -1.2491e-41
-8.434e-42 -1.3161e-41 2.843e-42 -1.3625e-41 -4.235e-42 -8.164e-42 -8.426e-42 -1.1436e-41
-6.72e-42 -2.248e-42 -7.026e-42 -1.0888e-41 -8.401e-42 1.2281e-41 -8.006e-42 -3.534e-42
-1.1534e-41 -1.1126e-41 -7.022e-42 -7.566e-42 6.763e-42 3.84e-42 6.241e-42 -1.3926e-41
-5.335e-42 2.129e-42 -9.309e-42 -8.593e-42 -2.473e-42 4.94e-42 1.777e-42 -1.0294e-41
1.745e-42 9.988e-42 -5.5e-43 -9.987e-42 -6.484e-42 5.665e-42 -5.76e-42 -1.3595e-41
-1.2713e-41 2.674e-42 -1.3333e-41 -1.1947e-41 -1.0063e-41 4.813e-42 -8.966e-42 -9.803e-42
-8.524e-42 3.132e-42 2.462e-42 2.473e-42 -5.127e-42 -9.009e-42 -8.381e-42 -1.2665e-41
-5.874e-42 -1.2827e-41 -1.1432e-41 -1.3174e-41 -1.0293e-41 -1.2577e-41 -7.711e-42 1.1764e-41
-1.0499e-41 6.593e-42 -4.375e-42 -9.128e-42 -1.3573e-41 -1.2621e-41 -1.2563e-41 -1.3486e-41
-3.419e-42 -1.125e-41 2.721e-42 -1.0094e-41 -4.578e-42 -6.688e-42 -9.82e-43 -5.845e-42
-1.1269e-41 -1.098e-41 -1.3957e-41 -1.1594e-41 -6.059e-42 -1.0193e-41 -8.966e-42 -7.434e-42
-7.7e-44 7.208e-42 -6.505e-42 -3.227e-42 -7.575e-42 -1.272e-41 -1.1301e-41 -9.328e-42
-2.357e-42 -6.278e-42 -1.033e-41 -1.0311e-41 -5.97e-42 -3.16e-42 1.0326e-41 -6.059e-42
-4.543e-42 -3.527e-42 -2.469e-42 -3.827e-42 -1.1733e-41 -1.3513e-41 9.88e-43 -3.145e-42
-8.181e-42 -6.065e-42 -4.264e-42 -1.271e-41 -1.0627e-41 -1.144e-41 -8.696e-42 -4.9e-44
-4.902e-42 1.0492e-41 5.33e-42 -7.742e-42 -9.753e-42 -7.547e-42 -1.2584e-41 -1.3943e-41
-6.89e-42 1.196e-41 -2.801e-42 -8.235e-42 -6.515e-42 2.136e-42 -1.2336e-41 -4.373e-42
7.389e-42 -6.456e-42 -3.739e-42 -3.712e-42 -9.09e-42 -1.0993e-41 -1.277e-41 -1.3483e-41
-6.17e-42 6.952e-42 -1.2989e-41 -1.1674e-41 -7.476e-42 -1.1798e-41 -9.254e-42 -6.375e-42
-6.64e-42 -6.573e-42 -1.3516e-41 -6.454e-42 -1.1542e-41 -7.703e-42 -1.1984e-41 -1.1784e-41
-4.291e-42 -6.05e-42 -7.332e-42 -1.1903e-41 -9.523e-42 -7.156e-42 1.0653e-41 -1.3228e-41
-3.772e-42 -4.411e-42 -8.63e-42 -1.0032e-41 -1.241e-41 -7.337e-42 -1.3108e-41 4.94e-42
-8.524e-42 -6.861e-42 -1.1813e-41 -1.67e-42 -1.2006e-41 -1.0958e-41 -6.104e-42 -1.3216e-41
-1.1046e-41 -3.458e-42 -2.923e-42 -4.508e-42 -9.337e-42 2.4e-42 -8.894e-42 3.758e-42
-1.3033e-41 -1.1367e-41 -6.014e-42 -1.1229e-41 -1.0612e-41 -4.083e-42 -1.2512e-41 -1.0748e-41
-9.58e-43 -1.1149e-41 -9.052e-42 -3.387e-42 -3.435e-42 -6.12e-42 -1.3434e-41 -1.377e-41
-1.0943e-41 -1.2909e-41 -1.3608e-41 -6.34e-42 4.344e-42 -4.096e-42 -1.3643e-41 -1.2753e-41
-7.058e-42 -1.0727e-41 -3.929e-42 -5.44e-43 -7.577e-42 -9.966e-42 -1.2857e-41 -1.2404e-41

linear2.bias f4 [64]
00000000: ad17 0080 f21a 0080 b414 c4bc 7509 0080
00000010: b009 0080 ac19 0080 e144 033e 2b9b 8fbb
00000020: 280b 0080 26c8 093b 231b 0080 0625 0080
00000030: ea10 0080 cc23 0080 9af0 1c3e df28 803b
00000040: b9f6 143e d50d 0000 da5c c53b 5505 0080
00000050: 1e26 0080 020f 0080 ad0c 0080 681d 0080
00000060: 0911 0080 cc06 0080 1f26 0080 d3ba b03e
00000070: b221 0080 c320 0080 c309 0080 11fb e0bb
00000080: b726 0080 5e07 0080 e323 0080 1611 0080
00000090: 211d 0080 510a 0080 c50d 0080 c60f 0080
000000a0: cf0c 0080 d507 0080 e61d 0080 0a1a 0080
000000b0: c810 0080 6274 85b8 a825 0000 4f2b 443e
000000c0: 6e4d 2dbc 0573 b23e b122 0080 fb25 0080
000000d0: 8a12 0080 941e 0080 490a 0080 a580 b43e
000000e0: a31c 0080 a613 0080 987d efba 941f 91bc
000000f0: d726 0080 d00b 0080 c51a 0080 30ac 3db8
-8.493e-42 -9.666e-42 -0.023935653 -3.393e-42 -3.475e-42 -9.21e-42 0.12819244 -0.004382511
-4.002e-42 0.0021023839 -9.735e-42 -1.3282e-41 -6.068e-42 -1.2841e-41 0.15326157 0.003911122
0.14547242 4.962e-42 0.0060230317 -1.913e-42 -1.3674e-41 -5.384e-42 -4.547e-42 -1.0549e-41
-6.111e-42 -2.438e-42 -1.3675e-41 0.34517536 -1.2088e-41 -1.1753e-41 -3.502e-42 -0.006865867
-1.3888e-41 -2.643e-42 -1.2874e-41 -6.129e-42 -1.045e-41 -3.701e-42 -4.94e-42 -5.658e-42
-4.595e-42 -2.81e-42 -1.0726e-41 -9.341e-42 -6.02e-42 -6.363612e-05 1.3509e-41 0.19157146
-0.010577543 0.34853378 -1.2445e-41 -1.3625e-41 -6.65e-42 -1.097e-41 -3.69e-42 0.35254398
-1.0273e-41 -7.049e-42 -0.0018271683 -0.017715253 -1.3933e-41 -4.238e-42 -9.603e-42 -4.5221474e-05

linear3.weight f4 [32, 64]
00000000: a924 0080 490b 0080 2c17 0080 e113 0080
00000010: 7120 0000 e308 0080 ae6e 9eb3 d46e eb3a
00000020: 4e12 0000 4432 f537 d108 0080 881d 0080
00000030: 049d eaba c011 0000 7801 1eb6 4c06 3539
00000040: cb0e 89b7 4e14 0080 0c8d a939 4411 0000
00000050: 7024 0000 160b 0080 f61c 0000 7d22 0080
00000060: f317 0080 da22 0080 4d0c 0080 c4ea e0b8
00000070: 9920 0080 1718 0080 ec1f 0080 ea07 0080
00000080: 3d19 0000 4023 0080 071c 0080 1421 0080
00000090: 6022 0080 df09 0080 ab21 0080 3712 0000
000000a0: a61e 0000 660d 0080 510c 0080 8022 0080
000000b0: 5d23 0080 6c97 ea3a d826 0080 13f3 4db9
000000c0: 2d1c 0080 42af 0bb8 faa1 eaba b703 0000
000000d0: 8f0c 0080 a81b 0080 d10a 0080 40bd 97b7
000000e0: 2b11 0000 4e0c 0080 9677 17b8 c8df 89ad
000000f0: 5b18 0080 be24 0000 7425 0000 0a25 6c3a
00000100: 4416 0000 2e16 0000 2ed0 2ab9 d81d 0080
00000110: ab16 0080 2f25 0080 0f9d 79bc 06ca a4bb
00000120: 350c 0080 4783 d2bc 021a 0080 f518 0000
00000130: 4715 0080 1c1a 0000 d667 32be 5064 913c
00000140: 44c0 0f3e ea1e 0000 e4cf b6be 7307 0000
00000150: 169e eaba ed11 0080 9c1d 0080 6c16 0000
00000160: 0b26 0080 fe0a 0000 9e14 0000 08db 8b3e
00000170: 180a 0000 3213 0000 391b 0080 484c b93c
00000180: 1921 0000 4e10 0000 fd0a 0000 0915 0000
00000190: 3210 0080 dd0a 0080 671a 0000 5b14 0000
000001a0: c220 0080 c708 0000 7513 0080 931a 0080
000001b0: f719 0080 9dfb c637 e516 0000 98b5 8a3c
000001c0: 37a8 023d 47ec 343d e612 0080 261a 0000
000001d0: 9b22 0000 aa09 0000 4319 0080 f3fb 5cbe
000001e0: 1f23 0000 7b20 0000 44bb 853e 28d4 41bc
000001f0: 7025 0000 ee22 0000 4b0b 0080 a4c6 5838
00000200: 7a04 0080 f809 0000 b218 0080 8208 0080
00000210: f725 0080 1e1b 0080 04dc 16b7 a438 98ba
00000220: de0e 0080 a488 aa38 660d 0080 a005 0000
00000230: a709 0080 b007 0080 cb48 4c39 d0ba baba
00000240: c8e6 31b9 5c1e 0000 1076 c336 3e04 0080
00000250: c012 0080 7e23 0080 2d17 0080 7b23 0080
00000260: c207 0080 6901 0080 cc0b 0000 38c2 8e39
00000270: 6a11 0080 2e21 0080 fc15 0080 aa49 06bb
00000280: 8719 0080 4e24 0080 6613 0000 451f 0000
00000290: cc26 0080 6e1a 0080 9d10 0000 b926 0080
000002a0: 1310 0080 6c10 0000 a121 0080 c826 0000
000002b0: e717 0080 24d7 a4b8 a212 0080 ad1d 2b39
000002c0: 100d c7b1 f038 8638 9811 0000 3305 0000
000002d0: 751d 0000 ab1d 0080 ca0f 0000 c457 0638
000002e0: 011f 0080 9415 0000 a477 013a e674 8d32
000002f0: 4215 0080 8b11 0080 201a 0080 50a7 eeba
00000300: 0d14 0080 a71d 0000 c970 2fbb aa0a 0080
00000310: 0420 0000 3226 0000 928e 0dbd b944 113b
00000320: 0022 0000 d69f cfbb 940b 0080 9e10 0080
00000330: 9913 0080 e123 0000 c1fc bebd 39ca 2fbc
00000340: 93d6 f0bc 2410 0000 acd3 1d3e 7f24 0080
00000350: 4d22 0080 1611 0080 3812 0000 7804 0000
00000360: 831a 0080 c40f 0080 0412 0080 7490 dfbd
00000370: bc20 0080 ca17 0000 5307 0000 af73 0d38
00000380: 1a15 0080 9911 0080 fc1e 0000 c11a 0080
00000390: 211a 0080 440a 0080 ec24 0000 ea0a 0080
000003a0: 691b 0080 5719 0080 b10f 0080 0726 0080
000003b0: 8e0c 0080 46b4 2b38 dc0e 0080 73b8 a43d
000003c0: b344 1136 afc4 083d d21e 0000 a81a 0000
000003d0: 5a20 0000 0322 0080 2922 0080 46db 0a3e
000003e0: 0105 0080 0c0a 0080 f5a1 18be 420f 87bc
000003f0: 750a 0080 7d14 0000 640c 0080 cd44 13b7
-1.3151e-41 -4.048e-42 -8.313e-42 -7.131e-42 1.1638e-41 -3.188e-42 -7.377581e-08 0.0017962107
6.566e-42 2.9229683e-05 -3.163e-42 -1.0594e-41 -0.0017899578 6.368e-42 -2.354469e-06 0.00017263851
-1.6338561e-05 -7.284e-42 0.0003233928 6.194e-42 1.3071e-41 -3.977e-42 1.0389e-41 -1.2372e-41
-8.591e-42 -1.2502e-41 -4.413e-42 -0.00010724881 -1.1694e-41 -8.642e-42 -1.1451e-41 -2.839e-42
9.054e-42 -1.2645e-41 -1.0054e-41 -1.1866e-41 -1.2331e-41 -3.541e-42 -1.2078e-41 6.534e-42
1.0995e-41 -4.806e-42 -4.418e-42 -1.2376e-41 -1.2686e-41 0.001789791 -1.3935e-41 -0.00019640876
-1.0108e-41 -3.3303404e-05 -0.0017901056 1.333e-42 -4.505e-42 -9.921e-42 -3.88e-42 -1.808873e-05
6.159e-42 -4.414e-42 -3.611258e-05 -1.5674476e-11 -8.737e-42 1.318e-41 1.3436e-41 0.0009008205
7.987e-42 7.957e-42 -0.00016290016 -1.0706e-41 -8.132e-42 -1.3339e-41 -0.0152352 -0.005028966
-4.379e-42 -0.025697364 -9.33e-42 8.953e-42 -7.633e-42 9.366e-42 -0.17422423 0.017748028
0.14038187 1.109e-41 -0.35705483 2.672e-42 -0.0017899896 -6.43e-42 -1.0622e-41 8.043e-42
-1.3647e-41 3.943e-42 7.396e-42 0.27315545 3.621e-42 6.886e-42 -9.766e-42 0.022619382
1.1873e-41 5.849e-42 3.942e-42 7.546e-42 -5.81e-42 -3.897e-42 9.471e-42 7.302e-42
-1.1751e-41 3.149e-42 -6.98e-42 -9.533e-42 -9.314e-42 2.3720606e-05 8.213e-42 0.016932294
0.031898703 0.044170644 -6.78e-42 9.38e-42 1.2414e-41 3.467e-42 -9.062e-42 -0.21580486
1.2599e-41 1.1652e-41 0.26119435 -0.011830367 1.343e-41 1.253e-41 -4.051e-42 5.168341e-05
-1.606e-42 3.576e-42 -8.859e-42 -3.052e-42 -1.3619e-41 -9.728e-42 -8.991923e-06 -0.001161356
-5.333e-42 8.131683e-05 -4.806e-42 2.018e-42 -3.463e-42 -2.758e-42 0.00019482074 -0.0014246348
-0.00016966008 1.0891e-41 5.825197e-06 -1.522e-42 -6.726e-42 -1.2732e-41 -8.314e-42 -1.2728e-41
-2.783e-42 -5.06e-43 4.232e-42 0.00027229055 -6.247e-42 -1.1903e-41 -7.887e-42 -0.0020490685
-9.157e-42 -1.3024e-41 6.959e-42 1.1217e-41 -1.3918e-41 -9.481e-42 5.96e-42 -1.3891e-41
-5.766e-42 5.891e-42 -1.2064e-41 1.3912e-41 -8.575e-42 -7.8602025e-05 -6.684e-42 0.00016318886
-5.7931473e-09 6.400223e-05 6.311e-42 1.865e-42 1.0567e-41 -1.0643e-41 5.664e-42 3.2029828e-05
-1.1122e-41 7.741e-42 0.00049387873 1.646772e-08 -7.626e-42 -6.293e-42 -9.372e-42 -0.0018207822
-7.193e-42 1.0637e-41 -0.0026770106 -3.826e-42 1.1485e-41 1.3702e-41 -0.034559794 0.0022166206
1.2197e-41 -0.0063361926 -4.153e-42 -5.961e-42 -7.03e-42 1.2871e-41 -0.09325553 -0.010729366
-0.029399192 5.79e-42 0.15412778 -1.3092e-41 -1.2305e-41 -6.129e-42 6.536e-42 1.603e-42
-9.51e-42 -5.656e-42 -6.463e-42 -0.10916224 -1.1743e-41 8.534e-42 2.627e-42 3.372476e-05
-7.57e-42 -6.313e-42 1.1115e-41 -9.597e-42 -9.373e-42 -3.683e-42 1.3245e-41 -3.915e-42
-9.833e-42 -9.09e-42 -5.629e-42 -1.3642e-41 -4.504e-42 4.093747e-05 -5.33e-42 0.080429934
2.1646672e-06 0.033390697 1.1056e-41 9.562e-42 1.1606e-41 -1.2201e-41 -1.2254e-41 0.13560209
-1.795e-42 -3.604e-42 -0.14905532 -0.016486768 -3.751e-42 7.35e-42 -4.445e-42 -8.777902e-06

linear3.bias f4 [32]
00000000: 6964 f0b8 61ac 9a3d 4cfd 1739 db25 acbd
00000010: e9a4 a03d 19af 14be f1e6 c43e b7ea 073d
00000020: 65c4 cabd bde1 733d 7b26 0080 f307 0080
00000030: eb1e 0080 a85a 8f3c a082 efbc d323 0080
00000040: 16dd 64bd b5d3 75bd eaf3 3b3e 1bc4 cfbd
00000050: 3587 80bc 9b22 0080 ddef 083e 0735 0dbc
00000060: 9dd1 723e 34fb b5bd ef0f 0080 9ccd edbd
00000070: fd20 0080 ab1c 0080 41d8 a33d e659 3bbb
-0.00011462795 0.0755241 0.00014494843 -0.08405658 0.07843954 -0.1451992 0.38457444 0.033182826
-0.099007405 0.059541453 -1.3804e-41 -2.852e-42 -1.1091e-41 0.017499283 -0.029237092 -1.2851e-41
-0.055874906 -0.060016353 0.18354765 -0.10144826 -0.015689472 -1.2414e-41 0.1337275 -0.0086186
0.23712774 -0.08885804 -5.716e-42 -0.116114825 -1.1834e-41 -1.0284e-41 0.080002315 -0.002858752

linear4.weight f4 [64, 96]
00000000: 130a 0080 6c08 0000 7211 0080 5f01 0080
00000010: af0b 0080 2401 0080 2c0b 0080 fc22 0080
00000020: 751e 0000 a71f 0000 161e 0080 1e1b 0080
00000030: 9516 0080 9420 0080 dc0f 0000 521f 0000
00000040: de17 0080 9f0e 0080 d115 0080 ac23 0000
00000050: d600 0080 0c07 0080 ed1c 0080 1b07 0080
00000060: 1d03 0080 fc1e 0080 c716 0080 0d02 0080
00000070: b014 0080 b01c 0080 d316 0080 6617 0000
00000080: 3614 0080 5c09 0000 3825 0080 f20a 0000
00000090: 9a24 0080 3a07 0080 1417 0080 ec1f 0080
000000a0: 1213 0000 871d 0000 0325 0080 331d 0000
000000b0: 1602 0080 961f 0080 3400 0000 d11b 0080
000000c0: e31c 0080 cc1a 0080 8b0a 0080 151c 0080
000000d0: 7010 0080 081f 0080 4a0d 0080 211e 0080
000000e0: 6f0d 0080 e70d 0080 8925 0080 0313 0080
000000f0: 7b17 0080 fd0f 0080 4716 0000 5125 0000
00000100: e11e 0000 be06 0000 ce1a 0080 6517 0080
00000110: f61d 0080 6c05 0080 8e0b 0080 271e 0000
00000120: 891e 0000 b40c 0000 4c0d 0080 250b 0080
00000130: e408 0080 cc19 0000 a012 0080 eb0e 0000
00000140: d40a 0080 8f1b 0000 f024 0080 9123 0000
00000150: b31b 0080 981c 0080 3401 0080 1806 0080
00000160: bc1e 0080 a620 0080 be11 0080 ca0d 0080
00000170: 4718 0000 dc18 0080 ee18 0080 340f 0000
00000180: d408 0080 001c 0080 fd23 0080 fa22 0080
00000190: 401d 0080 de08 0080 4309 0080 da11 0080
000001a0: 4b1e 0080 0818 0000 0721 0080 bd1e 0000
000001b0: fd1a 0000 8910 0080 e01e 0080 0819 0080
000001c0: 3723 0080 6b1c 0000 3626 0080 c311 0080
000001d0: ee0a 0000 4920 0000 4f13 0080 4e22 0000
000001e0: a61f 0080 190f 0000 5416 0080 2226 0080
000001f0: 8d09 0080 ac09 0000 e106 0080 9b1e 0000
00000200: 4e1a 0080 870f 0080 5e1c 0080 f80e 0080
00000210: cc13 0080 0b20 0080 6812 0080 2226 0080
00000220: 3817 0000 c105 0000 be14 0080 b11e 0000
00000230: 8814 0080 4b1d 0080 1722 0080 f907 0080
00000240: 1b1e 0080 a60f 0080 0e10 0080 7310 0080
00000250: ea0b 0000 5a19 0000 3923 0080 930a 0080
00000260: 9012 0000 9b23 0080 bc12 0080 8513 0080
00000270: 6724 0000 ea1e 0080 ae20 0080 d60a 0080
00000280: 651d 0080 f812 0080 ad12 0000 b80f 0080
00000290: 770f 0080 8a23 0080 b917 0000 141b 0000
000002a0: 5209 0000 1521 0080 ad25 0080 af0e 0000
000002b0: 9d0d 0000 1b18 0080 d920 0080 0f0c 0080
000002c0: 5e10 0080 0611 0000 611e 0080 e80f 0080
000002d0: a517 0000 9525 0080 7b26 0080 c71b 0000
000002e0: e31f 0000 1422 0080 7b08 0000 5e16 0080
000002f0: f81d 0000 3619 0000 8e23 0080 d716 0080
00000300: 6075 b028 7693 1b3e 10e9 3637 ef7f 1a3d
00000310: c9cc 133e 5e17 5cbd 15c2 00be e360 1b3d
00000320: 62df 3aba f17d 5e3e f91d 0000 0e1f 0080
00000330: 5d0b 0000 9015 143e 1172 4d3a 961e 0080
00000340: dc18 6abc 7009 4939 0cf5 333e dfc9 863a
00000350: ea42 aeb6 d90d 0080 9295 4a3e 7026 213b
00000360: 477d 843e 1d97 7fbb de06 0080 02cd fbba
00000370: 7e0d 0080 c70e 0000 e3c6 3c3e 3c7d 0fbc
00000380: d000 52b3 a7cb 11bc 2f45 9fb7 b5c4 133d
00000390: 87dc 823e 54bd 243d bd5a 52bd f8b1 983c
000003a0: d655 023d 64b8 453e 481f 0000 861c 0000
000003b0: 4409 0000 f0f6 113e e87a 23bc ac22 0000
000003c0: c805 b4bc 6000 0bbd 03f3 5b3e 9e3c 913d
000003d0: d07f eeba bf09 0080 8d16 09bd 9317 673b
000003e0: e539 993d f730 08bc 4925 0000 c4b1 003d
000003f0: ad1d 0000 7c11 0000 4dd5 14be 5dc5 99bc
-3.614e-42 3.021e-42 -6.258e-42 -4.92e-43 -4.191e-42 -4.09e-43 -4.008e-42 -1.255e-41
1.0926e-41 1.1355e-41 -1.0793e-41 -9.728e-42 -8.101e-42 -1.1687e-41 5.689e-42 1.1236e-41
-8.562e-42 -5.245e-42 -7.826e-42 1.2797e-41 -3e-43 -2.528e-42 -1.0377e-41 -2.549e-42
-1.117e-42 -1.1115e-41 -8.171e-42 -7.36e-43 -7.421e-42 -1.0291e-41 -8.188e-42 8.394e-42
-7.25e-42 3.358e-42 -1.3352e-41 3.926e-42 -1.313e-41 -2.592e-42 -8.279e-42 -1.1451e-41
6.841e-42 1.0592e-41 -1.3277e-41 1.0475e-41 -7.48e-43 -1.1331e-41 7.3e-44 -9.979e-42
-1.0363e-41 -9.613e-42 -3.782e-42 -1.0074e-41 -5.897e-42 -1.1132e-41 -4.767e-42 -1.0808e-41
-4.819e-42 -4.987e-42 -1.3465e-41 -6.82e-42 -8.423e-42 -5.736e-42 7.992e-42 1.3387e-41
1.1077e-41 2.419e-42 -9.616e-42 -8.392e-42 -1.0748e-41 -1.945e-42 -4.145e-42 1.0817e-41
1.0954e-41 4.557e-42 -4.77e-42 -3.998e-42 -3.19e-42 9.254e-42 -6.681e-42 5.352e-42
-3.884e-42 9.886e-42 -1.325e-41 1.2759e-41 -9.937e-42 -1.0258e-41 -4.32e-43 -2.186e-42
-1.1025e-41 -1.1712e-41 -6.365e-42 -4.947e-42 8.709e-42 -8.918e-42 -8.943e-42 5.454e-42
-3.167e-42 -1.0045e-41 -1.291e-41 -1.2547e-41 -1.0493e-41 -3.181e-42 -3.322e-42 -6.404e-42
-1.0867e-41 8.621e-42 -1.1848e-41 1.1027e-41 9.682e-42 -5.932e-42 -1.1076e-41 -8.98e-42
-1.2633e-41 1.0194e-41 -1.3708e-41 -6.372e-42 3.921e-42 1.1582e-41 -6.927e-42 1.2306e-41
-1.1353e-41 5.416e-42 -8.01e-42 -1.368e-41 -3.426e-42 3.47e-42 -2.468e-42 1.0979e-41
-9.436e-42 -5.57e-42 -1.0176e-41 -5.37e-42 -7.102e-42 -1.1495e-41 -6.603e-42 -1.368e-41
8.33e-42 2.064e-42 -7.441e-42 1.101e-41 -7.365e-42 -1.0508e-41 -1.2229e-41 -2.86e-42
-1.08e-41 -5.614e-42 -5.76e-42 -5.901e-42 4.274e-42 9.094e-42 -1.2636e-41 -3.793e-42
6.659e-42 -1.2773e-41 -6.72e-42 -7.002e-42 1.3059e-41 -1.109e-41 -1.1723e-41 -3.887e-42
-1.0545e-41 -6.805e-42 6.7e-42 -5.639e-42 -5.548e-42 -1.2749e-41 8.51e-42 9.714e-42
3.343e-42 -1.1868e-41 -1.3516e-41 5.267e-42 4.884e-42 -8.647e-42 -1.1784e-41 -4.326e-42
-5.871e-42 6.107e-42 -1.0898e-41 -5.706e-42 8.482e-42 -1.3482e-41 -1.3804e-41 9.965e-42
1.1439e-41 -1.2225e-41 3.042e-42 -8.024e-42 1.0751e-41 9.044e-42 -1.2755e-41 -8.193e-42
1.9590829e-14 0.1519297 1.0902309e-05 0.037719663 0.14433588 -0.053733222 -0.12574036 0.037934195
-0.00071286235 0.2172773 1.0752e-41 -1.114e-41 4.076e-42 0.1446135 0.00078371266 -1.0972e-41
-0.0142881535 0.0001917237 0.17573947 0.0010283551 -5.193394e-06 -4.968e-42 0.19783619 0.002458956
0.2587683 -0.0038999983 -2.463e-42 -0.0019210877 -4.84e-42 5.301e-42 0.18435244 -0.008757886
-4.8895174e-08 -0.008898652 -1.8986493e-05 0.036076266 0.25558874 0.04021962 -0.051356066 0.01863955
0.03182014 0.1930862 1.1222e-41 1.0232e-41 3.324e-42 0.14254355 -0.009978034 1.2438e-41
-0.021975413 -0.033935905 0.2147942 0.0709164 -0.001819605 -3.496e-42 -0.03346877 0.0035261854
0.07481746 -0.008312455 1.3375e-41 0.03141953 1.0646e-41 6.272e-42 -0.14534493 -0.018770868

linear4.bias f4 [64]
00000000: 810b 0080 6817 0080 ea12 b83d 37e9 b93d
00000010: 151e 0080 b13a c5bb b93d d9bc 3715 0080
00000020: a012 503d 6c08 8dbd 0f9e a73d e984 2ebd
00000030: f7bb e5ba 5cb5 05bc 3fba f235 567f 013e
00000040: df04 3dbd 0543 b9bb 3b08 0080 0a6d 173e
00000050: 2f5e 453c 3dd6 9abd fa0d 0080 bd4f 383c
00000060: 490b b23a a847 3c3d a026 04bd 32bc b23d
00000070: 179b 07bd e8c7 563e 1a32 9834 347d 87b7
00000080: 6af6 08bd 29c2 33bd 2b1d 793d feb5 0abc
00000090: c002 a7bc 75e5 b6bc 6b0c 1bb8 0aac 5f3d
000000a0: e3d3 5f3c 1eb1 853d 18dd 133e aaec a1bc
000000b0: a650 39bd e044 043e 53e2 f2bb b428 08bc
000000c0: e11e 0080 1603 fd3c b576 093d 5e3b 92bd
000000d0: 655e 6bbc c4e0 163d 0d7e 82bc da67 98bb
000000e0: 0d5a 0bbc 012e 043e d6a2 fa3d 6cc1 f4bc
000000f0: 91ba 01bc 1f9d 8cbb 2ef0 71bd 74b8 b7bb
-4.127e-42 -8.397e-42 0.089879826 0.09077685 -1.0791e-41 -0.0060189595 -0.02651869 -7.61e-42
0.050799012 -0.06886372 0.08184444 -0.04260722 -0.0017527331 -0.008160915 1.808461e-06 0.12646231
-0.046147224 -0.0056537413 -2.953e-42 0.14787689 0.012046381 -0.07560394 -5.014e-42 0.01124948
0.0013583686 0.045966774 -0.0322634 0.08727302 -0.03310689 0.20974696 2.834866e-07 -1.6151556e-05
-0.033438124 -0.043886337 0.060818832 -0.008466242 -0.020387053 -0.02232621 -3.6966445e-05 0.05460743
0.013661358 0.06527923 0.1443981 -0.01976617 -0.045242928 0.12916899 -0.007412234 -0.008310486
-1.1077e-41 0.03088526 0.033560473 -0.0714023 -0.014365767 0.036835447 -0.015929246 -0.004651052
-0.0085053565 0.12908174 0.1223809 -0.029877387 -0.007918016 -0.004291191 -0.059066944 -0.0056067053

linear5.weight f4 [16, 64]
00000000: 0f19 0080 2021 0000 cfb4 37b7 bc1c aa36
00000010: ec03 0080 e062 21b6 c80e 0080 8612 0000
00000020: 3245 ec3a 1ac9 c3b7 d3f1 8037 0271 aa3a
00000030: bd0d 0000 1e6e 09bb f6d5 f43a d190 76ba
00000040: d80b 18b7 b314 0080 e312 0080 3ac4 553b
00000050: 2ad8 1bb8 5e43 1634 2314 0000 3d8c bcba
00000060: 6a44 e13a da2f bd39 9e5b 953a d3de 0fbb
00000070: a1ea 97b7 ec08 6c38 349e acba de08 ab3a
00000080: 9869 953a 48db ff39 720e c139 de95 3b3a
00000090: eb8b 5136 d0a8 2e36 c8e2 8337 ae77 ec36
000000a0: 6ff5 b0b9 8436 bdba a008 2bbb ac25 d6b9
000000b0: d4c9 fd39 b235 0eba fe00 2aba e98c 0534
000000c0: 6610 0000 7e0e 8eba 519d 0c3b 32f4 e0b5
000000d0: f8fb a43a 9ff9 8cbb aacf 2734 6db8 70bb
000000e0: 1892 6a2a c8b4 5237 5330 6dba b7dd 6a3b
000000f0: 1a4b 9c3a ffc2 83bb 6beb 93b2 5c24 af3a
00000100: 1719 0000 c322 0080 096f e4bb 5b0e d7bd
00000110: e20d 0000 f6c2 3cbd c271 9dbc d508 0080
00000120: c5a6 93bd d562 263e 7823 bebd 63da ecba
00000130: f2e0 0fbc c169 913d b10d 86b0 8e6a 0d3d
00000140: a1b5 e2b9 f7c2 a93c 4023 0080 3289 12be
00000150: 75f3 343e 3331 483e 9e19 0080 ecbe ba3d
00000160: f424 723b 608a babd 15d7 c2ba d49f d03c
00000170: 4ede 493d 36a0 3fbe e719 ea32 a41e 0000
00000180: 79a5 683b e26d f13a 45bd 02be a0c5 5eba
00000190: 99cd 183e 2d0b 1cbc d50b 8138 82d6 23bc
000001a0: d0c7 533e d187 d53c b7bd 29be ff17 aebb
000001b0: 25f4 ef3a 133c 8ebd 3230 a23d fae0 173c
000001c0: 911c 0080 824d 333e 50b5 31bd c1e1 b93d
000001d0: 50f1 ac37 df5d d33d df29 d63c c803 f83d
000001e0: 9ad9 1bbd af05 23be b811 c8bd 1e55 91ba
000001f0: 7e72 44bc 8390 d23d 68e5 003e cbea 2fbb
00000200: 8120 0080 6d0b 0080 79c2 83ba af88 8838
00000210: 1618 0080 1318 82b7 e413 2bb6 c216 0080
00000220: 4d7b d2b8 ea1a 71b8 4164 64b8 5cc3 fdb6
00000230: 3115 0080 5421 a5b6 baa8 8a3b e056 27ba
00000240: 0869 4bb8 d208 0080 b126 0080 4f0f 613a
00000250: ee5d f9ba 3cab 3bb9 e715 0080 3641 c7b4
00000260: 2201 d639 7d24 4cb8 5c5f 7ab5 228f eb39
00000270: d691 b9b5 a1a5 deb9 ce25 0080 5a40 bb3a
00000280: 4caa b0b4 00a9 6831 8d47 97b8 00d0 1cb5
00000290: e7a1 9fb8 da76 7fb7 c0a2 e537 ce33 d638
000002a0: 459b 29bb 671e 843b 6b2e 853a 3222 7ab6
000002b0: 18c1 02b4 9693 59b9 4085 7fb2 e29f a6a5
000002c0: 7b13 0000 4dbd f0ba 0401 263b a33e 95b7
000002d0: ec7e 3eb4 c716 c5b9 bd04 0000 e339 0fbb
000002e0: f820 1bb4 4062 9cb9 9206 feb9 94ae 053b
000002f0: d103 03b9 3eb2 cfba af2b 27b4 6acd 2ab7
00000300: dc1d 0000 8523 0080 575a f0bd 2485 bcbd
00000310: 4319 0080 00bc 32be 77ef 2bba f516 0000
00000320: 39f6 28bd 2d75 893e 9887 6abd 9e53 c9bc
00000330: 4314 37bc 81d6 a83d 105d a337 c2eb b13d
00000340: 1b2d 0d3d ff10 013d 2218 0000 8f06 f2bd
00000350: af11 7c3e 83da a53e bd21 0080 f2d7 bf3d
00000360: 1fe3 473c f1b4 ecbd 9abb dbbb 0822 3d3c
00000370: d22f 0f3e b4f6 f9be ea66 a1b1 7b24 0000
00000380: 34e5 c13b ca4f caba 21ff 13be eb36 85bb
00000390: 06dd 743e b1ea b13c 24bc 073a 158f b1ba
000003a0: e341 d93e 03dd 0e3d 68be 13be 3836 ec3c
000003b0: e434 49bb df7a 10be c4b6 aa3d 781a eb3c
000003c0: 7e0b 0000 8bcd 7d3e f8b1 62bd 36db 273e
000003d0: fef8 a339 187f ce3d aa99 813d bfca 8f3e
000003e0: 851c 10be 47b9 f7be 0426 7ebe c908 43bb
000003f0: 793d 21bd e046 803e 3a3e 973e 691c 9fbc
-8.99e-42 1.1883e-41 -1.0949748e-05 5.06974e-06 -1.407e-42 -2.4048422e-06 -5.303e-42 6.645e-42
0.0018025993 -2.3339457e-05 1.5371397e-05 0.001300365 4.928e-42 -0.0020970176 0.0018679488 -0.00094057346
-9.062664e-06 -7.425e-42 -6.775e-42 0.003261818 -3.71562e-05 1.3994347e-07 7.224e-42 -0.0014385056
0.0017186527 0.0003608454 0.0011395102 -0.0021952882 -1.810986e-05 5.6275094e-05 -0.0013169707 0.0013048907
0.0011399267 0.00048800767 0.0003682259 0.0007155816 3.122487e-06 2.6026282e-06 1.572202e-05 7.0472806e-06
-0.00033752198 -0.0014435803 -0.002609767 -0.00040845328 0.00048406294 -0.00054248713 -0.0006485133 1.2437853e-07
5.883e-42 -0.0010838059 0.0021456073 -1.6760371e-06 0.00125873 -0.004302218 1.5628635e-07 -0.003673102
2.0834061e-13 1.2559067e-05 -0.00090480334 0.0035837719 0.0011924237 -0.004021048 -1.7220108e-08 0.0013362276
9e-42 -1.247e-41 -0.0069712442 -0.10500785 4.98e-42 -0.046084367 -0.019219283 -3.168e-42
-0.07209543 0.16248639 -0.09284109 -0.0018070455 -0.0087816585 0.07100249 -9.753675e-10 0.034525447
-0.00043241403 0.02072285 -1.2645e-41 -0.14310148 0.17670996 0.19550018 -9.19e-42 0.09118447
0.0036948295 -0.09108424 -0.0014865125 0.025466837 0.049284272 -0.1871346 2.7252964e-08 1.0992e-41
0.003549902 0.0018419588 -0.12767513 -0.00084980763 0.1492218 -0.009524149 6.153403e-05 -0.009999873
0.20681691 0.026065739 -0.16576277 -0.005312919 0.0018307014 -0.06945052 0.07919349 0.009269947
-1.0248e-41 0.17510036 -0.043385804 0.09076262 2.0616368e-05 0.10320639 0.026143013 0.12110096
-0.038049318 -0.15920137 -0.097690046 -0.0011087989 -0.011990188 0.1028147 0.12587512 -0.0026842828
-1.166e-41 -4.099e-42 -0.0010052464 6.510445e-05 -8.64e-42 -1.5508418e-05 -2.5492564e-06 -8.164e-42
-0.00010036547 -5.7483943e-05 -5.4452805e-05 -7.5627304e-06 -7.602e-42 -4.921263e-06 0.0042315396 -0.000638349
-4.849679e-05 -3.164e-42 -1.388e-41 0.000858535 -0.0019025186 -0.000178975 -7.857e-42 -3.7114086e-07
0.00040818105 -4.8671372e-05 -9.3271024e-07 0.00044929335 -1.3826018e-06 -0.00042466543 -1.3562e-41 0.0014286146
-3.2906462e-07 3.3856509e-09 -7.2135685e-05 -5.841721e-07 -7.6118675e-05 -1.5226857e-05 2.7374714e-05 0.000102139646
-0.0025879901 0.0040319446 0.0010160928 -3.7272807e-06 -1.217744e-07 -0.00020749713 -1.4873251e-08 -2.890475e-16
6.988e-42 -0.0018366963 0.0025330195 -1.7791352e-05 -1.7741303e-07 -0.00037591739 1.7e-42 -0.0021854572
-1.4447494e-07 -0.0002982784 -0.0004845155 0.0020398246 -0.00012494555 -0.0015845967 -1.5568979e-07 -1.0180616e-05
1.0712e-41 -1.2742e-41 -0.11735981 -0.09205082 -9.062e-42 -0.17454529 -0.00065588154 8.235e-42
-0.04125044 0.2684721 -0.05725822 -0.024576005 -0.011174264 0.082440384 1.947445e-05 0.08687545
0.034466844 0.03151035 8.657e-42 -0.11817657 0.24616121 0.32393274 -1.2103e-41 0.0936736
0.012200146 -0.11557949 -0.0067057135 0.011543758 0.13983086 -0.48821032 -4.6974167e-09 1.3087e-41
0.0059172157 -0.0015435156 -0.14452793 -0.0040653846 0.23912439 0.021718355 0.00051778764 -0.001354667
0.4243308 0.034878742 -0.14428103 0.028834447 -0.0030701691 -0.14109372 0.08335641 0.028699145
4.123e-42 0.2478544 -0.055345505 0.16392216 0.00031275296 0.10082835 0.06328137 0.2808437
-0.1407338 -0.48383543 -0.2481919 -0.0029759875 -0.039365266 0.25054073 0.29539663 -0.019422727

linear5.bias f4 [16]
00000000: e670 1e37 04f0 d4bc 308f dbb7 5bf4 183d
00000010: db21 0080 2fb1 903d fade e03d 6558 103e
00000020: d99e b2bd ba4b cebb 709d 193e 5e08 0080
00000030: f54f 943d 56ea 863c 731e 0000 b77f 003e
9.44382e-06 -0.025993355 -2.6173511e-05 0.03734241 -1.2145e-41 0.07065045 0.109800294 0.1409622
-0.08721704 -0.0062956484 0.15001464 -3.002e-42 0.07241813 0.016469162 1.0923e-41 0.1254872

linear6.weight f4 [4, 16]
00000000: 65e5 86ba bdd7 3abe 45b9 fd3c ff3e 67be
00000010: e023 0000 2ca6 603d 9129 773e aa1d 743e
00000020: d004 a1bd b448 5dbe e009 ae3e 2623 0000
00000030: 6f31 1d3f 90e1 523e f71e 0000 116d 8f3e
00000040: c0a7 54b6 b40e 8c3c 4ab5 5b3a f807 e83d
00000050: d126 0000 a2aa d13d fd88 17bf 31da 1dbd
00000060: b1d6 063e af0a 453f 185e f6b8 7d08 0000
00000070: b2d2 a0be 0eef 143e 711c 0080 1ccc 473f
00000080: 3c29 1eba f683 a33a 6b99 2335 fc09 bd3b
00000090: 391f 0080 8a64 063e a39b 9dbd 9878 dabe
000000a0: b8c2 17be 261c 2d3d 58f6 bbbe b90b 0000
000000b0: a7e7 1b3f daee 7e3f 461e 0080 3539 07be
000000c0: a504 80b7 51a2 b73e 913a 04bc 5b9d 223f
000000d0: 860c 0000 0419 acbd 48b3 0e3e cc20 c83e
000000e0: 20aa 993e 9398 f7bc 57df e73e 030e 0080
000000f0: 33f3 bfbe 4686 28bf 6f1d 0080 5e79 c9be
-0.0010291754 -0.1824636 0.030972132 -0.22582625 1.287e-41 0.054845974 0.2413695 0.23839441
-0.07862246 -0.21609765 0.3399191 1.2609e-41 0.61403555 0.20593858 1.1108e-41 0.280129
-3.1688105e-06 0.017096855 0.0008381201 0.11329645 1.3925e-41 0.10237624 -0.591934 -0.03853816
0.13167836 0.76969427 -0.000117477204 3.045e-42 -0.31410748 0.14544317 -1.0203e-41 0.7804582
-0.0006033366 0.001247524 6.0945484e-07 0.0057690125 -1.12e-41 0.1312429 -0.07695701 -0.4267013
-0.14820373 0.042263173 -0.36711383 4.205e-42 0.6090035 0.9958321 -1.086e-41 -0.13205417
-1.5260952e-05 0.35866025 -0.008070604 0.63521355 4.493e-42 -0.08403209 0.13935578 0.39087522
0.30012608 -0.03022412 0.45287582 -5.026e-42 -0.37490234 -0.65829885 -1.0559e-41 -0.39350408

linear6.bias f4 [4]
00000000: 8e9a 0c3f bfc3 67bc b151 7bbe ad18 803d
0.5492333 -0.014145791 -0.24542882 0.062547065
