checkpoints/dnn_20%.pt (torch, 257857 bytes, 12 tensors)

linear1.weight f4 [128, 358]
3.2937623e-05 -3.0135918e-05 0.0027243725 0.0017524832 -0.0034402343 -0.003158819 -0.018090578 -0.017626546
-0.017582376 -0.002577134 -0.0062264837 -0.0035970167 8.9726105e-05 6.229976e-05 -6.9345304e-05 0.00077416265
-0.0033769105 0.00010787277 0.0012447927 -0.0010457434 -0.00032177882 0.0046896315 0.0005018423 0.00016892409
-0.0066393097 0.00016314788 -0.0029872567 -0.0016322779 0.0044771945 0.034354273 -0.0067303726 -0.008873192
-0.0028308828 -0.0012186925 0.000337473 -0.009222863 -0.05095581 0.0078458795 -0.0053527527 0.004261686
-0.010663542 0.0006174428 0.00016647884 0.0027112104 -0.0009260616 0.000120719895 2.402588e-05 0.021129917
-0.00012017229 -0.00023278937 0.046169423 0.04241377 0.0021528665 0.022369493 0.0027464344 0.0027214715
0.002871113 0.0029788725 0.018799622 0.0049631824 0.01638534 0.00036831226 8.1874045e-05 -6.0477876e-05
-0.00024639966 0.0031146114 0.0030968373 0.0005386128 0.0001703606 -0.0050853654 -0.0049931346 -0.001025611
-0.00055574864 0.0017758074 -1.412782e-05 -1.6507365e-05 4.9621303e-06 7.71181e-05 -6.03096e-05 -0.0003731379
-0.006040944 -0.0008624864 -0.010697449 9.332718e-05 6.439003e-05 9.823587e-05 9.922649e-05 2.9897883e-05
5.1498675e-05 0.0009318305 -0.0001063728 -0.0003643239 -0.0025737048 -0.05759533 -0.002937775 0.029259214
0.030340414 0.0015611034 0.0015360847 -0.00018143516 -0.00023983777 -0.013143059 0.0001689806 0.0343326
0.0036943262 0.0028724875 0.050446134 -0.0027764428 -0.01749505 0.008915755 -0.0151483435 0.00983796
-0.00021983476 0.0008502939 -0.0015930994 -0.004881218 0.00047916235 0.0040140194 -0.029611733 0.0015182496
-0.02569719 0.00051918783 -0.0069585475 -0.009809695 -0.0076266984 -0.029041843 0.0016484974 0.001001957
0.01912028 0.0056498456 -0.004679417 0.00046443546 -0.0019094227 -0.0025026377 7.089646e-05 0.002386822
0.0054489537 -1.5415322e-05 -4.6748723e-05 -7.3039635e-05 -0.008637976 -0.00048104033 -7.509187e-05 -0.007587467
-0.006418926 -0.0046282136 -0.0016302472 0.0013529211 0.0022218032 0.0013418598 -0.0018441724 0.0018148494
0.013983738 -0.0021094633 0.018138716 -0.0019309138 -0.0034883227 -0.016671887 -0.04698225 -0.003279312
-0.012064907 0.0037778465 -0.0031362923 -8.825235e-05 -1.6960968e-05 -4.631032e-05 -0.00010873102 -0.00017591263
-1.8769457e-06 8.6466883e-07 -0.00046987965 -2.0061766e-06 -0.0002569606 -0.0001220786 0.00019265588 -0.002532048
1.9442084e-06 -0.0026572812 0.0027487457 -0.0047613233 -0.0014503825 -7.602803e-05 -6.0333823e-06 -0.00036985206
0.0033980096 -0.0041081146 -7.5754326e-07 -0.00013803027 -0.00017415828 -0.0952735 0.017659565 -0.0019917744
-2.551803e-08 -0.0035910697 8.56726e-06 -0.09167995 6.598617e-08 -0.00010507668 -0.000701041 1.3143001e-07
-1.6134021e-07 -1.8964005e-05 3.728635e-05 0.0035845602 5.495667e-08 -0.00085497776 -0.0036483551 -1.7132003e-06
0.0015240825 -0.000998857 -0.0010728379 -0.0017910845 -5.3946915e-06 -0.004126441 -0.020415913 0.06757343
-0.00015024106 1.2686323e-05 7.4806776e-06 -4.6434748e-06 0.0005904956 0.029272826 -1.0379748e-06 0.0010504536
0.0014372781 -0.03145623 -1.01145496e-07 0.004174683 0.024357906 -0.026651809 0.027998509 -2.6074164e-07
-0.0005678348 -2.8814047e-06 0.00028493744 0.000777367 0.004072084 -4.2143478e-07 0.0021205584 0.0031868508
2.0792717e-05 -1.7008628e-05 -4.0142827e-06 -1.0813105e-05 -1.06327825e-05 -5.1905306e-05 -1.30964345e-05 -1.6489303e-05
1.4260144e-05 5.3607637e-06 -4.2942796e-05 -1.4420471e-05 -2.9391053e-05 8.712187e-06 2.075377e-06 -1.2196376e-05
00000000: 8126 0a38 64cc fcb7 638b 323b 94b3 e53a
00000010: 8e75 61bb 3004 4fbb b132 94bc 8c65 90bc
00000020: ea08 90bc 22e5 28bb 8807 ccbb edbb 6bbb
00000030: 562b bc38 eea6 8238 7a6d 91b8 2df1 4a3a
00000040: 284f 5dbb c139 e238 5028 a33a 5311 89ba
00000050: 6cb4 a8b9 7bab 993b 118e 033a 3721 3139
00000060: 918e d9bb ad12 2b39 dac5 43bb 28f2 d5ba
00000070: 6eb5 923b 11b7 0c3d 758a dcbb dd60 11bc
00000080: 5586 39bb 89bc 9fba dcee b039 7e1b 17bc
00000090: 0ab7 50bd 018c 003c 2566 afbb 9da5 8b3b
000000a0: 23b6 2ebc e3db 213a d390 2e39 90ae 313b
000000b0: f1c2 72ba 002b fd38 2f8b c937 a618 ad3c
000000c0: 0205 fcb8 ec18 74b9 261c 3d3d 10ba 2d3d
000000d0: 1b17 0d3b 3a40 b73c 86fd 333b b75a 323b
000000e0: 4829 3c3b 3039 433b aa01 9a3c 31a2 a23b
000000f0: 8c3a 863c 091a c139 cbb3 ab38 a0a9 7db8
00000100: 342f 81b9 821e 4c3b 4ff4 4a3b b131 0d3a
00000110: d3a2 3239 23a3 a6bb 739d a3bb cb6d 86ba
00000120: a9af 11ba 35c2 e83a 8606 6db7 4c79 8ab7
00000130: 6080 a636 77ba a138 f1f4 7cb8 b9a1 c3b9
00000140: 1cf3 c5bb 7c18 62ba 5a44 2fbc a6b8 c338
00000150: 2209 8738 fb03 ce38 d117 d038 37cd fa37
00000160: 4800 5838 1646 743a 7614 dfb8 ba02 bfb9
00000170: 9aab 28bb 15e9 6bbd b087 40bb 05b1 ef3c
00000180: 768c f83c f09d cc3a 7356 c93a a13f 3eb9
00000190: f67c 7bb9 fc55 57bc 6230 3139 57a0 0c3d
000001a0: 821c 723b 5840 3c3b 9ba0 4e3d fbf4 35bb
000001b0: c751 8fbc 6313 123c c230 78bc 652f 213c
000001c0: 7283 66b9 42e6 5e3a 8ccf d0ba a0f2 9fbb
000001d0: 1538 fb39 0988 833b 4e94 f2bc 0100 c73a
000001e0: ea82 d2bc 1b1a 083a 8704 e4bb d8b8 20bc
000001f0: 62e9 f9bb 29e9 edbc 6512 d83a 1954 833a
00000200: 22a2 9c3c 5722 b93b cb55 99bb 797f f339
00000210: 9845 faba 4b03 24bb 3fae 9438 3a6c 1c3b
00000220: 238d b23b 2750 81b7 0f14 44b8 db2c 99b8
00000230: 4c86 0dbc 2434 fcb9 a47a 9db8 49a0 f8bb
00000240: db55 d2bb 45a8 97bb 05ae d5ba 8054 b13a
00000250: ac9b 113b 58e1 af3a 28b8 f1ba 3ee0 ed3a
00000260: 0c1c 653c ec3e 0abb a597 943c b716 fdba
00000270: 589c 64bb 7b93 88bc 7670 40bd bae9 56bb
00000280: e3ab 45bc bf95 773b 418a 4dbb 1f14 b9b8
00000290: 6747 8eb7 543d 42b8 8606 e4b8 3075 38b9
000002a0: 5deb fbb5 971b 6835 2e5a f6b9 daa1 06b6
000002b0: abb8 86b9 3a02 00b9 ab03 4a39 b7f0 25bb
000002c0: 3f79 0236 c825 2ebb 4d24 343b e004 9cbb
000002d0: c31a beba 3d71 9fb8 5c72 cab6 b4e8 c1b9
000002e0: 24b1 5e3b 5d9d 86bb fa59 4bb5 38bc 10b9
000002f0: 429e 36b9 c11e c3bd cbaa 903c 6e88 02bb
00000300: be32 dbb2 2758 6bbb 1abc 0f37 b3c2 bbbd
00000310: 48b4 8d33 9d5c dcb8 11c6 37ba 351f 0d34
00000320: dc3c 2db4 e414 9fb7 ea63 1c38 f1ea 6a3b
00000330: 7f09 6c33 9620 60ba 3e19 6fbb 1df1 e5b5
00000340: b9c3 c73a 14ec 82ba 779e 8cba d3c2 eaba
00000350: 0c04 b5b6 1937 87bb 463f a7bc f063 8a3d
00000360: 078a 1db9 58d7 5437 8802 fb36 25cf 9bb6
00000370: 7dcb 1a3a 91cd ef3c 8b50 8bb5 60af 893a
00000380: 0d63 bc3a 3fd8 00bd 5335 d9b3 c7cb 883b
00000390: 3b8a c73c e554 dabc 215d e53c 0ffc 8bb4
000003a0: c0da 14ba 285e 41b6 a863 9539 37c8 4b3a
000003b0: 1e6f 853b 8e41 e2b4 11f9 0a3b 7cda 503b
000003c0: 056c ae37 c0ad 8eb7 6db2 86b6 ef69 35b7
000003d0: 7463 32b7 e6b4 59b8 c2b8 5bb7 8252 8ab7
000003e0: da3e 6f37 9ce0 b336 7a1d 34b8 74ef 71b7
000003f0: ce8c f6b7 8f2a 1237 b546 0b36 099f 4cb7

linear1.bias f4 [128]
-0.10245704 -0.038588632 -0.065516934 0.009251941 -0.08927948 0.052281156 0.30886316 -0.025824964
0.038932268 -0.07557312 -0.05991294 0.07552445 -0.040924992 0.099534675 0.00047646227 -0.049770042
0.29746604 0.15237771 -0.051696178 -0.10573837 -0.054295987 -0.08477653 -0.0136471465 -0.06089577
0.382625 -0.04558704 0.07021802 -0.030541731 -0.0780495 -0.04482379 0.020751657 -0.08372217
-0.047783144 -0.073193304 -0.04341471 0.049183212 0.07999518 -0.065955065 -0.07885686 -0.061742406
0.02983943 -0.061157625 -0.04520625 0.00682969 0.016359244 3.9123483e-05 0.01902099 0.06716588
-0.10680466 -0.03562879 -0.06216492 -0.04909225 -0.07774983 -0.04131534 -0.039292734 0.028738307
0.025205282 0.04799865 -0.054938607 -0.03635001 -0.07674083 -0.08774207 -0.040777855 -0.050199553
-0.05472617 0.032381695 -0.054657504 0.36703855 -0.0077649094 0.11559672 -0.024252884 -0.009281305
-0.11008428 0.0015806911 0.068595625 0.036458414 -0.06741629 0.041603453 0.25506693 0.030381383
0.01084202 -0.008092939 0.0022308016 0.028210368 -0.016902996 -0.11014658 -0.051902603 0.012278613
-0.11573447 -0.039503995 -0.007986664 0.02713913 0.02908491 -0.111416146 -0.093922086 0.087338485
0.0551016 -0.057047423 -0.07096331 -0.06873093 0.30860445 -0.043856174 -0.0648383 -0.056121744
-0.049587894 -0.038192544 0.06524798 -0.09079435 -0.0051537585 -0.021844707 0.06331832 -0.070240475
-0.051788416 0.016125297 0.012941218 -0.13270858 -0.062269866 -0.0701645 0.012216233 -0.07800792
-0.05270902 -0.06742851 0.03727713 -0.051976025 -0.061024584 0.36785686 -0.07594063 0.0203812
00000000: ffd4 d1bd 1d0f 1ebd be2d 86bd 7495 173c
00000010: 29d8 b6bd c424 563d 5023 9e3e e08e d3bc
00000020: 7177 1f3d 14c6 9abd 4567 75bd 90ac 9a3d
00000030: f7a0 27bd d6d8 cb3d afcd f939 acdb 4bbd
00000040: 784d 983e e708 1c3e 5fbf 53bd 5c8d d8bd
00000050: 7865 5ebd 519f adbd 4898 5fbc d86d 79bd
00000060: 6de7 c33e 7ab9 3abd 77ce 8f3d a732 fabc
00000070: 6bd8 9fbd 2799 37bd 61ff a93c 8776 abbd
00000080: 42b8 43bd 5fe6 95bd 9fd3 31bd 5674 493d
00000090: 83d4 a33d 7313 87bd b57f a1bd 9be5 7cbd
000000a0: d271 f43c 6b80 7abd 302a 39bd 98cb df3b
000000b0: d203 863c 8518 2438 e8d1 9b3c 448e 893d
000000c0: 67bc dabd 7eef 11bd a5a0 7ebd f514 49bd
000000d0: 4e3b 9fbd 463a 29bd 6bf1 20bd 996c eb3c
000000e0: 4f7b ce3c 3c9a 443d 4e07 61bd c0e3 14bd
000000f0: 4c2a 9dbd 1db2 b3bd ae06 27bd 0c9e 4dbd
00000100: 8c28 60bd aba2 043d 8ce0 5fbd 7aec bb3e
00000110: c870 febb f9bd ec3d fcad c6bc 9d10 18bc
00000120: de73 e1bd 312f cf3a dd7b 8c3d 6b55 153d
00000130: 8d11 8abd 6268 2a3d 2298 823e 61e2 f83c
00000140: baa2 313c 3f98 04bc a432 123b 6e19 e73c
00000150: 2778 8abc 8894 e1bd d397 54bd 3c2c 493c
00000160: 3206 edbd f1ce 21bd 7fda 02bc e152 de3c
00000170: 7a43 ee3c 262e e4bd 395a c0bd 85de b23d
00000180: 37b2 613d 8faa 69bd 3655 91bd cdc2 8cbd
00000190: 6701 9e3e 88a2 33bd f1c9 84bd eadf 65bd
000001a0: ad1c 4bbd c96f 1cbd bca0 853d 63f2 b9bd
000001b0: dce0 a8bb acf3 b2bc 09ad 813d 3dda 8fbd
000001c0: 1720 54bd 3319 843c 6707 543c c2e4 07be
000001d0: b00e 7fbd 68b2 8fbd 9826 483c 9ec2 9fbd
000001e0: 6ae5 57bd f517 8abd e7af 183d d0e4 54bd
000001f0: eaf4 79bd bc57 bc3e c386 9bbd 79f6 a63c

linear2.weight f4 [64, 128]
-5.461e-42 1.2425e-41 -1.2386e-41 -5.307e-42 -8.69e-42 -1.3577e-41 -1.0274e-41 -8.031e-42
-2.42e-42 -8.346e-42 -7.844e-42 -1.1185e-41 9.469e-42 -7.556e-42 -6.886e-42 -2.775e-42
-6.882e-42 -4.714e-42 -3.869e-42 -3.781e-42 -1.2955e-41 -1.3036e-41 -9.449e-42 -1.1751e-41
-5.53e-42 7.623e-42 -1.0395e-41 -1.3895e-41 -3.95e-42 -2.955e-42 -8.716e-42 3.423e-42
-6.05e-42 -8.423e-42 -1.3901e-41 -7.497e-42 -7.675e-42 -9.076e-42 6.213e-42 -8.37e-42
-1.1521e-41 -5.9e-42 -7.714e-42 -5.287e-42 -3.512e-42 -1.0591e-41 -1.2053e-41 -9.082e-42
-9.045e-42 -5.849e-42 -3.042e-42 -1.1968e-41 2.653e-42 -4.736e-42 -7.69e-42 -3.345e-42
-1.3071e-41 -9.817e-42 -7.801e-42 -3.436e-42 -1.1372e-41 -3.499e-42 -1.2239e-41 -3.037e-42
-6.156e-42 -6.136e-42 -2.765e-42 -7.168e-42 -4.35e-42 -2.78e-42 -1.0507e-41 -4.331e-42
-8.506e-42 -9.995e-42 -9.969e-42 -4.392e-42 -4.179e-42 -5.387e-42 -1.2424e-41 -7.493e-42
-1.2664e-41 1.212e-41 -1.352e-41 -7.908e-42 -9.216e-42 -8.715e-42 -5.363e-42 -4.271e-42
-1.367e-41 -8.04e-42 -1.3618e-41 -1.1436e-41 -1.3499e-41 -7.973e-42 -5.785e-42 -1.142e-41
-9.763e-42 -4.411e-42 -4.135e-42 -2.724e-42 -5.888e-42 1.3873e-41 1.0754e-41 -9.651e-42
-7.581e-42 -4.368e-42 -7.77e-42 -5.51e-42 -1.0386e-41 -7.973e-42 -1.1206e-41 -1.3534e-41
-5e-42 -8.376e-42 -3.842e-42 -1.1463e-41 -8.933e-42 -5.394e-42 -4.745e-42 -9.74e-42
-1.162e-41 -7.113e-42 -4.343e-42 -6.379e-42 -1.3364e-41 9.422e-42 7.744e-42 -1.2033e-41
-1.1959e-41 -3.405e-42 -9.742e-42 -4.685e-42 -1.0221e-41 -1.3078e-41 -1.1561e-41 6.883e-42
-5.235e-42 9.29e-42 -4.743e-42 -1.3531e-41 7.801e-42 -1.2465e-41 -7.78e-42 -1.187e-41
-8.765e-42 -7.75e-43 -7.002e-42 -4.955e-42 -5.238e-42 -5.72e-42 -3.38e-42 7.503e-42
-4.536e-42 3.412e-42 -3.446e-42 8.056e-42 -1.1642e-41 -9.596e-42 -1.0657e-41 -6.644e-42
-1.1845e-41 -7.689e-42 -4.16e-42 -8.932e-42 9.633e-42 -3.531e-42 -9.576e-42 -1.3497e-41
2.717e-42 7.64e-42 -8.439e-42 -4.467e-42 6.424e-42 -8.827e-42 -2.867e-42 -1.3415e-41
-3.715e-42 -6.978e-42 -9.834e-42 -1.3265e-41 -1.1723e-41 2.625e-42 9.284e-42 -2.496e-42
-6.519e-42 -3.68e-42 3.212e-42 1.1132e-41 2.577e-42 6.338e-42 -7.07e-42 -8.928e-42
-8.703e-42 8.24e-42 -1.3267e-41 -1.2211e-41 6.216e-42 -3.534e-42 -8.244e-42 1.1709e-41
-8.4e-42 1.2368e-41 -7.566e-42 -9.195e-42 -1.327e-41 1.096e-41 -8.668e-42 -3.353e-42
-4.2e-42 5.02e-42 -9.686e-42 -6.886e-42 -1.2819e-41 -3.484e-42 -5.61e-42 5.28e-42
8.563e-42 1.0633e-41 1.1076e-41 -5.646e-42 -1.3357e-41 -2.539e-42 -4.062e-42 -9.596e-42
-7.62e-42 4.37e-42 -5.696e-42 -6.446e-42 -1.065e-41 -7.986e-42 3.542e-42 -7.259e-42
3.893e-42 4.607e-42 8.338e-42 -3.381e-42 -1.2093e-41 -1.3311e-41 -2.747e-42 -8.496e-42
-5.094e-42 -1.2647e-41 8.406e-42 -3.991e-42 -4.48e-42 7.916e-42 -1.1963e-41 1.1659e-41
-1.3102e-41 -1.1073e-41 6.066e-42 6.194e-42 -1.3304e-41 7.105e-42 -6.973e-42 -6.872e-42
00000000: 390f 0080 a322 0000 8722 0080 cb0e 0080
00000010: 3918 0080 d925 0080 a41c 0080 6316 0080
00000020: bf06 0080 4417 0080 de15 0080 2e1f 0080
00000030: 651a 0000 1015 0080 3213 0080 bc07 0080
00000040: 2f13 0080 240d 0080 c90a 0080 8a0a 0080
00000050: 1d24 0080 5724 0080 571a 0080 c220 0080
00000060: 6a0f 0080 4015 0000 fa1c 0080 bc26 0080
00000070: 030b 0080 3d08 0080 4c18 0080 8b09 0000
00000080: dd10 0080 7b17 0080 c026 0080 e614 0080
00000090: 6515 0080 4d19 0080 5211 0000 5517 0080
000000a0: 1e20 0080 7210 0080 8115 0080 bd0e 0080
000000b0: ca09 0080 861d 0080 9921 0080 5119 0080
000000c0: 3719 0080 4e10 0080 7b08 0080 5d21 0080
000000d0: 6507 0000 340d 0080 7015 0080 5309 0080
000000e0: 7024 0080 5e1b 0080 bf15 0080 9409 0080
000000f0: b31f 0080 c109 0080 1e22 0080 7708 0080
00000100: 2911 0080 1b11 0080 b507 0080 fb13 0080
00000110: 200c 0080 c007 0080 4a1d 0080 130c 0080
00000120: b617 0080 dd1b 0080 ca1b 0080 3e0c 0080
00000130: a60b 0080 040f 0080 a222 0080 e314 0080
00000140: 4d23 0080 c921 0000 b025 0080 0b16 0080
00000150: b119 0080 4b18 0080 f30e 0080 e80b 0080
00000160: 1b26 0080 6a16 0080 f625 0080 e11f 0080
00000170: a125 0080 3a16 0080 2010 0080 d61f 0080
00000180: 371b 0080 4c0c 0080 870b 0080 9807 0080
00000190: 6a10 0080 ac26 0000 fa1d 0000 e71a 0080
000001a0: 2215 0080 2d0c 0080 a915 0080 5c0f 0080
000001b0: f41c 0080 3a16 0080 3d1f 0080 ba25 0080
000001c0: f00d 0080 5917 0080 b60a 0080 f41f 0080
000001d0: e718 0080 090f 0080 3a0d 0080 271b 0080
000001e0: 6420 0080 d413 0080 1b0c 0080 c811 0080
000001f0: 4125 0080 441a 0000 9615 0000 8b21 0080
00000200: 5621 0080 7e09 0080 281b 0080 0f0d 0080
00000210: 7e1c 0080 7524 0080 3a20 0080 3013 0000
00000220: 980e 0080 e619 0000 390d 0080 b825 0080
00000230: bf15 0000 bf22 0080 b015 0080 1721 0080
00000240: 6f18 0080 2902 0080 8513 0080 d00d 0080
00000250: 9a0e 0080 f20f 0080 6c09 0080 ea14 0000
00000260: a50c 0080 8309 0000 9b09 0080 7516 0000
00000270: 7420 0080 c01a 0080 b51d 0080 8512 0080
00000280: 0521 0080 6f15 0080 990b 0080 e618 0080
00000290: da1a 0000 d809 0080 b21a 0080 a025 0080
000002a0: 9307 0000 4c15 0000 8617 0080 740c 0080
000002b0: e811 0000 9b18 0080 fe07 0080 6525 0080
000002c0: 5b0a 0080 7413 0080 6a1b 0080 fa24 0080
000002d0: ae20 0080 5107 0000 e119 0000 f506 0080
000002e0: 2c12 0080 420a 0080 f408 0000 081f 0000
000002f0: 2f07 0000 ab11 0000 b513 0080 e318 0080
00000300: 4318 0080 f816 0000 fc24 0080 0a22 0080
00000310: 5411 0000 da09 0080 fb16 0080 a420 0000
00000320: 6a17 0080 7a22 0000 1715 0080 a219 0080
00000330: fe24 0080 8d1e 0000 2a18 0080 5909 0080
00000340: b50b 0080 fe0d 0000 001b 0080 3213 0080
00000350: bc23 0080 b609 0080 a30f 0080 b80e 0000
00000360: df17 0000 a41d 0000 e01e 0000 bd0f 0080
00000370: 3c25 0080 1407 0080 530b 0080 c01a 0080
00000380: 3e15 0080 2f0c 0000 e10f 0080 f811 0080
00000390: b01d 0080 4316 0080 e009 0000 3c14 0080
000003a0: da0a 0000 d80c 0000 3e17 0000 6d09 0080
000003b0: b621 0080 1b25 0080 a807 0080 af17 0080
000003c0: 330e 0080 4123 0080 6f17 0000 200b 0080
000003d0: 7d0c 0080 1116 0000 5921 0080 8020 0000
000003e0: 8624 0080 de1e 0080 e910 0000 4411 0000
000003f0: 1625 0080 ce13 0000 7013 0080 2813 0080

linear2.bias f4 [64]
-2.854e-42 -1.162e-41 -1.3651e-41 -0.014313811 0.0011104222 -6.98e-42 0.1288951 0.027192725
-1.072e-41 0.12596959 -1.0225e-41 0.104106724 -1.2476e-41 -8.563e-42 0.074416704 -5.38e-42
5.5263875e-08 -7.865e-42 -1.2739e-41 0.0664495 -5.632e-42 -7.679e-42 0.06645066 -1.1987e-41
0.013865183 0.11119579 -9.2e-42 -8.184e-42 -6.834e-42 -1.365e-41 -1.0695e-41 -3.471e-42
-8.015e-42 0.13297689 -1.2841e-41 -1.3143e-41 -1.1868e-41 -9.518e-42 0.041924983 -1.24e-41
-6.735e-42 -3.185e-42 -1.1685e-41 -3.457e-42 -6.056e-42 0.11901335 -2.895e-42 -6.873e-42
0.12822948 -3.266e-42 -1.0255e-41 -9.754e-42 -7.413e-42 -1.2166e-41 -9.619e-42 -5.89e-42
-8.468e-42 0.09854936 -6.726e-42 -5.682e-42 -1.1635e-41 -8.901e-42 -1.2874e-41 -7.856e-42
00000000: f507 0080 6420 0080 0e26 0080 7a84 6abc
00000010: 968b 913a 7513 0080 14fd 033e 47c3 de3c
00000020: e21d 0080 2cfe 003e 811c 0080 e835 d53d
00000030: c722 0080 df17 0080 c967 983d ff0e 0080
00000040: 465b 6d33 ed15 0080 8323 0080 ad16 883d
00000050: b30f 0080 6815 0080 4917 883d 6a21 0080
00000060: cb2a 633c 9eba e33d a519 0080 d016 0080
00000070: 0d13 0080 0d26 0080 d01d 0080 ad09 0080
00000080: 5816 0080 182b 083e cc23 0080 a324 0080
00000090: 1521 0080 881a 0080 88b9 2b3d 9122 0080
000000a0: c612 0080 e108 0080 9320 0080 a309 0080
000000b0: e210 0080 45bd f33d 1208 0080 2913 0080
000000c0: 974e 033e 1b09 0080 961c 0080 311b 0080
000000d0: aa14 0080 ea21 0080 d01a 0080 6b10 0080
000000e0: 9b17 0080 3fd4 c93d c012 0080 d70f 0080
000000f0: 6f20 0080 d018 0080 e323 0080 e615 0080

linear3.weight f4 [32, 64]
2.522e-42 -1.1279e-41 4.02e-43 0.004451246 -2.2209717e-05 -3.129e-42 0.0701028 -0.04505704
-8.49e-42 0.005199959 -8.998e-42 -0.07615416 -9.222e-42 -1.069e-41 0.074849926 9.268e-42
-4.7001734e-08 7.647e-42 -9.714e-42 -0.04791166 -6.589e-42 -2.025e-42 -0.0025969243 -9.795e-42
-0.13626911 0.0017088993 1.565e-42 -4.01e-42 6.722e-42 5.2e-44 3.474e-42 1.345e-41
4.834e-42 0.010275282 -1.2763e-41 1.023e-41 6.466e-42 7.671e-42 0.09216449 -1.1208e-41
-3.042e-42 3.318e-42 -9.366e-42 1.525e-42 7.645e-42 0.072124906 -9.389e-42 1.132e-42
0.037067413 -9.334e-42 -9.08e-42 -5.998e-42 3.691e-42 3.12e-43 -9.693e-42 -3.802e-42
-7.32e-42 -0.010483203 -1.3269e-41 -5.518e-42 1.296e-41 -3.478e-42 1.2033e-41 -6.673e-42
6.408e-42 6.36e-42 1.1555e-41 -0.0279329 -3.767e-42 1.934e-42 -0.004869353 -0.007779343
-1.0955e-41 -0.026217451 -1.092e-41 -0.009142777 -1.1732e-41 1.2858e-41 -1.181282e-13 9.029e-42
-3.245e-42 -1.1233e-41 8e-42 -0.036833182 -1.0203e-41 -8.366e-42 0.004421883 -1.341e-41
-0.023514159 -0.018085876 -8.107e-42 -2.777e-42 1.182e-41 -1.304e-41 -8.657e-42 -1.0455e-41
-4.505e-42 -0.020563962 2.51e-43 8.863e-42 -1.0527e-41 -3.252e-42 0.000705065 1.1461e-41
1.2348e-41 1.2481e-41 1.2647e-41 -5.6e-42 -3.917e-42 -0.0067248857 -1.984e-42 -6.346e-42
-0.002562937 -1.16e-41 -3.308e-42 -9.652e-42 -1.1669e-41 -1.2685e-41 -1.0986e-41 -3.402e-42
-4.121e-42 -0.008833057 1.3789e-41 3.19e-42 1.0315e-41 -9.256e-42 9.655e-42 -9.902e-42
1.0199e-41 6.64e-42 5.241e-42 0.21478605 -0.021591404 4.89e-43 0.37007317 -0.062419884
6.304e-42 -0.14259441 -1.0885e-41 -0.1047341 9.918e-42 -4.217e-42 -0.0091106435 -4.432e-42
3.0623871e-06 -6.005e-42 -6.588e-42 0.045147542 6.202e-42 -3.412e-42 0.1053281 4.068e-42
0.012186789 -0.10011692 1.0717e-41 -4.407e-42 -7.867e-42 -6.496e-42 9.867e-42 -1.1093e-41
-1.0971e-41 -0.10676635 -1.0183e-41 -6.79e-42 3.636e-42 1.288e-41 0.065042004 9.846e-42
1.2785e-41 4.613e-42 2.047e-42 -1.268e-41 -6.896e-42 -0.018913578 -1.1e-43 1.2707e-41
-0.07309614 3.36e-43 -2.018e-42 6.736e-42 7.126e-42 -2.49e-42 -1.2578e-41 1.3729e-41
-7.238e-42 -0.08026796 -3.805e-42 1.0001e-41 -3.533e-42 4.927e-42 1.0203e-41 4.243e-42
-4.607e-42 1.2818e-41 -2.424e-42 -1.5822731e-07 -0.00018174128 -1.124e-41 -3.220149e-05 -0.00085969205
6.202e-42 -1.0010001e-05 5.567e-42 -3.095714e-06 -2.123e-42 3.767e-42 -1.1193339e-06 1.3922e-41
-0.0023780898 5.328e-42 -8.018e-42 -6.5994886e-06 -2.574e-42 -4.296e-42 -4.153949e-06 1.274e-42
-3.375861e-07 -9.232409e-06 -4.708e-42 1.974e-42 -6.949e-42 -4.896e-42 -1.3602e-41 -6.723e-42
-2.73e-43 -6.2883846e-06 -1.344e-42 -9.722e-42 4.474e-42 -8.331e-42 -8.19605e-06 -5.626e-42
-2.204e-42 -7.336e-42 9.008e-42 4.197e-42 -1.248e-41 -5.1204927e-07 -9.34e-42 -5.936e-42
-5.5332225e-06 8.579e-42 -1.0676e-41 -2.828e-42 -1.115e-42 -4.001e-42 -9.393e-42 -2.707e-42
3.234e-42 -0.00074657245 -1.658e-42 1.3132e-41 2.976e-42 6.454e-42 -8.126e-42 5.143e-42
00000000: 0807 0000 711f 0080 1f01 0000 c2db 913b
00000010: 014f bab7 b908 0080 0f92 8f3d bb8d 38bd
00000020: ab17 0080 6b64 aa3b 1519 0080 b6f6 9bbd
00000030: b519 0080 cd1d 0080 eb4a 993d d619 0000
00000040: f4de 49b3 5115 0000 141b 0080 043f 44bd
00000050: 5e12 0080 a505 0080 2931 2abb 4e1b 0080
00000060: 218a 0bbe 25fd df3a 5d04 0000 2e0b 0080
00000070: bd12 0000 2500 0000 af09 0000 7e25 0000
00000080: 7a0d 0000 a859 283c 9423 0080 841c 0000
00000090: 0612 0000 6215 0000 bcc0 bc3d 3e1f 0080
000000a0: 7b08 0080 4009 0000 1c1a 0080 4004 0000
000000b0: 5015 0000 39b6 933d 2c1a 0080 2803 0000
000000c0: 00d4 173d 051a 0080 5019 0080 b810 0080
000000d0: 4a0a 0000 df00 0000 051b 0080 990a 0080
000000e0: 6814 0080 bec1 2bbc fd24 0080 620f 0080
000000f0: 2124 0000 b209 0080 8b21 0000 9a12 0080
00000100: dd11 0000 bb11 0000 3620 0000 89d3 e4bc
00000110: 800a 0080 6405 0000 188f 9fbb dce9 febb
00000120: 8a1e 0080 fbc5 d6bc 711e 0080 96cb 15bc
00000130: b420 0080 d823 0000 2300 05aa 2b19 0000
00000140: 0c09 0080 501f 0080 4d16 0000 64de 16bd
00000150: 711c 0080 5217 0080 71e5 903b 6225 0080
00000160: c4a0 c0bc d528 94bc 9916 0080 be07 0080
00000170: f320 0000 5a24 0080 2218 0080 251d 0080
00000180: 8f0c 0080 c175 a8bc b300 0000 b518 0000
00000190: 581d 0080 1109 0080 1cd4 383a f31f 0000
000001a0: 6c22 0000 cb22 0000 4123 0000 9c0f 0080
000001b0: eb0a 0080 6e5c dcbb 8805 0080 b111 0080
000001c0: f3f6 27bb 5620 0080 3909 0080 e81a 0080
000001d0: 8720 0080 5c23 0080 a01e 0080 7c09 0080
000001e0: 7d0b 0080 87b8 10bc 7026 0000 e408 0000
000001f0: c11c 0000 cd19 0080 ea1a 0000 9a1b 0080
00000200: 6e1c 0000 8212 0000 9c0e 0000 e0f0 5b3e
00000210: 75e0 b0bc 5d01 0000 3b7a bd3e feab 7fbd
00000220: 9311 0000 4504 12be 581e 0080 d57e d6bd
00000230: a61b 0000 c10b 0080 cf44 15bc 5b0c 0080
00000240: 6983 4d36 bd10 0080 5d12 0080 a1ec 383d
00000250: 4a11 0000 8309 0080 42b6 d73d 570b 0000
00000260: 19ab 473c 1a0a cdbd e01d 0000 490c 0080
00000270: ee15 0080 1c12 0080 811b 0000 ec1e 0080
00000280: 951e 0080 51a8 dabd 631c 0080 ee12 0080
00000290: 230a 0000 e723 0000 be34 853d 721b 0000
000002a0: a423 0000 dc0c 0000 b505 0000 5923 0080
000002b0: 3913 0080 a6f0 9abc 4e00 0080 6c23 0000
000002c0: 6eb3 95bd f000 0000 a005 0080 c712 0000
000002d0: dd13 0000 f106 0080 1023 0080 4526 0000
000002e0: 2d14 0080 8763 a4bd 9b0a 0080 e11b 0000
000002f0: d909 0080 bc0d 0000 711c 0000 d40b 0000
00000300: d80c 0080 bb23 0000 c206 0080 31e5 29b4
00000310: ce91 3eb9 551f 0080 1610 07b8 f55c 61ba
00000320: 4a11 0000 a0f0 27b7 850f 0000 f6bf 4fb6
00000330: eb05 0080 800a 0000 053c 96b5 cf26 0000
00000340: bad9 1bbb da0e 0000 5a16 0080 2d71 ddb6
00000350: 2d07 0080 fa0b 0080 2662 8bb6 8d03 0000
00000360: 7b3d b5b4 e5e4 1ab7 200d 0080 8105 0000
00000370: 5f13 0080 a60d 0080 eb25 0080 be12 0080
00000380: c300 0080 d000 d3b6 bf03 0080 1a1b 0080
00000390: 790c 0000 3917 0080 c481 09b7 af0f 0080
000003a0: 2506 0080 7314 0080 1c19 0000 b30b 0000
000003b0: ca22 0080 c273 09b5 091a 0080 8c10 0080
000003c0: 05aa b9b6 ea17 0000 c31d 0080 e207 0080
000003d0: 1c03 0080 270b 0080 2f1a 0080 8c07 0080
000003e0: 0409 0000 a1b5 43ba 9f04 0080 9b24 0000
000003f0: 4c08 0000 fe11 0000 a716 0080 560e 0000

linear3.bias f4 [32]
0.025371708 -0.02702597 0.0022707363 -2.10326e-05 0.022729848 -0.0002897632 0.17461355 -0.029539322
-1.7066885e-05 0.02619581 -0.075344376 -0.0132988235 -0.06494774 0.040708672 0.0064960853 -0.092827335
3.7771056e-07 -0.00030740144 -0.016741067 -0.033475377 -5.6640824e-06 -8.262574e-05 0.08454143 -2.3170808e-06
-5.053742e-05 0.014071304 -0.07845647 0.085135 0.1319901 -1.1572e-41 -0.02750591 0.045730654
00000000: 54d8 cf3c 9165 ddbc a2d0 143b 2a6f b0b7
00000010: f233 ba3c 5ceb 97b9 e5cd 323e 73fc f1bc
00000020: db2a 8fb7 9898 d63c 274e 9abd 4fe3 59bc
00000030: 5203 85bd 23be 263d 1ddd d43b 421c bebd
00000040: 25c8 ca34 b92a a1b9 9024 89bc 7a1d 09bd
00000050: 190e beb6 5b47 adb8 0f24 ad3d 257f 1bb6
00000060: 24f8 53b8 548b 663c c9ad a0bd 425b ae3d
00000070: 6a28 073e 4220 0080 1354 e1bc 1150 3b3d

linear4.weight f4 [64, 96]
0.012031491 1.1802831e-07 -0.041516725 -2.0611674e-08 0.003051905 -3.332e-42 0.31662196 -0.044097133
4.3241125e-33 -0.00021899906 4.085541e-05 -3.5029793e-06 0.106876306 0.007892211 -0.051878724 -0.028778005
1.6801327e-10 0.0017071989 -0.035419084 4.721e-42 1.2909285e-10 0.0001628478 -0.057140186 0.00024074325
-0.0014214613 -5.7112867e-08 0.027870882 0.27735192 0.28328416 -2.185e-42 0.119286045 -0.015804116
0.0087370025 7.44732e-05 -0.03919249 -6.628185e-08 0.0071981987 -7.042e-42 -0.024353903 -0.021190591
2.6717244e-14 -0.013746033 -0.021602115 -0.0051747346 -0.069439456 -0.013790591 -0.01290926 -0.027083842
-4.1927376e-07 0.00024430174 -0.02389834 3.4936807e-17 1.7188515e-07 0.0024363874 -0.004126635 0.0011146376
-0.00044859824 -0.00013695503 -0.038451705 0.0045472365 -0.051367823 1.0218e-41 0.014640936 -0.035844292
0.022539036 0.0004890211 -0.038333204 -2.7464873e-07 0.0070698424 -1.0372e-41 0.027623689 -0.030835787
-3.4215675e-32 -0.0037420962 0.0043378253 0.00080102147 -0.010916494 -0.0022447235 -0.029568959 -0.013396229
-4.7699876e-07 0.000400632 -0.04420563 6.648368e-14 8.540362e-07 0.0001825196 -0.04632636 1.9955633e-05
-0.00044294895 -0.00013156886 0.018927844 0.023475492 0.030035935 1.0629e-41 0.012272233 -0.07237799
-0.0017944649 -0.0002323647 -0.009381629 -0.0017649522 -7.603e-42 7.166e-42 -0.0014661978 -0.0070561273
-0.0023827655 -0.0025240998 -0.00030074175 -0.0011360829 -0.005132997 -3.765921e-12 -0.0080702575 -0.0054839156
0.0013317707 4.184e-42 -0.007395449 -6.810421e-07 1.3144e-41 0.0017549002 -0.013851791 -0.002567862
-1.128e-41 -0.00032413538 -0.0024897899 -0.00069660833 -0.0013378693 1.204e-42 -9.552785e-12 -0.011067574
0.0017850616 -0.000533706 -0.01717118 0.0018045612 -8.666e-42 1.1594e-41 -2.718471e-05 -0.015731262
0.0017323642 -0.0053003165 -0.003380979 -0.006179498 -0.008578942 -1.8526471e-19 -0.016921708 -0.010190763
-0.0020901884 1.1961e-41 -0.019468637 -4.148577e-07 2.93e-42 0.0018266453 -0.015654957 -0.0019302169
-1.3235e-41 -0.0012532074 -0.008313161 -9.432361e-07 -2.6832552e-06 8.202e-42 9.53e-43 -0.012422337
0.0017946346 -0.00087122095 -0.017685069 -0.0017765907 3.719e-42 1.0455e-41 -3.950601e-05 -0.016847879
0.0018652526 -0.0061332067 -0.0055704727 -0.0081682885 -0.00996955 -2.4940017e-12 -0.0175699 -0.011286227
-0.0017660131 -6.166e-42 -0.02071658 -5.788782e-07 -9.121e-42 0.0017852712 -0.015894711 -0.0020428398
-1.3535e-41 -0.0013065172 -0.011494991 -2.690295e-06 -5.3391814e-06 -3.713e-42 -2.332e-42 -0.012711619
0.054023985 0.0017953861 0.035071693 -0.0016899989 0.00029874413 5.835e-42 0.0950429 0.03552814
0.0025133926 -0.0019329896 0.026921922 0.0006903359 0.11822315 0.0074674347 0.03372848 0.033622354
0.0022127316 -0.00063108566 0.034922116 0.008062394 -0.0016810935 0.0017926196 -0.030585492 0.0019300742
-0.001473183 0.0011912539 0.097601175 0.0950132 0.09846415 -3.252e-42 0.053527903 0.0028689094
0.04067468 0.0016069475 0.060411185 -0.0013367948 0.00089678407 1.391e-41 0.01667657 0.063782364
1.0085166e-05 -0.015087616 0.019369919 -0.0009164958 0.062329657 0.029316526 0.064148575 0.060537085
-0.0018716613 0.0012509759 0.06361482 -0.0018449692 -0.002984019 0.00029756242 0.056952026 0.0011835488
-0.00042887634 0.0009554364 0.10216252 0.013015284 0.012447762 -5.852e-42 0.014304919 0.036189888
00000000: bb1f 453c c076 fd33 710d 2abd 8d0d b1b2
00000010: 7802 483b 4a09 0080 461c a23e 329f 34bd
00000020: da9d b309 1da3 65b9 2a5c 2b38 ba14 6bb6
00000030: f7e1 da3d 554e 013c c97e 54bd dabf ebbc
00000040: 88bb 382f 17c4 df3a 9a13 11bd 290d 0000
00000050: 68f0 0d2f 20c2 2a39 d40b 6abd 0670 7c39
00000060: 5450 baba 434c 75b3 7a51 e43c 1201 8e3e
00000070: 9f0a 913e 1706 0080 3e4c f43d a277 81bc
00000080: a525 0f3c 7f2e 9c38 4e88 20bd d556 8eb3
00000090: dede eb3b a113 0080 d681 c7bc e497 adbc
000000a0: c5a5 f028 0b37 61bc ebf6 b0bc d290 a9bb
000000b0: 4636 8ebd eef1 61bc 5c81 53bc efde ddbc
000000c0: 8c18 e1b4 a015 8039 74c6 c3bc 1a1e 2124
000000d0: 6e8f 3834 ccab 1f3b b938 87bb 0819 923a
000000e0: d631 ebb9 969b 0fb9 897f 1dbd fc00 953b
000000f0: 1167 52bd 7c1c 0000 89e0 6f3c 77d1 12bd
00000100: c9a3 b83c a731 003a 4703 1dbd 6f73 93b4
00000110: 23aa e73b ea1c 0080 134b e23c 559b fcbc
00000120: 6fa8 318b f53d 75bb 5124 8e3b a4fb 513a
00000130: 18db 32bc 361c 13bb 9a3a f2bc db7b 5bbc
00000140: 1b0b 00b5 eb0b d239 f610 35bd 3bb5 9529
00000150: ec40 6535 bb62 3f39 b6c0 3dbd 6566 a737
00000160: 9a3b e8b9 bff5 09b9 910e 9b3c ad4f c03c
00000170: ec0d f63c a11d 0000 7a11 493c e93a 94bd
00000180: 4034 ebba eda6 73b9 67b5 19bc f855 e7ba
00000190: 3215 0080 fa13 0000 6f2d c0ba 1637 e7bb
000001a0: 2c28 1cbb 5e6b 25bb e0ac 9db9 9ee8 94ba
000001b0: b332 a8bb 6780 84ac 1d39 04bc 6bb2 b3bb
000001c0: cf8e ae3a aa0b 0000 8655 f2bb dbd0 36b5
000001d0: a424 0000 ae04 e63a 9ff2 62bc 9349 28bb
000001e0: 721f 0080 b7f0 a9b9 be2b 23bb 989c 36ba
000001f0: 725b afba 5b03 0000 eb0d 28ad c554 35bc
00000200: baf8 e93a 67e8 0bba 93aa 8cbc 0787 ec3a
00000210: 2818 0080 5220 0000 b80a e4b7 d9de 80bc
00000220: 7f10 e33a 47ae adbb 6a93 5dbb 637d cabb
00000230: b18e 0cbc d3b8 5aa0 659f 8abc 28f7 26bc
00000240: 8bfb 08bb 5821 0000 b17c 9fbc 9cb9 deb4
00000250: 2b08 0000 0c6c ef3a d33e 80bc 55ff fcba
00000260: e524 0080 aa42 a4ba ed33 08bc b132 7db5
00000270: f911 34b6 dd16 0000 a802 0000 0f87 4bbc
00000280: f239 eb3a a662 64ba 47e0 90bc 7edc e8ba
00000290: 5e0a 0000 251d 0000 41b3 25b8 9004 8abc
000002a0: 7e7b f43a 11f9 c8bb 8388 b6bb 49d4 05bc
000002b0: 5357 23bc f17f 2fac c0ee 8fbc dee9 38bc
000002c0: 9179 e7ba 3011 0080 d1b5 a9bc 3564 1bb5
000002d0: 6d19 0080 c3ff e93a a035 82bc 2ae1 05bb
000002e0: bb25 0080 713f abba 7d55 3cbc eb8a 34b6
000002f0: 3827 b3b6 5a0a 0080 8006 0080 6544 50bc
00000300: 4148 5d3d 2953 eb3a 56a7 0f3d f482 ddba
00000310: c2a0 9c39 4410 0000 daa5 c23d f485 113d
00000320: bbb7 243b 5e5c fdba 5d8b dc3c a8f7 343a
00000330: fb1e f23d 62b1 f43b e026 0a3d 98b7 093d
00000340: 7a03 113b 716f 25ba 7e0a 0f3d 2218 043c
00000350: 2358 dcba 55f6 ea3a 6d8e fabc 8bfa fc3a
00000360: d217 c1ba d923 9c3a 20e3 c73d 4896 c23d
00000370: 93a7 c93d 1109 0080 1340 5b3d 5004 3c3b
00000380: 7e9a 263d 36a0 d23a b871 773d 6437 afba
00000390: 2916 6b3a c726 0000 4d9d 883c 54a0 823d
000003a0: 7533 2937 0c32 77bc aaad 9e3c fe40 70ba
000003b0: 624d 7f3d 3629 f03c 5460 833d bcf5 773d
000003c0: 8852 f5ba c9f7 a33a 7d48 823d e5d2 f1ba
000003d0: 888f 43bb 2702 9c39 8746 693d 4f21 9b3a
000003e0: cfda e0b9 4076 7a3a 953a d13d 0f3e 553c
000003f0: b3f1 4b3c 5010 0080 2e5f 6a3c d93b 143d

linear4.bias f4 [64]
0.029622592 -0.02180064 0.05403075 -0.048462708 -0.0029119747 -0.012812524 -0.031136088 -1.2184e-41
-0.018596593 0.012678979 0.0698164 6.2905525e-07 0.1012518 -0.011920972 -0.037110474 0.027345661
-0.021902153 -0.00199893 0.048630815 0.056979865 0.025435485 -0.010870036 -0.014888809 0.04849698
-0.061158832 -0.03444304 6.479967e-07 -0.0030049914 -0.027723916 0.044070113 7.537634e-07 -0.00077426585
-0.00955881 -0.033180747 0.017351268 -0.041795343 -8.852091e-06 0.16073456 0.070150726 -0.0016430534
-2.930185e-06 -0.03832474 0.05197304 0.06467699 -0.0025008966 3.2124576e-06 -0.018878968 -6.510682e-05
0.058415778 -0.008986858 -4.8882293e-06 0.08852684 0.022909312 -0.0015013336 -0.008452616 0.047251057
-1.3487e-41 0.07002513 0.04653742 -2.4707171e-05 0.0680952 0.012487033 0.15874435 0.03704118
00000000: 14ab f23c 4197 b2bc 594f 5d3d d580 46bd
00000010: d4d6 3ebb 9feb 51bc 1c11 ffbc f721 0080
00000020: e257 98bc 7ebb 4f3c e7fb 8e3d 59dc 2835
00000030: 1b5d cf3d 2e50 43bc 2701 18bd 0204 e03c
00000040: 256c b3bc 7b00 03bb 1b31 473d b863 693d
00000050: 145e d03c 3c18 32bc 31f0 73bc c5a4 463d
00000060: af81 7abd 2514 0dbd fff1 2d35 64ef 44bb
00000070: 441d e3bc dd82 343d 3a56 4a35 1af8 4aba
00000080: 8e9c 1cbc 89e8 07bd 3f24 8e3c 9831 2bbd
00000090: 7183 14b7 9a97 243e 2fab 8f3d b95b d7ba
000000a0: 32a4 44b6 67fa 1cbd afe1 543d 5f75 843d
000000b0: 15e6 23bb 9a95 5736 11a8 9abc f589 88b8
000000c0: 6245 6f3d 9d3d 13bc 9205 a4b6 8f4d b53d
000000d0: 4fac bb3c 65c8 c4ba d77c 0abc 538a 413d
000000e0: 9925 0080 5669 8f3d 069e 3e3d 3f42 cfb7
000000f0: 7f75 8b3d 6a96 4c3c e18d 223e 7eb8 173d

linear5.weight f4 [16, 64]
0.21032362 0.00045827488 0.04220968 -0.0056494903 -0.012043963 0.033079207 0.01872779 9.784e-42
0.018119037 0.01806015 -0.04501084 -1.712476e-06 0.5423509 0.03086792 -0.006830449 -0.0071029146
0.100772485 -6.890452e-07 0.32306433 -0.013006283 -0.025031514 0.0315903 0.06418904 0.033370685
0.03452821 -0.026737554 -1.0023113e-06 0.0024348996 0.008225807 0.03846732 -3.969679e-06 -0.052727688
0.00096366415 -0.085955836 0.025694745 -0.040430345 0.0011212513 -0.13899848 -0.05606432 0.018086536
-0.00027356902 0.00035867875 0.032488298 0.4013778 -0.03861427 6.1806136e-06 0.0013403161 7.0719296e-05
-0.024547756 -0.0077342475 -0.0026317704 -0.055800993 0.026915142 0.0030654767 0.015143478 -0.05618324
7.699e-42 0.44823977 0.15487699 -3.0772394e-06 -0.050782252 0.03178742 -0.18281952 -0.04131122
0.14469633 6.423351e-06 0.04253583 -0.023477312 -0.012563396 0.031062057 -0.006019192 -5.104e-42
0.0076724733 0.0333531 -0.019047089 -2.2570275e-06 0.39305916 0.03159474 0.026907817 -0.0152660245
0.079705626 -9.0878205e-10 0.24934022 -0.015343977 -0.026001401 0.030516995 0.05657138 0.055112675
0.052799053 0.008113278 -1.0021189e-06 0.0001729775 -0.006546468 0.015788704 -4.972755e-06 -0.057080075
-0.011900933 -0.021554977 0.004709113 0.018054968 0.0006876118 -0.12016246 -0.047062486 0.012254685
-5.515723e-05 0.0082670795 -0.013858519 0.31854144 -0.041546863 -7.4291233e-07 5.2849853e-05 0.00029270776
-0.024696933 0.052178185 -0.001629512 -0.041577466 0.027419494 0.001703823 0.005760331 -0.061142035
-1.307e-41 0.33820665 0.12773843 -4.1591798e-06 -0.040850446 0.009862155 -0.113017865 -0.042156927
-0.027349474 1.8099847e-05 -0.056188572 0.03155086 0.00037378148 -0.021853697 0.01706842 -7.322e-42
0.0011145906 0.06054375 0.12360767 1.51359045e-05 -0.09118407 -0.027943784 -0.13029648 0.030215047
-0.033998426 -0.0004992513 -0.031105611 0.053776134 0.02846456 -0.022554707 0.0040358743 0.14164075
-0.12661366 -0.09680798 3.0143854e-06 0.014175693 0.009845699 0.027516823 6.7681294e-06 0.013673763
0.010487898 0.025063638 0.048142027 -0.0085909115 2.3024173e-05 0.28701133 0.14283516 -0.010407462
1.1206514e-05 -0.03931807 0.06270988 -0.068045594 0.006006901 9.515537e-06 0.00093968 -0.0010160098
0.12072333 -0.013707962 0.001188225 0.15793659 -0.0018086802 0.00450627 0.01121681 0.09639039
-6.953e-42 -0.07200925 0.04388597 -2.939948e-06 0.13626838 0.0046379482 0.27167144 0.07138353
-0.012720241 -0.00019007319 0.028109781 -0.03822033 -4.2824236e-10 0.004712484 -0.030840585 1.209e-41
-1.9306912e-05 -0.037411314 -0.008581674 2.6856977e-09 -0.016795546 0.002808368 0.20495163 -0.025148032
-0.017781796 0.0011796016 -0.023601538 -0.035543557 -0.027627675 0.004594015 0.00038285676 -0.007904289
0.2029921 0.17283401 4.5899045e-09 -0.019408386 -3.8994298e-05 -0.02938411 1.6311588e-10 0.012456675
-0.02963154 0.1506631 -0.029805837 0.13840851 3.9239104e-08 -0.027335057 -0.019239599 2.2074646e-08
1.502973e-07 0.084486276 -0.05775901 -0.023189848 0.006338108 4.1720455e-10 -0.0011306772 -0.00018221691
-0.011177308 0.17124362 -1.9006721e-07 -0.01941102 -0.029190985 -0.00083555654 0.002200283 -0.040820163
-1.2413e-41 -0.024590787 -0.008007206 1.0936894e-06 -0.03380267 -0.027956545 -0.009236906 -0.032557044
00000000: 135f 573e 9d44 f039 0fe4 2c3d 5c1f b9bb
00000010: 0b54 45bc 107e 073d 066b 993c 461b 0000
00000020: 606e 943c e1f2 933c 495d 38bd 3ad8 e5b5
00000030: 82d7 0a3f b8de fc3c f6d1 dfbb 91bf e8bb
00000040: ce61 ce3d d3f6 38b5 b068 a53e 4e18 55bc
00000050: e40e cdbc d564 013d 8b75 833d b3af 083d
00000060: 746d 0d3d b708 dbbc 2787 86b5 d692 1f3b
00000070: 89c5 063c e98f 1d3d 4833 85b6 fdf8 57bd
00000080: 689e 7c3a 9d09 b0bd c97d d23c 4a9a 25bd
00000090: f3f6 923a 9e55 0ebe b3a3 65bd 372a 943c
000000a0: d06d 8fb9 0c0d bc39 7312 053d 6481 cd3e
000000b0: ff29 1ebd 1163 cf36 8cad af3a 224f 9438
000000c0: 6018 c9bc 926f fdbb c879 2cbb 958f 64bd
000000d0: 257d dc3c 2ae6 483b 5a1c 783c 6620 66bd
000000e0: 7615 0000 af7f e53e 1398 1e3e 9282 4eb6
000000f0: 0d01 50bd 8733 023d 0a35 3bbe f435 29bd
00000100: 462b 143e 2a88 d736 0d3a 2e3d 7e53 c0bc
00000110: b4d6 4dbc db75 fe3c a43c c5bb 3a0e 0080
00000120: 5f69 fb3b 439d 083d a408 9cbc 7077 17b6
00000130: 0d3f c93e 7c69 013d c86d dc3c 591e 7abc
00000140: b43c a33d dacd 79b0 0b53 7f3e 4e65 7bbc
00000150: e400 d5bc c7fe f93c 64b7 673d d4bd 613d
00000160: d243 583d 8eed 043c 8b80 86b5 4b61 3539
00000170: c183 d6bb 5057 813c a4db a6b6 cccc 69bd
00000180: 22fc 42bc 1094 b0bc e74e 9a3b 03e8 933c
00000190: d940 343a bc17 f6bd 98c4 40bd e0c7 483c
000001a0: a058 67b8 a572 073c d70e 63bc dd17 a33e
000001b0: 0b2d 2abd 8c6c 47b5 19ab 5d38 9276 9939
000001c0: 3951 cabc cbb8 553d 5995 d5ba 224d 2abd
000001d0: d99e e03c d052 df3a 29c1 bc3b 1270 7abd
000001e0: 6f24 0080 6c29 ad3e ddcd 023e 158f 8bb6
000001f0: cc52 27bd e094 213c e975 e7bd beac 2cbd
00000200: 010c e0bc 20d5 9737 fd25 66bd 793b 013d
00000210: 1af8 c339 8606 b3bc 12d3 8b3c 6914 0080
00000220: 7417 923a b9fc 773d 0526 fd3d 37f0 7d37
00000230: b7be babd 5dea e4bc 716c 05be 8c85 f73c
00000240: ef41 0bbd 30e0 02ba 32d1 febc 5d44 5c3d
00000250: 822e e93c a6c4 b8bc 5e3f 843b 460a 113e
00000260: 03a7 01be 4343 c6bd bf4a 4a36 2a41 683c
00000270: db4f 213c f66a e13c ca19 e336 eb07 603c
00000280: 6fd5 2b3c 4252 cd3c 9330 453d e5c0 0cbc
00000290: 0924 c137 26f3 923e 6143 123e 0f84 2abc
000002a0: 9c03 3c37 fc0b 21bd 0a6e 803d 7d5b 8bbd
000002b0: 8ad5 c43b eca4 1f37 db54 763a a22b 85ba
000002c0: cb3d f73d 5c97 60bc 37be 9b3a 21ba 213e
000002d0: 3d11 edba 55a9 933b b6c6 373c 5368 c53d
000002e0: 6213 0080 9679 93bd c6c1 333d ec4b 45b6
000002f0: f089 0b3e eef9 973b 8518 8b3e 8731 923d
00000300: 8f68 50bc 624e 47b9 7c46 e63c ec8c 1cbd
00000310: c16d ebaf 2e6b 9a3b 65a5 fcbc b421 0000
00000320: 47f5 a1b7 9b3c 19bd 269a 0cbc 4b8f 3831
00000330: d096 89bc 990c 383b d7de 513e 3f03 cebc
00000340: 21ab 91bc dd9c 9a3a 0358 c1bc 1f96 11bd
00000350: 6f53 e2bc 6489 963b 2aba c839 fe80 01bc
00000360: 29dd 4f3e 66fb 303e 3ab5 9d31 56fe 9ebc
00000370: cf8d 23b8 f2b6 f0bc 0a59 332f 1517 4c3c
00000380: d8bd f2bc 6d47 1a3e 5f2b f4bc f6ba 0d3e
00000390: da87 2833 c5ed dfbc 5d9c 9dbc a99e bd32
000003a0: 6861 2134 2407 ad3d b694 6cbd a3f8 bdbc
000003b0: e7af cf3b 525c e52f 3b33 94ba 7b11 3fb9
000003c0: 0721 37bc 7d5a 2f3e 4715 4cb4 dc03 9fbc
000003d0: ef21 efbc 4009 5bba a032 103b 0b33 27bd
000003e0: 9a22 0080 9e72 c9bc a830 03bc e2ca 9235
000003f0: ab74 0abd 2005 e5bc 6456 17bc 895a 05bd

linear5.bias f4 [16]
0.07465324 0.049570598 0.112861775 -0.060625356 0.052784268 -4.32e-42 0.0016288236 0.12643003
-0.029787064 0.21717608 0.0700112 0.16115996 0.03860368 0.016340721 0.06455103 -6.834e-42
00000000: cce3 983d 8a0a 4b3d 1324 e73d 4b52 78bd
00000010: 5134 583d 0b0c 0080 407e d53a e076 013e
00000020: 0004 f4bc 6863 5e3e 0862 8f3d 1e07 253e
00000030: e41e 1e3d fadc 853c 5533 843d 0d13 0080

linear6.weight f4 [4, 16]
0.7132244 0.4872974 -0.22068782 -0.012632862 0.0082522 1.1775e-41 -0.099697486 -0.27144006
-0.27662233 0.42405847 0.01397129 -0.395766 -0.00011863681 0.28193945 0.7177455 -1.0221e-41
-0.3197847 -0.2063498 0.3581862 -0.12325232 -0.07644388 3.188e-42 0.009422833 0.43831363
-0.1670562 0.7840152 -0.03051249 0.6779499 -0.031956073 -0.22911654 -0.25175545 5.874e-42
-0.13509926 0.0033405395 -0.075438775 0.3080869 -0.039290108 -5.597e-42 0.25935104 -0.065925136
0.9624558 -0.34834382 -0.09787668 0.1601715 -0.030329587 0.17890774 -0.12778544 1.1471e-41
0.06771371 -0.064799465 0.022211263 -0.026283858 0.5765425 4.676e-42 -0.024977371 -0.020742226
-0.09863898 -0.18400341 0.7762148 -0.16674833 0.34408423 -0.2768517 0.0056115086 -1.0136e-41
00000000: e095 363f 0b7f f93e fdfb 61be 10fa 4ebc
00000010: 3c34 073c d320 0000 322e ccbd 31fa 8abe
00000020: 71a1 8dbe 311e d93e d6e7 643c d7a1 cabe
00000030: a7cc f8b8 5e5a 903e 2bbe 373f 7e1c 0080
00000040: d2ba a3be 5d4d 53be 2e64 b73e b66b fcbd
00000050: 9c8e 9cbd e308 0000 3a62 1a3c a56a e03e
00000060: c810 2bbe 38b5 483f 54f5 f9bc 208e 2d3f
00000070: 5fe4 02bd 879d 6abe 17e6 80be 6010 0000
00000080: 7657 0abe f4ec 5a3b a57f 9abd 91bd 9d3e
00000090: aaee 20bd 9a0f 0080 a9c9 843e c203 87bd
000000a0: 8163 763f 1f5a b2be 9273 c8bd ff03 243e
000000b0: c175 f8bc 9733 373e 30da 02be fa1f 0000
000000c0: 7cad 8a3d 95b5 84bd 65f4 b53c 3f51 d7bc
000000d0: 4a98 133f 090d 0000 589d ccbc 9aeb a9bc
000000e0: 3c03 cabd 646b 3cbe 03b6 463f 13c0 2abe
000000f0: cf2b b03e 82bf 8dbe bfe0 b73b 411c 0080

linear6.bias f4 [4]
0.03688596 0.16585536 -0.07288068 0.06487135
00000000: bb15 173d fdd5 293e 7742 95bd 45db 843d
