checkpoints/dnn_10%.pt (torch, 257857 bytes, 12 tensors)

linear1.weight f4 [128, 358]
000000 7a cc 5e bc 72 63 7b 3c 85 05 e3 3b c1 ac 26 ba
       -0.013598556 0.015343534 0.006928148 -0.000635814
000010 40 20 61 bc b1 6b 50 bc ff 49 48 bb d0 63 87 bc
       -0.013740599 -0.012720988 -0.0030561683 -0.016527086
000020 b0 6f 2e 3b 99 cb 8b bb bd 7d e1 3b 3b 44 85 bc
       0.0026616864 -0.004266214 0.0068814442 -0.016267886
000030 72 e1 c5 3b 45 34 32 bb 9a a3 6c 3c c7 f4 72 bc
       0.006038838 -0.00271918 0.0144433025 -0.014828867
000040 b5 7a 25 bc 08 2f 14 bb 3b 18 9e 3b 2a cf 63 3c
       -0.010100056 -0.002261104 0.004824666 0.013904372
000050 3a a1 8f bb f2 46 fa bc b6 fb 75 3b 29 3a 6d 3b
       -0.0043832334 -0.030551407 0.0037534065 0.0036197996
000060 79 b4 83 bb 2f 4b b8 3b c4 83 3c bc 3b 27 0b bc
       -0.0040193168 0.005624197 -0.011506025 -0.00849324
000070 50 6f b3 b9 eb c6 9c 3c 56 f9 ee b9 2e d6 e3 bb
       -0.00034224475 0.01913782 -0.00045580667 -0.0069530224
000080 cb 3a 9a bc a4 f1 ac bc a7 30 a0 3c 42 eb 0a bb
       -0.018826863 -0.021111317 0.01955445 -0.0021197353
000090 52 0a 21 3c 69 51 eb 3b 29 28 7a bc dc a2 c6 3c
       0.009829121 0.0071813357 -0.015268364 0.02424758
0000a0 cd c3 e1 bc 14 84 ba 39 59 a9 87 3c fa 02 60 ba
       -0.027559185 0.0003557509 0.016560243 -0.00085453654
0000b0 2b 53 f4 3b bb 86 84 3b d8 58 28 3a a4 0a 7d 3b
       0.0074562035 0.0040443814 0.000642193 0.0038611079
0000c0 90 d2 43 bb 72 6d 74 3b 12 cc c3 bb 7a ba 9e 3b
       -0.0029880144 0.003729668 -0.005975255 0.004844007
0000d0 34 19 c1 b9 e2 4e 15 ba 70 28 b5 bb 91 17 0c bc
       -0.00036830606 -0.00056956534 -0.005528502 -0.008550541
0000e0 02 42 80 3a a1 50 7c 3b 49 72 b9 3b f1 2a 36 bc
       0.0009785297 0.0038500207 0.005659376 -0.0111186365
0000f0 fb f1 c0 3b f4 8e 81 3b 1d 0c c5 3b 40 b3 70 bc
       0.0058882213 0.003953809 0.006013407 -0.014691174
000100 e0 3d b8 bb 32 ca 32 3b 9b 7d 32 3b 14 59 d3 3b
       -0.0056226104 0.0027281162 0.0027235511 0.006449828
000110 a4 f8 c9 3c 8f 98 af 3a 6d 3a 92 bc e0 ac c9 b9
       0.024654694 0.0013396906 -0.017850125 -0.0003846651
000120 11 ed 98 bb bb 9f 51 3c 4f 09 2d bc 3b b4 23 bc
       -0.0046669324 0.01279443 -0.010561301 -0.009991701
000130 d0 3d 42 3a 28 ef cc 3a 67 4e 5d bc 96 34 88 bc
       0.00074097235 0.0015635239 -0.013507462 -0.016626637
000140 2d 6d b0 bc 0a 80 93 bc c3 3b 18 3b e7 bb 63 3c
       -0.021536434 -0.01800539 0.002322898 0.01389978
000150 24 1d 51 3c 31 14 41 3c 40 31 6e 3c 66 5b 26 3c
       0.012763295 0.011784599 0.014538109 0.010153627
000160 26 c3 3c 3c fe 16 64 3c 7f 54 34 3c 91 21 1b 3c
       0.011521136 0.013921497 0.011006474 0.009468452
000170 77 02 a6 bc fa 35 15 bc 44 74 0b bc 14 59 73 3c
       -0.020264847 -0.009107107 -0.008511607 0.014852781
000180 6c e0 bc 3c 22 11 a1 3c da 12 a1 3c e4 4a 31 3c
       0.023056231 0.01966149 0.01966231 0.010821078
000190 98 1d 14 3c 28 20 4a bb 18 da 29 bc ad ef aa 3c
       0.009040259 -0.003084192 -0.010366939 0.02086624
0001a0 70 5f fe 3a 8c 17 0b 3c 07 61 71 3c 38 10 73 39
       0.0019407105 0.008489501 0.014732606 0.00023180328
0001b0 3f 2f 85 3c c9 8e 12 ba 43 46 84 3c c9 b2 4c 3b
       0.01625788 -0.00055907347 0.016146785 0.0031234494
0001c0 43 ad 40 b9 b6 bd 2b 3a f8 55 b4 3a bf 1e 7b 3a
       -0.00018375092 0.00065514015 0.0013758531 0.00095794717
0001d0 d6 6e 1d 3a 5f 1e 05 bc 65 a7 65 bb 20 92 0f bc
       0.00060055905 -0.008124917 -0.0035042402 -0.008762866
0001e0 13 fe 5b bb f6 26 59 3b f6 26 b2 3b 56 32 10 3c
       -0.0033568188 0.0033134795 0.0054367734 0.0088010635
0001f0 81 bf 69 3c 80 f7 a5 bc 87 d4 40 3c 56 20 ee 3c
       0.0142668495 -0.020259619 0.0117694205 0.029068153
000200 b0 ee fa 3c cd f2 b4 3c 07 eb 37 bd 8d 3a c6 bc
       0.030631393 0.022088433 -0.044901874 -0.024197841
000210 af 48 27 b9 7c c0 6d b7 10 bd 0e bd 4a 37 f5 bc
       -0.00015953438 -1.4171117e-05 -0.034848273 -0.02993359
000220 d3 1e a5 bc 7f 83 1f bb fb 03 71 38 4f 08 e9 3a
       -0.0201563 -0.0024339852 5.7462585e-05 0.0017778965
000230 61 f9 18 3c 57 33 12 3b 14 fb 27 3b e8 0d 60 3c
       0.0093368 0.0022308433 0.0025631832 0.0136751905
000240 ec 69 26 3d 05 5a 04 bb b0 5c 19 bc 76 b3 ce bb
       0.04062836 -0.0020195257 -0.009360477 -0.0063080145
000250 f7 de cb 3a d0 1e 1b bc b1 17 77 bc 8a 96 09 3b
       0.001555412 -0.0094677955 -0.015081332 0.002099427
000260 cd 34 b0 bd 57 2d db 3c c0 d7 80 bc bc a3 52 bc
       -0.08603821 0.026755018 -0.015727878 -0.01285642
000270 96 d4 f8 bb 5d e6 37 bd 9b 8e 07 bd 2b f5 90 bc
       -0.0075937016 -0.044897426 -0.033094984 -0.01769503
000280 96 73 50 3c 9c c0 76 3c 58 63 76 bc 4c 3f 9d bb
       0.01272287 0.01506057 -0.015038334 -0.0047988053
000290 14 2b c7 bb 3c 71 0d bc 11 63 34 bc ec 66 e0 bb
       -0.0060781334 -0.008632954 -0.011009947 -0.0068482067
0002a0 e8 01 21 3c 0d 59 18 3a 5d 5a 22 bc e9 de 2c 39
       0.009827115 0.00058116094 -0.00990924 0.00016486239
0002b0 08 47 3e bc b1 c5 2d bc e9 1e 25 3c 82 a6 c3 38
       -0.011613615 -0.010606215 0.01007817 9.329339e-05
0002c0 28 53 e5 3a a9 c3 22 bc 39 57 23 3c 78 ab 9e bc
       0.0017496096 -0.009934344 0.009969526 -0.019368872
0002d0 96 09 6b bc 46 ce 97 bc d1 18 a0 3b 28 8e 3e bb
       -0.014345547 -0.018530976 0.004885771 -0.002907643
0002e0 b3 f3 14 bc 07 57 1f 3c c8 df 4f 36 c8 a4 9b 38
       -0.009091306 0.009725339 3.0975662e-06 7.421669e-05
0002f0 85 e8 35 b8 10 d2 05 3c b0 c3 f4 ba 3a 28 4a 39
       -4.3370314e-05 0.008167759 -0.0018674042 0.00019279207
000300 40 0f b6 ba 9f bc 96 b8 ce 8c f7 b9 5f dc a9 3b
       -0.0013890043 -7.187691e-05 -0.0004721642 0.005183741
000310 9d 7c 19 3a 8a 5a 1e 38 d3 14 25 b8 67 e3 0b b9
       0.00058550556 3.7754457e-05 -3.935846e-05 -0.00013340787
000320 4e 5b 1b 3a 91 db 0a bb 07 76 a9 b9 8d 7c b6 b7
       0.0005926386 -0.0021188 -0.0003232213 -2.175409e-05
000330 37 f2 fe b8 0d 2e 9a b8 da c1 37 b9 e3 72 18 b9
       -0.0001215678 -7.35187e-05 -0.00017524455 -0.00014538648
000340 4c 78 81 39 bc 77 56 b9 00 47 5f b8 ca 88 ed 39
       0.00024694426 -0.00020453235 -5.3233467e-05 0.00045306078
000350 41 f9 23 3a bb a8 32 38 29 67 16 bc 94 c1 34 3c
       0.0006255098 4.259565e-05 -0.009179869 0.011032481
000360 ab 2e 00 ba bb cb 00 3a ae 30 22 b9 43 1c 13 b9
       -0.00048897666 0.00049131707 -0.00015467659 -0.00014029541
000370 4b 11 02 3b e0 3f 1e 3d 10 e6 a8 3c 75 bb d7 b9
       0.0019846733 0.038635135 0.020617515 -0.00041147662
000380 ac c9 9a b7 db c3 10 3d 46 29 e3 38 00 9c 9b 39
       -1.8452141e-05 0.035343032 0.00010831891 0.00029680133
000390 fc 4f 13 3d 6a 70 14 3d ae 16 1b 3d 18 1a 23 bb
       0.03596495 0.03624002 0.037863426 -0.002488738
0003a0 c2 20 a0 ba 71 9a e2 b9 79 75 4d b9 c4 d9 a8 b9
       -0.0012216794 -0.00043221147 -0.00019594085 -0.00032205705
0003b0 ce 20 3e b9 c8 4c d1 b9 24 05 93 ba 6c e9 c6 39
       -0.00018132033 -0.00039920793 -0.0011216742 0.00037939416
0003c0 c4 a6 4a 3b 42 ac 9b 3b 16 7d ef 3a 58 9f af 3a
       0.0030922154 0.0047507593 0.0018271531 0.0013398929
0003d0 17 22 bb 3b f1 69 6d 39 01 18 22 3c c1 51 19 3a
       0.005710851 0.00022641548 0.009893418 0.0005848669
0003e0 32 39 31 3b f6 3e 06 3b 6e 89 0e 3c 10 b6 07 bb
       0.0027042148 0.0020484305 0.008699758 -0.0020707883
0003f0 28 50 8d bb 83 f0 83 3b f1 2f 3d bc 6b b2 00 bc
       -0.004312534 0.004026474 -0.011547075 -0.007855038

linear1.bias f4 [128]
000000 52 53 13 3e 90 c0 d4 3e 48 58 dd 3c 0d 34 a6 3d
       0.14387253 0.41553164 0.027019635 0.08115397
000010 48 58 0e 3b ad 9b 00 3c ef ad 87 3b 07 ad e1 3b
       0.00217201 0.007849616 0.0041406075 0.0068870815
000020 83 78 c3 3b 76 d0 ea ba 57 9c 95 ba af 10 00 3d
       0.005965294 -0.0017914909 -0.0011414391 0.03126591
000030 0c 2b 4d bc 5d ef 22 3d 84 e2 4c 3d f1 c7 b9 3c
       -0.01252247 0.039779056 0.05002071 0.022678347
000040 28 da eb 3c 5a bb 5b 3b 0d fb 23 3c 3c 24 f3 38
       0.028790548 0.0033528418 0.010008586 0.00011593892
000050 27 6e f3 3c bb 41 aa 3b cf e5 f5 3d 9b 84 d7 bb
       0.02971561 0.005195824 0.12006723 -0.006577087
000060 d2 de cf 3c 72 4c 35 3e 7e 4f 48 3c 6b b6 e9 3c
       0.025374804 0.17704943 0.012225984 0.028529366
000070 61 00 b1 3c 84 d4 e8 39 c5 6b eb 3d f3 7f a0 3b
       0.021606626 0.00044408825 0.11495165 0.0048980652
000080 b2 ea ed 3a 88 d8 65 3c 6d 11 01 3c f1 94 01 3d
       0.001815161 0.014028676 0.00787769 0.031636182
000090 ce 1c 14 3c 53 83 d4 3d 45 84 ea 3c 74 a8 5f 3c
       0.009040071 0.103766106 0.028627524 0.013651002
0000a0 8a a9 85 3c 42 bc c3 3d e2 e4 99 3d f5 c9 86 3c
       0.016316194 0.09557392 0.07514359 0.016453722
0000b0 d9 c4 e7 3c cf f5 fa 3b ad 0b 04 bb 98 bd 06 3c
       0.028292106 0.007658697 -0.002014856 0.008223914
0000c0 20 e2 4a bb 1b 9c 1b 3d 30 f1 19 3e ee 41 04 3d
       -0.0030957535 0.03799067 0.15033412 0.032289438
0000d0 c0 a6 d1 3c ae ff 3c 3c 1d ed 9e 3c 26 74 46 bb
       0.025592208 0.011535568 0.019400174 -0.0030281632
0000e0 a0 e4 c6 3c f3 a0 1c 3d 33 5b a4 3b bd 78 ee 3a
       0.024278939 0.03823943 0.0050157546 0.0018193942
0000f0 4d 86 70 3d 70 e2 0e 3c 25 50 61 bb d5 20 43 3c
       0.05872183 0.008720979 -0.0034380045 0.011909683
000100 0d 07 c6 3d ff 78 c7 3c 51 15 94 3b 15 54 5e 3c
       0.096693136 0.024349688 0.0045191427 0.013569851
000110 d9 79 03 3e 79 ad 3b 3c 1b 33 07 3c 36 04 8e 3d
       0.1283945 0.011454933 0.008251931 0.06934397
000120 2f 73 b1 3a 82 95 ca 3b d8 79 a5 3c 0b 05 2e bc
       0.0013538356 0.0061823735 0.020199701 -0.0106213195
000130 2c 86 e7 3c fc 3f d4 bb f3 e4 ea 3c 74 fd 35 3c
       0.02826222 -0.006477354 0.028673625 0.011107791
000140 84 a3 46 3c 6f 5e ca bb 86 69 cc 3d 68 19 b9 3d
       0.012123946 -0.006175808 0.099810645 0.09038049
000150 ca 25 87 3d e2 35 e9 3b 4e 79 32 3c c6 01 58 bb
       0.065990046 0.007117019 0.010893179 -0.0032960041
000160 f0 40 3d 3d 04 a1 70 3d e2 c7 ac ba a7 92 e7 3c
       0.046204507 0.058747306 -0.0013182128 0.028268171
000170 72 09 40 3e ae cd 53 3c c9 7d 27 bc 67 a0 59 3b
       0.18753603 0.012927456 -0.010222861 0.003320718
000180 15 7e 74 bb 5e 8e d6 3b 56 12 31 3c a5 4c 34 3a
       -0.0037306596 0.006547733 0.010807594 0.0006877876
000190 f3 63 20 3c b7 b2 0f 3e 20 ea 03 3b da 1b f8 3d
       0.009789455 0.14033018 0.0020128563 0.12114687
0001a0 7c cd 11 3e 2e 49 c0 3c 2e 1b 95 bb 66 02 e9 3c
       0.14238542 0.023472395 -0.004550359 0.028443526
0001b0 75 4a eb 3c 1c 55 e2 b5 d1 1b e9 3d 9a f0 0c 3d
       0.028722027 -1.6863082e-06 0.11382259 0.034409143
0001c0 12 0d 50 3c d1 23 81 3c 70 b9 46 3c 72 c2 2c 3c
       0.012698429 0.015764149 0.012129173 0.010544406
0001d0 b5 54 eb 3a dd d2 7f 3e ef fe 97 3b 39 fd f1 bb
       0.0017954322 0.24982782 0.0046385447 -0.007384923
0001e0 a4 e7 17 3d 11 7a a0 3d 96 84 8a 3d 04 dc d8 3b
       0.037086144 0.07835782 0.0676357 0.006618025
0001f0 32 0c 92 3c 9f a9 6d bb 3c 5b ba bb 91 2e 09 3d
       0.01782808 -0.0036264432 -0.0056871455 0.033491675

linear2.weight f4 [64, 128]
000000 95 20 00 00 94 20 00 80 66 0e 00 80 ce 12 00 80
       1.1688e-41 -1.1687e-41 -5.165e-42 -6.746e-42
000010 66 26 00 00 31 0f 00 80 2f 12 00 80 75 08 00 80
       1.3775e-41 -5.45e-42 -6.523e-42 -3.034e-42
000020 2d 1a 00 80 32 23 00 80 4d 10 00 80 da 20 00 80
       -9.39e-42 -1.2626e-41 -5.848e-42 -1.1785e-41
000030 a9 26 00 80 70 20 00 80 f9 06 00 80 9c 1c 00 80
       -1.3869e-41 -1.1636e-41 -2.501e-42 -1.0263e-41
000040 22 1f 00 80 3e 09 00 80 9e 06 00 80 50 15 00 80
       -1.1168e-41 -3.315e-42 -2.374e-42 -7.645e-42
000050 25 23 00 80 04 1e 00 80 71 1d 00 80 24 15 00 00
       -1.2607e-41 -1.0768e-41 -1.0562e-41 7.584e-42
000060 13 16 00 80 a4 15 00 80 ae 25 00 00 bf 1d 00 80
       -7.919e-42 -7.763e-42 1.3517e-41 -1.0671e-41
000070 18 20 00 80 51 24 00 80 ef 11 00 80 c2 19 00 00
       -1.1513e-41 -1.3028e-41 -6.433e-42 9.24e-42
000080 74 0d 00 00 7d 21 00 80 7c 26 00 80 0c 0e 00 80
       4.826e-42 -1.2013e-41 -1.3806e-41 -5.039e-42
000090 18 1f 00 80 64 16 00 80 c3 11 00 80 f2 1a 00 80
       -1.1154e-41 -8.032e-42 -6.372e-42 -9.666e-42
0000a0 1f 14 00 80 c9 0f 00 80 ef 1d 00 80 62 25 00 80
       -7.218e-42 -5.663e-42 -1.0738e-41 -1.341e-41
0000b0 69 09 00 80 6a 1a 00 80 b0 17 00 00 79 0b 00 80
       -3.376e-42 -9.476e-42 8.497e-42 -4.116e-42
0000c0 ad 0f 00 80 e7 07 00 80 45 16 00 80 13 08 00 80
       -5.623e-42 -2.835e-42 -7.989e-42 -2.896e-42
0000d0 8d 16 00 00 5b 26 00 80 80 10 00 80 1b 0c 00 80
       8.09e-42 -1.376e-41 -5.919e-42 -4.343e-42
0000e0 ee 14 00 80 37 1d 00 80 b9 14 00 00 26 21 00 80
       -7.508e-42 -1.048e-41 7.434e-42 -1.1891e-41
0000f0 bf 16 00 80 60 22 00 80 b8 1a 00 80 78 19 00 80
       -8.16e-42 -1.2331e-41 -9.585e-42 -9.136e-42
000100 7a 18 00 80 a1 24 00 80 da 17 00 80 f3 0a 00 80
       -8.78e-42 -1.314e-41 -8.556e-42 -3.928e-42
000110 9c 19 00 80 9c 09 00 80 c3 16 00 80 51 14 00 00
       -9.187e-42 -3.447e-42 -8.165e-42 7.288e-42
000120 ba 25 00 80 6b 20 00 80 f4 07 00 80 d2 14 00 80
       -1.3534e-41 -1.163e-41 -2.853e-42 -7.469e-42
000130 00 16 00 80 56 0c 00 80 71 26 00 80 62 0d 00 00
       -7.892e-42 -4.425e-42 -1.379e-41 4.801e-42
000140 1a 0b 00 80 ce 13 00 80 c8 17 00 00 15 1f 00 00
       -3.982e-42 -7.105e-42 8.531e-42 1.115e-41
000150 0a 20 00 00 ed 1e 00 80 26 0b 00 80 2c 0a 00 80
       1.1493e-41 -1.1094e-41 -4e-42 -3.649e-42
000160 08 19 00 80 35 25 00 80 5d 0a 00 00 e8 13 00 00
       -8.98e-42 -1.3347e-41 3.718e-42 7.141e-42
000170 7d 15 00 00 fe 21 00 80 28 1d 00 80 4a 24 00 00
       7.709e-42 -1.2194e-41 -1.0459e-41 1.3018e-41
000180 00 09 00 00 82 25 00 80 11 0c 00 80 ba 1f 00 80
       3.229e-42 -1.3455e-41 -4.329e-42 -1.1381e-41
000190 22 16 00 00 bf 26 00 80 b3 12 00 80 67 17 00 80
       7.94e-42 -1.39e-41 -6.708e-42 -8.395e-42
0001a0 aa 19 00 80 60 13 00 80 02 19 00 80 96 16 00 80
       -9.207e-42 -6.95e-42 -8.971e-42 -8.102e-42
0001b0 bc 1a 00 80 5e 0f 00 80 60 16 00 80 b3 0e 00 80
       -9.59e-42 -5.513e-42 -8.027e-42 -5.273e-42
0001c0 9b 21 00 80 ac 17 00 80 20 20 00 80 84 09 00 00
       -1.2055e-41 -8.492e-42 -1.1524e-41 3.414e-42
0001d0 14 20 00 80 3c 0d 00 00 71 14 00 80 7a 24 00 80
       -1.1507e-41 4.748e-42 -7.333e-42 -1.3085e-41
0001e0 63 07 00 80 db 20 00 80 dc 1b 00 80 6e 15 00 80
       -2.65e-42 -1.1786e-41 -9.994e-42 -7.688e-42
0001f0 06 1e 00 80 5c 22 00 80 7e 0d 00 80 fe 1c 00 80
       -1.077e-41 -1.2326e-41 -4.84e-42 -1.04e-41
000200 98 12 00 80 60 12 00 80 16 07 00 80 b3 1f 00 80
       -6.67e-42 -6.592e-42 -2.542e-42 -1.1372e-41
000210 87 23 00 80 f0 11 00 80 51 1b 00 80 1f 0b 00 80
       -1.2745e-41 -6.435e-42 -9.799e-42 -3.99e-42
000220 57 1f 00 80 f2 23 00 80 83 00 00 80 7b 22 00 80
       -1.1243e-41 -1.2895e-41 -1.84e-43 -1.2369e-41
000230 d4 1b 00 80 ac 0c 00 80 41 24 00 80 b4 1a 00 80
       -9.983e-42 -4.546e-42 -1.3005e-41 -9.579e-42
000240 2f 0d 00 80 94 17 00 80 e6 15 00 80 7a 1d 00 80
       -4.73e-42 -8.458e-42 -7.856e-42 -1.0574e-41
000250 cf 0c 00 80 a2 15 00 80 06 13 00 80 09 24 00 80
       -4.595e-42 -7.76e-42 -6.824e-42 -1.2927e-41
000260 1f 19 00 80 6a 05 00 80 a0 0e 00 80 5e 17 00 80
       -9.012e-42 -1.942e-42 -5.246e-42 -8.383e-42
000270 3b 22 00 80 fa 0b 00 80 a6 21 00 80 39 1b 00 80
       -1.228e-41 -4.296e-42 -1.2071e-41 -9.766e-42
000280 f4 20 00 80 c5 0f 00 00 a3 09 00 80 90 11 00 80
       -1.1821e-41 5.657e-42 -3.457e-42 -6.3e-42
000290 3d 0f 00 80 d4 08 00 80 20 1e 00 80 4b 06 00 00
       -5.466e-42 -3.167e-42 -1.0807e-41 2.257e-42
0002a0 f8 15 00 80 56 07 00 80 98 07 00 80 09 0c 00 80
       -7.881e-42 -2.632e-42 -2.724e-42 -4.317e-42
0002b0 72 1f 00 80 ac 15 00 80 5a 1b 00 80 d2 14 00 80
       -1.128e-41 -7.774e-42 -9.812e-42 -7.469e-42
0002c0 da 0e 00 80 bf 10 00 80 79 26 00 80 16 1a 00 80
       -5.328e-42 -6.007e-42 -1.3801e-41 -9.358e-42
0002d0 ae 08 00 80 36 17 00 80 cf 13 00 00 51 10 00 80
       -3.114e-42 -8.327e-42 7.106e-42 -5.853e-42
0002e0 bb 18 00 80 96 0c 00 80 1a 25 00 80 90 06 00 80
       -8.872e-42 -4.515e-42 -1.331e-41 -2.354e-42
0002f0 83 17 00 80 2d 1b 00 80 09 0b 00 00 fd 19 00 80
       -8.434e-42 -9.749e-42 3.959e-42 -9.323e-42
000300 82 0a 00 80 85 1a 00 80 f6 21 00 80 8b 06 00 80
       -3.77e-42 -9.513e-42 -1.2183e-41 -2.347e-42
000310 cb 08 00 80 75 1a 00 80 95 06 00 80 69 06 00 80
       -3.154e-42 -9.491e-42 -2.361e-42 -2.3e-42
000320 94 24 00 80 d6 1d 00 80 c2 18 00 80 ec 09 00 80
       -1.3122e-41 -1.0703e-41 -8.881e-42 -3.559e-42
000330 14 14 00 80 e4 24 00 80 30 12 00 80 d9 0f 00 80
       -7.203e-42 -1.3234e-41 -6.524e-42 -5.685e-42
000340 01 0d 00 80 f7 0b 00 80 a6 0e 00 80 f4 1b 00 80
       -4.665e-42 -4.292e-42 -5.255e-42 -1.0028e-41
000350 db 07 00 80 90 20 00 00 34 18 00 80 dc 1a 00 80
       -2.818e-42 1.1681e-41 -8.682e-42 -9.635e-42
000360 ca 16 00 80 1e 1c 00 80 fc 23 00 00 b4 09 00 80
       -8.175e-42 -1.0087e-41 1.2909e-41 -3.481e-42
000370 73 19 00 80 91 25 00 80 51 10 00 80 61 1e 00 80
       -9.13e-42 -1.3476e-41 -5.853e-42 -1.0898e-41
000380 d6 09 00 80 ea 15 00 80 8e 0a 00 80 aa 16 00 80
       -3.528e-42 -7.861e-42 -3.786e-42 -8.13e-42
000390 6c 24 00 80 49 26 00 80 a5 25 00 80 d2 22 00 80
       -1.3066e-41 -1.3734e-41 -1.3504e-41 -1.2491e-41
0003a0 3e 1b 00 80 f7 23 00 80 4c 16 00 80 49 1d 00 80
       -9.773e-42 -1.2902e-41 -7.999e-42 -1.0506e-41
0003b0 a6 0d 00 80 c0 07 00 80 54 1e 00 80 a1 14 00 80
       -4.896e-42 -2.78e-42 -1.088e-41 -7.4e-42
0003c0 70 0e 00 80 07 06 00 80 bd 1d 00 80 b6 0e 00 80
       -5.179e-42 -2.162e-42 -1.0668e-41 -5.277e-42
0003d0 f5 1f 00 80 79 0f 00 80 ee 09 00 80 5e 1c 00 80
       -1.1464e-41 -5.55e-42 -3.562e-42 -1.0176e-41
0003e0 5e 1b 00 80 3c 15 00 80 cb 14 00 80 ba 19 00 80
       -9.817e-42 -7.617e-42 -7.459e-42 -9.229e-42
0003f0 09 0b 00 00 97 22 00 80 47 0b 00 80 b9 1a 00 80
       3.959e-42 -1.2408e-41 -4.046e-42 -9.586e-42

linear2.bias f4 [64]
000000 e5 21 00 80 99 1e 00 80 9f 14 00 80 28 22 00 80
       -1.2159e-41 -1.0976e-41 -7.397e-42 -1.2253e-41
000010 48 87 4f 3e 41 10 00 80 20 10 00 80 c4 0f 00 80
       0.2026645 -5.831e-42 -5.785e-42 -5.656e-42
000020 fa 14 00 80 71 1a 00 80 3b 22 00 80 04 10 00 80
       -7.525e-42 -9.485e-42 -1.228e-41 -5.745e-42
000030 e2 26 00 80 15 1d 00 80 d7 b9 96 37 27 21 00 80
       -1.3949e-41 -1.0433e-41 1.7967932e-05 -1.1893e-41
000040 b9 0d 00 80 5f 15 00 80 71 bd 47 3e 37 24 00 80
       -4.923e-42 -7.667e-42 0.1950586 -1.2991e-41
000050 c8 8a 30 3e 6e c3 83 3e 00 24 00 80 61 09 04 3e
       0.17240441 0.2573504 -1.2914e-41 0.12894203
000060 e6 25 00 80 6e 23 00 80 56 23 00 80 df 10 00 80
       -1.3595e-41 -1.271e-41 -1.2676e-41 -6.052e-42
000070 12 05 24 3d 4a 14 00 80 13 17 00 80 5c 61 a8 3d
       0.040043898 -7.278e-42 -8.277e-42 0.08221695
000080 f1 21 00 80 2f 14 00 80 43 0a 00 80 99 54 74 3e
       -1.2176e-41 -7.24e-42 -3.681e-42 0.23860396
000090 73 0e 00 80 82 22 00 80 ae 20 00 80 d7 08 00 80
       -5.183e-42 -1.2379e-41 -1.1723e-41 -3.171e-42
0000a0 eb 19 00 80 0e 1b 00 80 5e 25 00 80 28 23 00 80
       -9.298e-42 -9.705e-42 -1.3405e-41 -1.2612e-41
0000b0 56 1e 00 80 1c 26 00 80 62 46 7a 3e 9b 26 00 80
       -1.0882e-41 -1.3671e-41 0.24440911 -1.3849e-41
0000c0 f0 a6 4a 37 d7 11 00 80 da 13 00 80 9b 1f 00 80
       1.2079006e-05 -6.4e-42 -7.121e-42 -1.1338e-41
0000d0 a7 0c 00 80 38 21 00 80 b1 16 00 80 50 15 00 80
       -4.539e-42 -1.1917e-41 -8.14e-42 -7.645e-42
0000e0 dd 24 00 80 3b 18 00 80 93 1e 00 80 5b 10 00 80
       -1.3224e-41 -8.692e-42 -1.0968e-41 -5.867e-42
0000f0 a4 22 00 80 e6 06 00 80 49 15 00 80 76 0b 00 80
       -1.2427e-41 -2.475e-42 -7.636e-42 -4.111e-42

linear3.weight f4 [32, 64]
000000 e1 10 00 00 43 06 00 80 43 0f 00 80 02 06 00 00
       6.055e-42 -2.246e-42 -5.475e-42 2.155e-42
000010 2f 1d 00 00 ca 1d 00 80 af 01 00 00 c5 20 00 80
       1.0469e-41 -1.0686e-41 6.04e-43 -1.1755e-41
000020 94 11 00 80 c9 08 00 00 ff 21 00 00 a2 11 00 80
       -6.306e-42 3.152e-42 1.2196e-41 -6.325e-42
000030 2c 1a 00 00 07 15 00 80 85 20 00 80 63 24 00 80
       9.389e-42 -7.543e-42 -1.1666e-41 -1.3053e-41
000040 7b 0c 00 00 09 06 00 00 b7 00 00 80 d9 24 00 80
       4.477e-42 2.165e-42 -2.56e-43 -1.3218e-41
000050 fa 13 00 00 b9 14 00 00 0d 11 00 00 70 14 00 80
       7.166e-42 7.434e-42 6.117e-42 -7.332e-42
000060 4e 21 00 80 72 0b 00 00 70 22 00 80 07 24 00 00
       -1.1947e-41 4.106e-42 -1.2354e-41 1.2924e-41
000070 32 0a 00 80 7b 0c 00 00 a1 0f 00 00 00 17 00 80
       -3.657e-42 4.477e-42 5.607e-42 -8.251e-42
000080 71 0a 00 00 41 17 00 00 81 19 00 80 a6 10 00 80
       3.746e-42 8.342e-42 -9.149e-42 -5.972e-42
000090 a2 25 00 80 d3 02 00 80 c6 0f 00 00 9d 24 00 00
       -1.35e-41 -1.013e-42 5.658e-42 1.3134e-41
0000a0 90 1c 00 80 d1 11 00 80 50 1a 00 80 3d 20 00 80
       -1.0246e-41 -6.391e-42 -9.439e-42 -1.1565e-41
0000b0 b8 25 00 80 17 0f 00 00 9e 0b 00 80 c3 17 00 00
       -1.3531e-41 5.413e-42 -4.167e-42 8.524e-42
0000c0 43 1c 00 80 da 03 00 00 07 0b 00 00 22 1f 00 80
       -1.0138e-41 1.382e-42 3.956e-42 -1.1168e-41
0000d0 d5 13 00 00 c2 17 00 80 5a 10 00 80 41 22 00 80
       7.114e-42 -8.523e-42 -5.866e-42 -1.2288e-41
0000e0 67 19 00 00 de 0c 00 80 b1 16 00 80 c8 0e 00 00
       9.113e-42 -4.616e-42 -8.14e-42 5.303e-42
0000f0 6c 1a 00 00 d1 02 00 80 49 0e 00 00 4c 0f 00 80
       9.478e-42 -1.01e-42 5.125e-42 -5.487e-42
000100 23 0a 00 80 25 14 00 80 c7 13 00 80 89 19 00 00
       -3.636e-42 -7.226e-42 -7.095e-42 9.16e-42
000110 15 18 00 80 30 09 00 00 d1 16 00 00 90 09 00 00
       -8.639e-42 3.296e-42 8.185e-42 3.43e-42
000120 af 13 00 80 0d 18 00 00 64 15 00 00 e2 24 00 80
       -7.061e-42 8.628e-42 7.674e-42 -1.3231e-41
000130 bb 15 00 00 d5 1e 00 00 ba 22 00 80 e9 0d 00 00
       7.795e-42 1.106e-41 -1.2458e-41 4.99e-42
000140 3d 0f 00 00 bb 26 00 80 62 00 00 80 72 25 00 80
       5.466e-42 -1.3894e-41 -1.37e-43 -1.3433e-41
000150 b9 16 00 80 26 04 00 00 9b 0d 00 80 a4 20 00 80
       -8.151e-42 1.488e-42 -4.881e-42 -1.1709e-41
000160 67 0d 00 00 34 09 00 00 81 02 00 00 b8 0b 00 80
       4.808e-42 3.301e-42 8.98e-43 -4.204e-42
000170 70 21 00 80 39 11 00 80 67 26 00 00 3d 16 00 00
       -1.1995e-41 -6.178e-42 1.3776e-41 7.978e-42
000180 6d 19 00 80 90 1c 00 80 b5 16 00 00 c6 24 00 80
       -9.121e-42 -1.0246e-41 8.146e-42 -1.3192e-41
000190 e1 22 00 80 de 0f 00 00 e8 10 00 80 67 0f 00 00
       -1.2512e-41 5.692e-42 -6.065e-42 5.525e-42
0001a0 44 05 00 80 14 17 00 00 fc 09 00 00 0c 0b 00 80
       -1.889e-42 8.279e-42 3.582e-42 -3.963e-42
0001b0 c7 07 00 00 f3 22 00 80 01 13 00 80 17 09 00 80
       2.79e-42 -1.2537e-41 -6.817e-42 -3.261e-42
0001c0 1a 17 00 80 c9 0e 00 00 6a 0d 00 00 19 0d 00 00
       -8.287e-42 5.304e-42 4.812e-42 4.699e-42
0001d0 19 1f 00 80 24 0b 00 80 44 0f 00 00 7e 06 00 80
       -1.1156e-41 -3.997e-42 5.476e-42 -2.329e-42
0001e0 ae 13 00 80 6f 17 00 00 43 19 00 80 4c 0c 00 00
       -7.06e-42 8.406e-42 -9.062e-42 4.411e-42
0001f0 14 16 00 80 62 1d 00 00 84 1b 00 80 8f 13 00 00
       -7.92e-42 1.054e-41 -9.871e-42 7.016e-42
000200 31 1e 00 00 43 09 00 00 83 15 00 00 8c 20 00 00
       1.083e-41 3.322e-42 7.717e-42 1.1676e-41
000210 31 0b 00 00 2e 24 00 80 71 0b 00 80 02 1a 00 80
       4.015e-42 -1.2979e-41 -4.104e-42 -9.33e-42
000220 de 1a 00 80 b2 10 00 00 e9 24 00 80 ce 26 00 80
       -9.638e-42 5.989e-42 -1.3241e-41 -1.392e-41
000230 b9 0f 00 00 f0 1d 00 00 f8 14 00 80 0e 26 00 80
       5.64e-42 1.074e-41 -7.522e-42 -1.3651e-41
000240 c6 0a 00 80 14 0e 00 00 ee 22 00 80 eb 05 00 80
       -3.865e-42 5.05e-42 -1.253e-41 -2.123e-42
000250 ba 0b 00 80 28 15 00 80 95 0c 00 80 1b 0a 00 80
       -4.207e-42 -7.59e-42 -4.514e-42 -3.625e-42
000260 0e 1f 00 80 4e 26 00 80 63 1d 00 80 a3 19 00 00
       -1.114e-41 -1.3741e-41 -1.0542e-41 9.197e-42
000270 29 13 00 80 0a 19 00 80 59 13 00 80 4f 0e 00 80
       -6.873e-42 -8.982e-42 -6.94e-42 -5.133e-42
000280 4a 1a 00 00 98 21 00 80 cd 07 00 00 66 25 00 80
       9.431e-42 -1.2051e-41 2.798e-42 -1.3416e-41
000290 eb 00 00 80 4d 11 00 80 7d 26 00 80 3d 1e 00 00
       -3.3e-43 -6.206e-42 -1.3807e-41 1.0847e-41
0002a0 bc 19 00 00 67 0b 00 00 96 24 00 80 1e 1a 00 00
       9.232e-42 4.09e-42 -1.3125e-41 9.369e-42
0002b0 0c 16 00 00 29 1a 00 80 88 1f 00 80 a0 0f 00 00
       7.909e-42 -9.384e-42 -1.1311e-41 5.605e-42
0002c0 91 0b 00 80 93 1a 00 80 a9 0a 00 80 1a 1f 00 00
       -4.149e-42 -9.533e-42 -3.824e-42 1.1157e-41
0002d0 70 0b 00 00 c1 12 00 00 a1 1c 00 80 9b 03 00 00
       4.103e-42 6.728e-42 -1.027e-41 1.293e-42
0002e0 22 23 00 80 e6 0c 00 80 53 18 00 80 72 10 00 80
       -1.2603e-41 -4.627e-42 -8.726e-42 -5.9e-42
0002f0 b8 0b 00 80 80 08 00 80 6d 13 00 80 a5 07 00 00
       -4.204e-42 -3.049e-42 -6.969e-42 2.742e-42
000300 05 10 00 80 a1 18 00 00 84 24 00 80 17 10 00 80
       -5.747e-42 8.835e-42 -1.31e-41 -5.772e-42
000310 e5 21 6f 3e 15 01 00 80 b0 08 00 80 07 0a 00 80
       0.23352773 -3.88e-43 -3.116e-42 -3.597e-42
000320 75 23 00 80 93 21 00 80 c4 1b 00 80 89 17 00 80
       -1.272e-41 -1.2044e-41 -9.96e-42 -8.443e-42
000330 9e 16 00 80 b0 14 00 80 af 1f 54 37 4a 08 00 80
       -8.114e-42 -7.421e-42 1.2643562e-05 -2.974e-42
000340 33 1e 00 00 3d 12 00 00 7a d1 7f 3e 58 1b 00 80
       1.0833e-41 6.543e-42 0.24982253 -9.809e-42
000350 90 e4 52 3e 09 ab 91 3e a3 21 00 80 d1 57 24 be
       0.20595002 0.28450802 -1.2067e-41 -0.16049124
000360 1e 20 00 80 51 0d 00 00 15 0a 00 80 94 1c 00 00
       -1.1521e-41 4.777e-42 -3.617e-42 1.0252e-41
000370 05 01 03 be bd 0e 00 80 86 0d 00 00 e4 a9 a6 3d
       -0.12793358 -5.287e-42 4.851e-42 0.08137873
000380 55 14 00 80 23 0f 00 00 e2 1c 00 80 b6 2e dd 3d
       -7.294e-42 5.43e-42 -1.0361e-41 0.10799925
000390 6a 14 00 80 8c 0a 00 80 a2 25 00 00 98 1f 00 00
       -7.323e-42 -3.784e-42 1.35e-41 1.1334e-41
0003a0 b9 26 00 80 39 16 00 80 06 0e 00 00 cf 05 00 00
       -1.3891e-41 -7.972e-42 5.03e-42 2.084e-42
0003b0 9d 23 00 80 bd 16 00 80 9d 8a 9d 3e 79 18 00 00
       -1.2776e-41 -8.157e-42 0.30769816 8.779e-42
0003c0 4f 39 47 37 83 03 00 00 02 17 00 80 d9 1f 00 80
       1.18746675e-05 1.26e-42 -8.254e-42 -1.1425e-41
0003d0 5d 23 00 80 6a 07 00 00 28 14 00 80 68 0c 00 00
       -1.2686e-41 2.66e-42 -7.23e-42 4.45e-42
0003e0 81 24 00 80 a5 1f 00 00 a8 1e 00 80 52 23 00 80
       -1.3095e-41 1.1352e-41 -1.0997e-41 -1.267e-41
0003f0 5a 04 00 80 bc 12 00 00 c2 25 00 00 b1 26 00 80
       -1.561e-42 6.72e-42 1.3545e-41 -1.388e-41

linear3.bias f4 [32]
000000 3c 20 00 80 43 08 00 80 4b 16 00 80 07 69 c2 3d
       -1.1564e-41 -2.964e-42 -7.997e-42 0.094926886
000010 4e a7 ff 3d 43 dd 84 3d 69 1f 00 80 71 ac 2e b7
       0.12483083 0.06487515 -1.1268e-41 -1.0411358e-05
000020 29 13 00 80 0e b4 13 3d a3 b8 e1 b5 8e 75 82 3c
       -6.873e-42 0.036060385 -1.6817543e-06 0.015925195
000030 2a ee 2e 3f 28 8a 74 3d 3a 16 00 80 b1 d2 3c 3c
       0.6833216 0.05970207 -7.973e-42 0.011524842
000040 e1 d4 c7 3b de 25 00 80 68 23 00 80 d6 0c 00 80
       0.006098375 -1.3584e-41 -1.2701e-41 -4.605e-42
000050 5d b1 7d 3d a0 dc 2b 3d 17 3f 31 3e 0c 14 00 80
       0.061936725 0.04195845 0.17309223 -7.191e-42
000060 97 98 0f 3d e6 23 cf 3a 55 12 ec 3c 92 84 b3 3d
       0.03505763 0.0015803545 0.028817335 0.0876552
000070 d7 80 28 3d e3 6b 98 3c 04 14 00 80 56 c7 79 3d
       0.041138496 0.018606132 -7.18e-42 0.060981117

linear4.weight f4 [64, 96]
000000 49 0f 00 80 31 1b 00 80 88 14 00 00 f5 08 00 80
       -5.483e-42 -9.754e-42 7.365e-42 -3.213e-42
000010 cc 24 00 80 9c 11 00 80 02 0b 00 00 2a 25 00 80
       -1.32e-41 -6.317e-42 3.949e-42 -1.3332e-41
000020 fa 10 00 80 5d 23 00 80 d5 26 00 80 a5 1a 00 80
       -6.09e-42 -1.2686e-41 -1.393e-41 -9.558e-42
000030 93 0a 00 80 f8 1f 00 80 7a 05 00 00 76 0b 00 80
       -3.793e-42 -1.1468e-41 1.965e-42 -4.111e-42
000040 4f 16 00 80 6a 21 00 80 e5 04 00 00 a3 23 00 80
       -8.003e-42 -1.1987e-41 1.756e-42 -1.2784e-41
000050 48 18 00 80 1f 25 00 80 a0 0a 00 80 6e 20 00 80
       -8.71e-42 -1.3317e-41 -3.812e-42 -1.1634e-41
000060 55 12 00 80 eb 01 00 80 a7 10 00 80 8d 1e 00 80
       -6.576e-42 -6.88e-43 -5.974e-42 -1.096e-41
000070 fb 20 00 80 d5 1a 00 80 e0 0b 00 80 50 0c 00 80
       -1.1831e-41 -9.626e-42 -4.26e-42 -4.417e-42
000080 1b 0c 00 80 42 20 00 80 1a 25 00 80 8a 19 00 00
       -4.343e-42 -1.1572e-41 -1.331e-41 9.162e-42
000090 10 21 00 80 4f 0b 00 00 a4 05 00 00 7f 20 00 80
       -1.186e-41 4.057e-42 2.023e-42 -1.1657e-41
0000a0 8f 1c 00 80 14 12 00 80 8d 14 00 80 7b 12 00 00
       -1.0245e-41 -6.485e-42 -7.372e-42 6.63e-42
0000b0 a2 19 00 80 ea 1b 00 00 38 26 00 00 04 0d 00 00
       -9.195e-42 1.0014e-41 1.371e-41 4.669e-42
0000c0 45 25 00 80 f1 23 00 80 ac 09 00 80 10 09 00 80
       -1.337e-41 -1.2893e-41 -3.47e-42 -3.251e-42
0000d0 7a 1f 00 80 c1 22 00 80 d0 1a 00 80 8f 25 00 80
       -1.1292e-41 -1.2467e-41 -9.619e-42 -1.3473e-41
0000e0 ce 17 00 80 f7 0e 00 80 cf 1b 00 00 46 11 00 00
       -8.54e-42 -5.368e-42 9.976e-42 6.197e-42
0000f0 a6 12 00 80 2f 0e 00 80 47 11 00 80 78 17 00 80
       -6.69e-42 -5.088e-42 -6.198e-42 -8.419e-42
000100 97 1c 00 80 26 13 00 00 d5 12 00 00 fa 0d 00 00
       -1.0256e-41 6.869e-42 6.756e-42 5.014e-42
000110 89 0b 00 80 54 11 00 80 f9 0f 00 00 3e 12 00 80
       -4.138e-42 -6.216e-42 5.73e-42 -6.544e-42
000120 27 1e 00 00 10 1e 00 80 77 0e 00 80 3c 0d 00 00
       1.0817e-41 -1.0784e-41 -5.189e-42 4.748e-42
000130 8d 17 00 80 58 1d 00 00 5d 0d 00 80 f8 09 00 00
       -8.448e-42 1.0527e-41 -4.794e-42 3.576e-42
000140 23 25 00 80 07 22 00 80 8b 1c 00 80 09 0a 00 80
       -1.3322e-41 -1.2207e-41 -1.0239e-41 -3.6e-42
000150 78 0f 00 80 e4 13 00 80 c0 0d 00 80 af 1c 00 80
       -5.549e-42 -7.135e-42 -4.933e-42 -1.029e-41
000160 5d 13 00 80 b9 1d 00 80 eb 0d 00 80 c9 1d 00 80
       -6.946e-42 -1.0662e-41 -4.993e-42 -1.0685e-41
000170 53 13 00 80 46 1b 00 00 95 26 00 00 9f 09 00 80
       -6.932e-42 9.784e-42 1.384e-41 -3.451e-42
000180 19 13 00 80 6a 00 00 00 95 19 00 00 f2 3d 09 bd
       -6.851e-42 1.49e-43 9.177e-42 -0.03350634
000190 ab 3f 35 bd fa e1 1e bd 32 0d 00 00 57 97 07 32
       -0.04425017 -0.038789727 4.734e-42 7.892445e-09
0001a0 06 24 00 00 37 83 32 3e 02 55 54 ac 0c cb f5 bb
       1.2923e-41 0.17432867 -3.01742e-12 -0.0075010117
0001b0 53 53 99 3d e0 b3 9f bc 9d 09 00 80 6c b4 c8 bb
       0.07486596 -0.01949495 -3.449e-42 -0.0061250236
0001c0 ec eb 41 bb 58 26 00 80 f7 1e 00 80 79 22 00 80
       -0.0029590083 -1.3755e-41 -1.1108e-41 -1.2366e-41
0001d0 b2 a0 8f ba 3c 20 95 bc de 0f 9b 3c 92 1f 00 80
       -0.0010957925 -0.018203847 0.018928465 -1.1325e-41
0001e0 0a 03 6a bc 7b d5 30 bb a7 a4 4a bc d0 4e 63 bd
       -0.014282951 -0.0026982713 -0.012368358 -0.055495083
0001f0 bc 51 49 3e 85 30 00 bc 39 0e 00 00 60 15 d7 3d
       0.19660085 -0.007824068 5.102e-42 0.10502124
000200 de 0f 00 80 e4 09 00 00 91 0c 00 80 ba e4 c0 3d
       -5.692e-42 3.548e-42 -4.508e-42 0.09418626
000210 f3 7c ef 3d f5 ba ca 3d 2c 20 00 00 0e d9 66 31
       0.11693754 0.098989405 1.1541e-41 3.3592786e-09
000220 d7 23 00 00 f2 e0 fe bc 77 e6 4c 9b fd 00 f0 3c
       1.2857e-41 -0.031113122 -1.6948952e-22 0.029297346
000230 66 d2 ab 3d 42 7b 83 3d e9 1e 00 00 da 37 be 3c
       0.0838974 0.06419994 1.1088e-41 0.023219991
000240 3b a3 fe 3b 8c 24 00 00 d5 08 00 00 1c 24 00 80
       0.0077709234 1.311e-41 3.168e-42 -1.2954e-41
000250 7b 22 d0 3c f1 9a 92 3d df a6 57 bc f6 22 00 00
       0.025407067 0.07158459 -0.013162344 1.2542e-41
000260 b5 e3 50 3d 8b f5 af 3b aa 84 3c 3d c9 b2 04 3e
       0.05099841 0.005369847 0.046024956 0.12958826
000270 1c 72 0e bd f9 04 fb 3c 8b 0b 00 80 b7 e0 3c 3d
       -0.034776792 0.03064202 -4.141e-42 0.046112742
000280 45 11 00 80 31 25 00 00 7b 14 00 80 56 18 98 3d
       -6.195e-42 1.3342e-41 -7.347e-42 0.07426517
000290 3a 90 be 3d 81 3f 9f 3d 40 0a 00 00 b9 db 8b 31
       0.09304853 0.07775784 3.677e-42 4.070412e-09
0002a0 6c 11 00 00 0f 23 cd bc 2e 80 28 9b 1c 09 a6 3c
       6.25e-42 -0.025041131 -1.3938051e-22 0.020268016
0002b0 1c ec ac 3d b4 dc 4d 3d 25 0f 00 00 86 a1 73 3c
       0.08443472 0.050259307 5.433e-42 0.014870053
0002c0 ad 9c 2c 3b ca 13 00 00 a4 06 00 80 e0 19 00 80
       0.0026338503 7.099e-42 -2.382e-42 -9.282e-42
0002d0 9d 0b a4 3c 03 78 60 3d b8 ce 22 3b 35 17 00 80
       0.020025069 0.054801952 0.0024842452 -8.325e-42
0002e0 af 69 20 3d ac 64 87 3a 3c 82 0e 3d 7a a2 d2 3d
       0.039163288 0.0010329685 0.03479217 0.10284896
0002f0 e7 20 dc bc 16 45 b0 3c 81 1b 00 00 33 24 02 3d
       -0.026871158 0.021517318 9.867e-42 0.031772804
000300 38 06 00 00 38 0c 00 00 17 12 00 80 b1 18 00 80
       2.231e-42 4.383e-42 -6.49e-42 -8.858e-42
000310 0c 25 00 80 01 26 00 80 e9 03 00 00 2c 0f 00 00
       -1.329e-41 -1.3633e-41 1.403e-42 5.443e-42
000320 fb 20 00 80 45 18 00 80 12 1a 00 80 92 0e 00 80
       -1.1831e-41 -8.706e-42 -9.352e-42 -5.227e-42
000330 d3 1d 00 80 97 15 00 80 11 18 00 80 3e 1d 00 80
       -1.0699e-41 -7.745e-42 -8.633e-42 -1.049e-41
000340 e3 14 00 80 55 22 00 80 fd 23 00 80 da 04 00 80
       -7.493e-42 -1.2316e-41 -1.291e-41 -1.74e-42
000350 2e 24 00 80 00 11 00 80 9f 21 00 00 66 0d 00 00
       -1.2979e-41 -6.098e-42 1.2061e-41 4.806e-42
000360 1f 1e 00 80 2d 05 00 00 f2 21 00 80 d3 1d 00 80
       -1.0805e-41 1.857e-42 -1.2177e-41 -1.0699e-41
000370 2a 1c 00 80 a6 17 00 80 53 20 00 00 f2 24 00 80
       -1.0103e-41 -8.483e-42 1.1596e-41 -1.3253e-41
000380 6e 09 00 00 0c 08 00 80 17 12 00 00 e4 16 00 80
       3.383e-42 -2.887e-42 6.49e-42 -8.212e-42
000390 25 23 00 80 7d 09 00 80 06 15 00 00 08 22 00 80
       -1.2607e-41 -3.404e-42 7.542e-42 -1.2208e-41
0003a0 8e 0c 00 80 1d 13 00 80 e2 1e 00 80 ef 21 00 80
       -4.504e-42 -6.857e-42 -1.1079e-41 -1.2173e-41
0003b0 67 0e 00 00 dc 21 00 80 cf 1f 00 00 f0 09 00 80
       5.167e-42 -1.2146e-41 1.1411e-41 -3.565e-42
0003c0 7f 0e 00 00 91 1e 00 80 39 0d 00 80 f2 17 00 80
       5.2e-42 -1.0965e-41 -4.743e-42 -8.59e-42
0003d0 ae 20 00 80 c4 24 00 80 21 0e 00 00 3d 0b 00 00
       -1.1723e-41 -1.3189e-41 5.068e-42 4.032e-42
0003e0 2d 0c 00 80 10 1c 00 80 d3 08 00 80 94 17 00 80
       -4.368e-42 -1.0067e-41 -3.166e-42 -8.458e-42
0003f0 8f 19 00 80 bc 16 00 80 a8 01 00 00 2c 1d 00 80
       -9.169e-42 -8.156e-42 5.94e-43 -1.0465e-41

linear4.bias f4 [64]
000000 9e 21 00 80 4e af ef 3d 7d 10 00 80 6c 1a 00 80
       -1.206e-41 0.117033586 -5.915e-42 -9.478e-42
000010 86 bd a4 3d 22 02 11 b8 ae 2c 4f 3b 0c 13 00 80
       0.08043961 -3.457268e-05 0.0031612325 -6.833e-42
000020 72 03 00 80 c7 26 4e 3c b2 20 00 80 32 aa 3f 3d
       -1.236e-42 0.012582487 -1.1729e-41 0.04679317
000030 db 71 5e 3d 62 15 00 00 58 10 7c 3d 82 82 1f 3d
       0.0543078 7.671e-42 0.061539024 0.03894282
000040 2e 9f 59 3c d1 91 b3 3d 6c fd df b6 f7 f6 e1 3c
       0.01328258 0.08768047 -6.67542e-06 0.027583582
000050 8b ac 5f 3e ce a3 f8 36 fb 51 6a 3c b1 b1 bf 3b
       0.21843164 7.4100453e-06 0.014301772 0.00585004
000060 c6 df 69 3b 9f 10 00 80 03 12 00 80 98 0a cd 3c
       0.0035686358 -5.963e-42 -6.461e-42 0.025029466
000070 bb 25 00 80 87 0c 16 3b 5f d5 3b 3d 00 07 2f 3d
       -1.3535e-41 0.002289565 0.045857783 0.042731285
000080 23 ec 59 3d 80 09 00 00 a3 65 db 3c 8e 0a 00 80
       0.053203713 3.408e-42 0.026781863 -3.786e-42
000090 83 62 ab 3d 1c c4 10 3c ca 09 ab 3c 72 ef 99 3c
       0.08368399 0.008835819 0.020878691 0.018790934
0000a0 a7 24 00 80 64 84 09 3d b0 f9 84 3c f5 85 03 3d
       -1.3148e-41 0.033573523 0.016232342 0.032110173
0000b0 90 c4 26 3d 40 d0 5b 3c 82 25 7c 3d aa ac c8 3d
       0.0407148 0.01341635 0.061559208 0.09798558
0000c0 72 8c 9c 3c 3e 8a 54 3d 62 d7 fa 3a 34 12 00 80
       0.019109938 0.05188965 0.0019137675 -6.53e-42
0000d0 a2 16 00 80 4a 20 1c 3e a1 17 3b 3d d8 0e 00 80
       -8.119e-42 0.15246692 0.04567683 -5.325e-42
0000e0 c6 d3 a8 3b 02 1a 00 80 e3 77 8d 3c 02 41 3a 3c
       0.0051521985 -9.33e-42 0.01726908 0.011368038
0000f0 d2 5d 81 ba 63 ac 19 3d dd c5 3d ba 66 1a 8e b3
       -0.000986988 0.037517916 -0.0007239262 -6.617192e-08

linear5.weight f4 [16, 64]
000000 34 11 00 00 c5 f4 76 3e 5e 18 00 80 e7 14 00 00
       6.171e-42 0.2411681 -8.741e-42 7.498e-42
000010 72 b6 a5 bd 16 02 e1 34 d0 95 39 bb 77 09 00 80
       -0.08091439 4.1911034e-07 -0.0028318055 -3.395e-42
000020 a6 25 00 80 b9 73 d0 bc b1 19 00 00 c8 66 31 3e
       -1.3506e-41 -0.025445806 9.216e-42 0.17324364
000030 b3 52 26 be 21 21 00 00 12 bf 6c 3e ff 92 8a bd
       -0.16242485 1.1884e-41 0.23119763 -0.067663185
000040 7e 29 44 bc a7 c0 b3 bd 2a ac 98 b5 b7 b1 0c bd
       -0.011972783 -0.0877698 -1.1374989e-06 -0.03434917
000050 f4 d9 e2 3e 11 28 e9 37 d1 87 50 bc a0 d6 5c 3d
       0.4430691 2.7794422e-05 -0.012727694 0.05391562
000060 50 9f 05 3d c2 17 00 00 9d 10 00 00 06 55 01 3e
       0.032622635 8.523e-42 5.96e-42 0.1263009
000070 48 16 00 00 83 cd 9a ba 39 4d 1e be 0b fd 0e 3e
       7.993e-42 -0.0011810515 -0.15459146 0.13963716
000080 47 a2 25 3e fe 25 00 00 5d 88 aa 3c 33 0e 00 80
       0.16175185 1.3629e-41 0.020816976 -5.094e-42
000090 e1 79 86 3e bf fa da 3b b6 64 a9 3d 38 f3 9b bc
       0.2626486 0.0066827233 0.08271162 -0.019036874
0000a0 84 0e 00 00 8c 57 5a bd bb 15 c2 bd 92 74 b6 3d
       5.207e-42 -0.053306147 -0.09476801 0.08908953
0000b0 13 4c ad bd 2f 0f b7 3d 58 49 5a 3e 3b 4c 8a 3e
       -0.08461776 0.08938443 0.21317041 0.27011284
0000c0 6c 80 20 be 33 d5 3f 3e 20 aa e2 3b f2 15 00 80
       -0.15673989 0.18733673 0.006917253 -7.872e-42
0000d0 ea 1f 00 00 3c af b2 3e 3d 31 36 be f8 16 00 00
       1.1449e-41 0.34899318 -0.1779222 8.24e-42
0000e0 9e af a9 bd 9e 21 00 80 4e 87 43 3c 81 d2 ec bc
       -0.082854494 -1.206e-41 0.011934115 -0.02890897
0000f0 c9 8e fd ba 9a c2 b4 bd e5 b1 e2 3b 9f c5 9d b9
       -0.0019344921 -0.0882618 0.0069181793 -0.00030092613
000100 a7 0a 00 80 4b ba 56 3d 20 09 00 80 ef 21 00 80
       -3.821e-42 0.052423757 -3.273e-42 -1.2173e-41
000110 da fd 86 bc 41 51 f7 33 44 f6 85 b8 1f 10 00 80
       -0.016478468 1.1516614e-07 -6.387805e-05 -5.783e-42
000120 ef 03 00 00 45 bb 1f bb 95 24 00 00 0e 80 1d 3d
       1.411e-42 -0.0024373096 1.3123e-41 0.0384522
000130 78 8c 28 bd 85 12 00 80 ae c6 55 3d c4 be 9a bc
       -0.041149586 -6.644e-42 0.05219143 -0.018889792
000140 3c 71 f6 ba 9b 0c a0 bc 5c 38 95 34 20 44 2e bc
       -0.0018802057 -0.01953726 2.779442e-07 -0.010636359
000150 e0 e1 e7 3d 6e df d4 36 79 9b f8 ba 25 26 2d 3c
       0.11322379 6.344103e-06 -0.0018967233 0.010568176
000160 17 67 b1 3b 32 0b 00 80 13 15 00 00 42 91 e6 3c
       0.0054139006 -4.016e-42 7.56e-42 0.028145436
000170 e6 07 00 00 e2 4a 87 bb 10 98 18 bd 1b 2d f6 3c
       2.833e-42 -0.0041288 -0.037254393 0.030050805
000180 ed cc 10 3d e5 20 00 80 e0 54 88 3b 1f 1a 00 80
       0.035351682 -1.18e-41 0.0041605085 -9.37e-42
000190 af e7 7a 3d 49 f6 0a bb e9 56 89 3c f8 87 c2 bb
       0.061256107 -0.0021203926 0.016765075 -0.005936619
0001a0 d9 12 00 00 c0 75 79 bc 79 c2 aa bc 65 58 91 3c
       6.761e-42 -0.015225828 -0.020844685 0.017742345
0001b0 16 26 b6 bc 9b 0b 99 3c 48 9a 44 3d 1c 6f 80 3d
       -0.022234958 0.018682292 0.047998697 0.062711924
0001c0 fb eb fe bc c5 6a 29 3d f6 0a e4 3a 0b 18 00 80
       -0.031118384 0.04136159 0.0017398286 -8.625e-42
0001d0 09 07 00 80 a3 3b a6 3d ad 1a 31 bd aa 1a 00 80
       -2.524e-42 0.081168436 -0.04323833 -9.565e-42
0001e0 48 8f 9f bb f7 0d 00 00 20 b5 6c 3b 1c 04 97 bb
       -0.0048693754 5.01e-42 0.00361187 -0.004608644
0001f0 f8 44 1a bb 94 c5 b9 bc 88 1d ff 38 6f e2 32 b5
       -0.0023539644 -0.02267722 0.00012164848 -6.663967e-07
000200 e0 0d 00 00 47 2f fa 3d ff 14 00 80 0e 1f 00 00
       4.977e-42 0.12216049 -7.532e-42 1.114e-41
000210 30 03 9c 3e 8c 05 4d 39 4f 99 93 3b 54 09 00 80
       0.30471182 0.0001955239 0.00450436 -3.346e-42
000220 7b 0f 00 00 dd be 8e bc d7 13 00 80 49 82 3f bc
       5.553e-42 -0.017424995 -7.117e-42 -0.011688777
000230 87 12 aa bc 66 1a 00 00 15 eb 38 bb c6 3a 19 bc
       -0.020760788 9.47e-42 -0.0028216292 -0.009352392
000240 6e 2f 49 3d b4 de a5 3e 6c 77 d6 38 f7 f4 a0 bb
       0.049117498 0.32396472 0.00010226559 -0.0049120146
000250 09 c2 d0 bc ae 54 db 34 b7 09 59 3d 31 3b 31 bb
       -0.025483148 4.085354e-07 0.05298778 -0.0027043337
000260 b8 04 c5 ba 5e 25 00 00 4d 10 00 80 e3 87 c0 bb
       -0.0015031314 1.3405e-41 -5.848e-42 -0.005875574
000270 ff 17 00 80 be 6f 8a bb 55 e2 90 bc 33 8d 47 bc
       -8.608e-42 -0.0042247465 -0.017686049 -0.012179661
000280 2f 4d 77 bc dd 1e 00 00 f5 06 9e bb 24 02 00 00
       -0.015094086 1.1072e-41 -0.0048226067 7.68e-43
000290 4d 35 5f bc 36 a6 e4 3c fe 10 d4 bb 4f 08 28 bb
       -0.013623548 0.027911287 -0.006471752 -0.0025639718
0002a0 95 17 00 00 bd 49 ee bb b8 4f 78 bc ef 3d 20 bc
       8.46e-42 -0.007271974 -0.015155725 -0.009780391
0002b0 44 c0 34 bc f6 b1 98 bb 66 1a 5d bc 6e da 72 bc
       -0.011032168 -0.0046598865 -0.013495063 -0.0148225855
0002c0 3e 5a b9 3d 05 fa 29 bc f7 b7 c8 39 4e 17 00 80
       0.090504155 -0.010374551 0.00038284037 -8.36e-42
0002d0 c2 13 00 80 fc 8d 5b bc 01 5c a9 bc 3e 11 00 80
       -7.088e-42 -0.013400551 -0.020673754 -6.185e-42
0002e0 4c a6 9a bc 7f 0b 00 00 36 61 09 bb d0 7b 83 bc
       -0.018878125 4.124e-42 -0.0020962483 -0.01605025
0002f0 7b 1f 00 00 ab 7d 36 bc b0 e2 80 8e 6b 64 3e ac
       1.1293e-41 -0.01113836 -3.177273e-30 -2.7056367e-12
000300 33 0b 00 00 08 1a 94 bd 8b 25 00 80 b7 1c 00 80
       4.018e-42 -0.072315276 -1.3468e-41 -1.0301e-41
000310 04 45 1f bd 28 55 3d 35 67 ee 89 3b a5 09 00 80
       -0.038884178 7.0531905e-07 0.004209328 -3.46e-42
000320 5e 20 00 80 e3 45 24 bd 3f 19 00 80 68 03 83 3c
       -1.1611e-41 -0.04010571 -9.057e-42 0.015992835
000330 27 6e d2 3e da 09 00 00 e2 92 70 bd e1 e1 40 3e
       0.41099665 3.534e-42 -0.05873383 0.18836166
000340 7f b8 d7 bb d8 fa 1f bd dd 88 63 35 db af d6 3d
       -0.006583273 -0.039057583 8.476325e-07 0.104827605
000350 be 95 6c 3b bf 62 86 36 71 65 e3 bb 12 9c 17 3b
       0.0036099995 4.0050068e-06 -0.006939583 0.0023133797
000360 17 6b a8 3b cb 0d 00 00 a5 16 00 80 f6 0e 80 bc
       0.005139719 4.948e-42 -8.123e-42 -0.015632134
000370 b6 0f 00 00 11 7c af bb 98 8d b8 3e 8a dc 77 3d
       5.636e-42 -0.005355366 0.36045527 0.060513057
000380 1e 46 9b 3d f0 23 00 00 b2 07 84 3d a1 23 00 80
       0.07581733 1.2892e-41 0.0644678 -1.2781e-41
000390 7c 29 72 bc 09 f4 14 bc 85 c6 05 3d 94 8a 7f 3d
       -0.014780398 -0.009091386 0.032660026 0.062388018
0003a0 58 11 00 80 64 53 19 3e 64 9c 21 3e 0d 43 87 3d
       -6.222e-42 0.14973217 0.15782315 0.06604586
0003b0 7b 8b 61 3e de 60 46 ba 50 ce dd bb b1 cd 22 bc
       0.22025864 -0.0007567535 -0.006768979 -0.009936736
0003c0 d3 57 9f 3d b8 f3 60 ba 3e 5c 44 3a 71 22 00 00
       0.07780423 -0.0008581239 0.0007490552 1.2355e-41
0003d0 e8 04 00 00 1d 8b 77 bd 3a b6 d6 3e b2 23 00 80
       1.76e-42 -0.060435403 0.41935903 -1.2805e-41
0003e0 ad 92 7d bd c8 0b 00 80 1f d0 29 3d af 31 12 bd
       -0.06190746 -4.226e-42 0.041458245 -0.035691913
0003f0 51 59 a1 3a 19 ae 64 3e 38 74 0f 3c 7b 83 46 39
       0.0012309944 0.22332038 0.008755736 0.00018931732

linear5.bias f4 [16]
000000 f0 66 50 3e 9b 6e cc 3c a8 ce 49 3d 47 5f c2 3d
       0.20351768 0.024955085 0.04926935 0.09490829
000010 44 57 29 3c b0 c6 c7 3d 54 73 19 3e 7a 82 99 3c
       0.010335747 0.097546935 0.149854 0.018738974
000020 ab 5c de 3d eb 22 00 80 59 88 b7 3c 33 05 a5 3d
       0.10857519 -1.2526e-41 0.022403883 0.08057632
000030 b3 03 ab 3d a6 17 00 80 ad c5 a1 3d a1 ac 6c 3c
       0.08350315 -8.483e-42 0.07899032 0.014445455

linear6.weight f4 [4, 16]
000000 15 89 5c 3f 29 da 5e 3e ed 75 15 be 9c d9 97 be
       0.8614667 0.21762909 -0.14595766 -0.2965821
000010 01 f8 1c bd 4c 24 7f be 00 3f 35 3f 48 2a 39 bd
       -0.038322452 -0.2491619 0.70799255 -0.04520634
000020 ff f9 8b be 32 18 00 00 0b c2 08 be 36 3c 73 be
       -0.2733917 8.68e-42 -0.13355272 -0.23753437
000030 c9 7b ee 3e 7e 1e 00 00 9e 63 6e be 35 a0 94 be
       0.46578816 1.0939e-41 -0.23280188 -0.29028478
000040 16 64 68 be 17 d0 a9 bc 5b c1 07 be fc 67 54 be
       -0.2269443 -0.020729108 -0.13257353 -0.20742792
000050 26 d0 16 3e af a9 59 be 77 6f 6d be a9 1c a0 3e
       0.1472784 -0.21256135 -0.23187052 0.31271866
000060 12 3e 78 be 8b 1a 00 00 1c 27 cd 3e df 37 5b be
       -0.24242428 9.522e-42 0.400689 -0.21408032
000070 8c 62 06 be ac 1d 00 80 ed fa 56 be 80 fa 35 3f
       -0.1312353 -1.0644e-41 -0.20994158 0.7108536
000080 42 4f 78 be 02 89 5c bd 65 f4 d7 3e 9c 93 4d be
       -0.24248984 -0.0538416 0.42178646 -0.2007584
000090 29 1d 1b bd 40 2e 4e be 49 83 51 be be 30 9e bd
       -0.037869606 -0.2013483 -0.20460238 -0.077241406
0000a0 0e 8e 6a be c1 1a 00 00 64 17 c5 bd a9 14 30 3f
       -0.22905752 9.597e-42 -0.09623602 0.68781525
0000b0 85 59 01 be 13 0f 00 00 74 a2 2c 3f c4 a5 15 be
       -0.12631805 5.408e-42 0.67435384 -0.14614016
0000c0 66 7e c3 be 3b d3 b1 bd 9f 88 11 be d3 96 39 3f
       -0.38182372 -0.08682867 -0.14212273 0.72495764
0000d0 7f de 3a bd d4 6c 33 3f f0 bb 61 be f9 1c f3 bd
       -0.045622345 0.70087934 -0.22044349 -0.118707605
0000e0 bd c9 49 3f 27 0f 00 00 af 93 1f be aa 70 6b be
       0.78823453 5.436e-42 -0.1558368 -0.22992197
0000f0 8b 14 24 be 88 14 00 00 a7 e0 66 be 4a b6 27 be
       -0.16023462 7.365e-42 -0.22546636 -0.16378132

linear6.bias f4 [4]
000000 25 44 e5 3d e9 e5 91 bd 6a 03 e0 3b a4 ba 97 3d
       0.11194638 -0.0712393 0.0068363445 0.07408646
