checkpoints/dnn_9.pt (torch, 257573 bytes, 12 tensors)

linear1.weight f4 [128, 358]
0	0xbc58181e	-0.013189344
1	0x3bb8a1ae	0.005634508
2	0xbcaecdc9	-0.02133836
3	0x3ce0123d	0.027352447
4	0x3d7cf4d5	0.061756928
5	0x3d9a31f0	0.07529056
6	0x3c52887b	0.012849922
7	0x3d708558	0.058720917
8	0x3d730f93	0.059341025
9	0x3c13784b	0.009000848
10	0xba88fd7b	-0.001045152
11	0x3b88d7e5	0.0041761273
12	0xbd1ad6e8	-0.037802607
13	0x3c9c5f8f	0.019088535
14	0x3d202a16	0.039102636
15	0x3d1b354c	0.037892625
16	0x3de4d41c	0.11173269
17	0x3ca16e01	0.019705774
18	0x3dd9bb8a	0.10631473
19	0xbd89e476	-0.067330286
20	0xbc714464	-0.014725778
21	0xbe1ad8ee	-0.15121815
22	0x3c65ec4f	0.014033391
23	0x3ac37470	0.001491202
24	0x3cc0e3ed	0.023546183
25	0x3d88acbb	0.06673571
26	0x3cb2cd59	0.021826433
27	0x3c6ea17a	0.014564866
28	0x39eb8c0f	0.00044927045
29	0x3ed836fe	0.42229456
30	0xbe110a5e	-0.14164111
31	0x3e0192a3	0.12653594
32	0x3c4ec6b6	0.012620619
33	0xbb6cff47	-0.00361629
34	0xbd35e743	-0.04441
35	0x3db1d262	0.086827055
36	0x3dafab8c	0.08577642
37	0xbe03dbfd	-0.12876888
38	0xbd176165	-0.036958117
39	0xbd2e536f	-0.042560037
40	0x3c85bbe1	0.01632494
41	0xbd988de1	-0.07448936
42	0xbd0eb322	-0.034838803
43	0xbd4604f2	-0.04834456
44	0x3e61cec8	0.22051537
45	0xbbb495d8	-0.005511027
46	0x3ccc6407	0.02495004
47	0xbe0fd573	-0.14046268
48	0xbba76912	-0.005108961
49	0xbd1e686a	-0.038673796
50	0x3caee8be	0.021351214
51	0xbd80d63f	-0.06290864
52	0x3db78b3c	0.08962104
53	0xbce8b446	-0.028406274
54	0xbd9119a8	-0.07084972
55	0x3d1ad602	0.03780175
56	0x3ca4d3c0	0.020120502
57	0xbd7238ff	-0.059136387
58	0x3c576115	0.013145705
59	0x3d58f236	0.052965365
60	0xbb96bcce	-0.004600144
61	0xba4d5265	-0.0007832407
62	0xbc3930e4	-0.01130316
63	0x3c01e4ec	0.007928114
64	0xbbe3a0dc	-0.006946666
65	0xbca3ad75	-0.019980172
66	0xbc997ffa	-0.018737782
67	0xb885b016	-6.374733e-05
68	0xbd2caac3	-0.04215504
69	0x3cbcdbf8	0.023054108
70	0x3da73626	0.08164625
71	0xbcd3231f	-0.025773583
72	0xbd2f9bf0	-0.042873323
73	0xba683001	-0.0008857251
74	0xbc740abe	-0.014895139
75	0xbc6ff482	-0.014645698
76	0x3c314c38	0.010821395
77	0xbc6e325b	-0.014538373
78	0x3cdb9de7	0.026808692
79	0x3c10a768	0.008828975
80	0x3d6b531a	0.0574523
81	0xbd0d8be9	-0.034557257
82	0x3d0d1be1	0.034450416
83	0x3c5aed0e	0.013362182
84	0xbc3a7077	-0.011379353
85	0xbc8b27be	-0.016986724
86	0xbba0e5ff	-0.00491023
87	0x3c77bd02	0.015120747
88	0x3c79f827	0.015256918
89	0xbca1e49c	-0.01976233
90	0xbbebcc55	-0.007195989
91	0x3ce42051	0.02784744
92	0x3d435437	0.047687735
93	0xbc41e807	-0.011835105
94	0x3bf23ef0	0.0073927566
95	0x3d46ab2b	0.048503082
96	0xbd308ac5	-0.04310109
97	0xbdbfbc67	-0.09362107
98	0xbdc1fb34	-0.09471741
99	0x3c3cf335	0.011532594
100	0xbbc44001	-0.005989075
101	0xbc5bf4cc	-0.013425063
102	0x3cc676a7	0.0242265
103	0x3db4cd36	0.088282034
104	0xbe43a4f7	-0.19105898
105	0xbde3076c	-0.110854
106	0xbe83add9	-0.25718573
107	0x3e35889c	0.17727894
108	0x3d330e10	0.043714583
109	0xbdf238e0	-0.11827254
110	0x3c8851d4	0.016640581
111	0x3e204655	0.1565183
112	0xbc3991df	-0.011326282
113	0xbd35778a	-0.044303454
114	0xbd7a2412	-0.061069556
115	0x3e05d44f	0.1306927
116	0xbc6ec9a6	-0.014574444
117	0x3d0cecd2	0.034405537
118	0x3dfa0d50	0.122095704
119	0x3dd0d260	0.10196376
120	0xbd1c6b56	-0.0381883
121	0x3d13d78b	0.03609423
122	0xbe37885d	-0.17923112
123	0x3d86b3a4	0.065772325
124	0xbc1b3753	-0.00947364
125	0x3d0c7c91	0.034298483
126	0xbd09ca7a	-0.033640362
127	0xbd97153b	-0.07377096
128	0xbd8cbf01	-0.068723686
129	0x3b9ec7d1	0.0048455973
130	0x3d84f5bb	0.06492182
131	0x3c95e3de	0.018297132
132	0x3a8073c6	0.0009800128
133	0xba5361de	-0.00080635946
134	0x3d407d9a	0.046994783
135	0x3d46cfc9	0.048538003
136	0x3b71d7d7	0.0036902332
137	0x3c9547eb	0.01822277
138	0x3be89e8f	0.00709898
139	0x3d7fed24	0.062482014
140	0x3dd381d3	0.103274964
141	0x3d80611c	0.06268522
142	0x3d94d7f8	0.07267755
143	0x3db4cbfb	0.08827969
144	0xbdb3cff7	-0.087799005
145	0x3d38394c	0.044976518
146	0xbd1c18f4	-0.038109735
147	0x3dea794c	0.11448917
148	0x3d20d05c	0.039261207
149	0x3d082ea6	0.033247612
150	0x3e1f35d2	0.15547875
151	0x3ddb26c3	0.107007526
152	0x3d2ee3c9	0.0426977
153	0xbc003680	-0.007825494
154	0x3dd4281d	0.103592135
155	0xbbaa3bb5	-0.005195106
156	0xbd828d5d	-0.06374619
157	0xbc94b1f5	-0.018151263
158	0x3dc6704b	0.09689387
159	0xbd30673b	-0.0430672
160	0x3d3a4238	0.045473307
161	0xbd427cc5	-0.04748227
162	0xbd61d0d7	-0.055130806
163	0x3c943028	0.018089369
164	0xbba17302	-0.00492704
165	0xbcb13270	-0.021630496
166	0x3d5a3684	0.053274646
167	0xbc4870fa	-0.012233967
168	0xbb955f8b	-0.0045585088
169	0xbbb2ad62	-0.0054527977
170	0xba8ec793	-0.0010893218
171	0x3c4ed3be	0.012623725
172	0xbc30d06a	-0.010791877
173	0xbc882b7b	-0.016622296
174	0x3c04ae9d	0.008098272
175	0xbbce2cb9	-0.0062919524
176	0xbb043f9c	-0.0020179516
177	0x3d0e481d	0.03473674
178	0xbd0039be	-0.031305067
179	0x3d09e7d4	0.033668354
180	0x3d4fa4ea	0.050694384
181	0x3be3cd92	0.006951996
182	0xbbd896dc	-0.0066097807
183	0x3c344cda	0.011004651
184	0x3cef725a	0.029229332
185	0xbce5aee2	-0.028037492
186	0x38da697c	0.00010414698
187	0xbb3a6247	-0.0028439926
188	0x3ada7c91	0.0016669204
189	0x3c9b9a7b	0.01899456
190	0xbd020f8d	-0.03175311
191	0xbbffe47a	-0.007809219
192	0xbc5312a8	-0.012882866
193	0xbbbd5db1	-0.005778991
194	0xbb391780	-0.0028242767
195	0xbcfbebb2	-0.030752037
196	0xbb8e15e9	-0.004336108
197	0xbbdfe95d	-0.006833239
198	0xbb8fd67b	-0.0043895817
199	0xbc7674d4	-0.015042502
200	0xbc02e13a	-0.0079882685
201	0x3cb832cb	0.022485157
202	0x3aa46844	0.0012543281
203	0x3a5584b4	0.00081450795
204	0x3a82cc87	0.0009979167
205	0xbc1041b3	-0.008804726
206	0x3b428916	0.002968376
207	0x3c8243d8	0.015901491
208	0xbad0a86d	-0.0015919335
209	0xbb25ce44	-0.0025299946
210	0x38b0d6ca	8.4323416e-05
211	0x3b71114e	0.0036783996
212	0x3bd10810	0.006379135
213	0x3bcbb42e	0.0062165475
214	0xbd9debac	-0.077109665
215	0x3c8999c6	0.016796958
216	0x3d1e17ad	0.038596798
217	0x3d9aa4e3	0.07550981
218	0xbc4184bc	-0.0118114315
219	0x3b653a96	0.0034977547
220	0x3bb7e9e6	0.0056125997
221	0xbdca925a	-0.098911956
222	0xbce38595	-0.027773658
223	0x3afca649	0.0019275631
224	0xba401669	-0.0007327558
225	0x3e167de1	0.14696456
226	0xbc50a4ba	-0.012734586
227	0xbada95b6	-0.0016676697
228	0xbe0ee1b8	-0.13953292
229	0xbcd4441c	-0.025911383
230	0xbe5144dd	-0.20436426
231	0xbbb615a0	-0.005556777
232	0x3c3f1647	0.011663026
233	0x3b5bc5f8	0.0033534747
234	0xbb2fed2c	-0.0026844246
235	0x3b24f8ce	0.0025172713
236	0x3a4b0740	0.0007744916
237	0x3c2808b3	0.01025598
238	0xbbe10730	-0.006867312
239	0xbb6e3385	-0.0036346626
240	0xbb5cc908	-0.003368916
241	0xbc9b7a2a	-0.01897915
242	0x3d0751ae	0.03303688
243	0x3d576e4e	0.05259543
244	0x3c405de6	0.011741137
245	0xbc0682fc	-0.00820994
246	0x3b9f939d	0.004869892
247	0xbbf257ff	-0.007395744
248	0xbb27adb8	-0.0025585722
249	0xbb8e6df6	-0.0043466045
250	0x3c789401	0.015172006
251	0xbd70087c	-0.05860184
252	0x39f2938e	0.00046267774
253	0x3c5cd340	0.0134781
254	0x3c1b2d60	0.009471267
255	0xbab11a56	-0.0013511877

linear1.bias f4 [128]
0	0x3d5e6f4c	0.05430536
1	0xbe173c6d	-0.14769144
2	0xbe33382f	-0.17501901
3	0xbdb1b4e4	-0.0867708
4	0xbd8c7729	-0.068586655
5	0x3c968e2c	0.01837834
6	0xbdd8e766	-0.10591011
7	0xbe47521c	-0.19464916
8	0xbe350c41	-0.17680456
9	0xbde79ed0	-0.11309588
10	0xbe70f87a	-0.23532286
11	0xbe5ebddf	-0.21752118
12	0xbe19b54c	-0.15010566
13	0xbe9699f3	-0.2941433
14	0xbdbd51aa	-0.09244092
15	0xbe93e414	-0.28884947
16	0x3df3c54d	0.119028665
17	0xbe882111	-0.26587728
18	0xbe3ac190	-0.182379
19	0xbe27e516	-0.16395983
20	0xbc652268	-0.013985254
21	0xbd096f86	-0.033553623
22	0xbd4f3711	-0.050589625
23	0xbdd44843	-0.10365345
24	0x3bd6c790	0.0065545514
25	0xbe4f8940	-0.202672
26	0xbe42ba78	-0.19016445
27	0xbe6ff36e	-0.23432705
28	0xbe3dc39f	-0.18531655
29	0xbe274922	-0.16336492
30	0x3ce7bffc	0.028289787
31	0xbe0aa8eb	-0.13541
32	0xbe10b9ca	-0.14133373
33	0xbe31f0e5	-0.1737705
34	0x3cc0a9e3	0.023518508
35	0xbc9932c1	-0.01870096
36	0xbe8b246c	-0.27176225
37	0xbe4a6029	-0.19763245
38	0xbce69d1b	-0.028151086
39	0xbe77ad44	-0.2418719
40	0xbe50e25f	-0.20398854
41	0x3d87561d	0.06608222
42	0xbe11c1e9	-0.14234127
43	0x3d15502c	0.03645341
44	0xbe15cfd3	-0.1463006
45	0xbe03bcd8	-0.12865007
46	0xbe06fbb1	-0.1318195
47	0xbe63217e	-0.22180745
48	0xbc5cae6c	-0.01346932
49	0xbe526f90	-0.2055037
50	0xbe744cb3	-0.23857383
51	0x3d90d386	0.07071595
52	0xbe6492c4	-0.22321612
53	0x3d235af1	0.03988165
54	0xbe123bfa	-0.14280692
55	0xbe043ab1	-0.12913014
56	0xbe152957	-0.14566551
57	0xbe33fc91	-0.17576815
58	0xbe822edb	-0.25426373
59	0xbe66d418	-0.22541845
60	0xbe48bd03	-0.19603352
61	0xbe583c64	-0.21116787
62	0xbd85db70	-0.06535995
63	0xbdc8fa21	-0.09813333
64	0xbdfa5d25	-0.12224797
65	0x3c22dbe7	0.009940124
66	0xbe5a052d	-0.21291037
67	0xbe5ec8ee	-0.21756336
68	0xbe4c8b27	-0.19974957
69	0xbe7058d3	-0.23471384
70	0x3db50fc7	0.088409
71	0xbe0a3c63	-0.13499598
72	0x3cb6fb3c	0.022336595
73	0xbe9882e2	-0.29787356
74	0x3db4746e	0.0881127
75	0xbd0a4330	-0.03375548
76	0xbdf110ff	-0.1177082
77	0xbcaa738f	-0.020807056
78	0xbc85a74d	-0.016315127
79	0x3dadd0bf	0.08487081
80	0xbe1ce729	-0.15322556
81	0xbc660b40	-0.014040768
82	0xbe5be07f	-0.21472357
83	0xbe2868e6	-0.16446266
84	0xbd46ba0f	-0.048517283
85	0xbc75a34d	-0.014992547
86	0xbd7eae8b	-0.062178176
87	0xbe449bed	-0.19200106
88	0xbe6856d6	-0.22689375
89	0xbe3bf125	-0.18353708
90	0xbea2f4bf	-0.3182735
91	0xbe54eab7	-0.20792662
92	0xbdf53d92	-0.11974634
93	0x3c028ba7	0.007967866
94	0xbe30f9f5	-0.17282851
95	0x3d821e44	0.06353429
96	0xbdb06b11	-0.08614171
97	0xbe017171	-0.1264093
98	0xbe10b6be	-0.1413221
99	0xbe63b3f3	-0.22236614
100	0xbe7ae4e7	-0.24501382
101	0xbe8bbdde	-0.27293295
102	0xbe2c6d53	-0.16838579
103	0xbe093758	-0.13400018
104	0xbe682691	-0.22670962
105	0xbe25250a	-0.1612741
106	0xbe6a2131	-0.22864224
107	0xbe11d066	-0.14239654
108	0xbe24c690	-0.1609137
109	0xbe175fa0	-0.14782572
110	0x3ae2fedc	0.0017318386
111	0xbe398e3f	-0.18120669
112	0xbea581d4	-0.32325613
113	0xbe3ad703	-0.18246083
114	0xbe097918	-0.134251
115	0xbdf76f69	-0.12081797
116	0xbe755f8d	-0.23962231
117	0xbe7b7c95	-0.24559243
118	0xbdb3a984	-0.08772567
119	0xbdec5c71	-0.11541069
120	0xbe6233c5	-0.22090061
121	0xbe4f2dcc	-0.20232314
122	0xbe37ca81	-0.17948343
123	0xbe7988f9	-0.24368657
124	0x3cf21ada	0.02955382
125	0xbe0a6ef9	-0.13518895
126	0xbc193c1d	-0.009352711
127	0xbe392c8a	-0.18083397

linear2.weight f4 [64, 128]
0	0x80000ac4	-3.862e-42
1	0x800021cc	-1.2124e-41
2	0x800025bf	-1.3541e-41
3	0x80001ac5	-9.603e-42
4	0x8000092f	-3.294e-42
5	0x80001d14	-1.0431e-41
6	0x800026c7	-1.391e-41
7	0x00000776	2.676e-42
8	0x80000775	-2.675e-42
9	0x8000186c	-8.761e-42
10	0x80001931	-9.037e-42
11	0x8000140a	-7.189e-42
12	0x800014f5	-7.518e-42
13	0x8000254a	-1.3377e-41
14	0x00000c59	4.43e-42
15	0x80001131	-6.167e-42
16	0x80001606	-7.9e-42
17	0x800025be	-1.354e-41
18	0x800022ce	-1.2486e-41
19	0x00000dd3	4.959e-42
20	0x80001036	-5.815e-42
21	0x800025e6	-1.3595e-41
22	0x80001c42	-1.0137e-41
23	0x800021fe	-1.2194e-41
24	0x80001887	-8.799e-42
25	0x80000e92	-5.227e-42
26	0x800022dc	-1.2505e-41
27	0x00001a51	9.44e-42
28	0x80001e26	-1.0815e-41
29	0x80001024	-5.79e-42
30	0x8000163f	-7.98e-42
31	0x80000f52	-5.496e-42
32	0x80000e5d	-5.153e-42
33	0x80000a1c	-3.627e-42
34	0x800013aa	-7.054e-42
35	0x00000714	2.539e-42
36	0x800022d2	-1.2491e-41
37	0x800026b5	-1.3885e-41
38	0x8000099c	-3.447e-42
39	0x80001bc8	-9.966e-42
40	0x800013ed	-7.148e-42
41	0x800023de	-1.2867e-41
42	0x000019e2	9.285e-42
43	0x8000050e	-1.813e-42
44	0x80001d7f	-1.0581e-41
45	0x800012f2	-6.796e-42
46	0x00002208	1.2208e-41
47	0x80000969	-3.376e-42
48	0x80001e35	-1.0836e-41
49	0x8000227d	-1.2372e-41
50	0x000015b5	7.787e-42
51	0x80001671	-8.05e-42
52	0x800012fc	-6.81e-42
53	0x80001053	-5.856e-42
54	0x80000cc9	-4.586e-42
55	0x80000eec	-5.353e-42
56	0x800025bc	-1.3537e-41
57	0x80002644	-1.3727e-41
58	0x8000181f	-8.653e-42
59	0x8000102c	-5.801e-42
60	0x80001d63	-1.0542e-41
61	0x80001b85	-9.872e-42
62	0x80001505	-7.54e-42
63	0x80000d92	-4.868e-42
64	0x80002625	-1.3684e-41
65	0x8000241e	-1.2956e-41
66	0x800019e2	-9.285e-42
67	0x80000780	-2.69e-42
68	0x80001117	-6.13e-42
69	0x80002512	-1.3298e-41
70	0x80001ef2	-1.1101e-41
71	0x8000244f	-1.3025e-41
72	0x8000194d	-9.076e-42
73	0x80002030	-1.1547e-41
74	0x80000c2e	-4.369e-42
75	0x800025f6	-1.3618e-41
76	0x8000076b	-2.661e-42
77	0x80001d1b	-1.0441e-41
78	0x80000fe7	-5.705e-42
79	0x800007e9	-2.838e-42
80	0x8000206e	-1.1634e-41
81	0x8000122e	-6.522e-42
82	0x00001c8b	1.0239e-41
83	0x8000256c	-1.3424e-41
84	0x8000121e	-6.499e-42
85	0x80002408	-1.2926e-41
86	0x80001842	-8.702e-42
87	0x8000107c	-5.913e-42
88	0x80002533	-1.3345e-41
89	0x8000197a	-9.139e-42
90	0x80001610	-7.915e-42
91	0x8000126c	-6.609e-42
92	0x80000845	-2.967e-42
93	0x800009a8	-3.464e-42
94	0x8000222b	-1.2257e-41
95	0x80001cfe	-1.04e-41
96	0x8000115f	-6.232e-42
97	0x800021c5	-1.2114e-41
98	0x80001760	-8.385e-42
99	0x800019da	-9.274e-42
100	0x80000dff	-5.021e-42
101	0x80002278	-1.2365e-41
102	0x800008c1	-3.14e-42
103	0x80002488	-1.3105e-41
104	0x80000011	-2.4e-44
105	0x80001738	-8.33e-42
106	0x80001038	-5.818e-42
107	0x800015fd	-7.888e-42
108	0x80001918	-9.002e-42
109	0x80000cb0	-4.551e-42
110	0x80001199	-6.313e-42
111	0x800011df	-6.411e-42
112	0x000024c0	1.3183e-41
113	0x80000f89	-5.573e-42
114	0x80001d8d	-1.0601e-41
115	0x80000d5e	-4.795e-42
116	0x8000226d	-1.235e-41
117	0x800024b6	-1.317e-41
118	0x8000256f	-1.3429e-41
119	0x80000e17	-5.054e-42
120	0x80000d65	-4.805e-42
121	0x800017f7	-8.597e-42
122	0x80001568	-7.679e-42
123	0x80001e8e	-1.0961e-41
124	0x80001365	-6.957e-42
125	0x800011ed	-6.43e-42
126	0x80001cb6	-1.03e-41
127	0x8000126a	-6.606e-42
128	0x800009cc	-3.514e-42
129	0x800004ee	-1.768e-42
130	0x8000225f	-1.233e-41
131	0x80000ca9	-4.542e-42
132	0x8000044f	-1.546e-42
133	0x80000a77	-3.754e-42
134	0x80001c12	-1.007e-41
135	0x80001b88	-9.876e-42
136	0x80000c70	-4.462e-42
137	0x80000cbb	-4.567e-42
138	0x80001cf4	-1.0386e-41
139	0x8000115e	-6.23e-42
140	0x80001124	-6.149e-42
141	0x00001cf7	1.039e-41
142	0x80002230	-1.2264e-41
143	0x800008c9	-3.152e-42
144	0x8000195e	-9.1e-42
145	0x80001e4f	-1.0873e-41
146	0x8000184e	-8.719e-42
147	0x80001acb	-9.612e-42
148	0x800021d5	-1.2137e-41
149	0x80001804	-8.615e-42
150	0x80000d22	-4.711e-42
151	0x80000310	-1.099e-42
152	0x80001e51	-1.0875e-41
153	0x800016e5	-8.213e-42
154	0x80000fc5	-5.657e-42
155	0x80000ea3	-5.25e-42
156	0x80002231	-1.2266e-41
157	0x80001354	-6.934e-42
158	0x80001965	-9.11e-42
159	0x800015e4	-7.853e-42
160	0x800023ae	-1.28e-41
161	0x8000069f	-2.375e-42
162	0x80001d26	-1.0456e-41
163	0x80000a9f	-3.81e-42
164	0x8000089c	-3.088e-42
165	0x8000115d	-6.229e-42
166	0x80001eb1	-1.101e-41
167	0x80001408	-7.186e-42
168	0x800012f1	-6.795e-42
169	0x8000239f	-1.2778e-41
170	0x80001728	-8.307e-42
171	0x80000d1e	-4.706e-42
172	0x80000c46	-4.403e-42
173	0x80000c6a	-4.453e-42
174	0x80001155	-6.218e-42
175	0x80001934	-9.041e-42
176	0x8000262b	-1.3692e-41
177	0x80001200	-6.457e-42
178	0x80001596	-7.744e-42
179	0x80001182	-6.28e-42
180	0x80002138	-1.1917e-41
181	0x80000c22	-4.352e-42
182	0x80002606	-1.364e-41
183	0x80002440	-1.3004e-41
184	0x8000069c	-2.371e-42
185	0x80001cf5	-1.0388e-41
186	0x800021b8	-1.2096e-41
187	0x00001688	8.083e-42
188	0x80001f5b	-1.1248e-41
189	0x80001635	-7.966e-42
190	0x80000fea	-5.709e-42
191	0x80001483	-7.358e-42
192	0x800020b6	-1.1734e-41
193	0x80002354	-1.2673e-41
194	0x80001008	-5.751e-42
195	0x80001ab9	-9.586e-42
196	0x80001f4c	-1.1227e-41
197	0x80000647	-2.252e-42
198	0x80000396	-1.286e-42
199	0x80001f3e	-1.1208e-41
200	0x00000f73	5.542e-42
201	0x800009ba	-3.489e-42
202	0x80001610	-7.915e-42
203	0x80000812	-2.895e-42
204	0x80000b18	-3.98e-42
205	0x80002699	-1.3846e-41
206	0x80001f03	-1.1125e-41
207	0x8000187c	-8.783e-42
208	0x80000827	-2.925e-42
209	0x8000128f	-6.658e-42
210	0x80000b6a	-4.095e-42
211	0x80000360	-1.211e-42
212	0x80001546	-7.631e-42
213	0x0000017e	5.35e-43
214	0x80001811	-8.633e-42
215	0x800014fb	-7.526e-42
216	0x8000183d	-8.695e-42
217	0x80000ea8	-5.258e-42
218	0x80002675	-1.3796e-41
219	0x8000066f	-2.308e-42
220	0x00002056	1.16e-41
221	0x80001abc	-9.59e-42
222	0x800008b5	-3.123e-42
223	0x8000260f	-1.3653e-41
224	0x80000739	-2.591e-42
225	0x800010f8	-6.087e-42
226	0x80000764	-2.651e-42
227	0x80001262	-6.595e-42
228	0x80001b47	-9.785e-42
229	0x800022eb	-1.2526e-41
230	0x80001b5e	-9.817e-42
231	0x80000d2c	-4.725e-42
232	0x80001106	-6.107e-42
233	0x80001b2b	-9.746e-42
234	0x0000141c	7.214e-42
235	0x80000bb2	-4.195e-42
236	0x8000127f	-6.635e-42
237	0x800004b6	-1.69e-42
238	0x800024ad	-1.3157e-41
239	0x800015e7	-7.857e-42
240	0x80000567	-1.938e-42
241	0x80000fab	-5.62e-42
242	0x000018c9	8.891e-42
243	0x8000158b	-7.728e-42
244	0x80001ca2	-1.0272e-41
245	0x800008d6	-3.17e-42
246	0x800014ae	-7.418e-42
247	0x8000177a	-8.422e-42
248	0x80000868	-3.016e-42
249	0x800018c6	-8.887e-42
250	0x80001c53	-1.0161e-41
251	0x800016f9	-8.241e-42
252	0x80000b08	-3.957e-42
253	0x00000865	3.011e-42
254	0x00000643	2.246e-42
255	0x80002299	-1.2411e-41

linear2.bias f4 [64]
0	0x80001fdc	-1.1429e-41
1	0x800019fa	-9.319e-42
2	0x3b9e4600	0.004830122
3	0x80000911	-3.252e-42
4	0x80001084	-5.925e-42
5	0x8000126a	-6.606e-42
6	0x8000207d	-1.1655e-41
7	0x80000a38	-3.666e-42
8	0xbaf753bb	-0.0018869558
9	0x80001eee	-1.1095e-41
10	0x3d609306	0.054827712
11	0x80000b15	-3.975e-42
12	0x80001cea	-1.0372e-41
13	0x80001841	-8.7e-42
14	0x3a12925f	0.0005591269
15	0x80000b19	-3.981e-42
16	0xb788d87e	-1.6313275e-05
17	0x800017dc	-8.559e-42
18	0x3ccdf6b8	0.025142059
19	0x3c5f5a6a	0.013632396
20	0xbdba396b	-0.09092983
21	0xb623d921	-2.4415278e-06
22	0x3d01a373	0.031650018
23	0x800023da	-1.2861e-41
24	0x3ec21484	0.37906277
25	0x800015dc	-7.842e-42
26	0x800026de	-1.3943e-41
27	0x3cf3a7b8	0.02974306
28	0x8000206c	-1.1631e-41
29	0x3dc23b9d	0.094840266
30	0x800025c7	-1.3552e-41
31	0xad9b7a26	-1.7675705e-11
32	0x800016c5	-8.168e-42
33	0x80000ce5	-4.626e-42
34	0x80000bd1	-4.239e-42
35	0x3ae51611	0.001747789
36	0xbb598e99	-0.0033196567
37	0x80002600	-1.3632e-41
38	0x80000d2c	-4.725e-42
39	0x8000127a	-6.628e-42
40	0x8000192b	-9.029e-42
41	0xbb2aeb77	-0.002608029
42	0x3d46cb43	0.04853369
43	0x80001ab2	-9.576e-42
44	0x80002291	-1.24e-41
45	0xbd62b8f4	-0.055352166
46	0x800014e4	-7.494e-42
47	0xba388041	-0.0007038154
48	0x800011da	-6.404e-42
49	0x3ed1cee4	0.40978158
50	0xbe04352f	-0.12910913
51	0x80000ea6	-5.255e-42
52	0x3ebc5143	0.36780748
53	0x3d8aef46	0.06783919
54	0x80001744	-8.346e-42
55	0x3f09a860	0.53772545
56	0x80001327	-6.87e-42
57	0x800019ed	-9.3e-42
58	0x3c0e6c23	0.008692774
59	0x80000ac6	-3.865e-42
60	0x800022b2	-1.2446e-41
61	0x80001367	-6.96e-42
62	0x80001886	-8.797e-42
63	0xb9641116	-0.0002175014

linear3.weight f4 [32, 64]
0	0x00000643	2.246e-42
1	0x80001c00	-1.0045e-41
2	0xbd34aba8	-0.044109017
3	0x00001592	7.738e-42
4	0x0000226c	1.2348e-41
5	0x80001116	-6.129e-42
6	0x000012b6	6.712e-42
7	0x80002460	-1.3049e-41
8	0x328dbfed	1.6501838e-08
9	0x8000094d	-3.336e-42
10	0xbd2a8619	-0.04163179
11	0x80001897	-8.821e-42
12	0x000019cf	9.258e-42
13	0x00000f40	5.47e-42
14	0x3d30018f	0.042970236
15	0x00001ad9	9.631e-42
16	0x3e1e3195	0.15448602
17	0x00001b1c	9.725e-42
18	0xbe83866d	-0.25688496
19	0xbe15c5f2	-0.14626291
20	0xbc66df94	-0.014091391
21	0x322e768b	1.01550865e-08
22	0x3de0eaeb	0.10982307
23	0x00001436	7.25e-42
24	0x3ef57877	0.4794347
25	0x80000e9e	-5.244e-42
26	0x0000203f	1.1568e-41
27	0xbd1288d6	-0.03577503
28	0x0000131e	6.858e-42
29	0x3e6a0587	0.22853671
30	0x80001fae	-1.1365e-41
31	0xa6de4556	-1.5423138e-15
32	0x80001734	-8.324e-42
33	0x80002018	-1.1513e-41
34	0x80001314	-6.844e-42
35	0xbddf4efb	-0.10903736
36	0xbdfc15bb	-0.12308832
37	0x8000251f	-1.3317e-41
38	0x00001ebb	1.1024e-41
39	0x80001217	-6.49e-42
40	0x80000f19	-5.416e-42
41	0x3c9fde57	0.0195152
42	0x3e6e6cad	0.23283644
43	0x000008b6	3.125e-42
44	0x80000a84	-3.772e-42
45	0x3d354e99	0.04426441
46	0x00001a99	9.541e-42
47	0x3338bf21	4.301467e-08
48	0x800024a4	-1.3144e-41
49	0x3eb5f678	0.35539603
50	0xbf56e403	-0.8394167
51	0x00001cfe	1.04e-41
52	0x3e8f5de7	0.2800133
53	0xbf3ef951	-0.74599177
54	0x00002086	1.1667e-41
55	0x3e9143ab	0.2837194
56	0x80001101	-6.1e-42
57	0x800014fe	-7.53e-42
58	0xbe185f34	-0.14880067
59	0x80000b4b	-4.051e-42
60	0x8000264c	-1.3738e-41
61	0x80000b7b	-4.118e-42
62	0x80002323	-1.2605e-41
63	0x3502675a	4.857917e-07
64	0x800006dc	-2.46e-42
65	0x8000158c	-7.73e-42
66	0x3c99c3fc	0.01877021
67	0x80000d99	-4.878e-42
68	0x00001629	7.95e-42
69	0x00001f49	1.1223e-41
70	0x80000ab5	-3.841e-42
71	0x00002205	1.2204e-41
72	0xb368ad52	-5.4174343e-08
73	0x8000036c	-1.228e-42
74	0x3d27bb6e	0.04095023
75	0x0000163b	7.975e-42
76	0x8000205b	-1.1607e-41
77	0x00001e06	1.077e-41
78	0xba3307ad	-0.0006829452
79	0x00000bad	4.188e-42
80	0x3e19f52b	0.1503493
81	0x0000157b	7.706e-42
82	0xbe6692f3	-0.22516994
83	0x3ceef66b	0.029170236
84	0xbdc0a545	-0.09406523
85	0x323c5a52	1.0963577e-08
86	0x3df01a98	0.11723822
87	0x00001539	7.613e-42
88	0x3eee222c	0.46510446
89	0x80001238	-6.536e-42
90	0x00001410	7.197e-42
91	0xbd8f4d73	-0.06997194
92	0x800021e3	-1.2156e-41
93	0x3e577528	0.21040785
94	0x80001cfc	-1.0398e-41
95	0xa342369b	-1.0528324e-17
96	0x80000fce	-5.67e-42
97	0x000026a4	1.3862e-41
98	0x0000067c	2.326e-42
99	0xbdbef931	-0.09324873
100	0xbddcfa63	-0.10789945
101	0x000013ab	7.056e-42
102	0x80002643	-1.3726e-41
103	0x8000077d	-2.686e-42
104	0x8000122a	-6.516e-42
105	0xbc32fe0e	-0.010924829
106	0x3e738d3a	0.23784342
107	0x0000087c	3.044e-42
108	0x00001108	6.11e-42
109	0xbd17db6f	-0.037074503
110	0x00001ad9	9.631e-42
111	0x328830a6	1.5854607e-08
112	0x0000245d	1.3045e-41
113	0x3e8203af	0.25393435
114	0xbf391027	-0.7229027
115	0x80000c27	-4.36e-42
116	0x3e79309f	0.24334954
117	0xbf1705dc	-0.58993316
118	0x000024df	1.3227e-41
119	0x3ebf7ef8	0.37401557
120	0x800021cd	-1.2125e-41
121	0x80002239	-1.2277e-41
122	0xbdb21855	-0.08696047
123	0x00001957	9.09e-42
124	0x800015e0	-7.847e-42
125	0x00000c41	4.396e-42
126	0x800011a9	-6.335e-42
127	0x3439ef97	1.731663e-07
128	0x800014f5	-7.518e-42
129	0x00001627	7.947e-42
130	0xbbff0def	-0.0077836434
131	0x800015fd	-7.888e-42
132	0x0000254d	1.3381e-41
133	0x00000fc9	5.663e-42
134	0x00002242	1.229e-41
135	0x80000536	-1.87e-42
136	0x800011e7	-6.422e-42
137	0x8000185b	-8.737e-42
138	0xbbfcaf16	-0.0077113016
139	0x800022fc	-1.255e-41
140	0x80001efb	-1.1114e-41
141	0x00001432	7.245e-42
142	0x3a5a0d04	0.00083179795
143	0x80000ec5	-5.298e-42
144	0xbbd66ab5	-0.006543482
145	0x00000b80	4.125e-42
146	0xbce4a1d0	-0.02790919
147	0xbc0bb2c7	-0.008526511
148	0x3c8796ee	0.016551461
149	0x3017410e	5.502593e-10
150	0xbc83bdea	-0.016081769
151	0x00000362	1.214e-42
152	0xb9fba95d	-0.00048000636
153	0x80001145	-6.195e-42
154	0x800009e3	-3.547e-42
155	0x3cc4b726	0.024013113
156	0x80000023	-4.9e-44
157	0xbcbb9d0e	-0.022902038
158	0x80001691	-8.095e-42
159	0x00001229	6.515e-42
160	0x00001e38	1.084e-41
161	0x80001baf	-9.931e-42
162	0x00000665	2.294e-42
163	0xbc6ead12	-0.01456763
164	0xbc835a14	-0.016034164
165	0x00002490	1.3116e-41
166	0x80002240	-1.2287e-41
167	0x8000170c	-8.268e-42
168	0x800022f0	-1.2533e-41
169	0xbba5d365	-0.0050606006
170	0xbc077f01	-0.008270026
171	0x800013fb	-7.168e-42
172	0x00001779	8.42e-42
173	0x3c9f46fd	0.01944303
174	0x8000261a	-1.3668e-41
175	0x00001110	6.121e-42
176	0x00001806	8.618e-42
177	0xba9217af	-0.0011145974
178	0xbb27883e	-0.0025563384
179	0x00000fea	5.709e-42
180	0xbc9f758e	-0.019465234
181	0xbc884312	-0.016633544
182	0x80001076	-5.905e-42
183	0xbb098a46	-0.0020986958
184	0x80001253	-6.573e-42
185	0x80001e52	-1.0877e-41
186	0xbc24a211	-0.010048405
187	0x80001d22	-1.0451e-41
188	0x800015f3	-7.874e-42
189	0x00000d29	4.721e-42
190	0x00000a28	3.643e-42
191	0x00000e29	5.08e-42
192	0x80000797	-2.723e-42
193	0x00001190	6.3e-42
194	0x3c0a27a1	0.0084323
195	0x800011c1	-6.369e-42
196	0x800018bb	-8.872e-42
197	0x0000147d	7.35e-42
198	0x800015b1	-7.781e-42
199	0x8000187f	-8.788e-42
200	0x35825288	9.709775e-07
201	0x800026fd	-1.3986e-41
202	0x3b3e6491	0.0029051641
203	0x80002472	-1.3074e-41
204	0x8000149d	-7.395e-42
205	0x00001179	6.268e-42
206	0x3d0650c0	0.032791853
207	0x80000309	-1.089e-42
208	0xbcc1d314	-0.02366022
209	0x000024b6	1.317e-41
210	0x3da4e115	0.080507435
211	0x3c59bccd	0.0132896425
212	0x3c989664	0.0186264
213	0xb348360a	-4.6615277e-08
214	0xbcc1ee46	-0.023673188
215	0x00001fd4	1.1418e-41
216	0xbcb243fd	-0.021760935
217	0x80000586	-1.981e-42
218	0x0000120e	6.477e-42
219	0x3d449616	0.047994696
220	0x80000219	-7.52e-43
221	0xbd0f0d44	-0.03492476
222	0x800015fb	-7.885e-42
223	0xaf43e527	-1.7816558e-10
224	0x0000139c	7.035e-42
225	0x800011f9	-6.447e-42
226	0x80001a98	-9.54e-42
227	0x3cba2d6f	0.022726743
228	0x3cb45f12	0.02201799
229	0x80000a80	-3.767e-42
230	0x800011d6	-6.398e-42
231	0x80000be4	-4.266e-42
232	0x000002f3	1.058e-42
233	0x3ccb9a05	0.024853716
234	0xbc87eaea	-0.016591508
235	0x80001f38	-1.1199e-41
236	0x80000547	-1.893e-42
237	0xbda80a81	-0.082051285
238	0x800007a7	-2.745e-42
239	0xa3afb046	-1.9048193e-17
240	0x000015a9	7.77e-42
241	0x3bdaf9eb	0.0066826246
242	0x3cad66c2	0.021167163
243	0x800024d1	-1.3207e-41
244	0x3df8a60b	0.12141045
245	0x3d527f82	0.051391132
246	0x8000016f	-5.14e-43
247	0x3bfc70f6	0.0077038957
248	0x000016e2	8.209e-42
249	0x000013ec	7.147e-42
250	0x3c3042b0	0.010758087
251	0x0000157b	7.706e-42
252	0x00001217	6.49e-42
253	0x800025bd	-1.3538e-41
254	0x800012a7	-6.691e-42
255	0xa92026fb	-3.5560947e-14

linear3.bias f4 [32]
0	0x3f4c5b90	0.79827213
1	0x3f33ccbb	0.7023427
2	0xb9987e44	-0.00029085774
3	0x3d454d67	0.04816952
4	0xbc83c73e	-0.016086217
5	0x3f3564be	0.70856845
6	0xb742286f	-1.1572715e-05
7	0xbcfb9d88	-0.030714765
8	0xbd17f3d4	-0.037097767
9	0x860d8c04	-2.662202e-35
10	0x3f467370	0.77519894
11	0xb97af11c	-0.00023931678
12	0xbafd907d	-0.0019345429
13	0xaac80a4a	-3.5534276e-13
14	0xbc09749c	-0.008389618
15	0x3f3322bd	0.6997488
16	0x3dadbc88	0.08483225
17	0xbb9b0cc2	-0.0047317455
18	0xbb326846	-0.0027222796
19	0x3cc3ced8	0.023902342
20	0xbd153228	-0.036424786
21	0x3d527361	0.051379565
22	0x3f2e565a	0.6810051
23	0xbd2f2c9a	-0.042767145
24	0xbdc1e9dc	-0.09468433
25	0x3eea3c2a	0.45749027
26	0xbd0e7f93	-0.034789633
27	0xbd130cbd	-0.03590082
28	0x3be15a01	0.0068771844
29	0x3d699857	0.05703005
30	0x3d0b7b84	0.03405334
31	0xbcbf4d09	-0.023352163

linear4.weight f4 [64, 96]
0	0x3f70df84	0.9409106
1	0x3f619f17	0.88133377
2	0x3bbd5302	0.0057777176
3	0x3b1b6c40	0.0023715645
4	0xbbbb6898	-0.0057192557
5	0x3f630f5e	0.88695323
6	0x000007c0	2.78e-42
7	0xbec0cf47	-0.3765814
8	0x8000137a	-6.987e-42
9	0x80000965	-3.37e-42
10	0x3f75fd55	0.9608968
11	0x80002232	-1.2267e-41
12	0xbe5fbcf0	-0.21849418
13	0x800003d9	-1.38e-42
14	0xba13d599	-0.00056394335
15	0x3f536ce1	0.8258801
16	0x3dee69a2	0.116412416
17	0x3bd69b01	0.0065492396
18	0x2a85e98b	2.37876e-13
19	0x3b841dcb	0.004031872
20	0xbc8d2a50	-0.01723209
21	0xbd5ca7d3	-0.053870987
22	0x3f407dea	0.7519213
23	0xbe83055a	-0.2559002
24	0x00000c01	4.306e-42
25	0x3ef48a3a	0.47761708
26	0x800011a1	-6.324e-42
27	0xbe93ec69	-0.28891304
28	0x3c65bf0e	0.014022602
29	0xbc6d946f	-0.014500721
30	0xbd6f57da	-0.05843339
31	0x3e451547	0.19246398
32	0x3d83c304	0.06433681
33	0x3d3ec8c4	0.046578184
34	0x3cab6085	0.020920048
35	0x3cbdc1ca	0.023163695
36	0x3c5ea19c	0.013588335
37	0x3d6d7ebd	0.057982195
38	0x170101c6	4.1684386e-25
39	0x3d8407ea	0.06446822
40	0x3c9e19ee	0.019299474
41	0x00001060	5.874e-42
42	0x3db9fbee	0.09081255
43	0xb9155b41	-0.00014243742
44	0x3d2b62f4	0.041842416
45	0x800013ea	-7.144e-42
46	0x3c15d70f	0.009145512
47	0x3c22132d	0.009892267
48	0xbbcc543e	-0.0062356284
49	0x3b22e92d	0.0024858222
50	0xb4c31162	-3.6334228e-07
51	0x3c8a4887	0.016880287
52	0xbc8b5e63	-0.01701278
53	0x3d46b061	0.04850805
54	0x3d783f1c	0.06060706
55	0x3cd8ca1d	0.026463563
56	0x39bb2fb7	0.0003570297
57	0xbb3244ac	-0.0027201576
58	0x38df295e	0.00010641174
59	0x3d6bceb9	0.057570193
60	0x3cd1a98f	0.025593547
61	0x3c86d11e	0.016457137
62	0x3d9d58e4	0.0768297
63	0x3d63487c	0.05548905
64	0x3c7d74c1	0.015469731
65	0x3d0b02a2	0.033938058
66	0x3d4ca3c9	0.049960885
67	0xbd728055	-0.05920442
68	0x3ca0fb25	0.019651005
69	0x3ca4d9ca	0.020123381
70	0x17a28d2d	1.0504642e-24
71	0x3e1c8f87	0.15289126
72	0x3c701678	0.0146537945
73	0x00008aeb	4.9834e-41
74	0x3d94f777	0.07273763
75	0x3a1921aa	0.0005841503
76	0x3daca0d1	0.08429111
77	0x1c084f31	4.510098e-22
78	0xbcb69a0e	-0.022290256
79	0x3d540a80	0.051767826
80	0xbdc7fdd6	-0.09765212
81	0x3b3dcd96	0.002896165
82	0x383a67f2	4.4442662e-05
83	0xbc54f6ce	-0.012998296
84	0xbdc3496c	-0.095354885
85	0x3d8f6ce3	0.0700319
86	0x3da1faf4	0.07909194
87	0x3e02a8fe	0.12759778
88	0x3d069f66	0.032866858
89	0x3d20f826	0.039299153
90	0xbc2da7c6	-0.010599082
91	0x3d88da91	0.06682313
92	0x3d2e241e	0.042514913
93	0xbd550cc0	-0.052014112
94	0x3d5232d2	0.051317997
95	0x3c06a9c7	0.008219189
96	0xbea83834	-0.3285538
97	0xbe9821fc	-0.29713428
98	0xba4529c0	-0.0007521175
99	0xbcfb95d3	-0.03071109
100	0x3e811c10	0.25216722
101	0xbe91060c	-0.28324926
102	0x8000258d	-1.347e-41
103	0x3f6705fa	0.90243495
104	0x800009cf	-3.519e-42
105	0x00001b16	9.717e-42
106	0xbea07de6	-0.31346053
107	0x00001b50	9.798e-42
108	0x3f2dcd46	0.6789135
109	0x80001119	-6.133e-42
110	0x34f85a32	4.6259225e-07
111	0xbe88c610	-0.2671361
112	0xbd9e7ab6	-0.07738249
113	0xbbe94295	-0.007118533
114	0x28834e95	1.4578001e-14
115	0xbc10b967	-0.008833266
116	0x3be0db5c	0.006862087
117	0x3ed18035	0.40918127
118	0xbe73a5fa	-0.23793784
119	0x3f44301f	0.76635927
120	0x80000436	-1.51e-42
121	0xbd92b55b	-0.07163497
122	0x000018be	8.876e-42
123	0x3f3f07e0	0.7462139
124	0x3c170f4f	0.009219958
125	0xbd1007c4	-0.035163656
126	0x3f0151e2	0.5051557
127	0x3e7a1f4c	0.24426001
128	0x3d8e6167	0.06952172
129	0x3d82ea9a	0.06392403
130	0x39848b5d	0.00025280836
131	0xbd7be876	-0.06150099
132	0x3d43574f	0.047690686
133	0x3cdc9f4c	0.026931427
134	0xa6b15798	-1.2305585e-15
135	0xbd86c056	-0.06579654
136	0xbc973af3	-0.018460726
137	0x00001d60	1.0538e-41
138	0x3d978c40	0.073997974
139	0xb6e685b3	-6.870099e-06
140	0x3d4fbb76	0.050715886
141	0x8000108b	-5.934e-42
142	0xbc639306	-0.013890034
143	0x3d5c4edf	0.053786155
144	0xbd270488	-0.040775806
145	0xbb809f3e	-0.003925233
146	0x33c512ef	9.1769714e-08
147	0xbcd9e480	-0.026598215
148	0x3b264440	0.002537027
149	0x3c51a440	0.012795508
150	0x3d8b0b43	0.067892574
151	0x3d2e3292	0.042528696
152	0xb9e9c8a9	-0.00044590727
153	0x3c9525c8	0.018206492
154	0xba0d4234	-0.0005388588
155	0x3d1e66ff	0.038672443
156	0x3cc36ddc	0.023856096
157	0xbd9358c5	-0.07194666
158	0x3ca8aea1	0.020591082
159	0x3a8e5f1e	0.0010862087
160	0x3da7be89	0.081906386
161	0x3bfeeae3	0.0077794655
162	0xbc4fab9e	-0.012675194
163	0xbd5b2b8e	-0.053508334
164	0x3bd80d01	0.006593347
165	0x3d38089e	0.044930093
166	0xa3d24af4	-2.279999e-17
167	0xbdff3881	-0.12461949
168	0x3d828ff5	0.06375114
169	0x18c45d4a	5.075901e-24
170	0x3d685de1	0.056730155
171	0xbb253526	-0.002520868
172	0x3cd6b41e	0.026208933
173	0x2a849ddc	2.3557447e-13
174	0xbc439a94	-0.01193871
175	0xbd0381c6	-0.032106183
176	0x3e7cd535	0.24690707
177	0xbb118170	-0.0022202395
178	0x38554fd6	5.085751e-05
179	0xbd1a7cb3	-0.03771658
180	0x3ddd3158	0.10800427
181	0xbc54a55e	-0.01297888
182	0xbcb9f2a7	-0.022698713
183	0xbbeaf6c8	-0.007170532
184	0xbc71573f	-0.014730274
185	0xbd7b3870	-0.06133312
186	0x3dfe1d2a	0.12407906
187	0x3d6b4992	0.05744321
188	0x3d7c9bd1	0.061672036
189	0xbd97a2ca	-0.074040964
190	0x3d9059c7	0.07048374
191	0xbc1168df	-0.008875101
192	0x00000bb0	4.193e-42
193	0x80000b15	-3.975e-42
194	0x80000e58	-5.146e-42
195	0x80000c65	-4.446e-42
196	0x80000d91	-4.867e-42
197	0x80000e7f	-5.2e-42
198	0x80000132	-4.29e-43
199	0x800020e5	-1.18e-41
200	0x00001589	7.725e-42
201	0x00001c4b	1.015e-41
202	0x800009dd	-3.538e-42
203	0x00002070	1.1636e-41
204	0x80000a82	-3.77e-42
205	0x00000cd6	4.605e-42
206	0x80000fb8	-5.639e-42
207	0x80001096	-5.95e-42
208	0x80001ce7	-1.0368e-41
209	0x00001a51	9.44e-42
210	0x0000201e	1.1521e-41
211	0x800015c2	-7.805e-42
212	0x80001f7c	-1.1294e-41
213	0x00002133	1.191e-41
214	0x0000255f	1.3406e-41
215	0x80001a71	-9.485e-42
216	0x00000b81	4.127e-42
217	0x800026d6	-1.3932e-41
218	0x0000242a	1.2973e-41
219	0x80000e4d	-5.13e-42
220	0x0000006b	1.5e-43
221	0x80000e9e	-5.244e-42
222	0x0000215c	1.1967e-41
223	0x800011ca	-6.382e-42
224	0x00000cc0	4.574e-42
225	0x80001a0c	-9.344e-42
226	0x0000082f	2.936e-42
227	0x0000233a	1.2637e-41
228	0x00001072	5.9e-42
229	0x80000d92	-4.868e-42
230	0x800010ba	-6e-42
231	0x800013cb	-7.1e-42
232	0x80001407	-7.184e-42
233	0x8000134d	-6.924e-42
234	0x80001f8f	-1.1321e-41
235	0x800007e9	-2.838e-42
236	0x80002583	-1.3457e-41
237	0x8000204e	-1.1589e-41
238	0x000018f0	8.946e-42
239	0x00001bbb	9.948e-42
240	0x80001344	-6.911e-42
241	0x80002591	-1.3476e-41
242	0x00000e89	5.214e-42
243	0x000008b6	3.125e-42
244	0x80001a4a	-9.431e-42
245	0x00001f92	1.1325e-41
246	0x00000911	3.252e-42
247	0x800016ad	-8.135e-42
248	0x8000072f	-2.577e-42
249	0x80000ae7	-3.911e-42
250	0x000022b0	1.2444e-41
251	0x00000c52	4.42e-42
252	0x80000954	-3.346e-42
253	0x000021aa	1.2076e-41
254	0x0000156c	7.685e-42
255	0x00002275	1.2361e-41

linear4.bias f4 [64]
0	0x3e99919a	0.29993898
1	0xbda8abed	-0.08235917
2	0x800007d0	-2.803e-42
3	0xba4daa39	-0.00078454945
4	0x3c1e862d	0.009675545
5	0xb92ae96d	-0.00016299421
6	0xbe0819c3	-0.13291077
7	0x3b9e671f	0.0048340703
8	0x3cfffbe0	0.031248033
9	0x3cf2d69a	0.029643346
10	0x901dfbd9	-3.1156807e-29
11	0x80001360	-6.95e-42
12	0xbe3f1746	-0.18661222
13	0xbdd2c09f	-0.10290646
14	0xa2ace601	-4.686422e-18
15	0xbb5614ed	-0.0032666281
16	0x9f89a0df	-5.8287896e-20
17	0xbd7bb782	-0.061454304
18	0xaecb8297	-9.2545686e-11
19	0xbc2134d0	-0.009839252
20	0xbe8e0cce	-0.27744144
21	0x3e19e990	0.15030503
22	0x3c622eb1	0.013805077
23	0x800024e0	-1.3228e-41
24	0x3bc0e126	0.005886215
25	0x800016ba	-8.153e-42
26	0x80001047	-5.839e-42
27	0xbc8e2686	-0.017352354
28	0xbd9a5943	-0.075365566
29	0x8000081c	-2.909e-42
30	0xbe965dc0	-0.293684
31	0x3ce9b279	0.028527485
32	0x31cdcae3	5.989351e-09
33	0x3ac89ac1	0.0015304909
34	0x3ddaa6b4	0.10676327
35	0x80000dce	-4.952e-42
36	0xbb518e8f	-0.003197584
37	0xbda3d7ac	-0.080001205
38	0x80001bef	-1.002e-41
39	0x3e6e50b2	0.2327297
40	0xb585dead	-9.974079e-07
41	0xbe06da6e	-0.13169262
42	0x3e812705	0.25225082
43	0x800013e5	-7.137e-42
44	0x800011ab	-6.338e-42
45	0xbbf64785	-0.00751585
46	0xbc441260	-0.011967272
47	0xab0a8aed	-4.9220247e-13
48	0xb7f1fe0c	-2.8847739e-05
49	0x3d68c614	0.056829527
50	0x800012fd	-6.812e-42
51	0x8000171f	-8.294e-42
52	0x3d3eac47	0.046551015
53	0xb5317585	-6.610865e-07
54	0x3e677952	0.22604874
55	0x37842784	1.5754027e-05
56	0xbe0a0d83	-0.13481717
57	0x3e5d7667	0.21627198
58	0x3a89d6e2	0.001051631
59	0xb90f1f52	-0.0001364921
60	0xbae31de0	-0.0017327629
61	0xbd9f4388	-0.077765524
62	0x3e5f91d1	0.21832968
63	0xb55263a0	-7.837607e-07

linear5.weight f4 [16, 64]
0	0xbe9558d6	-0.2916934
1	0x3f697676	0.9119638
2	0x00000cc2	4.577e-42
3	0x398f42e0	0.0002732491
4	0xbc923dc7	-0.017851723
5	0xbaf118ab	-0.0018394192
6	0x3f50b302	0.81523144
7	0x3a69f494	0.00089246896
8	0xbd292824	-0.041298047
9	0xbd9f582d	-0.0778049
10	0xb950abc6	-0.00019900416
11	0x00002343	1.265e-41
12	0x3e32ed00	0.17473221
13	0x3ef15616	0.4713599
14	0x32eb151e	2.7367204e-08
15	0xbc426654	-0.011865217
16	0x38c4a6bb	9.377064e-05
17	0x3e8af16c	0.27137315
18	0xb5d1a878	-1.5620744e-06
19	0x3d30325b	0.043016773
20	0x3d28522f	0.041094
21	0xbe325c66	-0.1741806
22	0xbca2f365	-0.01989145
23	0x00000a79	3.757e-42
24	0xbd15d50d	-0.036580134
25	0x80001e52	-1.0877e-41
26	0x000007db	2.818e-42
27	0x3d35563c	0.044271693
28	0x3f3fb844	0.7489054
29	0x0000060b	2.168e-42
30	0x3de9e304	0.11420253
31	0xbda8b3f2	-0.08237447
32	0x36668e48	3.435549e-06
33	0xbcab3e0f	-0.020903615
34	0x3f24b663	0.643408
35	0x00000f59	5.506e-42
36	0xbd2247d7	-0.039619293
37	0x3ebc9e02	0.368393
38	0x80002095	-1.1688e-41
39	0xbe8fe62a	-0.2810529
40	0x381af7c1	3.69472e-05
41	0x3f0be72d	0.5464962
42	0x3e7bdee5	0.24596746
43	0x0000025a	8.44e-43
44	0xa8fed09b	-2.8290133e-14
45	0xbbf0aed7	-0.0073450613
46	0x3d19f6fa	0.03758905
47	0xb62d5683	-2.5829365e-06
48	0x3bc15cb5	0.005900944
49	0x3f0738f1	0.5282126
50	0x800005aa	-2.032e-42
51	0xaac91b79	-3.5723835e-13
52	0xbe9f7569	-0.31144264
53	0xb8241191	-3.9117007e-05
54	0xbea6762f	-0.32512042
55	0x399fbb26	0.0003046628
56	0x3e6b5652	0.22982147
57	0xbe9768fe	-0.2957229
58	0x3c37afad	0.011211318
59	0xbc617e80	-0.01376307
60	0xbc4d5baa	-0.012534061
61	0x3e8b52ea	0.27211696
62	0x3ecee20d	0.40406838
63	0x38d61503	0.00010208229
64	0xbe18789f	-0.14889763
65	0xbdf87463	-0.12131574
66	0x00000f94	5.588e-42
67	0x35d2f73e	1.5718176e-06
68	0xbcb25bce	-0.021772292
69	0xbc4059e3	-0.011740181
70	0xbd831a09	-0.0640145
71	0x3abbd22e	0.0014329606
72	0xbbe2b4fd	-0.006918548
73	0xbc8a224a	-0.016862053
74	0x37a73b18	1.9935469e-05
75	0x00002184	1.2023e-41
76	0x3f442278	0.76615095
77	0x3c7ad5e8	0.015309788
78	0x0000166d	8.045e-42
79	0x3c0ced5c	0.008601513
80	0xb9841c3e	-0.00025198044
81	0x3cdc7eb9	0.026915895
82	0x80001962	-9.106e-42
83	0x3b9bbf64	0.00475304
84	0x3f1fcc35	0.6242097
85	0x3cec29c4	0.02882851
86	0x380444ca	3.1535317e-05
87	0x000015bf	7.801e-42
88	0x38e79bcb	0.00011043957
89	0x0000103d	5.825e-42
90	0x00002666	1.3775e-41
91	0xbcba6281	-0.022752048
92	0xbd9b99eb	-0.07597717
93	0x80000b9e	-4.167e-42
94	0x3f57c135	0.84279186
95	0xbbd33f0a	-0.006446724
96	0xb8d74d9d	-0.000102664555
97	0xbc262eb7	-0.010142974
98	0xbeec6ed0	-0.46178293
99	0x00001dd9	1.0707e-41
100	0x3c5073b5	0.012722899
101	0xbd134f98	-0.03596458
102	0x800011df	-6.411e-42
103	0xbe1d5a21	-0.15366413
104	0x33a6c79e	7.7662875e-08
105	0x3d348f2f	0.044081863
106	0xbf2e42e6	-0.6807083
107	0x00001ef0	1.1098e-41
108	0x2f768281	2.2419934e-10
109	0x37695b75	1.3909176e-05
110	0x3dc14d20	0.094385386
111	0xb1ac3eb8	-5.012989e-09
112	0xbd00577a	-0.031333424
113	0xbeb3b049	-0.35095432
114	0x800023be	-1.2822e-41
115	0xb5e7d6a9	-1.7273316e-06
116	0x3e1852f9	0.14875402
117	0xbc3153a4	-0.010823164
118	0x3da70347	0.08154922
119	0xbb0a0371	-0.002105918
120	0x3f44bb0d	0.76847917
121	0x3d4b8dca	0.049695767
122	0xbbe5ebd4	-0.0070166383
123	0x386a2bb1	5.583064e-05
124	0x374f05a4	1.2339475e-05
125	0xbd681140	-0.056657076
126	0xbf29d0bb	-0.6633412
127	0xb7f888d1	-2.9627614e-05
128	0x8000261a	-1.3668e-41
129	0x8000115c	-6.227e-42
130	0x00001de1	1.0719e-41
131	0x80000709	-2.524e-42
132	0x80000ce1	-4.62e-42
133	0x80001d02	-1.0406e-41
134	0x00001e2f	1.0828e-41
135	0x80001873	-8.771e-42
136	0x00001dde	1.0714e-41
137	0x80001e5e	-1.0894e-41
138	0x800022be	-1.2463e-41
139	0x80000b90	-4.148e-42
140	0x80000dcb	-4.948e-42
141	0x80001b8d	-9.883e-42
142	0x8000231c	-1.2595e-41
143	0x00000a7d	3.762e-42
144	0x800022e9	-1.2523e-41
145	0x00001bab	9.925e-42
146	0x80000fe4	-5.7e-42
147	0x80000df3	-5.004e-42
148	0x80001e96	-1.0972e-41
149	0x8000156d	-7.686e-42
150	0x800002a6	-9.5e-43
151	0x8000111e	-6.14e-42
152	0x80001864	-8.75e-42
153	0x80002060	-1.1614e-41
154	0x000018ae	8.853e-42
155	0x00000f59	5.506e-42
156	0x00001f4e	1.123e-41
157	0x000020c2	1.1751e-41
158	0x80001795	-8.46e-42
159	0x80002030	-1.1547e-41
160	0x8000191f	-9.012e-42
161	0x000020fb	1.1831e-41
162	0x80002654	-1.375e-41
163	0x000009a2	3.456e-42
164	0x00001a14	9.355e-42
165	0x80000b6c	-4.097e-42
166	0x80000959	-3.353e-42
167	0x800024ed	-1.3246e-41
168	0x80000e10	-5.045e-42
169	0x800018b6	-8.865e-42
170	0x000002e8	1.043e-42
171	0x800022b5	-1.245e-41
172	0x80000ce8	-4.63e-42
173	0x80000b99	-4.16e-42
174	0x800021ca	-1.2121e-41
175	0x800009be	-3.495e-42
176	0x800023d9	-1.286e-41
177	0x8000254c	-1.338e-41
178	0x800022d9	-1.2501e-41
179	0x0000134d	6.924e-42
180	0x8000077a	-2.682e-42
181	0x80001e38	-1.084e-41
182	0x80001d3a	-1.0485e-41
183	0x00000a05	3.594e-42
184	0x8000146b	-7.325e-42
185	0x8000144a	-7.278e-42
186	0x00001dcd	1.069e-41
187	0x80000e58	-5.146e-42
188	0x80002032	-1.155e-41
189	0x80001f2a	-1.118e-41
190	0x80002178	-1.2006e-41
191	0x00000942	3.321e-42
192	0x80000a4f	-3.698e-42
193	0x80000442	-1.527e-42
194	0x80000b4f	-4.057e-42
195	0x80001e3c	-1.0846e-41
196	0x800026d0	-1.3923e-41
197	0x8000058d	-1.991e-42
198	0x8000157d	-7.709e-42
199	0x80001b1a	-9.722e-42
200	0x80000c67	-4.449e-42
201	0x80000c0a	-4.319e-42
202	0x80001c3b	-1.0127e-41
203	0x800009b7	-3.485e-42
204	0x80001e9a	-1.0978e-41
205	0x80001b18	-9.72e-42
206	0x800013c4	-7.09e-42
207	0x80000f6c	-5.532e-42
208	0x800023aa	-1.2794e-41
209	0x0000161d	7.933e-42
210	0x80001df5	-1.0747e-41
211	0x00001c1a	1.0081e-41
212	0x0000123b	6.54e-42
213	0x80002273	-1.2358e-41
214	0x80001f7c	-1.1294e-41
215	0x80000f76	-5.546e-42
216	0x80001e65	-1.0904e-41
217	0x80001154	-6.216e-42
218	0x80002586	-1.3461e-41
219	0x00000c06	4.313e-42
220	0x80001a06	-9.335e-42
221	0x80001336	-6.892e-42
222	0x80000de7	-4.987e-42
223	0x80001fe4	-1.144e-41
224	0x800018dc	-8.918e-42
225	0x0000104b	5.845e-42
226	0x80001e37	-1.0839e-41
227	0x0000189a	8.825e-42
228	0x800025ab	-1.3513e-41
229	0x80002694	-1.3839e-41
230	0x00000c56	4.425e-42
231	0x800006e3	-2.47e-42
232	0x80001386	-7.004e-42
233	0x800020c2	-1.1751e-41
234	0x80001037	-5.817e-42
235	0x0000210f	1.1859e-41
236	0x80000808	-2.881e-42
237	0x00001cc8	1.0325e-41
238	0x800010b2	-5.989e-42
239	0x00000ec0	5.291e-42
240	0x800020a7	-1.1713e-41
241	0x80002178	-1.2006e-41
242	0x000013bb	7.078e-42
243	0x000019b2	9.218e-42
244	0x00000cb2	4.554e-42
245	0x80002558	-1.3396e-41
246	0x80001fee	-1.1454e-41
247	0x80001856	-8.73e-42
248	0x00001997	9.18e-42
249	0x80002065	-1.1621e-41
250	0x8000143d	-7.26e-42
251	0x80001b74	-9.848e-42
252	0x800010d2	-6.034e-42
253	0x80001554	-7.651e-42
254	0x8000186d	-8.762e-42
255	0x8000211a	-1.1875e-41

linear5.bias f4 [16]
0	0xbe33dbba	-0.17564288
1	0xbe987fe1	-0.29785064
2	0x800016c4	-8.167e-42
3	0x80001fc2	-1.1393e-41
4	0x80000939	-3.308e-42
5	0x80000694	-2.36e-42
6	0x3db7eae6	0.0898035
7	0x3dccfe6c	0.100094646
8	0xbb04745f	-0.0020210964
9	0x391f6784	0.00015201984
10	0x3c5b7999	0.01339569
11	0x3d7d53ed	0.061847616
12	0x800019a4	-9.198e-42
13	0x3e544e17	0.20732914
14	0x80000ca7	-4.539e-42
15	0x80001508	-7.545e-42

linear6.weight f4 [4, 16]
0	0xbeff43c6	-0.49856395
1	0x3f3b0b06	0.73063695
2	0x00001848	8.71e-42
3	0x00000c8b	4.5e-42
4	0x80000fe1	-5.696e-42
5	0x80000cc2	-4.577e-42
6	0x3cd69a7c	0.02619671
7	0xbd368024	-0.0445558
8	0x3d5ef0a3	0.054428708
9	0x3ce35cea	0.027754266
10	0xbc873415	-0.016504327
11	0xbb8766a4	-0.0041321088
12	0x00001af2	9.666e-42
13	0x3e0c407c	0.13696474
14	0x000015c9	7.815e-42
15	0x00000e5b	5.15e-42
16	0x3f08da24	0.53457856
17	0x3df54d54	0.1197764
18	0x80001862	-8.747e-42
19	0x00002288	1.2387e-41
20	0x80001e0d	-1.078e-41
21	0x0000087f	3.048e-42
22	0x3e9c17a3	0.30486783
23	0x3e355280	0.17707253
24	0xbd656193	-0.056001257
25	0xb99cf4ed	-0.00029937123
26	0x3c66c569	0.014085152
27	0x3e3799ed	0.17929812
28	0x00002281	1.2378e-41
29	0xbfb5f7d5	-1.4216257
30	0x8000215d	-1.1968e-41
31	0x000012a9	6.694e-42
32	0x3ebf5083	0.37366113
33	0x3d15a3e1	0.03653324
34	0x80001a69	-9.474e-42
35	0x00001bad	9.928e-42
36	0x00000ee8	5.347e-42
37	0x80001576	-7.699e-42
38	0xbde67d52	-0.11254372
39	0xbdc354e7	-0.09537678
40	0xbc72cb94	-0.014819045
41	0xbd318f9d	-0.04334985
42	0xbceaedcd	-0.028677845
43	0xbe17f942	-0.14841178
44	0x0000234c	1.2662e-41
45	0x3decbf75	0.11559955
46	0x000015d2	7.828e-42
47	0x00001f8e	1.132e-41
48	0xbf825fb9	-1.0185462
49	0xbf051759	-0.5198875
50	0x00000984	3.414e-42
51	0x00001772	8.41e-42
52	0x800023b3	-1.2806e-41
53	0x80001b9d	-9.906e-42
54	0x3c9c7c05	0.019102106
55	0x3d8b9240	0.06815004
56	0x3d34614e	0.04403811
57	0xbc194a6e	-0.009356124
58	0x3cb62d12	0.022238288
59	0x3ca26c4f	0.019827036
60	0x0000213b	1.1921e-41
61	0x3f0310e9	0.5119768
62	0x00000f1f	5.424e-42
63	0x000022c4	1.2472e-41

linear6.bias f4 [4]
0	0xbe51b740	-0.2048006
1	0x3de2ffd5	0.11083952
2	0xbd84626b	-0.06464084
3	0x3f1797b3	0.5921585
