checkpoints/dnn_7.pt (torch, 257573 bytes, 12 tensors)

linear1.weight f4 [128, 358]
0	0x3c09aaa6	0.008402502
1	0xbb9ab05f	-0.004720732
2	0x3cea4b44	0.028600343
3	0xbd428e74	-0.047499135
4	0x3c7827fb	0.015146251
5	0xb8961006	-7.155542e-05
6	0x3c4b7ac1	0.0124194035
7	0xbd0e3d05	-0.03472616
8	0x3c45dbe6	0.012076354
9	0xbd0e3f81	-0.03472853
10	0x3d32df18	0.04366979
11	0xbd006e69	-0.031355295
12	0xbc6acf4c	-0.01433165
13	0x3bc3e72a	0.0059784846
14	0xbc9eef65	-0.019401262
15	0xbb9c7b61	-0.00477545
16	0x3d35b5e0	0.044362903
17	0xbb83cbe3	-0.004022108
18	0xbd1c95ca	-0.038228787
19	0x3d06dd96	0.032926165
20	0xbd882acd	-0.066487886
21	0xbba4cc02	-0.0050292024
22	0xbd001e60	-0.031278968
23	0xbd104b65	-0.03522815
24	0xbd32cd0f	-0.04365259
25	0x3c60bf71	0.013717518
26	0xbd6cce64	-0.057814017
27	0xbd38dabe	-0.045130484
28	0xbd24828b	-0.040163558
29	0xbe009cf2	-0.1255987
30	0x3db0ac00	0.086265564
31	0xbdaf94a6	-0.08573274
32	0xbb1f814e	-0.0024338546
33	0x3d8e1d16	0.069391415
34	0x3d992c94	0.07479206
35	0xbd385585	-0.045003433
36	0xbcb34c9f	-0.021887122
37	0x3da932aa	0.082616165
38	0xbdb1f3c6	-0.08689074
39	0x3cbe36c4	0.023219474
40	0x3c516a15	0.01278164
41	0x3d54becc	0.05193977
42	0xbd7ac1d4	-0.061220005
43	0x3d314366	0.043277167
44	0x3c513966	0.0127700325
45	0xbb472aab	-0.0030390422
46	0xbca33bd8	-0.019925997
47	0x3d5ac180	0.053407192
48	0x3c2ac3fe	0.010422705
49	0x3d794f88	0.060866863
50	0xbd8f3b63	-0.06993749
51	0xbd6597d3	-0.056052994
52	0xbd30e1e3	-0.043184172
53	0x3c6bef10	0.014400259
54	0xbd396092	-0.045258112
55	0x3dac9e14	0.084285885
56	0xbdc297b4	-0.09501591
57	0x3d20e39b	0.03927956
58	0x3ded59fa	0.11589427
59	0x3e17398c	0.14768046
60	0x3d7b5cf3	0.06136794
61	0x3ddab76a	0.10679515
62	0x3ddcf66e	0.1078919
63	0xbd2ed7dc	-0.04268633
64	0x3d60fdde	0.054929607
65	0xbd0616f2	-0.032736726
66	0xbd047fcc	-0.03234844
67	0xbcd08e2c	-0.025458418
68	0x3c920996	0.017826837
69	0xbd3b4411	-0.04571921
70	0xbd9024fd	-0.07038305
71	0xbc0a1bda	-0.008429492
72	0xbc9b013f	-0.018921493
73	0xbcd2dbf6	-0.025739651
74	0x3d9ed572	0.07755555
75	0x3d9fcf50	0.078032136
76	0x3d76f667	0.06029358
77	0x3c1f2100	0.009712458
78	0x3cf67737	0.030086143
79	0x3ce2d6dd	0.027690345
80	0xbca3d8ad	-0.02000078
81	0x3ccdcf54	0.025123276
82	0x3ad4b875	0.0016229289
83	0x3d93c2ca	0.072148874
84	0xbc18bb4f	-0.009322002
85	0xbc495be5	-0.012289976
86	0x3c7a816d	0.015289647
87	0x3cb5d7f5	0.022197703
88	0x3bbd92ef	0.005785338
89	0x3d0c9246	0.034319185
90	0xba27e720	-0.0006404985
91	0x3af60b58	0.0018771691
92	0xbc1e81c9	-0.009674498
93	0x3d0512b7	0.03248855
94	0xbd330742	-0.043708093
95	0x3d69eebf	0.05711245
96	0x3cede9fd	0.029042238
97	0x3984c611	0.00025324573
98	0x3a8fe19c	0.0010977271
99	0xbc4b2c6e	-0.01240073
100	0x3b16719b	0.0022955898
101	0xbd39b1b7	-0.045335498
102	0xbcaf3fc8	-0.021392718
103	0x3e51abc9	0.20475687
104	0x3d2a1553	0.041524243
105	0x3b9b8225	0.004745739
106	0x3e1064e0	0.14100981
107	0xbe071c94	-0.13194495
108	0x3c478765	0.012178277
109	0xbd6bc761	-0.05756319
110	0x3d0491a1	0.032365445
111	0xbe065e51	-0.13121916
112	0xbceb53dc	-0.02872651
113	0xbbaf0715	-0.0053414204
114	0x3ccbaa74	0.024861552
115	0xbcf87dde	-0.030333456
116	0x3b962e91	0.004583188
117	0x3ded247e	0.11579226
118	0x3de54ed5	0.11196677
119	0x3da1e93c	0.07905814
120	0xbdd75fac	-0.10516295
121	0xbda21283	-0.07913687
122	0x3b8cd010	0.004297264
123	0x3dde0cc3	0.10842278
124	0x3df36fdd	0.118865706
125	0x3ddd9a18	0.10820407
126	0x3ebcbf43	0.3686467
127	0x3cd50ac6	0.026006114
128	0x3d76ea55	0.06028207
129	0x3dcff79d	0.1015465
130	0xbdb7e5b7	-0.089793615
131	0x3d2f8723	0.042853486
132	0x3d1b4060	0.03790319
133	0xbaaad2fa	-0.0013032847
134	0xbcb1ca50	-0.021702915
135	0x3c4d6afc	0.012537714
136	0x3ceac2ff	0.028657435
137	0x3d880dc4	0.066432506
138	0xbcca71af	-0.024712412
139	0x3d899347	0.06717544
140	0xbbb247ec	-0.0054407027
141	0x3cb7e902	0.022449974
142	0x3d8f9c69	0.07012255
143	0xbe0ee578	-0.13954723
144	0x3e218077	0.15771662
145	0xbdecb608	-0.11558157
146	0xbd789857	-0.060692158
147	0xbe16e745	-0.1473666
148	0x3d483871	0.04888195
149	0xbd10d54c	-0.035359666
150	0xbe364629	-0.17800201
151	0xbe580162	-0.21094278
152	0xbebd7b01	-0.37007907
153	0x3d7abc4d	0.061214734
154	0x3ceab871	0.028652402
155	0xbd8934ed	-0.06699548
156	0xbcb39056	-0.02191941
157	0xbd986927	-0.07441931
158	0xbdc98646	-0.09840064
159	0x3d4bb9f6	0.049737893
160	0xbd067523	-0.032826554
161	0x3d2ca776	0.04215189
162	0x3d273078	0.040817708
163	0xbdcab92a	-0.098985985
164	0x3da90efb	0.082548104
165	0x3db71d7d	0.08941171
166	0x3d2f97b8	0.0428693
167	0xbcfb53a1	-0.030679526
168	0x3cbb49c1	0.022862317
169	0xbce67dba	-0.028136123
170	0x3dcdb64a	0.100445345
171	0xbcbdd85c	-0.023174457
172	0x3d03130a	0.03200058
173	0xbd06e855	-0.032936413
174	0x3ca68d51	0.020331057
175	0x3c144ece	0.009051992
176	0xbc653ac7	-0.013991064
177	0x3bacae55	0.0052698054
178	0x3cd09175	0.025459984
179	0xbdceaad1	-0.100911744
180	0x3d35e245	0.04440524
181	0xbcec6fa1	-0.028861823
182	0x3ca94a50	0.020665318
183	0x3d60a445	0.05484416
184	0x3cc326ef	0.023822276
185	0xbd93f875	-0.07225124
186	0x3b0d0bef	0.0021522006
187	0xbd19c355	-0.0375398
188	0xbb076c20	-0.0020663813
189	0x3d91025e	0.0708053
190	0xbc1778e8	-0.009245135
191	0xbd008045	-0.031372327
192	0xbca381fc	-0.019959442
193	0xbb6aa97d	-0.003580659
194	0x3b2a363c	0.0025972268
195	0x3bdad138	0.006677773
196	0x3cfa2b81	0.030538322
197	0x3c0d7ec1	0.0086361775
198	0x3ba67ee7	0.005081046
199	0x3a70667b	0.0009170544
200	0x3cc8aa8c	0.024495386
201	0xbd738fbc	-0.059463248
202	0xbbb0cb06	-0.005395296
203	0xbd499189	-0.04921106
204	0xbb973695	-0.004614661
205	0x3b53a1f0	0.0032292567
206	0x3cf7dbce	0.030256178
207	0xbc8abbdf	-0.016935287
208	0xbd2be489	-0.041965995
209	0xbd028c15	-0.031871874
210	0xbb7c4f7b	-0.0038499522
211	0xba171e89	-0.0005764743
212	0x3c3f7517	0.011685631
213	0xbcc19f2b	-0.023635468
214	0x3c1a3939	0.009413057
215	0xbe59ae3a	-0.21257868
216	0x3cedbc95	0.029020587
217	0xbde8e223	-0.11371257
218	0xbce89ca1	-0.028394999
219	0x3cd64e50	0.02616039
220	0x3d7e6899	0.06211147
221	0xbcf223b2	-0.029558036
222	0x3e061632	0.13094404
223	0xbc49b41c	-0.012311008
224	0xbaab2eed	-0.001306025
225	0x3c8b1acb	0.01698055
226	0xbd5fc377	-0.05462977
227	0xbd0494fb	-0.03236864
228	0xbd575b54	-0.05257733
229	0x3e8c4247	0.27394316
230	0x3c1b6862	0.009485336
231	0xbd2a6497	-0.041599836
232	0xbd20596e	-0.039147787
233	0xbd2f9f82	-0.042876728
234	0xbd549e74	-0.051908925
235	0xbcd44ebe	-0.025916453
236	0xbc9db25d	-0.01925009
237	0xbd34ed20	-0.044171453
238	0x3d1b42ce	0.037905507
239	0x3ca02b1f	0.019551812
240	0xbc5631e8	-0.013073422
241	0x3d3be5f0	0.045873582
242	0xbd357f00	-0.04431057
243	0x3d36138b	0.04445223
244	0xbca64702	-0.020297531
245	0xbca5c0b9	-0.020233499
246	0xbca36aff	-0.01994848
247	0x3d21517b	0.039384346
248	0xba16b642	-0.00057492044
249	0xbc112893	-0.008859771
250	0x3d29f676	0.04149481
251	0x3a73dbbc	0.00093024573
252	0xbc61759b	-0.0137609495
253	0xba8f94b5	-0.0010954352
254	0xbdaf2271	-0.08551491
255	0xbb79abcf	-0.003809679

linear1.bias f4 [128]
0	0x3cb8c009	0.022552507
1	0xbcb5dd07	-0.02220012
2	0x3c4f9037	0.012668661
3	0x3cf12e73	0.029441094
4	0xbd40a89c	-0.0470358
5	0x3dd56694	0.10419956
6	0xbd25af17	-0.04045018
7	0xba97c76e	-0.001157982
8	0xb9105a89	-0.00013766637
9	0xbc9d337a	-0.019189585
10	0xbd05b9d6	-0.03264793
11	0xbca15f11	-0.019698652
12	0xbd4edf27	-0.050505783
13	0xbce687bc	-0.028140895
14	0x3d313941	0.043267492
15	0xbd60dca5	-0.054897923
16	0x3d435434	0.047687724
17	0x3de25af7	0.110525064
18	0xbce4783c	-0.027889363
19	0x3d06ec46	0.03294017
20	0xbd0ee3fb	-0.034885388
21	0xbd32e320	-0.043673635
22	0xbd33c279	-0.043886635
23	0x3cfc4ddd	0.030798847
24	0x3c86c0b4	0.01644931
25	0x3e3214f8	0.17390811
26	0xbaa27618	-0.0012394814
27	0x3b4caea5	0.0031232026
28	0x3b6229e1	0.0034509825
29	0xbcf4f9ff	-0.029904364
30	0x3d064a83	0.032785904
31	0xbd038d60	-0.032117248
32	0x3ca942f8	0.020661816
33	0xbda7a9b4	-0.08186665
34	0xbdb3f283	-0.0878649
35	0xb7f55174	-2.9244206e-05
36	0x3d07da54	0.0331672
37	0xbd13a6f8	-0.036047906
38	0x3b52a1a9	0.0032139814
39	0x3a9130f7	0.0011077215
40	0x3c8925f8	0.016741738
41	0x3e5f7c21	0.21824695
42	0xbcf966bd	-0.030444497
43	0x3d854c78	0.06508726
44	0xbb258353	-0.0025255277
45	0xbd8f462a	-0.069958046
46	0xbd26f86e	-0.040764265
47	0x3b9c8d77	0.004777606
48	0x3d89921f	0.067173235
49	0x3c8b44f0	0.017000645
50	0x3c287bb3	0.010283398
51	0xbd3610c5	-0.044449586
52	0xbc8f8505	-0.017519483
53	0x3c83cedf	0.016089855
54	0x3bd221bb	0.0064127124
55	0xbd055c3e	-0.032558672
56	0xbc044cc7	-0.008074946
57	0x3cc82add	0.024434501
58	0xbced87e2	-0.028995458
59	0xbcef662d	-0.029223526
60	0x3bf743cf	0.007545925
61	0xbd4171db	-0.04722772
62	0xbc2cb009	-0.010540017
63	0x3c8f9b8a	0.017530221
64	0xbca18504	-0.019716747
65	0xbd10dc81	-0.03536654
66	0x3cef8cbc	0.029241912
67	0x3d9cde37	0.076595716
68	0xbbc5c100	-0.0060349703
69	0x3dd2c1a1	0.10290838
70	0x3cf0f591	0.02941397
71	0x3c4aba2f	0.012373491
72	0x3e40829f	0.18799828
73	0xbde1e23d	-0.1102948
74	0x3d68ee8d	0.056868125
75	0xbcaecabf	-0.021336911
76	0x3c0d6711	0.00863053
77	0x3d8c8a52	0.0686232
78	0xbdaecff0	-0.08535755
79	0x3cd3d579	0.025858628
80	0xbcfd82f5	-0.030946234
81	0xbcc5ca6d	-0.024144376
82	0x3d8f2bd0	0.069907784
83	0x3e081f2d	0.13293143
84	0xbbd29bca	-0.006427263
85	0x3d034c44	0.032055154
86	0x3d175dcf	0.036954697
87	0xbc59015d	-0.013244954
88	0xbd14898a	-0.03626398
89	0xbbeee8dd	-0.007290943
90	0x3e29ac27	0.16569577
91	0x3b57ec19	0.0032947122
92	0x3e4e709c	0.20160145
93	0x3d1569ac	0.03647773
94	0xbc825456	-0.015909355
95	0xbdb001e1	-0.085941084
96	0x3bd1964a	0.0063960897
97	0x3d186d3e	0.037213556
98	0x3e943130	0.28943777
99	0x3dd33581	0.103129394
100	0xbb5f0435	-0.0034029607
101	0x3d0186e7	0.031622794
102	0x3c238876	0.009981265
103	0x3e230817	0.15921055
104	0xbc98eb33	-0.01866684
105	0x3ce7fe27	0.028319431
106	0xbc1ea0fa	-0.0096819345
107	0xbc8fb06d	-0.017540181
108	0xbda2e746	-0.07954268
109	0xbd1c2fd8	-0.038131565
110	0x3d4d4281	0.05011225
111	0x3d132b2f	0.035929855
112	0x3d37aee8	0.044844538
113	0xbd04d5f4	-0.032430604
114	0xbc3f40be	-0.011673151
115	0xbb9994c4	-0.0046869237
116	0xbd38924b	-0.04506139
117	0xbc9c183f	-0.01905453
118	0xbd2eb72d	-0.04265516
119	0xbd0aed44	-0.03391768
120	0x3d0c201a	0.034210302
121	0xbb1b771a	-0.0023722113
122	0x3c1c4097	0.009536884
123	0xbc0b5797	-0.00850477
124	0xbd3eb03b	-0.046554785
125	0x3d187e44	0.03722979
126	0x3df81b11	0.121145375
127	0xbd4d0795	-0.05005606

linear2.weight f4 [64, 128]
0	0x8000028c	-9.14e-43
1	0x80001d74	-1.0566e-41
2	0x80001e51	-1.0875e-41
3	0x800012ef	-6.792e-42
4	0x800025f8	-1.362e-41
5	0x00001284	6.642e-42
6	0x80000e1c	-5.061e-42
7	0x800018c6	-8.887e-42
8	0x80000c9a	-4.52e-42
9	0x800010c2	-6.012e-42
10	0x80000055	-1.19e-43
11	0x80000563	-1.932e-42
12	0x80001666	-8.035e-42
13	0x800020e5	-1.18e-41
14	0x800019b1	-9.216e-42
15	0x80000796	-2.721e-42
16	0x80000cea	-4.633e-42
17	0x80001e85	-1.0948e-41
18	0x800004ec	-1.766e-42
19	0x80002170	-1.1995e-41
20	0x80000c87	-4.494e-42
21	0x80002008	-1.149e-41
22	0x8000198b	-9.163e-42
23	0x8000024b	-8.23e-43
24	0x8000054b	-1.899e-42
25	0x80000aef	-3.922e-42
26	0x800024ec	-1.3245e-41
27	0x8000173d	-8.336e-42
28	0x80001cd4	-1.0342e-41
29	0x800021fa	-1.2188e-41
30	0x800015c8	-7.814e-42
31	0x800020c4	-1.1754e-41
32	0x800009a7	-3.463e-42
33	0x8000154c	-7.64e-42
34	0x800008d9	-3.174e-42
35	0x800024be	-1.318e-41
36	0x80001efc	-1.1115e-41
37	0x80000357	-1.198e-42
38	0x00001c20	1.009e-41
39	0x80001534	-7.606e-42
40	0x80001875	-8.774e-42
41	0x80000258	-8.41e-43
42	0x80000be8	-4.271e-42
43	0x800015ea	-7.861e-42
44	0x80000bd7	-4.247e-42
45	0x800015ff	-7.891e-42
46	0x800009c2	-3.5e-42
47	0x80002069	-1.1627e-41
48	0x80001cb2	-1.0294e-41
49	0x800004ed	-1.767e-42
50	0x80001921	-9.015e-42
51	0x80000e99	-5.237e-42
52	0x80001687	-8.081e-42
53	0x80001b92	-9.89e-42
54	0x80002165	-1.198e-41
55	0x8000038b	-1.271e-42
56	0x80002460	-1.3049e-41
57	0x00000415	1.464e-42
58	0x80000cf3	-4.645e-42
59	0x80000b59	-4.071e-42
60	0x80001a8a	-9.52e-42
61	0x000015b4	7.786e-42
62	0x80002673	-1.3793e-41
63	0x800016d3	-8.188e-42
64	0x80002457	-1.3036e-41
65	0x000023a3	1.2784e-41
66	0x800013c4	-7.09e-42
67	0x80001029	-5.797e-42
68	0x80001818	-8.643e-42
69	0x80002592	-1.3478e-41
70	0x80000a67	-3.732e-42
71	0x80002456	-1.3035e-41
72	0x80002195	-1.2047e-41
73	0x80000f93	-5.587e-42
74	0x80001c8b	-1.0239e-41
75	0x8000131d	-6.857e-42
76	0x80000534	-1.867e-42
77	0x800007af	-2.756e-42
78	0x80000edd	-5.332e-42
79	0x8000117c	-6.272e-42
80	0x80000d87	-4.853e-42
81	0x80000d6e	-4.818e-42
82	0x800007e6	-2.833e-42
83	0x80001858	-8.733e-42
84	0x80000344	-1.171e-42
85	0x80001fc6	-1.1398e-41
86	0x80001573	-7.695e-42
87	0x800022f8	-1.2544e-41
88	0x80001998	-9.181e-42
89	0x80001601	-7.894e-42
90	0x80000c57	-4.427e-42
91	0x80001b86	-9.874e-42
92	0x80000e18	-5.056e-42
93	0x80001696	-8.102e-42
94	0x800018e0	-8.923e-42
95	0x80000c75	-4.469e-42
96	0x80000cc2	-4.577e-42
97	0x80001088	-5.93e-42
98	0x80000c69	-4.452e-42
99	0x8000164a	-7.996e-42
100	0x80000909	-3.241e-42
101	0x80001fbb	-1.1383e-41
102	0x80000cec	-4.635e-42
103	0x800014e7	-7.498e-42
104	0x80000913	-3.255e-42
105	0x80001076	-5.905e-42
106	0x80000b03	-3.95e-42
107	0x800006b3	-2.403e-42
108	0x800002d2	-1.012e-42
109	0x800003c8	-1.356e-42
110	0x8000204e	-1.1589e-41
111	0x800017a7	-8.485e-42
112	0x800013c6	-7.093e-42
113	0x800018f7	-8.956e-42
114	0x0000078d	2.709e-42
115	0x800004b5	-1.689e-42
116	0x80000cbb	-4.567e-42
117	0x80002057	-1.1601e-41
118	0x80001d3c	-1.0487e-41
119	0x80001252	-6.572e-42
120	0x80001576	-7.699e-42
121	0x00000b5c	4.075e-42
122	0x80001e36	-1.0838e-41
123	0x8000215d	-1.1968e-41
124	0x80002208	-1.2208e-41
125	0x80001974	-9.131e-42
126	0x8000163f	-7.98e-42
127	0x80001ad1	-9.62e-42
128	0x80000978	-3.397e-42
129	0x80001161	-6.234e-42
130	0x8000083c	-2.954e-42
131	0x80000861	-3.006e-42
132	0x00001663	8.031e-42
133	0x800008b9	-3.129e-42
134	0x80000dd5	-4.962e-42
135	0x800020bc	-1.1743e-41
136	0x800017e5	-8.572e-42
137	0x80000c1b	-4.343e-42
138	0x80000d63	-4.802e-42
139	0x80001a8d	-9.525e-42
140	0x80000e4c	-5.129e-42
141	0x80001c80	-1.0224e-41
142	0x80001d33	-1.0475e-41
143	0x80001bb2	-9.935e-42
144	0x000001c6	6.36e-43
145	0x8000189c	-8.828e-42
146	0x80000a6a	-3.736e-42
147	0x80001e4b	-1.0867e-41
148	0x80002020	-1.1524e-41
149	0x80000975	-3.393e-42
150	0x8000266f	-1.3787e-41
151	0x80000543	-1.888e-42
152	0x80001bcd	-9.973e-42
153	0x800015b1	-7.781e-42
154	0x80001abd	-9.592e-42
155	0x80001ec8	-1.1042e-41
156	0x8000141e	-7.217e-42
157	0x80001f45	-1.1217e-41
158	0x80001562	-7.671e-42
159	0x80001f34	-1.1194e-41
160	0x80001f01	-1.1122e-41
161	0x00000f8b	5.576e-42
162	0x80000665	-2.294e-42
163	0x80002063	-1.1618e-41
164	0x80000830	-2.937e-42
165	0x8000138c	-7.012e-42
166	0x80001760	-8.385e-42
167	0x80001134	-6.171e-42
168	0x80000be3	-4.264e-42
169	0x800020ae	-1.1723e-41
170	0x800019d4	-9.265e-42
171	0x80001bc5	-9.962e-42
172	0x80002014	-1.1507e-41
173	0x800022db	-1.2504e-41
174	0x80002386	-1.2743e-41
175	0x80001024	-5.79e-42
176	0x80001451	-7.288e-42
177	0x80002372	-1.2715e-41
178	0x00001588	7.724e-42
179	0x80001a1c	-9.366e-42
180	0x8000060f	-2.173e-42
181	0x80000ad6	-3.887e-42
182	0x80001cfb	-1.0396e-41
183	0x80001c59	-1.0169e-41
184	0x80001d84	-1.0588e-41
185	0x80001e53	-1.0878e-41
186	0x8000215a	-1.1964e-41
187	0x800023e6	-1.2878e-41
188	0x80001a8d	-9.525e-42
189	0x80001794	-8.458e-42
190	0x80001084	-5.925e-42
191	0x8000165b	-8.02e-42
192	0x80000dc8	-4.944e-42
193	0x800009fd	-3.583e-42
194	0x00001616	7.923e-42
195	0x80002668	-1.3778e-41
196	0x800017ea	-8.579e-42
197	0x80002093	-1.1685e-41
198	0x80001c13	-1.0071e-41
199	0x000018ed	8.942e-42
200	0x80001bd9	-9.99e-42
201	0x800008af	-3.115e-42
202	0x800022f9	-1.2546e-41
203	0x00001246	6.555e-42
204	0x00000f96	5.591e-42
205	0x80001cf8	-1.0392e-41
206	0x800022a7	-1.2431e-41
207	0x000009f1	3.566e-42
208	0x800005a4	-2.023e-42
209	0x80000eb6	-5.277e-42
210	0x8000197a	-9.139e-42
211	0x800021cb	-1.2123e-41
212	0x800016c2	-8.164e-42
213	0x80001e94	-1.097e-41
214	0x80001f18	-1.1154e-41
215	0x80002277	-1.2364e-41
216	0x00000a11	3.611e-42
217	0x80000875	-3.034e-42
218	0x800010b0	-5.986e-42
219	0x800005ad	-2.036e-42
220	0x80002036	-1.1555e-41
221	0x80000cd8	-4.607e-42
222	0x800012de	-6.768e-42
223	0x00002262	1.2334e-41
224	0x8000235b	-1.2683e-41
225	0x800021c5	-1.2114e-41
226	0x80001222	-6.505e-42
227	0x80000a1f	-3.631e-42
228	0x80001737	-8.328e-42
229	0x800016e8	-8.217e-42
230	0x80001108	-6.11e-42
231	0x80001c42	-1.0137e-41
232	0x80000fe5	-5.702e-42
233	0x80001314	-6.844e-42
234	0x80001e12	-1.0787e-41
235	0x800012a1	-6.683e-42
236	0x80000918	-3.262e-42
237	0x80000a10	-3.61e-42
238	0x80000e9c	-5.241e-42
239	0x80000d34	-4.736e-42
240	0x80001999	-9.183e-42
241	0x80001780	-8.43e-42
242	0x800013b6	-7.071e-42
243	0x80000d1f	-4.707e-42
244	0x80000d43	-4.757e-42
245	0x800019f5	-9.312e-42
246	0x80001415	-7.204e-42
247	0x8000025e	-8.49e-43
248	0x800022e9	-1.2523e-41
249	0x00000a3c	3.671e-42
250	0x80001163	-6.237e-42
251	0x80000e12	-5.047e-42
252	0x80000c6e	-4.459e-42
253	0x8000201a	-1.1516e-41
254	0x80001d62	-1.054e-41
255	0x80001f2e	-1.1185e-41

linear2.bias f4 [64]
0	0x80001ea8	-1.0997e-41
1	0x80000ac9	-3.869e-42
2	0x8000147a	-7.346e-42
3	0x8000266e	-1.3786e-41
4	0x8e2b7e48	-2.113818e-30
5	0xbded8b40	-0.115988255
6	0x80000a26	-3.64e-42
7	0x80001dd5	-1.0702e-41
8	0x80001847	-8.709e-42
9	0xb9070330	-0.0001287579
10	0x3dc7d241	0.097568996
11	0x8000114a	-6.202e-42
12	0x80002063	-1.1618e-41
13	0x80001639	-7.972e-42
14	0x80002029	-1.1537e-41
15	0x80001293	-6.663e-42
16	0x3dd030de	0.10165571
17	0x3cc31ac6	0.023816478
18	0x80001cf0	-1.0381e-41
19	0x80001051	-5.853e-42
20	0x80001a61	-9.463e-42
21	0x800022a7	-1.2431e-41
22	0x80001d55	-1.0522e-41
23	0x3d41b235	0.047289092
24	0x3d865f01	0.06561089
25	0x80000b71	-4.104e-42
26	0x80000fa6	-5.614e-42
27	0xbd513838	-0.051079005
28	0x800024c5	-1.319e-41
29	0x3e2800ad	0.16406508
30	0x80001a41	-9.418e-42
31	0x80001178	-6.267e-42
32	0x3e73d52c	0.23811787
33	0xbc87bd05	-0.016569624
34	0x3d94852d	0.07251964
35	0x800008fd	-3.224e-42
36	0x3c94ef6e	0.018180575
37	0x80001ae6	-9.65e-42
38	0xbbcfab4e	-0.00633756
39	0x8000238b	-1.275e-41
40	0x80001c74	-1.0207e-41
41	0x80001a73	-9.488e-42
42	0x910d7812	-1.1159938e-28
43	0x3e469146	0.19391355
44	0x80001c59	-1.0169e-41
45	0x80001c79	-1.0214e-41
46	0x800023c9	-1.2837e-41
47	0x80000828	-2.926e-42
48	0x8000115c	-6.227e-42
49	0x80001091	-5.943e-42
50	0x800008c9	-3.152e-42
51	0x80001b56	-9.806e-42
52	0x800026e1	-1.3947e-41
53	0xba345a6f	-0.0006879931
54	0x80002313	-1.2582e-41
55	0x3d0810e9	0.03321925
56	0x80000fa7	-5.615e-42
57	0x80001d9e	-1.0625e-41
58	0x3e3483c3	0.17628388
59	0x80001337	-6.893e-42
60	0x800025a7	-1.3507e-41
61	0x800022f3	-1.2537e-41
62	0x800018bb	-8.872e-42
63	0x80001245	-6.554e-42

linear3.weight f4 [32, 64]
0	0x8000092b	-3.289e-42
1	0x00002207	1.2207e-41
2	0x000002fb	1.069e-42
3	0x80001f0e	-1.114e-41
4	0x800018d3	-8.905e-42
5	0x3d27fcc6	0.041012548
6	0x0000192b	9.029e-42
7	0x80001526	-7.587e-42
8	0x800012bd	-6.722e-42
9	0x3c98f2c3	0.018670445
10	0x3e2e9de5	0.1705242
11	0x80001223	-6.506e-42
12	0x0000210d	1.1856e-41
13	0x80001b5a	-9.812e-42
14	0x80001ccc	-1.033e-41
15	0x00001db0	1.065e-41
16	0x3d5f0b58	0.054454178
17	0xbcb2613d	-0.021774882
18	0x80001364	-6.956e-42
19	0x00001865	8.751e-42
20	0x00001b35	9.76e-42
21	0x80000333	-1.148e-42
22	0x80001abb	-9.589e-42
23	0xbdccf615	-0.10007874
24	0xbe79c101	-0.24390031
25	0x80001f53	-1.1237e-41
26	0x00000579	1.963e-42
27	0x3d983e26	0.07433729
28	0x8000205d	-1.161e-41
29	0x3e949b0b	0.29024538
30	0x8000237f	-1.2734e-41
31	0x8000170a	-8.265e-42
32	0xbc6913a0	-0.01422587
33	0xbc22d149	-0.009937593
34	0x3e8de302	0.27712256
35	0x8000199e	-9.19e-42
36	0x3d0c10e8	0.03419581
37	0x00001ce8	1.037e-41
38	0x32761e3a	1.4325957e-08
39	0x80002051	-1.1593e-41
40	0x80001841	-8.7e-42
41	0x00001325	6.868e-42
42	0x000652b8	5.80687e-40
43	0xbbfbd400	-0.0076851845
44	0x00000dbd	4.928e-42
45	0x000003f6	1.421e-42
46	0x00002546	1.3371e-41
47	0x0000014d	4.67e-43
48	0x80001b5b	-9.813e-42
49	0x000013bc	7.08e-42
50	0x80001199	-6.313e-42
51	0x0000217a	1.2009e-41
52	0x80001a27	-9.382e-42
53	0xbd0ccd9b	-0.03437577
54	0x80000f84	-5.566e-42
55	0xbd5efd35	-0.054440696
56	0x80001b99	-9.9e-42
57	0x00001593	7.74e-42
58	0x3e8bedc1	0.2732983
59	0x00000060	1.35e-43
60	0x00000e9c	5.241e-42
61	0x000011f8	6.446e-42
62	0x00001db7	1.066e-41
63	0x00001787	8.44e-42
64	0x00000254	8.35e-43
65	0x80001536	-7.609e-42
66	0x000016f8	8.24e-42
67	0x00001271	6.616e-42
68	0x8000088e	-3.069e-42
69	0x3dcce4b6	0.10004561
70	0x00000b76	4.111e-42
71	0x000009ca	3.512e-42
72	0x000016e0	8.206e-42
73	0x3d4f026d	0.050539423
74	0x3ee1f9f4	0.44136012
75	0x0000070f	2.532e-42
76	0x0000074c	2.618e-42
77	0x00001564	7.674e-42
78	0x000002fa	1.068e-42
79	0x00001c13	1.0071e-41
80	0x3e46ab76	0.19401345
81	0xbd0b83af	-0.03406113
82	0x80000943	-3.322e-42
83	0x0000097f	3.407e-42
84	0x000010f7	6.086e-42
85	0x80002670	-1.3789e-41
86	0x000018f8	8.957e-42
87	0x3d9a9369	0.075476475
88	0xbbff6f78	-0.0077952705
89	0x80001697	-8.104e-42
90	0x00000f3c	5.465e-42
91	0xbc79c9e0	-0.015245885
92	0x0000190a	8.982e-42
93	0x3f1b311c	0.6062181
94	0x8000266c	-1.3783e-41
95	0x800020cc	-1.1765e-41
96	0xbe4b2e6b	-0.19841926
97	0xbd5178b8	-0.051140517
98	0x3e64201c	0.22277874
99	0x000021bf	1.2106e-41
100	0x3c57722a	0.013149777
101	0x80001de1	-1.0719e-41
102	0x1e25c58e	8.775881e-21
103	0x80000a4e	-3.697e-42
104	0x80000d44	-4.759e-42
105	0x0000235c	1.2685e-41
106	0x0000154e	7.643e-42
107	0xbccb42ca	-0.024812121
108	0x80002658	-1.3755e-41
109	0x80001609	-7.905e-42
110	0x80001c31	-1.0113e-41
111	0x80001cb5	-1.0298e-41
112	0x00000d8e	4.863e-42
113	0x80001711	-8.275e-42
114	0x80001ca1	-1.027e-41
115	0x000016fe	8.248e-42
116	0x00001d25	1.0455e-41
117	0xbd3f31ae	-0.046678238
118	0x80000a60	-3.722e-42
119	0xbb05c339	-0.0020410551
120	0x00002067	1.1624e-41
121	0x00001f20	1.1166e-41
122	0x3ed7cf19	0.4215019
123	0x800012ee	-6.79e-42
124	0x800021af	-1.2083e-41
125	0x00000dd8	4.966e-42
126	0x000018d0	8.901e-42
127	0x00000ee9	5.349e-42
128	0x80000984	-3.414e-42
129	0x00001a1b	9.365e-42
130	0x80001c9d	-1.0265e-41
131	0x000025c0	1.3542e-41
132	0x80002257	-1.2319e-41
133	0x3e02afa8	0.1276232
134	0x00001b5a	9.812e-42
135	0x00000da8	4.899e-42
136	0x00001121	6.145e-42
137	0x3d2180c7	0.039429452
138	0x3e80de4e	0.25169605
139	0x000017dd	8.56e-42
140	0x00000fc4	5.656e-42
141	0x00002431	1.2983e-41
142	0x800026cb	-1.3916e-41
143	0x800018dc	-8.918e-42
144	0x3d936302	0.071966186
145	0xbb8d01a6	-0.004303175
146	0x80001c90	-1.0246e-41
147	0x00002400	1.2914e-41
148	0x80000829	-2.927e-42
149	0x00000eda	5.328e-42
150	0x000025c0	1.3542e-41
151	0x3d9fad4b	0.07796725
152	0x3c4376f8	0.01193022
153	0x00000d77	4.83e-42
154	0x80000971	-3.387e-42
155	0xbd3c812f	-0.046021637
156	0x80001308	-6.827e-42
157	0x3eca0a65	0.39461055
158	0x80000a71	-3.746e-42
159	0x800016f1	-8.23e-42
160	0xbe08142b	-0.13288943
161	0xbcba4f30	-0.022742838
162	0x3dd7e855	0.10542361
163	0x00001395	7.025e-42
164	0x3d6b7f0c	0.05749421
165	0x00000bfa	4.296e-42
166	0x19ec1368	2.4409666e-23
167	0x80000cff	-4.662e-42
168	0x80001a4e	-9.436e-42
169	0x000013d0	7.107e-42
170	0x80000ea4	-5.252e-42
171	0x3cf255ae	0.02958187
172	0x0000234b	1.2661e-41
173	0x8000080f	-2.891e-42
174	0x00001144	6.194e-42
175	0x0000205f	1.1613e-41
176	0x8000222a	-1.2256e-41
177	0x80001279	-6.627e-42
178	0x00000b2f	4.012e-42
179	0x000012bf	6.725e-42
180	0x0000200a	1.1493e-41
181	0xbc2df2bf	-0.010616957
182	0x80000adc	-3.896e-42
183	0x3cd17f94	0.02557353
184	0x00002693	1.3838e-41
185	0x80001caf	-1.029e-41
186	0x3e675c6a	0.22593847
187	0x00001da2	1.063e-41
188	0x80001aef	-9.662e-42
189	0x8000216d	-1.1991e-41
190	0x00001742	8.343e-42
191	0x8000143c	-7.259e-42
192	0x00001062	5.877e-42
193	0x80000aa3	-3.816e-42
194	0x80001b4c	-9.792e-42
195	0x00000cd9	4.609e-42
196	0x00000beb	4.275e-42
197	0x3d61688d	0.055031348
198	0x0000126a	6.606e-42
199	0x8000087f	-3.048e-42
200	0x00000914	3.257e-42
201	0x3be65495	0.007029126
202	0xbe6e3842	-0.23263648
203	0x80001366	-6.959e-42
204	0x80001857	-8.731e-42
205	0x000023f2	1.2895e-41
206	0x00001b42	9.778e-42
207	0x00001cff	1.0402e-41
208	0x3d179b74	0.037013486
209	0x3d986f94	0.07443157
210	0x8000240c	-1.2931e-41
211	0x00001820	8.654e-42
212	0x0000226f	1.2352e-41
213	0x000022a7	1.2431e-41
214	0x80002681	-1.3813e-41
215	0x3ef2e0ea	0.4743722
216	0x3f67cccd	0.90546876
217	0x000011ef	6.433e-42
218	0x00001a7e	9.504e-42
219	0xbdbe09b7	-0.09279197
220	0x00001add	9.637e-42
221	0xbe85a401	-0.26101688
222	0x80000729	-2.569e-42
223	0x000021d1	1.2131e-41
224	0x3da6d7aa	0.081466034
225	0xbe1108e4	-0.14163548
226	0x3dbf5672	0.0934266
227	0x80000eed	-5.354e-42
228	0x3c951b22	0.018201414
229	0x8000215b	-1.1966e-41
230	0x2a03f433	1.1719861e-13
231	0x000016ad	8.135e-42
232	0x800008e7	-3.194e-42
233	0x80000e39	-5.102e-42
234	0x147127b1	1.2175218e-26
235	0x3e374e5e	0.17900988
236	0x00001412	7.2e-42
237	0x8000264a	-1.3736e-41
238	0x800026e6	-1.3954e-41
239	0x00001405	7.182e-42
240	0x800010e7	-6.063e-42
241	0x00000ddc	4.972e-42
242	0x80001fac	-1.1362e-41
243	0x800009cf	-3.519e-42
244	0x000009fd	3.583e-42
245	0xbd1d31f9	-0.038377736
246	0x800025d9	-1.3577e-41
247	0x3e1b40fa	0.15161505
248	0x000016b3	8.143e-42
249	0x00001104	6.104e-42
250	0xbe4ca3c0	-0.1998434
251	0x000024f9	1.3263e-41
252	0x00000a60	3.722e-42
253	0x00001a2b	9.387e-42
254	0x0000087b	3.042e-42
255	0x00001be8	1.0011e-41

linear3.bias f4 [32]
0	0x3e832616	0.25614995
1	0xbc001f72	-0.007819997
2	0xbd582c0d	-0.052776385
3	0x3e0af4cb	0.13569944
4	0x3e81e030	0.25366354
5	0xbef81c35	-0.4845902
6	0x3f004f4e	0.5012101
7	0x3bbc984b	0.0057554594
8	0x3f68b444	0.90900064
9	0x3f2d8bbe	0.67791355
10	0xba97b54f	-0.001157442
11	0x3e1c66e0	0.15273619
12	0x80002518	-1.3307e-41
13	0xbcc17580	-0.023615599
14	0xbc1f2fe4	-0.009716008
15	0x3e8a9168	0.2706406
16	0x3c4db4fe	0.012555359
17	0x3f0b2114	0.5434735
18	0xbd9b85c3	-0.075938724
19	0x80001000	-5.74e-42
20	0xbdba9810	-0.09111035
21	0x3e788dae	0.24272797
22	0x3d40760b	0.046987575
23	0xbcb04edb	-0.021521976
24	0xbc5635ad	-0.013074321
25	0x3d189a66	0.03725662
26	0x80002342	-1.2648e-41
27	0xbd7195a8	-0.058980614
28	0xbd076b90	-0.033061564
29	0x3ea8aa2a	0.32942325
30	0xbd58af35	-0.052901465
31	0xbdc1c986	-0.09462266

linear4.weight f4 [64, 96]
0	0x3d02a055	0.031891186
1	0xbe3e5e2e	-0.18590614
2	0xbe230866	-0.15921172
3	0xbe2e24d3	-0.17006235
4	0x3e19be3a	0.15013972
5	0xbe96840f	-0.29397628
6	0x3d9999f2	0.07500066
7	0xbc305b6d	-0.010763985
8	0x3f593f34	0.84862065
9	0x3e3a13e2	0.18171647
10	0xbe462c26	-0.19352779
11	0x3d817541	0.063211925
12	0x00000d60	4.798e-42
13	0xbe49762b	-0.19673984
14	0xbe2261b9	-0.1585759
15	0x3df432ec	0.11923775
16	0xbc1ce976	-0.009577146
17	0x3e0f94de	0.14021632
18	0xbe45c8f8	-0.19314945
19	0x80001a89	-9.519e-42
20	0x3c73879c	0.014863875
21	0x3df49e9e	0.11944316
22	0xbb7596cb	-0.0037473913
23	0x172e0686	5.6230666e-25
24	0xbe13ffda	-0.14453068
25	0xbc7bdf11	-0.015373007
26	0x80001827	-8.664e-42
27	0xbe3ce406	-0.18446359
28	0xbdaafc56	-0.083489105
29	0x3e29793e	0.16550156
30	0xbcf0c2d6	-0.02938978
31	0xbda6f6fe	-0.08152579
32	0x3ec0c3c1	0.37649348
33	0x3dc58b95	0.09645764
34	0x3d8be13b	0.06830069
35	0x3e047c2f	0.12937997
36	0x3df8f10b	0.1215535
37	0xbd2b1cfa	-0.04177568
38	0x3ea59eee	0.32347816
39	0xbaac24a3	-0.0013133477
40	0x3f036ae2	0.51334965
41	0x3f07150d	0.52766496
42	0x3de1a61a	0.110180095
43	0x3dac5e84	0.08416465
44	0x00000bc2	4.218e-42
45	0xbce625ae	-0.028094139
46	0x3e0bd656	0.13655981
47	0x3e126495	0.14296181
48	0xbc412815	-0.011789341
49	0x3ee1ea0f	0.44123885
50	0x3d92aa99	0.07161445
51	0x8000055a	-1.92e-42
52	0xbd160df2	-0.036634393
53	0x3e1355fd	0.1438827
54	0xbb548710	-0.0032429136
55	0x39441415	0.00018699498
56	0x3d7289f2	0.059213586
57	0x3d163c32	0.0366785
58	0x80001dbd	-1.0668e-41
59	0x3d737cdb	0.059445243
60	0x3d89c3f5	0.06726829
61	0x3e6023aa	0.21888605
62	0xbc927c69	-0.017881589
63	0xbd334a63	-0.043772113
64	0x3e826440	0.2546711
65	0xbd9dd9e0	-0.07707572
66	0xbddb4b71	-0.10707749
67	0x3e224c53	0.15849428
68	0x3e192aa4	0.14957672
69	0xbd69e329	-0.057101402
70	0x3e25868b	0.16164605
71	0xb9d15b01	-0.0003993139
72	0x3ed93ee5	0.42430797
73	0x3ec3f9bd	0.38276473
74	0xbd8653a5	-0.06558923
75	0x3db62d06	0.08895306
76	0x00000827	2.925e-42
77	0xbce653a7	-0.02811606
78	0xbd5883dc	-0.052860126
79	0x3e21c6af	0.15798448
80	0x3b291090	0.0025797226
81	0x3eb87196	0.3602416
82	0x3d8e6f9a	0.0695488
83	0x80000011	-2.4e-44
84	0xbd3a2f11	-0.045455042
85	0x3e0389da	0.12845555
86	0x3b24519a	0.0025073052
87	0x3ac440e8	0.0014972957
88	0xbe296d4d	-0.16545601
89	0x3d10fbf0	0.035396516
90	0x80000f85	-5.567e-42
91	0xbdc7aa84	-0.0974932
92	0xbdc34bf0	-0.09535968
93	0x3e2c1d03	0.16807942
94	0xbb278bb1	-0.002556544
95	0xbcddee37	-0.027091129
96	0x800004b0	-1.682e-42
97	0x80001195	-6.307e-42
98	0x80001238	-6.536e-42
99	0x80001d36	-1.0479e-41
100	0x000023ee	1.2889e-41
101	0x80001638	-7.97e-42
102	0x800008ac	-3.111e-42
103	0x80000c09	-4.317e-42
104	0x800008f1	-3.208e-42
105	0x8000247b	-1.3087e-41
106	0x80000ffa	-5.731e-42
107	0x800025cb	-1.3558e-41
108	0x000023c0	1.2825e-41
109	0x800009c1	-3.499e-42
110	0x80001a2d	-9.39e-42
111	0x0000228e	1.2396e-41
112	0x00001f24	1.1171e-41
113	0x800010a8	-5.975e-42
114	0x8000265d	-1.3762e-41
115	0x00001cac	1.0286e-41
116	0x800025f0	-1.361e-41
117	0x80002527	-1.3328e-41
118	0x00000ffd	5.736e-42
119	0x0000217b	1.201e-41
120	0x800020de	-1.179e-41
121	0x80002253	-1.2313e-41
122	0x8000205b	-1.1607e-41
123	0x80001db5	-1.0657e-41
124	0x80001ccd	-1.0332e-41
125	0x00001554	7.651e-42
126	0x000020db	1.1786e-41
127	0x0000235e	1.2687e-41
128	0x800020f5	-1.1823e-41
129	0x80000cc8	-4.585e-42
130	0x80001aec	-9.658e-42
131	0x8000199c	-9.187e-42
132	0x00001c55	1.0164e-41
133	0x80000593	-2e-42
134	0x800007ca	-2.794e-42
135	0x80000a45	-3.684e-42
136	0x000001d2	6.53e-43
137	0x800024c1	-1.3185e-41
138	0x000023d7	1.2857e-41
139	0x800022e4	-1.2516e-41
140	0x0000142c	7.236e-42
141	0x80002333	-1.2627e-41
142	0x80001ca3	-1.0273e-41
143	0x80001b6b	-9.836e-42
144	0x800000fd	-3.55e-43
145	0x800022b9	-1.2456e-41
146	0x80000a30	-3.655e-42
147	0x00002303	1.256e-41
148	0x8000118e	-6.297e-42
149	0x80002598	-1.3486e-41
150	0x8000196e	-9.122e-42
151	0x80001260	-6.592e-42
152	0x00001a23	9.376e-42
153	0x80001f30	-1.1188e-41
154	0x80002595	-1.3482e-41
155	0x80000f35	-5.455e-42
156	0x80000a96	-3.798e-42
157	0x80000d63	-4.802e-42
158	0x80001db3	-1.0654e-41
159	0x80000f5b	-5.509e-42
160	0x80001641	-7.983e-42
161	0x800019ad	-9.211e-42
162	0x80001e1a	-1.0798e-41
163	0x80000eab	-5.262e-42
164	0x80001b9d	-9.906e-42
165	0x8000162b	-7.952e-42
166	0x80001c15	-1.0074e-41
167	0x800002c3	-9.91e-43
168	0x00001de2	1.072e-41
169	0x800019bb	-9.23e-42
170	0x80000ad3	-3.883e-42
171	0x80001860	-8.744e-42
172	0x80001974	-9.131e-42
173	0x00001988	9.159e-42
174	0x80001df2	-1.0742e-41
175	0x80001498	-7.388e-42
176	0x80001e55	-1.0881e-41
177	0x80001746	-8.349e-42
178	0x80001511	-7.557e-42
179	0x800015c7	-7.812e-42
180	0x80001b2f	-9.752e-42
181	0x800014dd	-7.484e-42
182	0x00000def	4.998e-42
183	0x000018f6	8.954e-42
184	0x800007b4	-2.763e-42
185	0x800021b0	-1.2085e-41
186	0x80001b0f	-9.707e-42
187	0x8000211b	-1.1876e-41
188	0x80000994	-3.436e-42
189	0x00002488	1.3105e-41
190	0x8000205c	-1.1608e-41
191	0x80000ba8	-4.181e-42
192	0x3e0e9b63	0.13926463
193	0xbe22694c	-0.1586048
194	0xbda80d8f	-0.08205711
195	0xbf00d429	-0.5032373
196	0x3d96e00d	0.07366953
197	0xbe003fc9	-0.12524332
198	0xbe8583b3	-0.2607704
199	0xba437aca	-0.00074569567
200	0x3ee7a0ec	0.4523996
201	0x3e9dd43b	0.30825981
202	0xbe2f4662	-0.17116693
203	0x3dae5dd2	0.085139886
204	0x00002282	1.2379e-41
205	0xbe665f86	-0.22497377
206	0xbe1610c7	-0.14654838
207	0x3dfa55fb	0.12223431
208	0xbb84ef36	-0.0040568365
209	0xbde507ed	-0.11183152
210	0xbf05058f	-0.51961607
211	0x00001d21	1.045e-41
212	0xbdba51cb	-0.09097632
213	0x3e189bf2	0.14903238
214	0x3b358666	0.0027698516
215	0x00000f32	5.451e-42
216	0xbe4e5679	-0.20150174
217	0xbc8c67ae	-0.017139282
218	0x80001b7c	-9.86e-42
219	0xbe0f3de4	-0.13988453
220	0xbd47cd7f	-0.04877996
221	0xbe2de3d5	-0.16981442
222	0xbda2a47f	-0.079415314
223	0xbe7726f6	-0.24135956
224	0x3e6b36e9	0.22970165
225	0x3d0cabe5	0.03434362
226	0xbbee15a7	-0.0072657648
227	0x3e1aa996	0.15103754
228	0x3d9405d4	0.07227674
229	0xbcfe1257	-0.031014604
230	0x3ea28e32	0.3174911
231	0xb5db084d	-1.6319187e-06
232	0x3eec9228	0.46205258
233	0x3ec3783d	0.38177672
234	0x3ba20dd5	0.0049454966
235	0x3d8eaf21	0.06966997
236	0x00001209	6.47e-42
237	0xbd872789	-0.065993376
238	0x3d8e59c9	0.06950719
239	0x3e00d30f	0.12580512
240	0xbc1d5656	-0.009603104
241	0x3ea13652	0.31486756
242	0x3d5f8829	0.05457321
243	0x00001897	8.821e-42
244	0xbd041130	-0.032242954
245	0x3de1aac6	0.110189006
246	0xbb0b843f	-0.0021288542
247	0x33c86a7d	9.332596e-08
248	0x3d3e24c5	0.046421785
249	0x3ccf2349	0.02528538
250	0x0000088a	3.063e-42
251	0xbb89909c	-0.004198147
252	0x3c107d82	0.008818986
253	0x3e4a29b2	0.19742468
254	0xbcc204fb	-0.023684015
255	0x3d4ed74f	0.050498303

linear4.bias f4 [64]
0	0x3f831f6a	1.0243962
1	0x80000bcb	-4.23e-42
2	0x3f3e26cd	0.74277955
3	0xbcd79b7f	-0.026319264
4	0x3e2f206c	0.17102212
5	0x3c590dd8	0.0132479295
6	0xba8e99d2	-0.0010879582
7	0x8000268c	-1.3828e-41
8	0x80001abf	-9.595e-42
9	0xbdb2b2e1	-0.08725525
10	0x80001acc	-9.613e-42
11	0xbc4c7bc7	-0.012480683
12	0x3d32dcc5	0.043667573
13	0xbc9c0bc0	-0.019048572
14	0x80001d9c	-1.0622e-41
15	0xbd2406cc	-0.040045545
16	0x3df51b2f	0.119680755
17	0xbcf53b37	-0.029935462
18	0x3e1f44f8	0.15553653
19	0x80002643	-1.3726e-41
20	0xbd8839ab	-0.06651624
21	0x3e8878a8	0.26654553
22	0x3bd644d6	0.0065389676
23	0x3baae25b	0.005214972
24	0xbd068443	-0.03284098
25	0x80000b08	-3.957e-42
26	0x3da6f030	0.08151281
27	0xbc35ec10	-0.011103645
28	0xbc1a6276	-0.009422889
29	0x3cf269fe	0.029591557
30	0x800022c5	-1.2473e-41
31	0xbd872536	-0.06598894
32	0xbca5c7a8	-0.020236805
33	0xbca08256	-0.019593399
34	0x3e21f174	0.15814763
35	0xbc8d2107	-0.017227663
36	0x8000047c	-1.609e-42
37	0x80001f8e	-1.132e-41
38	0xba2af487	-0.0006521423
39	0xbafca558	-0.001927535
40	0xbc78fdce	-0.0151972305
41	0x39c34f0e	0.000372522
42	0xbcd32186	-0.025772821
43	0x3d102eca	0.03520087
44	0x3cbe001f	0.023193417
45	0xbd1789fa	-0.03699682
46	0xbc5259ed	-0.012838823
47	0x80000b71	-4.104e-42
48	0xbb08d39f	-0.002087809
49	0x3e1c2d9b	0.15251772
50	0xbed0dc97	-0.40793297
51	0xbb86208e	-0.0040932363
52	0xbf0f2166	-0.55910337
53	0xbbe82ce2	-0.0070854286
54	0xbae2850f	-0.0017282086
55	0x80002364	-1.2696e-41
56	0xbc1dfbe1	-0.009642572
57	0x3c413060	0.011791319
58	0xbd013a77	-0.031549897
59	0xb8d9ed14	-0.000103915256
60	0xbc94f501	-0.018183233
61	0x3d862ea8	0.06551868
62	0x3e4a3452	0.19746521
63	0x3e270b10	0.16312814

linear5.weight f4 [16, 64]
0	0x3eb10fe2	0.3458243
1	0x000011fc	6.452e-42
2	0x3f0d2122	0.5512868
3	0xbce42ef2	-0.027854417
4	0x3e3c9471	0.18416001
5	0x3dc897ff	0.09794616
6	0x3b87bb81	0.0041422253
7	0x000018c4	8.884e-42
8	0x80000910	-3.251e-42
9	0x3b2a364c	0.0025972305
10	0x0000086f	3.025e-42
11	0x3c5332ac	0.012890499
12	0xbe525edb	-0.20543997
13	0x3f1ceb7a	0.6129681
14	0x0000138a	7.009e-42
15	0x3c66963f	0.014073907
16	0x3e88160d	0.26579323
17	0x3e6b37cc	0.22970504
18	0x3e74b710	0.23897958
19	0x00000bfe	4.302e-42
20	0xbe1d04e0	-0.15333891
21	0x3e938093	0.28809032
22	0xbcc0c98d	-0.023533607
23	0x3c9878dd	0.01861232
24	0x3a7c16f6	0.00096164586
25	0x00002684	1.3817e-41
26	0x3e3665e2	0.17812303
27	0xbe075caf	-0.1321895
28	0x3d6cd8c7	0.057823922
29	0xbd86c0aa	-0.065797165
30	0x80001c33	-1.0116e-41
31	0xbebad455	-0.3649012
32	0xbe0a3b41	-0.13499166
33	0xbb626a26	-0.0034548133
34	0x3e6b86c4	0.23000628
35	0x3cec6e83	0.02886129
36	0x80002326	-1.2609e-41
37	0x0000155a	7.66e-42
38	0x3cbec831	0.023288818
39	0x3c227eeb	0.009917955
40	0xbad68716	-0.0016367163
41	0x3c885407	0.01664163
42	0x3ef68b9b	0.48153386
43	0x3d36d8be	0.044640295
44	0x3d73fd50	0.05956775
45	0x3cb9bb37	0.022672279
46	0x3c02fac9	0.007994362
47	0x800018f3	-8.95e-42
48	0x3a9941e6	0.0011692613
49	0x3ddf0056	0.10888736
50	0xbe2b6965	-0.16739424
51	0x3d238813	0.039924692
52	0xbdc7c7c9	-0.09754903
53	0xbb83e151	-0.0040246625
54	0x3d196ec8	0.037459165
55	0x800009b7	-3.485e-42
56	0x3bed72de	0.0072463593
57	0xbd397a5a	-0.0452827
58	0xbc1a46f6	-0.0094163325
59	0x3c8b54ae	0.017008152
60	0x3c33de9f	0.01097837
61	0x3d206e83	0.039167892
62	0x3ec6e925	0.3884975
63	0x3e7ced28	0.24699843
64	0x3e5b837b	0.21436875
65	0x000003fe	1.432e-42
66	0x3e343fc0	0.17602444
67	0xb7d01d10	-2.4809066e-05
68	0x3e59c2a7	0.2126566
69	0xbc32ad85	-0.010905628
70	0xb28dd44f	-1.6511107e-08
71	0x80001407	-7.184e-42
72	0x80001292	-6.662e-42
73	0xbbf52f20	-0.0074824244
74	0x800020d7	-1.1781e-41
75	0xbaac95ff	-0.0013167261
76	0xbdab54c6	-0.083657786
77	0x3da67ede	0.08129667
78	0x00000dc3	4.937e-42
79	0xbe2ff7d1	-0.17184378
80	0x3d74c386	0.05975678
81	0x3cecf9a1	0.028927626
82	0x3d691448	0.056904107
83	0x800018c0	-8.879e-42
84	0xbd32a053	-0.04360993
85	0xbdb92e42	-0.09042026
86	0xbd83e9cf	-0.0644108
87	0x3ca7cab7	0.020482404
88	0x3c257c66	0.01010046
89	0x800011e7	-6.422e-42
90	0xbc62090c	-0.013796102
91	0x3c76d48c	0.015065324
92	0x3dc49955	0.09599558
93	0xbe17c4e2	-0.14821199
94	0x00001f8b	1.1315e-41
95	0xbd9e2ea6	-0.07723741
96	0x3d366143	0.04452635
97	0x3c1371ec	0.008999329
98	0x3e65fb20	0.22459078
99	0x3d051163	0.032487284
100	0x000002d2	1.012e-42
101	0x8000134e	-6.925e-42
102	0xbd64dffa	-0.055877663
103	0xbc53fdd3	-0.012938934
104	0xbd6688a2	-0.056282647
105	0x3c1bccbf	0.0095092645
106	0x3d760fa3	0.060073506
107	0xbd6f5d1a	-0.058438398
108	0x3c90d99e	0.017681893
109	0x3d04629d	0.032320607
110	0x3c2ff4a8	0.010739483
111	0x000004e3	1.753e-42
112	0x3ac73682	0.001519874
113	0x3d9cfbf7	0.07665246
114	0xbe066ef4	-0.13128263
115	0x39aaf6c7	0.0003260879
116	0xbe269ff8	-0.1627196
117	0x3c50a56c	0.012734752
118	0xbcc90d58	-0.024542496
119	0x00000541	1.885e-42
120	0x3b1c1e44	0.002382175
121	0xbd2883dd	-0.04114138
122	0x3bbbeb0a	0.005734806
123	0x3ad9779d	0.0016591434
124	0xbb33f923	-0.002746173
125	0x3da95b2c	0.08269343
126	0x3e0c5b6e	0.13706753
127	0x3d779bc0	0.06045127
128	0x3eda7336	0.42666024
129	0x800011b9	-6.358e-42
130	0x3eac3dc6	0.3364088
131	0xbb326f82	-0.0027227108
132	0x3e92ae3f	0.28648564
133	0x3e4fb366	0.20283279
134	0xbbdb5c29	-0.006694336
135	0x80001192	-6.303e-42
136	0x0000225d	1.2327e-41
137	0xbdabebd0	-0.08394587
138	0x00000c68	4.45e-42
139	0x3b83f218	0.0040266626
140	0xbe42ffe0	-0.19042921
141	0x3e806fe9	0.2508538
142	0x8000193e	-9.055e-42
143	0xbd386fe6	-0.04502859
144	0x3e91f1f2	0.28504902
145	0x3e53bc01	0.20677187
146	0x3e625ad2	0.22104958
147	0x000008a6	3.102e-42
148	0xbe108ddd	-0.14116617
149	0x3ce780d1	0.028259667
150	0xbd808d10	-0.062769055
151	0x3cf8e9ae	0.030384865
152	0x3c8cf3db	0.017206123
153	0x0000149c	7.393e-42
154	0x3c9ad61c	0.018900923
155	0x3cb2b35a	0.021814037
156	0x3dbe685b	0.09297248
157	0xbe0aa0e0	-0.13537931
158	0x00000a05	3.594e-42
159	0xbe4cf2bb	-0.2001447
160	0x3d077db3	0.03307886
161	0x3cb97705	0.02263976
162	0x3e6094d2	0.2193177
163	0x3d0d6d6a	0.034528174
164	0x80001311	-6.84e-42
165	0x80001a6f	-9.483e-42
166	0x3d888f55	0.066679634
167	0xbb46cd1d	-0.003033466
168	0xbbc8885c	-0.006119771
169	0x3c4fd620	0.012685329
170	0x3e43dbd5	0.19126828
171	0xbd80448a	-0.06263073
172	0x3d3ad1f1	0.045610372
173	0x3cec344a	0.028833527
174	0x3c8f8c39	0.017522918
175	0x80001e49	-1.0864e-41
176	0x3b010927	0.0019689293
177	0x3e1ec0ca	0.1550323
178	0xbe3c3ad1	-0.18381812
179	0x3b79e129	0.003812859
180	0xbe185e21	-0.14879657
181	0xbb420a60	-0.0029608235
182	0x3a93d366	0.0011278212
183	0x00002042	1.1572e-41
184	0x3ba57e9c	0.0050504934
185	0xbd98cd7b	-0.07461067
186	0x3d4dfa9d	0.05028783
187	0x3c347ef1	0.011016593
188	0x3c2a9fef	0.010414108
189	0x3dee65a6	0.11640482
190	0x3edfdbc5	0.43722358
191	0x3e6f5344	0.23371607
192	0xbf3ff976	-0.7499002
193	0x80000ad1	-3.88e-42
194	0xbedf5a28	-0.4362347
195	0x3b3e7d1d	0.0029066273
196	0xbdb0d68e	-0.08634673
197	0xbe2cd619	-0.16878547
198	0x393fb463	0.00018282379
199	0x8000216a	-1.1987e-41
200	0x80000da6	-4.896e-42
201	0xbc8882ec	-0.01666399
202	0x80001464	-7.315e-42
203	0xbc36633d	-0.011132059
204	0xb5fef17e	-1.8994758e-06
205	0x3ec65ee5	0.38744274
206	0x000026a2	1.3859e-41
207	0x3dc2ed18	0.09517878
208	0x3d0c79f9	0.03429601
209	0x3dd428b3	0.10359325
210	0xbca38243	-0.019959575
211	0x800011f0	-6.435e-42
212	0x305caf3f	8.0284573e-10
213	0x3c0a50db	0.008442129
214	0x3d997614	0.07493225
215	0xbc090a98	-0.008364342
216	0x3b81f820	0.0039663464
217	0x00000162	4.96e-43
218	0xb8182aa1	-3.6279325e-05
219	0x3c94e5b8	0.018175945
220	0xbb343b90	-0.0027501322
221	0x3e29ac65	0.1656967
222	0x800026b1	-1.388e-41
223	0x32685f7d	1.3525889e-08
224	0x3d2a47ac	0.041572258
225	0x3bc83050	0.006109275
226	0xbe099e58	-0.1343931
227	0xbd178140	-0.036988497
228	0x80001144	-6.194e-42
229	0x800024db	-1.3221e-41
230	0x399ed05f	0.00030291357
231	0x35ca384a	1.5066555e-06
232	0xbc1a6d2c	-0.009425443
233	0xba994106	-0.0011692352
234	0x3e751f16	0.2393764
235	0x3e06fcab	0.13182323
236	0xbd4368c7	-0.047707345
237	0xbbefa49d	-0.0073133246
238	0xbca5a892	-0.020221982
239	0x000015ea	7.861e-42
240	0x2b3f56dc	6.7977373e-13
241	0xbdbf690c	-0.09346208
242	0x3e995dc4	0.2995435
243	0xb6683c47	-3.460578e-06
244	0x3f00d825	0.5032981
245	0xbbb9751f	-0.005659714
246	0x3d0058aa	0.031334557
247	0x3aeaa012	0.0017900488
248	0x3795cc32	1.785727e-05
249	0xa587c49d	-2.3551997e-16
250	0x3b583b25	0.0032994237
251	0x37bbf411	2.240579e-05
252	0xbc5701c4	-0.01312298
253	0xbd7b9368	-0.061419874
254	0x3d45342a	0.04814545
255	0xbd1e6428	-0.038669735

linear5.bias f4 [16]
0	0x3eff4f66	0.49865264
1	0x3da4aa8f	0.08040344
2	0x3ea51159	0.32239798
3	0xbef6c70b	-0.48198733
4	0x80001e1e	-1.0804e-41
5	0xbe26e17e	-0.16296956
6	0x3e8103a9	0.25198105
7	0x80001c29	-1.0102e-41
8	0x80000944	-3.324e-42
9	0x3da92bae	0.08260284
10	0x80001e11	-1.0786e-41
11	0x80001f28	-1.1177e-41
12	0x80000e42	-5.115e-42
13	0x3c4dafd3	0.012554127
14	0x3d9419f6	0.07231514
15	0xbf4e030c	-0.804734

linear6.weight f4 [4, 16]
0	0x3eed32ae	0.46327728
1	0x3e644678	0.22292507
2	0x3eb4d587	0.35319158
3	0xbd8766ed	-0.066114284
4	0x00000ca8	4.54e-42
5	0xbd5c5d39	-0.05379984
6	0xbd0e08ee	-0.034676485
7	0x00000a52	3.702e-42
8	0x00002601	1.3633e-41
9	0xbf2fab0d	-0.6862038
10	0x000021a9	1.2075e-41
11	0x80000dd4	-4.96e-42
12	0x80000f84	-5.566e-42
13	0xbda90ae5	-0.08254031
14	0xbf402efd	-0.750717
15	0xbe9f54f2	-0.31119496
16	0x3ea04b4e	0.31307453
17	0xbda20572	-0.07911195
18	0xbe5fd465	-0.21858366
19	0x3f225bf0	0.63421535
20	0x00000cd2	4.599e-42
21	0xb924359d	-0.00015660231
22	0xbe964583	-0.29349908
23	0x00001c7d	1.022e-41
24	0x00000f68	5.527e-42
25	0xbe07df03	-0.13268666
26	0x00001006	5.748e-42
27	0x00000a64	3.727e-42
28	0x00001838	8.688e-42
29	0x3e275ed7	0.16344772
30	0xbe1d7ad0	-0.1537888
31	0x3f515af2	0.81779397
32	0xbf61f9b0	-0.8827162
33	0xbe11d84c	-0.14242667
34	0xbeccadd2	-0.39976364
35	0xb3e734a4	-1.0766351e-07
36	0x80001898	-8.823e-42
37	0x3f2d15f8	0.67611647
38	0xbe913eb0	-0.2836814
39	0x00002152	1.1953e-41
40	0x00001165	6.24e-42
41	0x3f044320	0.51664925
42	0x00000b1c	3.985e-42
43	0x80001a26	-9.38e-42
44	0x0000226c	1.2348e-41
45	0xbc2b4457	-0.010453305
46	0x3f04ff58	0.51952124
47	0xb0cddd97	-1.4978693e-09
48	0x3dd31257	0.103062324
49	0xbe183c56	-0.14866766
50	0xbdb2e28c	-0.08734617
51	0xbd0e5663	-0.034750354
52	0x0000159e	7.755e-42
53	0xbf2c92b4	-0.6741135
54	0x3eeebb55	0.46627298
55	0x000017b8	8.509e-42
56	0x80000a42	-3.68e-42
57	0x3edef837	0.43548748
58	0x000025f8	1.362e-41
59	0x00001d45	1.05e-41
60	0x00001345	6.913e-42
61	0xbe91beb0	-0.28465796
62	0x3f0740ee	0.5283345
63	0xbc52bc2b	-0.012862246

linear6.bias f4 [4]
0	0x3fa6809c	1.3007998
1	0xbfac1f1f	-1.3446997
2	0xbd8b0dc8	-0.06789738
3	0x3ef4d77e	0.47820657
