checkpoints/dnn_9.pt (torch, 257573 bytes, 12 tensors)

linear1.weight f4 [128, 358]
-0.027459605 0.023445493 -0.077652924 -0.11726108 -0.009071841 0.04710735 0.02548179 0.5961237
0.009627769 0.09267993 0.0012811667 0.029155077 -0.0016053707 -0.025780804 0.16562743 0.08706421
-0.12806083 -0.2092133 0.37790573 0.09186502 0.06549599 -1.0683154 -0.03684417 -0.031304453
-0.14505903 0.085494496 -0.13167481 -0.009452145 -0.0040954105 0.26709855 -0.08165857 -0.12674344
-0.05635514 -0.0026702092 0.049471226 0.06574384 -0.12877376 0.1256576 -0.15197916 -0.019464586
-0.3158891 -0.063622616 0.008344323 -0.32608485 0.50433123 0.013995192 0.006479995 0.14674069
-0.0771842 -0.061062783 0.19065556 0.19372687 0.09297796 -0.13028492 -0.15416402 -0.028103046
-0.02294583 -0.036873866 0.08976877 -0.5488306 0.120259136 0.016894892 0.027427666 0.012736511
-0.0095886635 -0.03494314 -0.036780998 0.12155349 0.18876274 0.12073774 -0.06957662 0.09562805
0.027945668 -0.06212065 -0.0063278093 -0.019259978 -0.017261459 -0.05794329 -0.009662035 -0.05454505
-0.09175349 -0.029308412 0.022514788 -0.0022265557 -0.0007563575 -0.0015106665 0.0030248917 0.00286975
-0.0034092737 0.015957635 -0.02932079 0.018022088 -0.05956748 -0.1719299 -0.07310339 0.029094936
0.1490547 0.14960584 0.14809003 0.012506547 -0.002967843 -0.020102441 -0.014756296 0.19758192
-0.052029762 -0.0052760886 -0.1206404 0.3406876 0.12632221 -0.06805518 0.3066458 0.25672147
0.012199134 -0.12984884 -0.16023171 0.086883575 -0.08119179 -0.09780304 0.15166306 -0.1064909
0.4313767 -0.10000171 0.036398076 0.018787093 -0.020041397 0.0118872505 0.09831357 0.05631359
0.31904823 0.07127996 -0.056780554 -0.36717626 0.055941492 0.00083125615 -0.43234342 -0.23815334
0.16603059 -0.0076110885 0.017551119 0.014261546 -0.0037848144 0.02439543 0.015788062 0.17098206
0.12788533 0.011966201 0.042938802 -0.08088318 -0.10068021 -0.13361913 -0.2542057 0.37123427
-0.18580605 -0.004407666 -0.4455505 -0.21746372 -0.15490243 -0.22452173 0.07702154 -0.02444548
0.25510725 0.13319859 -0.0044069053 -0.00095854676 -0.02900378 -0.032189377 -0.010186298 -0.022433758
-0.025599213 -0.006683409 0.032425098 0.014977559 -0.02022992 0.013661742 -0.053063825 0.004877284
0.004446571 -0.1208745 0.073039725 -0.12584151 -0.06623736 -0.05368044 0.024193142 0.07625204
-0.072148494 0.064163044 3.046323e-05 -0.0048150765 -0.019861951 -0.06534122 -0.0002544033 -0.0066977767
-0.034967206 -0.015969727 -0.021553354 0.095934905 -0.0027210808 0.014154939 0.008527263 0.008828592
0.008213456 0.02509197 -0.0117152585 0.00033236507 -0.011185432 0.0030212887 0.006367767 0.008475706
0.0154525945 0.002345978 -0.00979951 -0.0011182275 -0.0072980025 -0.00875968 -0.12797292 -0.07460809
0.038300473 0.071308054 0.012168905 0.0052960296 0.009627164 0.14082979 0.024416504 -0.0055269836
-0.00044284362 0.03780802 0.003705342 -0.001667235 0.18894707 0.0737322 0.18577369 -0.0076080346
0.010388068 0.011769196 0.0015624973 -0.019913532 -0.0075316764 0.0073925816 0.021666214 0.00975893
0.019575583 -0.015142937 0.027181929 -0.012013527 0.0355916 -0.010293331 0.0065561696 0.014398273
-0.015578676 -0.010184675 0.00019374248 0.028427323 -0.022749726 0.042379674 -0.02031022 0.011594661
00000000: f7f2 e0bc c310 c03c 7f08 9fbd 9426 f0bd
00000010: 0fa2 14bc a3f3 403d 30bf d03c 909b 183f
00000020: cabd 1d3c face bd3d d2ec a73a a1d6 ee3c
00000030: 4d6b d2ba 4432 d3bc 3d9a 293e b84e b23d
00000040: 6122 03be 033c 56be dc7c c13e ba23 bc3d
00000050: c322 863d 8fbe 88bf eae9 16bd 1939 00bd
00000060: 5b8a 14be bd17 af3d c3d5 06be 2bdd 1abc
00000070: cb32 86bb 24c1 883e 9c3c a7bd 08c9 01be
00000080: a6d4 66bd adfe 2ebb 57a2 4a3d b5a4 863d
00000090: 45dd 03be 63ac 003e 6da0 1bbe 3274 9fbc
000000a0: 37bc a1be 934c 82bd a1b6 083c 98f4 a6be
000000b0: da1b 013f 174c 653c 2356 d43b 3143 163e
000000c0: c012 9ebd f81c 7abd 363b 433e 5660 463e
000000d0: 3b6b be3d 6969 05be 2cdd 1dbe 5c38 e6bc
000000e0: e5f8 bbbc 0d09 17bd b0d8 b73d 2a80 0cbf
000000f0: 6c4a f63d 2867 8a3c fcaf e03c cdac 503c
00000100: c519 1dbc 8a20 0fbd aca7 16bd 09f1 f83d
00000110: 054b 413e 5945 f73d 307e 8ebd a4d8 c33d
00000120: 50ee e43c 3972 7ebd 8359 cfbb 1ac7 9dbc
00000130: e767 8dbc f155 6dbd 834d 1ebc a16a 5fbd
00000140: 41e9 bbbd 3218 f0bc ef70 b83c 68eb 11bb
00000150: 4b46 46ba 8e01 c6ba 433d 463b 6a12 3c3b
00000160: 1f6e 5fbb 96b9 823c 2732 f0bc 0fa3 933c
00000170: 08fd 73bd 640e 30be 3bb7 95bd 8158 ee3c
00000180: cca1 183e 4632 193e eaa4 173e 43e8 4c3c
00000190: 2580 42bb e0ad a4bc 64c4 71bc ea52 4a3e
000001a0: 291d 55bd 0ae3 acbb 5012 f7bd 9b6e ae3e
000001b0: 9c5a 013e 8460 8bbd ae00 9d3e ff70 833e
000001c0: e0de 473c 18f7 04be c813 24be 04f0 b13d
000001d0: e247 a6bd f64c c8bd 904d 1b3e e717 dabd
000001e0: 68dd dc3e b2cd ccbd 2616 153d 64e7 993c
000001f0: db2d a4bc bec2 423c a058 c93d 14a9 663d
00000200: 4a5a a33e 3afb 913d ba92 68bd 87fe bbbe
00000210: e822 653d a8e8 593a 1e5c ddbe 78de 73be
00000220: ec03 2a3e 7066 f9bb 5dc7 8f3c 42a9 693c
00000230: a60a 78bb edd8 c73c f755 813c ec15 2f3e
00000240: 5ff4 023e e20d 443c 99e0 2f3d 15a6 a5bd
00000250: 6d31 cebd 74d3 08be 4027 82be 6b12 be3e
00000260: f143 3ebe 2f6e 90bb 321f e4be cfae 5ebe
00000270: be9e 1ebe 06e9 65be 78bd 9d3d e341 c8bc
00000280: 6b9d 823e 3665 083e cd67 90bb fc46 7bba
00000290: 5699 edbc 02d9 03bd 6ee4 26bc 00c7 b7bc
000002a0: 71b5 d1bc 8000 dbbb 2ed0 043d 7064 753c
000002b0: 38b9 a5bc 80d5 5f3c 7459 59bd a0d1 9f3b
000002c0: 8bb4 913b 0d8d f7bd da95 953d 99dc 00be
000002d0: 74a7 87bd 05e0 5bbd b230 c63c 082a 9c3d
000002e0: 97c2 93bd ea67 833d 4a8b ff37 cac7 9dbb
000002f0: 88b5 a2bc 9ed1 85bd 6f61 85b9 0679 dbbb
00000300: c639 0fbd f2d2 82bc a990 b0bc 8579 c43d
00000310: 2954 32bb 1eea 673c efb5 0b3c cca5 103c
00000320: bb91 063c ad8d cd3c 5bf1 3fbc 4941 ae39
00000330: 1a43 37bc d000 463b b4a8 d03b b0dd 0a3c
00000340: e12c 7d3c fbbe 193b 208e 20bc 7d91 92ba
00000350: 1524 efbb c384 0fbc 550b 03be 20cc 98bd
00000360: f5e0 1c3d f509 923d 1660 473c 518a ad3b
00000370: 41bb 1d3c af35 103e 1f05 c83c b31b b5bb
00000380: 772d e8b9 95dc 1a3d 53d5 723b 2087 daba
00000390: 577b 413e e800 973d 753b 3e3e d24c f9bb
000003a0: b732 2a3c 96d3 403c b6cc cc3a b421 a3bc
000003b0: 48cc f6bb 783d f23b 587d b13c ebe3 1f3c
000003c0: f95c a03c 151a 78bc a3ac de3c 62d4 44bc
000003d0: 7fc8 113d 5ca5 28bc 23d5 d63b bce6 6b3c
000003e0: b43d 7fbc a0dd 26bc 5a27 4b39 6be0 e83c
000003f0: a25d babc 4f96 2d3d 9e61 a6bc 88f7 3d3c

linear1.bias f4 [128]
0.022691816 0.006348463 -0.00847475 -0.025533436 -0.009639966 -0.026205972 0.01613073 0.0080983685
0.03223903 -0.005294239 0.00867252 -0.0028888192 0.009239874 -0.015957348 0.00601926 -0.0113498885
0.01672158 -0.0048040855 -0.016676195 0.017344821 0.0015680648 -0.017194556 0.01485583 0.017993232
0.035506286 -0.009862205 0.024398224 0.023958309 -0.012462892 -0.009787972 0.014062258 -0.024945078
-0.017196245 -0.005819241 -0.016120128 -0.026236542 0.02360985 0.011177058 -0.027293796 -0.0063470537
0.011787034 0.009081219 -0.015032635 -0.015978174 -0.025611525 -0.011864079 -0.01173415 -0.018718226
-0.018514516 -0.0077695693 0.008684283 0.009802956 -0.022162179 0.0019652788 0.012223792 -0.015292224
-0.017291311 -0.011062912 -0.014903651 0.011592633 0.014868856 -0.015008906 0.009773061 -0.0117915105
-0.0167705 -0.021097852 -0.010176417 -0.022828797 0.017874824 0.20278677 -0.005623579 -0.010213263
0.019911997 -0.041139454 -0.009905431 -0.009350219 -0.009701766 0.018376525 -0.08512145 -0.014683399
-0.016459914 0.011021181 -0.012724215 -0.018318046 -0.021026446 -0.010083384 -0.014390172 -0.022817584
-0.011705799 -0.014453389 0.009564776 -0.00047996675 -0.021673292 0.00927281 -0.014458377 0.015344302
-0.01556741 -0.0029382717 0.009080005 -0.023579037 -0.013140043 -0.014426178 -0.012730099 -0.0152196465
-0.013591618 -0.009979738 0.010101631 0.008497307 -0.011399074 -0.02009829 0.017146237 -0.011767219
-0.014146015 0.009630522 -0.0020180591 0.015332037 -0.0060155448 -0.014573088 -0.0051542823 0.017334487
-0.023405178 -0.017892983 -0.010929275 -0.0075488617 -0.007067676 0.010839982 0.011165528 -0.0074328
00000000: 30e4 b93c c406 d03b aed9 0abc 7f2b d1bc
00000010: f3f0 1dbc e8ad d6bc 9824 843c 05af 043c
00000020: 130d 043d 4c7b adbb 2f17 0e3c 5852 3dbb
00000030: d762 173c fcb8 82bc 363d c53b e2f4 39bc
00000040: b2fb 883c 976b 9dbb 849c 88bc ba16 8e3c
00000050: 8687 cd3a 99db 8cbc de65 733c 8b66 933c
00000060: 0a6f 113d 1695 21bc c9de c73c 3744 c43c
00000070: 2831 4cbc bb5d 20bc 6365 663c 9f59 ccbc
00000080: 24df 8cbc 55af bebb 5c0e 84bc 04ee d6bc
00000090: 7269 c13c fb1f 373c 3d97 dfbc f2fa cfbb
000000a0: 671e 413c 65c9 143c 714b 76bc a9e4 82bc
000000b0: 43cf d1bc 8e61 42bc 9840 40bc f756 99bc
000000c0: c1ab 97bc df97 febb 8648 0e3c 949c 203c
000000d0: 758d b5bc e8cb 003b 4d46 483c 3c8c 7abc
000000e0: 82a6 8dbc 3741 35bc 712e 74bc 07ef 3d3c
000000f0: 819c 733c eae7 75bc 301f 203c 2e31 41bc
00000100: 4a62 89bc 67d5 acbc fdba 26bc 7503 bbbc
00000110: 396e 923c 56a7 4f3e 0046 b8bb 8855 27bc
00000120: 7c1e a33c d881 28bd 644a 22bc a931 19bc
00000130: 28f4 1ebc 5e8a 963c 2854 aebd a492 70bc
00000140: f1d6 86bc 2f92 343c 3a79 50bc ba0f 96bc
00000150: a73f acbc c734 25bc c2c4 6bbc f1eb babc
00000160: aec9 3fbc e8cd 6cbc 94b5 1c3c 0ca4 fbb9
00000170: 308c b1bc fcec 173c d4e2 6cbc ab66 7b3c
00000180: 730e 7fbc 0590 40bb 4dc4 143c d328 c1bc
00000190: 5649 57bc c75b 6cbc e891 50bc d35b 79bc
000001a0: 61af 5ebc 0e82 23bc 5081 253c 4a38 0b3c
000001b0: 2fc3 3abc 2ba5 a4bc 4476 8c3c 4bcb 40bc
000001c0: b0c4 67bc 56c9 1d3c 6a41 04bb 3933 7b3c
000001d0: 0c1e c5bb f6c3 6ebc 41e5 a8bb 0e01 8e3c
000001e0: 37bc bfbc 4e94 92bc b410 33bc 715c f7bb
000001f0: f797 e7bb 2e9a 313c 9eef 363c d88e f3bb

linear2.weight f4 [64, 128]
0.015988361 -0.00094104 0.013675703 0.008390854 -0.00053709943 0.00895524 0.017637288 0.052107397
-0.0011713385 0.0065862145 -0.0086614685 -0.010000106 0.0084098885 0.0036536732 -0.003209747 -0.0012603417
-0.00064596866 0.0019900587 -0.008912596 -0.0045742127 0.0023484172 0.011324444 0.0029219247 -0.004095039
-0.0053881835 0.007350886 0.010517018 0.011325694 0.015196165 0.0016256594 0.0075729634 0.022045244
0.028818296 0.009775854 0.009671181 0.0068964325 -0.015004356 -0.013117555 0.008856041 -0.0026330422
0.010441942 0.01261355 0.0169383 0.0040299846 0.007948926 0.019446459 0.003807589 0.01508662
0.0015496139 -0.00032279763 0.019777803 -0.010032449 0.017281989 0.01615366 -0.0032316486 0.008047138
0.01722034 0.003522204 0.015464652 -0.011506871 0.0019068024 0.020361282 -0.0077796453 -0.0060879053
0.015270791 0.018354481 0.007789407 0.0021136424 -0.00986896 0.016183905 0.056856506 0.009412416
0.007929322 0.11879362 0.005923568 0.0039332705 0.0031274648 -0.004296161 0.06473351 0.016139632
0.0023630129 0.006609262 0.004833709 0.02045818 0.033127435 0.019098258 -0.0026356499 -0.004113984
0.016038053 0.008531701 -0.007842418 -0.030383497 0.006302217 0.19559763 -0.002142419 -0.03616642
0.013815093 0.03405653 -0.002210537 0.018774401 0.0064983326 0.0024350204 0.008363478 0.018632974
0.008764071 -8.2853556e-05 -0.0145893 -0.00022847208 0.011061612 0.0026144246 0.005102598 0.0052626785
0.015342349 0.011850935 0.007802979 -0.0019833117 0.0006822445 0.011985668 4.2778203e-05 -0.0062329583
0.018468257 0.018015398 -0.0017888602 0.0034686162 0.019182928 -0.0034258615 -0.00081676285 0.017642405
-8.91e-42 -8.427e-42 -1.1395e-41 -7.629e-42 -7.326e-42 -7.514e-42 -8.31e-42 -1.0937e-41
-1.219e-41 -4.699e-42 -1.2413e-41 -4.292e-42 -4.685e-42 -8.643e-42 -1.2055e-41 -1.1324e-41
-4.739e-42 -4.998e-42 -1.274e-42 -6.939e-42 -2.486e-42 -8.541e-42 -9.656e-42 -6.585e-42
-1.0863e-41 -5.801e-42 -4.134e-42 -4.085e-42 -2.744e-42 -4.44e-42 -1.365e-41 -1.066e-41
-3.92e-42 -2.012e-42 -4.287e-42 -2.091e-42 -6.317e-42 -9.326e-42 -1.2959e-41 -1.0402e-41
-1.1202e-41 -4.685e-42 -1.2019e-41 -6.952e-42 -7.538e-42 -2.629e-42 -2.727e-42 -1.2365e-41
-1.3773e-41 -1.2123e-41 -1.2968e-41 -4.863e-42 -1.3892e-41 -1.2053e-41 -7.184e-42 -5.616e-42
-5.417e-42 -1.3939e-41 -7.257e-42 -1.952e-42 -2.948e-42 -4.425e-42 -3.509e-42 -9.257e-42
-2.983e-42 -5.378e-42 -6.751e-42 -6.589e-42 -4.994e-42 -4.549e-42 -1.0148e-41 -1.1203e-41
-1.193e-42 -4.937e-42 -6.428e-42 -8.03e-42 -4.407e-42 -3.575e-42 -7.968e-42 -2.556e-42
-9.041e-42 -1.0552e-41 -9.967e-42 -2.511e-42 -1.0517e-41 -1.3003e-41 -3.61e-42 -2.423e-42
-9.268e-42 -1.3538e-41 -3.583e-42 -1.3189e-41 -9.857e-42 -6.021e-42 -5.329e-42 -7.707e-42
-9.914e-42 -7.91e-42 -2.33e-43 -4.69e-42 -4.05e-42 -9.335e-42 -2.861e-42 -1.0782e-41
-2.67e-42 -1.321e-41 -1.2795e-41 -7.313e-42 -5.52e-42 -7.38e-42 -7.24e-42 -1.0318e-41
-5.649e-42 -4.66e-42 -6.634e-42 -7.361e-42 -3.868e-42 -1.3946e-41 -7.74e-42 -6.76e-42
-1.0864e-41 -1.1859e-41 -8.27e-42 -1.2036e-41 -1.2655e-41 -4.707e-42 -8.448e-42 -5.646e-42
00000000: 06fa 823c 20b0 76ba 0e10 603c cb79 093c
00000010: 22cc 0cba 00b9 123c 137c 903c 916e 553d
00000020: 9987 99ba 2cd1 d73b d5e8 0dbc 7cd7 23bc
00000030: a1c9 093c 7772 6f3b 9e5a 52bb 0d32 a5ba
00000040: 3956 29ba a56b 023b 2306 12bc 47e3 95bb
00000050: e7e7 193b 298a 393c c37d 3f3b ad2f 86bb
00000060: 5c8f b0bb b3df f03b 924f 2c3c 678f 393c
00000070: 56f9 783c 1414 d53a 9f26 f83b 3a98 b43c
00000080: 5914 ec3c e72a 203c e073 1e3c 78fb e13b
00000090: d5d4 75bc 03eb 56bc ee18 113c 1e8f 2cbb
000000a0: ae14 2b3c 10a9 4e3c 31c2 8a3c f60d 843b
000000b0: 363c 023c 2e4e 9f3c be88 793b df2d 773c
000000c0: 6a1c cb3a 2a3d a9b9 0f05 a23c 245f 24bc
000000d0: f592 8d3c ae54 843c 11ca 53bb 25d8 033c
000000e0: ac11 8d3c c7d4 663b 745f 7d3c 5187 3cbc
000000f0: aced f93a b4cc a63c 65ec febb 0d7d c7bb
00000100: 5732 7a3c 235c 963c 483e ff3b 0985 0a3b
00000110: 6bb1 21bc 1c94 843c 5ee2 683d 8936 1a3c
00000120: fde9 013c 124a f33d 7d1a c23b aae2 803b
00000130: 27f6 4c3b cfc6 8cbb 0193 843d 4337 843c
00000140: c7dc 1a3b 8292 d83b 1764 9e3b ea97 a73c
00000150: a2b0 073d f373 9c3c deba 2cbb 99ce 86bb
00000160: 3c62 833c 8cc8 0b3c 7c7d 00bc d0e6 f8bc
00000170: d482 ce3b bf4a 483e d467 0cbb 3d23 14bd
00000180: b358 623c dc7e 0b3d a8de 10bb c6cc 993c
00000190: f7ef d43b dd94 1f3b f806 093c 2ea4 983c
000001a0: 2e97 0f3c aac1 adb8 f607 6fbc 0292 6fb9
000001b0: c33b 353c c456 2b3b b233 a73b 8c72 ac3b
000001c0: 7a5e 7b3c 6d2a 423c 22b0 ff3b 73fa 01bb
000001d0: a7d8 323a 895f 443c bf6c 3338 d83d ccbb
000001e0: be4a 973c 0795 933c 3078 eaba b951 633b
000001f0: 8425 9d3c 6b84 60bb 071c 56ba ce86 903c
00000200: d618 0080 7e17 0080 c41f 0080 4415 0080
00000210: 6c14 0080 f214 0080 2a17 0080 7d1e 0080
00000220: fb21 0080 190d 0080 9a22 0080 f70b 0080
00000230: 0f0d 0080 1818 0080 9b21 0080 911f 0080
00000240: 360d 0080 ef0d 0080 8d03 0080 5813 0080
00000250: ee06 0080 cf17 0080 eb1a 0080 5b12 0080
00000260: 481e 0080 2c10 0080 860b 0080 630b 0080
00000270: a607 0080 600c 0080 0d26 0080 b71d 0080
00000280: ed0a 0080 9c05 0080 f30b 0080 d405 0080
00000290: 9c11 0080 ff19 0080 2024 0080 ff1c 0080
000002a0: 3a1f 0080 0f0d 0080 8121 0080 6113 0080
000002b0: 0315 0080 5407 0080 9a07 0080 7822 0080
000002c0: 6526 0080 cb21 0080 2624 0080 8e0d 0080
000002d0: ba26 0080 9921 0080 0714 0080 a80f 0080
000002e0: 1a0f 0080 db26 0080 3b14 0080 7105 0080
000002f0: 3808 0080 560c 0080 c809 0080 ce19 0080
00000300: 5108 0080 fe0e 0080 d212 0080 5e12 0080
00000310: ec0d 0080 ae0c 0080 4a1c 0080 3b1f 0080
00000320: 5303 0080 c30d 0080 eb11 0080 6216 0080
00000330: 490c 0080 f709 0080 3616 0080 2007 0080
00000340: 3419 0080 6a1d 0080 c91b 0080 0007 0080
00000350: 511d 0080 3f24 0080 100a 0080 c106 0080
00000360: d619 0080 bd25 0080 fd09 0080 c424 0080
00000370: 7a1b 0080 c910 0080 db0e 0080 7c15 0080
00000380: a31b 0080 0d16 0080 a600 0080 130d 0080
00000390: 4a0b 0080 061a 0080 fa07 0080 0e1e 0080
000003a0: 7107 0080 d324 0080 ab23 0080 6314 0080
000003b0: 630f 0080 9314 0080 2f14 0080 c31c 0080
000003c0: bf0f 0080 fd0c 0080 7e12 0080 8514 0080
000003d0: c80a 0080 e026 0080 9315 0080 d812 0080
000003e0: 491e 0080 0f21 0080 0e17 0080 8d21 0080
000003f0: 4723 0080 1f0d 0080 8d17 0080 bd0f 0080

linear2.bias f4 [64]
-0.0024048444 -6.247e-42 -1.1782e-41 0.048451822 -1.3807e-41 -0.0047936016 -1.18e-41 -7.582e-42
-1.1945e-41 0.08024275 -8.524e-42 0.0806088 -1.0574e-41 -7.22e-42 -3.985e-42 -7.08e-42
-6.278e-42 -4.78e-42 0.07365607 -5.743e-42 0.04808229 -1.131e-41 -7.036e-42 -9.548e-42
-0.012718408 0.050551888 -3.729e-42 -0.0036260122 -0.0011184171 -0.009796253 -4.106e-42 -2.892e-42
-5.259e-42 -1.317e-41 -8.307e-42 0.385526 -9.778e-42 -4.484e-42 -8.682e-42 -1.3574e-41
0.52394015 0.08860604 -9.386e-42 -2.909e-42 -7.895e-42 -0.002255413 -9.235e-42 -1.0583e-41
-6.096e-42 -4.728e-42 -1.0356e-41 -1.0311e-41 0.04076574 -0.0034514712 -4.28e-42 -7.798e-42
-0.0020598182 -0.0054130745 -4.128e-42 -5.429e-42 0.06603265 0.1426377 0.0028012611 0.11259191
00000000: 989a 1dbb 6a11 0080 d820 0080 6b75 463d
00000010: 7d26 0080 a513 9dbb e520 0080 2315 0080
00000020: 4c21 0080 5056 a43d c317 0080 3a16 a53d
00000030: 7a1d 0080 2014 0080 1c0b 0080 bc13 0080
00000040: 8011 0080 530d 0080 fed8 963d 0210 0080
00000050: eff1 443d 871f 0080 9d13 0080 9e1a 0080
00000060: df60 50bc 7f0f 4f3d 650a 0080 64a2 6dbb
00000070: da97 92ba 7780 20bc 720b 0080 1008 0080
00000080: a90e 0080 b624 0080 2817 0080 aa63 c53e
00000090: 421b 0080 800c 0080 3418 0080 d725 0080
000000a0: f120 063f 1577 b53d 2a1a 0080 1c08 0080
000000b0: 0216 0080 8dcf 13bb be19 0080 801d 0080
000000c0: fe10 0080 2e0d 0080 de1c 0080 be1c 0080
000000d0: faf9 263d 1432 62bb ee0b 0080 bd15 0080
000000e0: 04fe 06bb 2960 b1bb 820b 0080 220f 0080
000000f0: 203c 873d 9e0f 123e 5d95 373b 9696 e63d

linear3.weight f4 [32, 64]
-1.9951506e-06 2.68e-42 -4.382e-42 -5.643078e-11 -1.0053e-41 -6.085239e-17 3.39e-43 -1.044e-41
7.434e-42 -2.4062899e-19 3.719e-42 -1.0004051e-18 -1.2355e-41 -8.252e-42 -6.771e-42 -1.0022e-41
-1.2376e-41 -8.011e-42 -4.0857265e-10 9.34e-42 -5.3681485e-20 -9.1e-42 -7.786e-42 4.598e-42
-5.033439e-10 -2.8572473e-18 3.544e-42 -3.076e-42 -1.2382e-41 -1.214e-42 5.267e-42 -3.391e-42
6.767e-42 -1.083e-41 -1.1233e-41 -4.3231466e-06 -1.1684e-41 8.926e-42 2.982e-42 7.006e-42
-0.00021988296 -3.7389383e-14 8.799e-42 -2.664e-42 1.1911e-41 -1.3354e-41 3.949e-42 -1.1844e-41
7.595e-42 -4.273e-42 -1.2605e-41 -1.3855e-41 -1.8362905e-14 -6.239e-42 -8.708e-42 -3.904e-42
-0.00016174359 -3.7550367e-09 6.157e-42 -5.182e-42 -1.5448686e-32 -4.792822e-06 -1.421557e-34 -8.952805e-08
-5.827e-42 2.986e-42 -1.284e-41 -3.757e-42 6.403e-42 -5.934e-42 4.169e-42 -4.256e-42
-6.551e-42 -7.688e-42 -1.271e-42 -1.1572e-41 -4.214e-42 1.0943e-41 -7.899e-42 6.296e-42
-4.09e-42 8.092e-42 -6.987e-42 7.772e-42 -7.257e-42 1.0881e-41 8.746e-42 1.0847e-41
-1.002e-41 -6.778e-42 -1.0169e-41 -7.365e-42 -1.0455e-41 -5.62e-42 1.286e-41 -1.1079e-41
1.1541e-41 -1.0112e-41 -5.792e-42 -3.433e-42 -1.064e-41 -1.0417e-41 1.2375e-41 -7.061e-42
-4.343e-42 -7.459e-42 1.2375e-41 8.907e-42 1.2187e-41 -6.907e-42 5.029e-42 -1.2203e-41
6.304e-42 -1.095e-41 3.402e-42 -4.09e-42 -5.068e-42 -5.776e-42 -8.873e-42 -1.3565e-41
-1.1908e-41 -1.3329e-41 -4.863e-42 1.187e-42 -7.58e-42 -8.685e-42 -7.009e-42 -6.62e-42
-0.0040027895 4.422e-42 -1.3782e-41 -0.0057643796 -1.2942e-41 -9.639367e-05 1.3736e-41 -1.1697e-41
-1.045e-41 -0.0031268212 1.3308e-41 -0.0035474966 -6.995e-42 9.826e-42 -5.036e-42 -3.08e-42
7.13e-43 1.1551e-41 -0.005037269 -9.704e-42 -0.0034366576 1.551e-42 -7.236e-42 -7.958e-42
-0.0013368471 -0.0028065692 -0.00019801005 -1.388e-41 -2.1272931e-23 -1.4128796e-07 -1.3259e-41 1.305e-42
1.0252e-41 -2.726e-42 7.567e-42 -0.0057602064 -8.504e-42 -5.762e-42 -1.1726e-41 9.134e-42
-0.004795216 -0.0034834032 -1.0937e-41 6.482e-42 6.398e-42 1.2973e-41 -1.2525e-41 -1.1592e-41
1.1764e-41 -1.358e-41 -3.935e-42 -6.46e-42 -0.0054644 -4.8069956e-35 1.169e-41 -4.43e-42
1.684386e-18 -0.00182404 -8.022e-42 -2.569e-42 -0.0043833144 -0.00522473 -4.977598e-12 -0.006212787
0.09701128 1.1072e-41 1.7e-44 -0.0069710673 1.3263e-41 0.03131053 -4.619e-42 9.813e-42
-5.497e-42 -0.009137212 -9.348e-42 -0.008577703 1.1203e-41 4.088e-42 -4.013e-42 1.2697e-41
-7.765e-42 1.108e-41 0.0032410698 1.034e-41 -0.010796581 -1.1107e-41 -1.1624e-41 -1.134e-42
0.022395 -0.009478078 -1.1542e-41 -0.00069298485 0.0075002676 0.0016892992 9.22e-42 -1.1079e-41
-8.12e-42 -1.0856e-41 5.073e-42 -0.005665347 1.2166e-41 -4.252e-42 -9.729e-42 1.1024e-41
-0.011042798 0.008818027 -8.55e-42 -2.36e-42 -2.693e-42 7.552214e-07 -1.1575e-41 5.005e-42
-1.0091e-41 -1.0824e-41 -9.413e-42 -3.146e-42 -0.003414003 -0.00013345743 6.033e-42 1.317e-41
-1.2751361e-12 0.054438606 -2.751e-42 4.28e-42 0.0019837008 -0.0071748616 0.01676223 -0.004990192
00000000: 6de4 05b6 7907 0000 370c 0080 692f 78ae
00000010: 061c 0080 e950 8ca4 f200 0000 1a1d 0080
00000020: b914 0000 d30a 8ea0 5e0a 0000 3ca2 93a1
00000030: 7122 0080 0117 0080 e012 0080 f01b 0080
00000040: 8022 0080 5516 0080 7d9d e0af 091a 0000
00000050: ef80 7d9f 5e19 0080 b415 0080 d10c 0000
00000060: ae5b 0ab0 e0d3 52a2 e109 0000 9308 0080
00000070: 8422 0080 6203 0080 af0e 0000 7409 0080
00000080: dd12 0000 311e 0080 501f 0080 8c0f 91b6
00000090: 9220 0080 e218 0000 5008 0000 8813 0000
000000a0: 6290 66b9 0663 28a9 8718 0000 6d07 0080
000000b0: 3421 0000 3a25 0080 020b 0000 0421 0080
000000c0: 2c15 0000 e90b 0080 2323 0080 9f26 0080
000000d0: fa65 a5a8 6411 0080 4618 0080 e20a 0080
000000e0: b799 29b9 a705 81b1 2a11 0000 720e 0080
000000f0: a76d a08a 07d2 a0b6 14f5 3c87 9142 c0b3
00000100: 3e10 0080 5308 0000 cb23 0080 790a 0080
00000110: d911 0000 8b10 0080 9f0b 0000 dd0b 0080
00000120: 4312 0080 6e15 0080 8b03 0080 4220 0080
00000130: bf0b 0080 811e 0000 0516 0080 8d11 0000
00000140: 670b 0080 8f16 0000 7a13 0080 aa15 0000
00000150: 3b14 0080 551e 0000 6118 0000 3d1e 0000
00000160: ef1b 0080 e512 0080 591c 0080 8814 0080
00000170: 251d 0080 ab0f 0080 d923 0000 e21e 0080
00000180: 2c20 0000 301c 0080 2510 0080 9209 0080
00000190: a91d 0080 0a1d 0080 7f22 0000 af13 0080
000001a0: 1b0c 0080 cb14 0080 7f22 0000 d418 0000
000001b0: f921 0000 4113 0080 050e 0000 0422 0080
000001c0: 9311 0000 861e 0080 7c09 0000 670b 0080
000001d0: 210e 0080 1a10 0080 bc18 0080 d025 0080
000001e0: 3221 0080 2825 0080 8e0d 0080 4f03 0000
000001f0: 2115 0080 3618 0080 8a13 0080 7412 0080
00000200: d529 83bb 540c 0000 6b26 0080 1fe3 bcbb
00000210: 1424 0080 f526 cab8 4a26 0000 9b20 0080
00000220: 211d 0080 5beb 4cbb 1925 0000 1e7d 68bb
00000230: 8013 0080 641b 0000 0a0e 0080 9608 0080
00000240: fd01 0000 3320 0000 ad0f a5bb 0d1b 0080
00000250: 8c39 61bb 5304 0000 2c14 0080 2f16 0080
00000260: 2539 afba 6bee 37bb eba0 4fb9 b126 0080
00000270: 3abd cd99 f0b4 17b4 f624 0080 a303 0000
00000280: 941c 0000 9907 0080 1815 0000 1dc0 bcbb
00000290: b517 0080 1010 0080 b020 0080 7619 0000
000002a0: 3021 9dbb cf49 64bb 7d1e 0080 1212 0000
000002b0: d611 0000 2a24 0000 ea22 0080 5020 0080
000002c0: cb20 0000 db25 0080 f80a 0080 0212 0080
000002d0: b60e b3bb 6f95 7f86 9620 0000 590c 0080
000002e0: 4e92 f821 a014 efba 5d16 0080 2907 0080
000002f0: e8a1 8fbb 3634 abbb 3822 afac a294 cbbb
00000300: daad c63d dd1e 0000 0c00 0000 8d6d e4bb
00000310: f924 0000 783f 003d e00c 0080 5b1b 0000
00000320: 530f 0080 3fb4 15bc 0f1a 0080 7e89 0cbc
00000330: 3b1f 0000 650b 0000 300b 0080 6523 0000
00000340: a515 0080 e31e 0000 2168 543b d31c 0000
00000350: 25e4 30bc f61e 0080 6720 0080 2903 0080
00000360: b875 b73c f149 1bbc 2d20 0080 6da9 35ba
00000370: cec4 f53b 7a6b dd3a b419 0000 e21e 0080
00000380: a316 0080 431e 0080 240e 0000 60a4 b9bb
00000390: ea21 0000 da0b 0080 1f1b 0080 bb1e 0000
000003a0: daec 34bc 7c79 103c d517 0080 9406 0080
000003b0: 8207 0080 6bba 4a35 4420 0080 f40d 0000
000003c0: 211c 0080 2c1e 0080 3d1a 0080 c508 0080
000003d0: 77bd 5fbb b5f0 0bb9 d110 0000 b624 0000
000003e0: 9f75 b3ab 04fb 5e3d ab07 0080 ee0b 0000
000003f0: fa00 023b 1a1b ebbb f250 893c c484 a3bb

linear3.bias f4 [32]
-0.00018123908 -9.023e-42 -0.0040649213 0.0146077685 -1.3834e-41 -0.0019439615 -0.11131228 -7.547526e-05
-0.003152718 0.028912028 -4.553799e-09 -0.11239025 0.03295796 -3.854e-42 -0.0090776915 -0.0048335055
0.66512305 0.7247292 0.020358192 -0.004851655 -9.944458e-13 -4.153e-42 0.32736748 0.53108686
0.514575 0.46054778 0.018685872 -0.0005548833 0.012096808 -3.858e-42 -1.3628e-41 0.5772933
00000000: ff0a 3eb9 2719 0080 0833 85bb 6c55 6f3c
00000010: 9026 0080 86cc feba b1f7 e3bd 7948 9eb8
00000020: d59d 4ebb ebd8 ec3c a477 9cb1 dc2c e6bd
00000030: edfe 063d be0a 0080 99ba 14bc 6262 9ebb
00000040: 8145 2a3f da87 393f 39c6 a63c a2fa 9ebb
00000050: b0f4 8bab 940b 0080 b69c a73e 4ff5 073f
00000060: 30bb 033f ebcc eb3e 1d13 993c 9775 11ba
00000070: b131 463c c10a 0080 fd25 0080 7ec9 133f

linear4.weight f4 [64, 96]
1.16e-43 -5.314e-42 9.684e-42 -4.715e-42 1.2144e-41 3.42e-42 -1.3598e-41 -1.0259e-41
7.67e-42 -1.2253e-41 -9.222e-42 -3.671e-42 -1.318e-41 -7.805e-42 7.046e-42 4.868e-42
1.26e-43 -9.223e-42 6.171e-42 3.802e-42 -7.532e-42 -7.22e-43 -8.235e-42 -7.065e-42
7.368e-42 -6.942e-42 -8.213e-42 -2.881e-42 -4.982e-42 -6.016e-42 -1.0112e-41 -1.0057e-41
-9.683e-42 -1.3076e-41 8.932e-42 -4.146e-42 -1.2236e-41 -6.789e-42 -2.434e-42 -3.572e-42
-8.066e-42 -1.3688e-41 6.82e-43 -3.278e-42 -1.3088e-41 -9.813e-42 -5.178e-42 9.37e-43
-1.374e-41 -1.1646e-41 -9.532e-42 -5.452e-42 -1.0929e-41 3.824e-42 -1.3751e-41 -5.067e-42
-1.2518e-41 -2.1e-44 -1.3892e-41 -1.596e-42 1.3607e-41 -1.207e-41 -1.2208e-41 -9.777e-42
-1.3443e-41 -6.265e-42 -3.41e-42 8.11e-42 8.83e-42 -2.288e-42 -8.985e-42 -4.04e-42
-9.518e-42 -4.743e-42 -1.1632e-41 -9.547e-42 -7.983e-42 -7.4e-43 9.44e-42 -3.819e-42
7.376e-42 1.321e-42 -8.751e-42 -6.397e-42 -1.427e-42 2.534e-42 -3.75e-42 -9.136e-42
-1.3895e-41 8.265e-42 -4.865e-42 -6.718e-42 -8.478e-42 -6.262e-42 -3.798e-42 -3.332e-42
1.341e-42 -7.295e-42 5.835e-42 -2.884752e-14 1.0472e-41 1.8775855e-30 -0.0037830025 5.70655e-06
-0.000132425 -4.7449393e-12 -1.597e-42 -0.0034598818 -0.0006195753 -6.14e-43 -1.2027e-41 5.5325498e-33
-0.0063941972 -0.0063882107 -2.3642178e-33 -2.1601336e-25 0.00019615544 3.486e-42 -0.0028359334 -0.0046908795
-0.0061978037 -0.004116985 -1.4992068e-05 -0.0001969483 -7.29e-43 1.1997e-41 7.107e-42 -0.0049603432
-7.667e-42 3.883e-42 -0.00031378886 -9.310103e-08 -1.377e-41 -2.476e-42 -0.0030762113 0.0002786456
1.6161978e-29 -1.034313e-08 0.0001440166 -0.0040254924 -0.0015074768 9.773e-42 -3.0474306e-18 5.154e-42
0.00030631846 0.00021479826 -1.0736114e-11 -3.766396e-05 6.269989e-05 9.411e-42 -0.00043996857 -0.0004509717
0.00016378815 -0.0004798969 -0.00027662955 -0.00020008329 -3.310525e-30 -6.49e-42 6.43e-42 -0.00042774345
0.0001816964 1.1938e-41 -5.30343e-05 -3.032656e-06 -1.1741e-41 0.00023438488 -0.0051539284 0.00022286816
1.3528945e-06 -6.67749e-06 0.00016486086 -0.0062682126 -0.0018084776 1.0874e-41 -4.8871657e-16 -9.2700327e-26
0.0021969136 0.0021476925 -8.6983874e-07 -6.352572e-05 -0.0003160642 1.2473e-41 0.0004313441 0.0010044352
0.0020457425 0.00063813664 -0.0004374114 -0.00019778719 -9.835222e-20 -8.977e-42 -5.468e-42 0.001056924
-2.465e-42 1.3374e-41 -0.005959298 0.001192049 3.93e-42 -0.00033442216 -0.7215133 4.791219e-06
-3.3792144e-08 -0.00024182926 -1.3935e-41 -0.30474475 0.00024414947 -5.412e-42 -1.5079486e-10 -6.869775e-05
-0.11971177 -0.14387506 -0.0015725407 -0.0023389976 0.00020750322 -1.3715e-41 -0.005378049 -0.0057335673
-0.09378718 -0.0017794593 -0.004441611 5.0974794e-11 0.003741581 -1.1734e-41 -7.238e-42 -0.0043071117
-8.517e-42 5.59e-42 -0.0049211546 0.01271708 8.231e-42 0.0027269092 0.4873227 3.0704537e-05
-0.00025183326 0.009660036 2.3490876e-10 0.37791026 0.004904483 1.3273e-41 -0.0004109117 0.00043442924
0.006732162 -0.0067341933 0.0058929296 0.004262431 1.207e-42 9.987e-42 0.0058673257 0.009894979
0.010264951 0.008960164 0.008066897 2.892114e-05 0.009253551 3.345e-42 8.471e-42 0.010771648
00000000: 5300 0000 d00e 0080 ff1a 0000 250d 0080
00000010: da21 0000 8909 0000 e825 0080 991c 0080
00000020: 6115 0000 2822 0080 b519 0080 3c0a 0080
00000030: be24 0080 c215 0080 a413 0000 920d 0000
00000040: 5a00 0000 b619 0080 3411 0000 990a 0000
00000050: ff14 0080 0302 0080 f516 0080 b213 0080
00000060: 8a14 0000 5a13 0080 e516 0080 0808 0080
00000070: e30d 0080 c510 0080 301c 0080 091c 0080
00000080: fe1a 0080 7324 0080 e618 0000 8f0b 0080
00000090: 1c22 0080 ed12 0080 c906 0080 f509 0080
000000a0: 7c16 0080 2826 0080 e701 0000 2309 0080
000000b0: 7c24 0080 5b1b 0080 6f0e 0080 9d02 0000
000000c0: 4d26 0080 7720 0080 921a 0080 330f 0080
000000d0: 771e 0080 a90a 0000 5526 0080 200e 0080
000000e0: e522 0080 0f00 0080 ba26 0080 7304 0080
000000f0: ee25 0000 a521 0080 0822 0080 411b 0080
00000100: 7925 0080 7711 0080 8109 0080 9b16 0000
00000110: 9d18 0000 6106 0080 0c19 0080 430b 0080
00000120: 881a 0080 390d 0080 6d20 0080 9d1a 0080
00000130: 4116 0080 1002 0080 511a 0000 a50a 0080
00000140: 9014 0000 af03 0000 6518 0080 d511 0080
00000150: fa03 0080 1007 0000 740a 0080 7819 0080
00000160: bc26 0080 0a17 0000 900d 0080 ba12 0080
00000170: a217 0080 7511 0080 960a 0080 4a09 0080
00000180: bd03 0000 5614 0080 4410 0000 edea 01a9
00000190: 311d 0000 ed53 180e 40ec 77bb e47a bf36
000001a0: 91db 0ab9 9df2 a6ac 7404 0080 2fbf 62bb
000001b0: ff6a 22ba b601 0080 8721 0080 29d0 e509
000001c0: 6a86 d1bb 3254 d1bb 5a69 4489 afb4 8596
000001d0: 13af 4d39 b809 0000 11db 39bb f3b5 99bb
000001e0: f216 cbbb c6e7 86bb 7186 7bb7 e883 4eb9
000001f0: 0802 0080 7121 0000 d013 0000 608a a2bb
00000200: 5f15 0080 d30a 0000 0784 a4b9 d5ee c7b3
00000210: 6326 0080 e706 0080 439a 49bb 2e17 9239
00000220: e5e6 a30f 91b1 31b2 2903 1739 47e8 83bb
00000230: 8796 c5ba 3e1b 0000 56dc 60a2 5e0e 0000
00000240: 5e99 a039 783b 6139 29df 3cad 5ef9 1db8
00000250: bf7d 8338 3c1a 0000 95ab e6b9 6670 ecb9
00000260: 8cbe 2b39 ac9a fbb9 9708 91b9 73cd 51b9
00000270: 754a 868e 1712 0080 ed11 0000 c142 e0b9
00000280: c285 3e39 4721 0000 2571 5eb8 a284 4bb6
00000290: bb20 0080 36c5 7539 49e2 a8bb b7b1 6939
000002a0: 1a95 b535 340f e0b6 80de 2c39 9465 cdbb
000002b0: 700a edba 501e 0000 ebdc 0ca6 d083 e595
000002c0: 18fa 0f3b 4dc0 0c3b dd7e 69b5 1c39 85b8
000002d0: 6bb5 a5b9 c522 0000 0626 e239 41a7 833a
000002e0: dd11 063b a048 273a 5d54 e5b9 1865 4fb9
000002f0: 453a e89f 0619 0080 3e0f 0080 7c88 8a3a
00000300: df06 0080 4825 0000 3746 c3bb 873e 9c3a
00000310: f50a 0000 6255 afb9 18b5 38bf 42c4 a036
00000320: db22 11b3 8c93 7db9 d826 0080 8107 9cbe
00000330: 3001 8039 160f 0080 fbcc 25af d311 90b8
00000340: 722b f5bd fc53 13be b61d ceba de49 19bb
00000350: 3995 5939 3b26 0080 583a b0bb a6e0 bbbb
00000360: 7e13 c0bd bf3c e9ba ef8a 91bb 8430 602e
00000370: 5035 753b b620 0080 2d14 0080 ac22 8dbb
00000380: be17 0080 950f 0000 a341 a1bb 4d5b 503c
00000390: f216 0000 f2b5 323b 5c82 f93e bfc8 0038
000003a0: 7d08 84b9 2145 1e3c 7824 812f 747d c13e
000003b0: c9b5 a03b 0025 0000 a36f d7b9 1bc4 e339
000003c0: 7899 dc3b 82aa dcbb 7a19 c13b ddab 8b3b
000003d0: 5d03 0000 d71b 0000 b242 c03b 8d1e 223c
000003e0: 532e 283c a7cd 123c 052b 043c ad9b f237
000003f0: 359c 173c 5309 0000 9d17 0000 917b 303c

linear4.bias f4 [64]
-1.2592e-41 -0.0054949643 -0.18790038 -0.030100279 0.0028479437 0.0028484229 -0.01633302 -0.2331397
0.092300296 -3.819e-42 0.020088185 -4.983e-42 -0.004187479 0.041172337 0.75449127 -1.9953597e-05
-0.26872054 -1.0196e-41 0.027537905 -0.0065537207 -1.0895e-41 -4.966567e-05 0.020796157 -1.0717e-41
-0.3987769 -9.488e-42 -0.013638373 -8.583e-42 -1.1397e-41 0.028390147 -0.011547265 -0.03005033
-1.3174e-41 -1.0543743e-05 -1.1963e-41 0.008768188 -0.0021575522 -0.0013986616 -1.37e-41 -0.005569071
0.0027340625 0.010840751 -1.2029e-41 0.02712045 -1.1547e-41 -1.0386e-41 0.8317904 0.012610376
-0.0029738736 -0.2572997 -1.1105e-41 -0.033881936 -1.1077e-41 0.006241079 -1.3466e-41 -0.0025474331
-4.456e-42 -5.107874e-05 -6.4925536e-07 -0.0076973517 0.07801305 -0.13254192 -8.911e-42 -0.004483331
00000000: 1a23 0080 1a0f b4bb f568 40be dc94 f6bc
00000010: 91a4 3a3b 9bac 3a3b d3cc 85bc 2cbc 6ebe
00000020: f007 bd3d a50a 0080 fa8f a43c e40d 0080
00000030: 1f37 89bb 53a4 283d 5726 413f 0662 a7b7
00000040: bd95 89be 6c1c 0080 2c97 e13c 98c0 d6bb
00000050: 5f1e 0080 1b50 50b8 b45c aa3c e01d 0080
00000060: 7c2c ccbe 731a 0080 7c73 5fbc ed17 0080
00000070: c51f 0080 7492 e83c bd30 3dbc 1c2c f6bc
00000080: b924 0080 08e5 30b7 5921 0080 72a8 0f3c
00000090: b865 0dbb 4c53 b7ba 3126 0080 c17c b6bb
000000a0: f52d 333b 689d 313c 8821 0080 b52b de3c
000000b0: 3020 0080 f41c 0080 37f0 543f c09b 4e3c
000000c0: 52e5 42bb c9bc 83be f51e 0080 c9c7 0abd
000000d0: e11e 0080 f781 cc3b 8a25 0080 d6f2 26bb
000000e0: 6c0c 0080 613d 56b8 7d48 2eb5 113a fcbb
000000f0: 4ec5 9f3d 12b9 07be d718 0080 e8e8 92bb

linear5.weight f4 [16, 64]
-4.906e-42 9.839e-42 -4.19e-42 -6.264e-42 -8.43e-42 1.1527e-41 -1.3454e-41 -4.762e-42
-1.0399e-41 6.338e-42 -3.104e-42 -1.0867e-41 -9.52e-42 -3.69e-42 -1.1912e-41 -5.398e-42
-1.3248e-41 6.24e-43 -8.001e-42 -6.952e-42 -3.528e-42 5.2e-42 -8.216e-42 -1.1814e-41
-6.016e-42 1.3845e-41 -9.634e-42 6.981e-42 -5.085e-42 -4.609e-42 1.271e-41 -4.528e-42
-1.1966e-41 1.2273e-41 8.563e-42 -5.516e-42 -2.88e-42 -1.1601e-41 -8.687e-42 -2.29e-42
7.274e-42 1.3409e-41 -2.508e-42 -1.1439e-41 -1.1582e-41 -1.3516e-41 -1.1439e-41 4.781e-42
-3.922e-42 5.782e-42 9.079e-42 -9.3e-42 -1.1023e-41 1.6e-43 -2.392e-42 -7.277e-42
-1.0857e-41 -1.1017e-41 -9.348e-42 -1.2434e-41 -7.072e-42 -8.597e-42 -7.737e-42 7.312e-42
7.892e-42 0.0060056825 -0.03311034 0.31923184 -0.01187245 0.01889711 0.29364845 -0.01950921
0.36104146 -1.3426e-41 -0.039208867 -8.028e-42 -0.016163647 -0.019729545 -0.5236477 2.67061e-06
-0.022657067 8.153e-42 -0.022843245 -0.0006428468 5.542e-42 7.28375e-15 -0.042530157 1.1718e-41
0.7619118 -1.3935e-41 0.0006108549 6.751e-42 -1.1088e-41 -0.0052321064 0.0018368815 0.29986715
5.249e-42 1.6809452e-18 1.1777e-41 -0.03104908 0.0028581917 8.527126e-08 8.894e-42 0.11191019
0.0022457778 -0.019705478 1.0445e-41 -0.017350271 -5.692e-42 1.0087e-41 -0.5672455 -0.015937822
-0.0037344138 -0.018784037 -4.065e-42 0.29309255 6.08e-42 -0.04817196 -1.2034e-41 0.0044414937
4.787e-42 0.0025145595 0.0030187815 -0.010612782 -0.009654702 -0.017752534 1.2687e-41 0.0010474866
-5.751e-42 -0.0018411701 0.11029824 0.47032905 0.03590508 0.056233115 0.5154597 0.03656552
0.8951428 -1.0164e-41 -0.0057977852 5.448e-42 0.010062838 0.025390394 -0.022042139 1.6005184e-05
0.07148325 -9.4e-43 -0.022495186 0.0005597592 -6.082e-42 -3.1146672e-05 -0.0042447094 7.376e-42
-0.084091134 -7.337e-42 0.03046009 1.1753e-41 1.2428e-41 -0.021247733 0.025003362 0.45283136
-8.034e-42 -0.0006633057 -1.254e-41 0.037324026 -0.0013636391 0.0016963786 -1.2895e-41 0.09786476
0.003598345 0.045139942 -5.126e-42 0.010902459 -1.2668e-41 -1.046e-41 0.008325314 0.019655308
0.00085097767 -0.0010438812 -8.618e-42 0.32680255 -6.76e-42 0.019174218 5.35e-42 0.0015692273
1.2682e-41 0.0007610868 -0.00022990155 0.0031302967 -0.14096148 0.02635379 6.302e-42 0.0033681043
1.085e-41 -0.00262248 -0.010467999 0.056560624 0.0059835818 0.0034036185 0.0564447 -0.024349838
0.089059114 3.657e-42 0.004175515 -1.0305e-41 0.005343965 0.014771974 0.07284534 5.200549e-07
-0.02236384 7.27e-43 0.0017923622 -0.001058568 -1.0269e-41 1.0259496e-06 0.0061573763 -6.502e-42
-0.048902456 8.373e-42 0.0016173212 -2.64e-42 9.15e-43 0.0010368438 0.005598194 0.053836446
1.2801e-41 1.7780084e-07 -4.935e-42 0.009129614 -0.00082188525 -0.002636204 -6.225e-42 0.017357744
-0.0006639598 0.0102124475 -1.2072e-41 0.019792303 -1.118e-41 -8.014e-42 0.080920465 0.010710875
-0.00061941624 -0.031262994 9.771e-42 0.045733463 -1.3339e-41 0.0134080425 1.0751e-41 -0.0012220117
-2.248e-42 -1.0421132e-06 -3.8981716e-06 0.004977159 -0.024857696 -0.017231245 -8.277e-42 9.471959e-06
00000000: ad0d 0080 6d1b 0000 ae0b 0080 7611 0080
00000010: 8017 0080 2220 0000 8125 0080 460d 0080
00000020: fd1c 0080 ab11 0000 a708 0080 4b1e 0080
00000030: 8a1a 0080 490a 0080 3521 0080 0c0f 0080
00000040: ee24 0080 bd01 0000 4e16 0080 6113 0080
00000050: d609 0080 7f0e 0000 e716 0080 ef20 0080
00000060: c510 0080 9826 0000 db1a 0080 7613 0000
00000070: 2d0e 0080 d90c 0080 6e23 0000 9f0c 0080
00000080: 5b21 0080 3622 0000 df17 0000 600f 0080
00000090: 0708 0080 5720 0080 3718 0080 6206 0080
000000a0: 4714 0000 6125 0000 fe06 0080 e31f 0080
000000b0: 4920 0080 ad25 0080 e31f 0080 540d 0000
000000c0: ef0a 0080 1e10 0000 4f19 0000 ed19 0080
000000d0: ba1e 0080 7200 0000 ab06 0080 4914 0080
000000e0: 441e 0080 b61e 0080 0f1a 0080 a922 0080
000000f0: b713 0080 f717 0080 9115 0080 6214 0000
00000100: 0016 0000 51cb c43b b59e 07bd 5b72 a33e
00000110: aa84 42bc 1dce 9a3c 1759 963e c7d1 9fbc
00000120: 6dda b83e 6d25 0080 7a99 20bd 6116 0080
00000130: a069 84bc db9f a1bc c70d 06bf bb38 3336
00000140: 509b b9bc ba16 0000 c221 bbbc b884 28ba
00000150: 730f 0000 5e36 0328 1a34 2ebd aa20 0000
00000160: a70c 433f d826 0080 c721 203a d212 0000
00000170: e91e 0080 1772 abbb 84c3 f03a 3088 993e
00000180: a20e 0000 5010 f821 d420 0000 a45a febc
00000190: 8050 3b3b 5f1e b733 cb18 0000 2b31 e53d
000001a0: e62d 133b 626d a1bc 1e1d 0000 2822 8ebc
000001b0: de0f 0080 1e1c 0000 0037 11bf 0990 82bc
000001c0: 11bd 74bb fbe0 99bc 550b 0080 3a10 963e
000001d0: f310 0000 f64f 45bd 8c21 0080 f389 913b
000001e0: 580d 0000 4fcb 243b c0d6 453b 3ce1 2dbc
000001f0: c12e 1ebc c36d 91bc 5e23 0000 d14b 893a
00000200: 0810 0080 6b53 f1ba 0be4 e13d f8ce f03e
00000210: 3511 133d b254 663d 2bf5 033f bac5 153d
00000220: 1428 653f 551c 0080 59fb bdbb 300f 0000
00000230: 9ade 243c 84ff cf3c b791 b4bc df42 8637
00000240: cf65 923d 9f02 0080 d347 b8bc cebc 123a
00000250: f410 0080 7ca3 02b8 3417 8bbb 9014 0000
00000260: f937 acbd 7414 0080 7087 f93c c320 0000
00000270: a522 0000 ba0f aebc dad3 cc3c 83d9 e73e
00000280: 6516 0080 b1e1 2dba f522 0080 14e1 183d
00000290: 23bc b2ba 0559 de3a f223 0080 526d c83d
000002a0: 36d2 6b3b a9e4 383d 4a0e 0080 3aa0 323c
000002b0: 5023 0080 291d 0080 e666 083c 2b04 a13c
000002c0: 2514 5f3a d7d2 88ba 0618 0080 aa52 a73e
000002d0: d812 0080 4013 9d3c ea0e 0000 88ae cd3a
000002e0: 5a23 0000 ac83 473a ba11 71b9 aa25 4d3b
000002f0: 3558 10be e7e3 d73c 9111 0000 6abb 5c3b
00000300: 3f1e 0000 eadd 2bbb f881 2bbc 1dac 673d
00000310: ec11 c43b 3e0f 5f3b 8f32 673d 5079 c7bc
00000320: a064 b63d 320a 0000 c2d2 883b ba1c 0080
00000330: 6d1c af3b 2606 723c f02f 953d e799 0b35
00000340: 5f34 b7bc 0702 0000 b2ed ea3a a6bf 8aba
00000350: a01c 0080 5cb3 8935 d1c3 c93b 2012 0080
00000360: f14d 48bd 5717 0000 4bfc d33a 5c07 0080
00000370: 8d02 0000 b4e6 873a 0e71 b73b 9b83 5c3d
00000380: af23 0000 86e9 3e34 c20d 0080 6094 153c
00000390: c973 57ba 2ac4 2cbb 5a11 0080 d431 8e3c
000003a0: 970d 2eba 1c52 273c a721 0080 7823 a23c
000003b0: 2a1f 0080 5716 0080 a1b9 a53d aa7c 2f3c
000003c0: 5260 22ba a00d 00bd 3d1b 0000 0353 3b3d
000003d0: 2f25 0080 68ad 5b3c f81d 0000 e92b a0ba
000003e0: 4406 0080 bdde 8bb5 0acd 82b6 7017 a33b
000003f0: 5ea2 cbbc 8a28 8dbc 1317 0080 c1e9 1e37

linear5.bias f4 [16]
-1.0265e-41 -0.17713849 0.07796913 0.035333734 -0.107822016 0.60683495 -4.315e-42 0.015302615
-0.08101103 0.010061642 -4.772385e-06 0.019609533 -1.2963e-41 -1.223e-41 0.18619432 -0.0012864047
00000000: 9d1c 0080 cb63 35be 47ae 9f3d 1bba 103d
00000010: cad1 dcbd 8959 1b3f 070c 0080 d2b7 7a3c
00000020: 1ce9 a5bd 96d9 243c 7a22 a0b6 2ca4 a03c
00000030: 2324 0080 1822 0080 b9a9 3e3e 949c a8ba

linear6.weight f4 [4, 16]
-1.219e-41 -0.08514927 0.0893437 -0.061400697 -0.08385673 -0.72538525 8.865e-42 0.026725993
0.62174165 0.025982399 0.0015368476 -0.044264123 7.982e-42 -8.104e-42 -0.26820132 1.7648927e-05
-7.341e-42 0.9797543 -0.009694681 -0.065181196 0.82171345 -0.5495228 4.669e-42 -0.07937667
-0.337865 -0.025918012 0.0010760571 -0.01668939 1.3586e-41 -1.3726e-41 -0.02953907 0.0043114815
6.047e-42 -0.0058219004 -1.0275937 -0.09204692 -0.006560337 0.23103185 4.851e-42 -0.063508846
0.46531817 -0.0504126 -0.00013474585 0.20527135 -7.347e-42 -3.739e-42 1.1905136 -7.8063655e-05
1.3436e-41 -0.7881448 0.3290332 0.1136806 -0.61329824 0.7114748 -5.183e-42 0.050272625
-0.84359306 0.034415048 -0.0023950762 -0.13828342 -6.86e-42 1.1112e-41 -0.73412186 -0.003880605
00000000: fb21 0080 be62 aebd d4f9 b63d 4c7f 7bbd
00000010: 14bd abbd d9b2 39bf b618 0000 78f0 da3c
00000020: 762a 1f3f 0ad9 d43c 0c70 c93a 4c4e 35bd
00000030: 4016 0000 9716 0080 af51 89be c80c 9437
00000040: 7714 0080 2ed1 7a3f 70d6 1ebc b87d 85bd
00000050: d05b 523f 87ad 0cbf 040d 0000 3c90 a2bd
00000060: a4fc acbe 0352 d4bc 7c0a 8d3a 30b8 88bc
00000070: df25 0000 4326 0080 ebfb f1bc 5447 8d3b
00000080: db10 0000 a4c5 bebb 3188 83bf 1883 bcbd
00000090: 18f8 d6bb 9d93 6c3e 860d 0000 ed10 82bd
000000a0: 2f3e ee3e 717d 4ebd 904a 0db9 a732 523e
000000b0: 7b14 0080 6c0a 0080 c062 983f 1bb6 a3b8
000000c0: 7425 0000 dcc3 49bf 0a77 a83e 60d1 e83d
000000d0: 1d01 1dbf 3623 363f 730e 0080 abea 4d3d
000000e0: b7f5 57bf cbf6 0c3d b6f6 1cbb 2b9a 0dbe
000000f0: 1f13 0080 fa1e 0000 69ef 3bbf c051 7ebb

linear6.bias f4 [4]
-0.21656162 -0.17734747 0.016462754 0.60728955
00000000: 54c2 5dbe 939a 35be e6dc 863c 5477 1b3f
