checkpoints/dnnAE_9.pt (torch, 230343 bytes, 10 tensors)

linear1.weight f4 [128, 358]
00000000: 30ab b8b8 e09c 9237 a9c3 2b3a b00c 9639
00000010: b095 23ba 00fa 1fba a296 70ba 1466 cb3a
00000020: f9f1 04ba 4ae7 2bba f4bd 21ba 000b adb8
00000030: c437 72b8 60ae 0cb9 eb8b b038 72a7 ea38
00000040: c117 1ab9 611f 9a38 4873 5f39 8b3b 68b7
00000050: 3c57 ce39 da8d f439 96d3 8db9 4e2f 97b9
00000060: ac02 71ba cdbc 99b9 06b4 b1b9 6e42 d9b8
00000070: 065d 273a c23f 8439 3938 253a 41d2 0bba
00000080: 2633 5c39 2afa 0e38 ddc6 c6b7 ef58 5dba
00000090: f9d3 383a b989 083a 4a56 e8b8 c002 abb9
000000a0: 14ea 803a ec98 d837 1dbf ccb6 4568 1839
000000b0: de81 8a39 627a 9138 11ba c438 b9e2 11b8
000000c0: b03d 11b8 7f31 de39 33c1 0cb9 e62d d437
000000d0: aebf ca37 6a4c 533b 8136 85b9 57f3 f7b9
000000e0: f047 6139 a3ed c539 8b90 6c38 129f 1239
000000f0: 6e4e ebb8 6003 033a 9a6c 8139 7bfa 6839
00000100: 6f14 be39 0609 7b39 5018 9239 659d 0a3a
00000110: ac1f 40b9 6df6 0eb9 fe8b cc38 dcfa 1cba
00000120: ff32 2939 65c0 08b9 d6bf 9037 f782 9937
00000130: 7cdf 0637 8dec ba37 82e2 98b8 74d5 dd37
00000140: dfa9 f738 2851 e5b8 c94d 5639 5c16 b338
00000150: 2992 8a38 edfa 8e38 0108 9038 bcbc ff38
00000160: 91b2 f438 7388 c037 3ed6 8239 1905 5e39
00000170: 7dd8 5a39 5e2c d539 52d7 b539 7535 d53b
00000180: 2d4a ad39 ad3f 1aba da02 16ba 7493 d739
00000190: 7b73 c337 e2ff 583b d550 40ba d0ff a4ba
000001a0: c221 8039 0bb8 5c39 77f4 d9ba afc1 ef39
000001b0: 2701 d638 d8e6 9c39 1bcf 0c39 f9d9 48b9
000001c0: 1ef4 fbb6 c411 003a 12b3 f239 996d 1b38
000001d0: 225f f139 8c80 8f39 46c0 193a 4e73 1039
000001e0: 6dd7 1fb9 a57e 95b9 9683 06ba 95fa 67b9
000001f0: 434e 46b9 21cf 9239 a3d0 ef39 e27c 03b9
00000200: bc26 74ba 41f5 8039 37d8 8037 29dd 67b9
00000210: 143b 2dba c5a1 e632 ce53 b338 5ed9 87b9
00000220: d8af 57ba 0749 afb8 f27b d9b8 c9c5 9fb8
00000230: 1bc1 e3ba a359 4939 f3b7 33b8 58eb a6b8
00000240: ceea 06b9 cc35 0aba d03d b5b9 18d1 92b8
00000250: d62e 47b9 d2ce 84b9 5b83 0ab8 931b 9839
00000260: 5ad7 5eb9 26e1 dcb9 34c3 8eb9 1459 2ab9
00000270: ec5a 9738 bdab b1b9 c0d1 4eba 1d9c b739
00000280: 45ba 59b9 c94f 033a aee0 2aba 6f3b a4b9
00000290: ecee b8b8 37cd 69b9 756a b9b9 000c feb9
000002a0: 5d69 c2b8 e7fa 8eb7 f4a1 40ba 4c0d 1038
000002b0: 34b4 9839 a24a bab9 5137 e439 1663 d936
000002c0: 2ddd 9338 e241 acb8 a3c7 be38 ce92 5739
000002d0: a79f bcb7 552d 18b9 3305 9c38 23e5 04ba
000002e0: 5944 d239 b4f6 88b9 8222 beb2 d622 2e33
000002f0: 55e4 0433 0518 8aba da7c 0d3a 9a94 f733
00000300: af9c 0c36 1cd1 8cb2 449a 5ab4 9ba0 4a3a
00000310: 15cc 2234 a552 80b3 7787 92b3 a7a3 4935
00000320: 1e44 1933 76c1 2936 5158 a5b3 1cee d8b2
00000330: 093f 8d34 328e 3db3 3b34 06b3 47cb 0a35
00000340: 04d0 ab33 904a f931 f2dd 91b3 adfa 5f32
00000350: 403e 702f 2e98 07b3 568d b4bb 16ba eeba
00000360: e13c f6b3 b96b 21b3 86f7 1eb5 bc29 b232
00000370: 2cc9 17b4 4347 f13a bb34 c136 42a4 4b34
00000380: f7e8 17b4 809a 56bc 849f 1736 5762 b833
00000390: 7e65 38ba edb9 7eba e953 15bb 4d6a 3ab6
000003a0: 21fc 88b3 7536 5b35 f938 a1b4 171e 1634
000003b0: 4a24 0ab7 9096 dc34 d6bc 81b3 a749 3b34
000003c0: 0a41 9739 2326 fb38 a0ef 9eb7 8f9e 7eb8
000003d0: 9ccf 1ab9 1e15 ac38 d3d6 2837 2fee b339
000003e0: 67fe 8639 277e b4b8 f912 3c37 c21f ac38
000003f0: b4b0 d138 10de 2239 b7ee 6139 f983 a739
-8.80569e-05 1.7477607e-05 0.0006552288 0.00028619682 -0.0006240262 -0.00061026216 -0.00091777195 0.0015518093
-0.0005071457 -0.0006557597 -0.0006169968 -8.251332e-05 -5.7749232e-05 -0.000134164 8.418396e-05 0.000111891786
-0.00014695433 7.349137e-05 0.00021309883 -1.3842141e-05 0.00039356377 0.00046644994 -0.0002705126 -0.0002883621
-0.00091938186 -0.00029323102 -0.000338942 -0.0001035974 0.0006384406 0.00025224505 0.00063026283 -0.00053337595
0.00020999889 3.408842e-05 -2.3696042e-05 -0.0008443733 0.00070506294 0.00052085106 -0.00011078695 -0.0003261771
0.0009835386 2.5820416e-05 -6.1019223e-06 0.00014534693 0.0002641817 6.9369344e-05 9.380666e-05 -3.4781846e-05
-3.4628145e-05 0.00042380017 -0.00013423413 2.5293743e-05 2.4169534e-05 0.0032241591 -0.00025408345 -0.00047292814
0.00021484471 0.0003775182 5.64014e-05 0.00013982903 -0.00011220282 0.00049977563 0.00024685712 0.00022218555
0.00036254848 0.00023940587 0.00027865404 0.0005287736 -0.00018322346 -0.00013633976 9.7535536e-05 -0.00059883087
0.00016136093 -0.00013041643 1.7255468e-05 1.8300007e-05 8.039056e-06 2.228308e-05 -7.290115e-05 2.644465e-05
0.00011809519 -0.000109346875 0.00020437608 8.53955e-05 6.607577e-05 6.817826e-05 6.867946e-05 0.00012194502
0.00011668087 2.2951723e-05 0.00024955155 0.00021173469 0.00020870748 0.00040659582 0.00034683436 0.0065066167
0.00033052397 -0.0005884122 -0.0005722471 0.00041117857 2.3299586e-05 0.0033111502 -0.00073362637 -0.0012588445
0.00024439214 0.00021049396 -0.0016628642 0.00045729938 0.0001020453 0.0002992663 0.00013428593 -0.00019154687
-7.508802e-06 0.000488546 0.00046291255 3.705695e-05 0.00046037982 0.0002737086 0.0005865138 0.00013775864
-0.00015243674 -0.00028513852 -0.0005131302 -0.00022123226 -0.00018911906 0.00028001613 0.0004574108 -0.00012539656
-0.0009313633 0.0002459679 1.5359472e-05 -0.00022112265 -0.00066082296 2.6849088e-08 8.550995e-05 -0.00025911158
-0.0008227802 -8.358253e-05 -0.00010370453 -7.618551e-05 -0.0017376276 0.00019202246 -4.284824e-05 -7.959333e-05
-0.00012866707 -0.00052722986 -0.00034569064 -7.000769e-05 -0.00018995567 -0.00025331095 -3.30241e-05 0.00029012244
-0.00021251795 -0.0004212942 -0.00027229788 -0.00016245648 7.2171766e-05 -0.00033888026 -0.00078895316 0.00035020793
-0.00020764123 0.00050091423 -0.0006518465 -0.000313248 -8.8183064e-05 -0.0002229706 -0.00035365266 -0.00048455596
-9.270266e-05 -1.7044555e-05 -0.00073483516 3.434466e-05 0.0002912596 -0.0003553229 0.00043528763 6.478639e-06
7.0507034e-05 -8.213871e-05 9.097091e-05 0.00020558687 -2.248569e-05 -0.00014512737 7.439628e-05 -0.00050695444
0.00040105244 -0.0002612375 -2.2134603e-08 4.0544215e-08 3.094131e-08 -0.0010535723 0.00053973275 1.1528864e-07
2.0952828e-06 -1.6393237e-08 -2.0358954e-07 0.00077296206 1.516167e-07 -5.9754974e-08 -6.823296e-08 7.511648e-07
3.568504e-08 2.5295572e-06 -7.699476e-08 -2.525399e-08 2.630916e-07 -4.4134318e-08 -3.124681e-08 5.1704814e-07
8.000646e-08 7.2553306e-09 -6.79246e-08 1.30373055e-08 2.1849988e-10 -3.1570544e-08 -0.0055100126 -0.0018213417
-1.14663415e-07 -3.7583707e-08 -5.921978e-07 2.0740906e-08 -1.4136157e-07 0.0018408078 5.757987e-06 1.8965605e-07
-1.4147723e-07 -0.013098359 2.2593604e-06 8.5860556e-08 -0.00070341665 -0.0009717036 -0.002278561 -2.7778035e-06
-6.3788555e-08 8.1663103e-07 -3.003004e-07 1.3980785e-07 -8.23389e-06 4.1087742e-07 -6.04138e-08 1.7442527e-07
0.00028849422 0.00011975716 -1.8946652e-05 -6.070599e-05 -0.00014763925 8.2055325e-05 1.0063598e-05 0.00034319
0.00025748016 -8.6065666e-05 1.1210091e-05 8.2075145e-05 9.99881e-05 0.00015532249 0.000215466 0.0003195105

linear1.bias f4 [128]
00000000: 40e3 46bc 6655 803a 4f69 443a 90b1 45bb
00000010: 76f2 823e f163 d1bb b606 67b7 c09d 233c
00000020: 64e8 88bc 4a3a bb3e c9dd c3ba 5253 3f3b
00000030: 540e 0dbc 4674 fd3e ad07 a03d 7706 0dbc
00000040: 10d6 14bc 81d4 bfba 2cc8 283b 7ca4 8bbc
00000050: fcc1 e73c aca7 83bc 8b04 b1bc 3e0f 15bb
00000060: db86 0080 191a be3c 46da d53c 3902 9d3d
00000070: 384c f8ba dc2b d33c d604 0000 0c2d 7f87
00000080: 41a6 203d 54e4 863d 9e53 013d a406 37ba
00000090: 9782 473f ad51 ed3b a843 0180 8822 1b3a
000000a0: 5442 abbb 4a16 663f 509b 19ba cde3 a4bb
000000b0: 9049 c93c ea82 49ba 7576 c0bd b913 36bb
000000c0: a7fc a03e b6ed afb9 2acd 2aa2 5ef8 cfbb
000000d0: d4fb 01bc df63 0080 61c0 c43e 5ef5 22bb
000000e0: 4717 033e 3c60 56bb 102f 23bb 998f 88bb
000000f0: 457d 003f 7603 74bc b205 1db9 164f 5c3d
00000100: d61e 22bb 8e67 903c 0511 fa3b 631e 0080
00000110: c425 b9ba ec4e a33e 01d8 24bc 9b66 293d
00000120: e239 c83c 6d2d 5cb9 156c 07bb 46fd 5aba
00000130: fa3c 103f 7e85 c93c 7697 cdba 1f7a 6b3e
00000140: b047 0689 7b66 7eb6 136a 90a7 79e8 d33a
00000150: 883a a6b9 a92a f3b9 989e 7c39 0df8 6db9
00000160: 76db b298 2481 8eb9 8b81 4cb8 0fcb baba
00000170: f2cb 8f3c 1592 173f 2f1b 96b9 efcc 9dba
00000180: 9cb6 8ebb 1b01 ebbb 058c f4ba 51ca 058a
00000190: 4ce4 9fbb 8b8d d23c e9a1 debb c610 cfbb
000001a0: 5915 5bbc 9f3e b9bb 5246 fbbb 9e18 023c
000001b0: 1312 fc39 b6f0 a63e b916 3237 062f a5ba
000001c0: 2c58 3c3c b067 283e 601a 8593 4780 ed3c
000001d0: 2af2 353e 8701 1389 a7a7 c53e 3af7 883c
000001e0: fd33 ee3b a137 d1bd 85f9 c0bb dd74 243c
000001f0: 4e63 43bc 2142 20b9 cc15 d7bb 1ac4 753e
-0.012139142 0.0009791076 0.0007492499 -0.003016565 0.25575608 -0.006390088 -1.37702355e-05 0.009986341
-0.016712375 0.3656791 -0.0014943416 0.002919395 -0.008609373 0.49502772 0.07813964 -0.008607498
-0.00908424 -0.0014635475 0.0025754077 -0.017046206 0.028290741 -0.016071163 -0.021608612 -0.002274468
-4.8377e-41 0.023205804 0.026105057 0.076664396 -0.0018943613 0.02577775 1.735e-42 -1.9197306e-34
0.039221052 0.06586519 0.031573884 -0.00069818855 0.7793364 0.0072424025 -1.16106e-40 0.00059179263
-0.005226413 0.8987776 -0.000585963 -0.005032039 0.02457121 -0.0007687049 -0.09397594 -0.0027782752
0.31442758 -0.0003355571 -2.314791e-18 -0.0063467463 -0.007933576 -3.5827e-41 0.38428023 -0.0024865489
0.12801848 -0.0032711169 -0.0024899878 -0.004167509 0.50191146 -0.014893403 -0.00014974808 0.05378636
-0.0024737618 0.017627504 0.0076314234 -1.0901e-41 -0.0014125635 0.3189615 -0.010061265 0.041357618
0.024441663 -0.00020997757 -0.0020663787 -0.0008353781 0.5634304 0.024599787 -0.0015685398 0.22995804
-1.616337e-33 -3.79086e-06 -4.0083035e-15 0.0016167305 -0.00031705596 -0.00046380356 0.00024091674 -0.00022694487
-4.623352e-24 -0.00027180568 -4.8758036e-05 -0.001425119 0.017553303 0.5920728 -0.00028630483 -0.0012039224
-0.004355265 -0.0071717626 -0.0018657452 -6.4417686e-33 -0.00487951 0.025702259 -0.0067942035 -0.006319138
-0.013371789 -0.005653217 -0.007668295 0.0079404395 0.00048078652 0.32605523 1.0614917e-05 -0.0012602515
0.011495631 0.16445804 -3.3599928e-27 0.028991831 0.1776816 -1.76952e-33 0.3860447 0.01671945
0.007269381 -0.102156885 -0.00588912 0.010037628 -0.011925532 -0.00015283424 -0.0065638777 0.24000588

linear2.weight f4 [64, 128]
00000000: 2a9d 56ba b2ed ae3b 1644 f2ba c734 2a36
00000010: 9a07 9d3c cf4c 0f3a c52f 0533 ed5c 0d3b
00000020: 6983 58b7 0a37 653e e38e 8d34 69b8 faba
00000030: c3b7 7439 9de8 51be 4a51 a8bd 9a4f 95b9
00000040: a51c 363c a2bb 9938 abb3 153b 2ab6 94bb
00000050: eabc 2b3d 15ef d3b9 af4b 993a f220 6d38
00000060: 5219 0080 d4d9 6a3c 2627 2dbb 0404 d7bc
00000070: 79d4 263b d079 8e3c 3211 0000 2662 0e85
00000080: d29d 16bb d82a 40bd cf6c ed3a 289a 9337
00000090: b405 1c3e d2a8 db3a 6ffb 0000 f089 973a
000000a0: 769e b03b ac83 5e3e 93d2 8ebb bb32 d8b8
000000b0: 3ccf b0bc 716a 4a34 f667 863c a296 2ab8
000000c0: 891b a43d c8f3 e635 51f6 8b88 0e9e 4436
000000d0: c773 c739 8dad 0000 7b39 d0bd 1e0a 713b
000000e0: bc02 f9bc 2786 8d39 f3ae c734 bfa8 a93b
000000f0: 27e2 813d b184 61ba af7f 3c30 9bac a43d
00000100: 287a eeba 18e6 bbbd cfa2 153b 3307 0000
00000110: 0244 9e39 3d67 033e e22a b63a b030 63bc
00000120: 73dd cfbb d9a1 ff37 ebfc eb37 bd0e ae33
00000130: d41c 343e 74b1 19bc a8cb a3bb fd7c fd3d
00000140: 6214 0000 8c0c 3017 05fb 34a3 b981 bc3a
00000150: 22eb f73a 955c 1431 1a61 883b 576e ae2c
00000160: da28 3295 320c 9932 c76f fbb6 c350 8737
00000170: 332e 3d3c 2be2 f1bd 9d48 2bbc acdc f638
00000180: 7056 ed37 a4da 283b dfe9 5ab7 2c96 2f06
00000190: 2b0c 413b 7f45 24bc ba32 a23a 6483 eeb8
000001a0: a6e4 0f3b 9529 beb7 eb33 27bc 3839 88bc
000001b0: 709a eab8 9857 053e a0dc b739 f1a0 473b
000001c0: 29f4 b13b d9c7 11bc 3625 938c 8f47 0dbc
000001d0: 9db6 8f3c 8df7 ab07 83f3 9c3d f8e2 70bc
000001e0: 8c5a 943b 1bb6 823a ef9e 693b e3b8 65bb
000001f0: 1f2c bf3a 7c7a 4536 20c5 e3bb 8738 fabd
00000200: 3310 7839 2b56 2cba 6011 8cba ad13 2120
00000210: 9223 d83c ac1b 1d38 7280 bda3 7f84 283b
00000220: 398c 2e30 a695 5ebe e073 ac29 1d53 c4b9
00000230: 3eb3 ac38 cadd 203e e61f dd3c 2381 17b8
00000240: e740 7d3b e99a ad31 6709 8538 8b3a dcb9
00000250: dde0 273c d411 beb8 fcbd 9f39 4838 112a
00000260: 851c 0000 0f3b 983b 92f1 3e3b ce32 ac3c
00000270: 46bf 3839 86de e93a b500 0000 ec0c 4602
00000280: a52e a63b 765e 243c e752 663b 456e 0eb7
00000290: 1972 95bc 7be0 2e3b d165 0080 8e0f 6a39
000002a0: fa04 6539 2e6a af3c e9d4 913b 456c c43a
000002b0: a3e1 413c 1c87 b78e 0ca7 52bb f46a 3db4
000002c0: b10c 1abc 6d7a 441b 4e65 1f80 38fe a330
000002d0: 9872 23b8 9354 0080 995f c63d 23a8 07b9
000002e0: 93ad ef3b 78df d3b8 2bc3 40a7 14a7 543a
000002f0: ae75 763c 727d b138 f5ba 1721 d156 bab9
00000300: 3212 ebba 2f98 acbc f9e5 043b 8306 0000
00000310: af98 87b8 7931 fabc 95a2 fa38 471c 013c
00000320: 39b4 9f3b 5567 4ea3 8d22 c6b7 207a 37a1
00000330: 60f5 2e3b e6b5 263c 3ea7 6539 8b83 65bd
00000340: 5924 0080 c71c 0080 834a 1323 9a2b 59ba
00000350: 1626 feb8 366b 961f dbac 6d3a 5411 f002
00000360: 0763 2114 8b84 360c 108d 46ad 828f 3834
00000370: d349 b53a df4e d0bc 27fa 93ba 2c5f b338
00000380: 2e41 0bb7 b970 23ba 8c00 62af ca09 0080
00000390: 60d5 3d3a eaab b63b 1e7e 09ba 424c 16b8
000003a0: 321b 0dba 55c7 37a3 b237 ad3a 53af 833b
000003b0: 4893 97b9 ce98 42bd 4562 9d37 e6db 86b9
000003c0: 991e deb9 02e2 5fbd 33fc bd09 ec12 9d3b
000003d0: f372 62bb d081 0883 be61 03bb e265 313c
000003e0: 2038 533b ba6d 983a 2d87 0639 bbdb 823a
000003f0: 0758 9839 4bb4 b714 ef2e acba efc4 f13d
-0.00081868714 0.005338394 -0.0018483426 2.5362694e-06 0.019168664 0.00054664625 3.100992e-08 0.002157028
-1.29052e-05 0.22384277 2.636726e-07 -0.0019128445 0.0002333811 -0.20498891 -0.0821863 -0.00028478802
0.011115228 7.330558e-05 0.0022842686 -0.004538317 0.04192821 -0.00040423186 0.0011695529 5.6535886e-05
-9.083e-42 0.014334161 -0.002642104 -0.026247032 0.0025456233 0.01739207 6.169e-42 -6.694835e-36
-0.0022982252 -0.04691586 0.0018114093 1.759555e-05 0.1523655 0.0016758686 9.0197e-41 0.0011561494
0.0053899838 0.21729916 -0.0043585985 -0.00010309132 -0.021583192 1.8851439e-07 0.016406994 -4.0671446e-05
0.080130644 1.7207285e-06 -8.423667e-34 2.9298276e-06 0.000380425 6.2258e-41 -0.101672135 0.0036779712
-0.030396812 0.00026993567 3.719393e-07 0.005177587 0.06341963 -0.00086028414 6.857545e-10 0.080407344
-0.0018194364 -0.09174746 0.0022832637 2.583e-42 0.00030186778 0.12832351 0.0013898278 -0.0138665885
-0.0063435375 3.0473735e-05 2.8131957e-05 8.105187e-08 0.17589122 -0.009380687 -0.004998643 0.12377355
7.312e-42 5.6884503e-25 -9.810975e-18 0.0014381922 0.001891468 2.1589461e-09 0.004161966 4.9576276e-12
-3.597904e-26 1.781709e-08 -7.4933955e-06 1.6130862e-05 0.011546659 -0.11810716 -0.010454324 0.000117712974
2.8292852e-05 0.0025765086 -1.3048265e-05 3.302417e-35 0.0029456716 -0.010026335 0.0012374737 -0.00011373198
0.0021956353 -2.2669128e-05 -0.010205249 -0.016628847 -0.00011186756 0.13021696 0.00035068858 0.0030460919
0.0054307175 -0.008897745 -2.2671332e-31 -0.008623018 0.017543131 2.5874718e-34 0.07663634 -0.014702551
0.0045273956 0.0009972485 0.003564771 -0.0035052828 0.0014585293 2.9426583e-06 -0.0069509894 -0.12217813
0.00023657158 -0.00065741193 -0.001068633 1.364374e-19 0.026384149 3.745749e-05 -2.054582e-17 0.002571374
6.35001e-10 -0.21736774 7.6584355e-14 -0.00037445957 8.2349856e-05 0.15709606 0.02699275 -3.6121473e-05
0.003864342 5.052574e-09 6.3436855e-05 -0.00042005288 0.010246483 -9.063227e-05 0.00030468393 1.2898114e-13
1.0231e-41 0.004645712 0.0029135686 0.02102032 0.00017618862 0.0017842806 2.54e-43 1.4550451e-37
0.0050714784 0.010032287 0.0035144628 -8.489534e-06 -0.018242883 0.0026684094 -3.6525e-41 0.00022321774
0.00021840996 0.021412935 0.0044504297 0.001498588 0.011833581 -4.524309e-30 -0.0032143025 -1.7640906e-07
-0.00940244 1.6252298e-22 -2.883242e-39 1.1932064e-09 -3.8968952e-05 -3.034e-41 0.096862026 -0.00012937239
0.007314393 -0.00010102888 -2.6751153e-15 0.0008112055 0.015042705 8.463384e-05 5.1408226e-19 -0.00035541368
-0.00179345 -0.02106866 0.0020278676 2.336e-42 -6.465741e-05 -0.030541169 0.00011951212 0.007880277
0.004873779 -1.1189164e-17 -2.3619528e-05 -6.2164443e-19 0.0026696548 0.010175204 0.00021901444 -0.056033652
-1.3039e-41 -1.0323e-41 7.9846644e-18 -0.000828439 -0.00012118758 6.3704837e-20 0.000906659 3.5274776e-37
8.1479525e-27 1.4060656e-31 -1.1286319e-11 1.7188543e-07 0.0013831205 -0.025428234 -0.0011289761 8.553112e-05
-8.300221e-06 -0.00062347535 -2.0554775e-10 -3.512e-42 0.0007241573 0.005574693 -0.0005244928 -3.5833807e-05
-0.00053827756 -9.96266e-18 0.0013215451 0.004018703 -0.00028910697 -0.047509007 1.8761619e-05 -0.0002572231
-0.00042365937 -0.054658897 4.5737262e-33 0.0047935154 -0.0034553378 -4.0115825e-37 -0.0020047273 0.010827513
0.0032229498 0.0011629381 0.00012829593 0.0009983698 0.00029057285 1.8549391e-26 -0.0013136546 0.1180514

linear2.bias f4 [64]
00000000: dcff b23d 3598 db3c db1c 0080 f813 0080
00000010: de24 0080 f10d 0080 640d 0080 dc1e 0080
00000020: d121 0080 b424 0080 5525 0080 1f9c ef3d
00000030: cc20 0080 6c14 0080 bd24 0080 1dd0 db3c
00000040: eca9 e43c b84c d23d 73bc ca3d 8845 fa3d
00000050: 82d4 953b 2d1a 0080 772a 0fa5 dc1f 0080
00000060: a512 0080 e119 0080 1713 0080 1b21 0080
00000070: be5b 68bc 5aa8 be3d b21b 0080 f50c 0080
00000080: 11f7 223e 0222 0080 9213 0080 6c0c 0080
00000090: 541a 0080 9d24 0080 8122 0080 0925 0080
000000a0: 7beb 303e a822 0080 9413 463e 501d 0080
000000b0: d324 0080 f42d e23b e120 0080 1b13 0080
000000c0: 37e8 83be ea9e 2d88 2d1b 0080 3208 e83d
000000d0: 8faf e83d 3c12 0080 8a16 0080 ec0f 0080
000000e0: 911c 0080 cd0e 0080 ae1a 0080 6412 0080
000000f0: f51e 0080 9858 23b2 2e65 403e 57c7 90be
0.087402076 0.026805976 -1.0351e-41 -7.163e-42 -1.3225e-41 -5.001e-42 -4.804e-42 -1.107e-41
-1.2131e-41 -1.3167e-41 -1.3392e-41 0.116996996 -1.1765e-41 -7.326e-42 -1.3179e-41 0.026832635
0.027913056 0.10268539 0.09899225 0.12220293 0.004572452 -9.39e-42 -1.241766e-16 -1.1429e-41
-6.688e-42 -9.284e-42 -6.848e-42 -1.1876e-41 -0.014182029 0.09309454 -9.935e-42 -4.648e-42
0.15914561 -1.22e-41 -7.02e-42 -4.456e-42 -9.445e-42 -1.3134e-41 -1.2378e-41 -1.3286e-41
0.17277329 -1.2432e-41 0.19343406 -1.0515e-41 -1.321e-41 0.0069024507 -1.1795e-41 -6.854e-42
-0.25763103 -5.2247096e-34 -9.749e-42 0.11329688 0.1136161 -6.541e-42 -8.085e-42 -5.712e-42
-1.0248e-41 -5.31e-42 -9.571e-42 -6.597e-42 -1.1105e-41 -9.507993e-09 0.18788597 -0.28277084

linear3.weight f4 [32, 64]
00000000: e418 0000 ec0a 0080 0814 0080 7f1f 0080
00000010: 130d 0080 1e25 0080 df00 0080 4402 0000
00000020: 2917 0000 0b17 0080 7801 0000 cb24 0080
00000030: 310d 0080 2423 0080 b312 0080 2d1c 0000
00000040: 3d17 0080 351e 0080 830d 0080 3c1f 0000
00000050: 2811 0000 7e26 0000 3626 0080 1d1c 0080
00000060: ec21 0000 6e13 0080 6426 0000 a525 0080
00000070: 8225 0080 9f09 0080 201d 0080 f220 0080
00000080: da0a 0080 081e 0000 7008 0080 5508 0080
00000090: 2913 0080 8a22 0080 fe21 0080 411d 0000
000000a0: d81f 0080 d303 0080 ac17 0080 101f 0080
000000b0: 8215 0080 0e00 0000 5d14 0000 b311 0080
000000c0: f825 0080 951b 0080 e30c 0000 f121 0080
000000d0: ba1f 0080 0c23 0080 f30b 0000 c71e 0080
000000e0: ba1d 0080 a01b 0080 8725 0080 e201 0080
000000f0: 1823 0000 6a1c 0080 a319 0080 2e1a 0080
00000100: d0a1 0d3e 4721 37bd 1a12 0000 3021 0080
00000110: 9b18 0000 d41c 0080 f61e 0000 371f 0080
00000120: 260e 0000 ab14 0080 c71e 0080 b881 4a3b
00000130: ac1b 0080 051e 0080 a805 0080 c446 493c
00000140: 7a16 9c3d 9099 203d edae 313e 5de7 5ebe
00000150: f992 863b 7916 0000 578f 2528 6e11 0000
00000160: 3911 0080 4f1c 0080 7c20 0000 3926 0080
00000170: f85c c53d 62b7 0d3e dc1c 0080 a40e 0000
00000180: 644f 263e da1a 0080 b916 0080 321a 0000
00000190: 4626 0080 5222 0000 830b 0000 dd0e 0080
000001a0: f88c 843e 3d0a 0080 467e a83d e304 0080
000001b0: d724 0080 58a7 853b c30f 0000 8620 0000
000001c0: 2496 dabe 3714 0080 911a 0000 99b7 2f3e
000001d0: d7ea 41be ea12 0080 a719 0080 2712 0080
000001e0: 061b 0000 8c26 0080 4c13 0000 ab1e 0000
000001f0: fc12 0000 5324 0000 1888 8c3e e9ea dabe
00000200: 948b 61bb 889e 6a3d 1e24 0080 7b1e 0080
00000210: a113 0080 c216 0000 5219 0080 3325 0000
00000220: 7b25 0080 9c21 0080 920f 0000 2c6d 963e
00000230: 1021 0000 8a25 0080 7524 0080 9782 0c3b
00000240: 97e2 0f3e 3775 993e 5a34 22bd 6cf6 873e
00000250: 0a6c a43a 460c 0080 df68 e41d 370a 0000
00000260: 8611 0000 6f24 0080 751f 0080 e417 0080
00000270: 4df9 173e d1c2 3ebe c425 0000 0412 0080
00000280: e12a 76be f619 0080 571e 0080 0e08 0080
00000290: 651a 0000 7e1a 0080 3e20 0000 7916 0080
000002a0: 07b1 ef3b c826 0000 1040 6a3e 581e 0000
000002b0: a102 0080 085f 9e3b 3003 0000 b218 0000
000002c0: ac48 a8be 8025 0000 8016 0000 7be7 e6bc
000002d0: ffc7 6f3e 5c11 0080 b90f 0000 4a15 0000
000002e0: bd05 0080 261b 0080 9b17 0000 460c 0000
000002f0: 1712 0000 1918 4d15 d6dc 0fbd 9821 a7be
00000300: f3e5 6e3d aec6 89bc c61a 0080 8c20 0000
00000310: bb0c 0080 1510 0080 920d 0000 c811 0080
00000320: 8c1c 0000 3107 0000 731c 0080 f9a2 35bc
00000330: 7011 0000 4b1a 0000 7a18 0080 f64a 9f3b
00000340: a957 8abc ea4a 23bc d6aa 943d 95ea 89bd
00000350: 1006 e63a 0f1d 0000 a821 0000 7b0b 0000
00000360: 4c0c 0080 790a 0080 b80b 0000 5800 0080
00000370: 76e7 2abd 02ce d63d 1724 0000 a512 0080
00000380: d93d 043e b41c 0080 cd18 0080 d21c 0080
00000390: 0314 0000 851b 0000 9b21 0080 9e13 0080
000003a0: ca7c c13d 3723 0080 46f8 c13c 640a 0000
000003b0: 5c17 0080 3212 193b 1b0a 0080 9325 0000
000003c0: d807 3cbd f014 0080 c616 0080 e9bb 8d3d
000003d0: 70f3 6fbd a41a 0000 2620 0000 ee20 0080
000003e0: 1222 0080 900d 0000 2a1b 0000 db16 0080
000003f0: ef13 0080 dc36 8b05 f157 da3d 96c9 3abd
8.929e-42 -3.918e-42 -7.186e-42 -1.1299e-41 -4.69e-42 -1.3315e-41 -3.12e-43 8.13e-43
8.308e-42 -8.266e-42 5.27e-43 -1.3199e-41 -4.732e-42 -1.2606e-41 -6.708e-42 1.0108e-41
-8.336e-42 -1.0836e-41 -4.847e-42 1.1205e-41 6.155e-42 1.3808e-41 -1.3708e-41 -1.0085e-41
1.2169e-41 -6.97e-42 1.3772e-41 -1.3504e-41 -1.3455e-41 -3.451e-42 -1.0448e-41 -1.1819e-41
-3.893e-42 1.0773e-41 -3.027e-42 -2.989e-42 -6.873e-42 -1.239e-41 -1.2194e-41 1.0494e-41
-1.1423e-41 -1.372e-42 -8.492e-42 -1.1143e-41 -7.716e-42 2e-44 7.305e-42 -6.349e-42
-1.362e-41 -9.895e-42 4.623e-42 -1.2176e-41 -1.1381e-41 -1.2572e-41 4.287e-42 -1.1041e-41
-1.0664e-41 -9.91e-42 -1.3462e-41 -6.75e-43 1.2589e-41 -1.0193e-41 -9.197e-42 -9.392e-42
0.13831258 -0.04470947 6.494e-42 -1.1905e-41 8.827e-42 -1.0342e-41 1.1107e-41 -1.1198e-41
5.076e-42 -7.414e-42 -1.1041e-41 0.0030900072 -9.927e-42 -1.0769e-41 -2.029e-42 0.012284938
0.076214746 0.03920895 0.17351885 -0.21767946 0.004106876 8.062e-42 9.190422e-15 6.253e-42
-6.178e-42 -1.0155e-41 1.1653e-41 -1.3712e-41 0.09636873 0.13839486 -1.0353e-41 5.252e-42
0.16241223 -9.633e-42 -8.151e-42 9.397e-42 -1.373e-41 1.2312e-41 4.13e-42 -5.332e-42
0.258888 -3.673e-42 0.0822721 -1.753e-42 -1.3216e-41 0.004078787 5.654e-42 1.1667e-41
-0.42692673 -7.252e-42 9.53e-42 0.1715988 -0.1893724 -6.785e-42 -9.202e-42 -6.512e-42
9.694e-42 -1.3828e-41 6.922e-42 1.1002e-41 6.81e-42 1.303e-41 0.2744758 -0.42757347
-0.003441547 0.057280093 -1.2956e-41 -1.0934e-41 -7.042e-42 8.164e-42 -9.083e-42 1.3345e-41
-1.3445e-41 -1.2057e-41 5.586e-42 0.29380167 1.186e-41 -1.3466e-41 -1.3078e-41 0.0021440142
0.14051281 0.2997224 -0.039600708 0.26555192 0.0012544405 -4.403e-42 6.045953e-21 3.664e-42
6.286e-42 -1.307e-41 -1.1285e-41 -8.57e-42 0.14841194 -0.18629004 1.3548e-41 -6.463e-42
-0.24039795 -9.313e-42 -1.0884e-41 -2.89e-42 9.469e-42 -9.504e-42 1.1566e-41 -8.062e-42
0.0073148045 1.3912e-41 0.22876 1.0885e-41 -9.43e-43 0.004833106 1.143e-42 8.859e-42
-0.32867944 1.3452e-41 8.071e-42 -0.02818655 0.23416136 -6.227e-42 5.64e-42 7.637e-42
-2.059e-42 -9.739e-42 8.468e-42 4.403e-42 6.49e-42 4.141843e-26 -0.035122715 -0.32642817
0.058324765 -0.01681837 -9.604e-42 1.1676e-41 -4.567e-42 -5.769e-42 4.868e-42 -6.379e-42
1.024e-41 2.58e-42 -1.0206e-41 -0.011086219 6.255e-42 9.432e-42 -8.78e-42 0.004861231
-0.016887503 -0.009966591 0.07259147 -0.06734196 0.0017549414 1.0424e-41 1.2074e-41 4.118e-42
-4.411e-42 -3.757e-42 4.204e-42 -1.23e-43 -0.041724645 0.104885116 1.2947e-41 -6.688e-42
0.12914218 -1.0297e-41 -8.897e-42 -1.0339e-41 7.179e-42 9.872e-42 -1.2055e-41 -7.037e-42
0.0944763 -1.2633e-41 0.023677956 3.727e-42 -8.38e-42 0.0023356793 -3.625e-42 1.3479e-41
-0.045905918 -7.511e-42 -8.17e-42 0.06920607 -0.05858177 9.557e-42 1.1533e-41 -1.1813e-41
-1.2222e-41 4.865e-42 9.745e-42 -8.199e-42 -7.151e-42 1.309165e-35 0.10661305 -0.045602404

linear3.bias f4 [32]
00000000: c911 0080 6ead 243e 0fa0 5b3e 8a94 413d
00000010: 734f ac3d d70d 0080 c514 0080 0412 0080
00000020: 49c9 503c 7fe7 c3be 93df 363d f795 aa3e
00000030: 7a8d 073d 1e25 0080 4dbe 533e 4beb 723d
00000040: 7007 0080 722e e63d e9f3 913d c216 0080
00000050: 0c26 0080 cb4e 9b3d 2222 133d 2e82 983d
00000060: 73af 263d 661c 0080 22b0 293e 389f 863d
00000070: 5335 9c3b a924 0080 251b 0080 740b 0080
-6.38e-42 0.16081783 0.21447776 0.0472608 0.08413591 -4.965e-42 -7.451e-42 -6.463e-42
0.012743303 -0.38262555 0.04464681 0.3331754 0.033093907 -1.3315e-41 0.20678063 0.059306424
-2.668e-42 0.112393275 0.071266 -8.164e-42 -1.3649e-41 0.07583388 0.035921223 0.07446705
0.040694665 -1.0187e-41 0.16571096 0.06573337 0.004767099 -1.3151e-41 -9.738e-42 -4.109e-42

linear4.weight f4 [16, 32]
00000000: 6b26 0000 7025 233d ee97 29bd b6df fd3c
00000010: cfca 333d fa0f 0080 0e0c 0080 7a11 0080
00000020: b165 183c bb94 26be 39df a93b 223f da3d
00000030: f51f ac3c 6f10 0080 ee6f 35bc ef0e 653c
00000040: 7f01 0080 be77 bfbc 9a6a 3b3d 1608 0000
00000050: 2d0e 0080 2d68 013d 433a b13c 0129 3b3d
00000060: 2154 d13d ee16 0080 0472 aa3a 8753 2f3d
00000070: 3004 6bba d726 0080 7214 0000 901b 0080
00000080: 3d1b 0080 9710 0080 b01d 0080 7812 0080
00000090: 3926 0080 e31b 0080 4d14 0080 6310 0080
000000a0: 250d 0080 480d 0080 9d24 0080 bb10 0080
000000b0: b01f 0080 c922 0000 2d13 0080 151b 0080
000000c0: 4911 0080 8f1e 0080 540c 0080 e20e 0080
000000d0: 7a1b 0080 2913 0000 9f1b 0000 de17 0080
000000e0: 6916 0080 b515 0080 5824 0080 8d10 0000
000000f0: 7017 0080 0d11 0080 5121 0080 720b 0080
00000100: 9e25 0080 b677 933e 60d9 25be 0049 503e
00000110: 5a4f 973e 581c 0080 8e24 0000 ca22 0080
00000120: 98db 823d 20f2 8bbf fd82 133d 20d6 1d3f
00000130: 2b36 143e 1022 0000 b262 b8bc 9c2f 003e
00000140: ed1c 0080 56bf acbd e037 963e bb10 0080
00000150: be24 0080 8407 383e 6e4a 133e 4779 963e
00000160: de2b 0f3f e116 0080 f4ae 603c 864b 8f3e
00000170: 72c5 23ba 4111 0080 0011 031d 5b26 0080
00000180: 0e0d 0080 b364 5bbe 80e1 64be 7547 07bd
00000190: bc09 8fbd 5511 0080 761c 0000 290e 0000
000001a0: f7e6 92bc 9d7b ee3e b629 01be 0ea7 ecbe
000001b0: 0cb1 9dbc 5622 0000 725d cdbd 4d2d 82bd
000001c0: 9e00 0000 d087 4abe fea0 39bd a912 0000
000001d0: 6712 0000 f25f 49be b15d 93bc a1cf 32bd
000001e0: 3b0b 0000 211d 0080 64d6 16bc 1e80 3fbd
000001f0: ec3c 223c fa0b 0000 0513 0080 cd1f 0080
00000200: 850e 0080 f80f 0080 1021 0080 1900 0080
00000210: 440c 0080 e41e 0080 6721 0080 1d19 0080
00000220: 4421 0080 e818 0080 a922 0080 c70a 0080
00000230: 780f 0080 570d 0080 9b23 0080 6614 0080
00000240: b721 0080 ce19 0080 0a06 0000 c316 0080
00000250: 6821 0080 dc16 0080 8f01 0000 e811 0080
00000260: 3c15 0080 2e1b 0080 c923 0080 691b 0000
00000270: d51c 0080 2116 0080 f61b 0080 fa13 0080
00000280: e520 0080 700f 0080 4e1f 0080 1812 0080
00000290: a219 0080 891f 0080 981b 0080 b026 0080
000002a0: 610e 0080 f515 0080 b812 0080 5616 0080
000002b0: 2f0a 0080 1915 0080 be21 0080 d71a 0080
000002c0: c112 0080 8a1c 0080 fd23 0080 2e21 0080
000002d0: 8814 0080 ec14 0080 8018 0000 8324 0080
000002e0: d924 0000 7225 0080 2023 0080 a323 0000
000002f0: 6e14 0080 d20a 0080 7a1b 0080 6a22 0080
00000300: 1c20 0080 b8fc 29be fc74 343d 788e 54bd
00000310: 9ea6 92bc 1f11 0000 061a 0000 e11d 0000
00000320: 1d4e 07bd c070 b23e 01a7 dbbd 5710 c7be
00000330: 045a 05bd bf24 0080 2518 f43e c81e 823d
00000340: 5121 0000 0210 3cbd 3e16 60bd d125 0080
00000350: b021 0080 b0ca bdbe 327e bdbc 0f79 40bd
00000360: 3d09 f03c 2902 0080 27b2 6f3f a869 74bd
00000370: b9bb a43c 0719 0000 c620 0000 7d00 0080
00000380: ff0c 0080 bf20 60be 9f3c 70be 676e 01bd
00000390: e098 87bd 0821 0080 b10a 0000 0314 0000
000003a0: ab71 8cbc 6e01 e63e 2d03 f7bd 7289 e1be
000003b0: 4d46 98bc 7c16 0000 073b c5bd fea8 77bd
000003c0: e009 0080 f918 32be dc17 31bd 1921 0000
000003d0: db1d 0000 fbb4 47be e9bb 8ebc 868d 2abd
000003e0: 7d18 0000 a01e 0080 e447 10bc 43aa 36bd
000003f0: 241f 153c 6e20 0000 d913 0080 f11b 0080
1.3782e-41 0.039830625 -0.041404657 0.030990463 0.043894585 -5.731e-42 -4.324e-42 -6.27e-42
0.009301589 -0.16267674 0.005184081 0.10656573 0.021011332 -5.895e-42 -0.011074049 0.013980611
-5.37e-43 -0.023372527 0.04575596 2.9e-42 -5.085e-42 0.03159349 0.021634227 0.0456934
0.102211244 -8.226e-42 0.001300395 0.042804267 -0.00089651626 -1.3933e-41 7.334e-42 -9.888e-42
-9.771e-42 -5.951e-42 -1.065e-41 -6.625e-42 -1.3712e-41 -1.0004e-41 -7.283e-42 -5.878e-42
-4.715e-42 -4.764e-42 -1.3134e-41 -6.002e-42 -1.1367e-41 1.2479e-41 -6.879e-42 -9.715e-42
-6.201e-42 -1.0962e-41 -4.422e-42 -5.339e-42 -9.857e-42 6.873e-42 9.909e-42 -8.562e-42
-8.039e-42 -7.787e-42 -1.3038e-41 5.937e-42 -8.408e-42 -6.117e-42 -1.1952e-41 -4.106e-42
-1.3495e-41 0.2880227 -0.16196203 0.20340347 0.29552728 -1.0168e-41 1.3113e-41 -1.248e-41
0.063895404 -1.0933266 0.036013592 0.61654854 0.14473788 1.222e-41 -0.022508 0.12518162
-1.0377e-41 -0.08434932 0.29339504 -6.002e-42 -1.318e-41 0.17971617 0.14383861 0.29389402
0.5592631 -8.207e-42 0.013713587 0.27987307 -0.0006247378 -6.19e-42 1.7346494e-21 -1.376e-41
-4.683e-42 -0.21425132 -0.22351646 -0.03302713 -0.069842786 -6.218e-42 1.021e-41 5.08e-42
-0.017932398 0.46578684 -0.12613568 -0.46221203 -0.019249462 1.2317e-41 -0.10027589 -0.06356297
2.21e-43 -0.19778371 -0.04531955 6.694e-42 6.602e-42 -0.19665506 -0.017989011 -0.04365504
4.029e-42 -1.045e-41 -0.009206388 -0.04675304 0.00990222 4.296e-42 -6.823e-42 -1.1408e-41
-5.209e-42 -5.729e-42 -1.186e-41 -3.5e-44 -4.4e-42 -1.1081e-41 -1.1983e-41 -9.009e-42
-1.1933e-41 -8.935e-42 -1.2434e-41 -3.866e-42 -5.549e-42 -4.785e-42 -1.2773e-41 -7.318e-42
-1.2095e-41 -9.257e-42 2.166e-42 -8.165e-42 -1.1984e-41 -8.2e-42 5.59e-43 -6.424e-42
-7.617e-42 -9.75e-42 -1.2837e-41 9.833e-42 -1.0343e-41 -7.938e-42 -1.003e-41 -7.166e-42
-1.18e-41 -5.538e-42 -1.123e-41 -6.491e-42 -9.195e-42 -1.1313e-41 -9.899e-42 -1.3878e-41
-5.158e-42 -7.877e-42 -6.715e-42 -8.013e-42 -3.653e-42 -7.568e-42 -1.2104e-41 -9.628e-42
-6.728e-42 -1.0238e-41 -1.291e-41 -1.1903e-41 -7.365e-42 -7.505e-42 8.789e-42 -1.3098e-41
1.3218e-41 -1.3433e-41 -1.26e-41 1.2784e-41 -7.329e-42 -3.882e-42 -9.857e-42 -1.2345e-41
-1.1519e-41 -0.16600311 0.044056877 -0.05189368 -0.017901715 6.142e-42 9.335e-42 1.0719e-41
-0.03303348 0.34851646 -0.10725213 -0.38879654 -0.03255655 -1.3182e-41 0.4767467 0.06353527
1.1952e-41 -0.045913704 -0.05470871 -1.3566e-41 -1.2085e-41 -0.370687 -0.023131464 -0.04699045
0.02930128 -7.75e-43 0.93631214 -0.059671074 0.020109044 8.978e-42 1.1757e-41 -1.75e-43
-4.662e-42 -0.21887492 -0.23460625 -0.03159943 -0.066209555 -1.185e-41 3.835e-42 7.179e-42
-0.017144045 0.44922966 -0.120611526 -0.44050175 -0.01858821 8.066e-42 -0.09630399 -0.060463898
-3.542e-42 -0.17392339 -0.043235645 1.1873e-41 1.071e-41 -0.19502632 -0.017423587 -0.041638874
8.785e-42 -1.0986e-41 -0.008806203 -0.044595968 0.009101663 1.1634e-41 -7.12e-42 -1.0023e-41

linear4.bias f4 [16]
00000000: 7334 bb3c a814 0080 70ce b43d 43b6 a6bd
00000010: e415 0080 611f 0080 355a 283c de63 19bd
00000020: ab17 0080 6225 793e 1708 0080 a215 0080
00000030: cb1d 3a3e f683 133e 0504 bcbd 8640 843c
0.022852158 -7.41e-42 0.08828437 -0.081402324 -7.853e-42 -1.1257e-41 0.010275413 -0.037448756
-8.49e-42 0.24330667 -2.902e-42 -7.76e-42 0.18175428 0.14405808 -0.09180454 0.016144048

linear5.weight f4 [4, 16]
00000000: 3cb2 413e a514 0000 1732 873f df06 95b4
00000010: 770d 0000 0111 0080 62a2 88be 0df0 adb4
00000020: 120d 0000 180f 9cbe d908 0000 6807 0080
00000030: 29c1 693f 8911 68be 1a7e 92bf 90dd a5bd
00000040: 7dad e0bc 3f10 0000 4b14 27be efe7 08bc
00000050: ea21 0080 8810 0000 792f 543f bb28 06bc
00000060: ad19 0080 9212 693f e90c 0080 e610 0000
00000070: a664 00bf 3f92 813f 8850 6cbe 7c1a 243d
00000080: 8374 dbb9 2722 0080 2858 22bb d2b5 223f
00000090: 501b 0080 871d 0000 9ced 863e b6cc 1d3f
000000a0: df0f 0000 8e65 17bf 7e1e 0000 7e14 0080
000000b0: 79f7 76bf 2d62 0ebe 6c31 4e3f 6ff1 5bbe
000000c0: 9fd5 29be 7818 0000 afc5 86bf 3772 fdbe
000000d0: 3314 0000 e21c 0080 699b 56bf c2fc e4be
000000e0: 8d13 0000 3f09 273e 8723 0000 6410 0080
000000f0: 7211 213f 7881 19bf e00c 493f 1aad 1e3e
0.18915647 7.406e-42 1.0562161 -2.7758412e-07 4.83e-42 -6.1e-42 -0.26686388 -3.239842e-07
4.689e-42 -0.30480266 3.174e-42 -2.657e-42 0.91310364 -0.22662939 -1.1444733 -0.080989
-0.027426476 5.828e-42 -0.16316335 -0.0083560785 -1.2166e-41 5.93e-42 0.8288494 -0.008188422
-9.211e-42 0.9104396 -4.631e-42 6.062e-42 -0.5015358 1.0122756 -0.23077595 0.04006432
-0.00041857743 -1.2252e-41 -0.0024771784 0.63558686 -9.798e-42 1.0592e-41 0.26353157 0.6164049
5.693e-42 -0.59139335 1.0939e-41 -7.351e-42 -0.96471363 -0.13904639 0.8054416 -0.21478818
-0.16585396 8.778e-42 -1.0529078 -0.49501202 7.246e-42 -1.0361e-41 -0.8383089 -0.4472409
7.013e-42 0.16312121 1.2745e-41 -5.88e-42 0.62917244 -0.5996318 0.7853527 0.1549572

linear5.bias f4 [4]
00000000: 7772 52bb f276 d73d e228 46be 0396 9a3e
-0.0032111683 0.10520734 -0.19351533 0.30192575
