checkpoints/dnnAE_9.pt (torch, 230343 bytes, 10 tensors)

linear1.weight f4 [128, 358]
000000 e7 55 34 22 45 81 e2 16 70 b5 b8 21 9b ff b8 26
       2.4440025e-18 3.659385e-25 1.2516351e-18 1.2836847e-15
000010 81 c0 6d a9 7b 63 ba aa b0 45 f7 32 3f ca 52 b6
       -5.2791542e-14 -3.3109266e-13 2.8786275e-08 -3.1410161e-06
000020 ad c7 89 31 52 cc 51 a8 55 1b b8 29 75 06 30 af
       4.0099253e-09 -1.16461355e-14 8.175983e-14 -1.6009401e-10
000030 8e d1 1c 2a a9 17 0e 92 79 ae 90 ac 26 e6 93 31
       1.3928287e-13 -4.4836463e-28 -4.1120965e-12 4.304428e-09
000040 89 91 b9 ab 81 2f 9d 28 ca 45 bb 2f 59 64 81 34
       -1.3185435e-12 1.7451103e-14 3.406469e-10 2.4101135e-07
000050 db 5e 4d 31 16 a5 ca 2b 96 46 ee 26 9d d4 f8 1d
       2.9885345e-09 1.4398784e-12 1.65337e-15 6.586489e-21
000060 80 41 92 30 3f b9 1c 2e f8 a4 af 2a 58 e8 54 9e
       1.0641514e-09 3.5634825e-11 3.1200715e-13 -1.1271234e-20
000070 1e 89 d8 aa a1 d0 19 b6 c4 43 94 ac 6a 37 af 33
       -3.8464452e-13 -2.2920215e-06 -4.2139365e-12 8.159152e-08
000080 fd 32 87 2d f0 8d 69 ad 54 0f df a5 24 17 1c b7
       1.5370366e-11 -1.3276033e-11 -3.869472e-16 -9.303712e-06
000090 65 c5 0c 3a 63 a3 8f b3 29 79 64 2f 18 e0 f3 30
       0.000536999 -6.688676e-08 2.0779524e-10 1.7744268e-09
0000a0 c9 d0 ca b1 c9 90 73 2a 79 fe ce 94 ef 8c 3c 31
       -5.90271e-09 2.1632968e-13 -2.0901056e-26 2.7437712e-09
0000b0 85 3a a2 30 bf ef c3 92 9b d5 5b 95 a7 1a f5 34
       1.1803684e-09 -1.2365332e-27 -4.4395203e-26 4.5654198e-07
0000c0 7b f2 46 17 8b 28 05 a6 fa aa 6e 33 8b 1c 20 ac
       6.4283304e-25 -4.619859e-16 5.5569195e-08 -2.2753212e-12
0000d0 f7 29 8d 2a 0a 87 e4 b9 ba c1 87 32 ed c7 3a 32
       2.507575e-13 -0.0004358816 1.5804165e-08 1.0872083e-08
0000e0 5d 4b c5 27 0f a7 c3 aa 9d 79 3b 27 a1 49 5c 2e
       5.4760193e-15 -3.4754879e-13 2.601739e-15 5.0087604e-11
0000f0 4e 08 29 b3 48 b1 e6 a7 43 05 59 22 68 10 00 80
       -3.9355932e-08 -6.4030033e-15 2.941177e-18 -5.885e-42
000100 06 f7 9a 31 f1 f6 32 23 ea f8 51 23 ef c9 22 aa
       4.510073e-09 9.701691e-18 1.1382622e-17 -1.445855e-13
000110 e5 66 71 31 d3 9b c5 31 8e 20 29 b4 65 59 29 21
       3.5128604e-09 5.7511698e-09 -1.5751195e-07 5.737774e-19
000120 57 1b 7f 9c 9a 07 82 31 df 5f 26 9e 86 1e f4 9c
       -8.440776e-22 3.784362e-09 -8.8077925e-21 -1.6154456e-21
000130 d2 0e 00 80 0c 11 f1 a4 65 22 15 9d ef 09 e8 a5
       -5.317e-42 -1.0454597e-16 -1.9737767e-21 -4.0252316e-16
000140 a8 6c 97 b2 91 58 cc ae a8 fb 34 1e 43 19 75 1c
       -1.7628125e-08 -9.2925785e-11 9.581162e-21 8.109635e-22
000150 cd 1a ab 94 50 1a a1 15 c3 8c 45 19 1b 96 82 1c
       -1.7277159e-26 6.5068896e-26 1.0213088e-23 8.64148e-22
000160 ba 77 f5 96 8e 2b 1f ac cf 4e d1 82 1e fb 4d 9b
       -3.9657443e-25 -2.2619437e-12 -3.0755024e-37 -1.7038343e-22
000170 e8 7e f2 ac a8 6e f4 32 67 fa 62 2c 3a 75 9a 3a
       -6.892143e-12 2.845566e-08 3.2255533e-12 0.0011784204
000180 7e d5 72 b4 67 dd c9 31 7f 0a cb 31 a3 10 0f 8e
       -2.2615674e-07 5.8750405e-09 5.909271e-09 -1.7634121e-30
000190 8c 25 23 27 ae 5d 2c 38 3c d1 08 26 07 3f 35 3a
       2.2641148e-15 4.109524e-05 4.7468044e-16 0.0006913994
0001a0 8f d1 c4 b4 08 6a 32 b4 0b 08 9e 3a 4e 8c 98 39
       -3.666032e-07 -1.6616116e-07 0.001205684 0.00029096234
0001b0 86 09 2a b8 03 fe 08 39 29 d0 bb b7 87 ef 75 36
       -4.0540028e-05 0.00013064597 -2.238907e-05 3.6647268e-06
0001c0 30 08 00 80 36 6c cd a9 39 55 5a af f6 5e 4a 37
       -2.937e-42 -9.1226004e-14 -1.9857262e-10 1.2062248e-05
0001d0 02 8d a6 25 03 d4 14 26 a9 fb 9e 37 cc 6d a2 2e
       2.889196e-16 5.1635144e-16 1.8952256e-05 7.386411e-11
0001e0 20 da ed 31 9d 79 8a 2c 72 60 c6 31 49 5f 0a 25
       6.9224058e-09 3.9356977e-12 5.773523e-09 1.2001876e-16
0001f0 63 7e 78 2c 81 66 95 37 c8 a8 6b 38 91 ff 79 34
       3.5313078e-12 1.7809916e-05 5.6185556e-05 2.3282907e-07
000200 6b 20 2f b5 df 85 4f b0 7b 20 ad b0 df d3 d0 2a
       -6.5239755e-07 -7.5496404e-10 -1.2596638e-09 3.7095237e-13
000210 e6 3d ec b1 2f 76 d5 ba d3 51 80 2e f4 2e 45 31
       -6.875541e-09 -0.0016285832 5.835301e-11 2.8693963e-09
000220 0b 97 53 34 e2 81 4e 88 04 bf 23 a1 96 3a 68 ab
       1.9705855e-07 -6.2143547e-34 -5.5479355e-19 -8.250426e-13
000230 ba 56 34 3a 55 4c 97 32 18 1b c2 ac 7f 3e e8 33
       0.00068793783 1.7613425e-08 -5.5168196e-12 1.081471e-07
000240 c5 6c 18 30 77 3c 24 b2 f8 46 30 aa c0 81 9d 29
       5.545185e-10 -9.5598045e-09 -1.5656562e-13 6.9947086e-14
000250 b3 26 ee 34 68 12 89 ae da 4e 6a 31 f6 06 45 35
       4.4359112e-07 -6.233308e-11 3.4096304e-09 7.339835e-07
000260 15 70 9f 30 e3 c3 4b 2d c6 86 40 35 eb 87 a0 af
       1.1600628e-09 1.158271e-11 7.1721695e-07 -2.9200406e-10
000270 5f 34 9b 2b 0a 80 1f 2e 20 4e ef af 6f 67 00 2b
       1.1027948e-12 3.6266136e-11 -4.3529358e-10 4.561828e-13
000280 f4 35 5a 31 2c 1c 4a b0 ee 7a b7 36 4e 8e 35 2d
       3.1753844e-09 -7.3527207e-10 5.468136e-06 1.0320257e-11
000290 b9 7d 32 9a e1 90 a3 28 51 c6 0a 31 a5 a9 ab 32
       -3.6911095e-23 1.8159467e-14 2.0194373e-09 1.9984165e-08
0002a0 a1 db 47 28 72 0d 00 80 ff a5 99 33 49 1c 00 80
       1.10943435e-14 -4.823e-42 7.154812e-08 -1.0147e-41
0002b0 af 7f ae ae 6a f3 63 2e b8 37 e7 b1 76 24 00 00
       -7.935285e-11 5.183002e-11 -6.7293193e-09 1.308e-41
0002c0 7b cf 32 0c 89 8f 15 2d 19 6f 0e ae aa 18 81 35
       1.3775058e-31 8.501541e-12 -3.2385736e-11 9.618427e-07
0002d0 ab 34 e4 34 5a f3 de 2f 6f 11 a2 29 d4 34 f4 b4
       4.250663e-07 4.0554476e-10 7.1972694e-14 -4.548698e-07
0002e0 4b 31 1a 30 b9 23 29 ae 06 0e c7 ba 87 6a 22 bb
       5.6094923e-10 -3.845788e-11 -0.0015186674 -0.0024782734
0002f0 94 b3 cf ba b6 e3 d4 37 05 80 53 b1 b7 1f 08 3b
       -0.0015846365 2.5378406e-05 -3.0777312e-09 0.0020770857
000300 5b f0 22 31 46 5b 12 bb 0f 43 bb 3a d0 91 c3 ba
       2.371073e-09 -0.0022332235 0.0014286953 -0.0014920775
000310 d5 45 9e ba 70 87 0b 3b a9 8a 28 3b db 06 00 00
       -0.0012075255 0.0021290444 0.0025717414 2.459e-42
000320 6f 4a 05 3b cb 00 00 80 f8 d0 d9 ba 4c c7 10 3b
       0.0020338555 -2.84e-43 -0.0016618064 0.0022091446
000330 2d 22 00 80 73 dc d3 3a d8 ff 29 bb 4c 08 00 00
       -1.226e-41 0.0016163721 -0.0025939848 2.976e-42
000340 02 b6 e3 ba b4 91 c9 3a 9e 86 ab ba 4b 45 12 bb
       -0.0017372968 0.0015378506 -0.0013086384 -0.0022319134
000350 e4 0c eb 3a e3 d0 25 bb 7c 7c 9d b9 ef 12 8d 3b
       0.0017932919 -0.0025301508 -0.00030038122 0.0043052356
000360 c5 42 22 3b c4 b0 83 3a f5 04 00 80 cc d2 d6 ba
       0.0024759036 0.0010047187 -1.778e-42 -0.0016389727
000370 58 94 01 bb f4 26 9d b7 7b 0a 00 80 9e c4 d0 ba
       -0.0019772258 -1.8733997e-05 -3.76e-42 -0.0015927737
000380 5a 62 94 ba 41 96 d8 3b 6a a9 05 3a 12 20 96 3a
       -0.0011320815 0.0066097085 0.0005098792 0.001145365
000390 2a 54 7a ba f4 38 82 b2 81 be 35 b8 0d f0 66 b3
       -0.00095492846 -1.5159891e-08 -4.3331183e-05 -5.3769373e-08
0003a0 06 59 74 ba b3 16 00 80 3e 05 00 80 f8 91 d3 3a
       -0.0009321127 -8.143e-42 -1.88e-42 0.0016141525
0003b0 2e 07 00 00 a6 0e 00 80 b3 84 c1 3a fd 9a 1d 3b
       2.576e-42 -5.255e-42 0.0014764279 0.002404868
0003c0 06 92 9f 24 b5 73 1b 26 e3 96 f3 23 a8 e6 d7 a1
       6.920263e-17 5.393324e-16 2.6410016e-17 -1.4630021e-18
0003d0 57 14 5d 24 dc e1 e0 a3 a8 b2 ff ae 4d 25 34 1e
       4.7938965e-17 -2.4381784e-17 -1.1627793e-10 9.536834e-21
0003e0 7d 4f 85 a9 0d 74 75 8c 89 29 92 30 e7 50 b4 2b
       -5.9201755e-14 -1.8909036e-31 1.0634703e-09 1.2812224e-12
0003f0 19 01 e7 80 65 87 35 2e 28 70 69 1b 95 65 9c a9
       -2.1214393e-38 4.127489e-11 1.9309548e-22 -6.9454133e-14

linear1.bias f4 [128]
000000 8d 4f 3b bd df 8e 59 3d c9 3a 7b 3d 4b 23 0c be
       -0.045730162 0.053114768 0.06133536 -0.13685338
000010 ed 3a 43 3e ca 7e 8d bd bd 9d 32 bd d7 06 78 3c
       0.19065447 -0.06908949 -0.043607462 0.0151383495
000020 ba 62 7b bd 6a df ee bd 85 70 29 3d c3 90 b0 bd
       -0.06137345 -0.116637066 0.041367073 -0.08621361
000030 8a 34 2f ba b3 6f 20 3e d7 08 53 bd b7 c2 24 bd
       -0.0006683549 0.1566761 -0.051522102 -0.040224757
000040 8d 06 91 3c 02 a1 45 bc 21 94 a3 bc 45 e5 01 3d
       0.017703319 -0.012062313 -0.019968094 0.03171279
000050 61 e6 4a bc 2c b1 61 bd 8c 52 bd 3d 4f 88 51 bc
       -0.012384028 -0.055100605 0.0924426 -0.012788846
000060 bd e9 98 bb 27 ad 0c 3e 23 87 cb bb bc fa 98 bd
       -0.0046665356 0.13737927 -0.006211178 -0.07469699
000070 6f 24 44 bd e4 92 94 bd b3 de ca 3c 59 25 54 3d
       -0.04788631 -0.0725458 0.024764394 0.05179343
000080 3f 1c 1c bd ed fb be bb c4 eb 06 bd 56 05 b2 3c
       -0.038112875 -0.0058283717 -0.032939687 0.02173106
000090 11 25 b0 3c 8f c3 80 bd 79 6d ec bd 62 87 59 bd
       0.02150205 -0.062873 -0.11544318 -0.053107627
0000a0 a6 51 6c ba 98 37 08 be 80 19 61 bd 46 7f c9 3c
       -0.0009014852 -0.13302457 -0.05495596 0.024596822
0000b0 2e 3d d6 bc a0 54 ad 3e a1 bf f4 3c 68 6e 92 3e
       -0.02615222 0.33853626 0.029876532 0.28599858
0000c0 43 d2 92 bd 5e b4 a6 bd c0 dc cb 3b 0e 58 c3 bd
       -0.071690105 -0.08139871 0.006221384 -0.095382795
0000d0 91 bc 6e bd 98 c3 93 3e 06 a1 3d bd 0c f6 ac 3e
       -0.0582853 0.28860164 -0.046296142 0.3378147
0000e0 c7 12 a6 3d f3 17 cf bd c6 4c 57 bd 45 7f 6a 3d
       0.0810905 -0.1011199 -0.05256345 0.05725028
0000f0 d2 e1 5f bb 76 09 d8 bd 9d e3 dd 3c c2 ee e5 bc
       -0.00341617 -0.105486795 0.027086074 -0.02806795
000100 aa 8d b3 3d 03 61 65 bd 64 9b 32 bb 3c 6a 81 bd
       0.08767255 -0.05600072 -0.0027253265 -0.06319091
000110 9b 9d e3 bb 99 57 bb bd ae 68 06 3e 24 f7 10 3d
       -0.0069462783 -0.09147567 0.1312587 0.03539194
000120 3a 59 e9 3c 72 68 83 bd 51 d5 c2 bd a6 14 6f 3d
       0.02848493 -0.06416406 -0.09513343 0.0583693
000130 b9 91 dd bb 21 b6 1a bd bc 83 77 bd 88 ee 8d 3c
       -0.0067617563 -0.037771348 -0.060428366 0.017325655
000140 b7 74 96 bc cb 94 99 bd 98 3d 00 bd 0b 6d 96 ba
       -0.0183662 -0.07499083 -0.03130874 -0.0011476589
000150 ba 36 2e 3d 83 c7 0c 3c bf 77 22 bc 89 f5 5a 3d
       0.04253266 0.008592489 -0.009916245 0.053456817
000160 8d 82 09 3d 82 1e 4f bd a1 91 40 3e a9 ce 32 bc
       0.03357177 -0.050566204 0.18805553 -0.010913529
000170 f4 ab a2 3d bb a7 e9 bd 5b 8e 89 3d 76 b9 8e 3d
       0.07942954 -0.11408945 0.06716605 0.069689676
000180 71 b2 31 bd 03 5f fc 3b 44 39 2a 3d 6a a0 fa 3e
       -0.043383066 0.007701756 0.04155852 0.4895051
000190 29 e9 7e bd ec 71 a6 3e a2 2e 4b bc 83 88 d1 3b
       -0.062234078 0.3250879 -0.012401255 0.0063944473
0001a0 29 5b 3a bd 98 81 60 bd d1 35 98 bd 37 d1 44 3e
       -0.045497093 -0.05481109 -0.0743214 0.19220434
0001b0 a1 3a 3e 3e 5b ef 9d bc 03 07 88 b9 80 89 aa 3c
       0.18577053 -0.019279173 -0.00025945166 0.020817518
0001c0 21 ad 3e bd d6 2d 97 3d ad 84 35 bd 0f b6 15 bc
       -0.046551827 0.073817894 -0.044315983 -0.009137644
0001d0 8e 7f 9b ba 17 95 eb ba 03 d7 e2 bd 81 11 fc 3d
       -0.0011863576 -0.0017973509 -0.110761665 0.12308026
0001e0 9d 85 9b 3d cd 7d 18 bd fa 15 33 bd e1 47 5e 3d
       0.07593844 -0.037229348 -0.04372213 0.054267768
0001f0 73 7b 20 bb ce 60 a9 bc b9 9b 12 bc 78 c5 73 bb
       -0.0024487644 -0.020676043 -0.00894826 -0.0037196558

linear2.weight f4 [64, 128]
000000 e1 97 e2 3a 8f 4a 88 21 d3 b2 ed b5 45 15 00 00
       0.0017287695 9.235454e-19 -1.7709921e-06 7.63e-42
000010 b4 0d 00 00 a4 07 00 80 9f a2 c2 a7 d2 39 0b b2
       4.916e-42 -2.741e-42 -5.402213e-15 -8.104012e-09
000020 2a 80 e4 ba 65 99 f2 3a 0c 5b eb 3a 51 01 00 00
       -0.0017433215 0.001850885 0.0017956211 4.72e-43
000030 53 19 00 80 ca e1 27 b8 93 66 0c 01 58 45 ea 3a
       -9.085e-42 -4.0026185e-05 2.5787532e-38 0.0017873449
000040 a2 98 ea ba 48 32 d5 b2 02 e0 dc ba c8 0b 00 00
       -0.0017898271 -2.4819329e-08 -0.0016851427 4.226e-42
000050 07 03 00 00 e7 1b 00 80 4a 97 7f 8f a3 13 eb ba
       1.086e-42 -1.001e-41 -1.2601608e-29 -0.0017934929
000060 77 22 00 80 d3 35 96 b9 d3 20 cc ba 2e 76 5f 90
       -1.2364e-41 -0.00028650332 -0.0015573747 -4.4070038e-29
000070 70 14 00 00 ac 22 00 00 1e 07 00 80 35 09 00 80
       7.332e-42 1.2438e-41 -2.553e-42 -3.303e-42
000080 cc 15 00 80 92 14 00 00 a0 f9 ea 3a 77 24 00 00
       -7.819e-42 7.379e-42 0.0017927177 1.3081e-41
000090 11 dd ea 3a 59 62 c3 ba cd 78 f4 3a 05 0e 00 80
       0.0017918666 -0.0014906629 0.0018651724 -5.029e-42
0000a0 7f 55 ce ba f1 14 00 00 b0 c4 65 b5 b5 f8 eb b4
       -0.0015742033 7.512e-42 -8.5595366e-07 -4.395312e-07
0000b0 f6 1b 00 80 0a 31 66 b9 11 20 00 80 45 a9 04 b7
       -1.003e-41 -0.00021952778 -1.1503e-41 -7.907224e-06
0000c0 dd 0b 00 00 63 23 00 80 3d 5c 84 06 2b 0a 00 80
       4.256e-42 -1.2694e-41 4.9788413e-35 -3.648e-42
0000d0 2c a6 e9 3a 57 81 80 b7 1d 16 00 80 19 92 55 b6
       0.0017826012 -1.5319018e-05 -7.933e-42 -3.1824513e-06
0000e0 e9 ea ba ba ef af ea ba bf 19 00 00 cf cf 1a b3
       -0.0014260683 -0.0017905215 9.236e-42 -3.604492e-08
0000f0 d6 6c e3 3a b7 b6 f2 ba e6 9f ea 3a f1 4b b3 ba
       0.0017351161 -0.0018517588 0.0017900437 -0.0013679249
000100 86 02 31 b1 62 9c 0d b0 b4 78 e5 3a 4d e3 e0 ba
       -2.5758324e-09 -5.1517735e-10 0.0017507286 -0.0017157585
000110 0a 00 00 00 b0 44 ea 3a 48 8c 7c 9c 66 16 a3 b8
       1.4e-44 0.0017873254 -8.3561115e-22 -7.776618e-05
000120 f2 df 0e b1 b6 09 00 80 45 24 00 00 47 ad a8 ab
       -2.0791018e-09 -3.484e-42 1.3011e-41 -1.1985212e-12
000130 e4 43 e0 3a 50 06 00 80 6f d0 07 a6 60 1c c2 aa
       0.0017110077 -2.264e-42 -4.7120014e-16 -3.4481012e-13
000140 8a 84 de ba 89 a3 e9 3a 73 24 00 00 1c f5 9a ba
       -0.0016976756 0.0017825227 1.3076e-41 -0.0011822316
000150 eb 3a ed 3a 9e 0d 00 00 ac 29 ea ba 71 0a 00 00
       0.0018099224 4.885e-42 -0.0017865202 3.746e-42
000160 10 cb 4a 0a 4c 8b a4 b2 a0 6f ef 2b d0 0d e9 3a
       9.764138e-33 -1.9155458e-08 1.7012954e-12 0.0017780606
000170 2b 09 00 80 59 0b d0 3a 25 11 e9 ba d7 16 00 80
       -3.289e-42 0.0015872522 -0.0017781599 -8.193e-42
000180 20 eb dd ba 10 aa ec ba bf 25 00 00 c7 c2 a2 b8
       -0.0016931035 -0.0018056054 1.3541e-41 -7.761042e-05
000190 99 4b ff 97 75 cc b2 b7 52 1a 00 80 cd 1c 00 80
       -1.6498072e-24 -2.1314461e-05 -9.442e-42 -1.0332e-41
0001a0 1c 14 00 80 4d 1d 00 00 34 5b b7 b7 2a 6b 86 b1
       -7.214e-42 1.0511e-41 -2.185777e-05 -3.9120964e-09
0001b0 dd 4a ea ba ad 7e 44 07 42 04 00 00 43 15 e5 ba
       -0.0017875094 1.4782628e-34 1.527e-42 -0.001747765
0001c0 ef 13 00 80 df 24 00 00 47 76 ea 3a 51 07 00 80
       -7.151e-42 1.3227e-41 0.0017888033 -2.625e-42
0001d0 b3 1a 00 80 9e 48 f7 3a 32 1c 00 80 3e 21 00 80
       -9.578e-42 0.0018866246 -1.0115e-41 -1.1925e-41
0001e0 70 1d 00 80 77 72 e9 ba d1 cd e8 ba 52 07 00 80
       -1.056e-41 -0.0017810602 -0.0017761533 -2.626e-42
0001f0 6a 0a 00 80 7d 15 00 80 85 0b 00 00 63 05 00 80
       -3.736e-42 -7.709e-42 4.132e-42 -1.932e-42
000200 bd 06 00 00 85 1c 15 bb 97 07 0f b9 1c df 50 96
       2.417e-42 -0.0022752595 -0.0001364037 -1.6872507e-25
000210 05 23 00 80 24 09 2c b8 fe 18 00 80 92 b5 d8 b9
       -1.2563e-41 -4.101651e-05 -8.966e-42 -0.0004133401
000220 a4 f7 a3 b5 55 17 af 1e d8 15 ed ba 7c f3 65 ac
       -1.2216519e-06 1.8538496e-20 -0.0018088175 -3.2678018e-12
000230 ef 10 00 80 3d b7 20 b9 d4 fc 0a b5 fc c2 19 b1
       -6.075e-42 -0.0001532705 -5.177692e-07 -2.2375266e-09
000240 4b b9 9c b9 6d 0d 00 80 5a dc e8 ba 8c 1c 57 a7
       -0.00029892693 -4.816e-42 -0.0017765865 -2.985272e-15
000250 9c 21 00 80 75 3d 64 b6 b5 0f a4 9d 35 d6 e9 ba
       -1.2057e-41 -3.401042e-06 -4.342668e-21 -0.0017840328
000260 73 25 00 80 be b8 ad 38 44 1d 00 00 c2 55 23 b9
       -1.3434e-41 8.283694e-05 1.0499e-41 -0.00015576839
000270 2f b7 44 b6 ca 0f 00 00 9b 0e 00 80 bc 14 00 00
       -2.9312903e-06 5.664e-42 -5.24e-42 7.438e-42
000280 eb 10 bf b1 ed 0c 00 80 3a 2f 01 36 35 eb 20 a4
       -5.560755e-09 -4.637e-42 1.9249987e-06 -3.4893698e-17
000290 a4 a2 40 b8 50 f4 26 39 5e 2e 6e 14 35 bf ae 3a
       -4.5927838e-05 0.00015922007 1.2025074e-26 0.0013332131
0002a0 59 26 00 80 47 a6 5f 33 2a 31 08 b5 72 c8 64 b9
       -1.3757e-41 5.2072462e-08 -5.073549e-07 -0.00021818446
0002b0 4b 21 3b 9f 74 7b 77 b9 3c 3c 05 bb 06 a0 38 ba
       -3.962633e-20 -0.00023601745 -0.0020330092 -0.00070428883
0002c0 00 65 e2 3a f1 84 bf b1 a6 93 b6 37 ae 0c 00 80
       0.0017272532 -5.5739453e-09 2.1764845e-05 -4.549e-42
0002d0 af 1b 00 80 44 a9 ce bb a3 17 00 80 58 d6 78 bb
       -9.931e-42 -0.006306799 -8.479e-42 -0.0037969556
0002e0 2e 60 2c 88 4d f4 e9 3a ea 46 2b b8 84 d4 5d ba
       -5.1872426e-34 0.0017849297 -4.083562e-05 -0.0008462148
0002f0 a2 25 00 80 f8 e3 66 34 a0 6b 68 ba 27 64 8f ba
       -1.35e-41 2.1503354e-07 -0.0008866135 -0.0010939882
000300 a8 ec b2 b8 55 68 cc 38 a1 42 c6 99 46 fe 0b 39
       -8.531782e-05 9.7469114e-05 -2.0499631e-23 0.00013350797
000310 34 62 7b aa ce 5b eb 3a 71 e0 43 ba b6 fb 0c ae
       -2.232735e-13 0.0017956437 -0.0007472104 -3.205588e-11
000320 f7 7a 3f 32 ab 64 f9 9a 4a 04 04 ae 22 32 00 80
       1.1145622e-08 -1.03146624e-22 -3.0017135e-11 -1.7984e-41
000330 b9 41 2a 82 e0 af ea 3a c9 07 00 80 76 a1 c9 98
       -1.2508489e-37 0.0017905198 -2.793e-42 -5.2120316e-24
000340 ef 25 00 80 b4 78 01 9d c7 25 00 80 01 83 ea ba
       -1.3608e-41 -1.713541e-21 -1.3552e-41 -0.0017891825
000350 ee cf ea 3a b5 c5 9a b9 b4 1c 00 80 f4 37 17 b7
       0.0017914751 -0.00029520472 -1.0297e-41 -9.013329e-06
000360 cb 3c 7c 9a 54 b6 3b 3a c3 92 b7 ae bc bb c8 80
       -5.2161487e-23 0.0007160653 -8.3479466e-11 -1.8434446e-38
000370 c2 e6 74 b9 b5 60 30 bb fc 39 e6 ba 62 72 14 a2
       -0.00023355617 -0.002691311 -0.0017564888 -2.0118294e-18
000380 f1 38 fe 34 02 94 ea 3a 5e a2 1c 3b c2 d1 94 bb
       4.7352617e-07 0.0017896893 0.002390049 -0.0045416066
000390 a6 f5 78 03 a1 55 ac ba 1d 5d cd 9f 0b 27 3d ba
       7.316264e-37 -0.0013148078 -8.697492e-20 -0.00072155957
0003a0 ed 4a 12 b7 20 8e b8 af c1 be f8 ba 2b e9 9a ba
       -8.719723e-06 -3.357039e-10 -0.0018977748 -0.0011818757
0003b0 c7 a0 ec ba 75 fb 02 ba 8f 20 00 00 14 1b af a3
       -0.0018053286 -0.00049965765 1.168e-41 -1.8985006e-17
0003c0 4b 8c d9 ba 94 8f 56 bb ed e5 b9 b8 d9 0e 4f ab
       -0.0016597597 -0.0032739388 -8.8643144e-05 -7.356178e-13
0003d0 04 0b 00 80 f6 17 00 80 8c 00 00 80 d2 97 be 39
       -3.952e-42 -8.596e-42 -1.96e-43 0.0003635274
0003e0 be d1 0b 3a ba c9 a5 9d 79 f5 e8 3a 19 06 32 3a
       0.0005333683 -4.3883717e-21 0.0017773352 0.000679107
0003f0 25 0c 00 80 b5 8e ea ba 5f e1 d9 3a 68 af da b9
       -4.357e-42 -0.0017895313 0.0016622952 -0.00041710888

linear2.bias f4 [64]
000000 0e ce 47 bb 68 ad 5e bb fe 50 67 bc 21 24 00 80
       -0.0030487808 -0.003397787 -0.014118431 -1.296e-41
000010 85 9b 97 ba e4 19 00 80 d3 24 00 80 5c ef b6 ba
       -0.0011566734 -9.288e-42 -1.321e-41 -0.0013956833
000020 c9 c7 23 3e 48 83 2d 3d 69 88 1a 3e 55 f6 2b bc
       0.1599418 0.042361528 0.15091099 -0.010495742
000030 77 0b 00 80 4f e7 89 3a 38 14 00 80 80 cb 3f bc
       -4.113e-42 0.0010521206 -7.253e-42 -0.011706233
000040 70 0a 00 80 88 de 5b 3c a0 34 c1 bc b2 1d 00 80
       -3.744e-42 0.013419755 -0.023584664 -1.0653e-41
000050 53 11 00 80 84 87 bd 3d 0b 0b 9f 3e a4 16 29 bc
       -6.215e-42 0.09254363 0.31063113 -0.010320339
000060 da 31 d0 bd 03 c1 ee ba 92 86 2f bd 5b 19 00 80
       -0.101657584 -0.0018215481 -0.042852946 -9.096e-42
000070 7e 17 00 80 7e b5 df 3c 6d 8d af bd c8 0a 00 80
       -8.427e-42 0.027308222 -0.08571897 -3.868e-42
000080 e7 b1 24 bc 33 9b b1 bc ab 26 00 80 f7 ad 01 bd
       -0.010052181 -0.02168045 -1.3871e-41 -0.031660046
000090 b6 83 5f bc e6 0c 00 80 a0 25 0d bb 82 62 3b bd
       -0.013642242 -4.627e-42 -0.0021537319 -0.04574824
0000a0 b0 22 2f 3e bf 7e de 3c 4a 40 2f bd 31 63 20 bd
       0.17103076 0.027160047 -0.04278592 -0.039157096
0000b0 99 b0 88 bc cd dc 3c ba ea b1 d6 bb c7 20 00 80
       -0.01668577 -0.0007204533 -0.0065519707 -1.1758e-41
0000c0 78 3e b7 bb 17 b8 f5 3d 30 17 00 80 6f 24 00 80
       -0.0055921637 0.11998003 -8.318e-42 -1.307e-41
0000d0 c6 52 2e 3d fa 22 53 bb a6 19 00 80 e5 eb 54 bc
       0.042559408 -0.0032216893 -9.201e-42 -0.012995695
0000e0 1b f6 b9 bc 05 11 7f 3e 02 fb b4 3e 16 e2 91 3d
       -0.02270036 0.24908836 0.35347754 0.071232006
0000f0 73 d1 30 3c 20 7a da b9 60 1c 00 80 bb 06 c5 3d
       0.010792124 -0.0004167119 -1.0179e-41 0.09620424

linear3.weight f4 [32, 64]
000000 60 46 66 3b 64 07 ce 37 52 1a 84 bd 88 26 00 00
       0.0035137162 2.4560555e-05 -0.06450333 1.3822e-41
000010 e6 1b 00 00 0f 22 00 00 16 0d 00 00 a0 80 2b 3c
       1.0008e-41 1.2218e-41 4.694e-42 0.010467678
000020 01 27 13 bf b5 1b 0e 3d 09 27 a9 3d 0d 04 ae 33
       -0.5748139 0.034694392 0.082593985 8.103243e-08
000030 db 10 00 00 a8 02 af 37 10 1f 00 80 2d 45 3a 3c
       6.047e-42 2.0862863e-05 -1.1143e-41 0.011369032
000040 de 10 00 00 5e ec e8 3c 87 95 4e bd 0e 1c 00 80
       6.051e-42 0.028433021 -0.05043557 -1.0064e-41
000050 67 24 00 00 9b 09 32 3c 6b cd 24 bf 54 c4 54 bb
       1.3059e-41 0.010866548 -0.6437594 -0.0032465653
000060 a9 30 2c bd fd 79 6d bc e7 92 10 bd 19 0d 00 80
       -0.042038593 -0.014494416 -0.035296347 -4.699e-42
000070 28 08 00 00 c4 2c 18 bd e5 4f 70 bd 13 0c 00 80
       2.926e-42 -0.037152067 -0.058669943 -4.331e-42
000080 cc 4a 92 39 99 f1 6c ba 50 0f 00 80 47 a5 b5 35
       0.00027903018 -0.00090386864 -5.493e-42 1.3533653e-06
000090 50 e1 90 b9 fa 1f 00 00 60 2e 2a b1 c3 49 74 bd
       -0.0002763369 1.1471e-41 -2.4764617e-09 -0.059640657
0000a0 70 27 75 3f 88 e8 02 3d cf 37 71 bd 45 3a 87 32
       0.957633 0.03196004 -0.058891114 1.5742566e-08
0000b0 c1 96 d7 3b 1a b0 01 bc a3 c0 3c 3c 75 24 00 00
       0.0065792506 -0.007915521 0.011520538 1.3078e-41
0000c0 99 2c 1c 3a 5a d9 f9 bc 5c 25 00 00 c9 13 00 80
       0.00059575733 -0.03049915 1.3402e-41 -7.098e-42
0000d0 ce 69 d9 3c 29 c3 01 bd 53 0e 00 80 f5 ba f8 bc
       0.02653971 -0.03168026 -5.139e-42 -0.030362586
0000e0 7d e2 bf 37 09 94 02 be 82 ea 44 bf fc 3c 46 ba
       2.2874441e-05 -0.12751783 -0.7692033 -0.0007562188
0000f0 df 3e 07 3d d9 fe a8 37 a1 04 00 00 ca 25 c2 bd
       0.033018943 2.0145833e-05 1.66e-42 -0.09479864
000100 be 12 00 00 c4 bc 01 3a 2c a4 3e 3a b4 11 00 00
       6.723e-42 0.0004949088 0.00072723883 6.35e-42
000110 7d 07 00 00 9c 26 00 00 d5 1d 00 00 2a 72 bd 3a
       2.686e-42 1.385e-41 1.0702e-41 0.0014453579
000120 df 26 8f 3d c5 29 96 3c 23 ae 48 3d 9f 0b 0b 20
       0.06989836 0.018330464 0.048994195 1.1777603e-19
000130 de 1c 00 80 b2 86 79 3c 7d 14 00 80 a7 c0 45 b7
       -1.0356e-41 0.015229868 -7.35e-42 -1.178697e-05
000140 78 16 00 00 09 08 95 b6 7b 36 6c b4 21 00 00 80
       8.06e-42 -4.4414815e-06 -2.1999033e-07 -4.6e-44
000150 b0 09 00 00 5d 18 37 3b 0b fb 81 3d 78 89 a5 ad
       3.475e-42 0.0027938106 0.06346711 -1.8819377e-11
000160 2c aa 40 3d 32 87 7d 38 06 18 9d 33 50 06 00 80
       0.04703729 6.044581e-05 7.315252e-08 -2.264e-42
000170 7c 25 00 00 48 98 7a 3c cd ec 49 3a 2d 19 00 00
       1.3447e-41 0.015295096 0.00077028276 9.031e-42
000180 03 0e 00 80 0e fb 3a 3b 65 1c 00 00 ef 3a 4e 3a
       -5.026e-42 0.0028530988 1.0186e-41 0.0007867058
000190 e4 04 00 80 84 0e 00 00 68 c4 91 af 4a 9c 47 3a
       -1.754e-42 5.207e-42 -2.65149e-10 0.00076145364
0001a0 29 39 ac 3c dc 1d a1 3c fa 99 84 a4 5a 44 b7 39
       0.02102335 0.019667558 -5.750672e-17 0.00034955406
0001b0 ed 4a 93 b0 c9 4b 5b aa d4 5c 00 00 f9 16 00 00
       -1.0716953e-09 -1.94774e-13 3.33e-41 8.241e-42
0001c0 ba 91 00 26 84 6b 56 3d 41 0b 00 00 e2 1f 00 80
       4.4606417e-16 0.05234863 4.037e-42 -1.1437e-41
0001d0 0b 34 17 3d 0c 0b 00 80 8f 1e 00 80 09 cc 1e 38
       0.036914866 -3.963e-42 -1.0962e-41 3.7860158e-05
0001e0 f0 f0 4a ba 54 a1 84 3d 8e 1b 85 3d 23 6a 18 3d
       -0.0007741591 0.064760834 0.06499396 0.037210595
0001f0 2a 4a 92 3c 16 e5 e1 38 b4 21 00 00 0c e8 62 3d
       0.01785763 0.00010771507 1.209e-41 0.05539708
000200 3f e4 9e b2 21 03 ee 3c 6d c6 9e bd 1c 1b 00 80
       -1.8497415e-08 0.029054226 -0.077526905 -9.725e-42
000210 86 09 00 00 e9 16 00 80 a3 18 00 80 9b 95 fa 3b
       3.416e-42 -8.219e-42 -8.838e-42 0.007647229
000220 bd e6 86 3d 0f 91 46 3b a2 9f ec 3c 4a 63 94 34
       0.065869786 0.0030298864 0.028884713 2.763939e-07
000230 54 06 00 80 a4 40 93 bc 92 22 00 80 ce 4d ba 3c
       -2.27e-42 -0.017975159 -1.2401e-41 0.022742178
000240 02 0a 00 80 4c 3e b6 3b 33 e2 b4 3b a5 0f 00 00
       -3.59e-42 0.0055616256 0.005520129 5.612e-42
000250 1f 10 00 00 ea a0 c7 bc 52 5b 98 3d 35 05 02 ba
       5.783e-42 -0.024368722 0.07439293 -0.00049598824
000260 a7 f5 8c bc 24 eb 3a bc a2 92 55 bc df 11 00 80
       -0.01720698 -0.011408601 -0.013035448 -6.411e-42
000270 9c 0f 00 80 49 bb c6 bb a7 0d da bd 9c 21 00 80
       -5.6e-42 -0.0060648066 -0.10647135 -1.2057e-41
000280 d6 55 56 af 90 fa 1f b4 33 21 00 80 03 af 69 34
       -1.9493682e-10 -1.4899183e-07 -1.191e-41 2.1763485e-07
000290 6c 87 b9 bc b9 0a 00 80 a3 93 ba 37 51 79 b0 bd
       -0.022647582 -3.847e-42 2.2241677e-05 -0.08616889
0002a0 e5 26 5d 3d 67 01 5b 3c 19 0c 10 bd cf 52 3e b8
       0.05399217 0.013367034 -0.035167787 -4.537665e-05
0002b0 33 c7 dc bb df e5 7e ba 0f ad 0d b8 01 1e 00 00
       -0.0067376136 -0.00097235845 -3.3778193e-05 1.0763e-41
0002c0 7b d1 5e b4 7a 63 87 bd 27 17 00 80 54 1f 00 80
       -2.075157e-07 -0.066107705 -8.305e-42 -1.1238e-41
0002d0 6d d5 30 3c 53 44 67 ba 75 20 00 80 a0 ec 52 bc
       0.010793072 -0.0008822132 -1.1643e-41 -0.012873799
0002e0 35 1d 9b 3b 35 15 a6 bc c3 7e d9 3d 96 29 84 3d
       0.0047337064 -0.020273784 0.10619881 0.064532444
0002f0 6a 39 d9 bc 46 4f 5d 39 00 26 00 80 c2 d2 6a 3d
       -0.026516635 0.00021105734 -1.3632e-41 0.0573299
000300 7d a6 a8 ba 15 50 d9 ba 48 21 83 bd 92 01 00 80
       -0.0012867 -0.0016579652 -0.06402832 -5.63e-43
000310 9e c8 c0 39 d2 09 00 00 d1 17 00 00 4a ee 47 3c
       0.00036770565 3.523e-42 8.544e-42 0.012202809
000320 b6 81 39 3f 77 1e ef ba 1f 0b 4c be a5 7d 21 3c
       0.7246355 -0.0018243332 -0.19926117 0.009856616
000330 66 1a 00 80 9c 26 12 3d 7b 25 00 80 3f da 1d bd
       -9.47e-42 0.035681352 -1.3445e-41 -0.038538214
000340 94 07 00 80 35 ea 85 bc 89 a5 18 bc f4 07 00 80
       -2.719e-42 -0.01634703 -0.00931681 -2.853e-42
000350 32 0e 00 80 de 05 55 bd b9 24 ba bd b1 e1 2a bb
       -5.092e-42 -0.05200755 -0.090890355 -0.0026074464
000360 db 9e c9 3f 4a c4 82 3d 25 2d 03 bc 6f 22 00 00
       1.5751604 0.063850954 -0.008006369 1.2352e-41
000370 05 0b 00 00 5c 9a 8e bc 3d 7f 9e bd 67 17 00 80
       3.953e-42 -0.017407589 -0.077391125 -8.395e-42
000380 9c 87 09 3c 33 66 e6 35 df 13 00 00 93 b2 f2 87
       0.008394148 1.7166079e-06 7.128e-42 -3.651707e-34
000390 60 fe 38 34 1c 08 00 80 12 fc c3 37 d6 b3 8f bd
       1.7228876e-07 -2.909e-42 2.336319e-05 -0.07016723
0003a0 9b ff f5 be b4 81 85 bd bd e0 49 3d 4c 53 e1 bb
       -0.48046574 -0.065188795 0.049286593 -0.006876385
0003b0 45 d0 86 3c 4d 66 fa 3c 7b 56 ba b9 d6 08 00 80
       0.016456733 0.030566359 -0.00035541118 -3.17e-42
0003c0 44 80 b4 bc 8e 6f 1b be 53 1d 00 80 0e 24 00 80
       -0.022033818 -0.15179273 -1.052e-41 -1.2934e-41
0003d0 83 27 cc bd c7 b2 9d b4 91 20 00 00 e2 0f 99 3c
       -0.09968474 -2.9373606e-07 1.1683e-41 0.018684331
0003e0 56 6c 6a 3c 09 00 d4 be 56 6a 34 bd 96 8c 90 bd
       0.014308056 -0.41406277 -0.044046722 -0.07058065
0003f0 ad 1d b2 bc ef 7a f2 37 58 18 00 80 b6 51 67 bd
       -0.021742666 2.8905893e-05 -8.733e-42 -0.05647441

linear3.bias f4 [32]
000000 b7 e9 97 be c5 f6 74 3d 2f db cd 3c 3d 91 8b bd
       -0.29670498 0.05980565 0.025128929 -0.068148114
000010 11 4a 20 3d 0f ec 6d bd 8a 6f 96 be 47 06 7a 3d
       0.039133135 -0.05808645 -0.29381973 0.061041143
000020 c3 2c b2 3a f7 21 ab 3e c1 55 10 bd 7d 1d 00 80
       0.0013593662 0.3342435 -0.03523803 -1.0578e-41
000030 90 7f 9c bd d7 16 00 80 60 19 00 80 f1 30 03 bd
       -0.07641518 -8.193e-42 -9.103e-42 -0.032029096
000040 4e 3a f7 bc 3a 63 22 bd eb 65 fe 3c ab 2f f7 bb
       -0.030179169 -0.03964541 0.031054458 -0.0075435243
000050 54 98 96 3e a0 06 00 80 5d f4 81 bd ac 89 1f 3d
       0.29413092 -2.377e-42 -0.06345437 0.038949654
000060 5a 17 00 80 0b 01 43 bc 1f 2a 23 be ed 71 a0 3e
       -8.377e-42 -0.011902104 -0.15934037 0.31336918
000070 31 12 00 80 d0 24 00 80 7b be 3f be f8 0e 00 80
       -6.526e-42 -1.3206e-41 -0.18725006 -5.37e-42

linear4.weight f4 [16, 32]
000000 f1 0b 00 80 14 09 00 80 9e 0f 00 80 95 1c 00 80
       -4.284e-42 -3.257e-42 -5.602e-42 -1.0253e-41
000010 39 17 00 00 c5 1e 00 80 8b 08 00 80 0d 21 00 80
       8.331e-42 -1.1038e-41 -3.065e-42 -1.1856e-41
000020 fa 16 00 00 bc 26 00 80 80 18 00 80 5a 23 00 00
       8.242e-42 -1.3895e-41 -8.789e-42 1.2682e-41
000030 b0 1c 00 80 15 19 00 00 c7 0c 00 80 f0 08 00 00
       -1.0291e-41 8.998e-42 -4.584e-42 3.206e-42
000040 dc 0a 00 80 e9 14 00 80 48 00 00 00 24 1d 00 00
       -3.896e-42 -7.501e-42 1.01e-43 1.0454e-41
000050 31 19 00 80 3d 13 00 80 6d 15 00 80 f7 15 00 80
       -9.037e-42 -6.901e-42 -7.686e-42 -7.88e-42
000060 3a 08 00 80 3c 11 00 80 16 12 00 80 53 08 00 80
       -2.951e-42 -6.183e-42 -6.488e-42 -2.986e-42
000070 fd 1a 00 80 0f 11 00 80 99 22 00 80 3d 0a 00 80
       -9.682e-42 -6.12e-42 -1.2411e-41 -3.673e-42
000080 e3 1b 00 80 be 0d 00 00 9c 23 00 80 7f 0c 00 80
       -1.0004e-41 4.93e-42 -1.2774e-41 -4.483e-42
000090 8d 1c 00 80 65 1c 00 80 43 22 00 80 96 0a 00 00
       -1.0242e-41 -1.0186e-41 -1.2291e-41 3.798e-42
0000a0 65 0c 00 80 71 06 00 80 9a 1c 00 80 ff 00 00 80
       -4.446e-42 -2.311e-42 -1.026e-41 -3.57e-43
0000b0 17 09 00 80 56 16 00 80 09 1a 00 00 ab 08 00 80
       -3.261e-42 -8.013e-42 9.34e-42 -3.11e-42
0000c0 ff 0d 00 80 9b 0d 00 80 d8 0e 00 80 a4 0e 00 80
       -5.021e-42 -4.881e-42 -5.325e-42 -5.252e-42
0000d0 68 22 00 80 2e 0e 00 80 40 1c 00 80 58 15 00 80
       -1.2343e-41 -5.087e-42 -1.0134e-41 -7.657e-42
0000e0 ec 20 00 80 ec 05 00 00 0b 24 00 80 bf 16 00 80
       -1.181e-41 2.124e-42 -1.293e-41 -8.16e-42
0000f0 44 0a 00 80 ef 20 00 00 bd 0e 00 00 ed 18 00 00
       -3.683e-42 1.1814e-41 5.287e-42 8.942e-42
000100 c9 10 05 bf a8 c6 c7 3d e7 9d e6 3d bf 39 2d bf
       -0.5197874 0.097546875 0.11260586 -0.6766624
000110 5c b3 17 39 56 5c 8d bd e2 de 23 bf 9f f7 de 3d
       0.00014467299 -0.06902377 -0.6401197 0.10887074
000120 77 ef b3 3a 59 91 64 3f 78 00 28 3d 85 25 00 80
       0.0013727982 0.8928428 0.041016072 -1.346e-41
000130 c7 e6 d2 bd a3 0b 00 80 6e 01 00 80 67 71 5d 3d
       -0.102979235 -4.174e-42 -5.13e-43 0.054063227
000140 a4 b4 fc 3c 43 3d 20 3e 30 09 e1 3c 7c 7d 28 bb
       0.030847855 0.1564837 0.027470201 -0.002570956
000150 30 44 48 3f d5 1f 00 00 61 2c b4 bd 3c 21 05 3e
       0.78229046 1.1419e-41 -0.08797527 0.13000959
000160 7c 1c 00 00 73 ca bf 3b 30 df 25 bd d1 55 54 3f
       1.0218e-41 0.0058529912 -0.04049605 0.82943445
000170 8b 19 00 80 73 16 00 80 75 22 15 be dc 04 00 80
       -9.163e-42 -8.053e-42 -0.14563926 -1.743e-42
000180 ae bf 99 3a ea c9 0c bd 78 43 c7 3d f3 c4 54 3f
       0.0011730099 -0.034372248 0.097296655 0.8311302
000190 94 97 a0 3d 45 80 94 bd 2e c6 3a 3b 9a d6 4d bd
       0.07841411 -0.07251028 0.0028499472 -0.050253488
0001a0 b0 69 fa ba 32 c1 85 be 93 80 e8 3e 2f 15 00 80
       -0.0019104984 -0.2612396 0.45410594 -7.599e-42
0001b0 01 8e 9e bd 7c 0d 00 80 54 10 00 80 7e 89 4e 3c
       -0.07741929 -4.837e-42 -5.857e-42 0.012606023
0001c0 bf 80 2d 3c ca 86 9e 3e 0f 41 a4 bc 01 1e f5 3b
       0.0105897775 0.3096221 -0.020050554 0.0074803834
0001d0 88 46 72 be 40 25 00 80 72 45 9c bd 5a 59 ff bb
       -0.23659718 -1.3363e-41 -0.07630433 -0.007792634
0001e0 d7 00 00 00 a2 00 3d 3b aa 20 aa 36 1e bc 80 be
       3.01e-43 0.0028839489 5.0701974e-06 -0.25143522
0001f0 fa 0c 00 00 91 25 00 80 6b 9f 7d 37 7c 0a 00 80
       4.655e-42 -1.3476e-41 1.51170925e-05 -3.761e-42
000200 e1 15 00 80 c1 07 00 80 6d 14 00 80 53 0c 00 80
       -7.849e-42 -2.782e-42 -7.327e-42 -4.421e-42
000210 d6 09 00 00 24 13 00 80 8d 07 00 80 f2 13 00 00
       3.528e-42 -6.866e-42 -2.709e-42 7.155e-42
000220 11 14 00 80 73 26 00 80 e7 23 00 00 22 06 00 00
       -7.198e-42 -1.3793e-41 1.288e-41 2.2e-42
000230 1d 11 00 80 5d 1b 00 80 76 22 00 00 6e 0c 00 80
       -6.139e-42 -9.816e-42 1.2362e-41 -4.459e-42
000240 09 16 00 80 73 1f 00 80 88 16 00 80 31 1a 00 80
       -7.905e-42 -1.1282e-41 -8.083e-42 -9.396e-42
000250 9e 02 00 00 cd 21 00 80 1a 21 00 80 e9 0a 00 80
       9.39e-43 -1.2125e-41 -1.1875e-41 -3.914e-42
000260 cc 19 00 80 82 19 00 80 e9 12 00 80 16 14 00 80
       -9.254e-42 -9.15e-42 -6.784e-42 -7.205e-42
000270 ab 0c 00 80 2f 17 00 80 aa 1d 00 80 57 11 00 00
       -4.544e-42 -8.317e-42 -1.0641e-41 6.22e-42
000280 77 7b b5 3e 21 55 4b 3c 5d 91 a3 bd 42 60 b3 bd
       0.3544576 0.012410433 -0.0798671 -0.08758594
000290 8e 37 77 bd 96 ae 75 3f 5d 2c f1 3e 60 49 4c bc
       -0.060355715 0.9596952 0.4710416 -0.012468666
0002a0 29 c7 2f 3a af 6a f4 3d 7a 92 29 be 45 1e 00 80
       0.00067053974 0.11934411 -0.16559783 -1.0859e-41
0002b0 73 95 88 3f 54 19 00 80 8c 1a 00 80 b1 26 4b 3c
       1.0670608 -9.086e-42 -9.523e-42 0.0123993615
0002c0 8d c2 0d 3c de 4d 7a bd f8 f1 0e bd fd c9 09 3d
       0.008652342 -0.061109416 -0.034898728 0.033639897
0002d0 0a fa 08 3e 12 1c 00 80 e5 28 84 3f 9d 93 13 bc
       0.13376632 -1.007e-41 1.032498 -0.009007362
0002e0 ec 13 00 00 f3 24 c7 3c fa 05 b5 3b c1 1d f2 3d
       7.147e-42 0.024309611 0.005524394 0.11822081
0002f0 a3 1e 00 00 3c 17 00 80 f8 68 9a 3d 50 22 00 00
       1.099e-41 -8.335e-42 0.075395525 1.2309e-41
000300 99 1f 00 80 48 22 00 80 d7 22 00 80 62 15 00 80
       -1.1335e-41 -1.2298e-41 -1.2498e-41 -7.671e-42
000310 17 21 00 80 4c 1c 00 80 4a 08 00 80 10 0f 00 80
       -1.187e-41 -1.0151e-41 -2.974e-42 -5.403e-42
000320 b1 1c 00 00 26 09 00 80 87 22 00 80 5b 0d 00 80
       1.0293e-41 -3.282e-42 -1.2386e-41 -4.791e-42
000330 6a 20 00 80 51 1d 00 00 39 08 00 80 4c 19 00 80
       -1.1628e-41 1.0517e-41 -2.95e-42 -9.075e-42
000340 87 1f 00 00 5a 24 00 80 d0 1c 00 00 ca 0e 00 80
       1.131e-41 -1.304e-41 1.0336e-41 -5.305e-42
000350 76 22 00 80 8e 1f 00 00 89 07 00 80 2a 22 00 00
       -1.2362e-41 1.132e-41 -2.703e-42 1.2256e-41
000360 11 15 00 80 52 22 00 80 f8 21 00 80 ea 1e 00 80
       -7.557e-42 -1.2312e-41 -1.2186e-41 -1.109e-41
000370 2b 0e 00 80 40 1f 00 00 a4 22 00 80 81 01 00 00
       -5.083e-42 1.121e-41 -1.2427e-41 5.4e-43
000380 08 10 03 3b 04 37 00 bd 59 a6 d3 3d 0f 9e 73 3f
       0.001999857 -0.031302467 0.10334463 0.95163053
000390 89 05 a7 3d 11 b0 bd bd 62 2f 8b 3b ab 51 70 bd
       0.081553526 -0.092620976 0.004247592 -0.058671635
0003a0 ba c5 01 bb 9a 27 92 be 71 e8 1e 3f ee 17 00 80
       -0.0019801692 -0.2854584 0.6207343 -8.584e-42
0003b0 0f 8f c8 bd 3b 20 00 80 ae 12 00 80 6d 80 84 3c
       -0.09792911 -1.1562e-41 -6.701e-42 0.01617452
0003c0 d4 a2 43 3c 19 40 bb 3e fa 39 a9 bc 44 cd 1a 3c
       0.011940677 0.3657234 -0.020657528 0.009448353
0003d0 43 ca 84 be 2d 16 00 80 11 0f c7 bd 7f 4b eb bb
       -0.25935563 -7.955e-42 -0.097196706 -0.0071806307
0003e0 bd 02 00 00 a2 06 61 3b cf 6c a6 37 bb e5 8d be
       9.82e-43 0.003433623 1.983941e-05 -0.27714333
0003f0 66 22 00 80 10 24 00 80 c6 d0 51 38 96 03 00 00
       -1.234e-41 -1.2937e-41 5.002392e-05 1.286e-42

linear4.bias f4 [16]
000000 1e 0d 00 80 f0 1a 00 80 aa 37 18 3f 3d c6 87 3d
       -4.706e-42 -9.663e-42 0.59459937 0.06629608
000010 f5 0d 00 80 28 bb fd be a2 0c 00 80 f1 ea 1b 3e
       -5.007e-42 -0.4955685 -4.532e-42 0.15226342
000020 a6 13 00 80 e2 02 62 be e9 3b 29 bc 36 1d 00 80
       -7.049e-42 -0.22071412 -0.010329225 -1.0479e-41
000030 ea 1f 00 80 f2 bf 9e bd f0 1d 00 80 8a 23 00 80
       -1.1449e-41 -0.077514544 -1.074e-41 -1.2749e-41

linear5.weight f4 [4, 16]
000000 c8 0b 00 80 d7 0f 00 80 c1 9e 66 bf 61 e6 4c 3f
       -4.226e-42 -5.682e-42 -0.9008599 0.8003903
000010 73 0f 00 00 05 a5 82 be ef 14 00 80 d0 09 6b 3f
       5.542e-42 -0.25516525 -7.51e-42 0.9181185
000020 7e 1f 00 80 57 19 e0 bd 01 58 bb ba 5e 18 00 00
       -1.1297e-41 -0.10942333 -0.0014293195 8.741e-42
000030 b0 0c 00 80 19 36 cc be 9c 11 00 00 23 14 00 80
       -4.551e-42 -0.39885023 6.317e-42 -7.224e-42
000040 ea 21 00 80 90 23 00 00 43 53 c7 be 54 a8 93 be
       -1.2166e-41 1.2757e-41 -0.3893071 -0.28839362
000050 ff 1a 00 00 27 5c a9 3f 43 12 00 80 28 5e cb be
       9.684e-42 1.3231248 -6.551e-42 -0.39720273
000060 53 12 00 80 9a 6a 3c be e1 1b 40 bd da 16 00 00
       -6.573e-42 -0.1840004 -0.046901587 8.198e-42
000070 0c 1f 00 80 86 28 17 bf f6 15 00 00 8a 0f 00 80
       -1.1138e-41 -0.5904621 7.878e-42 -5.574e-42
000080 ca 21 00 80 5e 23 00 80 32 af 5a bf 46 1a 52 be
       -1.2121e-41 -1.2687e-41 -0.85423577 -0.20517835
000090 5c 09 00 00 c8 7c 66 3e cf 21 00 80 c7 5d 8a be
       3.358e-42 0.22508538 -1.2128e-41 -0.2702467
0000a0 15 19 00 00 05 fb 8a 3f 51 e4 82 3c 6f 09 00 00
       8.998e-42 1.0857855 0.01597801 3.384e-42
0000b0 04 08 00 80 58 a7 26 3f ed 09 00 00 db 1a 00 00
       -2.875e-42 0.65099096 3.56e-42 9.634e-42
0000c0 86 1f 00 80 ce 1f 00 00 d2 d8 71 3f 81 8d ab be
       -1.1308e-41 1.141e-41 0.94471467 -0.33506396
0000d0 19 21 00 80 e6 a2 87 bf 27 15 00 80 93 71 bc be
       -1.1873e-41 -1.0596588 -7.588e-42 -0.368054
0000e0 3d 16 00 80 fb ef bc be c0 9e ba 3c 3f 20 00 80
       -7.978e-42 -0.3690184 0.022780776 -1.1568e-41
0000f0 b2 1f 00 80 3d 36 6d 3d 23 1b 00 80 0d 19 00 00
       -1.137e-41 0.057913054 -9.735e-42 8.987e-42

linear5.bias f4 [4]
000000 9b 75 1a 3f a8 e4 14 bf 4e c5 38 bf b8 e3 3d 3e
       0.603357 -0.581614 -0.72176063 0.18543899
