checkpoints/dnnAE_9.pt (torch, 230343 bytes, 10 tensors)

linear1.weight f4 [128, 358]
000000 39 81 dd ba cc 7d d7 3b 6b 7e 99 3b a5 fe c9 ba
       -0.0016899473 0.0065762755 0.0046842596 -0.0015410973
000010 11 51 84 bd 23 d9 50 bd 26 64 49 3d 0f d9 db 3c
       -0.06460775 -0.050988328 0.049167775 0.0268369
000020 39 7d 82 3c 76 20 c2 bb bc b5 70 bc 3d 27 e8 bd
       0.015928851 -0.00592428 -0.014691766 -0.11335609
000030 21 2c 02 bd 24 0d 90 bc b0 8f 89 3d e5 0f d4 3c
       -0.031780366 -0.017584391 0.06716859 0.025886485
000040 60 bc d6 bd 4c 97 1a bd e5 81 f6 bc 92 07 85 bb
       -0.104851484 -0.037741944 -0.030091235 -0.0040597403
000050 3c cb df bc 14 2d 42 bd 04 35 2d bc 09 05 9d 3c
       -0.02731859 -0.04740627 -0.010571722 0.01916744
000060 e6 f1 67 bb b8 2f 17 bd ae bd 29 bd f5 9f 1c bd
       -0.0035391985 -0.036910743 -0.04144066 -0.038238484
000070 5b be ae bc b0 96 35 3c 1a 36 2b 3c c3 6a ad bc
       -0.021331003 0.01108329 0.010449911 -0.021169072
000080 39 89 4e bd cf 41 0d bd 40 e5 ae 3c 58 70 47 bd
       -0.050423834 -0.034486588 0.02134955 -0.048691124
000090 76 0d c4 bd 84 49 a9 3c 42 67 81 bd 02 a4 81 3d
       -0.0957288 0.020664938 -0.06318523 0.0633011
0000a0 44 c3 26 bd 9a bb 27 bc 8b 43 ed 3c ba 2a 84 bd
       -0.040713564 -0.010237599 0.028962871 -0.06453462
0000b0 b1 4e 01 bd 3d 82 62 bc a8 f3 98 bc 8e 8e cb 3c
       -0.031569187 -0.013824997 -0.018670872 0.024848249
0000c0 c0 ed 3a 3c 90 be 5b bd 25 2c f7 3b 92 d7 51 3c
       0.011409223 -0.05364853 0.0075431042 0.012807744
0000d0 61 3e 5f 3a 92 ed b7 bd 4b 9b b1 bd a5 d4 97 bc
       0.000851607 -0.0898086 -0.08672198 -0.018534014
0000e0 3f 18 5a bd be 67 99 bc f6 a9 19 3d 38 ec 67 3c
       -0.05324578 -0.018726226 0.037515603 0.01415544
0000f0 a2 74 ba bd 25 fa 46 bd cf 7e 62 bd 66 38 4e bb
       -0.09104277 -0.0485784 -0.055296715 -0.0031466722
000100 06 50 c2 ba 08 e1 f9 bc 19 d7 f7 bc 5c af 3e bd
       -0.0014824874 -0.030502811 -0.030253934 -0.046553954
000110 53 74 02 3d ff 98 ae 3d 29 aa d7 3b 4f b7 01 3d
       0.031849217 0.085252754 0.006581564 0.031668957
000120 99 8f 93 bc 51 c2 ec 3a aa 39 ba 3b 3d db ba 3b
       -0.018012809 0.0018063282 0.0056831436 0.005702405
000130 1f 76 34 ba d3 fc 33 3d 8a f2 8a 3c 9e 22 47 3d
       -0.00068840565 0.043942284 0.016961355 0.048616998
000140 1a a3 86 3b 22 33 8b 3c 46 5c 89 3c bd 1c 4d bc
       0.0041087987 0.016992155 0.016767632 -0.012519059
000150 d4 84 36 bc f0 4c 4d bc 91 22 60 bc 53 9f 38 3a
       -0.011140067 -0.01253055 -0.013680116 0.0007042784
000160 ec d7 ea bb 7e 7b 1e bd 2b 7c 21 bc fb 3f 39 3b
       -0.007166853 -0.03869199 -0.009856264 0.0028266895
000170 5c a8 74 bd ce 0d 86 bd 82 9a df 3a f4 d0 8a bd
       -0.059730873 -0.06545602 0.0017059597 -0.06778136
000180 80 05 cd bc a0 05 c7 bd d5 3b c8 bd 69 ce 30 bc
       -0.025027037 -0.0971787 -0.09777037 -0.0107913995
000190 e6 3b 2d 3b 58 b4 71 ba 6f 52 01 3d 80 9f c4 bd
       0.0026433407 -0.0009220294 0.031572755 -0.09600735
0001a0 bd 0f 8b 3d f8 46 93 3d 9e d2 73 bd 5a ae 4e 3d
       0.06790111 0.071912706 -0.059527032 0.050459243
0001b0 d9 65 b2 bb ed 2d 3c 3d 93 2f 09 bc 71 ba 6d 3d
       -0.00544427 0.045942236 -0.008373159 0.058039133
0001c0 06 71 2c b7 b9 7d 17 bd 04 53 ff bc bc e4 5f 3d
       -1.0278314e-05 -0.036985133 -0.031167515 0.054661497
0001d0 fc 34 41 bc 95 d1 96 bd c5 6d 6c 3d f6 55 a7 bd
       -0.011792418 -0.07364193 0.057721872 -0.081706926
0001e0 b0 f7 9b 3d 57 c5 b5 3c 90 56 c9 bc c9 52 8c bb
       0.07615602 0.022188826 -0.024577409 -0.0042823297
0001f0 d5 ee cc 3a a8 90 9d bd 58 ea 9c bd 69 0e aa bd
       0.0015635142 -0.076936066 -0.07661885 -0.0830353
000200 d9 41 9e bd 50 f6 e8 bc 4d e2 6e bd bb 2e 4e bd
       -0.07727403 -0.028437763 -0.058321286 -0.050337534
000210 3b 2d 3e 3d 5c c3 f4 b6 90 f3 67 bd 40 45 7a bd
       0.046429854 -7.2945095e-06 -0.056628764 -0.0611012
000220 1a 73 03 bd 1b e2 1d 3c e4 be 55 3c dc 0a 0c 3d
       -0.03209219 0.009636427 0.013046 0.034190044
000230 b7 82 36 3d ee 72 28 3d 6d 32 11 3d d9 85 76 3d
       0.044558253 0.04112523 0.03544848 0.06018624
000240 19 66 55 3d d2 bd 43 3d 2b bf 11 3d 9d 8b 23 bd
       0.05209932 0.04778845 0.035582703 -0.039928067
000250 11 21 1e bc 86 b2 42 3d 62 8c 6e bd d3 cc c0 bc
       -0.009651438 0.047533534 -0.05823935 -0.023535168
000260 c2 95 cc bc 52 bc 8e bc f4 87 e1 bd 89 0e 10 3d
       -0.024973754 -0.017423782 -0.11012259 0.03517011
000270 12 28 9c 3c 47 bd 92 3a a2 9e c8 3d ea 23 85 3c
       0.019062076 0.0011195325 0.09795882 0.016252477
000280 95 48 77 3d c0 32 81 3d 4a 4d 28 bc 82 a2 ba bb
       0.060371954 0.06308508 -0.010272333 -0.005695642
000290 3f 76 ac ba 6b 11 5f bb 5f b6 f7 bb 1c 04 91 39
       -0.0013157799 -0.0034037482 -0.007559582 0.00027659617
0002a0 3e 6d 9b bc cc cd 28 bb 3a f2 3a 3d 49 04 43 ba
       -0.01897299 -0.002575743 0.04564116 -0.0007439298
0002b0 4d 2e c6 bc 3f c4 04 ba 33 d2 9b bb 26 b1 f3 3c
       -0.024192 -0.00050646433 -0.0047552823 0.029747557
0002c0 39 84 ab bc 7d 27 56 bd 0b fe 5b 3d 51 b1 8a bd
       -0.020937072 -0.052283753 0.05370907 -0.06772102
0002d0 da 13 24 bd a1 e7 8f bd db 59 4f bd 21 fd 8f 3d
       -0.040057994 -0.070266016 -0.050622802 0.070307024
0002e0 06 1f be bb a3 ec bb 3d 38 9a a0 36 c3 27 9b b7
       -0.005802038 0.09175994 4.786325e-06 -1.8495955e-05
0002f0 62 11 55 b5 4c 7d 5a 3d 1f 4b 96 bc c8 5c 2d 38
       -7.937398e-07 0.05334215 -0.018346367 4.1332823e-05
000300 7d 3c 00 bd 10 df 9a 36 71 b6 1c 37 8d 00 12 bb
       -0.031307686 4.6155255e-06 9.3408025e-06 -0.002227816
000310 6c 4e 8a 37 43 f1 9b 35 b4 86 be b7 bd fa d8 3a
       1.64874e-05 1.1618616e-06 -2.2712491e-05 0.0016554218
000320 d9 a0 dc 35 64 ee 96 bb 3d 62 8a 37 02 20 1f 35
       1.643809e-06 -0.004606055 1.6496628e-05 5.9278693e-07
000330 a1 6f e8 3a e0 ae 4d b6 aa 89 95 37 3a e2 b4 39
       0.0017733463 -3.064917e-06 1.7826289e-05 0.00034500827
000340 54 58 32 b8 c7 c5 83 b5 17 d1 31 b6 e7 b1 cc b7
       -4.252077e-05 -9.817821e-07 -2.6496762e-06 -2.4401537e-05
000350 63 7f e1 b7 78 a4 a2 b4 62 65 cf 3d a7 b6 69 3d
       -2.688141e-05 -3.0294518e-07 0.10126759 0.057058956
000360 f2 ea a7 37 7b aa 3a 37 c3 9f 32 36 dc ab e2 37
       2.0017356e-05 1.1126157e-05 2.661706e-06 2.7021328e-05
000370 2d 23 95 37 bc f5 ce 3d f7 82 ff b6 ad a8 f3 b7
       1.7778564e-05 0.10105464 -7.6148385e-06 -2.9046403e-05
000380 cc 5a 77 37 c8 ad 93 3d e0 9e 19 37 78 0c 85 b6
       1.4743488e-05 0.072108805 9.156502e-06 -3.9651604e-06
000390 59 6a ae 3d 53 ab 93 3d 37 cf 04 bd 1f 8d 9e b7
       0.08516378 0.07210412 -0.032424178 -1.8900782e-05
0003a0 d8 d7 d0 36 a4 8b 8e 3a 3e 63 8c b6 66 35 1e b7
       6.2240106e-06 0.0010875356 -4.1838784e-06 -9.429967e-06
0003b0 9b c6 f9 bc 90 70 53 b9 d9 04 20 37 9c e6 62 b7
       -0.03049021 -0.00020164461 9.537872e-06 -1.3524343e-05
0003c0 c6 72 1b bd 4b 3d f1 3c d8 1f 78 bd 8d 68 25 3d
       -0.037951253 0.029448172 -0.060577244 0.04038291
0003d0 d4 41 3f bd 5f 63 76 bd 5f 42 0c bd cc 55 34 3d
       -0.046693638 -0.06015336 -0.034242984 0.044027135
0003e0 7d 5b 01 3c ef c2 00 bd 44 c1 2b bd e0 75 fa bc
       0.007895348 -0.031435903 -0.04193236 -0.030573785
0003f0 0a 76 b5 bc 4c e0 3c bd b3 85 73 bb 74 78 31 bd
       -0.022151012 -0.046112344 -0.0037158548 -0.043327764

linear1.bias f4 [128]
000000 63 06 1f 3e 43 02 ac 3d de c3 17 3f 21 6d b1 bd
       0.1552978 0.08398869 0.59283245 -0.08663393
000010 d6 02 0d 3e 6b 34 f3 bc 03 39 28 bc 72 e7 d4 bd
       0.13770613 -0.02968808 -0.010267499 -0.10395707
000020 1e 59 88 bd ea 43 80 ba 77 06 a7 bd cc 68 b5 b8
       -0.06657623 -0.0009785865 -0.0815553 -8.6502725e-05
000030 a9 80 ac bd 46 1f 62 3c cc 5c 32 bd 59 97 92 bd
       -0.084229775 0.0138014015 -0.04354553 -0.071577735
000040 49 c0 8c 3d 1b 9b c8 bc d2 20 b4 b9 9d ae 00 bd
       0.06872613 -0.024488023 -0.00034356728 -0.031416524
000050 e6 b8 5d bd d5 49 d1 bc ee 85 28 bd e6 51 c3 bd
       -0.05413141 -0.025547901 -0.04114335 -0.09537105
000060 3e 9b 9c bb e4 24 0d b8 6c e0 d1 bd ad 57 5b bd
       -0.0047792485 -3.3651377e-05 -0.10247883 -0.05355041
000070 9b 34 bd bc a4 6b 88 bd ab 5b b4 3d f3 9a 59 bc
       -0.023096373 -0.06661156 0.08806547 -0.013281572
000080 d3 62 ca ba a3 6d 99 3c d2 4f c4 bd b5 28 a4 bd
       -0.0015440829 0.018729037 -0.09585537 -0.08015577
000090 19 87 97 bd c7 e2 d6 bd 99 7f 84 bd e1 15 55 bc
       -0.07398815 -0.10492473 -0.0646965 -0.013005705
0000a0 a4 ef 9a 3c 77 e5 db bd bb be 95 bd de dd a4 bb
       0.018913098 -0.10737126 -0.073117696 -0.0050313314
0000b0 4a 1b 04 3e ae 8c 8a bc fd 9e ff b9 f7 0a 84 bd
       0.12901035 -0.016912784 -0.00048755846 -0.06447404
0000c0 9f 6c 47 bd 33 c9 ad bd f8 b8 55 bd fa 88 3a bd
       -0.048687574 -0.08485641 -0.052178353 -0.045540787
0000d0 81 7a 6b bd a3 40 3b b7 58 5e da ba ef d0 89 bd
       -0.057489876 -1.1161118e-05 -0.0016660197 -0.06729304
0000e0 b4 c3 74 3c 56 6a fb bd b9 70 07 3d 5f aa d8 b8
       0.014939237 -0.12276141 0.033066485 -0.00010331417
0000f0 20 bc 85 ba e5 be 91 b9 45 e0 ff bc c6 c5 85 bd
       -0.001020316 -0.00027798783 -0.03123487 -0.06531863
000100 48 03 4b bd 25 2c 41 bc 0b e8 cd bb 3e 56 5d be
       -0.049563676 -0.01179031 -0.006283765 -0.2161493
000110 4d de f9 bb 91 f0 a2 bd fe 74 2d b8 b5 31 f4 bc
       -0.0076253773 -0.07956041 -4.135537e-05 -0.029808858
000120 da 9c 47 bc 78 37 c8 bd 43 44 83 bd 2f df 00 3c
       -0.012183392 -0.09776205 -0.06409504 0.007865711
000130 2e a7 9d bc 0e 3e c2 bd 9f 84 97 bd 49 12 b6 bb
       -0.019244757 -0.09484492 -0.07398342 -0.005556379
000140 52 4f 05 bc 9f 9d 09 bd f5 9b 0f be 2e d9 0d bd
       -0.008136587 -0.033597585 -0.14024337 -0.034630947
000150 97 a1 83 bd e2 24 7c bc ad bc 88 bd 04 82 ea bd
       -0.06427305 -0.015389653 -0.06676612 -0.1145058
000160 f6 f7 f5 bc 39 3f 31 ba a9 3d 3a bc ae cc 21 3e
       -0.030025464 -0.0006761435 -0.01136724 0.15800735
000170 c5 fb 4f bd 02 24 2f 3f 40 0c 23 bd 8c c6 ad ba
       -0.050777216 0.6841432 -0.039806604 -0.0013258024
000180 03 28 26 bd 05 6c 96 bd f4 87 d3 3e c1 18 c6 bd
       -0.040565502 -0.07344822 0.41314662 -0.0967269
000190 6e 60 00 bd 8a c6 cb bd 38 7d 96 3e cf b3 4e bd
       -0.031341963 -0.09949978 0.2939241 -0.050464448
0001a0 ad e3 c3 3c 90 51 81 bb 7a 58 c4 3e 2e 9c 4d bc
       0.023912275 -0.0039464906 0.38348752 -0.012549443
0001b0 14 93 32 3d e0 1b 87 bd 81 cf 11 3c b6 89 af bb
       0.043597296 -0.065971136 0.00889957 -0.0053569926
0001c0 b8 36 9d bb 81 19 54 be 76 fb 92 3e f9 b1 ce 3e
       -0.0047977827 -0.20712854 0.28707474 0.40370157
0001d0 85 33 f8 bd 1b 96 ad bc 02 ac 22 bd d1 46 20 3f
       -0.121192016 -0.02118974 -0.03971482 0.6260806
0001e0 68 97 66 ba c6 b9 dc bc 44 90 ad bd db 02 8c 3c
       -0.0008796365 -0.026944052 -0.08474782 0.017091205
0001f0 ba ef 99 bd 88 4e 3a b9 3d f0 63 3b e0 b2 6d 3e
       -0.07516427 -0.00017767597 0.0034780644 0.23212767

linear2.weight f4 [64, 128]
000000 1f d5 97 b4 a1 14 94 b3 a5 eb 30 35 bd 19 00 80
       -2.8281008e-07 -6.8955394e-08 6.590802e-07 -9.233e-42
000010 8c bf 40 32 95 16 00 00 21 19 00 00 b2 0f 00 00
       1.1219424e-08 8.101e-42 9.015e-42 5.63e-42
000020 db e2 40 ad 02 ec 2a 8c aa 0b b8 b2 f4 7d 1a 23
       -1.09643085e-11 -1.3167345e-31 -2.1425723e-08 8.375028e-18
000030 f6 69 2b 33 60 a8 62 b1 11 15 00 00 4e 71 ac 32
       3.991041e-08 -3.2983039e-09 7.557e-42 2.007496e-08
000040 68 37 5c 33 74 bb ea 3a 2f 9e 86 8b bf 2b 1c 0a
       5.1273133e-08 0.0017908649 -5.185293e-32 7.5193545e-33
000050 5a cd e9 ba 8d 0b 00 00 31 20 00 80 e5 28 03 a0
       -0.0017837689 4.144e-42 -1.1548e-41 -1.1109662e-19
000060 04 19 00 00 a7 09 00 80 b1 b5 09 b0 8f 0c 00 00
       8.974e-42 -3.463e-42 -5.009851e-10 4.505e-42
000070 40 84 90 b9 22 14 00 80 84 9b f8 b0 be af 3f 31
       -0.00027564354 -7.222e-42 -1.8088575e-09 2.7894056e-09
000080 e1 a3 51 b2 ba 3f 85 b1 da 17 00 00 20 91 c1 1c
       -1.2202663e-08 -3.8780543e-09 8.556e-42 1.2809183e-21
000090 84 4a 13 14 6e 05 9b 29 90 b3 4e af b1 17 00 00
       7.436299e-27 6.8843247e-14 -1.8799384e-10 8.499e-42
0000a0 ac 95 c9 af 31 20 00 80 89 0e 00 00 df 16 00 80
       -3.6668035e-10 -1.1548e-41 5.214e-42 -8.205e-42
0000b0 9d d7 10 34 00 68 f8 ba 42 c4 90 33 ef e3 1f 24
       1.3489485e-07 -0.0018951893 6.7412216e-08 3.4670696e-17
0000c0 c2 32 6e af e9 1f 00 80 af f0 02 ba ad 18 00 80
       -2.1664007e-10 -1.1447e-41 -0.0004994971 -8.852e-42
0000d0 e6 7b 61 b2 12 dd 17 30 05 05 aa b2 b6 d1 27 87
       -1.3124895e-08 5.524764e-10 -1.9792887e-08 -1.2625312e-34
0000e0 42 33 29 36 75 70 80 2c d0 cf 35 b3 7b 6a 89 ab
       2.5212798e-06 3.650464e-12 -4.233135e-08 -9.76399e-13
0000f0 df 1d 00 80 7a 21 00 00 06 e8 d3 b0 db 0a 00 80
       -1.0716e-41 1.2009e-41 -1.5418216e-09 -3.894e-42
000100 5f bf 63 a6 42 07 00 00 96 1a 00 00 09 6b 09 99
       -7.90158e-16 2.604e-42 9.537e-42 -7.1043496e-24
000110 c8 08 c2 28 67 09 00 00 57 22 00 80 a2 a4 1b 85
       2.1542135e-14 3.373e-42 -1.2319e-41 -7.318303e-36
000120 bf 22 00 00 4f 55 28 2c a4 87 cb b6 30 74 c5 b2
       1.2465e-41 2.3921592e-12 -6.065662e-06 -2.2986654e-08
000130 b3 0a 00 00 48 a6 00 80 95 bd c3 31 1c 7e 3b 98
       3.838e-42 -5.965e-41 5.6968e-09 -2.4232852e-24
000140 5e 11 00 80 db 1f 00 80 3d 50 45 33 d5 06 00 80
       -6.23e-42 -1.1428e-41 4.5940613e-08 -2.451e-42
000150 7d 17 00 80 22 dc 49 33 26 3d 0e b3 9e 15 00 80
       -8.426e-42 4.699917e-08 -3.3117566e-08 -7.755e-42
000160 8b 18 00 80 96 1d 00 80 64 18 00 80 07 69 29 35
       -8.804e-42 -1.0613e-41 -8.75e-42 6.311024e-07
000170 44 fa 8c 31 ba 03 68 b6 09 fa d6 32 02 d2 df 00
       4.102988e-09 -3.4572863e-06 2.5026582e-08 2.0554652e-38
000180 24 5f 24 ac 64 3f 8d 31 88 73 1f 34 25 7b d6 33
       -2.3358615e-12 4.1108468e-09 1.4850059e-07 9.9875514e-08
000190 c3 ce eb 3a b3 14 00 00 1b e3 cf 32 84 24 00 00
       0.0017990697 7.425e-42 2.4201247e-08 1.31e-41
0001a0 21 95 37 33 2f 4c 31 b0 4a 85 4b b3 11 8c 1e 05
       4.274364e-08 -6.450049e-10 -4.7385846e-08 7.4548504e-36
0001b0 9a 1a 78 b1 a3 0a 82 31 b0 7f 0a 34 f9 0e 00 00
       -3.610387e-09 3.784707e-09 1.2898704e-07 5.371e-42
0001c0 e2 11 00 2f 8e 13 00 80 20 af 1e b4 1d 15 e0 34
       1.1647885e-10 -7.015e-42 -1.4778607e-07 4.1738613e-07
0001d0 f0 25 00 80 78 47 cc ba e5 0d 00 80 4f 89 87 b4
       -1.361e-41 -0.0015585264 -4.984e-42 -2.5245615e-07
0001e0 7a 15 ab b1 43 20 00 00 67 0d 00 00 31 c7 9b b1
       -4.9791966e-09 1.1573e-41 4.808e-42 -4.533739e-09
0001f0 73 4a b3 b2 4d 22 00 80 27 a8 50 32 91 5f 90 32
       -2.0872198e-08 -1.2305e-41 1.2145427e-08 1.6807265e-08
000200 e7 c8 39 3b 1d a8 c6 b9 71 90 da b8 dd 09 00 80
       0.0028348507 -0.00037890757 -0.00010421954 -3.538e-42
000210 46 f2 20 3b 6a 0b 00 80 e0 03 e8 3a 71 a6 9e 3a
       0.0024558469 -4.095e-42 0.001770135 0.0012104047
000220 86 0c eb ba 3b 1e 00 80 4f 65 4a ba 04 d4 21 35
       -0.001793281 -1.0845e-41 -0.00077207846 6.0285697e-07
000230 52 f2 22 b4 70 cb 22 3b e6 9f ea ba 88 cc 50 bb
       -1.5175581e-07 0.0024840496 -0.0017900437 -0.0031860191
000240 5c 89 23 3b 4b b9 e9 ba d8 17 eb 3a 6e 22 00 80
       0.0024953699 -0.0017831711 0.0017936183 -1.2351e-41
000250 f9 bd d1 b9 c7 fe ea 3a 05 0e 3b 30 9f 18 e6 3a
       -0.00040005127 0.0017928713 6.8050127e-10 0.0017554945
000260 05 c9 e9 ba 65 12 00 80 8c 51 7e 3a 2d 05 00 00
       -0.0017836398 -6.599e-42 0.00097014825 1.857e-42
000270 7e ce cd 39 c1 e5 c3 83 2d 65 28 3b 24 e2 1a 3a
       0.00039254496 -1.1513819e-36 0.002569507 0.00059083314
000280 3b d9 a7 ba 69 40 1f 3b fa de fd 3a 75 89 97 b9
       -0.0012805829 0.0024299866 0.001936882 -0.00028903378
000290 c4 12 00 00 c5 f1 88 38 90 24 00 80 ac 14 00 80
       6.732e-42 6.5300184e-05 -1.3116e-41 -7.416e-42
0002a0 71 56 cb 3a 85 0f 00 80 b0 b3 e8 ba c3 bc e4 ba
       0.0015513432 -5.567e-42 -0.0017753746 -0.0017451275
0002b0 41 37 cc ba 33 15 00 80 91 60 24 38 ca 89 6d 39
       -0.0015580432 -7.605e-42 3.919058e-05 0.00022653412
0002c0 7a f7 c8 30 40 1a 00 00 82 5b 7d 3a 09 19 00 80
       1.4622252e-09 9.417e-42 0.000966482 -8.981e-42
0002d0 5c 16 e9 3a 4e 66 d0 39 ba 90 36 3a 9f a5 98 b6
       0.0017783153 0.00039749074 0.0006964315 -4.549234e-06
0002e0 b9 de fc 3a 13 ff bf ba 79 9c 35 b8 a3 28 db 3a
       0.0019292451 -0.0014648162 -4.329949e-05 0.0016720485
0002f0 a4 6e ea 3a 3b a5 d9 3a 92 44 3b 3b 31 07 00 80
       0.0017885757 0.0016605029 0.0028574807 -2.58e-42
000300 6e 09 00 80 19 25 00 80 c0 17 00 00 7c 52 42 38
       -3.383e-42 -1.3308e-41 8.52e-42 4.6330024e-05
000310 44 22 00 80 b9 9f ea 3a a8 24 00 00 9c 0e 00 80
       -1.2292e-41 0.0017900384 1.315e-41 -5.241e-42
000320 65 15 00 00 82 ad f2 3a 3b d4 76 ba cb 29 fb 34
       7.675e-42 0.0018514844 -0.000941578 4.6782802e-07
000330 47 02 00 80 9e 9a f7 ba c6 cf 2f 3a 9f 1b 00 80
       -8.17e-43 -0.0018890684 0.0006706681 -9.909e-42
000340 e4 09 f6 3a 8e 1d 00 80 69 65 11 b3 f2 f2 fa a7
       0.0018771258 -1.0602e-41 -3.3852675e-08 -6.965234e-15
000350 c9 1b 00 80 c5 ce 01 3b 9f 6a fe 95 36 12 00 80
       -9.967e-42 0.0019807082 -1.02758e-25 -6.533e-42
000360 c1 9e ea 3a 90 a8 ea 3a c6 09 00 80 15 65 26 3b
       0.0017900096 0.0017903019 -3.506e-42 0.002538984
000370 0e cc eb ba c2 3e f1 b8 20 4b ea ba 95 54 f1 3a
       -0.001798989 -0.00011503465 -0.0017875172 0.0018412048
000380 15 22 00 00 c9 a2 eb ba b2 a6 b5 b8 58 09 ff b4
       1.2226e-41 -0.0017977591 -8.661802e-05 -4.750425e-07
000390 07 a3 eb ba 26 0e 00 00 5c f1 94 b8 e8 13 eb 3a
       -0.0017977663 5.076e-42 -7.1021466e-05 0.001793501
0003a0 ea a5 85 3a 56 7c 4e 3b 7d e2 66 b8 8f f9 df 3a
       0.0010196541 0.0031507215 -5.5047207e-05 0.0017087924
0003b0 da 91 fa 3a 35 74 ea 3a fc cf a5 ba ec ea e9 3a
       0.0019116953 0.0017887416 -0.0012650485 0.0017846501
0003c0 2a 79 9c a3 03 b6 a8 b0 16 76 78 b8 4e 92 a1 b8
       -1.6964869e-17 -1.227534e-09 -5.9237784e-05 -7.7043296e-05
0003d0 4f 1b 00 80 b8 eb ea ba 53 d4 e8 3a 84 1c 15 b9
       -9.796e-42 -0.0017923033 0.0017763473 -0.0001422037
0003e0 4a 2a 0b 3b b5 1a 00 80 58 a0 ea 3a b5 a4 93 36
       0.0021234923 -9.58e-42 0.0017900569 4.400116e-06
0003f0 d5 38 3e 3b 98 06 00 80 1f d9 8a 3b f0 ee 98 b7
       0.0029025574 -2.365e-42 0.0042373086 -1.8231076e-05

linear2.bias f4 [64]
000000 b5 71 b4 b6 fa c5 4f b9 68 1f b9 3c a2 19 00 80
       -5.3776553e-06 -0.0001981481 0.022597983 -9.195e-42
000010 03 0c 82 bb de 41 a6 bb 99 0a 00 80 28 bd 38 ba
       -0.003968717 -0.00507377 -3.802e-42 -0.00070472294
000020 d4 cf 69 3c 70 2f 8f 39 72 17 00 80 1e 28 32 ba
       0.0142707415 0.0002731043 -8.41e-42 -0.0006796139
000030 e6 35 34 bc 7f 1b 00 80 72 0c b2 3c d3 e8 e5 3d
       -0.0109991785 -9.864e-42 0.02173445 0.11226048
000040 bf 21 99 3e 60 11 00 80 21 1d 00 80 36 bd 6d 3d
       0.2990856 -6.233e-42 -1.045e-41 0.058041774
000050 85 18 00 80 64 18 00 80 a9 23 62 ba 30 7c a7 bc
       -8.796e-42 -8.75e-42 -0.00086265296 -0.02044496
000060 2b 1a 00 80 89 8e 34 3e e6 24 00 80 3e 09 00 80
       -9.387e-42 0.17632498 -1.3237e-41 -3.315e-42
000070 ce 3b a5 b9 ec 1e 00 80 28 08 9d b9 7f 5b 54 b7
       -0.0003151581 -1.1093e-41 -0.0002995145 -1.2657488e-05
000080 7e 61 7e 3d 40 bb be 3e 60 28 8d 3e c9 91 ef ba
       0.062104695 0.37252235 0.27569866 -0.00182777
000090 09 0e 00 80 37 0e 00 80 d6 40 44 bb d2 4f c6 bb
       -5.035e-42 -5.1e-42 -0.0029945872 -0.006051996
0000a0 f7 b2 a4 3c d3 5d a6 bb 90 13 00 80 a3 0a 00 80
       0.020104868 -0.0050771027 -7.018e-42 -3.816e-42
0000b0 21 22 00 80 db 67 85 3d 8f 54 8b 3d ec 5e e3 bd
       -1.2243e-41 0.065139495 0.06803238 -0.11102089
0000c0 7e 00 e6 bb aa 18 b0 bc eb 36 9b 3b 24 1f 00 80
       -0.0070191016 -0.021496136 0.0047367713 -1.1171e-41
0000d0 9b e2 72 b9 a6 f9 cc bc a3 74 40 3d c6 5d ef 3c
       -0.00023163336 -0.025021385 0.046986233 0.02921952
0000e0 11 a8 54 bc af 16 00 80 2b 21 00 80 09 89 f3 3c
       -0.012979523 -8.137e-42 -1.1898e-41 0.02972843
0000f0 2d d4 9f ba 7a bb a3 bb 46 0d 00 80 c6 a3 0a bb
       -0.0012193971 -0.004996714 -4.762e-42 -0.0021154745

linear3.weight f4 [32, 64]
000000 82 26 00 80 d7 23 00 80 0d 10 00 80 23 10 00 80
       -1.3814e-41 -1.2857e-41 -5.758e-42 -5.789e-42
000010 87 0b 00 80 a0 0a 00 80 2d 26 00 80 09 13 00 00
       -4.135e-42 -3.812e-42 -1.3695e-41 6.829e-42
000020 a0 1c 00 80 21 15 00 80 65 1f 00 80 e4 11 00 80
       -1.0269e-41 -7.58e-42 -1.1262e-41 -6.418e-42
000030 fb 16 00 80 27 24 00 80 6a 23 00 00 65 00 00 80
       -8.244e-42 -1.2969e-41 1.2704e-41 -1.42e-43
000040 4f 25 00 80 2e 11 00 80 a6 08 00 80 09 26 00 80
       -1.3384e-41 -6.163e-42 -3.102e-42 -1.3644e-41
000050 df 14 00 80 ab 00 00 00 36 11 00 80 de 0b 00 00
       -7.487e-42 2.4e-43 -6.174e-42 4.257e-42
000060 2d 25 00 00 7e 0e 00 80 13 23 00 80 f7 0f 00 00
       1.3336e-41 -5.199e-42 -1.2582e-41 5.727e-42
000070 96 1f 00 00 a2 1c 00 80 e6 0c 00 80 3e 03 00 80
       1.1331e-41 -1.0272e-41 -4.627e-42 -1.163e-42
000080 d2 23 00 80 58 11 00 80 e7 19 00 80 5c 10 00 80
       -1.285e-41 -6.222e-42 -9.292e-42 -5.869e-42
000090 9b 0b 00 80 03 0b 00 80 79 01 00 80 5f 04 00 80
       -4.163e-42 -3.95e-42 -5.28e-43 -1.568e-42
0000a0 27 15 00 80 40 24 00 00 08 23 00 80 81 19 00 80
       -7.588e-42 1.3004e-41 -1.2567e-41 -9.149e-42
0000b0 ec 02 00 80 20 15 00 00 e6 1f 00 00 66 0b 00 80
       -1.048e-42 7.578e-42 1.1443e-41 -4.089e-42
0000c0 5c 0d 00 80 bc 0c 00 80 67 22 00 00 94 0e 00 80
       -4.792e-42 -4.568e-42 1.2341e-41 -5.23e-42
0000d0 01 1d 00 80 36 0b 00 00 e8 24 00 80 de 09 00 80
       -1.0405e-41 4.022e-42 -1.324e-41 -3.54e-42
0000e0 78 25 00 00 44 1e 00 00 ca 0c 00 80 16 0e 00 80
       1.3441e-41 1.0857e-41 -4.588e-42 -5.053e-42
0000f0 ea 0d 00 80 ac 23 00 80 a5 20 00 80 7d 0b 00 80
       -4.991e-42 -1.2797e-41 -1.171e-41 -4.121e-42
000100 6a 3b 03 33 0e 03 41 35 18 f8 79 3d 37 0a 00 00
       3.055485e-08 7.190255e-07 0.061027616 3.664e-42
000110 c7 c5 33 83 02 d5 e8 3b 67 24 00 80 30 a4 96 36
       -5.283041e-37 0.0071054706 -1.3059e-41 4.4894623e-06
000120 b3 b4 fa ba 97 f4 39 34 c7 0b 00 00 0e 5b 15 36
       -0.0019127339 1.7318449e-07 4.225e-42 2.225573e-06
000130 bb e6 8d bc 9f 05 00 00 00 2e 92 3c 41 1a 3c 3d
       -0.017321935 2.016e-42 0.0178442 0.045923475
000140 9f b2 5e be 5c 0d 00 00 cf 05 00 00 12 a2 a1 bd
       -0.21747826 4.792e-42 2.084e-42 -0.078922406
000150 0c 08 00 80 c4 09 00 80 cc 62 be 31 59 14 00 80
       -2.887e-42 -3.503e-42 5.5409597e-09 -7.3e-42
000160 c3 14 00 00 fb 2f 29 be 0b 22 00 80 88 21 00 00
       7.448e-42 -0.1652221 -1.2212e-41 1.2029e-41
000170 b0 71 b6 36 e4 06 00 00 65 e8 a7 35 ca 64 88 37
       5.4372576e-06 2.472e-42 1.2510105e-06 1.6259397e-05
000180 b2 5a a9 bd 07 a7 7d be bc 16 fc 3d 42 dc 8c aa
       -0.08269252 -0.24770747 0.12309024 -2.502183e-13
000190 e2 0e 00 00 4c 13 00 80 25 1c 00 00 89 15 3e b9
       5.339e-42 -6.922e-42 1.0096e-41 -0.00018127834
0001a0 21 0d 8b 3c 2b 0f 00 80 02 1f 00 00 f6 0e 00 80
       0.016974034 -5.441e-42 1.1124e-41 -5.367e-42
0001b0 64 20 00 80 c6 ff 0f bb b2 87 5f 3d 5b 07 1f 3e
       -1.162e-41 -0.0021972521 0.05457277 0.1553015
0001c0 f4 77 8c 3b 04 c9 65 ba 2c aa 84 3a 0e 20 00 80
       0.0042867605 -0.00087656104 0.0010121516 -1.1499e-41
0001d0 8c 26 99 35 2d 51 2e 3a 70 54 5e bd c9 94 07 3d
       1.1410607e-06 0.00066496694 -0.054279745 0.033100877
0001e0 d0 34 a3 18 3d 20 00 80 3f 07 00 80 b3 e3 3c bd
       4.218784e-24 -1.1565e-41 -2.6e-42 -0.04611559
0001f0 b9 f2 0b b8 5e 6d ed 3a 87 19 00 00 7b cc 18 36
       -3.3366236e-05 0.0018114259 9.157e-42 2.2768788e-06
000200 55 64 41 36 5e 41 8c 39 76 7b f4 3e a6 13 00 80
       2.8817642e-06 0.00026751583 0.47750443 -7.049e-42
000210 ab aa 8f b9 b7 cc f5 3b c6 1c 00 80 5f 88 b2 38
       -0.00027402243 0.0075012106 -1.0322e-41 8.5131025e-05
000220 3b 77 57 3d d4 13 17 39 3d 20 00 80 b5 38 f5 38
       0.05260394 0.00014407869 -1.1565e-41 0.00011693073
000230 d0 a8 26 3d fd 08 00 00 60 ae 3f bd 90 c2 f4 bd
       0.040688336 3.224e-42 -0.046797156 -0.11951172
000240 e5 bb 9a 3e 56 1d 00 00 17 18 00 00 a7 ba 9f 3e
       0.30221477 1.0524e-41 8.642e-42 0.31197092
000250 68 0c 00 00 b6 06 00 00 47 ef 28 37 fe 11 3e a1
       4.45e-42 2.407e-42 1.0069291e-05 -6.4398316e-19
000260 66 20 00 00 be b8 98 3e 3d 24 00 00 aa 12 00 80
       1.1622e-41 0.29828447 1.3e-41 -6.695e-42
000270 78 1e b7 38 59 04 00 00 ae 41 86 38 68 5d 6b 39
       8.731795e-05 1.56e-42 6.401852e-05 0.00022446143
000280 21 c0 af 3e 50 5d 61 3e 5f fd 29 3e 05 df 8c 3a
       0.3432627 0.22008252 0.1660056 0.0010747617
000290 b7 18 00 00 aa 15 00 00 85 5c b2 bc 28 f1 89 3c
       8.866e-42 7.772e-42 -0.021772632 0.016838625
0002a0 4e 27 42 bd 45 bf 6d b4 81 04 00 00 49 0d 00 80
       -0.047400765 -2.2141928e-07 1.616e-42 -4.766e-42
0002b0 bc 1e 00 80 db e1 70 b9 86 78 85 bd c9 09 7b be
       -1.1025e-41 -0.00022972321 -0.06517129 -0.24515451
0002c0 f6 82 6e bd 22 3b 37 3c e6 2f 65 bc 02 0d 00 80
       -0.058230363 0.011183532 -0.013988471 -4.666e-42
0002d0 54 ba ba 38 81 63 31 bc 7d dd 85 3e ca 79 1e bd
       8.9038775e-05 -0.010826946 0.26145545 -0.038690366
0002e0 b0 ab 6c 3c 30 21 00 00 30 12 00 00 59 a1 93 3d
       0.01444523 1.1905e-41 6.524e-42 0.07208509
0002f0 ee 81 29 b8 44 d5 07 bd 71 0e 00 00 25 72 16 bc
       -4.0413746e-05 -0.03316237 5.18e-42 -0.009182488
000300 d6 26 00 00 a6 0f 00 80 1e 10 00 80 c4 0b 00 80
       1.3932e-41 -5.614e-42 -5.782e-42 -4.221e-42
000310 cd 11 00 80 ec 1e 00 80 c0 0a 00 80 2b 16 00 00
       -6.386e-42 -1.1093e-41 -3.856e-42 7.952e-42
000320 00 15 00 00 b4 0d 00 00 ef 15 00 00 31 0e 00 00
       7.533e-42 4.916e-42 7.868e-42 5.091e-42
000330 76 25 00 80 a7 22 00 80 2e 23 00 80 5a 17 00 80
       -1.3438e-41 -1.2431e-41 -1.262e-41 -8.377e-42
000340 b5 19 00 80 87 24 00 00 73 0d 00 80 75 08 00 80
       -9.222e-42 1.3104e-41 -4.825e-42 -3.034e-42
000350 3c 13 00 80 69 13 00 80 96 1b 00 00 9e 0e 00 00
       -6.9e-42 -6.963e-42 9.896e-42 5.244e-42
000360 7b 1b 00 00 96 1a 00 80 3a 0e 00 80 b3 0e 00 80
       9.858e-42 -9.537e-42 -5.104e-42 -5.273e-42
000370 a1 26 00 00 e6 1a 00 80 75 09 00 80 1d 1d 00 80
       1.3857e-41 -9.65e-42 -3.393e-42 -1.0444e-41
000380 27 15 00 80 ce 0b 00 80 0d 0e 00 80 03 22 00 80
       -7.588e-42 -4.235e-42 -5.04e-42 -1.2201e-41
000390 26 1b 00 80 4e 0d 00 80 1a 11 00 00 d6 22 00 80
       -9.739e-42 -4.773e-42 6.135e-42 -1.2497e-41
0003a0 12 1f 00 80 64 16 00 80 74 09 00 80 5a 11 00 00
       -1.1146e-41 -8.032e-42 -3.391e-42 6.225e-42
0003b0 1c 1d 00 80 f9 19 00 80 d6 26 00 80 44 18 00 80
       -1.0442e-41 -9.317e-42 -1.3932e-41 -8.705e-42
0003c0 a5 18 00 80 ad 16 00 00 db 10 00 80 47 1a 00 00
       -8.841e-42 8.135e-42 -6.047e-42 9.427e-42
0003d0 ef 0b 00 00 1f 20 00 00 b2 24 00 80 56 25 00 00
       4.281e-42 1.1523e-41 -1.3164e-41 1.3394e-41
0003e0 31 1b 00 80 8a 0c 00 00 41 0c 00 00 0c 1d 00 00
       -9.754e-42 4.498e-42 4.396e-42 1.042e-41
0003f0 de 08 00 80 73 26 00 00 56 0d 00 80 3b 12 00 80
       -3.181e-42 1.3793e-41 -4.784e-42 -6.54e-42

linear3.bias f4 [32]
000000 91 13 00 80 68 02 f5 bc 29 09 5d 3e bb 10 00 80
       -7.019e-42 -0.029908374 0.21585526 -6.002e-42
000010 20 16 00 80 5e c0 46 3d 11 20 00 80 1f 0c 62 be
       -7.937e-42 0.0485233 -1.1503e-41 -0.22074936
000020 e2 ba cb 35 1d df 1c 3d e7 09 00 80 5c 66 c4 3d
       1.5179069e-06 0.038298715 -3.552e-42 0.09589836
000030 aa aa 3b 38 b2 ac 39 bc b2 7d 6b 3d ec 85 85 bc
       4.4743218e-05 -0.011332678 0.05749292 -0.01629921
000040 9a ab 3a 3d bf 1f 00 80 76 a7 87 3d e3 d9 58 3e
       0.04557381 -1.1388e-41 0.066237375 0.21176867
000050 2d f0 7d bc 43 5d 99 bb cb 47 bc bd ae c9 58 ba
       -0.015499157 -0.004680307 -0.09193381 -0.0008269799
000060 d8 66 01 3e 72 17 52 3d 16 a0 66 b7 0d 87 e2 3b
       0.12636888 0.05129189 -1.3746341e-05 0.006913072
000070 36 bf 34 3e 6f 0d 00 80 6e 24 00 80 32 17 00 80
       0.17651066 -4.819e-42 -1.3069e-41 -8.321e-42

linear4.weight f4 [16, 32]
000000 4d 13 00 80 3f 91 f3 bc 1c a5 91 3e 2e 13 00 00
       -6.924e-42 -0.029732345 0.2844628 6.88e-42
000010 cc 0b 00 80 d4 52 08 bd b3 0a 00 80 42 10 0e bf
       -4.232e-42 -0.033282116 -3.838e-42 -0.5549356
000020 c1 56 c0 37 1e cd 79 3e 3c 0c 00 80 e7 4b 75 3d
       2.2928582e-05 0.24394652 -4.389e-42 0.05988684
000030 25 25 24 38 b6 71 21 3b a1 c3 c4 bd 53 ae 81 3d
       3.913524e-05 0.0024634427 -0.09607626 0.06332078
000040 24 d3 1b bd 25 0a 00 80 d5 59 55 bc 88 f7 40 3e
       -0.038043156 -3.639e-42 -0.013021906 0.18844426
000050 38 07 1c 3a 0b 5a 05 bc 2b 0e b8 3d ad 2b e1 b8
       0.00059520034 -0.008139144 0.08987077 -0.00010736971
000060 76 68 1c bc 80 ae a5 3d f5 54 99 af 8b 5d 4a bf
       -0.00954639 0.08089924 -2.7890903e-10 -0.79048985
000070 24 ed 72 3e f0 0a 00 00 0c 22 00 80 7c 11 00 00
       0.23723274 3.924e-42 -1.2214e-41 6.272e-42
000080 bb 21 00 80 98 51 27 3d 32 c3 1c bd 6a 24 00 80
       -1.21e-41 0.0408493 -0.03827209 -1.3063e-41
000090 d7 23 00 80 d8 ae 12 be 02 0b 00 00 40 26 00 80
       -1.2857e-41 -0.1432451 3.949e-42 -1.3722e-41
0000a0 b7 5f 9f b5 4c 93 f9 bd 2f 0f 00 80 d6 81 2f 3e
       -1.187428e-06 -0.12186298 -5.447e-42 0.17139372
0000b0 71 7b 62 3b b9 9c 3f 3a cf 29 b8 3d a6 65 ea 3c
       0.003455844 0.0007309425 0.08992349 0.028612923
0000c0 ab f0 24 3d 9d 0f 00 00 e8 55 17 3d 5e 0b 2a 3d
       0.04026858 5.601e-42 0.03694716 0.041514747
0000d0 0a 38 5d 83 10 ef be b4 d2 23 89 bc ae 19 00 00
       -6.5010393e-37 -3.55642e-07 -0.016740713 9.212e-42
0000e0 df 67 6d 3d 57 54 63 bd e8 1b 00 00 31 23 80 3e
       0.057960387 -0.055500355 1.0011e-41 0.2502685
0000f0 fc 50 0a bd af 07 00 00 42 0a 00 80 9a 0e 00 00
       -0.03376864 2.756e-42 -3.68e-42 5.238e-42
000100 bd 25 00 00 e3 f2 a4 bb 05 bc 73 3d 88 17 00 80
       1.3538e-41 -0.005033837 0.05950548 -8.441e-42
000110 a6 17 00 00 11 f1 8e bd b7 19 00 80 29 88 a6 bc
       8.483e-42 -0.069795735 -9.225e-42 -0.020328598
000120 8d f5 9e 34 29 f3 b2 bd 27 0e 00 00 a8 2e 2c be
       2.9608455e-07 -0.08737785 5.077e-42 -0.16814673
000130 b9 ed d0 3a 49 e3 ac 9b ab 24 b4 bc 1f c0 80 bc
       0.0015939987 -2.8601893e-22 -0.02199014 -0.01571661
000140 3d 51 33 bc eb 13 00 00 09 0d 97 bc 4b a3 31 3e
       -0.010944662 7.145e-42 -0.018438833 0.17347448
000150 2f 64 99 b1 0e a6 21 af 79 85 e8 bc 0c 84 03 ba
       -4.4642756e-09 -1.4701859e-10 -0.028383957 -0.000501693
000160 b4 c5 df 3c c4 56 41 3b 67 1f 00 80 8d 89 71 bd
       0.027315952 0.002950118 -1.1265e-41 -0.05896907
000170 a2 8c 58 3d b6 0a 00 00 5b 07 00 00 d2 20 00 80
       0.052868493 3.842e-42 2.639e-42 -1.1774e-41
000180 1e 22 00 80 a9 18 00 00 d4 0f 00 80 08 13 00 80
       -1.2239e-41 8.846e-42 -5.678e-42 -6.827e-42
000190 59 0c 00 80 7d 13 00 80 11 04 00 80 39 17 00 80
       -4.43e-42 -6.991e-42 -1.459e-42 -8.331e-42
0001a0 3e 22 00 00 0b 26 00 80 a8 16 00 00 a2 15 00 80
       1.2284e-41 -1.3647e-41 8.128e-42 -7.76e-42
0001b0 72 04 00 00 be 0e 00 00 ec 1e 00 80 bc 15 00 80
       1.595e-42 5.289e-42 -1.1093e-41 -7.797e-42
0001c0 0e 12 00 00 48 0f 00 80 f9 10 00 80 56 25 00 00
       6.477e-42 -5.482e-42 -6.089e-42 1.3394e-41
0001d0 45 0e 00 80 63 18 00 80 93 19 00 80 48 21 00 00
       -5.119e-42 -8.748e-42 -9.174e-42 1.1939e-41
0001e0 2b 1f 00 80 cb 26 00 80 88 22 00 00 30 01 00 80
       -1.1181e-41 -1.3916e-41 1.2387e-41 -4.26e-43
0001f0 21 1a 00 80 d1 13 00 80 d0 19 00 80 83 09 00 80
       -9.373e-42 -7.109e-42 -9.26e-42 -3.412e-42
000200 c4 23 00 00 ed 60 72 3d 0e 89 8f bd 77 12 00 80
       1.283e-41 0.059174467 -0.07008563 -6.624e-42
000210 5e 24 00 80 1b 6e e6 3c 59 26 00 00 78 41 33 bf
       -1.3046e-41 0.028128674 1.3757e-41 -0.7002177
000220 04 44 a0 36 6b 60 c0 3d 1b 19 00 00 a9 91 e7 3f
       4.7762896e-06 0.0939339 9.006e-42 1.8091327
000230 77 f7 59 38 a5 f2 05 39 1d 8a b3 bd 0e 80 66 bb
       5.19673e-05 0.0001277426 -0.087665774 -0.0035171541
000240 8f af fb bd 1e 1a 00 80 92 40 66 3b 73 ce 19 be
       -0.122893445 -9.369e-42 0.0035133702 -0.1502016
000250 09 04 1e bb 8e 45 41 3c 6e 12 bd 3e cf 05 c2 3c
       -0.0024111292 0.011796368 0.36928123 0.02368441
000260 83 06 47 be 53 2e cd bc 8e c0 3c 35 ce 67 0b 3e
       -0.19436078 -0.025046503 7.031566e-07 0.13613817
000270 f9 31 01 be de 07 00 80 24 03 00 80 40 15 00 00
       -0.1261672 -2.822e-42 -1.127e-42 7.623e-42
000280 4a 19 00 00 c0 20 00 00 93 1b 00 80 76 25 00 80
       9.072e-42 1.1748e-41 -9.892e-42 -1.3438e-41
000290 ac 20 00 80 63 12 00 80 92 0a 00 80 11 17 00 80
       -1.172e-41 -6.596e-42 -3.792e-42 -8.275e-42
0002a0 08 08 00 80 db 23 00 80 27 1e 00 00 f5 19 00 80
       -2.881e-42 -1.2863e-41 1.0817e-41 -9.312e-42
0002b0 50 02 00 00 44 0c 00 80 cb 09 00 80 ae 20 00 00
       8.3e-43 -4.4e-42 -3.513e-42 1.1723e-41
0002c0 75 10 00 80 dd 12 00 00 b9 0c 00 00 0c 19 00 00
       -5.904e-42 6.767e-42 4.564e-42 8.985e-42
0002d0 54 02 00 80 dc 03 00 80 b0 23 00 80 41 17 00 80
       -8.35e-43 -1.384e-42 -1.2802e-41 -8.342e-42
0002e0 07 00 00 00 96 1a 00 80 7d 1a 00 00 7c 07 00 80
       1e-44 -9.537e-42 9.502e-42 -2.685e-42
0002f0 d6 20 00 80 3f 18 00 80 b5 13 00 00 69 1f 00 80
       -1.178e-41 -8.698e-42 7.07e-42 -1.1268e-41
000300 5d 1d 00 00 3c 26 00 80 c8 16 00 80 1d 1d 00 80
       1.0534e-41 -1.3716e-41 -8.172e-42 -1.0444e-41
000310 39 1a 00 80 20 0a 00 80 2d 1f 00 00 2d 0b 00 80
       -9.407e-42 -3.632e-42 1.1184e-41 -4.009e-42
000320 14 0a 00 80 96 12 00 80 74 15 00 80 95 1a 00 80
       -3.615e-42 -6.667e-42 -7.696e-42 -9.536e-42
000330 18 1f 00 80 59 08 00 00 5e 19 00 80 d6 07 00 80
       -1.1154e-41 2.995e-42 -9.1e-42 -2.811e-42
000340 94 1a 00 80 cf 19 00 80 6f 20 00 80 2a 11 00 80
       -9.534e-42 -9.258e-42 -1.1635e-41 -6.157e-42
000350 3c 08 00 00 f0 0c 00 80 3b 1d 00 80 bb 16 00 80
       2.954e-42 -4.641e-42 -1.0486e-41 -8.154e-42
000360 80 0d 00 80 bb 17 00 00 c8 18 00 80 e0 09 00 80
       -4.843e-42 8.513e-42 -8.89e-42 -3.542e-42
000370 8e 18 00 80 38 24 00 80 7e 08 00 00 90 0a 00 80
       -8.809e-42 -1.2993e-41 3.046e-42 -3.789e-42
000380 d0 1f 00 80 e2 56 96 bd 8e 67 aa 3e 3d 1d 00 00
       -1.1412e-41 -0.0734079 0.3328213 1.0489e-41
000390 cd 0d 00 80 3d 4b dd bd 8a 0c 00 80 1a 03 0d bf
       -4.951e-42 -0.10805366 -4.498e-42 -0.5508286
0003a0 59 3b 8d 37 44 e7 64 3e 9c 02 00 00 53 e9 7b 3d
       1.6836146e-05 0.22353846 9.36e-43 0.061501812
0003b0 c3 a3 4c 38 85 e9 93 ba 22 c8 9d bd 2b f3 85 3d
       4.8789905e-05 -0.0011284804 -0.07704188 0.06540521
0003c0 1c 84 00 bd a3 16 00 80 65 49 89 3c bd a4 9e 3e
       -0.03137599 -8.12e-42 0.01675863 0.3098506
0003d0 26 23 95 3a b6 f0 d1 3b ae dd 06 3e 3c 7c 46 bb
       0.0011378273 0.006406869 0.13170502 -0.0030286452
0003e0 12 9e 63 3d 93 2e 31 3d a3 ec e7 b0 e2 3f 28 bf
       0.05557067 0.043257307 -1.6874718e-09 -0.6572248
0003f0 44 fc 97 3e 8c 11 00 00 37 26 00 80 3f 03 00 00
       0.2968465 6.295e-42 -1.3709e-41 1.164e-42

linear4.bias f4 [16]
000000 bb 83 a4 3e 4c 3a 04 3c dc 6c f8 3c 87 0e 00 80
       0.32131752 0.00807054 0.030325346 -5.211e-42
000010 53 43 fe 3d 9c 23 00 80 dd 08 00 80 be 54 a3 3e
       0.12415185 -1.2774e-41 -3.18e-42 0.3190059
000020 af 4c a5 3e ba 7e 96 3e ff 07 00 80 ff 11 00 80
       0.32285067 0.2939356 -2.868e-42 -6.456e-42
000030 85 1d 00 80 03 2b a7 36 8b 40 fb bb c8 84 f5 bd
       -1.059e-41 4.981995e-06 -0.007667606 -0.11988217

linear5.weight f4 [4, 16]
000000 7e 81 a7 3e e7 15 b3 bd 31 97 e1 3d 8c 16 00 00
       0.32715982 -0.08744412 0.110151656 8.088e-42
000010 75 20 09 bf d6 12 00 80 3f 0b 00 00 a7 9c ca 3e
       -0.5356515 -6.757e-42 4.034e-42 0.3957264
000020 63 35 87 3f 4b 62 89 3e 40 17 00 80 53 1f 00 80
       1.0563167 0.26832804 -8.34e-42 -1.1237e-41
000030 fe 1f 00 00 ea 19 9f 35 92 f6 30 3e ee a2 ab be
       1.1477e-41 1.1853965e-06 0.17281559 -0.33522743
000040 4e 8c 1b bf ad 01 85 3e 12 6c 37 3d ee 0a 00 80
       -0.6076096 0.2597784 0.0447808 -3.921e-42
000050 a8 06 6c 3f c2 14 00 00 c9 07 00 80 25 c3 e0 be
       0.92197657 7.447e-42 -2.793e-42 -0.43898883
000060 ff 2e 8d bd 37 a6 69 bf 91 1e 00 80 8d 20 00 00
       -0.068937294 -0.9126925 -1.0965e-41 1.1677e-41
000070 d4 1a 00 00 55 cf a4 b8 62 f7 4a 3f 2f 21 16 bf
       9.624e-42 -7.858748e-05 0.79283726 -0.58644384
000080 60 2c 6d be ec e4 7d ba 44 c9 20 bb f0 12 00 00
       -0.23161459 -0.0009685296 -0.0024534026 6.793e-42
000090 fe cb 53 bf ac 07 00 00 47 16 00 80 e4 b9 bd be
       -0.8273314 2.752e-42 -7.992e-42 -0.37055886
0000a0 74 e0 32 be f6 51 28 3c 6e 1a 00 80 32 21 00 80
       -0.17468435 0.010273447 -9.481e-42 -1.1908e-41
0000b0 9a 23 00 80 98 b3 85 b8 06 05 e7 bb 6d 5a 92 3f
       -1.2771e-41 -6.375386e-05 -0.0070501594 1.1433846
0000c0 2d da 6d 3e cb 71 e3 bd 58 59 ac bb ff 16 00 80
       0.23227759 -0.11105689 -0.005259674 -8.25e-42
0000d0 4d 1b 69 3f 5b 20 00 00 68 0d 00 80 05 58 25 3e
       0.9105728 1.1607e-41 -4.809e-42 0.16146858
0000e0 76 3c 2f bf 7d cc d9 3e f4 1b 00 80 40 0d 00 00
       -0.6845163 0.42538825 -1.0028e-41 4.753e-42
0000f0 bc 0a 00 00 b3 66 67 38 9c 55 6a bf 3a 9c c5 bd
       3.851e-42 5.5170338e-05 -0.9153688 -0.096489385

linear5.bias f4 [4]
000000 03 cb 92 3e b3 f9 80 be 98 8d 83 be 8b a7 c0 3e
       0.2867051 -0.25190505 -0.25693965 0.37627825
