checkpoints/dnnAE_5.pt (torch, 230343 bytes, 10 tensors)

linear1.weight f4 [128, 358]
000000 41 9d 8f bb f9 8e f8 ba 0f fe e3 b2 dc 6f 03 39
       -0.00438276 -0.0018963508 -2.654181e-08 0.00012534804
000010 72 42 18 b3 bf 55 b4 b4 23 b6 85 32 3e 68 c3 32
       -3.545069e-08 -3.359e-07 1.5566064e-08 2.2748392e-08
000020 c3 2f 85 32 f3 84 8b b3 a6 b7 94 b3 83 16 f3 31
       1.5504957e-08 -6.496875e-08 -6.9251925e-08 7.07479e-09
000030 fa 0c 4e bb 1f 49 a3 b9 13 47 9a 34 9c c7 24 b5
       -0.003144084 -0.00031144262 2.873645e-07 -6.138523e-07
000040 50 8f 9b b3 b2 11 8b 33 60 50 f3 33 2f ca be b4
       -7.243818e-08 6.475911e-08 1.13301894e-07 -3.5537366e-07
000050 fd c0 cd b3 d5 7e 28 b5 6b 39 c2 b3 e3 b9 e9 b3
       -9.581161e-08 -6.276944e-07 -9.044273e-08 -1.08837206e-07
000060 a1 95 7e b3 56 23 61 33 ce 04 4b b3 b6 b1 2a b3
       -5.927507e-08 5.2419033e-08 -4.726899e-08 -3.9742837e-08
000070 76 fb 1b 33 9b 23 93 b5 ad 62 ce 34 06 06 a0 b4
       3.6317452e-08 -1.0962716e-06 3.8442286e-07 -2.9806705e-07
000080 60 59 7c b4 9f a8 99 3a 38 c5 a7 34 23 ff 9a b4
       -2.3501843e-07 0.0011723227 3.124967e-07 -2.8870372e-07
000090 46 45 ba b4 84 aa 9f 34 e5 44 90 b3 4f 9c 08 33
       -3.4695603e-07 2.9740124e-07 -6.7180544e-08 3.180713e-08
0000a0 1e f3 80 34 91 c6 14 35 5d 99 c6 b9 18 2e 39 34
       2.401875e-07 5.542325e-07 -0.00037879767 1.7246236e-07
0000b0 99 7b 95 34 5d eb 8f b2 63 08 38 b1 3f 97 28 35
       2.7843342e-07 -1.6754422e-08 -2.6780291e-09 6.280497e-07
0000c0 90 a5 81 32 86 46 d8 b2 02 1d b0 35 d3 21 73 35
       1.5092866e-08 -2.517778e-08 1.3121464e-06 9.0573775e-07
0000d0 13 7f 6d b5 84 23 2e 35 18 46 e2 b4 13 58 93 b5
       -8.84743e-07 6.4871733e-07 -4.214678e-07 -1.0977986e-06
0000e0 b4 2e 0b b5 b9 85 d7 b4 82 9a 04 35 50 4f 0a b5
       -5.1849497e-07 -4.0144167e-07 4.939867e-07 -5.152442e-07
0000f0 64 cc fd 34 55 d3 ea b4 d5 55 a9 b4 2a da 83 3a
       4.7273636e-07 -4.373966e-07 -3.1541154e-07 0.0010059525
000100 db 07 92 33 53 72 0b b5 55 38 0b b5 8e 5c bb b4
       6.800084e-08 -5.19479e-07 -5.186351e-07 -3.4898807e-07
000110 42 58 6c b2 0b c0 60 b4 c0 ea 22 b5 89 50 ff b1
       -1.37570755e-08 -2.093149e-07 -6.069131e-07 -7.4306326e-09
000120 16 a5 17 33 0c 3b f9 33 a8 0e b8 3a 69 7a af 3a
       3.5307572e-08 1.16057066e-07 0.0014042454 0.0013387921
000130 b2 d3 98 3a 59 68 86 3a 87 b1 d0 3a f8 76 4e 38
       0.001165977 0.0010254487 0.0015922048 4.9225026e-05
000140 a4 d2 1d b4 b7 6c 11 3b 6e 5e 8b b4 96 9d e5 b6
       -1.4698395e-07 0.0022190043 -2.5959474e-07 -6.8430772e-06
000150 33 e5 40 b9 50 c7 d7 b8 4c 0f de b6 0a a5 88 b8
       -0.0001839593 -0.00010289124 -6.6178964e-06 -6.515726e-05
000160 e4 18 09 b7 d4 6f 32 32 a8 0c 02 ba 5d 45 c6 b7
       -8.171632e-06 1.038639e-08 -0.00049609924 -2.363574e-05
000170 61 cb 91 b3 61 15 34 b6 9e a7 df b2 8e 2b 7d 35
       -6.789083e-08 -2.6834534e-06 -2.603684e-08 9.4313225e-07
000180 8d 4f d6 33 24 41 ba 33 78 9d b7 33 14 1c 95 ba
       9.979622e-08 8.673149e-08 8.550245e-08 -0.0011376166
000190 ff bb 14 33 82 1c 79 b4 04 42 1a b2 b2 35 82 37
       3.4629917e-08 -2.3200303e-07 -8.97899e-09 1.5522211e-05
0001a0 97 2a b2 33 34 e2 4e 33 99 2b 7e 38 72 ce 15 b5
       8.296518e-08 4.8168843e-08 6.0598923e-05 -5.5807243e-07
0001b0 89 3c 9b b3 19 c3 ec b4 87 b8 34 b3 66 55 80 b4
       -7.228761e-08 -4.4100378e-07 -4.2077342e-08 -2.3903993e-07
0001c0 60 16 22 bb 2c 7a 1d 38 45 3e a5 b5 54 5b ad b4
       -0.0024732575 3.75455e-05 -1.2311581e-06 -3.229021e-07
0001d0 8e d5 ac b5 42 8b 09 b4 d8 cb a4 b4 3c 53 6a b3
       -1.2877151e-06 -1.2809781e-07 -3.0695696e-07 -5.4558072e-08
0001e0 77 85 3c 30 57 8f 2f b4 b0 5d 3e 34 3a 22 dd 34
       6.8583667e-10 -1.6350292e-07 1.7729212e-07 4.118936e-07
0001f0 5b 53 a3 39 fe e0 47 b6 62 c4 05 34 05 17 19 34
       0.00031151887 -2.9784273e-06 1.2458034e-07 1.425761e-07
000200 26 25 41 34 e6 88 bb b2 06 03 5f 31 6a 1f 3b b3
       1.798804e-07 -2.183192e-08 3.245249e-09 -4.35679e-08
000210 3c c1 d7 b4 dd a4 f4 ba d5 86 97 b2 db 58 4f b3
       -4.0187467e-07 -0.0018664856 -1.7640028e-08 -4.8276757e-08
000220 ef 04 d2 b3 c3 19 38 39 5a fb 68 34 ef 9b 12 34
       -9.7797844e-08 0.00017557204 2.1698125e-07 1.3654038e-07
000230 8d ec 04 b4 d3 93 a1 32 bf a5 10 34 27 34 a6 32
       -1.2379515e-07 1.881009e-08 1.3471343e-07 1.934866e-08
000240 c1 17 eb 32 2d 6f aa 30 67 61 f1 b3 42 85 0e b3
       2.7368403e-08 1.2400726e-09 -1.12401544e-07 -3.318315e-08
000250 8e 6f 88 32 e2 92 b8 b3 cb ce c6 b3 d3 32 f8 b3
       1.5883213e-08 -8.5948855e-08 -9.257709e-08 -1.1557645e-07
000260 37 fc 71 b4 57 a7 6b b1 8a c5 09 34 3d 5f b6 b3
       -2.2536629e-07 -3.4292122e-09 1.2830984e-07 -8.492359e-08
000270 4e 87 4d 31 c6 6c 94 b3 00 e2 7b b2 61 28 d0 32
       2.9908338e-09 -6.911573e-08 -1.4661509e-08 2.423275e-08
000280 1b 84 a0 32 28 38 f5 b3 81 bc 1b 32 f8 c8 2e 33
       1.8686526e-08 -1.1418916e-07 9.065048e-09 4.0695312e-08
000290 47 6b f5 38 09 ed f7 35 98 56 31 32 56 0f a4 b1
       0.00011702492 1.847192e-06 1.0322445e-08 -4.7747717e-09
0002a0 de 62 df 3a 43 86 aa ba 06 27 d4 31 2b 36 1e ba
       0.0017043015 -0.0013009984 6.1744485e-09 -0.00060352933
0002b0 cf db 37 33 15 6b 82 33 0f 56 80 34 f3 ea 1a bb
       4.2807923e-08 6.073075e-08 2.3904474e-07 -0.0023638576
0002c0 09 6f 99 37 b2 db 9e b2 4c 94 ca 31 8c a8 a6 b2
       1.8290726e-05 -1.8493527e-08 5.895833e-09 -1.940159e-08
0002d0 94 db 18 b3 9b 75 7e 3a 05 c0 d2 34 f3 2a 10 b2
       -3.5589963e-08 0.00097068556 3.925526e-07 -8.391669e-09
0002e0 ee 2f 18 b5 3d 1d d3 32 77 7a ab 3a cb 4c 3f 3b
       -5.669416e-07 2.4576929e-08 0.0013082762 0.002919006
0002f0 d5 e3 e7 ba b2 66 6c b2 6b 72 9c b2 6c 8c eb 3a
       -0.0017691801 -1.3760358e-08 -1.8212821e-08 0.0017970926
000300 c6 5a 3f bb e2 38 f1 ba f5 b7 ec 3a e0 3a 24 35
       -0.0029198392 -0.0018403793 0.0018060195 6.1180435e-07
000310 95 16 fa 3a 0e a4 fa ba fc 65 cc 3a cb 3a 0e b9
       0.0019080216 -0.0019122378 0.0015594359 -0.00013564077
000320 90 b9 f5 ba 5b 26 7b 3a 74 39 da ba db 3f 48 bb
       -0.0018747319 0.00095806055 -0.0016649202 -0.003055564
000330 21 09 92 ba 53 c5 ef ba f4 53 eb ba d9 13 2e ba
       -0.0011141637 -0.001829306 -0.0017954097 -0.0006640531
000340 a8 02 ec ba 7b 5e dd ba 40 12 e1 3a ff 02 f6 ba
       -0.0018006163 -0.0016889119 0.0017171577 -0.0018769203
000350 b0 c4 f6 3a 90 8a 00 3b 60 9e dd b3 e1 88 cf b8
       0.0018826928 0.001961384 -1.0319923e-07 -9.896025e-05
000360 33 8c fc 3a a5 b3 f0 ba 1e 57 c7 ba 73 28 f4 ba
       0.0019267857 -0.0018364085 -0.0015208458 -0.0018627777
000370 a3 d1 ea ba 2e 87 ea 33 39 fd 81 b9 96 6e d5 3a
       -0.001791526 1.0921063e-07 -0.00024793463 0.0016283568
000380 b5 d3 c8 ba 02 95 0f 38 dc 7f 3a 3a 85 b6 de ba
       -0.0015321883 3.423263e-05 0.00071143894 -0.0016991651
000390 cd 1f d7 b5 0f c0 03 35 50 5d 0b 31 d4 a6 b1 ba
       -1.6028004e-06 4.9080785e-07 2.0280204e-09 -0.0013553747
0003a0 b0 f4 e3 3a 64 fb 50 bb b6 ea 03 bb e7 82 00 3b
       0.0017391648 -0.0031888122 -0.0020128912 0.0019609274
0003b0 4e 13 00 3b c1 4e 17 ba 44 37 f6 ba e4 c1 e5 3a
       0.0019542756 -0.0005771928 -0.0018784781 0.0017529097
0003c0 71 d1 ba b4 c5 45 08 3b 48 31 37 3a 1e 9a c5 3a
       -3.4797588e-07 0.002079354 0.00069882395 0.0015075838
0003d0 58 8f 5f 3a 41 68 31 ba 0c 83 4a 34 2e d2 47 33
       0.0008528135 -0.0006767549 1.886039e-07 4.6524455e-08
0003e0 00 55 d5 3a e1 02 fa 33 c9 a5 8d 3a b2 02 9f 34
       0.0016275942 1.1642056e-07 0.0010806854 2.961802e-07
0003f0 7e 63 c8 33 32 93 2b 3a 53 ed 35 32 1a a5 8c 35
       9.331323e-08 0.0006545066 1.0589548e-08 1.0478864e-06

linear1.bias f4 [128]
000000 3f 35 57 ba 95 16 68 3d 3d b1 93 ba 23 4e d5 b9
       -0.00082095334 0.05666216 -0.0011268031 -0.00040684742
000010 a0 99 47 3f e3 8c b4 38 21 0c 81 3b f2 b6 09 ba
       0.7796879 8.609311e-05 0.0039382135 -0.0005253396
000020 73 33 a5 bb b3 e3 bc 3b 73 25 43 bc cd 28 96 bc
       -0.0050415336 0.0057644485 -0.011910784 -0.018330002
000030 36 1a fe 3b 51 d1 5b 3c b8 86 03 ba 9f ff df 3c
       0.0077545894 0.013416604 -0.0005017328 0.02734357
000040 d2 74 8f bc 53 5d b6 bb 2e 16 4c bb 4c 5c ac 3d
       -0.017511759 -0.0055653243 -0.003114115 0.08416042
000050 3d b3 ac b9 b1 d5 49 bc ba fb 16 bc ea ee 10 bb
       -0.0003293994 -0.012319014 -0.00921529 -0.002211506
000060 03 1e 18 bb 87 2c f0 3b 78 10 de 39 a5 86 81 bb
       -0.0023211248 0.007329527 0.0004235541 -0.0039528185
000070 2a c5 12 3c 3f fc ae 3a 1d 81 25 bb 5c 27 47 bc
       0.00895814 0.0013350322 -0.002525396 -0.01215538
000080 31 15 8a 3b a3 f6 ca b8 76 3f d0 bb c9 ca 32 3a
       0.004213952 -9.67805e-05 -0.0063552214 0.00068203785
000090 c5 10 8e bc 03 48 45 ba 79 54 e9 ba 9d 44 7f bb
       -0.01734198 -0.0007525684 -0.0017801664 -0.0038950809
0000a0 a6 69 4a bc 95 c4 f2 38 1e 30 22 3a 06 b9 2e 3d
       -0.01235429 0.000115760755 0.00061869796 0.04265692
0000b0 48 b7 42 3d 95 f1 4b 3b f7 8e 15 3c b8 d8 89 bc
       0.047538072 0.0031119336 0.009128324 -0.016826972
0000c0 2a 40 68 3b 13 94 d1 3a f3 eb 43 bb e9 2d ce bb
       0.0035438635 0.0015989564 -0.0029895275 -0.006292094
0000d0 f5 65 fd bb 37 a4 fe ba 4f 44 bc 3c ce af 43 3a
       -0.0077331015 -0.0019427602 0.02298179 0.00074648566
0000e0 b8 ed 9b bc 27 67 47 bc 80 2a fe ba 4d de 86 bc
       -0.019034252 -0.0121705895 -0.0019391328 -0.016463423
0000f0 e7 42 95 ba 20 ea 97 bc 16 41 00 3d 83 cc 3f bc
       -0.0011387736 -0.018544257 0.03131207 -0.011706474
000100 d7 a3 e2 38 1c a5 6d 3c 6d 9a a6 ba e1 ce fb bc
       0.00010807037 0.014504697 -0.0012710817 -0.030738296
000110 cb c6 68 3b 3d 0a 5c 3e d8 7f 37 3f ea b7 a1 bc
       0.003551888 0.2148828 0.7167945 -0.019741017
000120 74 2a 41 bc 65 53 4f 3e 21 75 3c bb f1 d8 0f bb
       -0.011789907 0.20246656 -0.0028756338 -0.0021949376
000130 56 b5 d5 ba a2 1b 6a ba 5c 80 5d 38 ee 3d 87 bc
       -0.0016304653 -0.0008930509 5.281005e-05 -0.016509023
000140 2b a7 14 bc 6c b0 f9 3c 23 c2 87 bb fb 69 83 ba
       -0.009073059 0.030479632 -0.004143016 -0.0010026091
000150 c6 4c 71 3b 62 6a a3 3b 48 82 1f ba 7f 8c 49 3b
       0.0036819442 0.004987047 -0.0006084782 0.0030753908
000160 e6 05 85 bc 1a cc ef 3c f0 a5 98 3c ff d2 a9 3b
       -0.016238164 0.029272128 0.018633813 0.0051826234
000170 58 d2 00 bd e7 9c 75 bc d6 ac 25 3b 0b 15 d9 3d
       -0.0314506 -0.014991022 0.002528002 0.10599717
000180 83 5c 59 bc bf dc 06 3c 07 85 ba 3b 30 eb 9c 3d
       -0.013266685 0.008231341 0.0056921276 0.07662046
000190 47 61 b7 b9 eb 8d 33 3c 72 ae 85 bc df 5f 50 bc
       -0.00034976957 0.010959129 -0.016318534 -0.01271817
0001a0 1b 10 c7 38 4c d0 c5 3d 08 7a 74 3e 31 54 c6 3b
       9.492059e-05 0.0965887 0.23874676 0.006052517
0001b0 e2 21 dd 3e 3e d4 9e bc d5 7a 8c 3c 94 76 9a ba
       0.43189913 -0.019388314 0.017148415 -0.0011784607
0001c0 61 10 30 bb 0c 38 19 3c 8c c7 51 bc 20 2b 66 ba
       -0.0026865231 0.0093517415 -0.012803923 -0.000878023
0001d0 45 b9 4f 39 3c 24 6e bc fc dc 09 3d 40 51 00 bd
       0.00019810077 -0.014535006 0.033658013 -0.031327486
0001e0 f9 d0 ce 3b 28 2e 86 bb 16 d8 8b bc 13 e3 01 b9
       0.0063115326 -0.0040948577 -0.017070811 -0.0001238699
0001f0 64 83 0f bc 2e ad 70 3c 12 d6 28 3e 02 32 5b bc
       -0.008759353 0.014689727 0.16487911 -0.013378622

linear2.weight f4 [64, 128]
000000 42 64 a3 36 ef 9b 40 bb b1 1a 8f 35 fa fb 42 38
       4.86945e-06 -0.0029389819 1.0662098e-06 4.6487876e-05
000010 58 3c 32 bd 05 d8 46 bc 09 eb 87 3a be 9b d5 a8
       -0.04351458 -0.012136464 0.0010369729 -2.3715293e-14
000020 63 b8 6e 35 f2 2a 2e 3c ab fa e3 bc 97 e0 47 b7
       8.8930227e-07 0.010630356 -0.027829489 -1.1913616e-05
000030 7e 18 0d bc bd 26 2e bd 69 db c9 36 87 e9 13 bc
       -0.008611796 -0.042517412 6.0158095e-06 -0.009027845
000040 0c 0d 7b bb 21 1c 30 30 49 dc 24 37 d4 7d 00 3c
       -0.0038307337 6.40684e-10 9.826451e-06 0.0078425
000050 d3 a9 10 38 d5 2b 4a bc f5 23 13 bc cc 53 10 33
       3.4490437e-05 -0.012339552 -0.008980741 3.3603825e-08
000060 2f 28 32 bc 69 f5 ee 3b ac 9a ca 38 fe 66 b7 36
       -0.010873838 0.0072924388 9.6609205e-05 5.465815e-06
000070 ee b1 d3 bc c8 4c ad 39 06 3c 58 39 e4 2b e1 bc
       -0.02584168 0.00033054338 0.00020621726 -0.027486749
000080 9a 9e 39 bc 7e 1a bc 37 9a a4 08 3a 62 78 16 3a
       -0.011329317 2.2423683e-05 0.0005212516 0.00057399843
000090 c9 56 c3 b4 12 1f 33 bc 79 04 4f bc a3 69 78 39
       -3.6384725e-07 -0.010932701 -0.012635344 0.00023690476
0000a0 9c 10 80 bc dc 89 12 3b 71 d8 08 3a 31 b8 a8 3c
       -0.01563292 0.0022360003 0.00052202406 0.020595642
0000b0 56 d5 3a 3b 7f bf 12 bb 56 ae 94 3b 63 43 83 bc
       0.0028508506 -0.0022391973 0.004537384 -0.016023343
0000c0 12 d0 33 bc b4 46 64 bb 5d 71 90 37 96 94 de 35
       -0.010974901 -0.0034832181 1.7218927e-05 1.6583533e-06
0000d0 1b 28 1d 34 84 44 f6 36 00 58 16 3c f4 c3 d7 ba
       1.4636355e-07 7.3393476e-06 0.009176254 -0.0016461597
0000e0 8d 33 e1 22 43 fc e0 bc ac a4 02 38 04 a8 87 bc
       6.1040954e-18 -0.027464038 3.1147778e-05 -0.016559608
0000f0 ba f0 64 37 36 73 8e bc ba 4f a0 3c 6b af 71 b7
       1.36459075e-05 -0.017388921 0.019569267 -1.4405562e-05
000100 94 2b 3b bc 7b 20 d8 bb 67 f6 ad 20 fa 8a 6e 39
       -0.011423964 -0.006595669 2.9470395e-19 0.00022749222
000110 90 d1 3d bc f6 dd 72 3c b6 c9 18 bd 3a 30 be b9
       -0.011585608 0.014823427 -0.03730174 -0.00036275556
000120 de 55 e5 bc fa c6 6d 3c 96 d2 32 bc 9a d4 30 bc
       -0.027995046 0.014512772 -0.010914465 -0.010792876
000130 42 96 9a b1 d2 72 44 38 54 c0 44 39 45 62 a8 bc
       -4.4990722e-09 4.6836976e-05 0.00018763664 -0.020554671
000140 9c ff c3 26 26 9a ee bb c1 61 37 b9 29 a6 d2 34
       1.3600126e-15 -0.0072815595 -0.00017488656 3.9236446e-07
000150 4a 2c 4a bc f2 a5 36 bc 0c c7 e7 bb 0e c6 61 3a
       -0.012339661 -0.011147963 -0.007073289 0.00086125813
000160 09 e7 85 bc de ef a1 bc 14 52 d9 39 81 8f 26 bc
       -0.016345518 -0.019767698 0.00041450618 -0.01016605
000170 04 5a 61 39 cf 1d f1 b7 c6 3a 4a bc 6f 29 35 3c
       0.00021491206 -2.874332e-05 -0.012343114 0.011057242
000180 8f 46 d3 bc b4 3e 16 bc 4b ac de 3b e7 6d 63 3a
       -0.02579048 -0.009170223 0.0067954413 0.00086757395
000190 51 98 8a 34 cd d3 32 bc c3 e5 83 bc 51 6e da bc
       2.5815328e-07 -0.010914755 -0.01610077 -0.026663931
0001a0 d9 17 d4 39 e0 7e 1b 3c 46 81 53 3e bf 7f 28 3a
       0.0004045356 0.009490699 0.20654783 0.0006427727
0001b0 a8 20 ef bc 70 60 67 ae b6 88 72 bc 64 9d 00 35
       -0.029190376 -5.2608973e-11 -0.014803102 4.791275e-07
0001c0 8b 49 3d b8 61 ac 30 bc e9 3a 2c 39 cd 68 ed b2
       -4.5129604e-05 -0.010783286 0.00016425144 -2.763809e-08
0001d0 7a 1f cf 39 da 47 17 bb a7 2d b9 3c a1 6b 58 39
       0.0003950557 -0.0023083598 0.022604777 0.0002063946
0001e0 ac 74 1b 3c 07 4e 0b 39 23 7e ea 34 7f 57 46 bc
       0.009488266 0.0001328514 4.3677673e-07 -0.012105822
0001f0 cc 1a 90 38 af f4 21 3b 31 b8 38 3e e9 7d 08 b7
       6.8714464e-05 0.0024712493 0.18039013 -8.135547e-06
000200 67 0f 00 80 60 15 00 80 f9 0e 00 80 f0 21 00 80
       -5.525e-42 -7.668e-42 -5.371e-42 -1.2174e-41
000210 7c 06 00 80 39 09 00 80 3f 20 00 80 09 18 00 80
       -2.326e-42 -3.308e-42 -1.1568e-41 -8.622e-42
000220 2a 17 00 80 ce 23 00 80 2c 24 00 80 32 22 00 00
       -8.31e-42 -1.2844e-41 -1.2976e-41 1.2267e-41
000230 c8 1d 00 80 64 13 00 80 83 18 00 80 ca 13 00 80
       -1.0683e-41 -6.956e-42 -8.793e-42 -7.099e-42
000240 63 12 00 80 71 01 00 80 4c 22 00 80 0a 24 00 80
       -6.596e-42 -5.17e-43 -1.2303e-41 -1.2928e-41
000250 98 17 00 80 c8 0a 00 80 32 10 00 00 aa 04 00 00
       -8.464e-42 -3.868e-42 5.81e-42 1.673e-42
000260 40 0c 00 80 6d 20 00 80 ff 1f 00 80 44 22 00 80
       -4.394e-42 -1.1632e-41 -1.1478e-41 -1.2292e-41
000270 22 11 00 80 a9 20 00 00 f0 10 00 80 58 1c 00 80
       -6.146e-42 1.1716e-41 -6.076e-42 -1.0168e-41
000280 30 1d 00 00 f6 0a 00 80 b9 0f 00 80 3c 09 00 80
       1.047e-41 -3.932e-42 -5.64e-42 -3.313e-42
000290 17 08 00 80 1b 16 00 80 fb 1b 00 00 8b 1e 00 80
       -2.902e-42 -7.93e-42 1.0038e-41 -1.0957e-41
0002a0 5a 24 00 80 01 1d 00 80 ba 10 00 00 1c 18 00 80
       -1.304e-41 -1.0405e-41 6e-42 -8.649e-42
0002b0 9a 26 00 80 87 1d 00 80 51 08 00 00 00 13 00 80
       -1.3848e-41 -1.0592e-41 2.983e-42 -6.816e-42
0002c0 cc 0a 00 80 f7 17 00 00 38 23 00 80 d4 23 00 00
       -3.873e-42 8.597e-42 -1.2634e-41 1.2853e-41
0002d0 f2 0f 00 00 3b 1e 00 80 82 0a 00 80 45 0d 00 80
       5.72e-42 -1.0845e-41 -3.77e-42 -4.76e-42
0002e0 a7 1e 00 00 63 22 00 80 be 1d 00 80 eb 0c 00 80
       1.0996e-41 -1.2336e-41 -1.067e-41 -4.634e-42
0002f0 8a 0d 00 80 10 12 00 80 2d 24 00 80 c0 23 00 00
       -4.857e-42 -6.48e-42 -1.2977e-41 1.2825e-41
000300 c5 0c 00 80 86 0e 00 80 f2 0d 00 80 ad 04 00 00
       -4.581e-42 -5.21e-42 -5.003e-42 1.677e-42
000310 7a 1d 00 80 fd 0b 00 00 9e 1b 00 80 54 14 00 80
       -1.0574e-41 4.3e-42 -9.907e-42 -7.292e-42
000320 c7 21 00 80 a4 0c 00 80 5e 14 00 00 49 1d 00 80
       -1.2117e-41 -4.535e-42 7.306e-42 -1.0506e-41
000330 0e 1c 00 80 ad 16 00 80 df 1b 00 00 8d 1a 00 80
       -1.0064e-41 -8.135e-42 9.998e-42 -9.525e-42
000340 2b 0e 00 80 b2 21 00 80 ec 0e 00 80 16 23 00 80
       -5.083e-42 -1.2088e-41 -5.353e-42 -1.2586e-41
000350 fd 21 00 80 b4 1f 00 80 94 0b 00 80 9f 0f 00 80
       -1.2193e-41 -1.1373e-41 -4.153e-42 -5.604e-42
000360 d5 0c 00 80 8a 1e 00 80 e7 09 00 00 e4 05 00 00
       -4.603e-42 -1.0955e-41 3.552e-42 2.113e-42
000370 7b 22 00 80 96 12 00 80 01 24 00 80 1d 0a 00 80
       -1.2369e-41 -6.667e-42 -1.2916e-41 -3.628e-42
000380 ea 17 00 80 9b 26 00 80 32 22 00 80 c7 13 00 00
       -8.579e-42 -1.3849e-41 -1.2267e-41 7.095e-42
000390 ae 0e 00 00 3b 21 00 80 01 15 00 00 c1 1a 00 00
       5.266e-42 -1.1921e-41 7.535e-42 9.597e-42
0003a0 bd 12 00 80 88 0f 00 80 f3 15 00 80 50 16 00 00
       -6.722e-42 -5.572e-42 -7.874e-42 8.004e-42
0003b0 9e 14 00 00 7d 0e 00 00 e5 18 00 80 5f 14 00 80
       7.396e-42 5.197e-42 -8.93e-42 -7.308e-42
0003c0 cc 0a 00 00 bb 04 00 00 af 20 00 80 83 1b 00 80
       3.873e-42 1.697e-42 -1.1725e-41 -9.87e-42
0003d0 20 0e 00 80 2e 1e 00 00 26 26 00 00 99 19 00 80
       -5.067e-42 1.0826e-41 1.3685e-41 -9.183e-42
0003e0 82 24 00 80 f7 18 00 80 47 24 00 80 36 0d 00 80
       -1.3097e-41 -8.956e-42 -1.3014e-41 -4.739e-42
0003f0 de 03 00 00 93 25 00 00 b9 1a 00 80 0c 0d 00 00
       1.387e-42 1.3479e-41 -9.586e-42 4.68e-42

linear2.bias f4 [64]
000000 97 bc 94 3d 1b 24 00 80 bf 13 00 80 59 de 20 bc
       0.07262533 -1.2952e-41 -7.084e-42 -0.009818637
000010 85 24 00 80 61 28 a4 b9 29 25 00 80 63 a1 73 bc
       -1.3101e-41 -0.00031310602 -1.333e-41 -0.014870021
000020 eb 19 00 80 11 67 4c 3d d8 0e 00 80 fe 86 e4 bb
       -9.298e-42 0.04990298 -5.325e-42 -0.0069741
000030 79 35 1f bc 80 63 03 3d 08 24 52 3a 7e 19 00 80
       -0.009717339 0.032077312 0.00080162333 -9.145e-42
000040 2b 92 8a 3c cd 1e 00 80 6e 68 5a ba 90 26 00 80
       0.016915401 -1.1049e-41 -0.0008331601 -1.3834e-41
000050 c4 07 1d 3e 8f 0a dd b8 91 1c 00 80 35 1a 73 3e
       0.15334994 -0.00010540068 -1.0248e-41 0.23740466
000060 48 0a 00 80 f9 0c 8d 35 0b 9f 29 3d 3e 76 82 bb
       -3.688e-42 1.0509094e-06 0.04141144 -0.0039813807
000070 59 b4 02 bb e3 0a 35 38 a4 11 00 80 da 0d 15 bc
       -0.0019943921 4.3163902e-05 -6.328e-42 -0.009097541
000080 b8 89 74 3d c9 f9 5d 3e f2 ae bc 3d 9b 30 c7 bb
       0.05970165 0.21677317 0.09213056 -0.0060787923
000090 f6 7c 7c b9 c8 1d 00 80 4b 1e 00 80 2d ac 90 b9
       -0.00024079144 -1.0683e-41 -1.0867e-41 -0.000275941
0000a0 36 78 59 3c 9f 0b 00 80 b4 1a 00 80 f0 48 72 3c
       0.013273289 -4.169e-42 -9.579e-42 0.0147878975
0000b0 44 13 00 80 2c 15 00 80 f2 12 00 80 74 16 92 3d
       -6.911e-42 -7.595e-42 -6.796e-42 0.07133189
0000c0 fd fa 56 bb 48 47 09 3e 54 10 df 3c 94 0a 00 80
       -0.003280341 0.13406098 0.027229466 -3.795e-42
0000d0 3f 22 00 80 e1 1e e5 3d 00 73 06 3d 44 21 00 80
       -1.2285e-41 0.1118753 0.032824516 -1.1933e-41
0000e0 96 11 00 80 8e 12 00 80 93 3c 01 3e 3e 84 20 ba
       -6.309e-42 -6.656e-42 0.12620763 -0.0006123221
0000f0 bb 32 d4 3c be 74 15 3e 07 f5 82 bb d9 f6 2c 3e
       0.025903096 0.14595315 -0.0039964947 0.1689104

linear3.weight f4 [32, 64]
000000 b8 12 00 80 68 10 00 00 c1 1b 00 80 76 25 00 80
       -6.715e-42 5.885e-42 -9.956e-42 -1.3438e-41
000010 34 10 00 80 8d 10 00 00 99 0d 00 80 34 1e 00 80
       -5.813e-42 5.937e-42 -4.878e-42 -1.0835e-41
000020 47 21 00 00 84 1c 00 80 2c 14 00 00 d5 1b 00 00
       1.1938e-41 -1.023e-41 7.236e-42 9.984e-42
000030 2f 25 00 80 b4 1b 00 00 21 19 00 80 1c 22 00 80
       -1.3339e-41 9.938e-42 -9.015e-42 -1.2236e-41
000040 25 22 00 80 1b 23 00 80 bc 17 00 80 da 23 00 00
       -1.2249e-41 -1.2593e-41 -8.514e-42 1.2861e-41
000050 54 14 00 80 a5 09 00 80 4a 1e 00 80 1b 0d 00 80
       -7.292e-42 -3.46e-42 -1.0866e-41 -4.701e-42
000060 b5 1d 00 80 72 22 00 80 62 20 00 80 05 05 00 80
       -1.0657e-41 -1.2357e-41 -1.1617e-41 -1.8e-42
000070 2e 07 00 80 cd 0b 00 80 29 02 00 00 a9 22 00 80
       -2.576e-42 -4.233e-42 7.75e-43 -1.2434e-41
000080 1a 1f 00 80 0f 0d 00 80 6e 04 00 80 38 22 00 80
       -1.1157e-41 -4.685e-42 -1.589e-42 -1.2275e-41
000090 ed 1d 00 80 c6 20 00 80 de 09 00 80 13 17 00 80
       -1.0735e-41 -1.1757e-41 -3.54e-42 -8.277e-42
0000a0 6c 18 00 80 99 0a 00 00 9e 1c 00 00 10 0b 00 80
       -8.761e-42 3.802e-42 1.0266e-41 -3.968e-42
0000b0 15 21 00 80 75 01 00 80 53 21 00 80 be 24 00 80
       -1.1868e-41 -5.23e-43 -1.1954e-41 -1.318e-41
0000c0 10 12 00 80 cd 23 00 80 6b 1f 00 00 c3 23 00 00
       -6.48e-42 -1.2843e-41 1.127e-41 1.2829e-41
0000d0 5a 11 00 80 bc 0b 00 80 70 1d 00 80 e0 11 00 00
       -6.225e-42 -4.21e-42 -1.056e-41 6.412e-42
0000e0 fd 20 00 80 cc 12 00 80 6a 21 00 80 96 1b 00 80
       -1.1834e-41 -6.743e-42 -1.1987e-41 -9.896e-42
0000f0 7b 16 00 80 f4 0c 00 80 72 0e 00 80 cb 1f 00 80
       -8.064e-42 -4.647e-42 -5.182e-42 -1.1405e-41
000100 ee 7c 96 3c a8 06 00 80 14 1c 00 00 6f a8 34 ba
       0.018370118 -2.388e-42 1.0073e-41 -0.00068915536
000110 79 18 00 80 99 8e ab b5 de 26 00 80 4b e9 95 35
       -8.779e-42 -1.2781994e-06 -1.3943e-41 1.1169262e-06
000120 f8 13 00 80 5f 1a 5a 3c 9a 06 00 80 fb 2b 29 b8
       -7.163e-42 0.013311951 -2.368e-42 -4.03337e-05
000130 5c 12 00 00 b6 35 4e 3c 05 24 46 b8 c9 07 00 00
       6.586e-42 0.012586048 -4.7240424e-05 2.793e-42
000140 31 29 e1 bb 75 07 00 00 f2 ae be a3 02 02 00 80
       -0.0068713655 2.675e-42 -2.0673933e-17 -7.2e-43
000150 93 92 8f 3c 2e 21 0a 36 c8 14 00 80 2a a2 6d bd
       0.017525947 2.0582916e-06 -7.455e-42 -0.05801598
000160 ad 08 00 80 d2 9f ec 37 4f 74 68 bc f0 45 3a 34
       -3.112e-42 2.8207814e-05 -0.014187886 1.7348043e-07
000170 84 10 00 00 f1 d0 bf ba bd 14 00 80 85 75 05 bb
       5.925e-42 -0.0014634413 -7.44e-42 -0.0020364237
000180 12 07 2c bc 6b 68 c8 3d f1 da ec 38 98 4f 1d 33
       -0.010499733 0.09785541 0.00011294138 3.66268e-08
000190 a5 ea 96 b1 a7 12 00 80 96 0b 00 80 f8 57 a4 37
       -4.3922506e-09 -6.691e-42 -4.156e-42 1.9591287e-05
0001a0 1b 24 f2 3b 24 1a 00 00 95 1f 00 80 03 81 df b3
       0.007389558 9.377e-42 -1.133e-41 -1.0407714e-07
0001b0 46 26 00 00 9e 16 00 00 3d 14 00 00 94 ab b1 bc
       1.373e-41 8.114e-42 7.26e-42 -0.02168826
0001c0 0b 20 c5 32 f8 d9 4b 3b 08 9f 12 3a 5e 23 00 80
       2.294839e-08 0.0031105261 0.00055931555 -1.2687e-41
0001d0 38 12 00 80 87 3a 20 3c 2d 89 ab bb e8 17 00 80
       -6.536e-42 0.009779579 -0.0052348585 -8.576e-42
0001e0 26 15 00 00 7a 04 00 80 a8 5b db bb 85 54 b6 35
       7.587e-42 -1.606e-42 -0.006694276 1.3584655e-06
0001f0 18 99 d6 ba 1f 64 15 bd 45 4e 59 a3 4d 65 88 3d
       -0.001637253 -0.036472436 -1.1780168e-17 0.066599466
000200 49 22 33 3e fc 15 00 80 64 1c 00 00 bb 19 a7 3c
       0.17493547 -7.887e-42 1.0185e-41 0.020398011
000210 55 1f 00 80 fa ae c7 ba 97 19 00 00 05 60 c5 3b
       -1.124e-41 -0.0015234642 9.18e-42 0.0060234093
000220 9e 0f 00 80 4e a9 1a 3c ba 0f 00 80 f4 5e fb bb
       -5.602e-42 0.009439779 -5.642e-42 -0.0076712314
000230 55 06 11 2d d9 82 29 3c 27 be cc bb b6 1d 00 00
       8.243702e-12 0.010346138 -0.006248254 1.0658e-41
000240 95 a3 f8 bc 47 12 00 80 9e 47 04 b7 ea 19 00 80
       -0.03035144 -6.557e-42 -7.884488e-06 -9.296e-42
000250 49 b6 3a 3e ea 7e 08 37 7b 09 00 80 c3 bf 56 be
       0.18233599 8.135781e-06 -3.401e-42 -0.20971589
000260 69 22 00 80 2f a7 b7 37 83 ee 37 bd 9d 49 70 b6
       -1.2344e-41 2.1893151e-05 -0.044905197 -3.5805635e-06
000270 42 74 44 36 57 25 92 3c 15 1a 00 00 52 2a 2d bc
       2.9273947e-06 0.01784007 9.356e-42 -0.010569172
000280 61 ce 7d bd c3 05 21 3f d0 03 56 3d a5 a8 44 3a
       -0.061964396 0.62899417 0.05224973 0.00075019366
000290 01 09 96 39 0b 25 00 00 c4 20 00 80 5c 3b 0d b9
       0.00028616938 1.3289e-41 -1.1754e-41 -0.00013468921
0002a0 40 94 3d 3c 48 15 00 00 51 1c 00 00 84 ce 00 bc
       0.01157099 7.634e-42 1.0158e-41 -0.007861737
0002b0 ae 0c 00 80 ba 1c 00 00 da 16 00 00 92 0f 85 bd
       -4.549e-42 1.0305e-41 8.198e-42 -0.064971104
0002c0 ed 26 80 37 7f 79 b0 3d a5 89 81 3c c6 0c 00 80
       1.5276915e-05 0.086169235 0.015812704 -4.582e-42
0002d0 98 16 00 00 51 8c fb 3d 9f a5 25 bd 06 22 00 80
       8.105e-42 0.122826226 -0.04044115 -1.2205e-41
0002e0 a6 0d 00 00 96 0a 00 80 e5 59 84 bd ff 46 08 ba
       4.896e-42 -3.798e-42 -0.064624585 -0.00051985675
0002f0 75 8b aa 3b 78 a5 19 be 9c ba dc b5 d4 5c eb 3e
       0.005204613 -0.15004528 -1.6445588e-06 0.4596926
000300 ff ba 08 b9 ea 20 00 80 d3 1e 00 80 35 aa 0a b4
       -0.00013039632 -1.1807e-41 -1.1058e-41 -1.2914172e-07
000310 64 0f 00 00 6e c6 1a ba 93 1d 00 80 f6 20 fc ba
       5.521e-42 -0.0005904202 -1.0609e-41 -0.0019235897
000320 60 18 00 00 b7 b3 fb b9 35 03 00 00 df 8a 8c b9
       8.744e-42 -0.0004800835 1.15e-42 -0.00026806348
000330 a6 4f d8 3a 54 37 1c ba 78 4b 2c 37 75 1c 00 80
       0.0016503229 -0.0005959172 1.026957e-05 -1.0208e-41
000340 d1 7e 83 b2 5c 16 00 80 94 ac 76 3a ca 0a 00 00
       -1.5308077e-08 -8.021e-42 0.00094098714 3.87e-42
000350 9b 80 8e b8 f0 77 31 b4 5e 1d 00 80 f2 9b 05 38
       -6.795042e-05 -1.6528043e-07 -1.0535e-41 3.1854906e-05
000360 ce 0a 00 00 eb f0 49 3a dd 85 84 b3 d5 c3 eb 3a
       3.876e-42 0.0007703441 -6.1710786e-08 0.001798744
000370 03 3e 4f b9 82 11 20 b6 49 0f 00 00 56 8d a4 04
       -0.0001976416 -2.3852049e-06 5.483e-42 3.868601e-36
000380 2a fb d4 35 c4 0b 2c ba bb f2 b5 b8 0a 67 9f 3a
       1.5868329e-06 -0.00065630325 -8.675965e-05 0.0012161445
000390 b1 85 13 a1 06 1d 00 80 12 26 00 00 a3 cc f0 b9
       -4.9982476e-19 -1.0412e-41 1.3657e-41 -0.00045928833
0003a0 db fb a1 39 51 0e 00 80 bb 1f 00 80 f2 62 d3 39
       0.0003089596 -5.136e-42 -1.1383e-41 0.00040318776
0003b0 93 1c 00 80 89 05 00 80 a4 26 00 80 cf 7d 94 b4
       -1.025e-41 -1.986e-42 -1.3862e-41 -2.7658686e-07
0003c0 e4 16 00 00 1f 03 13 b9 99 01 38 b7 b6 26 00 80
       8.212e-42 -0.00014020175 -1.0967627e-05 -1.3887e-41
0003d0 a3 0a 00 80 ba 83 85 b8 32 b5 4a 35 da 22 00 80
       -3.816e-42 -6.36647e-05 7.551454e-07 -1.2502e-41
0003e0 e2 23 00 80 b4 0a 00 80 52 c3 2a b7 1e 45 3b ba
       -1.2872e-41 -3.84e-42 -1.0178266e-05 -0.0007143783
0003f0 fc 3d 21 b5 b2 54 a9 37 21 4f 2f ba 84 20 e2 b9
       -6.0067373e-07 2.018581e-05 -0.00066875113 -0.00043130305

linear3.bias f4 [32]
000000 07 09 00 80 17 b0 f0 3b 4b 0e 2c 3e ef 55 d1 b9
       -3.238e-42 0.0073452103 0.16802327 -0.00039927612
000010 73 27 02 3e a4 f5 25 3d 67 44 a7 3d cb 6d 83 3d
       0.12710361 0.040517464 0.081673436 0.06417426
000020 72 0e 00 80 42 e6 ff 3c 07 33 21 3e a8 af 88 3d
       -5.182e-42 0.031237725 0.15742122 0.06674129
000030 81 48 32 3d e3 ab 89 3a f2 7b c0 3c 67 18 00 80
       0.043526176 0.0010503497 0.023496602 -8.754e-42
000040 b6 4f 89 b8 f6 42 24 3d 60 70 24 3e f8 89 e1 3c
       -6.5475164e-05 0.04010292 0.16058493 0.027531609
000050 59 6f c6 3b 78 fb 23 3d 38 c8 4d bc c5 50 34 b9
       0.006055754 0.04003474 -0.012559943 -0.00017196227
000060 38 d3 06 3e 93 ba 1f 3e 92 16 00 80 ab b7 6d 3d
       0.13166511 0.15598516 -8.097e-42 0.058036488
000070 c3 0b 00 80 bc ea f6 3d 7d 13 b6 b9 35 4f 97 3d
       -4.22e-42 0.12056491 -0.00034728265 0.073881544

linear4.weight f4 [16, 32]
000000 9b 1b 00 80 ac 66 98 3d 6e c5 0a 3f e9 71 60 b9
       -9.903e-42 0.07441458 0.54207504 -0.0002140474
000010 bc d5 67 3e e6 64 fb bc 3e cb ad bc f9 56 fe 3d
       0.22640127 -0.03068776 -0.021215077 0.124189325
000020 ef 24 00 00 07 34 db bc c5 d6 01 3f 29 49 81 bb
       1.3249e-41 -0.026758207 0.5071834 -0.003945489
000030 ad 97 02 bd fa 46 ec bb a4 62 6e bb c1 24 00 00
       -0.03188293 -0.0072106095 -0.0036374712 1.3185e-41
000040 ab a0 53 3c ef ee f9 bc 75 c8 2f be dc ac cc bc
       0.012916724 -0.03050944 -0.17166312 -0.02498477
000050 5d fd 50 bc 2c b2 f9 bc 91 c8 49 3c 24 27 6c 38
       -0.012755719 -0.030480467 0.012315885 5.6303237e-05
000060 00 9f db 3e 08 de 2f be 17 1b 00 80 45 68 19 bd
       0.42894745 -0.17174542 -9.718e-42 -0.037452955
000070 4e 11 00 00 51 2e 11 bd 8e 5f 11 37 0c 4f 2f bc
       6.208e-42 -0.03544456 8.664922e-06 -0.010699999
000080 b7 05 00 00 61 ab fd ba ba 74 c5 bc 01 7d 19 39
       2.05e-42 -0.0019353443 -0.024103511 0.00014637785
000090 2d 30 b9 bc e3 37 5b 3e a5 fb 29 bc e4 d6 28 bc
       -0.02260598 0.21408038 -0.010374938 -0.01030514
0000a0 90 13 00 00 12 46 37 3e a1 67 b8 bc 38 80 04 bc
       7.018e-42 0.17897823 -0.022510352 -0.00808721
0000b0 cb 60 66 3e 8b d4 26 3d 2f 99 42 bb ff 00 00 80
       0.22497861 0.04073004 -0.0029693355 -3.57e-43
0000c0 08 db 02 3a 74 9f 59 3e ea e0 39 bd 35 9c 29 3e
       0.00049917446 0.21252233 -0.04538051 0.16563495
0000d0 62 7d 9a 3d 63 5d 59 3e 86 85 27 39 07 07 7a 3a
       0.07543446 0.2122703 0.00015976102 0.00095377903
0000e0 7e d8 9a bc 46 ed 3c bd ae 0c 00 80 a7 83 8e 3e
       -0.01890206 -0.04612472 -4.549e-42 0.27834818
0000f0 d1 0c 00 00 2d 25 6d bc 6e 5a 0f 37 49 ed 65 3c
       4.598e-42 -0.014474195 8.544519e-06 0.014033624
000100 b1 17 00 80 e5 bf 97 ba d9 c3 92 bc 73 6d 14 39
       -8.499e-42 -0.0011577575 -0.017915653 0.00014155153
000110 76 d6 86 bc 80 87 1c 3e c3 ee ea bb 85 75 e5 bb
       -0.016459685 0.15286064 -0.007169576 -0.007002535
000120 3c 1a 00 00 92 23 02 3e 0a d6 88 bc df b4 b1 bb
       9.411e-42 0.12708881 -0.016703624 -0.005423173
000130 20 b7 24 3e 9a e2 dc 3c 1f eb 0b bb e5 0f 00 00
       0.16085482 0.02696352 -0.002134986 5.702e-42
000140 6a 7f 04 3a 9c 5b 1b 3e b0 db 0d bd ac 30 f0 3d
       0.00050543866 0.15171665 -0.03463334 0.117280334
000150 5b 44 52 3d 28 2b 1b 3e 0c 5b 07 38 89 61 c5 3a
       0.05133472 0.15153182 3.2271302e-05 0.0015058975
000160 1c b4 64 bc ff 39 10 bd d5 0e 00 00 9d c2 4c 3e
       -0.013958957 -0.03521156 5.321e-42 0.19996114
000170 ee 0e 00 00 25 d3 25 bc 0f 62 3d 36 e8 de 01 3c
       5.356e-42 -0.010121142 2.8220272e-06 0.00792668
000180 de 10 00 80 14 0d 00 80 73 1f 00 80 fb 16 00 80
       -6.051e-42 -4.692e-42 -1.1282e-41 -8.244e-42
000190 bf 0c 00 80 28 0f 00 80 c4 0d 00 80 de 13 00 80
       -4.572e-42 -5.437e-42 -4.938e-42 -7.127e-42
0001a0 a1 03 00 80 40 1a 00 80 ec 0e 00 80 59 06 00 80
       -1.302e-42 -9.417e-42 -5.353e-42 -2.277e-42
0001b0 52 1a 00 80 97 1b 00 80 84 1b 00 80 26 1f 00 00
       -9.442e-42 -9.897e-42 -9.871e-42 1.1174e-41
0001c0 b1 1d 00 80 6e 1c 00 80 5a 0f 00 80 28 17 00 80
       -1.0651e-41 -1.0199e-41 -5.507e-42 -8.307e-42
0001d0 eb 03 00 80 36 20 00 80 b0 1d 00 80 9c 21 00 80
       -1.406e-42 -1.1555e-41 -1.065e-41 -1.2057e-41
0001e0 41 15 00 80 29 1a 00 80 24 19 00 80 c5 07 00 80
       -7.624e-42 -9.384e-42 -9.019e-42 -2.787e-42
0001f0 4e 03 00 80 43 24 00 80 f2 11 00 80 a4 05 00 80
       -1.185e-42 -1.3008e-41 -6.438e-42 -2.023e-42
000200 f5 18 00 00 7e 0f 7b b9 a9 c4 0a bd 83 7e 69 39
       8.953e-42 -0.00023942997 -0.033878956 0.00022267741
000210 5a 89 b9 bc 8e 30 c5 bb 36 fd cb 3e 30 36 1b bc
       -0.022648502 -0.006017751 0.39841622 -0.0094733685
000220 cf 12 00 80 1d 74 9d bb 62 fb 02 bd 0a 98 97 3e
       -6.747e-42 -0.0048051015 -0.03197802 0.29608184
000230 b3 35 d0 bb db a6 88 ba de 3a ef 3d 7a 1c 00 80
       -0.0063540577 -0.0010425703 0.1168115 -1.0215e-41
000240 f9 40 aa b5 e5 5f c3 bb ae 98 0e bd cd 0d 90 bb
       -1.2684897e-06 -0.0059623593 -0.034813575 -0.0043961764
000250 4a 27 f2 ba f8 14 c3 bb 05 37 95 8f d4 86 35 3a
       -0.0018474844 -0.0059534274 -1.4713727e-29 0.0006924693
000260 67 0b e3 bc ea 02 10 bd bf 1e 00 80 80 8f 0c bc
       -0.027715398 -0.03515903 -1.103e-41 -0.008579135
000270 4c 17 00 80 6e c2 13 3f 38 bc c0 36 c5 f5 9b bb
       -8.357e-42 0.5771855 5.7439574e-06 -0.0047595226
000280 0d 0c 00 00 fb a2 51 bc a4 ee cd bd d6 08 be 39
       4.323e-42 -0.012795205 -0.10055283 0.00036246207
000290 e9 47 bd 3d 47 38 23 bd 45 6d 38 bd 38 9e 30 3d
       0.092422314 -0.039848592 -0.045026083 0.04311964
0002a0 47 0d 00 00 65 cf 0c bd 4c 56 c1 bd 56 49 e3 bc
       4.763e-42 -0.034377474 -0.09440288 -0.02774493
0002b0 1c e5 29 bd bb de e3 bb 8b 8f 62 bc e1 10 00 00
       -0.04147826 -0.006954042 -0.013828169 6.055e-42
0002c0 23 27 bf 3b 2e 37 22 bd 87 80 18 3f 16 de 03 bd
       0.005833523 -0.039603405 0.5957112 -0.03219422
0002d0 6c 16 75 bc 8e 0f 22 bd 60 c1 f8 3a 41 fb e9 38
       -0.014958959 -0.039565615 0.0018978529 0.000111571055
0002e0 e3 42 a5 bd 6c 99 18 3f 64 0e 00 80 70 1b 4c bd
       -0.08069398 0.59609103 -5.162e-42 -0.049830854
0002f0 14 05 00 00 12 27 89 bd 52 2f 7f 36 b2 ed f7 3d
       1.822e-42 -0.06696905 3.8025505e-06 0.12105884
000300 c7 1a 00 00 e1 2d 61 bb f8 cf db bc 57 2d 70 34
       9.606e-42 -0.0034359621 -0.026832566 2.2368236e-07
000310 31 25 8a 3c a9 bc 7f bc ce 97 28 bc 59 1a 05 3c
       0.016863437 -0.015608945 -0.010290099 0.008123958
000320 f0 15 00 80 a6 99 4d bc 08 fc ca bc 18 a8 d3 bb
       -7.87e-42 -0.01254884 -0.024778381 -0.0064592473
000330 7b 27 87 bc d0 68 e5 b9 d7 81 47 bb 01 0b 00 80
       -0.016498318 -0.00043756375 -0.003044238 -3.947e-42
000340 81 f1 48 b9 87 83 7d bc 3c 46 1e 3e fa 50 3a bc
       -0.00019163454 -0.015473253 0.1545648 -0.011371845
000350 51 d4 30 bb 2a 29 7d bc 20 05 c8 b9 5c f5 fb b5
       -0.002698202 -0.015451709 -0.0003815079 -1.8772366e-06
000360 48 30 a5 bc bb 19 20 3e 63 1c 00 80 a9 8b ac bc
       -0.020164624 0.15634815 -1.0183e-41 -0.021062689
000370 c5 20 00 80 c4 36 89 bc 06 eb 20 2c e5 e5 ea 3c
       -1.1755e-41 -0.016749747 2.2867832e-12 0.028674075
000380 8b 10 00 80 54 8b 8c 3d b6 96 01 3f c2 fe 49 b9
       -5.934e-42 0.06862512 0.5062059 -0.00019263758
000390 f8 13 56 3e 35 b5 ed bc 2d d4 9e bc ce 29 e9 3d
       0.20906055 -0.02901707 -0.019388283 0.11384927
0003a0 91 1a 00 00 c5 9d ce bc 8a d3 f1 3e 86 43 53 bb
       9.53e-42 -0.025221715 0.47231704 -0.0032236292
0003b0 08 25 f7 bc 25 74 d6 bb 5d 7e 4a bb 8f 21 00 00
       -0.030169025 -0.006544607 -0.0030898072 1.2039e-41
0003c0 bb 3d 34 3c c3 4c ec bc 73 f6 24 be 96 89 c0 bc
       0.011001046 -0.028845197 -0.16109638 -0.023503106
0003d0 b3 34 40 bc 3c 12 ec bc 1c e4 2d 3c 80 9c 58 38
       -0.0117313145 -0.028817289 0.010613468 5.1644165e-05
0003e0 d1 b4 cc 3e d2 db 25 be 06 12 00 80 b7 5d 11 bd
       0.39981702 -0.16197136 -6.466e-42 -0.035489764
0003f0 ca 0c 00 80 76 c9 06 bd fd fc c0 36 66 6d 48 bc
       -4.588e-42 -0.032906972 5.7514976e-06 -0.012233114

linear4.bias f4 [16]
000000 61 15 16 3e 27 ec 69 3d 84 1c 19 3d 3d 16 00 80
       0.14656593 0.057109978 0.03738071 -7.978e-42
000010 22 92 b7 3d 13 9b 0d 3e 90 57 0e 3d 2a 33 0b 3e
       0.089634195 0.13828687 0.034751475 0.13593736
000020 54 22 3c 3e 65 88 23 3d ce 14 1c 3d d6 f0 56 3d
       0.1837247 0.039924998 0.03810578 0.052475773
000030 3a 0d 00 80 60 bf fc 3d a3 e2 55 3d 40 a5 ff 3d
       -4.745e-42 0.123411894 0.05221809 0.12482691

linear5.weight f4 [4, 16]
000000 02 43 9d be e7 8d 34 be b4 17 00 be bf 1d 00 80
       -0.30715185 -0.17632256 -0.12509042 -1.0671e-41
000010 39 75 6e be 53 cc 39 3f c5 a9 3c 3e 24 45 93 be
       -0.23286904 0.725774 0.18424137 -0.28763688
000020 d3 a6 8f 3f 3f af 07 be eb a2 02 be db de 28 be
       1.1222786 -0.13250445 -0.12757461 -0.16491263
000030 2e 09 00 80 80 07 87 be 79 2b 28 be a4 30 a3 be
       -3.293e-42 -0.2637291 -0.16422834 -0.31873047
000040 29 d6 90 be 1a f9 13 be 46 15 d9 bd a5 12 00 80
       -0.2828839 -0.14450493 -0.10599761 -6.688e-42
000050 65 dc 2c 3f 70 00 84 be 6f a4 81 bd 7a 0f 87 be
       0.67523795 -0.25781584 -0.06330191 -0.26378995
000060 59 02 ca be 2d 50 e4 bd cd 02 dd bd 8a f6 0a be
       -0.39454916 -0.11148105 -0.1079155 -0.1357061
000070 8d 19 00 80 4c 85 77 be 12 77 0a be bc 24 6b 3f
       -9.166e-42 -0.24171942 -0.13521984 0.9185293
000080 ee fa 89 be 9e 38 02 3f 6f b6 ba 3e 93 0f 00 00
       -0.26949257 0.5086764 0.3646731 5.587e-42
000090 fd 30 5d be f0 db 8b be 2e 52 7d bd 02 7a 80 be
       -0.21600719 -0.27316236 -0.06184595 -0.25093085
0000a0 63 b7 ce be 35 8b c5 3e 90 84 be 3e 1e f2 f3 3e
       -0.40374288 0.3858277 0.37210512 0.47645658
0000b0 3d 1d 00 80 1a 35 6b be 4e 06 f3 3e 73 83 95 be
       -1.0489e-41 -0.22969475 0.47465748 -0.2920185
0000c0 2f 12 50 3f aa ed 24 be d4 84 e5 bd 9a 11 00 80
       0.81277746 -0.16106287 -0.112069756 -6.314e-42
0000d0 66 a9 5e be 47 58 a6 be c7 93 b2 bd ef 9b 41 3f
       -0.21744308 -0.32489225 -0.087195925 0.7562856
0000e0 d4 77 f4 be e8 7a f4 bd 70 e3 ea bd d7 a1 19 be
       -0.47747672 -0.11937505 -0.114691615 -0.15003143
0000f0 72 23 00 00 70 21 31 3f 4d 07 19 be c5 f4 98 be
       1.2715e-41 0.69191647 -0.14944191 -0.29874244

linear5.bias f4 [4]
000000 88 f9 75 3d 66 7e 91 bd 83 7b 9a bd 75 2b 14 3d
       0.060052425 -0.07104187 -0.07543089 0.036174256
