checkpoints/dnnAE_7.pt (torch, 230343 bytes, 10 tensors)

linear1.weight f4 [128, 358]
0	0xba9e2f05	-0.0012068456
1	0x3a4fcd54	0.00079270196
2	0x3bc94f2d	0.0061434717
3	0xbc226b9f	-0.009913354
4	0xbad9bab5	-0.0016611429
5	0xbadca90a	-0.0016835046
6	0x3b9e3097	0.0048275697
7	0x3c40f105	0.0117762135
8	0x3b20ffc6	0.0024566515
9	0x3b3faa68	0.0029245857
10	0x3b7bbf2b	0.0038413506
11	0x3bd0eb26	0.006375688
12	0xbbd7c93b	-0.006585268
13	0xbb54beb6	-0.0032462305
14	0x3c4a488b	0.012346397
15	0x3c8fe25e	0.017563995
16	0xbbc40657	-0.005982201
17	0xbbaab8ff	-0.0052100415
18	0xbc1888b1	-0.0093099335
19	0xbb416ea8	-0.002951542
20	0xbb3bc7c0	-0.0028652996
21	0x3ca54a67	0.02017708
22	0xb9043c43	-0.0001261095
23	0x39309eb6	0.00016843792
24	0x39c2d5f2	0.00037161965
25	0xbbcd5c22	-0.0062670866
26	0x3b2faeaa	0.0026806989
27	0xb9e8f98d	-0.00044436418
28	0x3ba266e2	0.0049561122
29	0xbc816c2e	-0.015798654
30	0x3ac60742	0.0015108364
31	0xbbd33f1f	-0.0064467336
32	0xbba7dc94	-0.0051227305
33	0xbc3c8080	-0.011505246
34	0xbb8279ec	-0.0039818194
35	0xbccee06c	-0.025253497
36	0xbd20352b	-0.039113205
37	0x3bd5f402	0.006529332
38	0xbc2581f5	-0.010101785
39	0x39270577	0.00015928397
40	0xbb9df185	-0.004820051
41	0x3c136f11	0.008998648
42	0x3ab8fa05	0.0014112598
43	0xbc118eab	-0.008884112
44	0xbc29908e	-0.010349406
45	0xb9e6566b	-0.00043933405
46	0x38ea7b86	0.000111809975
47	0x3c11ef6e	0.008907182
48	0x3a32ed60	0.0006825533
49	0x3a41638c	0.00073771994
50	0x3b2393fa	0.0024960027
51	0x3c068cf8	0.0082123205
52	0xba11bb56	-0.0005559226
53	0xbbb0af8d	-0.005392021
54	0xbc2bde2a	-0.01048998
55	0xbbf297aa	-0.0074033337
56	0x39bcb261	0.00035991057
57	0x3b2d30be	0.0026426758
58	0x3be2ba6a	0.006919195
59	0xbc7a6cbc	-0.015284713
60	0x39489398	0.0001912847
61	0x3b7af402	0.0038292413
62	0x3b8372f1	0.004011505
63	0xbacf02ea	-0.0015793715
64	0xbba33aeb	-0.004981389
65	0x3a2f865c	0.00066957413
66	0x3a27c51b	0.00063999154
67	0x3b8c2856	0.0042772694
68	0x3c41d9c0	0.011831701
69	0x3c11cc7b	0.00889885
70	0xba485e44	-0.0007643441
71	0x3ca14295	0.01968507
72	0x39bbd6ac	0.00035827362
73	0xbbb8e408	-0.005642418
74	0x3b0a70eb	0.0021124433
75	0x3b070fd6	0.0020608804
76	0x38fb7569	0.00011990482
77	0xbb5d18d0	-0.0033736713
78	0xbb0ba645	-0.002130882
79	0xbb3902c4	-0.0028230408
80	0xbb8164ab	-0.003948768
81	0xbba74026	-0.0051040826
82	0xbb0e1284	-0.0021678517
83	0x3a971d5d	0.0011529137
84	0x3a970a9f	0.0011523551
85	0x3a9a3193	0.0011764042
86	0x3adefeba	0.001701317
87	0xb9cb59a2	-0.0003878596
88	0xb95a7c28	-0.00020836352
89	0x3afded77	0.0019373138
90	0x3a51d8e9	0.00080050394
91	0x3aa5babc	0.0012644152
92	0xbb9a3cca	-0.0047069537
93	0xbc6a4a6c	-0.01429997
94	0xbb1756c7	-0.0023092495
95	0x3a4cfd43	0.00078197214
96	0x3b607c10	0.0034253635
97	0x3b269a2b	0.002542148
98	0x3b295bb9	0.0025842024
99	0x3a21f22e	0.000617775
100	0xb9f6aea9	-0.00047050908
101	0x3b060bf9	0.0020453914
102	0x3aa29900	0.0012405217
103	0xbbcbe2f1	-0.006222122
104	0x3a106fce	0.0005509824
105	0x394d5078	0.000195803
106	0xb9c1bdab	-0.00036953142
107	0x3c39e081	0.01134503
108	0xbc5c8e61	-0.01346168
109	0x3c51e3fa	0.0128107015
110	0xbc4f0468	-0.012635328
111	0x3b431295	0.0029765714
112	0xbbc5c879	-0.006035861
113	0x3b7e769d	0.0038828023
114	0x3b7096b7	0.0036710927
115	0x3c0a66aa	0.008447329
116	0x3b231857	0.0024886334
117	0x3af97d3a	0.0019034513
118	0x3ba6656a	0.0050780075
119	0x3b04ee1c	0.0020283526
120	0x3c0a6aa0	0.008448273
121	0x3acf8166	0.001583141
122	0xba7485b2	-0.00093277835
123	0xbad8ac81	-0.0016530902
124	0xbb7b6ab0	-0.0038363151
125	0xbba91e62	-0.0051610926
126	0x3bad6c6f	0.0052924673
127	0x3c57689a	0.013147498
128	0x3c14baa5	0.009077703
129	0x3c209a58	0.009802423
130	0xbc7e255a	-0.015511835
131	0xbc0ad947	-0.0084746545
132	0x3ba3007d	0.0049744234
133	0xb97eadce	-0.00024288075
134	0xbc6dd715	-0.014516612
135	0xbc2b92db	-0.010472025
136	0xbaf79908	-0.0018890211
137	0xbac699ec	-0.0015152073
138	0xbb52b603	-0.0032151944
139	0x3b06cae5	0.0020567712
140	0x3c5ae575	0.013360371
141	0x3b647521	0.0034859853
142	0x3b08d5f1	0.0020879472
143	0x3bf6439e	0.007515385
144	0x3c325743	0.010885063
145	0xbc72d1b8	-0.014820509
146	0xbc083a01	-0.00831461
147	0x38abcff0	8.192647e-05
148	0x3b2e603c	0.0026607653
149	0xbc7b21eb	-0.015327911
150	0xbbe323b5	-0.006931747
151	0x3c8a6985	0.016896019
152	0xbd228c45	-0.039684553
153	0x3b029efa	0.0019931183
154	0xbca6777e	-0.02032065
155	0xbc89b25a	-0.016808677
156	0xbc14e10f	-0.009086861
157	0xbcd8cca2	-0.026464764
158	0xbbeb04fa	-0.007172224
159	0xbbd87661	-0.0066059087
160	0xbc119080	-0.008884549
161	0x3cbbfe28	0.02294834
162	0xbc1cb5c8	-0.009564824
163	0xbbc885b0	-0.0061194524
164	0xbb9afd7c	-0.0047299247
165	0xbbc086d1	-0.0058754464
166	0xbbf1fb80	-0.0073847175
167	0xbbfd9299	-0.007738423
168	0x3b697b15	0.003562634
169	0xbbc76525	-0.0060850554
170	0x394b5c9a	0.00019394085
171	0xbb9e8864	-0.0048380364
172	0x398e730b	0.00027170064
173	0xbb8f4cab	-0.004373153
174	0xbc228771	-0.009919987
175	0x386f76de	5.7092744e-05
176	0xbbe9e125	-0.007137435
177	0xbbdc0cb6	-0.0067153824
178	0x3c001086	0.0078164395
179	0x3bf434bb	0.007452575
180	0x3be5c31b	0.007011784
181	0xbabd324f	-0.0014434549
182	0x3a669869	0.00087965146
183	0x3c967f5c	0.018371277
184	0x3bbf119d	0.005830957
185	0xba934fef	-0.0011239032
186	0x3980d8bc	0.00024575542
187	0x3bb3a3e1	0.0054821824
188	0x39d2a5b7	0.00040177788
189	0xbcc037d8	-0.023464128
190	0xbb1f1465	-0.002427363
191	0x39816c9a	0.00024685712
192	0xb9da886d	-0.00041681845
193	0xb911373f	-0.00013848858
194	0x39dd1a85	0.00042172163
195	0xbc883761	-0.01662797
196	0xb97286da	-0.00023129155
197	0x383bab3f	4.474376e-05
198	0x3a4b6f50	0.00077604223
199	0x3bc449cb	0.005990242
200	0x3a3aaa74	0.00071207364
201	0xbc49e3e6	-0.012322402
202	0xb90f7358	-0.00013680512
203	0x3b7c1262	0.0038463105
204	0xba924fd1	-0.0011162703
205	0x398fb5bf	0.00027410497
206	0x399fd581	0.00030485916
207	0xb9fdebd7	-0.00048431635
208	0x39296cc8	0.0001615762
209	0x3880546f	6.1192426e-05
210	0xb87bdd02	-6.0048893e-05
211	0x39638aae	0.00021700069
212	0xb91d81d3	-0.0001502105
213	0xb9365f3f	-0.00017392354
214	0xbbcce7b0	-0.0062532052
215	0xbb165c3b	-0.0022943157
216	0x384e8ca8	4.9245224e-05
217	0x39c868c2	0.00038225023
218	0x3bc7ae8f	0.006093807
219	0xb959b749	-0.00020763012
220	0xb8a3a832	-7.8037745e-05
221	0x3c433de8	0.011916615
222	0x3c0b1628	0.008489169
223	0xb971a2cb	-0.00023044196
224	0x3886cce6	6.427783e-05
225	0x3cb218c2	0.021740321
226	0x3bad37b8	0.005286183
227	0x38b26f42	8.508425e-05
228	0xbbe78633	-0.0070655583
229	0x3c45e6cf	0.012078955
230	0x3b2fc102	0.0026817922
231	0x3b990762	0.0046700696
232	0xb99dcaef	-0.0003009657
233	0x3c25e85c	0.0101262
234	0x3bcf4d79	0.006326374
235	0x39d01fb3	0.0003969647
236	0xb71057ac	-8.603482e-06
237	0x3bd7a76b	0.006581237
238	0x39055881	0.00012716839
239	0x389c879d	7.4639196e-05
240	0xbb1287e6	-0.0022358834
241	0xbb11df16	-0.0022258214
242	0xbab5769d	-0.0013844554
243	0x3bc1f9fa	0.005919692
244	0x3b97cbcf	0.00463245
245	0xba905875	-0.001101269
246	0x3984cdaa	0.00025330234
247	0xbb04095a	-0.0020147176
248	0x3b3f5df8	0.0029200297
249	0x3b2a6fdb	0.0026006612
250	0x3ae19035	0.0017209115
251	0x39f1ce8f	0.00046121
252	0xba0b8565	-0.00053223065
253	0x3ad77018	0.0016436605
254	0x390c1c24	0.00013361924
255	0x3b02f7c4	0.0019984106

linear1.bias f4 [128]
0	0x3d9ec5ae	0.07752548
1	0x3bd9ac41	0.0066428487
2	0x3b9a5a40	0.0047104657
3	0x3e6e7a45	0.2328883
4	0x3d31c432	0.043399997
5	0x3d0b6b8d	0.034038115
6	0x3894f4ce	7.1027884e-05
7	0x3d15ece7	0.03660288
8	0x3a47e4a0	0.00076253153
9	0x3eab37aa	0.33440906
10	0x3d0a2549	0.033726964
11	0x3cf56964	0.02995748
12	0xbb85cb68	-0.004083086
13	0x3c02b144	0.007976834
14	0xb8b12c61	-8.448284e-05
15	0x3bffd180	0.007806957
16	0xb6202775	-2.3864825e-06
17	0x3b194e94	0.0023392783
18	0xb88a4b2e	-6.594356e-05
19	0x3eac85c9	0.3369582
20	0x3aa609b4	0.0012667687
21	0x3b2b3f5c	0.0026130294
22	0xb8dbef72	-0.00010487334
23	0x3bd029c2	0.006352634
24	0x3e0ce290	0.13758302
25	0x3d39070e	0.045172743
26	0x3d8be2ba	0.06830354
27	0xb882dbc0	-6.239815e-05
28	0x3e80edb3	0.2518135
29	0x3f57f999	0.8436523
30	0x3d2d107a	0.04225204
31	0x3bf0d00a	0.007349019
32	0x3bd5aefa	0.006521103
33	0xb85cc898	-5.2638905e-05
34	0x3daae579	0.0834455
35	0x3e3e26dc	0.18569511
36	0x3c538eac	0.012912434
37	0x3e8e223d	0.27760497
38	0x3c2e1913	0.010626095
39	0x3c23c5af	0.009995862
40	0x3cc6603e	0.024215814
41	0x3cb54fff	0.022132872
42	0x3e7091f2	0.23493174
43	0x3bb32c62	0.0054679373
44	0x3957c693	0.00020577972
45	0x3afebbff	0.0019434689
46	0x3ba74e2c	0.0051057544
47	0x3e991ff2	0.29907185
48	0xb6d5f319	-6.376195e-06
49	0x3d7e2c89	0.06205419
50	0x3d6c2183	0.057649147
51	0x3ea94534	0.3306061
52	0x3d975b27	0.07390433
53	0x3b2359d9	0.002492538
54	0x3a2a4a05	0.0006496015
55	0x3d0413ff	0.032245632
56	0x3bbdd304	0.0057929773
57	0x39640d50	0.00021748734
58	0x3d2e647c	0.042576298
59	0x3c0ca1c1	0.008583487
60	0x3be2a78e	0.0069169467
61	0x3ce3a041	0.027786376
62	0x3d9a2d22	0.0752814
63	0xb79b52b8	-1.8515959e-05
64	0x3ba4d41a	0.0050301673
65	0x3ad87b2f	0.0016516204
66	0x3be09222	0.006853358
67	0x3e63a15a	0.2222952
68	0x3d9f90b8	0.07791275
69	0x3d9cd1e5	0.07657222
70	0x3d473b72	0.048640676
71	0x3bc74f42	0.0060824463
72	0x3c01361d	0.007886437
73	0xb8c808da	-9.538392e-05
74	0x3be6928b	0.0070365123
75	0x3d679c53	0.056545567
76	0xb60f7592	-2.1377095e-06
77	0x3c84c85a	0.016208816
78	0x3c95007f	0.018188713
79	0x3d695470	0.05696529
80	0xb9082d40	-0.00012986828
81	0x3d248556	0.04016622
82	0x39300f4e	0.0001679037
83	0xb80863f9	-3.2518034e-05
84	0x3988a5cd	0.00026063473
85	0x3d0ce54e	0.03439837
86	0x3be65fc2	0.007030458
87	0x3d15047b	0.036381226
88	0x3d81651f	0.063181154
89	0x3c959c8f	0.01826313
90	0xb7ae27ac	-2.076089e-05
91	0x3abd9f18	0.0014466969
92	0x3cf276c9	0.029597657
93	0x3d924134	0.07141343
94	0x3cea5fb7	0.028610094
95	0x3d52f55d	0.051503528
96	0x3d11fc56	0.035641037
97	0x3bbdca66	0.00579195
98	0x3b344de2	0.0027512242
99	0xb7c8ad25	-2.3922485e-05
100	0xba789a0c	-0.0009483404
101	0x3a8c3c07	0.0010699042
102	0x3e918599	0.2842224
103	0x3cd7e1dc	0.026352815
104	0x393b173c	0.00017842365
105	0x3e45faff	0.19334029
106	0x3b4d8dad	0.0031364963
107	0x3d8e8a5a	0.06959982
108	0x3d44fa17	0.048090067
109	0x3d20b2cc	0.039233014
110	0x3a415f8d	0.0007376604
111	0x3a4d8f41	0.0007841476
112	0xb78fbce1	-1.7134882e-05
113	0x3ba29f1b	0.0049628145
114	0xb8ba0d22	-8.871617e-05
115	0x3cedfeca	0.029052157
116	0x3c649cf8	0.01395344
117	0x3a8e54dd	0.0010859031
118	0x3b2ed3b8	0.0026676487
119	0x3f0ffc1a	0.5624405
120	0x3bfb2520	0.0076643378
121	0x3cb15de6	0.02165122
122	0x3bd4507e	0.006479322
123	0x3d0a0eb6	0.033705436
124	0xbaf5e0f9	-0.0018759064
125	0x3c136a15	0.00899746
126	0xba56490a	-0.0008174336
127	0x3ec74b10	0.38924456

linear2.weight f4 [64, 128]
0	0x00000abc	3.851e-42
1	0x8000063e	-2.239e-42
2	0x80000d12	-4.689e-42
3	0x80001c2a	-1.0103e-41
4	0x80001149	-6.201e-42
5	0x80000d3c	-4.748e-42
6	0x80000381	-1.257e-42
7	0x00001feb	1.145e-41
8	0x80001c0b	-1.006e-41
9	0x80001777	-8.418e-42
10	0x800008e1	-3.185e-42
11	0x00002315	1.2585e-41
12	0x80000e77	-5.189e-42
13	0x8000041d	-1.476e-42
14	0x00000017	3.2e-44
15	0x80001b48	-9.787e-42
16	0x800016c0	-8.161e-42
17	0x00000ded	4.996e-42
18	0x00001da3	1.0632e-41
19	0x80000de9	-4.99e-42
20	0x8000107c	-5.913e-42
21	0x80001719	-8.286e-42
22	0x80001e67	-1.0906e-41
23	0x80001688	-8.083e-42
24	0x80000c81	-4.486e-42
25	0x00000c8f	4.505e-42
26	0x8000080b	-2.885e-42
27	0x00001b28	9.742e-42
28	0x00001b5c	9.815e-42
29	0x80001830	-8.677e-42
30	0x00001daa	1.0641e-41
31	0x800016eb	-8.221e-42
32	0x800018be	-8.876e-42
33	0x80001f23	-1.117e-41
34	0x80001ce9	-1.0371e-41
35	0x80002368	-1.2701e-41
36	0x0000206c	1.1631e-41
37	0x0000131b	6.854e-42
38	0x00001785	8.437e-42
39	0x80002197	-1.205e-41
40	0x00001b78	9.854e-42
41	0x80000048	-1.01e-43
42	0x80000bf3	-4.287e-42
43	0x80002566	-1.3416e-41
44	0x80001c17	-1.0077e-41
45	0x80001e22	-1.081e-41
46	0x8000239f	-1.2778e-41
47	0x80001cbd	-1.031e-41
48	0x80000cf3	-4.645e-42
49	0x80000bac	-4.187e-42
50	0x80001cd4	-1.0342e-41
51	0x80001d88	-1.0594e-41
52	0x80001128	-6.155e-42
53	0x80000a00	-3.587e-42
54	0x80000d63	-4.802e-42
55	0x800024ca	-1.3197e-41
56	0x80000fb5	-5.635e-42
57	0x80001801	-8.611e-42
58	0x00001632	7.962e-42
59	0x800004f4	-1.777e-42
60	0x800024bd	-1.3179e-41
61	0x00000c07	4.315e-42
62	0x00001999	9.183e-42
63	0x80001a78	-9.495e-42
64	0x8000101f	-5.783e-42
65	0x8000179c	-8.47e-42
66	0x8000049f	-1.658e-42
67	0x80002083	-1.1663e-41
68	0x8000043c	-1.519e-42
69	0x800018e6	-8.932e-42
70	0x00000e2b	5.083e-42
71	0x80000b85	-4.132e-42
72	0x800014df	-7.487e-42
73	0x00000cac	4.546e-42
74	0x80000499	-1.65e-42
75	0x800004f4	-1.777e-42
76	0x800023c8	-1.2836e-41
77	0x800012a7	-6.691e-42
78	0x000011fa	6.449e-42
79	0x80002178	-1.2006e-41
80	0x800016f0	-8.228e-42
81	0x0000025e	8.49e-43
82	0x8000069e	-2.374e-42
83	0x80002610	-1.3654e-41
84	0x80000489	-1.627e-42
85	0x800006ae	-2.396e-42
86	0x80000f96	-5.591e-42
87	0x800001c7	-6.38e-43
88	0x00001a22	9.375e-42
89	0x00000f36	5.457e-42
90	0x8000186d	-8.762e-42
91	0x8000117d	-6.274e-42
92	0x00001269	6.604e-42
93	0x00000500	1.794e-42
94	0x800020e5	-1.18e-41
95	0x8000231e	-1.2598e-41
96	0x00001974	9.131e-42
97	0x800011cd	-6.386e-42
98	0x0000096e	3.383e-42
99	0x8000210f	-1.1859e-41
100	0x80000832	-2.94e-42
101	0x00002340	1.2645e-41
102	0x00000036	7.6e-44
103	0x00001791	8.454e-42
104	0x000006bc	2.416e-42
105	0x80001a25	-9.379e-42
106	0x00001f51	1.1234e-41
107	0x80000cc1	-4.575e-42
108	0x80000c14	-4.333e-42
109	0x80000b05	-3.953e-42
110	0x800001b2	-6.08e-43
111	0x80001e64	-1.0902e-41
112	0x80000780	-2.69e-42
113	0x0000084b	2.975e-42
114	0x00001f60	1.1255e-41
115	0x800012ed	-6.789e-42
116	0x00000b69	4.093e-42
117	0x800023f6	-1.29e-41
118	0x80000490	-1.637e-42
119	0x800018c8	-8.89e-42
120	0x800020e5	-1.18e-41
121	0x000026b7	1.3888e-41
122	0x80000832	-2.94e-42
123	0x00000c79	4.474e-42
124	0x0000022a	7.76e-43
125	0x800011da	-6.404e-42
126	0x80001b9b	-9.903e-42
127	0x00001182	6.28e-42
128	0x80000884	-3.055e-42
129	0x80001d7a	-1.0574e-41
130	0x0000189b	8.827e-42
131	0x80001134	-6.171e-42
132	0x800013ed	-7.148e-42
133	0x80001402	-7.177e-42
134	0x00001194	6.306e-42
135	0x00001280	6.637e-42
136	0x00001ba9	9.923e-42
137	0x80000c94	-4.512e-42
138	0x8000249d	-1.3134e-41
139	0x00001b94	9.893e-42
140	0x800023dd	-1.2865e-41
141	0x80000c14	-4.333e-42
142	0x80000b61	-4.082e-42
143	0x00001cc3	1.0318e-41
144	0x80001a6d	-9.48e-42
145	0x80002306	-1.2564e-41
146	0x00000d6c	4.815e-42
147	0x80000ee7	-5.346e-42
148	0x00000d20	4.708e-42
149	0x80001a3b	-9.41e-42
150	0x0000141f	7.218e-42
151	0x0000128a	6.65e-42
152	0x8000253c	-1.3357e-41
153	0x800010fa	-6.09e-42
154	0x80000f20	-5.426e-42
155	0x000024fb	1.3266e-41
156	0x00000ce3	4.623e-42
157	0x80001905	-8.975e-42
158	0x80002539	-1.3353e-41
159	0x00000f54	5.499e-42
160	0x80000fd5	-5.68e-42
161	0x80002068	-1.1625e-41
162	0x800011fb	-6.45e-42
163	0x800020be	-1.1746e-41
164	0x80002272	-1.2357e-41
165	0x80001147	-6.198e-42
166	0x00001182	6.28e-42
167	0x80001d88	-1.0594e-41
168	0x80002438	-1.2993e-41
169	0x800012ec	-6.788e-42
170	0x00001bdf	9.998e-42
171	0x800011bc	-6.362e-42
172	0x80000ca3	-4.533e-42
173	0x80001bc2	-9.958e-42
174	0x80001934	-9.041e-42
175	0x000007fb	2.863e-42
176	0x80002602	-1.3635e-41
177	0x80000745	-2.608e-42
178	0x80000313	-1.103e-42
179	0x80000cdd	-4.614e-42
180	0x8000101b	-5.778e-42
181	0x0000215f	1.1971e-41
182	0x00001e62	1.09e-41
183	0x8000121f	-6.5e-42
184	0x8000079c	-2.73e-42
185	0x8000115e	-6.23e-42
186	0x000003eb	1.406e-42
187	0x800026af	-1.3877e-41
188	0x8000142b	-7.235e-42
189	0x80000e67	-5.167e-42
190	0x80000b66	-4.089e-42
191	0x80000f18	-5.415e-42
192	0x8000234c	-1.2662e-41
193	0x00001157	6.22e-42
194	0x80001ca7	-1.0279e-41
195	0x800024e7	-1.3238e-41
196	0x8000218a	-1.2032e-41
197	0x00001b89	9.878e-42
198	0x8000178b	-8.446e-42
199	0x80000821	-2.916e-42
200	0x80000fb8	-5.639e-42
201	0x00000701	2.513e-42
202	0x80001023	-5.789e-42
203	0x8000192d	-9.031e-42
204	0x80001501	-7.535e-42
205	0x00001d98	1.0616e-41
206	0x80001d4b	-1.0508e-41
207	0x80002302	-1.2558e-41
208	0x800018ef	-8.944e-42
209	0x00000a17	3.62e-42
210	0x000000f6	3.45e-43
211	0x80001eef	-1.1097e-41
212	0x8000238c	-1.2752e-41
213	0x80000dee	-4.997e-42
214	0x80001f70	-1.1278e-41
215	0x80002089	-1.1671e-41
216	0x00001fa2	1.1348e-41
217	0x00001dc2	1.0675e-41
218	0x0000169c	8.111e-42
219	0x80000b9a	-4.162e-42
220	0x00000abb	3.85e-42
221	0x800013fe	-7.172e-42
222	0x80001cde	-1.0356e-41
223	0x000018af	8.855e-42
224	0x000013c2	7.088e-42
225	0x80001e6f	-1.0918e-41
226	0x00000d2d	4.727e-42
227	0x80001875	-8.774e-42
228	0x80001f48	-1.1222e-41
229	0x0000113b	6.181e-42
230	0x80001972	-9.128e-42
231	0x80000f6a	-5.53e-42
232	0x80000c09	-4.317e-42
233	0x00001c4c	1.0151e-41
234	0x80000a40	-3.677e-42
235	0x80002370	-1.2713e-41
236	0x80001b8d	-9.883e-42
237	0x80000d7b	-4.836e-42
238	0x8000141b	-7.212e-42
239	0x80001350	-6.928e-42
240	0x80002583	-1.3457e-41
241	0x00001a27	9.382e-42
242	0x0000250d	1.3291e-41
243	0x80002548	-1.3374e-41
244	0x800026ac	-1.3873e-41
245	0x80001cb6	-1.03e-41
246	0x00002515	1.3303e-41
247	0x80000980	-3.408e-42
248	0x80001e34	-1.0835e-41
249	0x00000b30	4.013e-42
250	0x80001317	-6.848e-42
251	0x0000132c	6.878e-42
252	0x80001e55	-1.0881e-41
253	0x80001d39	-1.0483e-41
254	0x80001e39	-1.0842e-41
255	0x800015a3	-7.762e-42

linear2.bias f4 [64]
0	0x80000cf8	-4.652e-42
1	0x800017f5	-8.594e-42
2	0x800023dc	-1.2864e-41
3	0x3cf32696	0.029681485
4	0x80000f3b	-5.464e-42
5	0x80001499	-7.389e-42
6	0x3d878244	0.06616643
7	0x80001553	-7.65e-42
8	0x3d2639be	0.04058241
9	0x80001293	-6.663e-42
10	0xb7cbf269	-2.4312367e-05
11	0x3db2e125	0.08734349
12	0xbcbcea30	-0.023060888
13	0xb828001a	-4.0054416e-05
14	0x3e43229a	0.19056168
15	0x3d9af7d9	0.075668044
16	0x3c8d3d5e	0.017241176
17	0xba31c173	-0.00067808403
18	0x800007c5	-2.787e-42
19	0x80001ff1	-1.1458e-41
20	0x3d4e22bb	0.05032609
21	0x80001f69	-1.1268e-41
22	0x3d86b57d	0.06577585
23	0x80001fed	-1.1453e-41
24	0x80000a6c	-3.739e-42
25	0x3db9ab28	0.090658486
26	0x3ebb1a9f	0.36543748
27	0x80000fc5	-5.657e-42
28	0x3d401240	0.046892405
29	0x800015a1	-7.759e-42
30	0x800026b1	-1.388e-41
31	0x80001506	-7.542e-42
32	0x80001dbe	-1.067e-41
33	0x3e4c2ad5	0.19938214
34	0x3dbef748	0.09324509
35	0x80000e7e	-5.199e-42
36	0x80000cf0	-4.641e-42
37	0xbd43a770	-0.047767103
38	0x80000ba3	-4.174e-42
39	0x80000d84	-4.848e-42
40	0xb8bb875e	-8.942069e-05
41	0xbd4785cc	-0.048711583
42	0x3dca1766	0.09867744
43	0x3b2fa717	0.0026802474
44	0x80002305	-1.2563e-41
45	0x80002193	-1.2044e-41
46	0x80001123	-6.147e-42
47	0x800018f4	-8.951e-42
48	0x80000a97	-3.799e-42
49	0x800019c5	-9.244e-42
50	0x800019aa	-9.207e-42
51	0x3de0773b	0.109602414
52	0x3dfe0fe6	0.12405376
53	0x80001dc2	-1.0675e-41
54	0x3db3f320	0.08786607
55	0x80000e88	-5.213e-42
56	0x3d282588	0.041051418
57	0xbc0d4622	-0.008622678
58	0x3d41d366	0.047320746
59	0x3d638049	0.055542264
60	0x8000124c	-6.564e-42
61	0x3e0e38cf	0.13888858
62	0x8000152d	-7.596e-42
63	0x3d97bbf3	0.07408895

linear3.weight f4 [32, 64]
0	0x800007b6	-2.766e-42
1	0x80001830	-8.677e-42
2	0x000015e0	7.847e-42
3	0x3cdb16cb	0.026744267
4	0x00000442	1.527e-42
5	0x80002093	-1.1685e-41
6	0x3bf635ca	0.0075137364
7	0x80001399	-7.03e-42
8	0x3d5e5e8f	0.054289397
9	0x80001651	-8.006e-42
10	0xb898c291	-7.2841656e-05
11	0x3e1d4523	0.15358405
12	0xbc45ecf3	-0.012080419
13	0x36c5026d	5.87134e-06
14	0xbd850fba	-0.0649714
15	0x3df78e88	0.120877326
16	0x3c1b37de	0.009473769
17	0x80001513	-7.56e-42
18	0x000000b2	2.5e-43
19	0x80001d9c	-1.0622e-41
20	0x3db97589	0.09055621
21	0x8000204e	-1.1589e-41
22	0x3db42fc1	0.08798171
23	0x00000871	3.028e-42
24	0x800020f3	-1.182e-41
25	0x3d546379	0.051852677
26	0xbb8a1307	-0.004213694
27	0x80001409	-7.187e-42
28	0xb9e21af2	-0.00043126155
29	0x0000005d	1.3e-43
30	0x800014b6	-7.43e-42
31	0x00001f6a	1.1269e-41
32	0x00000c54	4.422e-42
33	0x3b2a8335	0.0026018147
34	0x3d656054	0.05600007
35	0x8000137a	-6.987e-42
36	0x00000dfc	5.017e-42
37	0xbc248a63	-0.01004276
38	0x0000178a	8.444e-42
39	0x800009a6	-3.461e-42
40	0x95b8d870	-7.4658486e-26
41	0xbc28bd3a	-0.010299021
42	0x3e04bbc3	0.1296225
43	0x3b14a12d	0.0022679076
44	0x00001696	8.102e-42
45	0x00001571	7.692e-42
46	0x00001b9b	9.903e-42
47	0x80002221	-1.2243e-41
48	0x8000251b	-1.3311e-41
49	0x8000155e	-7.665e-42
50	0x00000345	1.173e-42
51	0xbb508c95	-0.0031822075
52	0xbd34aa8b	-0.044107955
53	0x0000202b	1.154e-41
54	0x3e09bb7a	0.13450423
55	0x800006ee	-2.486e-42
56	0x3d80c329	0.06287224
57	0xbbeac04e	-0.007164038
58	0xbc283f85	-0.0102690505
59	0x3c18505e	0.009296505
60	0x00002289	1.2389e-41
61	0x3c525e18	0.0128398165
62	0x8000082d	-2.933e-42
63	0x3ad8d33e	0.0016542447
64	0x000010e3	6.058e-42
65	0x00002312	1.2581e-41
66	0x8000139e	-7.037e-42
67	0xba5be4ee	-0.00083883
68	0x0000118d	6.296e-42
69	0x80000f9f	-5.604e-42
70	0xb89825a3	-7.254935e-05
71	0x800022ce	-1.2486e-41
72	0xba5129d6	-0.00079789513
73	0x0000213c	1.1922e-41
74	0x39ab8905	0.0003271775
75	0xbadbd60c	-0.0016772165
76	0xbb729d6d	-0.0037020103
77	0x3925aaaa	0.00015799204
78	0x3b39a671	0.0028327967
79	0xbae02c28	-0.0017103003
80	0xb9f3ac37	-0.00046476882
81	0x80000b21	-3.992e-42
82	0x00000cfd	4.66e-42
83	0x0000121a	6.494e-42
84	0xba560333	-0.0008163929
85	0x0000220b	1.2212e-41
86	0xba818d8c	-0.0009884103
87	0x00000bf4	4.288e-42
88	0x800011a5	-6.33e-42
89	0xbbd1fe46	-0.0064084856
90	0x3c9509d2	0.01819316
91	0x000022fd	1.2551e-41
92	0x3a891918	0.0010459749
93	0x80002659	-1.3757e-41
94	0x00001397	7.028e-42
95	0x800011d3	-6.394e-42
96	0x00001bb3	9.937e-42
97	0x3b8b3212	0.004247912
98	0xbbd41e84	-0.0064733643
99	0x800004cb	-1.72e-42
100	0x800013a6	-7.049e-42
101	0xbb5e76a0	-0.0033945218
102	0x00002543	1.3367e-41
103	0x80002530	-1.334e-41
104	0xb12ef343	-2.545861e-09
105	0xbb639796	-0.0034727803
106	0xbaa44bdf	-0.0012534818
107	0xb9a1650d	-0.00030783602
108	0x800007f1	-2.849e-42
109	0x800017c9	-8.533e-42
110	0x00001f3e	1.1208e-41
111	0x800015c3	-7.807e-42
112	0x000009a4	3.458e-42
113	0x800017f1	-8.589e-42
114	0x000014d1	7.468e-42
115	0x3b142613	0.0022605702
116	0xbab2d49c	-0.0013643685
117	0x80000d72	-4.823e-42
118	0xbabd0099	-0.0014419734
119	0x00000d8b	4.858e-42
120	0xba33b23f	-0.0006854869
121	0xbb107ddc	-0.0022047674
122	0xbac9aadb	-0.0015386002
123	0x3a116e93	0.0005547788
124	0x800012c2	-6.729e-42
125	0x3aa24129	0.0012379038
126	0x8000179e	-8.472e-42
127	0x3a1b63d7	0.0005927658
128	0x00001f4f	1.1231e-41
129	0x80002381	-1.2736e-41
130	0x8000188b	-8.804e-42
131	0x3cc0490a	0.023472328
132	0x00002564	1.3413e-41
133	0x800012e8	-6.782e-42
134	0x3bd9285a	0.0066271247
135	0x00000f41	5.472e-42
136	0x3d43dcf0	0.047818124
137	0x80001aee	-9.66e-42
138	0xb8a99799	-8.086785e-05
139	0x3e0adee2	0.13561586
140	0xbc27c207	-0.010239131
141	0x36ca1cb4	6.0234106e-06
142	0xbd6d0b92	-0.057872362
143	0x3dda94e5	0.10672931
144	0x3c05f7c2	0.008176746
145	0x000022c6	1.2474e-41
146	0x80000d4c	-4.77e-42
147	0x00000fc8	5.661e-42
148	0x3da3a336	0.079901144
149	0x000001ea	6.87e-43
150	0x3d9ef961	0.07762409
151	0x000008e8	3.195e-42
152	0x8000182d	-8.673e-42
153	0x3d3c337b	0.045947533
154	0xbb83d2be	-0.004022925
155	0x0000085a	2.996e-42
156	0xb9c25c57	-0.00037071362
157	0x80000c44	-4.4e-42
158	0x000025e9	1.36e-41
159	0x00001009	5.752e-42
160	0x000023ca	1.2839e-41
161	0x3af931b2	0.0019012003
162	0x3d4b46f8	0.049628228
163	0x00001d2d	1.0466e-41
164	0x0000241f	1.2958e-41
165	0xbc09ebc8	-0.008418031
166	0x00002422	1.2962e-41
167	0x000023f5	1.2899e-41
168	0x208e59aa	2.411507e-19
169	0xbc0d7da9	-0.008635917
170	0x3dea5961	0.11442829
171	0x3b006e3e	0.001959696
172	0x800014fa	-7.525e-42
173	0x00001ef8	1.111e-41
174	0x80000f71	-5.54e-42
175	0x80002378	-1.2724e-41
176	0x80000dd2	-4.958e-42
177	0x80001edf	-1.1074e-41
178	0x80002111	-1.1862e-41
179	0xbb47e7d5	-0.0030503173
180	0xbd200837	-0.039070334
181	0x0000001a	3.6e-44
182	0x3df330d8	0.118745506
183	0x00002147	1.1938e-41
184	0x3d62ddcb	0.0553873
185	0xbbc19e20	-0.0059087425
186	0xbc13f24b	-0.009029935
187	0x3c060408	0.008179672
188	0x00000ccc	4.59e-42
189	0x3c366688	0.011132844
190	0x00001ac1	9.597e-42
191	0x3aaa9fe1	0.0013017618
192	0x8000074c	-2.618e-42
193	0x00000dd5	4.962e-42
194	0x00002145	1.1935e-41
195	0x3d54d615	0.051961977
196	0x00002014	1.1507e-41
197	0x80001e3e	-1.0849e-41
198	0x3c670f51	0.014102773
199	0x800010fc	-6.093e-42
200	0x3dd59c57	0.1043021
201	0x800021d9	-1.2142e-41
202	0xb82f6bfd	-4.1823823e-05
203	0x3e95e93e	0.29279512
204	0xbcdb6181	-0.026779892
205	0x36b1bea5	5.297205e-06
206	0xbdf7814e	-0.1208521
207	0x3e6bd038	0.23028648
208	0x3c9d2fd2	0.019187842
209	0x000014ce	7.463e-42
210	0x000001e4	6.78e-43
211	0x800026c3	-1.3905e-41
212	0x3e3113ba	0.17292681
213	0x00001631	7.961e-42
214	0x3e2c3bdc	0.1681971
215	0x80001987	-9.157e-42
216	0x800007c6	-2.789e-42
217	0x3dc09980	0.09404278
218	0xbaccd938	-0.0015628701
219	0x0000088c	3.066e-42
220	0xb9ae64ca	-0.0003326296
221	0x00001871	8.768e-42
222	0x800026af	-1.3877e-41
223	0x00000dbf	4.931e-42
224	0x00000cf5	4.648e-42
225	0x3c05aaf2	0.008158432
226	0x3dd0b251	0.10190261
227	0x8000095b	-3.356e-42
228	0x800023b3	-1.2806e-41
229	0xbcbc7d6a	-0.02300902
230	0x000019d6	9.268e-42
231	0x800022bb	-1.2459e-41
232	0x27025428	1.8086745e-15
233	0xbcc1822f	-0.023621647
234	0x3e7d4bb4	0.2473591
235	0x3ba516b5	0.0050381073
236	0x000017b3	8.502e-42
237	0x00001e42	1.0854e-41
238	0x000013ff	7.173e-42
239	0x800016c5	-8.168e-42
240	0x80001b91	-9.889e-42
241	0x8000253e	-1.336e-41
242	0x00001863	8.748e-42
243	0xbb8ab3d2	-0.004232862
244	0xbdad3895	-0.08458058
245	0x00001ec2	1.1034e-41
246	0x3e8349e8	0.25642323
247	0x00001d1d	1.0444e-41
248	0x3df73af4	0.12071791
249	0xbc8b9f9b	-0.01704388
250	0xbcae0295	-0.021241466
251	0x3c92c88a	0.01791789
252	0x0000094e	3.338e-42
253	0x3cd1bdb3	0.025603151
254	0x8000162b	-7.952e-42
255	0x3b9b1eba	0.0047338875

linear3.bias f4 [32]
0	0x3d52d76a	0.051474966
1	0x3b77490c	0.0037732748
2	0x3d38efcb	0.04515056
3	0x3dcd954c	0.10038242
4	0x3dbb367a	0.0914125
5	0x3d47d6a3	0.048788678
6	0x800012f3	-6.798e-42
7	0x3df0b477	0.11753171
8	0x3c428195	0.011871715
9	0x800008a9	-3.107e-42
10	0xbda91983	-0.08256819
11	0x3e26b387	0.16279422
12	0x3e377b31	0.17918088
13	0x3dfac233	0.12244072
14	0xbdc96bbe	-0.09835003
15	0x3cf828a1	0.03029281
16	0x3c7c5a49	0.015402385
17	0x3dd8ab11	0.10579503
18	0x80000765	-2.653e-42
19	0xbd949a22	-0.07255961
20	0xbc82f119	-0.015984105
21	0x3db3815f	0.0876491
22	0x3e62e8e1	0.22159149
23	0x80000d73	-4.825e-42
24	0x3e1902a0	0.14942408
25	0x800011fd	-6.453e-42
26	0x800011ec	-6.429e-42
27	0x800021de	-1.2149e-41
28	0x3e0b2199	0.13587035
29	0x3d15f7db	0.036613327
30	0xbd2780f8	-0.04089448
31	0x8000198b	-9.163e-42

linear4.weight f4 [16, 32]
0	0xbd17b323	-0.037036072
1	0x3c15ad2b	0.009135525
2	0xbd03f6b3	-0.032217693
3	0xbd9455cb	-0.07242926
4	0x3d18103b	0.037124854
5	0xbc8009fc	-0.01562976
6	0x000015cb	7.818e-42
7	0xbd6fd0b5	-0.058548648
8	0xbb741226	-0.0037242263
9	0x00001f42	1.1213e-41
10	0x3ee65e64	0.4499389
11	0x3eb1e175	0.34742323
12	0x3f34dbdb	0.7064797
13	0xbd80a9ad	-0.06282363
14	0x3ef43d6e	0.47703117
15	0xbc05fb8a	-0.008177647
16	0xbc1c8166	-0.009552335
17	0x3d094ddf	0.03352153
18	0x8000220b	-1.2212e-41
19	0x3edbaa0b	0.4290317
20	0x3e2cf574	0.16890508
21	0xbcf62968	-0.03004904
22	0xbbc7edbe	-0.006101339
23	0x8000196e	-9.122e-42
24	0xbddb5439	-0.107094236
25	0x80001dc2	-1.0675e-41
26	0x80000d49	-4.766e-42
27	0x00002338	1.2634e-41
28	0xbdc09cb6	-0.0940489
29	0xbcd6ca7f	-0.026219605
30	0x3eef094c	0.4668678
31	0x00001dd8	1.0706e-41
32	0xbd19e5a4	-0.037572518
33	0x3c83f6e1	0.016108932
34	0xbd0777b9	-0.03307316
35	0xbd87b8cd	-0.06627045
36	0xbe363363	-0.1779304
37	0xbe4bb035	-0.19891436
38	0x80001c33	-1.0116e-41
39	0x3eea21fd	0.45729056
40	0x3d0f77bf	0.03502631
41	0x80001527	-7.588e-42
42	0xbee466dd	-0.44609728
43	0x3ef9c97c	0.48786533
44	0x3ed90809	0.42388943
45	0x3ee86faa	0.45397693
46	0xbee0af3d	-0.43883696
47	0xbe01a57a	-0.1266078
48	0xbc396ac7	-0.011316962
49	0x3ece8a38	0.40339828
50	0x00001b2b	9.746e-42
51	0xbedb42e3	-0.42824468
52	0xbe345aad	-0.17612715
53	0xbeb2aa39	-0.34895495
54	0x3f2d1a37	0.67618126
55	0x8000224a	-1.23e-41
56	0xbe7d9f4a	-0.24767795
57	0x00000c70	4.462e-42
58	0x00002636	1.3708e-41
59	0x80001526	-7.587e-42
60	0xbd9a1853	-0.07524171
61	0xbce4d24b	-0.027932307
62	0xbedf713d	-0.4364108
63	0x00001ef1	1.11e-41
64	0xbc006b7a	-0.007838124
65	0x3ad2317b	0.0016036475
66	0xbbdaccf9	-0.0066772667
67	0xbc801ad6	-0.015637796
68	0x3d2a3188	0.041551143
69	0x3376d662	5.747132e-08
70	0x000020ea	1.1807e-41
71	0xbdc0a123	-0.094057344
72	0xbbd84f03	-0.006601216
73	0x80002117	-1.187e-41
74	0x3e637d69	0.22215809
75	0x3d4a0150	0.049317658
76	0x3e0177a4	0.12643296
77	0xbdc42a6b	-0.09578403
78	0x3e6fae8e	0.23406431
79	0x35dd6e07	1.6497805e-06
80	0xbae45554	-0.0017420449
81	0xbd4cc049	-0.049988065
82	0x00001d55	1.0522e-41
83	0x3e59ef56	0.21282706
84	0x3dba64c9	0.091012545
85	0x3057d0c2	7.8513207e-10
86	0xbdc5c887	-0.09657388
87	0x80002402	-1.2917e-41
88	0xbcd5da15	-0.026104966
89	0x800017c5	-8.527e-42
90	0x00001ee1	1.1077e-41
91	0x00001e08	1.0773e-41
92	0xbca700fa	-0.020386208
93	0xbbae518e	-0.0053197807
94	0x3e69cee1	0.22832824
95	0x800019ca	-9.251e-42
96	0x80000b51	-4.06e-42
97	0x800013e4	-7.135e-42
98	0x8000213b	-1.1921e-41
99	0x80002385	-1.2742e-41
100	0x80000b89	-4.138e-42
101	0x0000231e	1.2598e-41
102	0x8000162f	-7.958e-42
103	0x800016e0	-8.206e-42
104	0x80001d86	-1.0591e-41
105	0x00000a1e	3.63e-42
106	0x80000ede	-5.333e-42
107	0x8000214c	-1.1945e-41
108	0x80000c6b	-4.455e-42
109	0x8000185f	-8.743e-42
110	0x80001104	-6.104e-42
111	0x0000076c	2.662e-42
112	0x80001121	-6.145e-42
113	0x80001583	-7.717e-42
114	0x800020f1	-1.1817e-41
115	0x80001231	-6.526e-42
116	0x80001955	-9.087e-42
117	0x80001caa	-1.0283e-41
118	0x80001c2c	-1.0106e-41
119	0x8000094b	-3.334e-42
120	0x800020a5	-1.171e-41
121	0x8000119a	-6.314e-42
122	0x80001cb4	-1.0297e-41
123	0x8000141c	-7.214e-42
124	0x0000075c	2.64e-42
125	0x00001270	6.614e-42
126	0x80001f6f	-1.1276e-41
127	0x800003a1	-1.302e-42
128	0x80000fa9	-5.618e-42
129	0x8000116d	-6.251e-42
130	0x80002594	-1.348e-41
131	0x80001894	-8.817e-42
132	0x80000bbf	-4.214e-42
133	0x80002264	-1.2337e-41
134	0x0000018b	5.54e-43
135	0x80000a7b	-3.76e-42
136	0x800015c1	-7.804e-42
137	0x80002517	-1.3305e-41
138	0x80001107	-6.108e-42
139	0x80001124	-6.149e-42
140	0x8000170f	-8.272e-42
141	0x8000122d	-6.52e-42
142	0x80001f74	-1.1283e-41
143	0x80000969	-3.376e-42
144	0x80002269	-1.2344e-41
145	0x80001eee	-1.1095e-41
146	0x00001c8c	1.024e-41
147	0x8000207a	-1.165e-41
148	0x80000df8	-5.011e-42
149	0x00001215	6.487e-42
150	0x800026d6	-1.3932e-41
151	0x000018a2	8.837e-42
152	0x8000115a	-6.225e-42
153	0x00000aa1	3.813e-42
154	0x000002b5	9.71e-43
155	0x800021f4	-1.218e-41
156	0x00002305	1.2563e-41
157	0x80002693	-1.3838e-41
158	0x800019db	-9.275e-42
159	0x800016ee	-8.226e-42
160	0xbc5b5cfd	-0.013388869
161	0x3b645769	0.003484214
162	0xbc3bb5eb	-0.011456947
163	0xbcda6e36	-0.02666388
164	0x3d9e39c8	0.07725865
165	0xb69b801a	-4.634273e-06
166	0x00000a1e	3.63e-42
167	0xbe1e45ad	-0.15456267
168	0xbc33ccd7	-0.010974131
169	0x00001a40	9.417e-42
170	0x3ece38c6	0.4027769
171	0x3da01349	0.07816178
172	0x3e880935	0.26569524
173	0xbe20cdaf	-0.15703462
174	0x3ed86080	0.42261124
175	0x354fc444	7.7399113e-07
176	0xbb65f35a	-0.0035087676
177	0xbd949e1f	-0.07256722
178	0x80001f8a	-1.1314e-41
179	0x3ec45273	0.38344154
180	0x3e272631	0.16323163
181	0xb6b64e59	-5.4331435e-06
182	0xbe35299c	-0.17691654
183	0x8000105d	-5.87e-42
184	0xbd2d978f	-0.042380866
185	0x800019a2	-9.195e-42
186	0x800014eb	-7.504e-42
187	0x00001f52	1.1236e-41
188	0xbd106116	-0.03524884
189	0xbc16c60f	-0.009202494
190	0x3ed0452d	0.40677777
191	0x80001f24	-1.1171e-41
192	0x80000d24	-4.714e-42
193	0x80001bc2	-9.958e-42
194	0x0000049f	1.658e-42
195	0x800025f7	-1.3619e-41
196	0x000005d4	2.091e-42
197	0x80002041	-1.157e-41
198	0x800022d9	-1.2501e-41
199	0x80001902	-8.971e-42
200	0x00000e97	5.234e-42
201	0x00000fd8	5.684e-42
202	0x80001dff	-1.076e-41
203	0x8000142f	-7.24e-42
204	0x800019af	-9.214e-42
205	0x80001ed0	-1.1053e-41
206	0x800025a3	-1.3502e-41
207	0x800018f9	-8.959e-42
208	0x00001c4c	1.0151e-41
209	0x80001f18	-1.1154e-41
210	0x800022e5	-1.2518e-41
211	0x80000980	-3.408e-42
212	0x0000190d	8.987e-42
213	0x80002390	-1.2757e-41
214	0x800010f5	-6.083e-42
215	0x80001278	-6.625e-42
216	0x800011bf	-6.366e-42
217	0x80001fd6	-1.142e-41
218	0x80000e78	-5.19e-42
219	0x80002415	-1.2944e-41
220	0x00001b52	9.8e-42
221	0x800016e2	-8.209e-42
222	0x800007fc	-2.864e-42
223	0x8000132a	-6.875e-42
224	0xbce2ebfc	-0.027700417
225	0xbb5e3df4	-0.0033911439
226	0xbccb05fb	-0.024783125
227	0xbd501061	-0.05079687
228	0xbd4bedb4	-0.04978724
229	0x3eabcace	0.33553165
230	0x80002115	-1.1868e-41
231	0x3e3a49d8	0.18192232
232	0x3ad30143	0.0016098398
233	0x800024a8	-1.315e-41
234	0xb852c1d7	-5.024843e-05
235	0xbe5f6c87	-0.21818744
236	0xbe71ef02	-0.2362633
237	0x3e4a3d62	0.19749978
238	0xb9bad6ab	-0.00035636625
239	0x3e58e0af	0.2117946
240	0xbbfd255f	-0.0077254022
241	0x3e0221aa	0.12708154
242	0x000019a3	9.197e-42
243	0xb80bc6a2	-3.3325174e-05
244	0xaddfd2b3	-2.5445734e-11
245	0x3f1907c1	0.59777457
246	0x3e2c9f4c	0.16857642
247	0x00001695	8.101e-42
248	0x3e6e4f76	0.232725
249	0x000012ed	6.789e-42
250	0x80001097	-5.951e-42
251	0x00001832	8.68e-42
252	0xbd8ba82c	-0.068191856
253	0xbca86d20	-0.020559847
254	0xb934be27	-0.00017236975
255	0x80001dd6	-1.0703e-41

linear4.bias f4 [16]
0	0x3dc7a0f4	0.09747496
1	0x3ea7500f	0.32678267
2	0x3cbe2969	0.023213105
3	0x80001e3e	-1.0849e-41
4	0x80001c86	-1.0232e-41
5	0x3cd32015	0.025772134
6	0x80002397	-1.2767e-41
7	0x3d8e4268	0.0694626
8	0x3e3a8066	0.18213043
9	0x3de2f61a	0.110820964
10	0x80000ac7	-3.866e-42
11	0x3d8a4769	0.06751902
12	0x3da329ee	0.07966982
13	0x8000108a	-5.933e-42
14	0x3d8e878b	0.069594465
15	0x3d90f6ab	0.07078298

linear5.weight f4 [4, 16]
0	0x3da81af2	0.082082644
1	0x3fa490f0	1.2856731
2	0xbe990b94	-0.29891646
3	0x000015d0	7.825e-42
4	0x00000f57	5.503e-42
5	0xbed39fa4	-0.41332734
6	0x00000a1f	3.631e-42
7	0xbed285d1	-0.4111772
8	0xbec029c2	-0.3753186
9	0xbe69082b	-0.22757022
10	0x00001bb3	9.937e-42
11	0x3f1637d0	0.58678913
12	0x3f3136d4	0.69224286
13	0x000013df	7.128e-42
14	0xbed3691a	-0.41291124
15	0xbed68770	-0.41900206
16	0xbed66949	-0.418772
17	0xbe4b3726	-0.19845256
18	0xbd661dcb	-0.056180757
19	0x00001c1c	1.0084e-41
20	0x00000a59	3.712e-42
21	0xbdd82fec	-0.10556015
22	0x00001a30	9.394e-42
23	0x3f423a34	0.7587006
24	0xbebd9a7b	-0.37031922
25	0xbe68ec21	-0.22746326
26	0x00000ec4	5.297e-42
27	0xbe5b9b25	-0.21445902
28	0xbe85b3fb	-0.26113877
29	0x00000918	3.262e-42
30	0x3f427335	0.7595704
31	0x3f45e3b3	0.77300566
32	0xbeb85d53	-0.360087
33	0xbece8adc	-0.40340316
34	0xbda39629	-0.07987625
35	0x80001545	-7.63e-42
36	0x00001009	5.752e-42
37	0xbe141890	-0.14462495
38	0x80001a97	-9.539e-42
39	0xbe4b148e	-0.1983206
40	0x3f8aa62f	1.0831965
41	0x3f28763d	0.6580542
42	0x80001c49	-1.0147e-41
43	0xbe0cfbca	-0.13767925
44	0xbe276caa	-0.16350046
45	0x800013c6	-7.093e-42
46	0xbe4b7e7e	-0.19872472
47	0xbe4f06f0	-0.2021749
48	0x3f8571d8	1.0425367
49	0xbf504696	-0.81357706
50	0x3ebf0886	0.3731119
51	0x00001fe0	1.1435e-41
52	0x800014da	-7.48e-42
53	0x3f3d0c22	0.7384664
54	0x000011f3	6.439e-42
55	0xbe12d625	-0.14339502
56	0xbeafad12	-0.3431173
57	0xbe56ebda	-0.20988408
58	0x00000e46	5.12e-42
59	0xbe92e62c	-0.28691232
60	0xbea8099f	-0.3281984
61	0x00002484	1.31e-41
62	0xbe131c51	-0.1436627
63	0xbe15a879	-0.14615048

linear5.bias f4 [4]
0	0x3d088617	0.033331003
1	0xbc73d0c3	-0.014881316
2	0x3d106950	0.035256684
3	0xbdf31323	-0.118688844
