checkpoints/dnnAE_7.pt (torch, 230343 bytes, 10 tensors)

linear1.weight f4 [128, 358]
00000000: 6d44 d3b7 146a 763a a693 f839 0c2e 593c
00000010: 1ce3 80bc f851 abbc 28bc 8abc 6609 1bbd
00000020: 5dd8 2d3c a4c5 f7bb f1d0 cabc eb6e 37bc
00000030: 68d4 a4bb 5c26 a539 0cd5 723c cfdf ffbd
00000040: 8ad0 603c e66a de3c 07dc d73c 8b38 37bc
00000050: 8b2c baba b172 75bd d3d2 9d3b 30bb 433c
00000060: f774 e8bb 3e20 f13c c57b 80bd 759c ebbc
00000070: 9cb0 81bc 3df1 9e3d ee51 0dbd 36da 28bc
00000080: c72b f8bc d989 8dbc 7176 fb3b bf05 7a3d
00000090: f8d5 493b 3e8e 013c fb4c c8bb 9d95 d93c
000000a0: e7fc 5bbd 35e6 103c 2cea 9539 9d74 813c
000000b0: 6e05 283d a289 113c 5d16 acba 4fc1 f5bc
000000c0: f30a 3abc d436 e5bc d1db dc3c 0455 ecbc
000000d0: 1a0b ecbc e3c4 47bd 70c6 b9bc fd91 4bbd
000000e0: 31b8 89bc f142 15bc b4fc 77bc 279f dabc
000000f0: 5569 83bc 5620 56bb 44f8 84bb 3b2f 94bb
00000100: 8c4a 2c3c 08d6 78bc 1ef6 6fbc 74bc 4c3b
00000110: 3807 aa3c 1b28 04bd 6a57 13bc 387d 07bc
00000120: 8b74 9fba cd09 593c ebad 3fbb 3878 42bb
00000130: 947d 08ba a17f efb9 a4ea aebb b196 17bc
00000140: 5c88 403a a570 6bbc b4c1 48ba 77bf 87ba
00000150: eb7b c3ba 9606 b7ba 4a09 c6ba b497 04ba
00000160: 1484 79ba 4758 1eba 7212 023b 2316 4b3c
00000170: 3ae4 d03b dc34 0fbd 677b 863b 732f 8ebc
00000180: 5cf9 e8bb 591b de3c ae97 dd3c 197d 303c
00000190: 6c21 ffba 70ac 543d 57f8 f1bc 8a51 7abd
000001a0: 7cc6 26bb 7ede 7dba c9bf 98bc ba02 e73c
000001b0: 6750 913d f9ec 413c 2fe9 5d3d dfb7 253d
000001c0: 796e 3939 b26b 5bbc 6461 8bbc f83f 8c3c
000001d0: fefa 2cbc 434c 9abb 955d 07bc f0a7 a8bb
000001e0: 590c b5bc 6806 253c 6208 033d b7e0 f13b
000001f0: 3533 613c 2518 8ebd b2d9 5dbd 0495 b5bc
00000200: f067 2ebd 931d 6cbc 4752 e1bc d141 3d3b
00000210: ae6d 3dbb 8722 51b7 38b0 88bc 4adf 01bb
00000220: 04be 6d3c 23a3 1a3a 72f2 ca3b 6491 f83c
00000230: 46e7 6f3d 275a 213d 0d6b f73c 30e3 68bb
00000240: 37d1 5e3b 8e25 aeb9 a8f8 95bc b2d5 3ebc
00000250: dbe4 d53c 917d 223b 7e5a 87bc a7da 0abb
00000260: 33fb 4c3c c374 e03c 9fd1 183d bb71 e23b
00000270: c60f 1d3c d2ca 22bb 9e3a 07bd e4a5 07bd
00000280: 0a30 38bc 43ef a4bc ace1 28bc 2df4 4bbb
00000290: 5972 a13a 897c 193a 5995 86ba 7323 02bb
000002a0: 4866 4dba 8baa 9739 a061 4cbc 0dfe 6239
000002b0: 05a4 77bb 84a3 edbb 3d27 243c 143d a337
000002c0: 3787 873b 3562 663b 1469 56bb b1c3 c0bc
000002d0: 9ddc ccbb 8bde 97bb c8dd 523c cc23 dc3a
000002e0: 8d5e 9dbc 3511 8fba a251 8d39 481a a0b4
000002f0: eb3b 803b 7722 08bd 467e 29bc 2c3d a1bb
00000300: f950 fbb9 0643 d93a 43d7 a636 80c5 bebc
00000310: 2ef3 5fb7 ce70 51b4 0262 43b8 0f81 68b8
00000320: 2491 5cb6 9a96 9039 c44c f038 50cf fc39
00000330: 3bcb 12b8 98be 393b ca25 3e35 3008 1c39
00000340: f2cd 6e3b f56f 8f3a 65ac 0c38 2fda ca39
00000350: 0c3e 5038 4bcc 5832 519a 63bd 010a a3bb
00000360: bd77 93b8 ac04 8fb7 9035 c5b5 4a62 1635
00000370: 18c5 7d3a 1e1b c23c b1d3 5b33 8b18 1834
00000380: 9eea 37b5 c329 9f3d ed68 8ab8 f212 593a
00000390: e6f4 60bd 32a9 f9bc 7566 26bc 50ad b736
000003a0: ae68 19b9 4259 b1b8 56cb 5cb4 27a2 0334
000003b0: d4c0 67b7 f42c 11b8 5c9f 9231 6023 d3b3
000003c0: 3007 2c3c 8085 2d3a a5ee a23b c507 0a3b
000003d0: 5781 463c 3ba3 023c d640 e43b eeba ce3b
000003e0: ec2e a03b fb3b 0d3c 0574 343c 61a0 cd3b
000003f0: 79b3 833a f195 1e3c 5879 313c c0b4 d83b
-2.5185023e-05 0.0009399962 0.00047412253 0.013255607 -0.015733294 -0.02091311 -0.016935423 -0.03785076
0.010610667 -0.0075614024 -0.024757834 -0.0111958785 -0.0050302036 0.00031499832 0.014821302 -0.1249386
0.013721595 0.027150583 0.026350034 -0.0111829145 -0.0014203949 -0.05992383 0.004816392 0.011946484
-0.0070940214 0.02943432 -0.06273607 -0.028761128 -0.015831284 0.07760856 -0.034501962 -0.010305932
-0.030294312 -0.017277645 0.0076740314 0.061040636 0.0030797701 0.007907448 -0.0061126924 0.026560599
-0.053707983 0.008843948 0.00028593966 0.015802676 0.041020803 0.008882912 -0.0013129223 -0.029999403
-0.01135515 -0.027980246 0.026960285 -0.028849132 -0.028813887 -0.04877175 -0.02267763 -0.049699772
-0.016811462 -0.009110198 -0.015135933 -0.026687218 -0.016041437 -0.0032673082 -0.004057916 -0.004522232
0.01051582 -0.015187748 -0.014646081 0.0031240257 0.020755395 -0.03226481 -0.008993009 -0.008269601
-0.001216547 0.013246966 -0.002924795 -0.0029673707 -0.0005206701 -0.00045680723 -0.00533803 -0.009252236
0.0007344538 -0.014370118 -0.00076582585 -0.0010356744 -0.001491425 -0.0013963755 -0.001510897 -0.0005058006
-0.00095182774 -0.0006040376 0.001984742 0.0123954145 0.006374863 -0.03496252 0.004104066 -0.01735661
-0.007109804 0.02711265 0.027049866 0.010772013 -0.0019464917 0.05192226 -0.029537363 -0.061112918
-0.0025447896 -0.0009684338 -0.018646138 0.028199542 0.07095414 0.011836284 0.05417746 0.040458556
0.00017684129 -0.013392376 -0.017014213 0.017120346 -0.010557888 -0.004708798 -0.008262058 -0.005146973
-0.022100614 0.010072328 0.031990416 0.0073815244 0.013745119 -0.06938199 -0.05416269 -0.022165783
-0.04257959 -0.014411348 -0.027505053 0.002887834 -0.0028904486 -1.246541e-05 -0.01668559 -0.0019816929
0.014510635 0.0005898943 0.0061934525 0.030342765 0.05857017 0.039392617 0.030202413 -0.0035535805
0.0033999213 -0.00033215847 -0.018307045 -0.011647629 0.026110103 0.0024794082 -0.016522642 -0.0021187456
0.012511062 0.027399426 0.037309285 0.0069105304 0.00958628 -0.0024840129 -0.033014886 -0.03311719
-0.011241922 -0.02013362 -0.010307711 -0.0031120882 0.0012317403 0.0005855044 -0.0010267898 -0.0019857555
-0.00078353705 0.0002892803 -0.0124744475 0.00021647681 -0.0037786972 -0.0072521586 0.010019121 1.9459556e-05
0.004135992 0.003515375 -0.003271644 -0.023530813 -0.006251885 -0.0046346835 0.01287026 0.0016795336
-0.019210124 -0.0010915162 0.00026954437 -2.9821445e-07 0.003913393 -0.033235993 -0.010345047 -0.0049206223
-0.0004793478 0.0016575761 4.9722453e-06 -0.023287535 -1.33484555e-05 -1.950568e-07 -4.65829e-05 -5.5433306e-05
-3.2867038e-06 0.00027578027 0.000114583905 0.00048219645 -3.4998386e-05 0.0028342362 7.0835506e-07 0.0001488037
0.003643867 0.00109434 3.3539156e-05 0.00038691002 4.964885e-05 1.2619306e-08 -0.05556709 -0.004975558
-7.031809e-05 -1.7049104e-05 -1.4693233e-06 5.6022384e-07 0.00096805533 0.023694571 5.1182443e-08 1.4165032e-07
-6.8514225e-07 0.07771637 -6.599897e-05 0.0008280716 -0.054921053 -0.030476186 -0.010156264 5.4740012e-06
-0.00014630213 -8.456643e-05 -2.056307e-07 1.2259316e-07 -1.3813569e-05 -3.461256e-05 4.2672763e-09 -9.831888e-08
0.0104997605 0.00066193193 0.0049722963 0.002106176 0.012115798 0.0079734875 0.006965737 0.006308905
0.004888406 0.0086202575 0.011013989 0.006275222 0.0010047994 0.0096793035 0.010832153 0.006613344

linear1.bias f4 [128]
00000000: 6fc4 80bd 9ddb 7a3e f506 043f 4d43 b73d
00000010: 382f b4bd 0743 f3bb e16b 50b9 3c2c 12be
00000020: 165b 6a3d cca5 f6bd c9e3 b9bc 54e4 c7b7
00000030: 794f dabb a110 23bc 47cd 9bbd f0c3 f73d
00000040: 1bfc cabc 1cb5 f8bd bb2c 043f 54ea 08bd
00000050: 1779 2fbd 9d20 9bb7 74bf 6ebc 77aa 71bd
00000060: 1202 a5bd d29e 133c 1b27 7a3a d20b fa39
00000070: a7a9 9ebd e9de 05be 3bf0 a1bd 6a64 463f
00000080: 345e 1b3a a421 b5bd 5715 093e 122b 4a3a
00000090: c8f6 62bd e2ba 83bd a129 473d 4501 e2bd
000000a0: e34f 68bb a3e4 a0bd ed4d cabd fe26 dfbd
000000b0: e5eb 6c3d 1fad 21bd 3db8 0bbe 9c5f 16be
000000c0: cc75 063a eea6 75bd be05 35be e80a b53d
000000d0: 9687 d1bc 7397 e5bd e891 41bd e34d 29bd
000000e0: 8837 8abb a15c fdbb 13f9 89bd 9019 3bb8
000000f0: b0a7 de3c 4fbd 0abe 4536 ee3c 8d2f 78bd
00000100: 338f 95bd 868b 57bd 6d2d 62bd d03e 7abd
00000110: e998 4cbd d153 8fbd a323 00be 32fc 0c3d
00000120: 2c4e dfbd 0956 823e 8dd1 02be 2866 7bbd
00000130: f0d4 be3e 155e 0dba 53d0 30bd 96ed 60bd
00000140: c481 21bd b1dc ba3d b030 34be 1a82 b1bd
00000150: 2f1b 55bd d25e 88bd 3398 59bd f73a a03c
00000160: ef3f c0bc 0c14 0ebc e0a6 39b8 d54e 243f
00000170: 0a15 e03d aeb6 b4bd 1097 32bc 26ae 63bd
00000180: 64f2 f8bb 0dd7 aabd d124 83bb ae8b bcbc
00000190: 3c76 1bb9 be01 20bc 57a0 9cbc 7dad 80bd
000001a0: c137 a5bb ea1d 68bd d78e 24bc eb72 afbd
000001b0: e983 dab9 d03c 77bc 6d7a 50bc 6536 bcbd
000001c0: 8114 bf3b 1915 efbc 8d7a af3e f2c4 8dbd
000001d0: 4daa 6dbd bdea ffbd 3604 f5bd aa09 c7ba
000001e0: f645 86bd a537 03b9 dcb2 39bd 3ee7 48bb
000001f0: 612e 533e 726e 80bd a481 0fbb de9f 84bd
-0.06287467 0.24497838 0.51573116 0.089483835 -0.08798069 -0.0074237618 -0.00019876614 -0.14274687
0.057215773 -0.12043342 -0.022691624 -2.3828972e-05 -0.006662306 -0.009952695 -0.07607513 0.12097919
-0.024778416 -0.12143919 0.51630753 -0.033426598 -0.04284009 -1.8492627e-05 -0.014572013 -0.05900046
-0.080570355 0.009010034 0.00095425703 0.00047692523 -0.07747202 -0.13073315 -0.079071485 0.7749697
0.0005926818 -0.08844307 0.13387047 0.00077121065 -0.05541113 -0.064321294 0.048623685 -0.110353984
-0.0035448007 -0.07856109 -0.098781444 -0.10896109 0.057842154 -0.03947174 -0.136445 -0.1468491
0.00051292474 -0.05997365 -0.17677972 0.08839971 -0.025577348 -0.11210527 -0.047258288 -0.041334044
-0.0042180456 -0.0077319895 -0.0673696 -4.460808e-05 0.027179569 -0.13548778 0.029078612 -0.060592223
-0.07302704 -0.052623294 -0.055219103 -0.06109506 -0.049950514 -0.069984086 -0.12513594 0.0344202
-0.10903582 0.25456265 -0.1277525 -0.06137672 0.37271833 -0.00053927425 -0.043167423 -0.05491408
-0.039430395 0.09124125 -0.17596698 -0.08667393 -0.052027877 -0.066587105 -0.053123664 0.019559367
-0.023467986 -0.008671772 -4.426285e-05 0.6418279 0.10941513 -0.08823906 -0.010900274 -0.055586003
-0.0075972546 -0.08341799 -0.0040021916 -0.023015823 -0.00014825998 -0.00976604 -0.019119425 -0.0628309
-0.005042047 -0.056669153 -0.010043821 -0.08566841 -0.0004167848 -0.015090182 -0.012724501 -0.091900624
0.0058313017 -0.029184865 0.34273186 -0.0692233 -0.05802374 -0.12495945 -0.11963694 -0.0015185375
-0.06556313 -0.00012513863 -0.04533659 -0.003065541 0.20623161 -0.06271066 -0.002189734 -0.06475805

linear2.weight f4 [64, 128]
00000000: 089b a4b9 35c4 3cb7 8f66 bfb8 cbcd 0cb4
00000010: 9eea be3b 34bb 2936 5102 49bb da2e e636
00000020: c6fb 023b 0c60 6932 d75a ae33 a1ad 6db4
00000030: 5d5c c0b7 745c d3b8 d6d7 d8b1 b445 e5b7
00000040: 2ac7 1fba a14c d7ba f2c0 dfb7 79af b1ba
00000050: a73b e7b5 e002 6fb9 0392 ddb6 38eb 5435
00000060: 956b 2132 e72e ee36 a5e7 07bb e4b9 cfbb
00000070: 0217 df3a e317 7db9 6e0c ca36 35ca a7b8
00000080: 7e30 f1b9 64b0 dcae d195 e6b4 1b77 ea3a
00000090: 8648 c730 a65c 05b8 815d 02b6 56e8 c4b2
000000a0: 0a01 61b8 dc94 95b8 7c7e c6b4 b087 232f
000000b0: 8d37 c9b4 2f09 e1ba 9904 0080 ef48 f6b8
000000c0: aa83 68b5 3ce4 002b 6112 0000 6af6 c3b4
000000d0: 180e 0000 bb5c 013b 50f6 25b2 2702 76b5
000000e0: c548 4535 6410 0000 6b74 3ab3 0350 7e3a
000000f0: 5d54 b7b7 945e 0db2 71a2 e5b3 e100 2db5
00000100: 3875 5cb4 5291 f0ba 38c3 b4b4 7355 bd3a
00000110: ccee 66b4 76aa 4fb6 7d71 89b1 94fd 85b7
00000120: 8e75 923a ad7b 6cb7 7655 e3a7 3799 fcb5
00000130: 5cda afb8 eaac c93a 09a6 aeb5 3f7b a831
00000140: 5f45 1bbb f207 e93a f309 eb3a ad74 6eb6
00000150: a4e4 deb3 d299 2fb6 e2fb bd33 5605 c6b7
00000160: 5ae7 f73a 28f1 f736 59a1 3c31 2108 86b8
00000170: 5066 d7b4 ad64 9d35 1a62 50b3 a242 b536
00000180: bcf4 07b5 6617 b6b1 d6bd b93a b005 3bb4
00000190: f225 0000 abf9 79b2 7906 0080 034b 12bb
000001a0: 1e0c 153b fa4e 82b2 a4a1 083b 126c 0db3
000001b0: e1d9 e73a b60d eb3a 467d 523a 890b 11b6
000001c0: 1bc7 38b7 ec15 0000 dd7b 1fb7 c8e1 3ab3
000001d0: 298a 2737 1bad d4ba e639 7db1 ec11 df3a
000001e0: 195a 29b7 d714 cb3a b442 81b3 ed12 ec3a
000001f0: 0b6d deb7 c70a a93a 9b51 10ba 45f1 2cb4
00000200: dbd4 0abc 5251 87bd cbc0 afbd a3eb 39bd
00000210: fa46 f0bc ff42 05b6 7f1a 03ae dda3 c9bc
00000220: 0eaa 0c32 e40e d03b ce8c 503b 9425 36ad
00000230: c5ef 9a38 d413 2b3a 221c 9e3c 00cf e33b
00000240: c960 62bb a44e a63c 2dcc 9fbd 2121 50b8
00000250: 4ca4 b3bc 4cd6 b3a9 ba41 32bc 4325 a33a
00000260: 1eec e6bc bafb 8f3b 7141 a2b4 ff27 cbb6
00000270: 6c32 08bc a223 893c 95aa ce3b dd51 f5bd
00000280: 2d9e e0b0 c97f 42bc 49f6 a6bb e2fe a433
00000290: 468f 263a 30a7 84bc 3a08 d73a 175e 8e3d
000002a0: 9385 d239 c644 50bc 7d61 4f39 317e e83b
000002b0: a6b0 8d3c 76de 1b3c 3034 86bb 91ed f23c
000002c0: 71f9 ccbb 1c15 1e3b c0b5 413d 7502 79bd
000002d0: dda3 9538 8b00 133b d95a 4bbc 6fc4 abb2
000002e0: 208d fab7 3252 f535 a58a 73bc 0bd2 e9aa
000002f0: ad18 64bd 7e42 e8ba 0136 cfbc ca2d 673b
00000300: b12c f13c 1464 8bbc ba2c bd3a 2532 dbbb
00000310: 0a5f 98bc e8aa f63a a5e7 093d c2aa 32bd
00000320: 8a43 b8bc 416c 61bd 8c28 653d 25fd b6bc
00000330: cf01 f03c 2103 532c 0064 66bc e015 2fb1
00000340: 05d4 03bc 5cec ba3c 5dbe 96ba 979d a33c
00000350: 814e fb3c 9a93 8a3c 45c6 0ebd 586d 803c
00000360: 3655 8bac 9c5f 47bc 065e 6eae 3ae4 1ebd
00000370: 1d96 8bbc 7542 4c3c 36d2 7d3c b7d2 ecbb
00000380: 5a69 af39 d1e6 0b3c 2aed 543c 541a 103a
00000390: 4a25 0080 8453 2f3a 4e0e de39 3e57 8c3b
000003a0: 8a19 0080 d315 ec3c 8d94 cd37 b325 4e3d
000003b0: 5996 2988 1aec ac36 030f 9a36 a4f0 b7bb
000003c0: 1cb9 48bd a7d9 a238 a6cf 56bd 633b 373c
000003d0: d189 15bd 82ae 763b 9764 18bc 42cc 2932
000003e0: d180 033d 3cfc b12f d413 3f3c e6be 51b7
000003f0: 5906 18bd 5fab 803a 9962 8c1c 042c e03c
-0.00031396025 -1.1251356e-05 -9.126693e-05 -1.3113383e-07 0.0058263084 2.529193e-06 -0.0030671547 6.8599884e-06
0.0019986494 1.35842235e-08 8.11903e-08 -2.2135511e-07 -2.2931194e-05 -0.00010078485 -6.310965e-09 -2.7331385e-05
-0.00060950464 -0.0016426035 -2.6673519e-05 -0.0013556323 -1.7228202e-06 -0.00022793887 -6.6033112e-06 7.931844e-07
9.395895e-09 7.098413e-06 -0.0020737436 -0.0063392986 0.0017020407 -0.00024136859 6.021516e-06 -8.0008445e-05
-0.00046003232 -1.0035775e-10 -4.2949844e-07 0.0017888279 1.4499768e-09 -3.1795957e-05 -1.9425936e-06 -2.2923057e-08
-5.3645148e-05 -7.132601e-05 -3.6972403e-07 1.487297e-10 -3.7479586e-07 -0.0017168875 -1.65e-42 -0.00011743779
-8.661833e-07 4.5791474e-13 6.593e-42 -3.650087e-07 5.056e-42 0.001973911 -9.660269e-09 -9.1645273e-07
7.349411e-07 5.88e-42 -4.341238e-08 0.0009701254 -2.1854585e-05 -8.228785e-09 -1.06931914e-07 -6.44488e-07
-2.053174e-07 -0.0018353856 -3.3669653e-07 0.0014445022 -2.1507293e-07 -3.0944625e-06 -4.000127e-09 -1.5972917e-05
0.001117395 -1.4095492e-05 -6.3097814e-15 -1.8820054e-06 -8.385323e-05 0.0015386615 -1.3012333e-06 4.903455e-09
-0.0023692471 0.0017778857 0.0017932042 -3.5532678e-06 -1.037927e-07 -2.6166567e-06 8.8468155e-08 -2.3605924e-05
0.0018913553 7.389248e-06 2.7449316e-09 -6.391132e-05 -4.0121313e-07 1.1726712e-06 -4.8517997e-08 5.4019774e-06
-5.0647554e-07 -5.2995572e-09 0.0014170955 -1.7417801e-07 1.3612e-41 -1.45504755e-08 -2.322e-42 -0.0022322542
0.0022742818 -1.5169906e-08 0.0020848298 -3.292741e-08 0.0017688834 0.0017933163 0.00080295315 -2.1613398e-06
-1.10136125e-05 7.864e-42 -9.505978e-06 -4.3511847e-08 9.986144e-06 -0.0016225906 -3.6849257e-09 0.0017018891
-1.00941625e-05 0.0015493882 -6.019164e-08 0.0018011011 -2.651524e-05 0.0012896889 -0.0005505324 -1.6106522e-07
-0.0084736 -0.066073075 -0.08581694 -0.045390736 -0.02933072 -1.9857541e-06 -2.9809485e-11 -0.024614269
8.1877385e-09 0.0063494314 0.0031822207 -1.0353846e-11 7.387953e-05 0.0006526087 0.019300524 0.0069521666
-0.0034542552 0.02030117 -0.07802615 -4.9621918e-05 -0.021928929 -7.9863714e-14 -0.010879928 0.0012447018
-0.028188761 0.004394022 -3.0222466e-07 -6.0545276e-06 -0.008312803 0.016740624 0.006306956 -0.11978505
-1.6343101e-09 -0.011871287 -0.0050952774 7.683208e-08 0.0006353747 -0.016193002 0.001640565 0.0695154
0.00040153842 -0.012711709 0.00019777376 0.0070951213 0.017296147 0.009513488 -0.0040955767 0.029654296
-0.0062553217 0.002412147 0.04729247 -0.06079336 7.1353956e-05 0.0022430744 -0.0124117965 -1.9996348e-08
-2.9868039e-05 1.8277844e-06 -0.014864598 -4.153486e-13 -0.055687595 -0.0017720012 -0.025294306 0.0035275095
0.029440256 -0.017015494 0.0014432885 -0.0066893273 -0.018600006 0.0018819245 0.03366818 -0.04361988
-0.022493143 -0.05503488 0.05594687 -0.022337506 0.029297737 2.998664e-12 -0.014061928 -2.5478286e-09
-0.008046155 0.022817783 -0.0011500824 0.019972606 0.030677082 0.016916085 -0.034857053 0.01567714
-3.960078e-12 -0.012168791 -5.4198444e-11 -0.038791873 -0.017039353 0.0124670165 0.015492013 -0.0072272676
0.00033457094 0.008538918 0.012995997 0.0005497087 -1.3377e-41 0.0006688165 0.00042353797 0.004282861
-9.162e-42 0.028819 2.4507079e-05 0.05032892 -5.103332e-34 5.1534853e-06 4.5913052e-06 -0.0056134034
-0.04900466 7.765303e-05 -0.052444123 0.0111835925 -0.036508385 0.0037640636 -0.009301326 9.8835375e-09
0.03210527 3.2375336e-10 0.011662442 -1.2501818e-05 -0.03711543 0.0009816698 9.28991e-22 0.027364738

linear2.bias f4 [64]
00000000: 34d4 bcb7 b5d5 58bd ff19 0080 8c26 6abc
00000010: 4349 a83d 0e47 103f 1323 2c3d 36f2 c7bc
00000020: 1d63 96ae 8de0 9cbc 3413 0080 ff12 0080
00000030: c47a b3ba d809 0080 9209 0080 b013 0080
00000040: fbbc e33e 561f 0080 b041 29bd cf0b 0080
00000050: c8ec 023a c066 6a3a 17c7 b3be 101c 18b8
00000060: 4c09 873c a4c0 77be 18ed 023e f017 0080
00000070: 7104 723d 1d20 223b d666 8237 7ea4 d03d
00000080: 70f9 d63e 2922 0080 0cf8 99bc e21e e1bb
00000090: a9ab 9b3d 811b 0080 1f75 39b8 4814 0080
000000a0: 211b 0080 1446 1fbb 308f b1bc 5bca 333d
000000b0: e50b 0080 430e 0080 0d74 1e3c a325 d03b
000000c0: 3913 0080 15fc 9d3e d8ba f3b8 4069 d0b8
000000d0: 757f 54be 1d1c abb7 927f 863d 798d fb3d
000000e0: b2d2 d23d b5e5 c6ba 8324 0080 cf7b bd3d
000000f0: 6410 0080 abd6 5f3d 55ca 003e 0de4 efbc
-2.2510161e-05 -0.052938182 -9.326e-42 -0.014291417 0.082170986 0.5635842 0.042025637 -0.024407487
-6.838816e-11 -0.019150043 -6.889e-42 -6.815e-42 -0.0013693203 -3.531e-42 -3.433e-42 -7.063e-42
0.44480118 -1.1241e-41 -0.04132241 -4.236e-42 0.00049943896 0.00089417025 -0.3511283 -3.626576e-05
0.016483925 -0.2419458 0.12785757 -8.587e-42 0.059086267 0.002473838 1.5545094e-05 0.101876244
0.4198718 -1.2254e-41 -0.018795036 -0.0068701366 0.07601101 -9.867e-42 -4.4216515e-05 -7.276e-42
-9.732e-42 -0.0024303244 -0.021674722 0.043894153 -4.267e-42 -5.116e-42 0.009671223 0.006352143
-6.896e-42 0.30856386 -0.00011621945 -9.937817e-05 -0.20751746 -2.039788e-05 0.06567301 0.12282843
0.10294093 -0.0015174659 -1.3098e-41 0.0925213 -5.88e-42 0.054648083 0.12577184 -0.029283548

linear3.weight f4 [32, 64]
00000000: 144e b3b7 acc9 2c3d 631f 0080 908e b931
00000010: fd40 933d ae48 303d 0773 513d 4dca 52b9
00000020: e5c5 1718 4242 2cbd 150b 0080 831c 0000
00000030: b73c c125 921b 0000 e411 0000 6321 0000
00000040: 1cd8 033d b224 0000 fc70 ca3a af12 0080
00000050: 6f8b 8db9 60ab d5bc cc04 dcbc da34 7237
00000060: 6111 9cba 7cdc 173b 40f0 3f3d 5d18 0000
00000070: 3641 033d 001a e6ba ea97 6f37 5f6c 05bd
00000080: becf ab3d 2611 0000 4f92 1ebd 637a 78bd
00000090: cea7 2bbd fd09 0000 9077 9cb8 6a22 0080
000000a0: bd0d 0000 1e2a 39bb 745e 3937 90e5 73bd
000000b0: 0a16 0080 b814 0080 4e06 053d 1d48 773d
000000c0: 610d 0080 7689 963d a0b4 58b9 85bf 4538
000000d0: 1a3d 15bc fb2f 5536 cc97 48bb f65c 91ba
000000e0: 25e8 dabc a642 7035 521d 0000 c90a 01bd
000000f0: 5214 0000 3b4c 4fbd d7d5 153e dcf7 e61d
00000100: 0635 12b8 03e8 4b3c bf0a 0080 64f4 80b7
00000110: d510 9e3d 7a05 c53d 4fed 413d cd8b 24ba
00000120: 7608 3f20 919f 14bd 2d20 0080 051e 0000
00000130: 0817 9d31 7023 0080 5823 0080 4b00 0000
00000140: 02be 843d 5216 0080 4d4e 6e3b 0a1b 0080
00000150: 9d56 4ab9 87c8 d4bc 5bea 0d3d c883 5238
00000160: c129 27bb 22f3 a33c e7fd ce3d a80a 0080
00000170: bb4c 0e3d b1f6 5ebb f468 3f38 9069 483d
00000180: 8cf8 093e 3722 0080 e832 95bd a3e5 d9bd
00000190: 812b 06bd 461e 0000 0840 30b9 0c1e 0000
000001a0: db1b 0080 efab 5136 eaba 1c3a a136 d5bd
000001b0: 8502 0080 181d 0080 9a27 193d 6b67 a13d
000001c0: a21c 0000 d4ca e33d 5c4d bbb9 c4d7 ce38
000001d0: 74c9 073d 6af2 3638 edff 553c a96f 253c
000001e0: cb14 cb3b 3b2c 2f39 6a04 0000 6227 7abc
000001f0: f218 0080 610a 67bc 6489 153e bd54 b8a4
00000200: b4dd 2e34 1447 72ba c211 0000 1b62 bc37
00000210: d73d 00be 5254 bdbc 3e22 b2bd a2ac b6bc
00000220: ae24 0000 5021 8cbc e523 0000 9214 0080
00000230: e62f 3eb4 911e 0080 7a18 0080 e00f 0080
00000240: 2758 cabc fe20 0000 45e5 bebc 710d 0080
00000250: c803 fb37 69b1 553d 1f27 f63d 416c 4735
00000260: 1aa6 f83b af52 c73c 253b 503c 9414 0000
00000270: f01d a0bc 97a1 193c c6bc 54bb 4875 9aba
00000280: 4b19 59bd a123 0000 834b 90bd 9e01 a6bd
00000290: ae1c 373d 5e24 0080 79d2 6ab8 fe0e 0080
000002a0: 6708 0080 8ec9 cf39 56a1 b9b9 5e62 a7bd
000002b0: 511f 0000 810f 0080 f2e7 ecbb 4db9 37bd
000002c0: 3f1b 0000 03dc 0cbd d783 5f37 2ac1 31b9
000002d0: ec1e 983d 4373 0336 a8f3 78bc 5445 803d
000002e0: b07b 8d3c 0462 b3ba ba24 0080 424e 6f3d
000002f0: dc26 0000 255f 40bc 34f3 9dbd 671a 0080
00000300: 8ce4 b62f b63e 78bb 3d1e 0000 42d1 6026
00000310: 5621 42bd 96f9 f43c dc1f febb 32e0 a1ba
00000320: 450f 0080 48bb dc3c 9802 0080 340d 0080
00000330: db01 0000 8c17 0080 3e0c 0080 b21d 0000
00000340: 01a9 b83c 6620 0080 afd9 353c 3e24 0080
00000350: 0fc1 4132 dfc0 403c 6df2 d63c cc8d e83a
00000360: 585b d6b8 f782 2e3c 5946 fcbc 1822 0080
00000370: 4414 ac3a 3534 e73a b987 1b39 4b12 d83c
00000380: f2f9 d33c a119 0000 189f 9bbc 6384 e6bc
00000390: 2a46 b63c 781d 0080 f1ed 073a 620a 0080
000003a0: ac12 0080 2293 8dba 5152 0c11 f705 e5bc
000003b0: 8908 0000 651c 0000 71aa aab1 44cd 5fba
000003c0: 421a 0080 3ff9 f53c 1596 e436 5c34 95b6
000003d0: 0948 ae3c d0f5 f439 7100 43b9 c8a5 c83c
000003e0: a4f9 a33c 0a10 0080 481c 0080 bd9d c63c
000003f0: 3209 0000 9cb4 d8bb e52b c1bc 7206 0080
-2.137482e-05 0.042184517 -1.126e-41 5.400416e-09 0.0719013 0.043038063 0.05113509 -0.00020102524
1.9616204e-24 -0.042055376 -3.975e-42 1.0228e-41 3.3521305e-16 9.89e-42 6.418e-42 1.1977e-41
0.03218852 1.3164e-41 0.0015445049 -6.702e-42 -0.00026997502 -0.026082695 -0.026857756 1.44366295e-05
-0.0011907035 0.002317219 0.04685998 8.74e-42 0.032044612 -0.0017555356 1.428088e-05 -0.032574054
0.08389233 6.152e-42 -0.03871375 -0.060663592 -0.041908078 3.583e-42 -7.46093e-05 -1.2345e-41
4.928e-42 -0.0028253864 1.1048851e-05 -0.0595451 -7.906e-42 -7.432e-42 0.032476716 0.060371507
-4.8e-42 0.07350437 -0.00020666653 4.7146827e-05 -0.009108806 3.1767402e-06 -0.0030608056 -0.0011090327
-0.026722023 8.9503953e-07 1.0518e-41 -0.031504426 7.29e-42 -0.05060981 0.14632355 6.1136774e-21
-3.4858494e-05 0.012445453 -3.855e-42 -1.5372592e-05 0.07718054 0.09620185 0.047345456 -0.00062769355
1.6181129e-19 -0.036284987 -1.1542e-41 1.0769e-41 4.5719197e-09 -1.2713e-41 -1.2679e-41 1.05e-43
0.064815536 -8.007e-42 0.003636259 -9.7e-42 -0.00019296487 -0.025974525 0.034647327 5.0190632e-05
-0.0025507065 0.020013396 0.10107022 -3.823e-42 0.034741145 -0.0034021551 4.5635694e-05 0.048928797
0.1347372 -1.2274e-41 -0.072851 -0.10639503 -0.032756332 1.086e-41 -0.00016808521 1.0779e-41
-9.993e-42 3.1243505e-06 0.000597878 -0.1041081 -9.04e-43 -1.0437e-41 0.037391283 0.078810535
1.0272e-41 0.11122671 -0.00035725057 9.863035e-05 0.033151105 4.3617947e-05 0.013061506 0.010097423
0.006197547 0.00016705778 1.583e-42 -0.015268179 -8.949e-42 -0.014101596 0.14603192 -7.994083e-17
1.6285668e-07 -0.0009242159 6.37e-42 2.245703e-05 -0.1252359 -0.023111496 -0.086979374 -0.022299115
1.3158e-41 -0.017105728 1.2877e-41 -7.379e-42 -1.7712554e-07 -1.0965e-41 -8.78e-42 -5.695e-42
-0.024700237 1.1835e-41 -0.023302684 -4.822e-42 2.9923292e-05 0.052171145 0.120191805 7.4290807e-07
0.00758816 0.024331419 0.012709414 7.382e-42 -0.019545525 0.009376905 -0.003246115 -0.001178422
-0.053002637 1.2781e-41 -0.07045653 -0.08105777 0.044705085 -1.3046e-41 -5.5985965e-05 -5.378e-42
-3.014e-42 0.00039632287 -0.00035406154 -0.08173059 1.1234e-41 -5.562e-42 -0.0072297985 -0.04485445
9.774e-42 -0.034389507 1.3322532e-05 -0.00016951995 0.07427773 1.9587612e-06 -0.015194811 0.06263223
0.017270893 -0.0013685827 -1.3175e-41 0.05842424 1.394e-41 -0.011741434 -0.07712403 -9.471e-42
3.3268e-10 -0.0037879176 1.0847e-41 7.799921e-16 -0.047395073 0.029904168 -0.007755263 -0.0012350141
-5.478e-42 0.026944771 -9.3e-43 -4.736e-42 6.66e-43 -8.447e-42 -4.392e-42 1.0653e-41
0.022541525 -1.1622e-41 0.011099263 -1.3001e-41 1.1277975e-08 0.011764734 0.026238644 0.0017742454
-0.00010221329 0.010651342 -0.030795263 -1.223e-41 0.0013128598 0.001763946 0.00014832513 0.02637591
0.02587602 9.194e-42 -0.01899676 -0.028139299 0.022250254 -1.0571e-41 0.00051852973 -3.725e-42
-6.698e-42 -0.0010801295 1.1069418e-28 -0.027956946 3.062e-42 1.0186e-41 -4.967028e-09 -0.0008537362
-9.42e-42 0.030026076 6.8124014e-06 -4.4466415e-06 0.021274583 0.0004672245 -0.00018596814 0.024493113
0.020016499 -5.754e-42 -1.0145e-41 0.024245137 3.299e-42 -0.006613327 -0.0235805 -2.312e-42

linear3.bias f4 [32]
00000000: 3b25 4d3d 3c2f e43d 18bf 97bd 1070 d73c
00000010: 37d1 383d 0fef b0bd 3355 51bd d9f0 72be
00000020: e34b 0ebd 9d26 ee3d ec97 293c 3ea9 df3e
00000030: 7270 1d3e fde6 9abc e9b4 f13a 4f23 1cbe
00000040: 76dc 003e 90c9 58bb 98c2 533d ad9b 67bb
00000050: 578c 913c c3c4 89bc 8811 6f3e 581b 0080
00000060: d894 093d dd17 0080 71ec d2bd e814 0080
00000070: 18ca 383e 8d5a 193c 66c5 df3e 80ed 15bc
0.050084334 0.11141822 -0.07409495 0.026298553 0.045121398 -0.08639347 -0.051106643 -0.23724689
-0.03474034 0.11628459 0.010351162 0.4368381 0.15374926 -0.018908972 0.0018440756 -0.15247844
0.12584099 -0.0033079125 0.05169925 -0.0035340593 0.017767115 -0.016817456 0.23346531 -9.809e-42
0.033589214 -8.56e-42 -0.10299004 -7.5e-42 0.18045843 0.009359968 0.4370529 -0.009150863

linear4.weight f4 [16, 32]
00000000: c926 263d 75ad e93d 804f 7b3b e44f 053a
00000010: 420c 503e 1e08 283c a217 4c3d 6142 cdbe
00000020: 1e5d 993c 1e21 073e 3567 1abd 5c31 b33e
00000030: ccd9 423e c122 1a3d 0f9a d2bc 8fbf aebe
00000040: 76d4 053e c09b 6fbc 51e3 e83d 66ef 3fbe
00000050: ce66 12bd b142 dfbc 0df8 9b3e 2c0e 0000
00000060: 6956 ffbc af0e 0080 1f9d 55be 760d 0000
00000070: 3590 de3d 7511 f7bc e8e4 ae3e 98c5 0cbd
00000080: 6b19 0080 8a1e 0080 b010 0080 281c 0080
00000090: 761c 0080 5917 0080 8e21 0080 d915 0080
000000a0: 0b09 0080 6c11 0080 fd1a 0080 9822 0080
000000b0: a71e 0080 061d 0080 9f17 0080 cc22 0080
000000c0: fa21 0000 6f19 0080 8419 0000 5e11 0080
000000d0: fe21 0080 230a 0080 8724 0080 3b05 0000
000000e0: 581e 0000 6f23 0080 dc12 0000 f018 0080
000000f0: 021d 0080 ac19 0080 b11f 0000 4b0f 0080
00000100: d326 0080 810d 0080 a11d 0080 410e 0000
00000110: ca13 0080 8722 0080 d917 0080 3614 0080
00000120: e317 0080 cc12 0080 841c 0080 101a 0080
00000130: 1917 0000 a91d 0000 4423 0080 e21d 0080
00000140: 3909 0080 260d 0080 8e1e 0080 9325 0080
00000150: 570b 0080 120b 0080 0a1c 0080 f71f 0080
00000160: ef1d 0000 9922 0080 8818 0080 ff0f 0080
00000170: 2e10 0080 6c19 0080 a620 0000 4d0f 0080
00000180: fd16 0080 d924 0080 fe16 0080 4d14 0080
00000190: 7e1e 0080 531a 0000 8c0e 0080 031e 0080
000001a0: 5019 0080 6d1a 0080 c321 0080 201d 0080
000001b0: 5a22 0080 7022 0000 bc1b 0080 5e0e 0080
000001c0: 9e10 0080 0822 0080 480a 0000 a224 0080
000001d0: d206 0080 1525 0080 e320 0080 9c0d 0000
000001e0: 0a20 0080 b209 0080 d80e 0080 6d1e 0000
000001f0: 6908 0080 310e 0080 be19 0000 c024 0080
00000200: 93b7 203d 936f 2ebd d15c 83bb 583f d4bc
00000210: 1cb6 0cbf 96f6 69bc 1471 5b3d 1675 853e
00000220: c920 0000 eba0 ebbc dff0 3bab cbda 06bd
00000230: 624d 67bc 9401 35b8 c390 fbb2 4f6b e03e
00000240: 5457 113e b725 59ab 0c52 12ba 06dc 2fbd
00000250: d9b1 2fa9 5fcf 16ac d547 5bbe 271c 0080
00000260: e4ef efbc 1617 0000 efa3 203f d306 0080
00000270: a5a6 b33e 300a c7a9 9707 aebd 53db 2eab
00000280: 97c2 893d fd3b fa3d 513c a03d 8787 bc3c
00000290: 741b 4d3e 7eda 883d 7867 9f3d 37a2 213f
000002a0: 5bea 9a3d 69d6 6bbd 43db b0bd eaef 73be
000002b0: 8b42 843d 3552 0ebd 2363 b0bd acc8 233e
000002c0: 0edf 0b3e 507c 98bd 3c91 e83b 096a ea3e
000002d0: 0f57 aebd fab1 acbd b736 abbd 0e26 0000
000002e0: 795e 3c3d f122 0080 e73c 1d3e d80b 0080
000002f0: 53eb 03bd 8a1e abbd d522 6abe 41ea a8bd
00000300: e623 0080 7206 0080 fb15 0080 f30b 0080
00000310: ce13 0080 840d 0080 0a1e 0080 ba0c 0080
00000320: ad1d 0080 030a 0080 d50b 0000 5c21 0080
00000330: 3d0e 0000 7e09 0080 d822 0080 1514 0080
00000340: 1e1f 0080 3b1a 0080 4c13 0080 6d0e 0080
00000350: 4010 0080 7411 0000 b51d 0080 060a 0000
00000360: 780e 0080 5216 0080 e613 0080 971d 0000
00000370: e512 0080 e602 0000 1712 0080 2f1d 0080
00000380: 7d8e ccbd 556b 32be 3c15 88bc bb84 eaba
00000390: 25e0 62bd c49f 16bc e4e2 afbd e7db b4bd
000003a0: 246c a33e 31c7 293e 76e7 0c3f d53e fa3c
000003b0: 13ef 68bc 086c df3d 6244 013f 2fae 95bc
000003c0: 3023 e0be 01e6 d33e df2d be3d 54cf b73e
000003d0: 6171 0a3f 9db1 023f f1d7 9c3e 4a1a 0080
000003e0: 2c23 9aba d116 0000 7e08 c1bd 7616 0000
000003f0: 08e5 8fbe aab5 013f c19f 2e3e dbba 073f
0.040564332 0.114100374 0.0038346946 0.0005085452 0.20317176 0.010255842 0.049827226 -0.40089706
0.01872116 0.13196227 -0.037696082 0.34998596 0.19028395 0.0376308 -0.025708226 -0.34130523
0.13069329 -0.014624536 0.11371482 -0.18743667 -0.035742573 -0.02725348 0.30462685 5.084e-42
-0.031169133 -5.267e-42 -0.20860718 4.829e-42 0.10867349 -0.030159691 0.34159017 -0.034368128
-9.118e-42 -1.0955e-41 -5.986e-42 -1.01e-41 -1.021e-41 -8.376e-42 -1.2037e-41 -7.837e-42
-3.244e-42 -6.25e-42 -9.682e-42 -1.241e-41 -1.0996e-41 -1.0412e-41 -8.474e-42 -1.2483e-41
1.2188e-41 -9.124e-42 9.153e-42 -6.23e-42 -1.2194e-41 -3.636e-42 -1.3104e-41 1.876e-42
1.0885e-41 -1.2711e-41 6.765e-42 -8.946e-42 -1.0406e-41 -9.21e-42 1.1369e-41 -5.486e-42
-1.3928e-41 -4.844e-42 -1.0629e-41 5.113e-42 -7.099e-42 -1.2386e-41 -8.555e-42 -7.25e-42
-8.569e-42 -6.743e-42 -1.023e-41 -9.35e-42 8.286e-42 1.064e-41 -1.2651e-41 -1.072e-41
-3.308e-42 -4.717e-42 -1.0961e-41 -1.3479e-41 -4.068e-42 -3.971e-42 -1.0059e-41 -1.1467e-41
1.0738e-41 -1.2411e-41 -8.8e-42 -5.738e-42 -5.804e-42 -9.12e-42 1.1712e-41 -5.489e-42
-8.247e-42 -1.3218e-41 -8.248e-42 -7.283e-42 -1.0939e-41 9.443e-42 -5.218e-42 -1.0766e-41
-9.08e-42 -9.48e-42 -1.2111e-41 -1.0448e-41 -1.2323e-41 1.2354e-41 -9.949e-42 -5.154e-42
-5.961e-42 -1.2208e-41 3.688e-42 -1.3141e-41 -2.447e-42 -1.3303e-41 -1.1798e-41 4.882e-42
-1.1493e-41 -3.478e-42 -5.325e-42 1.0915e-41 -3.017e-42 -5.091e-42 9.235e-42 -1.3183e-41
0.03923757 -0.042586874 -0.0040088673 -0.02590911 -0.54965377 -0.014279982 0.053574637 0.26065892
1.1761e-41 -0.028763255 -6.677002e-13 -0.0329235 -0.014117571 -4.3155233e-05 -2.9286076e-08 0.4383187
0.1419347 -7.7146227e-13 -0.0005581684 -0.04293444 -3.9012064e-14 -2.1431396e-12 -0.2141412 -1.0099e-41
-0.029289193 8.282e-42 0.6275014 -2.448e-42 0.35088077 -8.8391425e-14 -0.084975414 -6.212159e-13
0.06726568 0.12218473 0.078240044 0.023013843 0.20030004 0.06682299 0.07783407 0.63138145
0.07564231 -0.057577524 -0.08635571 -0.23821989 0.064580046 -0.034746367 -0.08612659 0.15994519
0.13659307 -0.07445586 0.0070973914 0.45784023 -0.08512699 -0.08432384 -0.083600454 1.3651e-41
0.045988534 -1.2535e-41 0.15355264 -4.249e-42 -0.032206845 -0.08355434 -0.2286485 -0.082478054
-1.2878e-41 -2.312e-42 -7.885e-42 -4.287e-42 -7.105e-42 -4.848e-42 -1.0776e-41 -4.565e-42
-1.0646e-41 -3.592e-42 4.245e-42 -1.1967e-41 5.108e-42 -3.405e-42 -1.25e-41 -7.204e-42
-1.1163e-41 -9.41e-42 -6.922e-42 -5.175e-42 -5.83e-42 6.261e-42 -1.0657e-41 3.596e-42
-5.19e-42 -8.007e-42 -7.138e-42 1.0615e-41 -6.778e-42 1.04e-42 -6.49e-42 -1.0469e-41
-0.09988115 -0.17423756 -0.016611688 -0.001789234 -0.055389542 -0.0091933645 -0.08588198 -0.088310055
0.31918442 0.16579892 0.5504068 0.030547539 -0.014217156 0.10909277 0.5049497 -0.018271534
-0.43776846 0.41386417 0.09286093 0.35900366 0.5407925 0.51052266 0.306335 -9.431e-42
-0.001175975 8.185e-42 -0.09425448 8.057e-42 -0.28104424 0.5066782 0.17053129 0.53019494

linear4.bias f4 [16]
00000000: 6b9d 963e f60d 0080 7725 0000 450a 0080
00000010: 99d5 4ebe b73e 08be 7024 0080 7562 ff3b
00000020: 750b 0080 ec8f e43d 8b0d 0000 1b14 813d
00000030: ad79 403e 6c17 0080 25f5 d63e ccef 3abe
0.29416975 -5.008e-42 1.344e-41 -3.684e-42 -0.20198669 -0.13305174 -1.3071e-41 0.0077937194
-4.11e-42 0.111602634 4.858e-42 0.06302663 0.18796416 -8.402e-42 0.41983905 -0.18255538

linear5.weight f4 [4, 16]
00000000: 8dc2 d73e f515 0080 1623 0080 6517 0000
00000010: 7b0a f3be 34ef bfbe 380f 0000 0716 fcbe
00000020: 4923 0000 dda0 44be 8219 0000 974b 603e
00000030: c02a 9c3e f622 0080 8d3c 3c3f 1d88 64be
00000040: f4c4 b6bd f50c 0000 8125 0000 d514 0000
00000050: ae68 63bc ec54 4dbd 5210 0080 6d36 913f
00000060: 4526 0080 727e 96bd a713 0000 5e49 b2be
00000070: 097a e43d 681c 0000 a5d8 b7be 642d 21bd
00000080: e042 0abf c80a 0000 8b22 0000 fa10 0080
00000090: 85fd 4e3f 6371 44bd 0125 0000 1c3a e0bb
000000a0: fc10 0000 8442 60be b707 0000 3a85 65be
000000b0: a9de c0be cc18 0000 270a fa3d 09c7 603f
000000c0: 1b0e 1fbe bf24 0080 4a1e 0080 2c13 0000
000000d0: 6b32 98bd 353f dc3e 2909 0000 4a95 95be
000000e0: 791e 0000 ff9b 4e3e 5c09 0000 5dde 433f
000000f0: a84b 31be 431e 0080 c8e0 2abf 7311 a8bd
0.42140618 -7.877e-42 -1.2586e-41 8.392e-42 -0.47468933 -0.37487185 5.46e-42 -0.49235556
1.2658e-41 -0.1920199 9.15e-42 0.21903835 0.30501366 -1.2542e-41 0.73529893 -0.22317548
-0.089242846 4.648e-42 1.3454e-41 7.473e-42 -0.013879938 -0.050129816 -5.855e-42 1.1344734
-1.3729e-41 -0.07348336 7.05e-42 -0.348216 0.11156089 1.019e-41 -0.35907474 -0.03934993
-0.54008293 3.868e-42 1.2392e-41 -6.09e-42 0.8085559 -0.047959697 1.3275e-41 -0.0068428647
6.093e-42 -0.21900374 2.768e-42 -0.22414103 -0.37669876 8.895e-42 0.12208968 0.87803704
-0.15532725 -1.3182e-41 -1.0866e-41 6.878e-42 -0.074314915 0.43016973 3.286e-42 -0.2921546
1.0932e-41 0.20176695 3.358e-42 0.76511174 -0.17314017 -1.0856e-41 -0.6674924 -0.08206453

linear5.bias f4 [4]
00000000: 532c 473f aecb 833c dbdc a6be 4ebc cebd
0.7780201 0.016088333 -0.32590374 -0.1009451
